results/SMOTE20K/smote420/smote0.15/model.pth (torch, 205093 bytes, 10 tensors)

layers.block_0.layer.0.weight f4 [128, 2]
-1.2351356 -0.32147327 0.6927892 -0.0261344 0.7912424 -0.044145107 -0.82188046 -0.15430428
-1.0258102 0.7474121 -0.77279574 -0.7075609 -0.8894966 0.7687028 0.6191334 0.68020654
0.6653489 0.27694985 -0.38173306 0.3104513 0.08734948 -0.7048591 -0.9748468 -0.57480973
-0.9381304 0.42044005 -0.6931684 0.45720112 0.17322947 -0.47565103 0.8467368 -0.5769681
-0.11622918 0.72109354 0.5114812 0.7209847 -0.37033254 0.44873917 -1.0163978 -0.12700811
-0.5717569 -0.07502366 0.84086573 0.072785474 0.95543647 0.35624248 0.9316944 0.5324826
-0.41161954 -0.5473763 0.67712724 0.32347444 0.64411473 0.27456042 0.36888224 -0.371875
0.96764785 0.45295453 0.31587142 -0.46762845 1.1529033 -0.7459249 0.3649725 -0.24736428
0.38598388 0.56833756 0.2969968 0.55560267 -0.783386 -0.4394988 0.3341514 0.43895864
-0.5014152 -0.22751743 0.91707814 -0.22983079 -0.72351545 0.24214855 0.46493334 0.579233
0.18973616 -0.51555794 1.443319 0.091519475 0.83582944 0.53928745 -0.6658147 -0.4296109
-0.8134378 0.42212608 -0.6340259 0.301653 0.63275635 0.19644426 -0.84423816 -0.111005634
-0.3905995 -0.10169668 0.5997621 -0.47727647 0.78735805 -0.38314417 1.0223392 0.41973796
-0.6149504 -0.62384796 0.3623496 0.31753105 -0.5339661 0.72591215 -0.94839233 -0.35262278
-0.32850447 -0.45491743 0.6312649 0.24259464 -0.47052312 0.34072974 0.6929249 -0.17297612
-0.63768905 -0.20272262 0.6216727 -0.28279728 0.14903042 0.6312371 -0.5938944 0.68984115
-0.31134558 -0.48976067 -0.95673245 0.5345809 -0.8953667 0.26824182 0.8595258 0.5128623
0.21381433 0.48487183 -0.8065198 -0.6202045 -0.30872467 -0.47689882 1.2995083 0.15684609
0.74480987 -0.556333 -0.36228195 0.5027518 -0.35803467 0.4135134 0.7534601 -0.14378051
0.7494344 0.06234742 0.80297 -0.06758853 -0.6037265 0.6001952 -0.53394395 -0.51268744
0.773395 0.6039703 -0.9953941 -0.4861757 -0.56987935 0.31274006 -0.13088188 0.6870763
-0.9213582 0.52000165 0.9076346 -0.094982915 0.63059664 0.42088506 0.46830457 0.64774036
0.687739 0.040770125 -0.5951551 0.34071434 0.89983255 0.11086331 -0.72674733 -0.5252344
-0.8597601 0.051771183 -0.67459095 0.21456741 -0.46103537 0.5597239 -0.26956788 0.6951709
-0.75268286 -0.060970362 -0.08554992 0.4567178 -0.8377701 0.2303125 -0.5098811 0.10931259
-0.87631845 0.49012363 -0.50575614 -0.58525074 0.7728627 -0.2880406 0.6049926 0.06412221
0.38257825 0.61193824 0.41346526 0.46835604 0.9516223 -0.57808185 -0.9038675 0.16149761
-1.1299644 -0.38972795 0.9224068 0.057814885 -0.97803426 0.6538519 -0.41754606 0.71563065
1.1872724 -0.438878 0.9163409 -0.0112932315 -1.0820156 -0.18169226 -0.39797345 0.75127906
0.24112728 0.48638627 -0.2736852 -0.013436069 -0.7153924 0.37630683 0.7126321 -0.5569461
-1.0910712 -0.5777918 -0.92308736 -0.1734671 0.8411043 -0.62035334 -0.6858587 0.5997291
-0.62318057 0.22233567 -0.76679134 0.26474085 0.9512761 0.78664047 0.41695464 0.2725309
00000000: ec18 9ebf 2598 a4be a25a 313f cf17 d6bc
00000010: dd8e 4a3f 80d1 34bd c266 52bf f101 1ebe
00000020: c04d 83bf 6656 3f3f f1d5 45bf b622 35bf
00000030: 0db6 63bf b5c9 443f 877f 1e3f 0422 2e3f
00000040: 4e54 2a3f 5fcc 8d3e 8472 c3be 79f3 9e3e
00000050: 49e4 b23d a571 34bf 8f8f 79bf bb26 13bf
00000060: 5029 70bf eb43 d73e 7c73 31bf 4416 ea3e
00000070: 1163 313e 8888 f3be bec3 583f 2eb4 13bf
00000080: 9009 eebd 9699 383f 6ff0 023f 7492 383f
00000090: 3a9c bdbe 24c1 e53e 5319 82bf 6a0e 02be
000000a0: a95e 12bf 01a6 99bd fa42 573f 8d10 953d
000000b0: 7c97 743f 6a65 b63e 8683 6e3f c850 083f
000000c0: ccbf d2be da20 0cbf 3658 2d3f 719e a53e
000000d0: b4e4 243f 2f93 8c3e 22de bc3e 6666 bebe
000000e0: c5b7 773f a8e9 e73e e6b9 a13e ff6c efbe
000000f0: 5692 933f eff4 3ebf addd ba3e 104d 7dbe
00000100: ae9f c53e 927e 113f f70f 983e fa3b 0e3f
00000110: fc8b 48bf fd05 e1be e415 ab3e 30bf e03e
00000120: bf5c 00bf 54fa 68be a2c5 6a3f c358 6bbe
00000130: 4f38 39bf caf5 773e be0b ee3e 9d48 143f
00000140: 324a 423e 9bfb 03bf adbe b83f 906e bb3d
00000150: ebf8 553f be0e 0a3f d572 2abf f6f5 dbbe
00000160: 763d 50bf e920 d83e 854f 22bf 4372 9a3e
00000170: 52fc 213f af28 493e fe1f 58bf ec56 e3bd
00000180: a8fc c7be 5946 d0bd 028a 193f 955d f4be
00000190: 4c90 493f 792b c4be 03dc 823f e5e7 d63e
000001a0: 646d 1dbf 80b4 1fbf e385 b93e 6e93 a23e
000001b0: 01b2 08bf 61d5 393f d7c9 72bf f98a b4be
000001c0: bd31 a8be f0ea e8be 949a 213f bb6a 783e
000001d0: 68e8 f0be 2174 ae3e 8763 313f a720 31be
000001e0: 973f 23bf 8596 4fbe f125 1f3f ceca 90be
000001f0: 6e9b 183e c198 213f 7709 18bf 6e99 303f
00000200: b068 9fbe e9c1 fabe 6bec 74bf 4bda 083f
00000210: c136 65bf fe56 893e e209 5c3f f24a 033f
00000220: 25f2 5a3e 1f41 f83e 1578 4ebf b9c5 1ebf
00000230: 2911 9ebe 152c f4be 4a56 a63f 439c 203e
00000240: dcab 3e3f d76b 0ebf 057d b9be 58b4 003f
00000250: 5250 b7be 07b8 d33e c3e2 403f 333b 13be
00000260: efda 3f3f 0260 7f3d 718f 4d3f db6b 8abd
00000270: d28d 1abf 65a6 193f 8db0 08bf 7c3f 03bf
00000280: 37fd 453f cc9d 1a3f 26d2 7ebf 05ec f8be
00000290: 9de3 11bf 771f a03e e605 06be 3be4 2f3f
000002a0: 22de 6bbf d41e 053f be5a 683f 6786 c2bd
000002b0: c86e 213f 3f7e d73e 9ec5 ef3e 50d2 253f
000002c0: aa0f 303f 93fe 263d 165c 18bf 1c72 ae3e
000002d0: 6d5b 663f 4e0c e33d 1d0c 3abf c375 06bf
000002e0: 3d19 5cbf 050e 543d feb1 2cbf 8fb7 5b3e
000002f0: d40c ecbe 114a 0f3f cd04 8abe b8f6 313f
00000300: d3af 40bf 0fbc 79bd cc34 afbd ead6 e93e
00000310: 1a78 56bf 0ad7 6b3e 9187 02bf 47df df3d
00000320: 6856 60bf 7cf1 fa3e 3c79 01bf fed2 15bf
00000330: 54da 453f 0f7a 93be cce0 1a3f 8152 833d
00000340: 4ce1 c33e fca7 1c3f b8b1 d33e 5dcc ef3e
00000350: 859d 733f 2cfd 13bf dc63 67bf a15f 253e
00000360: aca2 90bf 6c8a c7be da22 6c3f 4dcf 6c3d
00000370: 7460 7abf d762 273f 99c8 d5be 9233 373f
00000380: 8bf8 973f 9eb4 e0be 5195 6a3f 3f07 39bc
00000390: 7d7f 8abf 890d 3abe 2dc3 cbbe d353 403f
000003a0: 12ea 763e 9f07 f93e 7720 8cbe f522 5cbc
000003b0: f523 37bf 4aab c03e 0f6f 363f 0594 0ebf
000003c0: 39a8 8bbf 2aea 13bf 744f 6cbf 5ca1 31be
000003d0: 9d52 573f 7acf 1ebf 7094 2fbf d987 193f
000003e0: c388 1fbf f6ab 633e 704c 44bf 1d8c 873e
000003f0: d586 733f 4561 493f 147b d53e 2c89 8b3e

layers.block_0.layer.0.bias f4 [128]
0.09697381 0.36849865 -0.10702419 -0.044085596 -0.7447556 0.62252724 -0.77853376 0.32818466
0.64330614 0.6201882 -0.6449284 0.5153099 -0.6040764 0.51704484 -0.51058507 -0.05443663
0.3912027 0.10691679 0.13014357 0.16312999 -0.04727976 0.019879257 -0.3036259 -0.39720583
0.46292007 -0.49964756 0.26954317 -0.4416631 -0.4407316 -0.18578504 0.73710793 -0.19397725
0.30040246 0.6239691 -0.26148885 0.002109266 -0.40592438 -0.15734863 -0.15174052 0.14917357
0.11952872 -0.03007611 -0.55705404 0.44345716 -0.16021916 -0.0031344218 0.50621384 0.009568923
0.643067 -0.043216757 -0.374088 -0.56228393 -0.10651918 0.6446222 0.56888074 0.2356249
-0.25462493 0.42250323 0.53507376 -0.45726153 0.22391275 -0.47885105 0.57503885 -0.45589915
-0.25266942 -0.52546793 -0.21393703 -0.6009654 -0.4330068 0.7653224 0.4047389 -0.15773451
-0.020583933 0.51973486 0.17907839 0.57472706 -0.48090327 0.6604452 -0.5584186 0.44287303
-0.52449626 0.46387404 0.33030224 0.06976787 -0.6140721 0.05288556 0.60366243 0.44056097
0.6322852 -0.42881304 0.17166103 0.28693396 -0.27301267 -0.45988777 0.4709491 0.53542894
-0.30086532 -0.4915688 -0.06388372 0.41272002 -0.37850326 -0.2142407 0.10132424 0.26478502
-0.032868385 0.14981823 0.2860021 -0.36614287 0.3590987 -0.22226395 -0.61657107 -0.5678565
0.39528134 0.007639187 0.042045753 -0.5600492 0.33263594 0.18720803 -0.47276223 0.38983142
0.69923526 0.06230643 0.61278623 -0.6430526 -0.585216 -0.026802162 -0.79161876 0.107805796
00000000: 349a c63d dbab bc3e 802f dbbd 1993 34bd
00000010: 4ea8 3ebf f25d 1f3f fd4d 47bf d207 a83e
00000020: b6af 243f a7c4 1e3f 071a 25bf 59eb 033f
00000030: c0a4 1abf 0d5d 043f b4b5 02bf f2f8 5ebd
00000040: b84b c83e 31f7 da3d 5b44 053e 8c0b 273e
00000050: 6ca8 41bd d3d9 a23c db74 9bbe 905e cbbe
00000060: dc03 ed3e ced1 ffbe 9001 8a3e aa21 e2be
00000070: 93a7 e1be 6f3e 3ebe 1bb3 3c3f f9a1 46be
00000080: 5ace 993e 70bc 1f3f dee1 85be 9c3b 0a3b
00000090: 52d5 cfbe 0020 21be de61 1bbe f5c0 183e
000000a0: 79cb f43d 2d62 f6bc 189b 0ebf d10c e33e
000000b0: 7e10 24be df6a 4dbb 3b97 013f f9c6 1c3c
000000c0: 0aa0 243f 0e04 31bd 7688 bfbe d7f1 0fbf
000000d0: ba26 dabd f605 253f 2ba2 113f a747 713e
000000e0: 335e 82be 5852 d83e 98fa 083f 2f1e eabe
000000f0: 6249 653e f72b f5be bf35 133f 9d6b e9be
00000100: e35d 81be 1185 06bf 4f12 5bbe ded8 19bf
00000110: 11b3 ddbe 2bec 433f f039 cf3e 2885 21be
00000120: a39f a8bc 580d 053f 5360 373e 5021 133f
00000130: f438 f6be f012 293f 85f4 0ebf 41c0 e23e
00000140: 6345 06bf e680 ed3e 601d a93e 75e2 8e3d
00000150: d433 1dbf 879e 583d 9f89 1a3f 3591 e13e
00000160: 71dd 213f 628d dbbe e9c7 2f3e 02e9 923e
00000170: 51c8 8bbe 6976 ebbe 3e20 f13e df11 093f
00000180: 050b 9abe e8ae fbbe 78d5 82bd 0a50 d33e
00000190: 2ecb c1be ea61 5bbe 1583 cf3d e791 873e
000001a0: 00a1 06bd f369 193e de6e 923e 1477 bbbe
000001b0: c9db b73e 2999 63be 9ad7 1dbf 0b5f 11bf
000001c0: 5162 ca3e 2552 fa3b 2b38 2c3d 625f 0fbf
000001d0: 424f aa3e 76b3 3f3e e40d f2be fc97 c73e
000001e0: 1501 333f 0735 7f3d 8fdf 1c3f 189f 24bf
000001f0: b7d0 15bf 3590 dbbc 87a7 4abf 49c9 dc3d

layers.block_1.layer.0.weight f4 [128, 128]
0.053466994 0.006363066 -0.048743907 0.07867403 0.04928659 0.043333333 0.15329918 0.035237167
0.018452387 0.04591719 -0.081109345 0.029940085 0.16147707 0.04491104 0.034829047 0.008079196
-0.0679654 -0.057804734 0.041857198 0.16547212 0.17451526 -0.098003365 -0.023514159 -0.056858905
0.09776122 -0.113791026 -0.055316847 -0.083474346 -0.012650774 0.013940859 -0.056728523 -0.04438432
-0.078911915 0.035792176 0.12795588 -0.071342915 0.001246188 -0.12273067 0.053430796 -0.11932526
0.013431601 -0.17368364 -0.05542984 0.008900827 0.19348285 0.08989834 -0.075441204 0.20378356
0.035183158 -0.15433879 0.026208267 -0.040380333 0.09133025 -0.05900947 0.11689858 0.14714086
-0.05477549 -0.08812402 -0.000860505 -0.025039835 0.06494359 -0.013878208 0.05085465 0.15516265
-0.04160388 0.11025146 0.2028532 -0.030100284 -0.053869415 0.06942487 0.097890526 -0.08355889
-0.067164935 -0.05345924 0.1223427 -0.016053597 -0.11957327 -0.028942918 0.10834427 0.052653413
0.0026663216 0.103703715 0.008006105 0.043669373 0.03636985 -0.21814778 -0.033826243 -0.099241905
0.04148138 0.10510567 -0.14372046 0.123918846 0.081333466 0.1361926 0.019751534 -0.0013613765
0.08180803 0.003407812 0.06692239 -0.0005743002 0.14837328 0.0502061 -0.08725232 -0.07980111
-0.08277534 0.029609775 -0.098080255 0.0630476 0.092913024 -0.1008178 0.028596811 0.04960847
-0.050054174 -0.17336234 0.17129093 0.07996589 -0.07068488 -0.0062072845 0.051559582 -0.03794542
0.05220077 0.16877139 -0.112760395 0.13333564 0.10243096 0.101401545 -0.124523245 -0.10750122
-0.07823594 0.062765405 0.107402705 -0.12789886 0.015667811 -0.11570217 -0.09432377 0.089486726
0.07492092 -0.0006576234 0.0037485496 -0.07572663 -0.10457124 -0.09216757 0.09712654 0.13663356
-0.08512438 -0.012370399 -0.10348847 -0.09321837 -0.056183107 0.24907748 0.14546925 0.08952496
-0.07734961 0.15704767 0.052729025 -0.04897383 0.13307609 0.045960944 0.10925936 0.069777474
0.014351535 -0.012020238 -0.118164875 -0.0013859236 -0.108437195 0.038778465 -0.070154086 0.0053578797
0.04514828 0.24568537 0.19725782 -0.10290206 0.0003075612 -0.133805 0.083924316 -0.16557913
-0.05595385 0.08144025 0.117089614 0.029346902 -0.0737428 -0.038106196 0.04759403 -0.17728813
-0.040345427 0.014202469 0.017015932 0.04676298 -0.14114404 0.041234568 -0.0046828217 -0.034054466
-0.11494142 -0.14139138 -0.039078727 0.08853266 0.042729523 -0.16183208 -0.13195772 0.17556836
0.15109411 -0.09624278 -0.00030968018 0.08538726 -0.0054554213 -0.020801673 0.018447887 -0.03928594
0.08403589 -0.14178431 -0.020867959 0.022760645 -0.077461824 0.12789054 -0.017635671 0.082030125
0.05260279 -0.018905783 0.10334408 -0.17536612 -0.1501991 0.004594613 -0.015685866 0.007057714
-0.02443886 -0.06427538 -0.13085596 -0.07555102 0.015818 -0.00059468707 0.17250358 0.010898554
0.15425861 0.092935964 0.1441219 -0.14600179 -0.16751648 0.09392353 -0.04391624 -0.02379977
0.007647352 0.08218537 -0.2251809 0.0004952851 -0.060773402 0.039660476 -0.037779152 0.13172436
-0.14368983 -0.10926621 0.016836138 -0.017382555 -0.09573781 -0.16814569 0.13970944 0.08900664
00000000: 3500 5b3d 4481 d03b b1a7 47bd da1f a13d
00000010: bce0 493d 4b7e 313d 76fa 1c3e d954 103d
00000020: 7629 973c aa13 3c3d a81c a6bd e944 f53c
00000030: 3f5a 253e a4f4 373d e7a8 0e3d 9b5e 043c
00000040: 7231 8bbd a8c4 6cbd 7472 2b3d 8671 293e
00000050: 21b4 323e fdb5 c8bd c4a0 c0bc e2e4 68bd
00000060: 0937 c83d 450b e9bd eb93 62bd 99f4 aabd
00000070: 3145 4fbc 3368 643c 2b5c 68bd 55cc 35bd
00000080: 929c a1bd d19a 123d de06 033e 3c1c 92bd
00000090: 2157 a33a 385a fbbd 40da 5a3d cd60 f4bd
000000a0: 3810 5c3c 20da 31be 660a 63bd c6d4 113c
000000b0: 5e20 463e 9f1c b83d eb80 9abd a3ac 503e
000000c0: 371c 103d fd0a 1ebe b8b2 d63c d965 25bd
000000d0: 5b0b bb3d eab3 71bd 8668 ef3d 18ac 163e
000000e0: 445c 60bd 5e7a b4bd 8393 61ba 5720 cdbc
000000f0: 2501 853d 6c61 63bc f74c 503d f5e2 1e3e
00000100: d468 2abd 84cb e13d c0b8 4f3e df94 f6bc
00000110: 2da6 5cbd a02e 8e3d d47a c83d ec20 abbd
00000120: c58d 89bd 13f8 5abd cf8e fa3d d582 83bc
00000130: d5e2 f4bd b319 edbc 9ae3 dd3d 1bab 573d
00000140: 74bd 2e3b 9d62 d43d 0a2c 033c a8de 323d
00000150: 8df8 143d 2262 5fbe 638d 0abd 573f cbbd
00000160: 61e8 293d a441 d73d 752b 13be 2ac9 fd3d
00000170: 2992 a63d 1376 0b3e f8cd a13c 3770 b2ba
00000180: f88a a73d 9955 5f3b 9b0e 893d a28c 16ba
00000190: 2aef 173e e9a4 4d3d 58b1 b2bd c46e a3bd
000001a0: 1e86 a9bd 3390 f23c 4dde c8bd 1a1f 813d
000001b0: 2f49 be3d 9079 cebd dc43 ea3c 4032 4b3d
000001c0: 9b05 4dbd e685 31be e466 2f3e 28c5 a33d
000001d0: 3cc3 90bd 7a66 cbbb 2430 533d a86c 1bbd
000001e0: 79d0 553d 68d2 2c3e ecee e6bd 2389 083e
000001f0: 53c7 d13d 9dab cf3d 0b06 ffbd 9a29 dcbd
00000200: 2a3a a0bd 268b 803d f3f5 db3d ebf7 02be
00000210: c859 803c 42f5 ecbd d22c c1bd d144 b73d
00000220: 2470 993d 5c64 2cba 3aaa 753b 9016 9bbd
00000230: 7229 d6bd 5ac2 bcbd 48ea c63d abe9 0b3e
00000240: b155 aebd 37ad 4abc c3f1 d3bd 46e9 bebd
00000250: 4220 66bd 2b0e 7f3e e4f5 143e dd58 b73d
00000260: 7969 9ebd 1bd1 203e 64fa 573d c898 48bd
00000270: 1945 083e 8b41 3c3d 5fc3 df3d 7ee7 8e3d
00000280: b322 6b3c 88f0 44bc 6d00 f2bd e1a7 b5ba
00000290: 5214 debd 2bd6 1e3d f2ac 8fbd 2791 af3b
000002a0: 67ed 383d f294 7b3e f4fd 493e 51be d2bd
000002b0: 2a40 a139 2e04 09be 83e0 ab3d 938d 29be
000002c0: dd2f 65bd 25ca a63d aecc ef3d ea68 f03c
000002d0: 7706 97bd 3e15 1cbd f5f1 423d 058b 35be
000002e0: 3f41 25bd 79b1 683c ff64 8b3c 8a8a 3f3d
000002f0: 1088 10be 94e5 283d 5b72 99bb b27c 0bbd
00000300: 6866 ebbd e7c8 10be 0411 20bd 9c50 b53d
00000310: 2705 2f3d 4fb7 25be ed1f 07be 31c8 333e
00000320: 6ab8 1a3e ef1a c5bd 925c a2b9 84df ae3d
00000330: 64c3 b2bb 4568 aabc 0620 973c 4bea 20bd
00000340: 021b ac3d e82f 11be 48f3 aabc 8874 ba3c
00000350: 4ea4 9ebd bdf5 023e af78 90bc 69ff a73d
00000360: 0676 573d 4de0 9abc 10a6 d33d 2d93 33be
00000370: cbcd 19be 688e 963b a57f 80bc 6544 e73b
00000380: 0134 c8bc cfa2 83bd 1bff 05be 7eba 9abd
00000390: c094 813c c6e4 1bba c7a4 303e d98f 323c
000003a0: f8f5 1d3e 3655 be3d b194 133e 7e81 15be
000003b0: 7189 2bbe fb5a c03d 84e1 33bd bcf7 c2bc
000003c0: a396 fa3b ce50 a83d d295 66be 05d6 013a
000003d0: 88ed 78bd 0673 223d 50be 1abd c0e2 063e
000003e0: 6d23 13be f6c6 dfbd f1eb 893c dc65 8ebc
000003f0: 2f12 c4bd 622e 2cbe fe0f 0f3e 1d49 b63d

layers.block_1.layer.0.bias f4 [128]
0.0040894095 0.060586598 0.020538732 0.013279834 -0.03246589 0.04192229 -0.06368038 -0.0865491
-0.0017519488 -0.058990773 0.04122388 0.062039543 -0.07556195 0.064098835 0.010312908 -0.013169999
-0.038111627 -0.020928657 -0.012486388 -0.033503674 0.04380458 0.0826096 -0.08342108 0.02020808
0.085131966 -0.06097772 -0.005041958 0.013031856 -0.08120346 0.037384942 -0.08577845 -0.086405136
0.07214697 0.09785931 -0.013874083 -0.013431579 -0.045430925 -0.06998092 0.005875692 -0.02039571
0.035852477 0.0367185 0.060953636 0.042965807 -0.05045739 -0.07583668 0.0605552 0.08964526
-0.025278607 -0.07662552 -0.003948706 0.05927685 0.005471852 0.048682824 -0.038467363 -0.021906914
-0.09663916 0.020856526 -0.059724875 -0.07325988 -0.06414152 -0.029007006 0.093850866 -0.03961193
0.04908669 -0.0787867 -0.059323512 0.076944105 -0.047959726 0.0028720237 -0.07219998 0.08301962
0.009162926 0.0048460364 0.041680664 0.0016125707 0.10255258 0.042291846 0.08175654 0.081047855
0.029997483 0.012185834 0.0036548232 -0.032061778 -0.022763817 -0.06632139 -0.03333038 0.1564283
0.06740552 -0.017745046 0.014286207 0.039607562 0.055356596 0.025804881 0.06920383 0.08712447
0.023793602 -0.009152096 -0.036601752 0.05132678 -0.07207049 0.09351441 -0.011018355 -0.003827012
-0.011776827 -0.035269916 0.19448899 0.061468516 -0.075141214 0.079083405 0.09159999 -0.010249506
-0.032414347 -0.009028245 0.082114466 -0.069518104 0.034959283 0.026213948 -0.037838995 0.028829806
-0.014565396 -0.096141554 -0.030481184 0.020458687 0.035645295 0.10787388 -0.0073065427 0.017413564
00000000: 7400 863b a729 783d d840 a83c a993 593c
00000010: f4fa 04bd b5b6 2b3d dc6a 82bd a840 b1bd
00000020: a6a1 e5ba 4fa0 71bd 5fda 283d 2d1d 7e3d
00000030: 39c0 9abd 4046 833d 79f7 283c fbc6 57bc
00000040: f01a 1cbd 9372 abbc b593 4cbc 263b 09bd
00000050: 6e6c 333d 392f a93d acd8 aabd 6a8b a53c
00000060: ab59 ae3d c6c3 79bd 0237 a5bb 9183 553c
00000070: 004e a6bd f420 193d 9dac afbd 2df5 b0bd
00000080: cac1 933d 766a c83d 1f50 63bc 2010 5cbc
00000090: c715 3abd 2852 8fbd e088 c03b e714 a7bc
000000a0: 0cda 123d 2366 163d 85aa 793d eafc 2f3d
000000b0: 68ac 4ebd 4350 9bbd bb08 783d ef97 b73d
000000c0: 1515 cfbc d7ed 9cbd 2664 81bb 48cc 723d
000000d0: 394d b33b a467 473d f48f 1dbd 2176 b3bc
000000e0: c0ea c5bd 4edb aa3c 12a2 74bd 4709 96bd
000000f0: a15c 83bd 1aa0 edbc e234 c03d 1e40 22bd
00000100: 200f 493d ec5a a1bd 36fd 72bd df94 9d3d
00000110: 6b71 44bd 9038 3c3b 95dd 93bd 3106 aa3d
00000120: 1920 163c 80cb 9e3b 58b9 2a3d e55c d33a
00000130: 1607 d23d 373a 2d3d f96f a73d 6bfc a53d
00000140: 48bd f53c 18a7 473c c285 6f3b 3653 03bd
00000150: 2f7b babc 82d3 87bd 7085 08bd be2e 203e
00000160: e80b 8a3d 0f5e 91bc b210 6a3c 8a3b 223d
00000170: 99bd 623d c264 d33c bdba 8d3d 506e b23d
00000180: cdea c23c acf2 15bc b8eb 15bd 083c 523d
00000190: b199 93bd 7c84 bf3d 5586 34bc 9bce 7abb
000001a0: 98f3 40bc 3077 10bd 1f28 473e 69c6 7b3d
000001b0: a3e3 99bd 7bf6 a13d c798 bb3d 8bed 27bc
000001c0: e8c4 04bd 34eb 13bc a12b a83d 825f 8ebd
000001d0: 7731 0f3d a2be d63c 10fd 1abd 7c2c ec3c
000001e0: b3a3 6ebc dde5 c4bd adb3 f9bc fa98 a73c
000001f0: cd00 123d fbec dc3d b96b efbb e4a6 8e3c

layers.block_2.layer.0.weight f4 [128, 128]
-0.1036474 0.045000866 0.067710996 -0.0057901554 -0.048460733 0.017121155 0.06167905 -0.053692337
-0.03091185 0.053187516 0.04527343 -0.051677674 -0.016582556 -0.04104871 0.10086004 0.023022829
-0.035099857 -0.14098538 0.059501607 0.06062779 0.12661304 0.059893925 0.037886158 -0.017726518
0.08877916 -0.054944985 0.060355745 -0.098723985 -0.08092211 0.042053595 0.06816576 -0.033401802
-0.10801973 -0.05684409 -0.05377312 -0.054641303 -0.059141647 0.07477096 -0.01340329 0.027701998
0.008644401 -0.055024963 -0.07132134 -0.0935955 -0.0030481818 0.039042387 -0.029234273 0.026130795
-0.057371676 -0.11474507 -0.10301493 -0.01770063 -0.070162974 0.03853435 0.06777192 0.00050178624
0.13661191 -0.055523273 -0.033563137 0.072624 0.01118507 0.038021557 0.0034852782 -0.01549243
0.02291421 0.011650591 -0.03179443 0.04016997 0.07244091 0.07634702 -0.06291104 0.09062293
0.03182128 -0.06907391 0.016056586 -0.028488794 -0.049118828 -0.04053943 0.040615417 0.011813486
-0.009646414 0.0378183 0.010537759 -0.07669376 -0.034665663 0.06684728 -0.025354082 -0.09011976
-0.0845034 -0.12632921 0.024337316 -0.025005506 -0.026013374 -0.05179781 -0.01832456 0.003924167
0.05640318 0.05251463 -0.048128076 -0.034573343 0.07256138 1.7015382e-05 -0.09871344 -0.039446577
-0.089900695 0.120349534 -0.03667115 0.077688806 0.043887984 -0.0341508 -0.023020023 -0.17142315
0.033085305 0.06713665 0.050045744 -0.01927118 -0.076643236 -0.022181684 -0.008167723 0.03367611
0.02751051 -0.02563018 -0.026895897 -0.006719247 0.09003447 0.006412266 -0.07778169 -0.049504172
0.055571597 -0.082301974 -0.088388346 -0.070374474 -0.03441599 0.06855307 -0.043581482 0.012407023
0.012180742 -0.15497056 0.06554527 0.10196059 0.18298027 0.017788589 -0.06790634 0.09043329
-0.030412108 -0.013872058 0.029476319 0.027415873 -0.020149125 0.014471066 -0.032426503 -0.048810024
-0.010209355 0.120795995 -0.069644675 -0.02828472 -0.013254501 -0.043211494 -0.0175351 -0.10707404
0.070521355 -0.09910293 -0.054848947 -0.036602728 -0.013668198 0.05646147 0.07056393 0.021711094
0.008635535 0.09894668 -0.056642674 0.12976596 -0.083264224 -0.060287856 -0.077310055 -0.028835107
0.095923126 0.026244802 0.098135434 -0.0034025675 -0.05632828 -0.06388994 -0.08194433 -0.08639743
-0.09437085 -0.05507184 -0.13003977 0.120810665 0.19413055 -0.08707278 0.02653234 -0.037983023
0.04907142 0.05096491 -0.08420428 0.07305408 -0.030560873 0.01270045 0.053834848 -0.15970798
-0.06692828 0.038282387 -0.07268172 0.1467112 -0.10784082 0.061236586 0.112988226 -0.13182615
0.040009055 0.036131848 0.069555566 -0.042427775 -0.104324944 0.015737647 0.13921331 -0.0008216512
0.10171902 -0.05155704 -0.037479278 -0.03915247 -0.07054162 0.12505667 0.03578844 -0.22816232
-0.17055546 -0.12053918 -0.08284169 0.020117255 -0.12406722 -0.017832909 0.13141634 -0.07094318
0.089534424 0.05078267 0.046202693 -0.0008564595 -0.12893873 0.06299212 -0.011774321 -0.17136736
-0.12783466 0.046561416 -0.20225401 0.10126574 0.031581435 -0.0056162034 -0.17259467 -0.03278693
-0.08412548 0.014854184 -0.19292459 0.04227612 -0.08422234 0.101700164 0.035239678 -0.054851577
00000000: 1745 d4bd d452 383d 10ac 8a3d 58bb bdbb
00000010: c37e 46bd aa41 8c3c 2ca3 7c3d 7fec 5bbd
00000020: d93a fdbc 27db 593d a270 393d f8ab 53bd
00000030: 24d8 87bc b122 28bd b58f ce3d 5f9a bc3c
00000040: dec4 0fbd 795e 10be f5b7 733d d854 783d
00000050: d9a6 013e 5553 753d 842e 1b3d 3437 91bc
00000060: d9d1 b53d fe0d 61bd 9637 773d cd2f cabd
00000070: 7eba a5bd 6440 2c3d 7d9a 8b3d 54d0 08bd
00000080: 7339 ddbd 59d5 68bd 3441 5cbd 8fcf 5fbd
00000090: 833e 72bd 8421 993d 7999 5bbc 4def e23c
000000a0: 3fa1 0d3c db61 61bd ec10 92bd ffae bfbd
000000b0: 01c4 47bb e9ea 1f3d b77c efbc 4010 d63c
000000c0: 90fe 6abd 77ff eabd 7ef9 d2bd e900 91bc
000000d0: 9bb1 8fbd 32d6 1d3d 01cc 8a3d 4e8a 033a
000000e0: fee3 0b3e 5f6c 63bd 8079 09bd e4bb 943d
000000f0: 9541 373c 7ebc 1b3d 4469 643b f6d3 7dbc
00000100: 95b6 bb3c 1fe2 3e3c e03a 02bd 4489 243d
00000110: e65b 943d d45b 9c3d 81d7 80bd 8498 b93d
00000120: 0857 023d 9f76 8dbd 1a89 833c 5561 e9bc
00000130: d330 49bd ac0c 26bd 5a5c 263d 5a8d 413c
00000140: fe0b 1ebc 5de7 1a3d 91a6 2c3c 9e11 9dbd
00000150: 95fd 0dbd 3ae7 883d 5db3 cfbc b590 b8bd
00000160: 1e10 adbd 725c 01be 0d5f c73c 59d8 ccbc
00000170: 001a d5bc f129 54bd 631d 96bc 4c96 803b
00000180: 0507 673d 9519 573d f221 45bd c79c 0dbd
00000190: 109b 943d 41bc 8e37 462a cabd bc92 21bd
000001a0: db1d b8bd d179 f63d 7d34 16bd 4f1b 9f3d
000001b0: e3c3 333d b6e1 0bbd 7d94 bcbc 8d89 2fbe
000001c0: 7584 073d f17e 893d c4fc 4c3d 98de 9dbc
000001d0: 21f7 9cbd 5db6 b5bc ead1 05bc f6ef 093d
000001e0: b95d e13c 62f6 d1bc c954 dcbc 212d dcbb
000001f0: fe63 b83d fc1d d23b 024c 9fbd e3c4 4abd
00000200: 0b9f 633d f08d a8bd f304 b5bd 7e20 90bd
00000210: c8f7 0cbd 8d65 8c3d 7f82 32bd d446 4b3c
00000220: bc91 473c 9ab0 1ebe 993c 863d b7d0 d03d
00000230: 2e5f 3b3e 60b9 913c 7b12 8bbd 1735 b93d
00000240: d022 f9bc a147 63bc 5278 f13c 4197 e03c
00000250: c70f a5bc 0d18 6d3c a7d1 04bd 05ed 47bd
00000260: 2345 27bc e463 f73d dea1 8ebd 5bb5 e7bc
00000270: 6829 59bc 89fe 30bd c5a5 8fbc a249 dbbd
00000280: 806d 903d 7af6 cabd 4aa9 60bd beec 15bd
00000290: 94f0 5fbc 2444 673d d283 903d 77db b13c
000002a0: 0f7c 0d3c 8fa4 ca3d 2602 68bd 5ee1 043e
000002b0: 6f86 aabd 66f0 76bd bc54 9ebd 9a37 ecbc
000002c0: 5873 c43d 57ff d63c 3bfb c83d 9cfd 5ebb
000002d0: 7cb8 66bd bbd8 82bd 6ed2 a7bd 23f1 b0bd
000002e0: 8145 c1bd 0293 61bd 2529 05be 956b f73d
000002f0: 29ca 463e 3753 b2bd 5a5a d93c 1694 1bbd
00000300: 1dff 483d 95c0 503d 4b73 acbd 619d 953d
00000310: cc5a fabc 8c15 503c ee81 5c3d 7d8a 23be
00000320: b211 89bd fecd 1c3d 27da 94bd 763b 163e
00000330: a6db dcbd 37d3 7a3d 5f66 e73d 6ffd 06be
00000340: 89e0 233d fdfe 133d 2673 8e3d bfc8 2dbd
00000350: 51a8 d5bd 3dec 803c ef8d 0e3e 1464 57ba
00000360: 1052 d03d 7a2d 53bd df83 19bd 575e 20bd
00000370: 2078 90bd db0e 003e e696 123d 62a3 69be
00000380: 17a6 2ebe 3fdd f6bd e7a8 a9bd f1cc a43c
00000390: f416 febd 5216 92bc 0192 063e a84a 91bd
000003a0: d35d b73d 7d01 503d 093f 3d3d 0684 60ba
000003b0: 8408 04be 0302 813d 15e9 40bc ed7a 2fbe
000003c0: 17e7 02be 2fb7 3e3d ad1b 4fbe 6a64 cf3d
000003d0: 895b 013d 2108 b8bb a8bc 30be 974b 06bd
000003e0: fb49 acbd f75e 733c 068e 45be ba29 2d3d
000003f0: c37c acbd 2d48 d03d 7b57 103d 0cac 60bd

layers.block_2.layer.0.bias f4 [128]
-0.04788475 0.007153732 0.023413535 -0.08298596 -0.018518487 0.058128122 -0.02235394 -0.03941972
0.034538884 -0.029973507 -0.030343765 0.066829 0.091290794 0.04638224 -0.04674299 0.010005759
0.07898102 -0.10834226 -0.025563238 0.073172405 -0.0012301444 -0.020923227 -0.003768045 -0.045678236
-0.060213372 -0.084842406 -0.035772502 -0.044497997 -0.028935675 0.092165425 -0.06880011 0.1237402
-0.076166175 -0.05061333 0.057266604 -0.06118499 0.008812645 0.008921772 -0.0538814 0.020338165
-0.013407653 -0.06523956 0.031667188 -0.022269651 0.019062653 0.022385962 0.027779298 0.057109285
0.017512714 0.015895858 0.006111007 -0.002827763 -0.019708626 0.06230931 -0.03302769 -0.06387487
0.021726271 0.058906674 -0.0464432 0.052527234 0.06778334 -0.005019457 -0.04743487 0.014793006
0.07293244 -0.004764627 0.035155747 0.077201106 0.009279789 0.07475191 -0.054070033 0.0042497464
-0.00639115 0.0397344 -0.0008465623 0.05165357 0.0147729805 -0.04828918 0.00264767 0.08092387
0.08464972 0.08495354 0.059419066 0.026661955 -0.08566835 0.07426191 -0.047416806 -0.0858006
-0.039462015 -0.10816499 0.057233647 -0.06572311 0.05982133 0.07778793 0.00020872567 -0.009491489
-0.04968917 0.11010661 0.07553538 -0.06161645 0.054427486 -0.055462677 -0.05667147 0.06828247
-0.005676517 0.03845334 -0.04511379 -0.023362815 0.05106449 -0.051046584 -0.030269051 0.016142191
0.011965544 -0.01977467 -0.081139326 -0.07449167 0.078490146 0.034565337 -0.015623536 -0.01873829
0.02119022 -0.011287285 0.05111523 0.004878541 -0.04611441 0.06922249 -0.012270649 0.040143203
00000000: cd22 44bd da69 ea3b becd bf3c 8bf4 a9bd
00000010: 15b4 97bc c117 6e3d 9c1f b7bc 9376 21bd
00000020: a578 0d3d 008b f5bc 7d93 f8bc a5dd 883d
00000030: abf6 ba3d 4efb 3d3d 9475 3fbd 32ef 233c
00000040: cdc0 a13d 8ce2 ddbd ff69 d1bc 6adb 953d
00000050: cc3c a1ba 3067 abbc 4ef1 76bb 1a19 3bbd
00000060: 4ca2 76bd dbc1 adbd 3086 12bd 8843 36bd
00000070: 820a edbc 3ac1 bc3d 12e7 8cbd 816b fd3d
00000080: 03fd 9bbd ec4f 4fbd 6390 6a3d 1d9d 7abd
00000090: ea62 103c a02c 123c beb2 5cbd 399c a63c
000000a0: c6ab 5bbc 529c 85bd 74b5 013d d86e b6bc
000000b0: 4829 9c3c c462 b73c 6991 e33c 6deb 693d
000000c0: d376 8f3c 0838 823c d83e c83b fe51 39bb
000000d0: fc73 a1bc 0c38 7f3d 0b48 07bd d4d0 82bd
000000e0: 4bfb b13c 2048 713d 3a3b 3ebd cc26 573d
000000f0: fed1 8a3d 427a a4bb 114b 42bd 5d5e 723c
00000100: 9a5d 953d 9720 9cbb 79ff 0f3d 9d1b 9e3d
00000110: 420a 183c 8817 993d 8a78 5dbd 7541 8b3b
00000120: da6c d1bb 8ac0 223d d6eb 5dba b292 533d
00000130: 5f0a 723c e0ca 45bd 8884 2d3b 6abb a53d
00000140: d55c ad3d 1ffc ad3d 6861 733d 2c6a da3c
00000150: e372 afbd a116 983d 2038 42bd 3ab8 afbd
00000160: eca2 21bd 9b85 ddbd d46d 6a3d d799 86bd
00000170: 3607 753d 474f 9f3d 5fdd 5a39 3182 1bbc
00000180: df86 4bbd 937f e13d 4bb2 9a3d 8861 7cbd
00000190: 5bef 5e3d d52c 63bd 5820 68bd aed7 8b3d
000001a0: 1302 babb 4081 1d3d 3dc9 38bd 6063 bfbc
000001b0: 0029 513d 3916 51bd cdf6 f7bc a13c 843c
000001c0: 210b 443c 7dfe a1bc 602c a6bd 178f 98bd
000001d0: 71bf a03d 6294 0d3d dcf9 7fbc 0b81 99bc
000001e0: 1d97 ad3c 4eee 38bc 345e 513d 2bdc 9f3b
000001f0: 77e2 3cbd 85c4 8d3d d50a 49bc 336d 243d

layers.block_3.layer.0.weight f4 [128, 128]
0.0893488 0.0070780944 0.003600965 -0.024501208 0.0975602 -0.041736532 -0.039712347 0.005567715
-0.027350537 -0.0039746608 0.031497847 -0.067142345 0.10647416 0.046204496 -0.05418052 -0.153843
-0.018831374 0.02993167 0.090794355 0.023953266 0.019683275 0.07898208 0.14623734 0.06488358
0.101781204 -0.025629349 -0.032371268 -0.029332755 -0.027289357 -0.10924197 0.040010486 0.15433402
-0.05844963 0.08638979 -0.0014057858 -0.06511913 0.0900858 -0.15076607 0.04256643 0.08483326
-0.10349245 -0.13558453 0.013805194 0.01877909 -0.07345732 0.106416985 0.052588087 -0.022342544
-0.016825205 0.06424886 -0.006443502 0.012582435 -0.07935665 -0.019376814 -0.10083143 -0.06882457
-0.03805027 -0.027416987 -0.16925123 0.055029128 -0.050323866 -0.11649601 -0.047870323 0.03860893
0.12383771 -0.07596321 0.044921007 -0.005776766 0.12485648 0.061456792 -0.021135308 -0.032277804
0.016205126 0.023267265 -0.03737191 0.037501015 0.034521587 0.08318841 0.09641237 -0.09022249
-0.044299148 -0.045040287 0.068341635 -0.05095199 -0.06622376 -0.049507793 -0.093221255 0.16064045
0.1241402 -0.079414725 -0.016447667 -0.042066332 0.0059508937 0.07463319 0.008176312 0.0047014486
0.042177733 0.0007075925 -0.04887717 -0.11276411 0.007835651 -0.14929761 -0.009410233 0.06854661
-0.0013502004 0.031456612 -0.051228464 0.06264923 0.051466744 -0.04473524 0.08653159 0.04145979
0.13141231 0.023328122 0.056716405 0.039250914 0.0013090143 0.11650216 -0.031447526 0.071736544
-0.09293557 -0.018639522 0.07357779 0.042882383 0.06951098 0.107242055 -0.037137806 -0.028483907
0.091274686 -0.12327058 0.15231729 -0.050374564 0.069744036 -0.010255322 -0.05029856 -0.05997793
0.05933448 -0.0047204653 -0.071344234 -0.12217196 0.077970065 -0.10587127 -0.06422649 0.0451094
0.019128723 -0.029677814 0.000121064906 0.14113246 -0.040998373 0.030885752 -0.05218342 -0.06876572
0.024138669 -0.11872425 0.07127754 0.023978045 -0.114513665 -0.013344427 -0.03211483 -0.0025905136
-0.032065477 0.017164761 -0.11480543 0.06990662 -0.01673232 0.060275413 0.047320813 -0.085641414
-0.08782257 -0.03921637 0.10020212 0.058042176 0.033578977 0.061544597 -0.0062717716 -0.05921882
0.10248308 0.07367255 0.008630981 0.20397511 -0.022194404 -0.011038764 0.100910105 -0.09127413
-0.06774985 0.030845702 0.0644204 0.009202268 0.02471655 -0.09773425 -0.11791682 0.112509124
0.006564618 0.046819344 0.047722023 -0.08758586 -0.11700647 -0.1005703 0.049396336 -0.05074781
-0.0405858 -0.040654615 -0.029462487 -0.13786383 -0.042089734 0.026421469 0.06623431 0.17917058
0.08776554 -0.06444802 0.09224544 0.112291165 0.2544383 0.057213753 0.44241104 -0.038656585
-0.18984476 0.018963277 0.0067486716 0.0940982 -0.06038534 -0.08863746 -0.15276802 -0.095709115
0.05322831 0.028760772 -0.045558106 0.015743563 0.028812101 -0.047862988 0.046194926 -0.051731504
-0.09185303 0.20644943 0.013106415 -0.07707088 -0.017215421 -0.058609545 -0.12473848 -0.064138636
-0.03057952 0.10664933 -0.1722552 -0.058545947 -0.20695543 -0.34301648 0.013823919 0.13595314
0.14190432 0.012979405 -0.031992264 -0.005062697 0.02522222 -0.19675939 -0.05481345 -0.06809405
00000000: 81fc b63d 5cef e73b 2bfe 6b3b c2b6 c8bc
00000010: a4cd c73d edf3 2abd 6aa9 22bd 6171 b63b
00000020: 3c0e e0bc df3d 82bb e303 013d ed81 89bd
00000030: 200f da3d ed40 3d3d 65ec 5dbd 0589 1dbe
00000040: 4144 9abc 4333 f53c 64f2 b93d a439 c43c
00000050: d23e a13c 5bc1 a13d 3ebf 153e afe1 843d
00000060: aa72 d03d a4f4 d1bc bc97 04bd 3f4b f0bc
00000070: ee8d dfbc 41ba dfbd 09e2 233d bd09 1e3e
00000080: e168 6fbd 21ed b03d 5842 b8ba 2e5d 85bd
00000090: e77e b83d 6c62 1abe 235a 2e3d 0fbd ad3d
000000a0: daf3 d3bd acd6 0abe 2e2f 623c 9bd6 993c
000000b0: cb70 96bd 26f1 d93d 9b66 573d b607 b7bc
000000c0: 03d5 89bc e894 833d 0324 d3bb 8f26 4e3c
000000d0: bd85 a2bd 20bc 9ebc b580 cebd e5f3 8cbd
000000e0: 9ada 1bbd 9799 e0bc 3250 2dbe 3966 613d
000000f0: 6620 4ebd 7695 eebd ac13 44bd 6624 1e3d
00000100: a09e fd3d 9992 9bbd 17ff 373d 074b bdbb
00000110: c1b4 ff3d 1eba 7b3d f423 adbc bb35 04bd
00000120: 9dc0 843c fe9a be3c 4a13 19bd aa9a 193d
00000130: 8266 0d3d af5e aa3d d973 c53d 92c6 b8bd
00000140: 0673 35bd 2a7c 38bd b3f6 8b3d 09b3 50bd
00000150: 53a0 87bd afc8 4abd c9ea bebd ee7e 243e
00000160: 383d fe3d 30a4 a2bd 42bd 86bc bf4d 2cbd
00000170: b7ff c23b 49d9 983d f0f5 053c 9c0e 9a3b
00000180: 8fc2 2c3d bb7d 393a 6d33 48bd dff0 e6bd
00000190: 1a61 003c 79e1 18be 612d 1abc 2a62 8c3d
000001a0: 35f9 b0ba a6d8 003d f0d4 51bd 3d4e 803d
000001b0: cbce 523d 4d3c 37bd 7937 b13d bed1 293d
000001c0: f390 063e 9e1a bf3c 764f 683d 91c5 203d
000001d0: 3b93 ab3a af98 ee3d 1fcf 00bd 9cea 923d
000001e0: 0155 bebd e9b1 98bc f4af 963d 70a5 2f3d
000001f0: c65b 8e3d b9a1 db3d d01d 18bd 1557 e9bc
00000200: 39ee ba3d 4975 fcbd 10f9 1b3e 8f55 4ebd
00000210: f6d5 8e3d f005 28bc dd05 4ebd 6bab 75bd
00000220: b608 733d 22ae 9abb ed1c 92bd 4b35 fabd
00000230: c5ae 9f3d 09d3 d8bd 2e89 83bd a2c4 383d
00000240: d7b3 9c3c e31e f3bc 3ae4 fd38 0785 103e
00000250: e9ed 27bd 1e04 fd3c 48be 55bd 0bd5 8cbd
00000260: 75be c53c b325 f3bd f5f9 913d 9b6d c43c
00000270: 2486 eabd 95a2 5abc d78a 03bd 9bc5 29bb
00000280: 1757 03bd 1d9d 8c3c 1c1f ebbd 342b 8f3d
00000290: 3812 89bc 5ae3 763d 78d3 413d c464 afbd
000002a0: 52dc b3bd 58a1 20bd c536 cd3d a2bd 6d3d
000002b0: 1c8a 093d 3016 7c3d 6f83 cdbb 6f8f 72bd
000002c0: a6e2 d13d a2e1 963d f568 0d3c dade 503e
000002d0: 0ad1 b5bc efdb 34bc f5a9 ce3d eeed babd
000002e0: 6fc0 8abd 20b0 fc3c d8ee 833d 1cc5 163c
000002f0: 5d7a ca3c e528 c8bd 607e f1bd 2f6b e63d
00000300: 021c d73b a4c5 3f3d 2b78 433d 3760 b3bd
00000310: 17a1 efbd cdf7 cdbd d053 4a3d f0dc 4fbd
00000320: 4c3d 26bd 7485 26bd 505b f1bc 2d2c 0dbe
00000330: 4966 2cbd d671 d83c dba5 873d 7e78 373e
00000340: 6bbe b33d 53fd 83bd 2deb bc3d e9f8 e53d
00000350: bd45 823e f858 6a3d b383 e23e 5e56 1ebd
00000360: aa66 42be e058 9b3c f623 dd3b 8fb6 c03d
00000370: 9e56 77bd 8e87 b5bd 386f 1cbe 2403 c4bd
00000380: ee05 5a3d b69b eb3c 239b 3abd a5f8 803c
00000390: 5b07 ec3c fb0b 44bd e436 3d3d 6ae4 53bd
000003a0: 711d bcbd 7b67 533e 4abc 563c 56d7 9dbd
000003b0: 5b07 8dbc 9010 70bd e376 ffbd 1e5b 83bd
000003c0: e781 fabc f76a da3d ab63 30be e0cd 6fbd
000003d0: 20ec 53be db9f afbe b87d 623c 4d37 0b3e
000003e0: 5e4f 113e 92a7 543c 520a 03bd fbe4 a5bb
000003f0: d49e ce3c 4b7b 49be 1184 60bd e574 8bbd

layers.block_3.layer.0.bias f4 [128]
-0.03961923 0.10521172 0.04631768 -0.06196322 -0.030018307 -0.015204943 0.040265117 -0.030522244
0.049470924 0.10608524 0.08677341 0.10855951 -0.08077412 -0.08173446 0.01043274 0.062984124
0.016502913 -0.04142386 0.051715568 0.038579773 -0.009532577 0.083684 -0.08803729 0.05726159
-0.04249858 0.038488675 0.011934159 -0.035056643 0.07649949 -0.00025221444 -0.030827317 -0.0023768025
0.072610065 0.10826537 0.07634536 -0.090294786 -0.005084747 -0.07726031 0.07014619 0.07984099
0.0055316444 -0.06980367 -0.021917554 -0.02317467 0.08742369 0.036646403 -0.034298357 -0.01201704
-0.06482921 0.07054964 -0.04000952 0.025227375 0.013501149 -0.038285267 0.000256807 0.069453426
0.025363002 -0.04844465 -0.075621486 0.03956887 -0.055212684 0.036645465 0.008689566 -0.081412345
-0.068140015 0.013992654 -0.08086505 0.052166767 -0.023820112 0.0256268 -0.057620663 0.015384467
0.05708214 -0.06865794 -0.047003273 -0.079742 0.031515393 -0.059601672 0.06660302 0.09782502
-0.08156893 -0.018373094 -0.0006541402 0.06799024 0.0028996086 -0.015580534 -0.055724546 -0.03506426
-0.009961341 -0.03614628 0.020245412 0.062388495 0.059211217 0.021465117 -0.052099586 0.0050181164
0.062213123 0.059620317 -0.02065003 -0.027466059 0.08206552 -0.059218474 -0.050547894 0.012218617
-0.018371096 0.03770275 -0.0078089135 -0.033972643 -0.070580475 -0.008171115 -0.05341299 0.04446408
0.059170607 -0.07363146 0.00094630104 0.08261195 -0.0381606 -0.034160532 -0.017446145 -0.037791695
0.0015861968 -0.033744756 -0.078688234 -0.018698528 0.10771726 0.047657598 0.045411635 0.07231106
00000000: c647 22bd 3e79 d73d 9cb7 3d3d 25cd 7dbd
00000010: f4e8 f5bc 271e 79bc 09ed 243d c909 fabc
00000020: 06a2 4a3d 3843 d93d 42b6 b13d 7354 de3d
00000030: e76c a5bd 6664 a7bd 15ee 2a3c d2fd 803d
00000040: 1e31 873c 11ac 29bd b4d3 533d d305 1e3d
00000050: 872e 1cbc 8462 ab3d e54c b4bd 218b 6a3d
00000060: fe12 2ebd 4da6 1d3d 7e87 433c 8e97 0fbd
00000070: c4ab 9c3d a63b 84b9 9289 fcbc 21c4 1bbb
00000080: 96b4 943d 3cba dd3d f55a 9c3d 79ec b8bd
00000090: f39d a6bb a73a 9ebd cea8 8f3d ac83 a33d
000000a0: cc42 b53b 3af5 8ebd 718c b3bc ced8 bdbc
000000b0: 310b b33d 8a1a 163d 6f7c 0cbd 1ee3 44bc
000000c0: 2dc5 84bd 547c 903d 06e1 23bd a4a9 ce3c
000000d0: ec33 5d3c 03d1 1cbd 0da4 8639 993d 8e3d
000000e0: 12c6 cf3c e66d 46bd 70df 9abd f812 223d
000000f0: b226 62bd 8e19 163d ae5e 0e3c 84bb a6bd
00000100: fe8c 8bbd 7241 653c 939c a5bd d2ac 553d
00000110: 6522 c3bc 4bef d13c a503 6cbd 220f 7c3c
00000120: f6ce 693d 899c 8cbd 8186 40bd c64f a3bd
00000130: 4916 013d e220 74bd 2a67 883d 7c58 c83d
00000140: 9c0d a7bd 2c83 96bc 9b7a 2bba 783e 8b3d
00000150: 5c07 3e3b 7f45 7fbc 6c3f 64bd 8b9f 0fbd
00000160: e434 23bc 1f0e 14bd b5d9 a53c 148b 7f3d
00000170: 7687 723d 9dd7 af3c 6066 55bd 036f a43b
00000180: 30d3 7e3d 6f34 743d 402a a9bc 8000 e1bc
00000190: f811 a83d 128f 72bd 4f0b 4fbd 9830 483c
000001a0: fb7e 96bc 336e 1a3d eae1 ffbb e626 0bbd
000001b0: 7f8c 90bd 24e0 05bc 94c7 5abd f81f 363d
000001c0: e15c 723d 17cc 96bd 3011 783a 7430 a93d
000001d0: 4a4e 1cbd eaeb 0bbd 38eb 8ebc 77cb 1abd
000001e0: efe7 cf3a f137 0abd 4c27 a1bd a82d 99bc
000001f0: de9a dc3d 9d34 433d 8d01 3a3d d217 943d

layers.output.weight f4 [2, 128]
-0.11122379 -0.7534004 0.22700901 -0.22047186 1.0268192 -0.27621365 -0.16695751 -0.06283075
-0.65986615 0.16766809 -0.15784559 -0.24417336 -0.06459981 0.42889655 0.20180637 0.16297644
-0.72733295 0.15257603 -0.18757012 -0.7501397 -0.25842673 0.42331433 -0.060370173 0.848925
0.15012531 -0.1061892 -0.18994361 0.5102529 0.013016474 -0.08161293 -0.097114645 -0.1374577
0.22006193 -0.08828439 -0.7247087 -0.10454844 -0.10340667 -0.9681601 -0.18009958 0.7985642
0.9231375 -0.5511451 -0.23807698 0.8075128 -0.053989008 0.15298353 -0.14866447 0.6728464
-0.11200011 -0.14796527 0.13020587 -0.25642967 0.09953574 0.10775757 -0.033815525 0.21229945
-0.110251464 -0.16886522 -0.06385687 0.08039965 -0.90027833 0.09668811 -0.12822129 0.67694026
-0.14028513 0.044819374 0.80436224 0.024428722 -0.028514631 -0.01802709 -0.13023026 0.28986856
0.65688324 0.086411595 -0.18710956 -0.20364352 -0.18544306 0.28060344 -0.50482637 -0.066054575
-0.455534 -0.14754564 0.114866376 -0.060084973 0.44408315 0.15786637 0.14698257 -0.09863611
-0.112665236 -0.16173041 -0.9403689 0.043110754 -0.07265287 -0.38316095 0.18855947 0.1363339
-0.6765685 0.0032725541 -0.27717537 0.18999447 0.11075234 0.05819524 0.05621864 0.5989947
-0.54108083 -0.18492725 0.012118854 0.26461712 0.20376082 0.7207629 0.10927071 -0.18536614
-0.12433555 0.40347496 0.8263624 -0.14558747 0.9806152 -0.055691022 -0.024103183 -0.28169024
-0.30014983 -0.17938383 -0.07212432 0.44615835 -0.7955421 -0.12699376 -0.15841486 -0.23962076
-0.114879906 0.44713074 0.1393907 -0.061103396 -0.26651374 0.0680559 0.2687623 0.8238641
0.6580926 0.1147115 0.15215628 0.0062459046 0.20778283 -0.013650433 0.041756257 -0.012040313
0.16228367 0.059466276 -0.18125778 0.3473341 -0.0034167226 0.15771262 -0.31817564 -1.0117944
0.2050358 -0.15046301 -0.15458119 0.89697003 0.2078429 -0.35753977 -0.5353065 -0.14379072
0.14572659 -0.27634355 0.5091726 -0.14206672 -0.20558815 0.7889457 0.20047991 -0.29483554
-0.38219118 -0.100046396 -0.2454291 -0.54121417 -0.37653315 0.13470362 0.10294452 -0.68384457
-0.13307342 -0.31099975 0.21445133 -0.048492838 -0.13976038 -0.07378551 0.004240342 -0.13671024
0.19422278 0.15457107 0.0023582669 0.17501363 0.36486903 0.013057773 0.07470575 0.087861
-0.10462406 -0.19402261 -0.99347603 0.0910027 -0.20322594 0.35001838 -0.033280812 -0.42213494
-0.2503882 -0.21985811 -0.10698758 -0.041049846 0.07569271 0.17741047 0.7092825 -0.27132338
0.2788723 -0.15459372 0.16529307 0.16589363 -0.3616285 0.18515958 -0.26809376 -0.14682819
0.15728258 -0.1287794 0.44107226 0.20823507 -0.3073225 0.25358668 -0.02991299 0.16697401
0.42519227 0.16250071 -0.24536817 -0.036566418 0.24898809 -0.16618049 0.10683672 0.65442944
0.5748937 -0.016975325 0.30725747 -0.13450667 -0.1439867 -0.13240863 -0.2568528 -0.08478173
0.42123356 0.4739976 0.2992718 -0.00025645073 -0.61859673 -0.07675291 0.21784699 0.30340517
-0.8032477 -0.122079246 0.3222817 -0.47765678 -0.06987867 -0.076569594 -0.18967187 0.1815122
00000000: 4cc9 e3bd d9de 40bf 0d75 683e 60c3 61be
00000010: d06e 833f e06b 8dbe e9f6 2abe 69ad 80bd
00000020: fdec 28bf 2fb1 2b3e 46a2 21be 9508 7abe
00000030: e84c 84bd 5498 db3e 54a6 4e3e 4ce3 263e
00000040: 7e32 3abf e43c 1c3e 6212 40be 2809 40bf
00000050: 8250 84be a8bc d83e b746 77bd 2653 593f
00000060: 73ba 193e b979 d9bd 9480 42be ef9f 023f
00000070: 0d43 553c ae24 a7bd 0be4 c6bd b6c1 0cbe
00000080: ea57 613e 72ce b4bd 8286 39bf 7e1d d6bd
00000090: e0c6 d3bd 57d9 77bf 066c 38be b46e 4c3f
000000a0: bd52 6c3f d817 0dbf 74ca 73be 29b9 4e3f
000000b0: 9423 5dbd b7a7 1c3e 803b 18be a93f 2c3f
000000c0: 5060 e5bd 3584 17be b054 053e c04a 83be
000000d0: 65d9 cb3d 00b0 dc3d 2682 0abd 0765 593e
000000e0: 85cb e1bd 01eb 2cbe 64c7 82bd 92a8 a43d
000000f0: a478 66bf 6a04 c63d 714c 03be f54b 2d3f
00000100: e8a6 0fbe 8594 373d afea 4d3f be1e c83c
00000110: 8497 e9bc 8cad 93bc 155b 05be a769 943e
00000120: 8029 283f 90f8 b03d a699 3fbe ed87 50be
00000130: c9e4 3dbe 41ab 8f3e 4d3c 01bf 9f47 87bd
00000140: c13b e9be 3416 17be 103f eb3d a91b 76bd
00000150: de5e e33e b9a7 213e 9982 163e bb01 cabd
00000160: 08bd e6bd a89c 25be 04bc 70bf e794 303d
00000170: 07cb 94bd ac2d c4be bc15 413e 1d9b 0b3e
00000180: 9833 2dbf 5978 563b eee9 8dbe e98d 423e
00000190: 1fd2 e23d 225e 6e3d 8445 663d b757 193f
000001a0: 4684 0abf 925d 3dbe 288e 463c e57b 873e
000001b0: ada6 503e eb83 383f 52c9 df3d 9fd0 3dbe
000001c0: a3a3 febd 4594 ce3e 7c8c 533f e214 15be
000001d0: 9909 7b3f 451c 64bd 0a74 c5bc b439 90be
000001e0: 3dad 99be 65b0 37be eab5 93bd de6e e43e
000001f0: a6a8 4bbf a70a 02be 8137 22be 255f 75be
00000200: 2846 ebbd 52ee e43e 70bc 0e3e 8e47 7abd
00000210: 7d74 88be e460 8b3d 369b 893e c2e8 523f
00000220: c278 283f dded ea3d dbce 1b3e 72aa cc3b
00000230: 06c5 543e 11a6 5fbc 9c08 2b3d bc44 45bc
00000240: b12d 263e e992 733d a49b 39be c6d5 b13e
00000250: 18eb 5fbb 6b7f 213e ebe7 a2be 7b82 81bf
00000260: e8f4 513e fa12 1abe 884a 1ebe d49f 653f
00000270: c5d4 543e 740f b7be d909 09bf e03d 13be
00000280: 5a39 153e e77c 8dbe 2359 023f f079 11be
00000290: b385 52be 58f8 493f 9b4a 4d3e aff4 96be
000002a0: 90ae c3be 20e5 ccbd c451 7bbe 038d 0abf
000002b0: f4c8 c0be bfef 093e 94d4 d23d 7010 2fbf
000002c0: 6644 08be 5c3b 9fbe 2199 5b3e 6da0 46bd
000002d0: 581d 0fbe dc1c 97bd 91f2 8a3b c5fd 0bbe
000002e0: 56e2 463e e147 1e3e 278d 1a3b c636 333e
000002f0: 1dd0 ba3e 45f0 553c 54ff 983d 78f0 b33d
00000300: 2445 d6bd ddad 46be 7254 7ebf a05f ba3d
00000310: 761a 50be 9c35 b33e 7651 08bd 1222 d8be
00000320: e232 80be 7c22 61be 4e1c dbbd e223 28bd
00000330: c804 9b3d 17ab 353e 8a93 353f e6ea 8abe
00000340: 5ac8 8e3e d14d 1ebe 9642 293e 05e0 293e
00000350: 5f27 b9be 799a 3d3e 9643 89be 215a 16be
00000360: af0e 213e bfde 03be 39d4 e13e 933b 553e
00000370: 6059 9dbe 1dd6 813e 160c f5bc 3cfb 2a3e
00000380: cdb2 d93e 9666 263e cb41 7bbe abc6 15bd
00000390: bcf6 7e3e 382b 2abe 36cd da3d b088 273f
000003a0: 3c2c 133f d60f 8bbc da50 9d3e 1ebc 09be
000003b0: 4071 13be 2196 07be 3682 83be 0ba2 adbd
000003c0: edab d73e d0af f23e 273a 993e 3c74 86b9
000003d0: 5b5c 1ebf a130 9dbd 4813 5f3e ec57 9b3e
000003e0: a4a1 4dbf af04 fabd 1b02 a53e 6e8f f4be
000003f0: 8c1c 8fbd 85d0 9cbd 5839 42be 56de 393e

layers.output.bias f4 [2]
0.10326272 0.010759422
00000000: 687b d33d 4948 303c
