results/VANILLA/Vanilla999/vanilla20k/model.pth (torch, 205093 bytes, 10 tensors)

layers.block_0.layer.0.weight f4 [128, 2]
000000 e5 83 87 bf 3f 2d 30 be 8a 11 18 bc 69 12 2c 3f
       -1.0587126 -0.1720476 -0.009281525 0.6721559
000010 41 7b 58 3f f4 2b 50 3e de e1 76 3f 5e 77 c8 be
       0.8456307 0.20329267 0.96438396 -0.3915357
000020 f4 8e 4c 3f 28 37 06 3f 5c 73 3a 3f e4 fd f2 be
       0.7990563 0.5242791 0.72832274 -0.47459328
000030 56 d3 91 3f 62 5b 25 bf 96 f3 3c bf ad 7a 72 3c
       1.139262 -0.64592564 -0.7380918 0.014799756
000040 9e 28 87 bf 02 16 c1 bd 34 1f 1b bf 49 e6 7b 3e
       -1.055927 -0.09428026 -0.6059449 0.24599566
000050 ef a8 21 3f bc 68 b7 be 28 1f 93 bf 5a c9 53 3c
       0.631484 -0.35822093 -1.1493883 0.012926424
000060 c2 b6 13 3f 0a 8a 50 bf 6d 52 16 3f 4d a8 1e 3f
       0.5770074 -0.8146063 0.5871952 0.61975557
000070 fc 0b 53 3f 2e bb 8a bd 69 b4 38 3f 24 e9 05 3e
       0.8244016 -0.06773983 0.72150284 0.13077217
000080 a0 a6 30 3f 3d 24 c8 3e 2b ab 18 3f 70 7b a5 bd
       0.6900425 0.39090148 0.5963618 -0.080801845
000090 d0 20 c3 be 97 74 17 3f db 9c 35 bf df 26 0a 3d
       -0.3811097 0.59162277 -0.7094247 0.033728477
0000a0 e1 32 28 bf d1 de 3e 3e 66 a0 7c bf 21 d0 9a 3d
       -0.65702635 0.18639685 -0.9868225 0.07559229
0000b0 d0 74 32 bf 3b cd 65 be aa bf 55 bf ca 8a bf be
       -0.6970949 -0.2244157 -0.8349558 -0.37410575
0000c0 f6 9c 05 3f d4 aa 3a bf a8 72 66 3e 7f 8a 3e be
       0.5219263 -0.72916913 0.22504675 -0.1860752
0000d0 6a a8 63 bf 9f 00 37 bf d3 ee 84 bf 31 46 22 3f
       -0.88928854 -0.7148532 -1.0385383 0.63388354
0000e0 92 ea 54 bf 3c 9f c1 be e0 97 ef 3d cf 4b 8a bc
       -0.83170426 -0.378168 0.1169889 -0.016881851
0000f0 15 d9 fa 3e 0d 7d 07 be e6 9d 94 be bb 2c 24 3f
       0.48993745 -0.13231297 -0.29026717 0.64130753
000100 01 01 98 3e 43 54 44 bf da 7a 74 be 2e e6 c5 be
       0.29688266 -0.76691073 -0.23874989 -0.38652176
000110 08 fe fd be 6e 4a e6 3e e7 7d 59 bf e8 52 e9 3e
       -0.49607873 0.4497866 -0.84957737 0.45571065
000120 75 23 82 3f 86 2d 10 3d 88 11 71 3f d9 56 97 3e
       1.0167071 0.035199665 0.94167376 0.29558447
000130 51 53 87 3f 57 2f 71 bd 06 05 b5 be a5 64 18 bf
       1.0572301 -0.058883037 -0.35355395 -0.5952857
000140 c7 7a 77 bf 0d b3 b5 be 22 ac 47 bf 03 cc e9 be
       -0.9667172 -0.35488167 -0.7799703 -0.4566346
000150 e9 13 00 3f c2 49 20 bf 12 38 c8 bd 9f fb f3 be
       0.5003038 -0.62612545 -0.097763196 -0.4765291
000160 6a 04 68 bf ae 09 f7 3e ee 63 49 bf 12 65 1f bf
       -0.90631735 0.48249573 -0.78668106 -0.62263596
000170 79 70 7e bf d6 6a bf 3d 46 92 8e bf ad 07 d0 be
       -0.9939037 0.09346549 -1.1138389 -0.40630856
000180 ca d8 80 bf c9 cb 12 be 31 89 24 3f 0b ed 20 3f
       -1.0066159 -0.1433555 0.6427184 0.628617
000190 ea 49 23 3f 73 ff 06 3f 8e fa 66 3e 11 17 3c bf
       0.6378466 0.52733535 0.22556517 -0.73472697
0001a0 95 69 b6 3e d0 93 3d bf 63 5c 53 bf ca da f8 be
       0.35627428 -0.7405367 -0.82562846 -0.48604423
0001b0 62 0e 6f bf 30 57 d2 3e 50 ec e0 3e f2 98 9d be
       -0.9338132 0.41082144 0.43930292 -0.3078075
0001c0 ec b4 88 3e fa 28 04 3f 40 3d b2 3e e6 d3 fa be
       0.26700532 0.51625025 0.34812355 -0.4898979
0001d0 b3 85 08 3f 51 7b 51 bf 44 2c 5a be e4 32 fc 3e
       0.5332901 -0.8182879 -0.21305948 0.49257576
0001e0 ac 19 cb 3e 58 68 1e 3f 9a a1 19 bf 26 d3 1d bf
       0.39668024 0.61877966 -0.6001221 -0.6165031
0001f0 e7 4a e4 3e df ec 04 bf e9 bc 14 3f de 5f 37 3f
       0.44588396 -0.51923937 0.58100754 0.71630657
000200 c6 02 75 bd 7c cd 3b bf 91 83 74 bf 61 d0 c0 bd
       -0.059817098 -0.7336042 -0.95513254 -0.09414745
000210 0a d6 10 bf 35 c2 13 3f 26 87 6c 3f 78 1b 0e be
       -0.565766 0.5771821 0.9239372 -0.13877666
000220 89 bf 2a 3f 8e 80 b0 3e f8 2c 0e bf 18 c7 3f be
       0.6669851 0.3447308 -0.55537367 -0.18728292
000230 d5 d0 53 bf f6 e8 20 3f 1f 08 42 3f c8 ed b0 be
       -0.8274053 0.6285547 0.7579364 -0.34556413
000240 59 23 cf be b1 fd 3d bf 0b 26 93 bf 8d c6 8e 3e
       -0.40456656 -0.7421523 -1.1495985 0.27885857
000250 ac 6c 57 3e 24 75 19 3f 6c 09 52 bf 69 5e dc bc
       0.21037549 0.5994437 -0.82045627 -0.026900487
000260 4d ab 5b 3f f9 ae 07 3e e7 71 80 bf ca db 05 3f
       0.8580826 0.1325034 -1.003476 0.52288496
000270 b7 4c 13 bf 9e 5c 17 3f c8 8b 4d 3f 5d f7 a5 be
       -0.5753893 0.591257 0.80291414 -0.32415286
000280 49 a6 9b 3f b8 b3 0f 3e ec be 2d 3e 6f cd 09 3f
       1.2160121 0.14033401 0.16967362 0.5382909
000290 a5 81 8c bf 09 b9 14 3f 67 36 2f 3e e9 d4 43 bf
       -1.0977064 0.5809484 0.17110597 -0.7649675
0002a0 2e 9a 96 3f 9c f8 a1 bc b6 84 8f 3f e3 fd 8b be
       1.1765802 -0.019771867 1.1212375 -0.27342138
0002b0 c0 de 80 be d9 66 6a 3e a5 1b a8 be 19 67 47 bc
       -0.25169945 0.22890796 -0.3283359 -0.0121705765
0002c0 78 1a 50 bf ed 8d 01 3e 85 12 f2 bc c1 75 db bd
       -0.8129039 0.12651797 -0.029549846 -0.10715819
0002d0 13 c0 72 bf 3a cc 80 be 72 d2 5d 3f 3e 60 c9 3d
       -0.9482433 -0.25155813 0.8664924 0.0983281
0002e0 d1 11 1b bf 9b 50 a2 be d3 f8 0c 3e 03 05 39 3f
       -0.6057406 -0.31702122 0.13766794 0.7227327
0002f0 e4 10 af bd 26 30 ca be 57 f9 7f 3f a8 11 04 3b
       -0.085481435 -0.3948986 0.9998984 0.0020152126
000300 c5 a1 ac bd 6f e7 22 3f c4 e3 23 bf 50 13 74 3d
       -0.084292926 0.6363439 -0.6401942 0.05958873
000310 24 39 65 3f 50 af 1b 3f 7e 76 ed bd ec 5c 3d bf
       0.89540315 0.6081438 -0.11594866 -0.7396991
000320 7e 81 ed 3e c3 3d ee be e4 91 08 3f 6d 67 9d 3e
       0.46387857 -0.46531495 0.5334761 0.3074297
000330 36 f1 65 3f c7 60 d2 be 26 11 a7 3e 2b 5f ac bc
       0.89821184 -0.4108946 0.3263027 -0.021041473
000340 a2 02 63 bf 94 85 e9 bb 06 0e 43 3f 3f c3 04 3f
       -0.8867589 -0.0071265195 0.76193273 0.5186042
000350 69 17 31 3f 22 57 9a be a1 8a 91 3c 0a aa 0b bf
       0.69176346 -0.30144602 0.017766299 -0.54556334
000360 88 64 f0 3c 5b cc 9c 3e 37 ab 5e 3f 49 98 b0 be
       0.029344812 0.3062466 0.86980003 -0.34491184
000370 66 d9 14 3f 1f 5d 9f bd 67 99 9c be 17 a1 ce be
       0.58144224 -0.07781433 -0.30585787 -0.40357277
000380 b3 a5 47 bf 46 78 aa be 22 e1 26 3f 9f 34 ad bd
       -0.7798721 -0.33294886 0.65187275 -0.08457302
000390 19 a2 49 bf b6 49 f7 3d 62 d5 39 bf ae 61 83 3e
       -0.78762966 0.12074606 -0.7259122 0.2566046
0003a0 17 9b 28 bf 9d 34 8b be a1 60 91 3f f1 fb bc 3e
       -0.6586165 -0.27188578 1.1357614 0.36910966
0003b0 90 a9 93 3e 9b 5a d5 be 29 ee f2 be fe b2 fe 3e
       0.28840303 -0.4167069 -0.47447327 0.49745935
0003c0 d2 e3 3c bf 7a 19 e8 3e da 0d 6a bf 48 6f 4f be
       -0.73785126 0.45331937 -0.91427386 -0.20257294
0003d0 79 d4 51 bf 70 c1 43 be c4 54 24 bf 4b 84 f2 bd
       -0.8196483 -0.1911676 -0.6419184 -0.11841639
0003e0 70 68 66 3f 29 6e f6 3e d3 53 e0 3e 27 2e 34 3f
       0.9000311 0.4813092 0.43813953 0.7038292
0003f0 07 82 77 3e 6f cf 24 bf 95 ac 9f bf 42 75 dd bd
       0.24170695 -0.6437902 -1.2474543 -0.10813381

layers.block_0.layer.0.bias f4 [128]
000000 c9 91 d5 3d 4a 3c 0b 3d 1b 0b e5 bd f0 ef ae 3e
       0.10428197 0.033993043 -0.11183759 0.34167433
000010 65 fc 0d bf 1a 3d 31 3f cd 97 12 3f 0e fd 0b 3f
       -0.5546325 0.6923386 0.5726288 0.54683006
000020 b2 76 a2 3d 26 0c 09 bf 9d f5 19 3f 6f d5 11 3e
       0.079327956 -0.5353416 0.601404 0.14241575
000030 27 28 2f 3f ab 2d fe be 8b 9b e0 3e b3 8f d1 be
       0.6842064 -0.49644217 0.4386867 -0.40929946
000040 30 55 1c 3f 4a 22 c3 3e b7 38 d6 be 50 4c d3 3e
       0.61067486 0.38112098 -0.41840145 0.4126916
000050 a7 84 ac 3e 40 ce 0e 3c 53 c3 cd be 1a 55 00 be
       0.33694956 0.008716166 -0.40188083 -0.12532464
000060 7b 22 f7 be a5 a8 02 3f 8f dc 32 3f c3 33 0a bf
       -0.48268494 0.5103858 0.69867796 -0.5398523
000070 a0 31 05 3f d9 c0 30 3f c6 cc 12 3f c8 3d 3f be
       0.52028847 0.6904426 0.5734371 -0.18675911
000080 de a5 11 3f e0 1a 30 bf 35 fc 3a 3d 68 74 d4 be
       0.5689372 -0.6879101 0.04565068 -0.4149506
000090 f0 57 57 be 82 c3 cd be 7b bf 39 3d d1 4d 9e be
       -0.21029639 -0.40188223 0.045348626 -0.30918744
0000a0 ed 4f ed 3e 56 5d 49 be 71 9c c9 3e 50 9b dc be
       0.4635004 -0.19664511 0.39377168 -0.43087244
0000b0 50 76 02 bf 44 2b 3c 3f ed cf 5b be 1e 11 b5 3e
       -0.5096178 0.7350352 -0.21466036 0.35364622
0000c0 69 0f b8 bb 84 2a 14 bf 2b ba 1d be 21 e0 42 3f
       -0.0056170714 -0.57877374 -0.15403049 0.76123244
0000d0 d9 0d ec be e3 c2 d4 3e 1d 15 c2 be 99 e6 31 3e
       -0.46104315 0.41554937 -0.37906733 0.17373122
0000e0 a8 fa 45 bc 14 a2 c7 3e 93 3f 0a bf ab 8b ce 3e
       -0.012083687 0.38990843 -0.54003257 0.40340933
0000f0 58 f3 a1 3e 4e 43 62 bc 18 c3 38 3f 3e 7d 1b bf
       0.3163097 -0.013809992 0.7217269 -0.6073798
000100 33 62 f8 3e d2 c0 66 3e 22 ee d4 3e 7a 82 c3 3e
       0.4851242 0.22534493 0.4158793 0.38185483
000110 7d 8c bb 3c 57 c9 81 3e 4e 26 0a bf 0b 93 9f 3e
       0.022894138 0.25348923 -0.539647 0.31166872
000120 8c 41 a7 be 62 f7 7c be d5 f5 14 3f 06 4c 06 3f
       -0.32667196 -0.24703744 0.5818761 0.5245975
000130 5d fa 7a 3d 54 4f c7 be 60 14 9b bd 9f bd 1f 3f
       0.06127392 -0.3892771 -0.075722456 0.62398714
000140 47 8b c2 bd be a9 a7 be 0d 0c da be bf 30 8e 3e
       -0.09499221 -0.3274669 -0.4258732 0.27771565
000150 59 94 9f 3c 63 6f 79 3e ff 2a 16 3f 98 5a 0a 3f
       0.019479917 0.24358897 0.58659357 0.54044485
000160 d4 29 11 bf a9 40 04 bf ad ad e2 3e a0 e4 2f 3d
       -0.5670445 -0.51661164 0.4427313 0.042942643
000170 2d 42 25 3f 3b 59 02 bf cc 1e 16 bf 02 58 f3 3d
       0.645541 -0.50917405 -0.5864074 0.118820205
000180 22 2d f2 3e 0a 07 17 3d 92 b7 0b bf 6d 92 f4 be
       0.4730006 0.036871947 -0.5457698 -0.47767964
000190 8b 3e dc 3e c7 49 aa be 19 2a 98 3e 52 6b d0 be
       0.43016466 -0.33259413 0.29719618 -0.4070688
0001a0 47 12 93 3e c5 a9 09 bf 37 cb 1e bf cd 0e 1d bf
       0.28724882 -0.5377467 -0.6202883 -0.6135071
0001b0 d3 04 32 3f 9a 01 84 3e 2f f1 94 3e 71 5a c0 3e
       0.6953861 0.25782472 0.29090258 0.37569
0001c0 59 da 12 bf af d8 27 bf 60 6e 1c 3f f2 ee 10 3e
       -0.5736442 -0.6556501 0.6110592 0.1415365
0001d0 55 b3 90 be 9b d8 88 be 57 5e fa 3d 62 ba 8a 3e
       -0.2826182 -0.26727757 0.12225025 0.27095324
0001e0 d3 46 31 bf 74 9c 11 3f a7 9f 43 3e 43 ec 4e bd
       -0.69248694 0.56879354 0.19103871 -0.050518285
0001f0 68 cf 1c bf aa ef 20 bf 1b b4 aa bd d4 4a c8 3d
       -0.61253977 -0.628657 -0.08335134 0.09779897

layers.block_1.layer.0.weight f4 [128, 128]
000000 1f 9e 10 3a c8 2c e8 bc b4 93 65 bc 6b 66 9b 3b
       0.0005516726 -0.028341666 -0.014012266 0.004742434
000010 d7 64 28 bd cd 0f 39 3d 9f d5 12 3d c2 91 83 bd
       -0.041111793 0.045181084 0.035848256 -0.064242855
000020 20 d7 ea bd 66 f1 ae bd 06 d0 9f bc 57 99 ea bd
       -0.11466813 -0.08542137 -0.019508373 -0.114550285
000030 e2 99 40 3d 36 da 75 bd e9 32 f4 bc 9f 37 30 3d
       0.047021754 -0.060022555 -0.029809432 0.043021794
000040 67 4d a5 3d ac a8 f3 bb e1 dd c6 bd b0 39 33 3d
       0.08071404 -0.0074358787 -0.09710289 0.043756187
000050 6f 35 33 bd bf 41 a4 bd fc 3f d0 bd 37 f2 92 3d
       -0.04375213 -0.080203526 -0.10168454 0.07175105
000060 35 24 8e bd b6 92 97 bc 05 3d 7e 3c 93 61 93 3c
       -0.069405 -0.018502574 0.015517478 0.017990863
000070 89 0e 9f 3d 6b d1 5a bc 45 9e 2c bd 88 68 7f bd
       0.07766444 -0.013355593 -0.042143125 -0.06235555
000080 0e 10 e3 3d 5b cc 6c 3d 56 0a 5a bd fa fd 2c bd
       0.110870466 0.057812076 -0.053232513 -0.0422344
000090 a7 16 c9 3d ac 25 5a 3d c8 f1 ed 3d 33 8b cb 3c
       0.09818774 0.053258583 0.11618382 0.024846649
0000a0 0a 17 fc 3c 82 ad 84 bd f5 f9 a3 3d 51 c7 c0 bb
       0.030772705 -0.064784065 0.0800666 -0.0058831354
0000b0 95 8a c3 bd fd 63 7a 3d 4a 5f 9d bd 2e 88 b6 3c
       -0.09547917 0.061130513 -0.076841906 0.022281732
0000c0 4d 4c 01 be 80 c1 9a bc 03 89 67 3d 31 68 4a 3d
       -0.12626763 -0.018891096 0.05652715 0.04941577
0000d0 7e 92 de bb f3 cf 16 bd ad e3 16 be 24 ca ea 3d
       -0.0067923656 -0.03681941 -0.14735289 0.114643365
0000e0 e9 af a3 bd b8 45 fe 3d b3 9b 4a bd b9 b5 24 3a
       -0.079925366 0.124156415 -0.049464893 0.00062831823
0000f0 c6 8b 07 bd 45 ee a5 bc d9 dc 3d bd 55 07 97 bd
       -0.033092283 -0.020255217 -0.046353195 -0.07374445
000100 31 af ac 3d a3 8c 97 bd a6 eb 97 bd ce 6e b5 3d
       0.084318526 -0.07399871 -0.07417993 0.08859025
000110 46 b0 16 bd e3 2a 53 3d 82 8c d3 bd d0 d0 ed 3d
       -0.0367892 0.05155457 -0.10329534 0.116120934
000120 f2 39 51 bd 99 21 1e bd 45 1b 61 3d 58 00 97 bd
       -0.05108065 -0.03860626 0.054957647 -0.073731124
000130 3c 9c 8f 3c 75 dc 10 be 18 53 18 bd 56 fa 50 bb
       0.017530553 -0.14146598 -0.03718862 -0.0031887493
000140 68 95 ca 3c c9 94 ce bd 26 ac 2b bd 0f fe cc 3d
       0.024729446 -0.10086972 -0.04191222 0.10009395
000150 02 3e 3f 3e 76 21 c5 3d 91 eb 2e 3d a4 54 92 bd
       0.18675998 0.09625523 0.042705122 -0.0714505
000160 ca 13 06 bd 8e 0c 2e bc 3c e2 83 3d 6b ac cb bc
       -0.032733716 -0.01062311 0.06439635 -0.024862489
000170 9f b2 b8 bd c9 e0 24 bd a5 e4 81 bd 93 9e 56 bd
       -0.09018444 -0.040253434 -0.063424386 -0.052397322
000180 27 8d 5f 3d 1e f0 a2 bd cd db 8d bd 4a 33 8a bd
       0.054577973 -0.07955955 -0.06926689 -0.06748064
000190 d4 80 dc 3d 42 d0 5b bc fa 1f 1b 3e 8b d6 cf 3c
       0.107667595 -0.013416352 0.15148917 0.025370857
0001a0 b5 c0 1b bc 5e 29 d1 3c 01 2d 0c bc bb 37 94 bd
       -0.009506394 0.02553242 -0.008555652 -0.07237192
0001b0 2a 4e ac bd ff cc 2a 3e 0f d5 08 bd df 2b 78 3c
       -0.08413346 0.16679762 -0.033406314 0.015147178
0001c0 7d 09 99 3d 85 7c 90 3d 06 f4 8f bd 32 9b 1b bd
       0.07472513 0.07055 -0.07028966 -0.037989803
0001d0 72 30 26 bd ff 20 e2 3c d3 79 98 3d 3c 64 96 3c
       -0.040573545 0.027603624 0.07445111 0.018358342
0001e0 90 f9 29 bb a9 7d 9a bd b4 a1 60 3d 15 67 cc bd
       -0.0025936104 -0.07543499 0.054841712 -0.09980599
0001f0 5e 15 37 bd ed c4 99 bd 7a de 0c bd 05 b6 95 bd
       -0.04469811 -0.07508264 -0.034391858 -0.07310108
000200 52 c4 b2 bd b7 65 bc bd 90 5d ee bc 85 22 06 3e
       -0.087288514 -0.09199088 -0.029097348 0.13099106
000210 10 68 ba 3d 8a 5c 6e 3d 9d 4f f0 3d 9d c0 8d bd
       0.091018796 0.05819372 0.11733935 -0.06921504
000220 0c 99 24 be 78 f2 8d ba 8b cc c5 3c 9b fc 2d 3c
       -0.16074008 -0.0010829708 0.024145385 0.010619308
000230 44 89 cd 3d 96 e0 81 3d ae 96 99 3d 38 f3 c8 bc
       0.10035947 0.063416645 0.07499443 -0.024530038
000240 3b e9 cd 3d 22 a3 fb 3b 2c d9 d5 bd 8a 45 32 bd
       0.10054251 0.007679359 -0.10441813 -0.04352335
000250 10 0b 35 3c 21 9b 11 bd 48 17 c7 bd 9f ed 15 3d
       0.011050001 -0.035548333 -0.097212374 0.036603566
000260 ec 2f 47 3d 2e 69 fc bc e3 21 8b 3d 70 db df bd
       0.048629686 -0.030811872 0.06793573 -0.10930526
000270 17 5b 61 bd e0 e0 6e bc b7 9b 33 3c 89 86 68 bd
       -0.05501851 -0.014579982 0.010962418 -0.056768928
000280 0a 35 7b 3d 1b 9e 93 bd c5 35 23 3c 53 54 0d be
       0.06132988 -0.072078906 0.00996155 -0.13801698
000290 63 67 d4 bc 7d 58 21 bc 75 e3 e8 3d 31 7e 99 3d
       -0.025928205 -0.009847757 0.11371509 0.07494772
0002a0 7b 92 cf bd b6 45 20 3c 33 57 82 3c 9a f4 79 3d
       -0.10135361 0.009782245 0.01591072 0.061024286
0002b0 83 b3 2a 3a 85 68 a3 bd e7 d5 f2 bd a7 55 a7 bd
       0.00065117347 -0.0797892 -0.11857205 -0.08170634
0002c0 36 3e 58 bd ca 22 a4 3d 38 5e 3f bd 89 81 bf 3d
       -0.052793704 0.08014448 -0.046720713 0.09350879
0002d0 7a ae 1e 3b c5 0d 1d 3d 33 bd a5 bd ba d6 9b 3d
       0.0024212883 0.03834321 -0.080927275 0.07609315
0002e0 54 d1 8a 3d 3b 2c 0b 3e 1d 6f be 3d 0c 0f 33 bc
       0.067782074 0.13591091 0.09298537 -0.01092888
0002f0 28 b9 50 bb b0 ce c3 bd d9 fe 63 3c 0d 24 7c 3d
       -0.0031848643 -0.09560907 0.013915741 0.06155782
000300 95 3b 69 3d f5 d7 0a bd 61 be 34 3d 61 5e ae 3d
       0.056941587 -0.03389736 0.044126872 0.08514095
000310 37 e8 4c 3d 4e af 25 bd cc ff 1c be cc 4f bc 3c
       0.050026145 -0.040450387 -0.15331954 0.022987269
000320 4e eb 9b bc 47 69 8b bd 19 31 1d 3d e0 82 46 3d
       -0.0190331 -0.068071894 0.0383769 0.048464656
000330 28 4f f0 3d 8b 3d 05 3c e7 89 31 bc 11 9d d6 3d
       0.11733848 0.008132349 -0.010836101 0.10479177
000340 da 8a c6 3d ae 4c b5 bd 77 6f 19 be 83 74 7b 3d
       0.096944526 -0.08852516 -0.14983927 0.06139041
000350 02 c9 1f 3d 80 d1 3f 3d 57 c2 37 bd 9e 9a 55 3d
       0.039010055 0.046830654 -0.04486307 0.052149408
000360 85 20 d6 bd 0b ee 80 bd 52 2b a1 bd 93 b6 fb 3d
       -0.10455421 -0.06295403 -0.07869591 0.12290683
000370 c8 6a ea bc 01 72 f7 bd 9e 79 50 bc 12 a7 ab bc
       -0.02861537 -0.120822914 -0.012724308 -0.020953689
000380 78 8f 29 bd 22 06 7a bd 9e 8d df bb b6 4a 4e 3d
       -0.041396588 -0.061041005 -0.006822302 0.05036422
000390 bf 41 ca 3d 27 73 d3 3c e5 7f 8c 3d 99 cc 28 bc
       0.09875821 0.025811745 0.068603314 -0.010302686
0003a0 ce c1 51 3d 78 d9 4e bd 85 14 76 bd 7a f4 45 3d
       0.051210217 -0.050500363 -0.060078163 0.048328854
0003b0 14 be cc 3c f0 9e df 3d cb 19 9d 3d 41 05 89 3d
       0.02499298 0.10918987 0.07670935 0.06690455
0003c0 36 de 78 bc 85 6b 7d 3d 88 cf 29 3c d0 cc db 3c
       -0.015189698 0.061870117 0.010364421 0.02683106
0003d0 0b 55 e7 b8 6a 65 86 3d 42 4b a5 3d 54 35 e3 bd
       -0.00011030779 0.06562312 0.08070995 -0.11094156
0003e0 1f 3b 46 bd 52 c0 c6 bd ea 88 05 3d a0 68 b0 bc
       -0.048396226 -0.09704651 0.032601275 -0.021534264
0003f0 69 4d 1e bd ce 86 19 bd fe 60 bc 3d 70 c7 0f be
       -0.038648043 -0.037482075 0.09198187 -0.14040923

layers.block_1.layer.0.bias f4 [128]
000000 04 25 a0 bd c2 59 06 bd 0e 87 8e 3c a0 35 42 3c
       -0.0781956 -0.032800443 0.017398383 0.0118536055
000010 be fa 69 3d 01 07 95 3c be 32 72 3c 26 fd 2f bc
       0.057123892 0.018191816 0.014782606 -0.010741508
000020 70 15 e9 3c 2f c0 14 3d 4e 49 ee bc b7 1b a5 3d
       0.028452605 0.036316093 -0.029087689 0.08061927
000030 18 a9 e7 bc 9b 15 0b 3c 5c 91 37 bd 89 7f c3 bb
       -0.028278872 0.008489038 -0.04481636 -0.005966131
000040 dc 31 bd bc 00 b3 ad 3d 34 aa a5 bc 07 da b6 ba
       -0.023095064 0.08481407 -0.02022276 -0.0013950475
000050 1a 31 d2 bc 20 a2 51 3d 23 39 be 3b 88 60 c5 bc
       -0.02565818 0.051180005 0.005805151 -0.024093881
000060 cc 88 a6 bc 2e 12 73 3c 91 47 c4 bd 36 34 d8 bc
       -0.020328902 0.014835877 -0.09583963 -0.026392084
000070 83 aa 6f 3d 72 7b 93 3d e2 83 8b 3d 21 cc 3a bd
       0.058512222 0.0720128 0.06812264 -0.04560483
000080 86 8d 51 bd 57 f7 d7 bb c5 cb 10 bd f8 e4 ad bd
       -0.051160358 -0.0065907645 -0.03535058 -0.08490938
000090 28 87 50 bd a2 07 82 3d a3 c4 9d bd ec c1 80 bb
       -0.050910145 0.06349112 -0.07703521 -0.0039293673
0000a0 dd 9d a4 3d e2 5b 93 bd 7d c5 15 3b f6 a1 d3 3c
       0.080379225 -0.0719526 0.0022853308 0.025834065
0000b0 74 1c 6c bd 58 3e 8c 3a 37 24 4d 3d 5c 90 b2 3c
       -0.057644323 0.0010699732 0.050083365 0.021797352
0000c0 bf 04 b6 3d 31 9b 01 be d7 f9 c0 3c a6 03 ad 3c
       0.08887624 -0.12656857 0.023556633 0.021119904
0000d0 6d eb 92 3c b8 24 dc 3d d5 f7 61 bc 58 1e 95 bd
       0.017934525 0.10749191 -0.013791998 -0.07281178
0000e0 75 c6 73 3d fa ea ca 3d 4c d0 56 bc 07 c7 09 3d
       0.059515435 0.099080995 -0.013111185 0.033637073
0000f0 6b 71 9c bd 81 00 88 bd 3b ff bd 3d 1c d7 48 bd
       -0.0763882 -0.06640721 0.09277197 -0.04903327
000100 26 49 ad bd a8 64 44 bd af a2 a7 bd 37 08 f3 3c
       -0.084612176 -0.047947556 -0.08185326 0.029667003
000110 34 e8 8a bb 68 be 2d 3e 72 a2 d0 3c c0 17 26 3d
       -0.0042391066 0.16967165 0.025468085 0.040549994
000120 4d f8 31 3c e9 6b c6 3d c5 55 c3 3c d4 92 6a 3d
       0.010862422 0.09688551 0.023844609 0.057268932
000130 8f bc c3 bd 3e 1e 72 bd 85 01 65 bd 3f f4 3b bd
       -0.09557449 -0.059110872 -0.055909652 -0.045887228
000140 aa 65 c2 3c 93 5e 82 3d 65 05 8d bc 2f 84 ab bb
       0.023730118 0.06365695 -0.017214486 -0.0052342634
000150 70 e0 2e bd b1 9b bb bc e1 6f d9 3d 3f 25 01 3d
       -0.04269451 -0.022901388 0.10617042 0.03152966
000160 d1 c7 03 bc f0 9d 20 bd 29 a0 8f bb 1a 11 5a 3c
       -0.008043245 -0.03921312 -0.0043831063 0.013309741
000170 bb 8d 79 bd c5 27 1a bd e8 ec 87 bd b2 45 8d 3d
       -0.06092618 -0.037635583 -0.06636983 0.06898059
000180 a9 f6 83 bd ac 43 48 bd e7 1f 4a bd 52 72 98 bd
       -0.06443531 -0.048892662 -0.04934683 -0.0744368
000190 9c 21 a4 3d e4 a2 0e bd d8 e2 42 bc 5f b7 a4 bd
       0.08014223 -0.034823313 -0.011894904 -0.08042788
0001a0 ac 60 9d 3c 8e 90 ba 3d 75 43 7e bc 1d 48 36 3b
       0.019211136 0.09109603 -0.015519013 0.002781398
0001b0 a9 8a 59 bd 2c bf df 3c 28 e7 aa bc 3b f9 b2 3d
       -0.053110752 0.027312838 -0.020862177 0.08738943
0001c0 01 cb 43 3d f8 e7 27 3d 18 fb bc 3d c1 d5 35 3c
       0.04780102 0.040992707 0.0922758 0.011098326
0001d0 87 d1 91 bd 13 ac dd 3d 00 89 53 bd 69 4f f7 bc
       -0.07120042 0.10823836 -0.051644325 -0.030189233
0001e0 23 e5 e6 3c d6 e7 39 bd 20 dd 88 3c 2f 97 c2 bc
       0.028185433 -0.04538711 0.016707003 -0.02375373
0001f0 2b 5a 8b 3d 97 80 ac bd 48 b6 52 3d 6c df b0 3c
       0.068043076 -0.08422964 0.05144337 0.02159091

layers.block_2.layer.0.weight f4 [128, 128]
000000 9d c3 e0 bd da 2f 7a bd dd a2 ea bc d5 59 60 bd
       -0.1097481 -0.06108079 -0.028642112 -0.05477317
000010 73 dc 71 3b fb ff 13 3d 3e 3d e9 3c 36 6d 5e 3d
       0.003690508 0.036132794 0.028471585 0.05430337
000020 10 a9 a0 3c 79 92 a9 bd 08 d1 98 bc e1 7f b7 3d
       0.019611865 -0.082798906 -0.018654361 0.08959938
000030 d5 64 67 3d 95 dd 57 3d fa 48 1d 3d 2f bb ad bd
       0.056492645 0.05270155 0.038399674 -0.08482968
000040 2c 81 1e 3d f6 f1 64 3d 53 0d 24 bc 1d 7e d7 bd
       0.038697407 0.055894814 -0.010012942 -0.10522101
000050 d8 c5 c2 bc c4 93 a7 3c 65 b3 da bd 73 0b a9 bd
       -0.02377598 0.020456202 -0.10678748 -0.08254137
000060 d4 48 27 bd 07 d1 ab bc 89 3c 96 3b c2 05 48 bc
       -0.04084094 -0.020973695 0.004584853 -0.012208404
000070 82 b1 29 3c 94 bf ca bd 67 83 69 3c e4 6b 65 bd
       0.010357263 -0.09899822 0.01425252 -0.056011096
000080 50 b4 5d bd 1e ff 83 3d f3 ef c4 3c c7 3c 76 3c
       -0.054127038 0.06445144 0.024040198 0.015029139
000090 ba 0a db 3d 88 32 2d 3d 2a cd 4f bc 2d b0 b5 bd
       0.10695405 0.04228452 -0.012683192 -0.088714935
0000a0 e4 6b cd bd 29 13 8e bd 5c d4 08 3d ad af ab bb
       -0.10030344 -0.06937248 0.033405647 -0.005239448
0000b0 c0 21 de 3b 1a b6 06 be 1d 58 9f bc 2f 68 62 3c
       0.0067789257 -0.13155404 -0.019451195 0.013818785
0000c0 00 4e 4b bd 33 6d a6 bc 10 bb 4f 3d c2 0d 82 bc
       -0.049634933 -0.020315742 0.050715506 -0.0158757
0000d0 bc 5e a3 3d e1 40 65 bd cc b0 d8 3d f9 b0 a5 bc
       0.079770535 -0.055970076 0.10580596 -0.020225989
0000e0 db 4e cc bd 30 3a 32 3c f9 37 41 3d 33 c1 c1 bd
       -0.09975978 0.010878131 0.04717252 -0.09460678
0000f0 2c 8e ee bc 8e a3 95 3d 95 7d 98 bd d6 e2 23 3d
       -0.029120527 0.07306586 -0.07445828 0.04001125
000100 21 01 b9 3b d3 36 61 bd d4 82 0d bd fe 2f 44 bd
       0.0056458865 -0.054983925 -0.034548596 -0.04789733
000110 80 dd 9e bc 47 20 3d bd a0 21 33 bd 19 55 03 bd
       -0.019392729 -0.04617336 -0.04373324 -0.032063577
000120 70 50 08 bd f3 3b 52 3d a7 75 44 bd ed 3b c3 3c
       -0.033279836 0.051326703 -0.047963765 0.023832286
000130 81 24 c6 3d ea 86 97 3d ad b4 72 bd 59 fe 70 3d
       0.09674931 0.0739878 -0.059254337 0.058836315
000140 c8 cd 5b 3d 7d fc bf 3d b2 3c d2 3d 6a 0b a4 3d
       0.053663045 0.0937433 0.10265483 0.080099896
000150 fe 67 2c 3d 42 e4 96 bd 5f b9 b7 bd 87 5f ec bc
       0.042091362 -0.073677555 -0.089709036 -0.028854145
000160 65 5b 12 3d e3 6c a2 3d eb fd 68 bd c7 5b f9 3c
       0.035731692 0.07930925 -0.05688278 0.03043927
000170 98 cf 9c bb 13 8e 7c 3d fa b7 12 be e5 2e 95 3d
       -0.0047854893 0.06165893 -0.14327994 0.07284335
000180 74 be f7 bc 4c 1b 7e 3b 93 c1 af bd 49 18 26 3b
       -0.030242182 0.0038773594 -0.08581843 0.0025344065
000190 1e 20 82 bd f3 4f fd 3c ec d6 1b bd d6 03 b6 3b
       -0.06353782 0.030921912 -0.038046762 0.0055546565
0001a0 f6 75 25 3d bb bc 5f bd 63 31 7c bd 72 2c 56 3d
       0.0403957 -0.054623347 -0.061570536 0.05228848
0001b0 c0 1f 8c bd fd e1 50 bc 7c af 0f bc 7a a7 d7 3c
       -0.06841993 -0.012749192 -0.008769866 0.026324976
0001c0 98 a6 7c bd e0 c8 42 3d 19 60 29 bd 84 91 b5 bc
       -0.061682314 0.04755485 -0.04135141 -0.022164114
0001d0 2a 52 d1 3d 41 c0 21 3c 34 32 93 3c cd ff c8 3c
       0.1022075 0.009872497 0.017968275 0.024536038
0001e0 aa 92 b3 3d 57 7d b3 bd f9 f3 bd 3d b4 46 0a 3d
       0.08768208 -0.08764141 0.0927505 0.033758834
0001f0 80 28 84 bc 2b 7a 65 3b 92 d2 21 bc a0 92 5a bc
       -0.016132593 0.0035015445 -0.009876864 -0.013340622
000200 37 ff 07 3e 50 c9 7f 3d 44 33 d0 3c f6 d2 93 3d
       0.1328095 0.062447846 0.02541507 0.07217972
000210 50 3e 00 be cd 65 d1 3d 69 57 dd bc 97 9c 4d 3d
       -0.1252377 0.10224495 -0.02701922 0.050198164
000220 32 42 ed 3d dc 3f 87 bd 05 7b f3 3c fb 2d 85 bc
       0.115848914 -0.06603977 0.029721746 -0.016257277
000230 c9 5b 8d 3c fa ac 88 bd bf 61 dd 3d e4 a2 69 3d
       0.01725568 -0.06673618 0.10809659 0.05704011
000240 df fe 68 be 4b c3 c5 bc 23 13 96 3c 63 96 14 be
       -0.22753476 -0.024140975 0.018319672 -0.14510493
000250 fc 20 26 bd cc 5f fb bd 59 80 e5 3d 6c 50 9d 3b
       -0.0405588 -0.12274131 0.11206121 0.004800847
000260 f2 fe ae 3d b8 e2 10 bd 96 bb 2f 3d c5 38 8e bd
       0.08544721 -0.035372466 0.042903505 -0.06944422
000270 30 21 b9 3c 8b 5e 97 3b a4 1c 51 bc 15 9a b5 bd
       0.022598833 0.0046194247 -0.012763176 -0.088672794
000280 e8 43 22 be 98 a9 09 3e fb 15 26 3e b5 ca da bc
       -0.15846217 0.13443601 0.16219322 -0.026707986
000290 d0 05 91 bd 0e d7 c0 bc 8b 70 d8 3d 81 8b 21 3d
       -0.07081187 -0.023540046 0.10568341 0.039439682
0002a0 24 85 8e bd 07 6a 51 bb c7 24 8d bd 37 f0 25 bd
       -0.06958988 -0.0031954066 -0.0689178 -0.04051229
0002b0 6d 85 98 bd ee aa ac 3d 7f 48 7b 3d bd 22 24 bd
       -0.07447324 0.0843104 0.061348435 -0.04007219
0002c0 16 45 ae 3d 43 49 49 bd 9a 06 b7 3d 01 a0 09 3d
       0.08509271 -0.049142133 0.08936806 0.033599857
0002d0 9f 4e f2 bd b8 4f bf 3d 35 20 32 3d 44 ff 60 3d
       -0.11831402 0.09341377 0.043487746 0.05493094
0002e0 b1 cc 7e 3b ad dd 5f bd 79 d9 12 bd a6 79 27 bd
       0.003887933 -0.054654766 -0.03585193 -0.040887497
0002f0 98 69 69 3a 6c 10 98 3d 91 09 02 3e eb 60 4d bd
       0.00089039793 0.07425007 0.12698962 -0.050141256
000300 64 fa cf 3d e7 a0 b7 bd 1d 8e 9b bd 4e e2 8d 3d
       0.1015518 -0.089662366 -0.07595465 0.0692793
000310 39 3e a5 bd 97 90 db 3d 87 42 41 3d 21 68 87 3d
       -0.08068509 0.10720938 0.047182586 0.06611658
000320 99 66 15 3d 0b e7 59 3d 0a b7 51 bd 0e f0 8c bd
       0.036474798 0.053198855 -0.05119995 -0.06881724
000330 b1 bd 36 bb 45 4b e8 bc 91 c9 61 3c c9 e5 c1 3c
       -0.002788406 -0.028356204 0.013780967 0.02366914
000340 1c 9b 0a bc 1b 1b 55 3b 61 2a d5 bd 95 34 76 3c
       -0.0084598325 0.0032517377 -0.10408474 0.015027185
000350 e3 95 ff ba d8 e2 32 3d 03 b0 f2 3d bf 96 08 3d
       -0.0019499626 0.043673366 0.11849978 0.033346888
000360 bf 45 bb 3d 44 e3 17 bd 8d a2 1d bd df 4e 79 3d
       0.091441624 -0.03708197 -0.0384851 0.060866233
000370 60 e7 cf bd 0f c3 05 3e f8 8d 76 bd ef ee ff bc
       -0.10151553 0.1306269 -0.060193986 -0.031241862
000380 52 c3 af 3d ec fd 9c bd db af 3e 3d 90 01 29 3d
       0.08582176 -0.07665619 0.046554428 0.041261256
000390 3d 17 c5 3c f0 35 2b 3d 8c fb 25 3c 87 97 74 bd
       0.024058932 0.041799486 0.010130774 -0.05971482
0003a0 44 23 86 bd ac d6 05 be 4f ef 3e 3d 4c 91 d3 3d
       -0.06549695 -0.13070172 0.04661494 0.103304476
0003b0 2d bf a0 3c 5a 6d 13 3e ed 13 0a be 3a 4f 34 3d
       0.01962241 0.14397183 -0.13484164 0.04402087
0003c0 78 03 b8 bd 89 5c 41 bd 58 ab 34 3d 80 6a 49 bd
       -0.089850366 -0.04720739 0.04410872 -0.049173832
0003d0 bf be 12 bc cb d2 bf 3d 1a b3 0d 3e b0 0e ad 3d
       -0.00895661 0.093663774 0.13837853 0.08450067
0003e0 20 05 71 3d a3 57 cc bd 3a 7b 93 bd 30 bd f9 3d
       0.05884278 -0.09977653 -0.07201238 0.12194288
0003f0 ba 4d b6 bb 80 70 67 bd fa f1 f7 3d 5b 4e 31 bd
       -0.005563465 -0.056503773 0.121067 -0.043287616

layers.block_2.layer.0.bias f4 [128]
000000 9b a8 84 bd 76 98 90 3d 4b b6 18 3d 51 5d a7 bd
       -0.064774714 0.070603296 0.037283223 -0.081720956
000010 13 b3 4d bc 3e b7 9a bd db c9 8f 3c 5f a2 57 3d
       -0.012554902 -0.07554482 0.017552307 0.052645084
000020 4d 63 4a 3c 7d cf 82 bd d2 c0 3d 3d 3c 5e 9c bd
       0.012352777 -0.063872315 0.046326466 -0.07635161
000030 8d 9a 73 bd b0 43 87 bc 1d b5 be 3d 77 aa 92 bd
       -0.059473563 -0.016511768 0.09311888 -0.0716142
000040 3d b0 63 bd b1 74 49 3d 07 2c d5 3d e6 c1 bd bd
       -0.055587996 0.04918355 0.10408788 -0.09265499
000050 43 7e ea bd 11 b2 51 3d b5 da 66 bc 5a 3d 4f bd
       -0.11449864 0.051195208 -0.01409023 -0.05059562
000060 e2 16 fa 3c 46 1b 81 3d 0e cb 39 bd 0b f4 13 3d
       0.03052849 0.0630403 -0.045359664 0.03612141
000070 87 e8 8e bd 08 fb 1f bc c2 27 96 3d a2 7f 35 3d
       -0.06977945 -0.00976444 0.07331802 0.044311173
000080 5d 3c d6 bb 13 34 6c 3d 63 37 e7 3d 37 82 56 bd
       -0.0065379576 0.05766685 0.11289861 -0.052370276
000090 3a 07 9e bd e0 43 60 3c ea 1f ea ba da 64 3b bc
       -0.07716222 0.013688058 -0.0017862294 -0.011437619
0000a0 13 83 31 bd d7 0d 7c bd 1d 29 15 3d b2 ae 25 3d
       -0.043337893 -0.061536636 0.03641616 0.040449806
0000b0 63 c5 a5 bd 3a 4b 99 bd e3 a6 25 bd 28 05 84 bd
       -0.08094289 -0.074850515 -0.04044236 -0.06446296
0000c0 ff a8 b5 3d e8 c6 15 3d 77 b3 f0 3c 8c 4f c0 bc
       0.08870124 0.036566645 0.02938245 -0.02347543
0000d0 48 1f 26 3d 27 35 cf bc 42 90 97 bd b0 18 a7 3d
       0.040557176 -0.0252939 -0.07400562 0.08159006
0000e0 d0 53 00 bd 7b 44 92 3d 50 4c 75 bd 56 90 99 bd
       -0.03132993 0.07141968 -0.05988723 -0.07498233
0000f0 b2 dc 50 bd 3f 8d ce bd a7 57 4a 3d fd fd 41 bd
       -0.05099172 -0.10085534 0.049399998 -0.047361363
000100 d4 76 8a bd 79 f2 37 bd 1d 32 a0 bb 00 fc 32 3d
       -0.06760946 -0.044908974 -0.0048887865 0.043697357
000110 f2 f3 60 bc 8b 22 c7 bd 16 33 99 3d 42 d1 0d bd
       -0.013730036 -0.097233854 0.07480447 -0.034623392
000120 6a 97 80 3d 26 38 7d 3d c2 21 86 bd 11 02 d0 bb
       0.0627888 0.061821125 -0.065494075 -0.0063479026
000130 72 ec ad 3b a5 92 89 bc 70 3d 10 3c 05 06 8f 3d
       0.0053077275 -0.016793558 0.00880371 0.0698357
000140 36 3b 9f 3d 06 0a 0e bd 83 64 a2 bc 15 dc 3a 3d
       0.077749655 -0.034677528 -0.019823318 0.045620043
000150 3f 69 67 bc 59 c3 01 bd 99 b0 ad 3d 06 87 6d 3d
       -0.014124214 -0.03168044 0.08480949 0.057990097
000160 4b 1e e7 bc 6a 3e a4 3b f0 71 f9 3c a4 a3 7f bd
       -0.028212687 0.005012323 0.030449837 -0.06241192
000170 9b 5a be bd 9c e2 e7 bd 36 d6 80 3d e7 bf d0 bd
       -0.09294625 -0.11322519 0.062908575 -0.101928525
000180 45 11 12 bd 5f f0 69 bc 62 1f 74 bd 49 0a ca 3d
       -0.035661 -0.0142785 -0.05960024 0.09865243
000190 eb d9 55 bd 26 4f f5 3c e2 ec 09 3d bf fa 60 3d
       -0.052209776 0.029944967 0.033673175 0.05492663
0001a0 35 89 ac bd 36 a3 a2 3d 40 65 9e bc 19 66 26 3b
       -0.08424608 0.07941286 -0.01933539 0.0025390445
0001b0 e8 46 37 bd 8a 09 ba 3c 6a ea 9a bd 12 e3 a1 3d
       -0.044745356 0.022709627 -0.07564242 0.07904638
0001c0 20 6a a2 3d 6f e6 c9 3d 9f d8 02 bd 8b 0e 14 bd
       0.07930398 0.09858405 -0.031944867 -0.03614668
0001d0 c8 33 a2 3d 0c 3f c3 3d 21 a4 11 bd 99 b0 a4 3d
       0.07920033 0.095335096 -0.035556916 0.08041496
0001e0 7b 34 1d bd d0 69 b5 3d 12 0b ab bd 82 37 0e 3c
       -0.038380127 0.08858073 -0.08351721 0.008680226
0001f0 a8 38 aa bd 4a 01 ce bd 1f fc 73 3d b9 27 a6 bd
       -0.083115876 -0.100588396 0.059566613 -0.08113045

layers.block_3.layer.0.weight f4 [128, 128]
000000 4f 86 c8 3d 5f 05 1d bc 8b ca 7b 3d 10 69 7d 3c
       0.09791242 -0.0095838 0.061472457 0.015466943
000010 3c a8 2b ba d7 fd bc bd 0d 8f 8b bd da 56 a4 bc
       -0.0006548201 -0.092281036 -0.06814394 -0.020060945
000020 ae 3b 3d bd e1 57 5a 3d 2e bf e1 be 7b 6e 46 3d
       -0.046199493 0.053306464 -0.4409117 0.048445206
000030 95 49 16 3e 71 a5 97 bd c7 15 98 3b 4d e4 32 be
       0.14676507 -0.07404602 0.004641268 -0.17469902
000040 f9 5f 23 3e de a4 c2 bd c4 e4 91 3d 35 d3 b6 bc
       0.1595458 -0.09504102 0.07123712 -0.022317508
000050 e0 dc 7d 3d fc 54 e8 be ff 6a 8f 3c 3e 0d 4a bd
       0.06197822 -0.45377338 0.017507074 -0.049329035
000060 83 94 49 be f4 0a fb bc e0 79 2b 3c 3c c5 2a 3d
       -0.19685559 -0.030644871 0.010466069 0.041692004
000070 31 63 c9 3d f4 51 ff 3d d2 4f de 3d c9 a5 a8 bd
       0.098333724 0.12466803 0.10855068 -0.08234746
000080 82 ed e6 bc e8 05 72 bd d0 34 59 bd 95 88 62 bc
       -0.028189424 -0.059087664 -0.05302888 -0.013826509
000090 ca c8 a1 bc 69 f0 b2 bd 3e 98 97 3d 70 a8 89 3d
       -0.019749064 -0.08737261 0.07402085 0.0672158
0000a0 5f de 13 bd 71 9e 99 bd 05 b8 e4 bc 52 8d 0f bd
       -0.03610074 -0.075009234 -0.027919779 -0.035046883
0000b0 6a 68 99 bb 1e 24 8f 3d 75 56 a7 3d b8 ee 94 bc
       -0.0046816366 0.06989311 0.08170787 -0.018180236
0000c0 69 1b d5 bd a4 bf 8c 3b 98 cb 29 3c d8 a0 ff 3d
       -0.10405619 0.0042953063 0.010363482 0.124818504
0000d0 6c 4f 53 3e 79 fd f2 3c 05 42 fd be 9d 06 6f 3d
       0.20635766 0.02966188 -0.4946443 0.058355916
0000e0 d8 ff a8 3d 2f df 04 bd 03 05 50 3c 93 ad 69 3d
       0.08251923 -0.032439407 0.012696507 0.0570503
0000f0 88 11 23 3d c9 31 12 3c de eb d1 3c 26 1e ce 3c
       0.03981164 0.0089230025 0.025625166 0.02516086
000100 04 5a 9a 3d 6d 06 c1 3c 94 5f 0b 3e 44 93 5b 3d
       0.075367 0.023562634 0.13610679 0.05360724
000110 24 ff a9 bc e0 bb 86 be de 59 ed bd 38 73 9f 3d
       -0.020751543 -0.26315212 -0.115894064 0.07785648
000120 37 bd 6f 3d 36 42 ab 3c c4 8b d7 3d 7e 46 ad bd
       0.05853006 0.020905595 0.10524705 -0.08460711
000130 3f 2d 45 3c cd 8a af 3d 22 e2 32 bd 9e 3b dc 3d
       0.012034713 0.08571396 -0.04367269 0.107535586
000140 d0 bb 9f bd 9d 1a 1f 3e 48 4d cd bd ab 38 81 3d
       -0.07799494 0.15537496 -0.10024506 0.06309637
000150 7d 5c b8 bd 1c 59 53 be 47 c7 2b 3d 44 36 c6 bd
       -0.09002016 -0.20639461 0.041938093 -0.09678319
000160 85 ad 8b bb a0 a0 ba bd f1 4b a8 bd 9b 41 4d 3d
       -0.0042626285 -0.09112668 -0.0821761 0.050111394
000170 8b 26 2d bd c3 82 27 3e 06 8c fd bd 17 80 ea 3d
       -0.042273086 0.16358475 -0.12380223 0.114502124
000180 61 44 fd bc 5e d9 8a bd 39 2c b0 bc 40 20 db bb
       -0.030916395 -0.06779741 -0.021505462 -0.006687194
000190 3f 6b 4a 3b 00 a0 8f be e6 5a 0b bb 40 74 33 be
       0.0030886678 -0.28051758 -0.0021263896 -0.17524815
0001a0 4b c2 8a 3e 57 2e c5 bd d4 1e 44 3e 05 f8 d0 3d
       0.2710136 -0.09627979 0.19152385 0.10203556
0001b0 38 aa 21 bd 3f 30 15 3b d0 1c cd 3d 13 bd 8f 3d
       -0.039468974 0.0022764353 0.10015261 0.07018485
0001c0 51 1b 85 3c e1 ed d1 bd 7a 0b 1d b8 f0 bb eb 3d
       0.016248377 -0.1025045 -3.7442405e-05 0.115104556
0001d0 a9 05 b8 3d 15 7b 9d bd 07 15 a3 be f2 96 e0 bc
       0.089854546 -0.07689492 -0.3185198 -0.027415726
0001e0 5b 09 b1 3d d9 e5 02 bc c2 bc 96 3e 0c fb b7 3d
       0.086443625 -0.00798937 0.29440886 0.0898343
0001f0 5a 14 38 3c 0c 83 ad 3d 9a 75 a7 bb 3c 37 61 3d
       0.011235321 0.08472261 -0.0051104547 0.054984316
000200 a5 2a 1d bd f7 cb 19 3d ea d7 01 bd c0 9b 91 bd
       -0.038370747 0.03754803 -0.031700052 -0.07109785
000210 7d 4f 81 ba a8 fd f0 3d f8 12 5e bc 94 5c ef bd
       -0.0009865608 0.11767131 -0.013554327 -0.1168758
000220 6b fb 1c bd 94 af b2 bd 21 ae 95 3d f3 08 94 bd
       -0.03832571 -0.08724895 0.07308603 -0.072282694
000230 51 d4 f6 bd de 4c 20 3d 87 b3 74 3d 6f 20 13 3e
       -0.12052215 0.039135806 0.059741523 0.14367841
000240 66 7f 36 bd 01 a6 85 3d 8f 6d e7 bc 85 3b 2f 3d
       -0.04455509 0.06525803 -0.028250484 0.04278137
000250 1e 73 45 3c ea 5e dd 3d 20 36 b8 3d 7c 11 01 be
       0.012051372 0.10809119 0.089946985 -0.12604326
000260 a5 1b 16 3d 87 2d c3 3d 8a 7b ca bd af a5 d4 3d
       0.036647458 0.09530168 -0.098868445 0.10383164
000270 8a 5b 2a 3d 9e 70 c0 bc ea c7 08 ba 52 82 95 3b
       0.041591205 -0.0234912 -0.0005217778 0.0045626545
000280 dc 03 b6 bd 84 1c 42 bd 13 3b fc bc 9f 6a 09 bd
       -0.08887455 -0.047390476 -0.030789888 -0.033548947
000290 8a 53 d1 bd f7 4b cd bc 8b da 10 bd c1 88 3c bc
       -0.10221012 -0.025060637 -0.03536467 -0.011507214
0002a0 45 d5 c6 3d 27 14 b8 bb 6a ae 74 bc 7f a9 1e bd
       0.09708647 -0.0056176367 -0.014934162 -0.038735863
0002b0 e8 3e 2b 3d f2 56 26 3d 7b bd b5 bd 6e 7a df bd
       0.04180804 0.04061026 -0.08874031 -0.109120235
0002c0 b8 cd 23 bd 90 cd 7d bd b1 c9 c0 3c 6f 2e 59 bb
       -0.03999111 -0.061963618 0.023533674 -0.003313925
0002d0 4c 9d 93 bd f5 8a 94 3d dd 25 ca 3d 6d d1 d6 3d
       -0.072077364 0.072530665 0.09870503 0.104891635
0002e0 df 11 c4 bc 6d f6 b6 bc 4f 86 ba 3c a6 88 b0 bc
       -0.023934303 -0.022334302 0.022769121 -0.021549534
0002f0 30 af 9f bd 94 52 ce bd 6b a3 89 bd 57 fa c2 bd
       -0.07797086 -0.10074344 -0.06720623 -0.09520405
000300 cd e3 69 ba 7e 98 c0 bd a3 60 1d bd 94 82 d1 bd
       -0.00089221896 -0.094040856 -0.038422238 -0.10229984
000310 e3 89 27 be 21 33 87 3d 9b d6 53 3c 68 0a 1c bc
       -0.16361193 0.06601549 0.012929584 -0.009523965
000320 43 20 dc bc a0 8a da 3d 0a 65 b1 3d b8 fe 79 bd
       -0.026870852 0.10670972 0.0866185 -0.061033934
000330 93 da a1 bd ef e6 dd 3d 54 90 63 3d 53 b8 a2 bc
       -0.07903018 0.10835063 0.055557564 -0.019863283
000340 f2 76 d2 bd 42 77 24 bc 2f 13 0b 3e d7 c5 f0 3b
       -0.10276593 -0.010038199 0.13581537 0.007347803
000350 e9 bb da 3d e1 a3 12 3c 5d 45 11 bd 84 c9 70 3d
       0.10680372 0.008950205 -0.03546654 0.05878593
000360 55 18 7a bd b1 09 c2 3c da 1f a0 3d 21 69 40 3d
       -0.06105836 0.023686262 0.07818575 0.04697526
000370 c0 a3 6a 3d ea 60 a1 bd 81 10 ab 3d e9 55 05 3d
       0.05728507 -0.07879813 0.08352757 0.032552633
000380 cc 8a 73 3d dd b9 42 bb b1 3a cd bb 8c 12 8a 3b
       0.05945854 -0.0029712834 -0.0062631 0.0042136367
000390 4a 43 9d bd 70 e4 80 3d 2f 03 49 3d 9d 98 40 bd
       -0.0767885 0.06293571 0.0490753 -0.047020543
0003a0 07 18 1a 3d 37 a5 1a bd 45 53 0d bd 7d 1f d8 bd
       0.03762057 -0.037755217 -0.03450324 -0.10552881
0003b0 3b 96 95 bc d1 86 b4 3d 92 eb 24 3d 18 47 b5 3d
       -0.018260112 0.08814777 0.04026372 0.08851451
0003c0 eb c9 bb 3c e0 a8 9e bc a2 80 ff bd c4 39 d8 bd
       0.02292343 -0.019367635 -0.12475707 -0.10557893
0003d0 fa 28 42 3d 67 07 cc 3c 56 91 32 3e 9a 82 d6 bd
       0.04740236 0.024905873 0.17438254 -0.10474129
0003e0 92 51 b2 bd 70 1e d9 3c c9 c2 d0 bb f3 45 61 3d
       -0.087069646 0.026503772 -0.0063708765 0.05499835
0003f0 f6 f3 0f 3d 5d 16 eb 3c 59 20 c1 3d e6 56 de bd
       0.03514477 0.028697187 0.09429998 -0.10856418

layers.block_3.layer.0.bias f4 [128]
000000 15 74 4e 3d a5 3c 04 3d b1 da 69 3c 46 b6 66 bd
       0.050403673 0.032284398 0.0142733315 -0.056326173
000010 82 6a 58 3d 9b 1e 10 bd 3f d7 93 3d dc 5b 11 3d
       0.05283595 -0.035185438 0.07218789 0.035487995
000020 c9 0f 63 3d a3 44 14 bc ff 68 0a 3d bd 1b 68 3c
       0.055434976 -0.009049567 0.03379154 0.01416677
000030 0a 3e 76 3d 3f 0d 97 3d 86 a3 00 3b d7 62 d3 3c
       0.06011776 0.07375573 0.0019628718 0.025803966
000040 4d 63 86 3d c6 7b d4 bc b7 5c 83 3d 41 1c 11 3d
       0.06561909 -0.025937926 0.06414168 0.035427336
000050 64 b6 b3 bd 93 27 86 bd 16 70 49 3d e7 6e 8a bd
       -0.087750226 -0.06550517 0.04917916 -0.06759434
000060 37 79 69 bd f1 17 a0 3d be ca 15 bd da 12 e3 3d
       -0.057000365 0.078170665 -0.036570303 0.1108758
000070 36 e8 98 3d 96 0f 1b bd fd 33 0e 3d 57 df aa 3c
       0.07466166 -0.03785666 0.03471755 0.02085845
000080 d5 72 81 bb 2f c7 f0 bc ab 25 c1 bd 5c 69 bb bc
       -0.0039504566 -0.029391853 -0.09431013 -0.022877388
000090 3e 34 fe 3c eb 15 f5 bd 9c 62 6d 3b 2c 36 9c bd
       0.03103077 -0.11967071 0.0036222106 -0.0762752
0000a0 47 ff 3b 3c 19 2e 9d bd 49 f7 98 3c c5 b1 df 3b
       0.011474437 -0.07674808 0.018672602 0.0068266117
0000b0 37 2d da 3b 89 00 6d bd 42 f6 75 3a d7 61 a2 3a
       0.006658222 -0.05786184 0.00093827036 0.0012388778
0000c0 1a 47 ad bd 9a 4b fa bc 3f a1 c5 3c dc 45 91 bd
       -0.08460827 -0.030553628 0.02412474 -0.07093403
0000d0 4b ea d9 3a a9 35 15 bc 9f 6c c0 3c bb f7 90 bd
       0.0016625611 -0.009107032 0.023489295 -0.07078501
0000e0 f4 4b d0 bc da 4b c1 bd 7c 20 0b 3d 42 a5 4c 3d
       -0.025426842 -0.09438296 0.033966526 0.04996229
0000f0 ec 64 cd 3b b1 b4 70 bd 8a 65 b7 bd 2f a5 86 3d
       0.0062681343 -0.05876607 -0.08954914 0.06574475
000100 e5 64 41 bd b2 9f 23 3d 96 e9 7f 3b 32 c0 2c 3d
       -0.04721536 0.03994722 0.003904914 0.04217548
000110 31 67 86 bb 4e 1f 61 bd 1a b5 01 3c 0c 1a e2 bc
       -0.004101657 -0.054961495 0.007916713 -0.02760031
000120 93 96 c2 3c 56 22 82 3d ec b7 8f bd 53 6d 88 bd
       0.02375344 0.06354205 -0.07017502 -0.06661477
000130 df 08 cf bc 10 6d 01 3d f5 f7 b6 bd 38 02 01 3d
       -0.025272785 0.03159815 -0.08934013 0.031496257
000140 0a 40 ae bc 35 26 54 bd 75 24 a4 bd e6 11 f7 ba
       -0.02127077 -0.05179425 -0.08014766 -0.0018849939
000150 2d c1 c3 bd e5 41 b3 3d 5a 80 aa 3d 8a 04 4d bd
       -0.0955833 0.08752803 0.08325262 -0.050053157
000160 81 e3 98 bd 86 f2 b0 3c 81 bb 2a bc cb bd 87 bd
       -0.07465268 0.02160002 -0.010420681 -0.06627997
000170 d1 67 86 bc e0 a5 ce bb 61 17 06 bd ac c2 dd bd
       -0.016406925 -0.006306395 -0.03273714 -0.10828146
000180 98 36 8f bd 3d a6 87 3d d3 8f 5d bd 80 42 72 bd
       -0.06992835 0.06623504 -0.05409224 -0.05914545
000190 a4 78 f9 bc 6b bd 83 bd aa 7e b3 3d ba c8 b9 bc
       -0.030453034 -0.06432613 0.08764394 -0.022678722
0001a0 ce ed 5b bc 1b d4 c4 bc 0d 0d bb bc a7 b6 28 bd
       -0.013423396 -0.024026921 -0.022833372 -0.041189816
0001b0 bb 9a ea 3b 29 86 c0 bd 22 77 bd 3d 0d ab b8 bc
       0.0071595586 -0.09400589 0.092512384 -0.0225425
0001c0 12 c9 6b 3d 1e bb bc bd 2e fc be 3d 74 d2 6c 3d
       0.057564802 -0.09215377 0.09325443 0.05781789
0001d0 83 44 a3 3d 89 5f 77 bc 65 01 93 3c ff 5b d1 3d
       0.07972052 -0.015098461 0.017945 0.10222625
0001e0 04 49 f8 bd 1a 6f a5 3d 3b bc 22 3d 60 59 f3 bd
       -0.121233016 0.080778316 0.03973029 -0.11882281
0001f0 9c 81 b6 3c cb 86 13 bd 82 23 14 bd 2d eb 58 3d
       0.0222786 -0.03601722 -0.036166675 0.052958656

layers.output.weight f4 [2, 128]
000000 de 21 62 3f 8e e8 3e bd bf 03 06 3e 42 3f 18 bf
       0.8833293 -0.0466085 0.13087367 -0.59471524
000010 18 16 a7 be 92 70 7c 3c f0 69 1a bf a5 b5 2c 3e
       -0.32634044 0.015407698 -0.603179 0.16866167
000020 f6 df cf 3d cf 79 7c be 61 40 d1 3a de 85 ad 3d
       0.10150139 -0.24655841 0.0015964621 0.08472799
000030 db 92 eb 3d a3 40 2a bf fb 3f 9a be 92 ef d7 3d
       0.1150262 -0.6650488 -0.30126938 0.10543741
000040 27 83 dd bd 4c 62 97 bd aa 11 0e bf 81 74 fd be
       -0.10816031 -0.073917955 -0.55495703 -0.49502948
000050 9f 2d 46 bc 0f 38 24 be c4 05 f8 be 13 bb 49 bf
       -0.012095838 -0.1603701 -0.484419 -0.7880108
000060 bc 1a 26 bd 08 2f 87 3f 29 c4 78 3f 59 79 30 3e
       -0.04055284 1.0561228 0.97174317 0.1723379
000070 81 75 39 3f e2 b9 93 3e 1e c2 8a 3c 2b 69 28 3e
       0.7244492 0.28852755 0.016938265 0.16446368
000080 9f e5 4a 3f 41 81 aa 3e 44 35 04 bd e0 c2 4a bd
       0.79256624 0.33301738 -0.03227736 -0.049502254
000090 34 4b 06 be 5c fc 22 3f 1d 09 63 3e 83 47 b5 3d
       -0.13114625 0.6366632 0.22171445 0.088515304
0000a0 84 8e b5 be e6 47 01 3e ca d2 44 3e 2a 7c d9 bd
       -0.35460293 0.12625083 0.19221035 -0.106193855
0000b0 d5 45 66 bf 45 d3 1b bf 7f c4 e8 3e 08 88 39 bf
       -0.89950305 -0.60869247 0.45462415 -0.7247319
0000c0 8d 83 0d bc 9e d4 24 be d3 5b 3b bd c2 ce 9f bd
       -0.008637321 -0.16096732 -0.045741867 -0.07803108
0000d0 a3 70 ce be 24 35 45 be 00 06 ae 3c e5 a4 6b bd
       -0.4032031 -0.19258553 0.021243095 -0.057530303
0000e0 9b 5e 74 be 95 37 13 3f 5d 03 e7 be fb ee a6 bd
       -0.23864214 0.57506686 -0.45119753 -0.08151051
0000f0 76 ef b7 3d eb 02 dd 3c 69 14 53 be d7 64 25 bf
       0.089812204 0.02697893 -0.20613255 -0.64606994
000100 a2 cd 42 be 7c f1 8e 3d 77 4c a0 3c 79 5c 2d bf
       -0.19023755 0.06979653 0.019567711 -0.6771923
000110 43 51 66 be 76 22 24 be 76 55 8d bf 8e 07 10 3e
       -0.22491936 -0.16028771 -1.1041706 0.14065382
000120 e1 1f 62 be 5f 4d 2d 3d fe 26 6f 3c db ac 25 be
       -0.22082473 0.042310115 0.014596699 -0.1617922
000130 d2 bc 3c bd eb 34 e1 be d5 57 5c 3c e6 40 e4 bd
       -0.04607851 -0.43985686 0.013448675 -0.11145191
000140 ec 54 80 bd b1 2d c3 bc 22 29 42 bd 84 f4 11 be
       -0.062661976 -0.023825498 -0.04740251 -0.14253432
000150 8f a9 89 3e a4 27 e7 3e 1c b2 f5 be 76 75 17 be
       0.26887175 0.4514743 -0.4798745 -0.14790902
000160 e7 c6 d7 3c f9 5f 63 bf 0e 1b 1b 3e f7 de 13 3e
       0.026339961 -0.8881832 0.1514704 0.14440523
000170 3e a1 43 be 3b bc 6a bd 70 bc 57 bf 49 5a 8c be
       -0.19104478 -0.057308417 -0.8427191 -0.27412632
000180 bb c6 96 3e dd e9 bd be 38 68 25 be 9b aa 42 bf
       0.29448494 -0.37092486 -0.16153038 -0.76041573
000190 2b b4 24 bf 6b d8 b9 3d 8d e6 7a 3e 07 1b 8d 3e
       -0.64337415 0.090744816 0.2450201 0.27559683
0001a0 4b a1 e7 bd 96 14 52 3f e3 bd 7a 3e 38 c0 02 3f
       -0.11310061 0.8206266 0.24486499 0.5107455
0001b0 fd 62 85 3e 34 6d 84 bd e1 f2 ee 3d 36 b7 21 3f
       0.26052085 -0.06466141 0.11667419 0.6317018
0001c0 cf d1 f7 39 4a a7 07 3e 4e e4 03 bd e6 4a a8 bd
       0.0004726783 0.1324741 -0.03220015 -0.08217411
0001d0 6b 0d fb bc cd 55 1c be 5d 84 5f bb be 98 46 3d
       -0.030646047 -0.15267105 -0.0034105994 0.04848551
0001e0 e9 48 9f be 14 03 14 bf 89 8f bf 3d 71 26 ab 3d
       -0.31110314 -0.57817197 0.09353549 0.083569415
0001f0 e7 65 a2 3c f4 da 87 be 8e e7 f6 3e 40 a1 8f be
       0.019823981 -0.26534235 0.48223537 -0.2805271
000200 26 02 79 be 1d 46 46 3e db ee 9c be 03 dc fd 3c
       -0.24317226 0.19362684 -0.30650982 0.030988699
000210 62 ec e4 bd 1f dc 00 3e 5e 40 ae 3e 58 a2 c0 3d
       -0.11177899 0.1258397 0.34033483 0.094059646
000220 26 62 e5 3d 7f f2 89 bd 38 9d 08 3d 87 bb 96 bc
       0.11200361 -0.067357056 0.03335306 -0.018399967
000230 51 6c 76 be df 9e 00 3e ed b0 f1 3a 34 94 7f 3d
       -0.24064757 0.12560605 0.0018439569 0.062397197
000240 f3 24 e8 bd 2c 0b 88 3e a5 b4 c5 3e 77 a0 47 3f
       -0.113351725 0.26571023 0.38614383 0.77979225
000250 5f fc 2e be 87 93 4f be 3a 78 78 3e 23 f6 46 3e
       -0.1708846 -0.20271121 0.24264613 0.19429831
000260 2e 53 70 be 33 bc 16 be d9 1f 9f be 4c 50 a1 3d
       -0.2346923 -0.1472023 -0.31078985 0.078766435
000270 e0 3f 0a bf 11 78 22 3d 0e 76 0b 3e ac e3 ed 3d
       -0.54003716 0.039665285 0.13619253 0.116156906
000280 73 3b a1 be a6 06 0a bf 9e 1b 72 3e a4 53 f8 bd
       -0.3149067 -0.53916395 0.23643348 -0.12125328
000290 15 d3 b0 be 0b e9 39 bf bd d1 98 3d 9b 16 4f 3e
       -0.34536043 -0.7262122 0.074618794 0.20223467
0002a0 e3 70 4d 3e fe 80 3c be 92 fd 30 3c fc cd cd 3e
       0.20062594 -0.18408582 0.010802643 0.40196216
0002b0 76 a2 0c 3e 36 89 00 3f ba ec b6 3e 34 b4 b8 bd
       0.13733849 0.5020937 0.35727483 -0.09018746
0002c0 1d 32 a2 bd 5a be c7 bd 70 a8 f4 be 6d 70 50 be
       -0.079197146 -0.097531036 -0.47784758 -0.20355387
0002d0 e1 3d 5e be a2 92 2b be 3e 55 6c 3e 99 d0 a1 3e
       -0.21703292 -0.16755155 0.23079392 0.3160446
0002e0 85 46 9b bd ae 2a 30 bf ab c0 47 bf a5 5c b3 3c
       -0.0758181 -0.68815124 -0.78028363 0.021894762
0002f0 01 bd b4 3d da 09 75 3d 87 97 60 bd e8 0f 70 3e
       0.08825112 0.05982385 -0.054832008 0.23443568
000300 32 45 80 3e a4 c0 90 be 7a d0 07 be 35 37 dd 3e
       0.25052792 -0.28271973 -0.13263121 0.43206182
000310 34 3b e9 bd 49 a2 36 be 8e 65 91 bd 9b 7c 64 3e
       -0.11388245 -0.17835344 -0.07099448 0.22313158
000320 a8 88 c7 3e 7e 2e 81 3e 61 f0 43 3c 44 11 ce 3e
       0.38971448 0.25230783 0.011959166 0.40247548
000330 63 b2 1c be 39 6b a1 be 6c 26 6c 3e 88 e5 0a 3f
       -0.15302424 -0.31527117 0.23061532 0.54256487
000340 87 6a 68 bd 66 c7 e4 bc ea 7a 4d 3d 56 13 b0 bd
       -0.056742217 -0.027927112 0.050166048 -0.08597438
000350 a1 c0 60 3e a8 7a 5b bd f2 91 f1 3e 9f fb 3b 3e
       0.21948482 -0.05358377 0.4718166 0.18357705
000360 1b e9 73 be e8 c8 d6 bd 5d e7 14 3d 0e 16 39 3d
       -0.23819391 -0.104875386 0.036353458 0.04518705
000370 8d 6d d7 3e 03 96 29 bd 1c 0b 7d 3e 70 92 bd be
       0.42075768 -0.041402828 0.24711269 -0.37025785
000380 d8 fa 15 3e b9 89 4b 3f 6a ec fd bd c8 6c e5 3e
       0.1464647 0.79507023 -0.12398608 0.44809556
000390 0f e5 22 3f ea 29 3c 3e 00 3f ed 3d fc 04 6d be
       0.63630766 0.18375364 0.11584282 -0.23146433
0003a0 3e 4b 41 be fd 59 4c be 66 0b 82 3d 40 7b 61 3c
       -0.18876359 -0.19956203 0.0634983 0.013762295
0003b0 82 d6 e6 be b7 6d 8b bd 7b 3e 12 3e 22 38 3e bf
       -0.4508553 -0.06808036 0.14281647 -0.743044
0003c0 77 3d 9f 3e 24 1a 50 3e eb bd 59 be 80 45 11 3f
       0.3110158 0.20322472 -0.21263854 0.56746674
0003d0 42 71 49 3e 97 22 17 bf 68 49 0a be 88 34 3b 3e
       0.1967211 -0.59037155 -0.13504565 0.18281758
0003e0 b0 86 f9 3d 3a 2e 22 3f d1 a1 71 3e d1 cd 0c bf
       0.12183893 0.63351786 0.23596884 -0.5500155
0003f0 ae 4c 8b 3e bd bb 08 3f 87 78 a7 be c6 a3 79 3e
       0.2720694 0.53411466 -0.32709143 0.24378881

layers.output.bias f4 [2]
000000 fe 1e 65 3d 80 a4 2f bd
       0.05593776 -0.04288149
