results/SMOTE2K/smote999/smote0.35/model.pth (torch, 205093 bytes, 10 tensors)

layers.block_0.layer.0.weight f4 [128, 2]
-0.48804465 0.74191886 -0.8536589 -0.4989553 0.8784187 -0.56557184 0.465732 -0.64589286
-0.30019686 -0.8334165 -0.74604976 -0.20469591 -0.42029738 0.8251014 -0.7004043 0.56314474
-0.05291966 -0.6363613 0.18231207 0.7631213 0.84390664 -0.4220066 -0.72071403 -0.031307526
0.5826063 0.44678837 -0.7024966 -0.37829554 -0.25251997 0.34757617 0.1733717 -0.7697268
0.8264937 0.5991485 0.29597762 0.23405877 0.47154522 -0.51589227 0.9161241 0.21490939
-0.75938594 0.5379058 0.6068118 0.29897213 -0.76940227 0.580748 0.68103063 0.69698566
0.32179162 -0.74638385 0.8334394 -0.44209406 0.65361863 -0.008257679 -0.37215546 -0.67203546
0.1762206 0.15210608 -0.7582705 -0.46327844 -0.7859936 0.5243418 -0.83867204 -0.67233604
0.45484877 0.25861284 -0.25092798 0.23630773 -0.38071337 0.55501056 0.59816337 -0.4944237
-0.08153128 0.07687515 -0.5223529 0.40108788 0.25353903 -0.105025396 -0.84726804 -0.5629386
-0.25375667 -0.5565754 0.11026754 0.047218718 0.034576133 -0.110055804 -0.28808376 0.36309293
-0.119832434 -0.362556 -0.52542406 -0.4521374 0.3097643 -0.35078347 0.32774332 0.5308138
-0.7793541 -0.15752238 -0.8010105 -0.441148 0.3915067 -0.5636661 0.54160565 0.07809835
0.52555835 -0.05052493 -0.4888194 0.658469 -0.63023245 -0.4843101 0.34505358 0.76172227
0.8060259 -0.4761924 -0.24756755 0.4284175 0.87759733 0.6230639 -0.785801 0.4567121
-0.95410186 0.22907828 -0.5707175 -0.11839446 -0.38831455 -0.77756774 0.20580153 -0.7076601
0.37064064 -0.061130635 -0.4356717 -0.7403329 0.30848643 -0.23104599 0.4300257 0.4200925
0.63976234 0.29458696 -0.35030964 0.013486017 -0.77976954 -0.45707163 -0.29672852 -0.52631056
0.5734716 -0.5440449 -0.6731489 0.25188473 0.8411028 0.64314216 -0.52889615 -0.5312731
0.42196742 0.17983676 0.45247164 0.5494979 -0.8935049 -0.2692088 -0.5060679 0.5587867
0.9582238 0.33382788 -0.42388383 -0.5422224 -0.3914446 0.7509121 0.7240929 0.08585269
-0.77957064 -0.24485987 0.5412999 -0.44922546 -0.17369947 0.8529131 0.7886745 0.4360992
0.46974257 -0.3708398 -0.40654492 0.15650842 -0.31331834 -0.6944117 -0.68216705 -0.50043744
-0.78864557 -0.20881845 0.43998402 0.33696443 -0.7517965 -0.3189309 0.3981961 -0.18031378
0.08621073 -0.79189324 -0.65927345 -0.2109961 -0.6431379 0.46136248 -0.52580833 0.046248637
-0.43222946 0.5357108 0.3431147 -0.31111428 -0.829963 -0.09814094 -0.81901777 0.47610143
-0.3212937 0.84306073 0.1734 -0.8052582 -0.41610163 -0.70279765 -0.28263438 -0.5999688
0.7632309 0.5114908 0.7289118 -0.05258016 0.38732883 -0.30383807 -0.7482977 0.10390565
0.93466294 0.4054419 0.16735645 0.76703894 -0.56707793 0.13461648 0.7398226 -0.06736881
-0.6922741 0.02441601 -0.5357018 0.4227002 0.71840304 -0.52391416 0.31335273 0.4117287
-0.70943326 0.52508396 -0.3939554 -0.3595969 0.056738906 -0.8796505 0.5814481 -6.631919e-05
0.22684339 0.23142804 -0.2430133 -0.2901265 -0.094678916 -0.3741805 -0.5004278 0.7664581
00000000: fde0 f9be 65ee 3d3f 6489 5abf 1277 ffbe
00000010: 0ce0 603f 51c9 10bf 6d74 ee3e 3c59 25bf
00000020: 67b3 99be c95a 55bf 1efd 3ebf ce9b 51be
00000030: 3831 d7be d839 533f b24d 33bf 412a 103f
00000040: 49c2 58bd 93e8 22bf 04b0 3a3e eb5b 433f
00000050: 440a 583f 4011 d8be b780 38bf 523c 00bd
00000060: b025 153f 72c1 e43e d1d6 33bf f4af c1be
00000070: 4c4a 81be 81f5 b13e 5a88 313e d10c 45bf
00000080: 1795 533f cc61 193f 618a 973e 1aad 6f3e
00000090: 606e f13e 8411 04bf 1c87 6a3f 3511 5c3e
000000a0: 1e67 42bf 32b4 093f 0558 1b3f e012 993e
000000b0: 8cf7 44bf e7ab 143f 0658 2e3f a76d 323f
000000c0: dfc1 a43e 0313 3fbf 495c 553f 275a e2be
000000d0: 8d53 273f 374b 07bc 298b bebe 840a 2cbf
000000e0: 2c73 343e b2c1 1b3e 041e 42bf d532 edbe
000000f0: e036 49bf 443b 063f 36b3 56bf 371e 2cbf
00000100: f0e1 e83e e768 843e a279 80be a7fa 713e
00000110: ddec c2be 2c15 0e3f 3c21 193f 1a25 fdbe
00000120: dff9 a6bd b870 9d3d ebb8 05bf 645b cd3e
00000130: decf 813e 8e17 d7bd 8fe6 58bf be1c 10bf
00000140: 65ec 81be ba7b 0ebf f3d3 e13d 6a68 413d
00000150: b49f 0d3d f064 e1bd b77f 93be 51e7 b93e
00000160: b56a f5bd f1a0 b9be 3182 06bf 8e7e e7be
00000170: 6d99 9e3e e499 b3be f9cd a73e 6ae3 073f
00000180: c083 47bf 8c4d 21be 060f 4dbf 27de e1be
00000190: 9173 c83e 6c4c 10bf aba6 0a3f 07f2 9f3d
000001a0: fe8a 063f 3bf3 4ebd 8946 fabe 6d91 283f
000001b0: ea56 21bf 7ef7 f7be ddaa b03e 3b00 433f
000001c0: b757 4e3f 7ecf f3be 5982 7dbe 8a59 db3e
000001d0: 38aa 603f 1e81 1f3f 412a 49bf 2bd6 e93e
000001e0: 0540 74bf 7f93 6a3e 8b1a 12bf cb78 f2bd
000001f0: 2ad1 c6be ae0e 47bf a3bd 523e 3629 35bf
00000200: 9cc4 bd3e 1e64 7abd 5c10 dfbe 7586 3dbf
00000210: eff1 9d3e 5297 6cbe 542c dc3e 5d16 d73e
00000220: 77c7 233f 1ad4 963e c95b b3be 74f4 5c3c
00000230: fa9e 47bf 4b05 eabe cdec 97be 4abc 06bf
00000240: 09cf 123f 8746 0bbf 7c53 2cbf 09f7 803e
00000250: 8352 573f f7a4 243f bd65 07bf 8401 08bf
00000260: 1d0c d83e 2127 383e 5daa e73e e5ab 0c3f
00000270: bdbc 64bf bcd5 89be aa8d 01bf a50c 0f3f
00000280: 284e 753f 7deb aa3e 4d07 d9be 16cf 0abf
00000290: 6d6b c8be c63b 403f 275e 393f 89d3 af3d
000002a0: f191 47bf 8cbc 7abe a192 0a3f e100 e6be
000002b0: 46de 31be 8358 5a3f 92e6 493f 6548 df3e
000002c0: 1982 f03e b7de bdbe a826 d0be be43 203e
000002d0: 436b a0be f7c4 31bf 80a2 2ebf ab1c 00bf
000002e0: ade4 49bf 81d4 55be 9645 e13e 9a86 ac3e
000002f0: bc75 40bf e94a a3be 5ce0 cb3e 2da4 38be
00000300: 408f b03d 84b9 4abf 25c6 28bf 5d0f 58be
00000310: afa4 24bf b437 ec3e 609b 06bf 366f 3d3d
00000320: 2e4d ddbe 5824 093f bbac af3e 5f4a 9fbe
00000330: 7578 54bf 1efe c8bd 26ab 51bf 91c3 f33e
00000340: 9c80 a4be d4d2 573f c58f 313e 6725 4ebf
00000350: 460b d5be 8cea 33bf 74b5 90be 8e97 19bf
00000360: 1a63 433f 10f1 023f f799 3a3f 4b5e 57bd
00000370: f74f c63e aa90 9bbe 7090 3fbf 7ccc d43d
00000380: 1246 6f3f 1596 cf3e 7d5f 2b3e aa5c 443f
00000390: 052c 11bf e7d8 093e 0465 3d3f a9f8 89bd
000003a0: e038 31bf 1604 c83c c123 09bf 296c d83e
000003b0: 43e9 373f 3d1f 06bf c56f a03e 1bce d23e
000003c0: 6b9d 35bf e76b 063f 86b4 c9be 161d b8be
000003d0: 0e67 683d c630 61bf c8d9 143f d814 8bb8
000003e0: a249 683e 79fb 6c3e 7ad8 78be 768b 94be
000003f0: 05e7 c1bd 9694 bfbe 091c 00bf 9936 443f

layers.block_0.layer.0.bias f4 [128]
-0.15342669 0.45700547 0.4946054 0.27557725 -0.20071788 0.4184676 0.5539271 -0.20140196
0.35408908 0.4872408 0.22390448 -0.4046369 -0.28047004 0.51590043 -0.34683636 0.53060836
-0.5577741 -0.5994946 0.5964264 -0.1940214 0.13748744 0.12131125 -0.11758322 -0.48486134
0.27471405 0.47183326 -0.33742267 -0.4030675 0.46274406 0.3082312 0.5065737 0.6155856
-0.56209666 -0.21806484 -0.50153553 0.15857749 -0.57334423 0.28320703 -0.1484067 0.43474808
0.16108507 0.47967657 -0.386799 0.48152173 0.69543153 -0.47913483 0.31868842 -0.6682659
-0.4254368 0.61373436 -0.33012137 0.30219647 -0.2512132 -0.6058986 -0.020315742 -0.7495037
0.54717255 -0.013077972 -0.2429013 -0.3596609 -0.14514273 -0.64748293 -0.14406708 0.64423287
-0.06445905 0.39783064 -0.44718668 -0.10119384 -0.60867625 -0.7174909 0.4025331 -0.5502595
-0.5230086 0.35053846 -0.61682534 0.45830292 0.41655234 0.09509793 0.35121092 -0.2251239
-0.14872457 -0.1307688 -0.13133724 -0.024110422 0.065429725 0.37612313 0.381229 -0.46573323
-0.17142853 0.6484016 -0.66099524 0.30340353 -0.025535502 -0.5647064 0.22936292 0.19952066
-0.43185046 0.06293576 -0.42033443 -0.35672984 0.014188836 -0.16588396 -0.021914722 -0.39382127
0.29812056 0.46509665 -0.5050112 0.7075994 -0.4197035 0.41922852 0.6488657 -0.064156
-0.2085182 -0.012773935 0.013905811 0.47911856 0.4087856 0.5703098 0.38347572 0.5145074
-0.4062525 0.17478564 -0.006404098 -0.12997638 0.32242316 -0.12931629 -0.3823779 0.6179448
00000000: e31b 1dbe 9ffc e93e eb3c fd3e 7618 8d3e
00000010: fd88 4dbe 6341 d63e 2bce 0d3f 513c 4ebe
00000020: 2a4b b53e a077 f93e 3747 653e 912c cfbe
00000030: c599 8fbe 0d12 043f 8994 b1be f3d5 073f
00000040: 49ca 0ebf 7a78 19bf 67af 183f 8cad 46be
00000050: 82c9 0c3e 0872 f83d 79cf f0bd bf3f f8be
00000060: 52a7 8c3e 2194 f13e aac2 acbe dd5e cebe
00000070: caec ec3e 7bd0 9d3e d0ae 013f 0597 1d3f
00000080: 91e5 0fbf 644c 5fbe a264 00bf 2362 223e
00000090: b0c6 12bf 8300 913e edf7 17be 4d97 de3e
000000a0: 7cf3 243e 2b98 f53e 850a c6be 048a f63e
000000b0: cd07 323f 2951 f5be 212b a33e 7913 2bbf
000000c0: dad2 d9be b21d 1d3f ab05 a9be 7fb9 9a3e
000000d0: 049f 80be 2c1c 1bbf 336d a6bc 79df 3fbf
000000e0: 8013 0c3f fe44 56bc 1ebb 78be 7925 b8be
000000f0: 4ca0 14be 71c1 25bf 5286 13be 72ec 243f
00000100: 1b03 84bd 75b0 cb3e a7f5 e4be b73e cfbd
00000110: 35d2 1bbf 7cad 37bf d218 ce3e cedd 0cbf
00000120: e4e3 05bf c779 b33e 44e8 1dbf aea6 ea3e
00000130: 5946 d53e b4c2 c23d ebd1 b33e e186 66be
00000140: 414b 18be 42e8 05be 457d 06be 3883 c5bc
00000150: 0500 863d 3693 c03e 7330 c33e 9674 eebe
00000160: f68a 2fbe a6fd 253f fc36 29bf b557 9b3e
00000170: d42f d1bc 9990 10bf 1dde 6a3e 254f 4c3e
00000180: 811b ddbe 77e4 803d 1336 d7be 4ba5 b6be
00000190: 4b78 683c 7cdd 29be 8186 b3bc f1a2 c9be
000001a0: 42a3 983e 2621 ee3e 6a48 01bf 3c25 353f
000001b0: 61e3 d6be 1fa5 d63e 101c 263f 3964 83bd
000001c0: cc85 55be c449 51bc 33d5 633c 074f f53e
000001d0: 594c d13e d3ff 113f ee56 c43e c2b6 033f
000001e0: 5400 d0be 02fb 323e 78d9 d1bb 8718 05be
000001f0: a614 a53e 7d6b 04be 09c7 c3be a131 1e3f

layers.block_1.layer.0.weight f4 [128, 128]
-0.20607886 -0.0006041747 0.0087822275 0.15643209 0.09330362 -0.029314654 -0.017498514 -0.1228649
0.032083023 -0.12986523 0.15398853 0.09708116 -0.06383346 0.04055074 0.027217776 0.13038564
0.025285171 0.023889305 -0.060778458 -0.03822841 -0.014489338 -0.059360795 -0.19759704 -0.093392
0.135743 0.097375154 0.11563146 0.038747065 -0.017569784 0.08956818 -0.0437655 -0.046915624
-0.027933003 0.0021506604 -0.052079212 0.1269408 0.0485273 -0.13264093 0.06628784 0.021589022
0.13013884 -0.04342335 0.098158464 -0.12276409 -0.06993891 0.09848756 0.073583275 -0.015676707
0.035596352 -0.05648857 0.13553324 -0.07901064 0.12864223 0.018676847 0.0067583662 -0.031263515
0.026338862 -0.07739596 -0.09164207 -0.0336413 -0.07999754 0.012350303 0.013513445 -0.02838036
-0.0003118249 0.10222901 -0.029978951 -0.13532127 0.09708273 0.0060647717 -0.040304054 0.03856354
0.10651543 -0.058876894 -0.057725526 0.022731392 0.030478386 -0.13177294 0.014996378 -0.10798413
-0.08663068 0.12958685 -0.17559078 0.0742998 0.11276584 0.07878349 -0.15539354 -0.03865841
0.1007719 0.012903344 -0.0038164016 0.07407622 0.027431834 -0.050649274 -0.013468279 0.019068843
-0.01867589 0.0891699 0.032329276 0.01534786 -0.16240375 0.10850575 -0.0052740006 -0.0934857
-0.014260263 0.082255386 0.083584644 0.046049003 -0.0071948916 -0.027803255 0.08069562 -0.011002569
-0.019995393 -0.124101475 -0.0865739 0.004095528 0.029529367 -0.02313561 0.05884114 -0.0021499472
-0.06724354 0.09105409 0.032059934 -0.039119583 -0.03366989 0.08942023 -0.021484492 -0.012439573
-0.055645097 -0.09481684 0.017229285 -0.008968575 0.016789097 -0.11673414 0.010569882 -0.10473727
-0.037795927 0.026831483 0.17014343 -0.0035113103 0.12113203 -0.09930975 -0.11778906 -0.013875169
0.11115661 -0.055786844 0.033170294 0.14250135 -0.11560019 0.07623622 -0.052316256 0.11572664
0.06268422 0.08079321 0.008790867 0.032192573 0.003988484 -0.074055254 -0.054094188 -0.007624179
0.11913242 -0.10483635 -0.07715706 0.053961985 0.088335484 0.02019989 0.10894333 -0.14438753
-0.056411766 0.02698464 -0.012320057 -0.061565682 -0.07924047 -0.07556882 0.067285866 0.03975995
-0.114703596 -0.07856269 -0.031249026 -0.021589879 -0.013318353 -0.095744744 -0.023417128 -0.0570277
0.060155723 -0.020209676 0.032317877 -0.038570307 -0.1993879 -0.041598044 -0.026162272 -0.078884654
0.024114132 0.009779159 0.07879086 0.06541812 0.12319237 0.03451491 -0.11512814 -0.050577994
0.07761442 0.019273195 0.020831747 -0.008125931 0.11155632 0.111142434 -0.08820763 -0.10688669
0.10754489 0.02257845 0.023284437 0.15232357 -0.14314802 0.08470918 -0.011233754 0.13786234
0.07330363 0.04000593 0.015218813 -0.14744334 -0.034202937 0.03427116 -0.15580913 0.03137576
-0.07588228 -0.17735504 -0.15727726 -0.13381356 -0.11736514 0.11967681 -0.17978054 -0.02891105
-0.059222717 -0.04872583 0.052222963 -0.050684612 0.13279094 0.092931375 0.10285398 -0.22368969
0.044340193 -0.022298733 -0.10961917 0.14622033 -0.034149606 -0.035609994 0.024251845 -0.028628072
-0.16049606 -0.17214237 -0.00960477 0.16180421 0.081000805 -0.12396438 0.064013265 -0.048204828
00000000: 5606 53be 7a61 1eba 55e3 0f3c bc2f 203e
00000010: f815 bf3d 4925 f0bc 0b59 8fbc 98a0 fbbd
00000020: 7d69 033d 64fb 04be 2baf 1d3e 7dd2 c63d
00000030: 1ebb 82bd 8818 263d d0f7 de3c d083 053e
00000040: d922 cf3c 81b3 c33c d5f2 78bd 6595 1cbd
00000050: b064 6dbc 4e24 73bd e156 4abe 4e44 bfbd
00000060: 3700 0b3e a06c c73d 30d0 ec3d 3eb5 1e3d
00000070: 82ee 8fbc 866f b73d 7443 33bd 992a 40bd
00000080: c1d3 e4bc 18f2 0c3b 0351 55bd c5fc 013e
00000090: 90c4 463d 06d3 07be ebc1 873d 76db b03c
000000a0: 1e43 053e afdc 31bd 4e07 c93d bd6b fbbd
000000b0: 223c 8fbd d9b3 c93d d4b2 963d 706c 80bc
000000c0: 7bcd 113d 8f60 67bd 3ac9 0a3e 55d0 a1bd
000000d0: caba 033e 3000 993c 4975 dd3b 2c0e 00bd
000000e0: 99c4 d73c c681 9ebd d6ae bbbd 76cb 09bd
000000f0: c0d5 a3bd ed58 4a3c 7f67 5d3c ee7d e8bc
00000100: 6e7c a3b9 715d d13d 6b96 f5bc a991 0abe
00000110: 4fd3 c63d feba c63b dd15 25bd cdf4 1d3d
00000120: c324 da3d e628 71bd 9a71 6cbd 2f37 ba3c
00000130: cfad f93c 7cef 06be 5eb3 753c c926 ddbd
00000140: 6d6b b1bd 6ab2 043e 12ce 33be 7e2a 983d
00000150: c7f1 e63d 3d59 a13d 7c1f 1fbe 4858 1ebd
00000160: 7f61 ce3d 8c68 533c 981c 7abb 46b5 973d
00000170: bab8 e03c 9d75 4fbd 0eaa 5cbc 4336 9c3c
00000180: 2efe 98bc b59e b63d b46b 043d 9775 7b3c
00000190: 2b4d 26be 4338 de3d 86d1 acbb 6e75 bfbd
000001a0: e1a3 69bc 8375 a83d 6d2e ab3d e19d 3c3d
000001b0: 20c3 ebbb a7c3 e3bc bf43 a53d 1f44 34bc
000001c0: 61cd a3bc ea28 febd a84d b1bd c733 863b
000001d0: 92e7 f13c e486 bdbc 6803 713d 21e6 0cbb
000001e0: fbb6 89bd 917a ba3d 4751 033d db3b 20bd
000001f0: 70e9 09bd f421 b73d 3f00 b0bc 5acf 4bbc
00000200: 1dec 63bd 552f c2bd 6e24 8d3c eef0 12bc
00000210: 4a89 893c 4f12 efbd 4c2d 2d3c 7e80 d6bd
00000220: e7cf 1abd b3cd db3c 143a 2e3e 031e 66bb
00000230: 1214 f83d e962 cbbd 643b f1bd ad54 63bc
00000240: 14a6 e33d bf80 64bd 93dd 073d e0eb 113e
00000250: cbbf ecbd bc21 9c3d 9249 56bd 1702 ed3d
00000260: 9660 803d e976 a53d 9207 103c 5cdc 033d
00000270: d4b1 823b 48aa 97bd de91 5dbd 40d4 f9bb
00000280: b3fb f33d 71b4 d6bd 8504 9ebd 3e07 5d3d
00000290: 3ce9 b43d 3d7a a53c ae1d df3d 53da 13be
000002a0: 0610 67bd e40e dd3c 10da 49bc 4c2c 7cbd
000002b0: d448 a2bd d3c3 9abd 2ccd 893d 54db 223d
000002c0: b8e9 eabd 7ae5 a0bd f5fd ffbc 42dd b0bc
000002d0: 3935 5abc d215 c4bd 47d5 bfbc e195 69bd
000002e0: d965 763d c38e a5bc c05f 043d e6fb 1dbd
000002f0: 572c 4cbe b662 2abd 4352 d6bc 478e a1bd
00000300: 008b c53c c438 203c 1a5d a13d eff9 853d
00000310: 484c fc3d 825f 0d3d 4dc8 ebbd df2a 4fbd
00000320: 4ff4 9e3d d2e2 9d3c 57a7 aa3c a022 05bc
00000330: a477 e43d a59e e33d 34a6 b4bd 69e7 dabd
00000340: 7f40 dc3d 71f6 b83c 01bf be3c b6fa 1b3e
00000350: 6595 12be 027c ad3d c80d 38bc c92b 0d3e
00000360: 3720 963d 42dd 233d 5458 793c 63fb 16be
00000370: 6118 0cbd ea5f 0c3d 6e8c 1fbe de83 003d
00000380: 2b68 9bbd 8f9c 35be 4a0d 21be 6c06 09be
00000390: 225d f0bd 1e19 f53d 6418 38be ded6 ecbc
000003a0: 8593 72bd bc94 47bd bfe7 553d ab9a 4fbd
000003b0: 59fa 073e ce52 be3d 1ca5 d23d e90e 65be
000003c0: 109e 353d d5ab b6bc 0480 e0bd c8ba 153e
000003d0: 75e0 0bbd c9db 11bd ceab c63c 6b85 eabc
000003e0: 1459 24be 1746 30be 535d 1dbc 01b0 253e
000003f0: c0e3 a53d 09e1 fdbd 6319 833d 6d72 45bd

layers.block_1.layer.0.bias f4 [128]
0.015657162 0.043593198 0.018521 0.036289174 -0.07044572 -0.0009770173 0.060180824 -0.05219732
-0.09222583 0.058060307 0.024986705 0.06938877 0.055740982 -0.016815398 -0.0012577322 -0.09147046
0.039126895 -0.032899372 0.07659965 0.07748354 -0.056098852 0.01626017 -0.07115146 -0.07695191
-0.041506458 -0.004470144 -0.08021589 0.046982516 -0.011306186 0.14280707 0.0197886 0.058596514
6.880657e-05 0.04090728 -0.03854285 -0.073802255 0.01928921 0.022236435 0.050149765 -0.04586627
0.037379537 0.016922725 0.0042924946 -0.05670688 0.037835237 0.028225519 -0.060511705 0.014225958
-0.02196463 0.0020314448 -0.030481305 -0.056857023 -0.04557666 0.06382832 -0.06933648 -0.06672039
-0.02998354 0.094137624 0.06507941 0.07549057 0.022437582 -0.06926728 -0.0006756718 0.042615447
-0.046251226 -0.044664353 -0.007730841 0.03197467 0.0053940914 0.0063172025 -0.019419357 0.0820188
0.05811529 0.08917717 -0.0947992 -0.006966313 -0.04113457 -0.12115444 -0.031050358 0.0679655
0.09031322 -0.08809695 -0.013833474 0.03839594 0.02105099 0.0635829 -0.04661937 -0.064046785
-0.049914833 0.082383074 0.09177656 -0.06776824 0.06627138 -0.09649804 -0.034825243 -0.003867442
-0.018571591 -0.0347808 0.048999093 -0.050264377 0.004404411 0.08753494 -0.008283168 0.044475462
-0.06793251 0.00499774 -0.023740312 -0.08268554 0.056867935 0.040086925 0.056109313 0.047065098
-0.033476215 0.062290326 -0.017084502 -0.007049971 0.103287846 -0.058635104 0.104779266 0.1436522
-0.07612279 -0.03480567 0.047606573 -0.009044494 0.008609216 0.053878095 0.0045912294 0.061578587
00000000: 7343 803c c88e 323d 5ab9 973c f5a3 143d
00000010: d845 90bd 430f 80ba 2b80 763d dbcc 55bd
00000020: e5e0 bcbd a5d0 6d3d ebb0 cc3c b31b 8e3d
00000030: a850 643d 72c0 89bc 7dda a4ba dd54 bbbd
00000040: 8643 203d 7ec1 06bd 47e0 9c3d b1af 9e3d
00000050: e9c7 65bd 0c34 853c dbb7 91bd f798 9dbd
00000060: ad02 2abd 497a 92bb 3b48 a4bd bd70 403d
00000070: 953d 39bc 043c 123e b41b a23c e602 703d
00000080: 3f4c 9038 648e 273d 1cdf 1dbd a325 97bd
00000090: 6804 9e3c 2f29 b63c d769 4d3d 45de 3bbd
000000a0: 491b 193d 87a1 8a3c 0ea8 8c3b 7945 68bd
000000b0: 1ff9 1a3d 3439 e73c 1fdb 77bd fe13 693c
000000c0: 2bef b3bc fd21 053b eeb3 f9bc e9e2 68bd
000000d0: 98ae 3abd 6cb8 823d 4900 8ebd b3a4 88bd
000000e0: 0aa0 f5bc 3acb c03d 5b48 853d cd9a 9a3d
000000f0: 05cf b73c 01dc 8dbd 911f 31ba 898d 2e3d
00000100: ed71 3dbd f8f1 36bd ff52 fdbb dff7 023d
00000110: ebc0 b03b 8900 cf3b 5815 9fbc 79f9 a73d
00000120: 4c0a 6e3d 85a2 b63d 1526 c2bd ab45 e4bb
00000130: b97c 28bd d21f f8bd 525d febc 7f31 8b3d
00000140: 23f6 b83d 2c6c b4bd cca5 62bc 1045 1d3d
00000150: 2073 ac3c c037 823d f4f3 3ebd f62a 83bd
00000160: 7f73 4cbd 75b8 a83d 59f5 bb3d 13ca 8abd
00000170: 4ab9 873d c4a0 c5bd eaa4 0ebd e974 7dbb
00000180: 7323 98bc 5076 0ebd 46b3 483d 05e2 4dbd
00000190: e152 903b 8545 b33d 20b6 07bc e72b 363d
000001a0: 3320 8bbd 15c4 a33b 0b7b c2bc 0957 a9bd
000001b0: 5aee 683d 3032 243d e1d2 653d 55c7 403d
000001c0: 5b1e 09bd 2424 7f3d ccf4 8bbc 7103 e7bb
000001d0: 9488 d33d 5d2b 70bd 8396 d63d 9019 133e
000001e0: 44e6 9bbd 6490 0ebd 1cff 423d 5b2f 14bc
000001f0: ab0d 0d3c 47af 5c3d 0672 963b d439 7c3d

layers.block_2.layer.0.weight f4 [128, 128]
0.07991445 0.013452882 0.11684355 0.0070682345 -0.09043306 -0.06561765 0.12851982 -0.0547515
0.099529855 0.020811716 0.18102127 0.21465555 -0.10203138 0.09565099 0.105754875 0.002396601
-0.16351087 -0.100971974 0.007999587 -0.041021295 -0.013520862 -0.023699395 0.08307165 -0.14167725
0.09723547 -0.084165886 -0.13552676 -0.031826094 0.006016995 0.09885106 -0.026793536 0.008691425
-0.012262755 -0.076148644 -0.094791204 -0.07430319 0.039433304 0.02968402 -0.02936451 -0.15423362
-0.1781676 -0.18569846 0.03894827 0.118385464 -0.20758632 -0.011378085 -0.029903285 -0.015939802
0.13897416 0.087813735 -0.12759787 -0.082552895 0.018491061 -0.022563413 0.07184926 -0.077755384
0.13432293 -0.042657875 -0.01052562 0.021328421 0.08835099 0.030773468 -0.046019368 -0.020404987
-0.17293265 0.08055579 0.0011810799 0.018740937 -0.13629487 0.07008685 0.08955463 -0.085815705
0.13376972 0.03856286 -0.022115095 0.04674727 -0.091710605 -0.15327652 -0.069040425 -0.051721767
0.0021624845 -0.02344263 -0.033808604 0.06441345 -0.008927605 0.021207634 -0.0063708187 0.0840545
0.015408728 -0.09792079 0.05904605 0.013497145 -0.05849875 -0.14691983 0.05459844 -0.091119334
0.049842697 0.1531113 0.022420406 0.11820096 0.14473958 -0.106593385 -0.1613586 0.118088156
-0.06539423 -0.080386244 0.0389331 -0.08593699 -0.1518364 0.0023404963 0.10374303 -0.10597789
-0.06665227 -0.14977354 -0.0027176382 -0.17382732 0.09935801 -0.0005718294 0.15527579 0.022541666
-0.15943569 0.12744954 -0.091057 -0.026445605 0.055790614 -0.05915844 -0.03320471 0.094111964
-0.065764256 0.099218674 0.10697636 0.024654401 -0.042617276 0.18207638 0.075448774 0.05153315
-0.020199226 0.0019877714 -0.0034135112 0.1331476 0.001672911 0.018015645 0.090827 -0.05212733
-0.11226184 -0.02356389 0.11368116 0.07725034 0.01091885 -0.045436468 -0.101522654 -0.11883372
0.02608506 -0.09875677 0.034178868 -0.08405829 -0.10150687 0.14290556 -0.094698705 -0.12733865
0.11355186 -0.022652602 -0.0599713 -0.14241485 -0.04174179 0.04732061 0.0056180777 0.023141038
-0.06099621 -0.041583918 0.011882503 0.119909905 -0.1539765 -0.035081547 -0.18066108 -0.059128456
0.06849979 0.046658292 -0.055008393 -0.00028948273 0.098255694 -0.120622255 -0.025629263 0.041958366
0.05713279 0.063898265 -0.08524 0.12155157 0.04124512 0.03468733 -0.0872837 -0.055098392
-0.07701984 0.13665533 0.042571615 -0.122188814 0.11912247 0.04720074 -0.057444807 0.04002719
0.11952545 0.13887851 -0.006499973 0.13971612 -0.029454116 -0.1334919 0.003720742 0.07694618
0.2430002 -0.21263324 -0.16192587 -0.025055889 -0.04156434 -0.046644464 -0.22594072 -0.030633038
-0.026380073 0.10402644 0.0143621415 -0.062418755 0.15284687 -0.17576595 -0.00022100496 -0.099416345
-0.052438963 0.03516087 0.18529718 0.22622856 0.011704266 0.011678729 -0.044697035 0.17749079
0.024421386 -0.053998303 -0.1780775 -0.12731603 -0.038269 0.11109564 0.015050543 -0.02303786
-0.16860001 -0.04708041 0.0560918 -0.08845246 -0.0064295046 -0.12043961 0.14173172 -0.035991866
-0.15058155 0.107776664 -0.042141337 0.0027007146 -0.017218089 -0.008432958 0.04556096 0.0372497
00000000: 30aa a33d 7a69 5c3c ac4b ef3d a69c e73b
00000010: f834 b9bd 8c62 86bd b39a 033e 1c43 60bd
00000020: 4fd6 cb3d 557d aa3c a45d 393e aace 5b3e
00000030: d4f5 d0bd abe4 c33d 0396 d83d 4b10 1d3b
00000040: 656f 27be 65ca cebd b310 033c f205 28bd
00000050: 9b86 5dbc 3c25 c2bc 7821 aa3d d713 11be
00000060: 6423 c73d 2a5f acbd 87c7 0abe 145c 02bd
00000070: 362a c53b 6d72 ca3d 1e7e dbbc 7b66 0e3c
00000080: b9e9 48bc d2f3 9bbd e421 c2bd 452c 98bd
00000090: d184 213d e72b f33c d78d f0bc 6bef 1dbe
000000a0: 9171 36be bd27 3ebe 3988 1f3d 1474 f23d
000000b0: 8291 54be 266b 3abc bcf7 f4bc 3094 82bc
000000c0: 3e4f 0e3e b0d7 b33d 04a9 02be 7e11 a9bd
000000d0: 917a 973c e8d6 b8bc b425 933d 373e 9fbd
000000e0: f38b 093e 06ba 2ebd a673 2cbc f1b8 ae3c
000000f0: 5df1 b43d a418 fc3c ce7e 3cbd 5c28 a7bc
00000100: 4215 31be 6ffa a43d 77ce 9a3a 9886 993c
00000110: e290 0bbe b289 8f3d 6b68 b73d 25c0 afbd
00000120: eefa 083e 17f4 1d3d b72a b5bc 117a 3f3d
00000130: c5d2 bbbd 85f4 1cbe 1165 8dbd 34da 53bd
00000140: 78b8 0d3b c20a c0bc e47a 0abd 33eb 833d
00000150: 1745 12bc a2bb ad3c 4dc2 d0bb c424 ac3d
00000160: e474 7c3c b28a c8bd 45da 713d 2123 5d3c
00000170: 639c 6fbd 2772 16be 9da2 5f3d c69c babd
00000180: db27 4c3d 35c9 1c3e 00ab b73c 5813 f23d
00000190: 9d36 143e a24d dabd 303b 25be 34d8 f13d
000001a0: 69ed 85bd 8ba1 a4bd 5078 1f3d bcff afbd
000001b0: 007b 1bbe 0363 193b 3a77 d43d f00a d9bd
000001c0: fc80 88bd 3c5e 19be 671a 32bb caff 31be
000001d0: 367c cb3d d2e6 15ba 9e00 1f3e 4da9 b83c
000001e0: 1c43 23be 2282 023e 187c babd 74a4 d8bc
000001f0: b384 643d 1f50 72bd a901 08bd c6bd c03d
00000200: 69af 86bd 2933 cb3d 6c16 db3d 07f8 c93c
00000210: 748f 2ebd 3b72 3a3e e384 9a3d 6d14 533d
00000220: d978 a5bc 4545 023b 37b5 5fbb d857 083e
00000230: 9445 db3a 8c95 933c 8203 ba3d 7883 55bd
00000240: 89e9 e5bd 0f09 c1bc abd1 e83d 6d35 9e3d
00000250: fae4 323c 971b 3abd 1ceb cfbd 185f f3bd
00000260: 56b0 d53c fd40 cabd 24ff 0b3d c126 acbd
00000270: d5e2 cfbd d655 123e 65f1 c1bd 1065 02be
00000280: e18d e83d f391 b9bc 77a4 75bd 33d5 11be
00000290: 70f9 2abd 42d3 413d da17 b83b 4692 bd3c
000002a0: 29d7 79bd e653 2abd d4ae 423c 5393 f53d
000002b0: 04ac 1dbe abb1 0fbd 38ff 38be ae30 72bd
000002c0: 9e49 8c3d c41c 3f3d 7b50 61bd b7c5 97b9
000002d0: 483a c93d cd08 f7bd 76f4 d1bc 89dc 2b3d
000002e0: 1304 6a3d 18dd 823d 4f92 aebd 08f0 f83d
000002f0: a5f0 283d 4d14 0e3d ccc1 b2bd daae 61bd
00000300: 94bc 9dbd 60ef 0b3e 935f 2e3d 213e fabd
00000310: 7bf6 f33d 9055 413d 3f4b 6bbd 8df3 233d
00000320: c2c9 f43d 2b36 0e3e bafd d4bb be11 0f3e
00000330: c249 f1bc 1ab2 08be b1d7 733b f595 9d3d
00000340: 0bd5 783e 87bc 59be e5cf 25be 0242 cdbc
00000350: 5f3f 2abd 440e 3fbd 015d 67be 23f2 fabc
00000360: 061b d8bc d00b d53d 304f 6b3c cfaa 7fbd
00000370: e483 1c3e fdfb 33be 91bd 67b9 cc9a cbbd
00000380: 3dca 56bd d804 103d 8bbe 3d3e 76a8 673e
00000390: 40c3 3f3c 2458 3f3c 3d14 37bd 25c0 353e
000003a0: 5c0f c83c 532d 5dbd f359 36be 225f 02be
000003b0: f4bf 1cbd 1c86 e33d 8d96 763c e5b9 bcbc
000003c0: 7ba5 2cbe 63d7 40bd 84c0 653d 9026 b5bd
000003d0: 98ae d2bb 0ba9 f6bd 1f22 113e 356c 13bd
000003e0: 0d32 1abe 03ba dc3d 659c 2cbd 79fe 303b
000003f0: f30c 8dbc 642a 0abc 219e 3a3d 2493 183d

layers.block_2.layer.0.bias f4 [128]
-0.07034403 0.01790867 -0.038628202 -0.002662855 0.06762915 0.041240703 -0.007779655 -0.02202973
0.038069114 -0.030437712 -0.06520202 0.045100372 -0.058029976 0.038506616 -0.053288832 -0.004715172
0.042248573 0.0003168019 -0.051537678 -0.08982777 -0.038115744 0.079385065 -0.0153448805 0.035383303
-0.044957723 0.045524914 0.019606166 0.034972772 -0.09016868 -0.012419658 0.0982929 0.060063064
0.031449698 -0.011592297 0.077542074 0.056376863 -0.031269725 -0.07162457 -0.051726345 0.026987875
-0.045826487 0.113455564 -0.07997557 0.05733592 -0.017317815 0.038125608 -0.048772927 0.026576791
-0.057625186 -0.024276858 -0.021162108 -0.07561657 0.020225663 -0.043971904 0.0117871575 -0.008665736
0.006006676 -0.0728487 0.08168473 -0.049072914 -0.043254178 0.034950126 0.03421438 -0.039893854
-0.0346477 -0.050221607 -0.0602075 -0.024578355 -0.0057289465 -0.019658541 0.025080247 -0.00061462837
0.028645657 -0.0043944856 0.08224964 0.018816182 0.0139592355 -0.0036715365 0.06100025 -0.011081451
-0.06665741 -0.03892053 0.018777767 -0.011281175 -0.10089941 -0.019735912 0.02248978 -0.085807614
0.054300122 -0.023585184 0.004049882 -0.032436285 0.044559218 0.08411184 -0.059750687 0.069219835
-0.015955439 -0.045494776 0.082061425 0.03796614 0.04953281 -0.019663382 0.00889019 -0.05369174
-0.0665933 -0.0057614194 -0.07940587 -0.021748053 -0.08175149 -0.054425057 -0.062783614 -0.06682178
-0.053950965 0.052627515 0.04810834 0.041729033 0.05008318 0.0021781793 0.007849557 0.047804046
-0.055774424 -0.024607338 -0.08394672 0.06781541 0.057246257 -0.066556595 0.039623 -0.059441067
00000000: 8810 90bd 34b5 923c 9b38 1ebd 4b83 2ebb
00000010: 2781 8a3d 03ec 283d 7aec febb b177 b4bc
00000020: 5cee 1b3d 8258 f9bc a388 85bd 2bbb 383d
00000030: d7b0 6dbd 1db9 1d3d 6445 5abd bb81 9abb
00000040: d70c 2d3d 6e18 a639 2c19 53bd 9ff7 b7bd
00000050: 411f 1cbd a394 a23d 1869 7bbc 15ee 103d
00000060: 9725 38bd 5578 3a3d 1c9d a03c 9c3f 0f3d
00000070: 5baa b8bd d27b 4bbc ca4d c93d b004 763d
00000080: 66d1 003d 9eed 3dbc 61ce 9e3d 6deb 663d
00000090: af14 00bd e7af 92bd 01df 53bd ad15 dd3c
000000a0: 8eb4 3bbd 645b e83d 3bca a3bd 12d9 6a3d
000000b0: 17de 8dbc 9929 1c3d 1fc6 47bd 92b7 d93c
000000c0: 6308 6cbd 43e0 c6bc 285c adbc dcdc 9abd
000000d0: 4ab0 a53c e21b 34bd ec1e 413c bbfa 0dbc
000000e0: a6d3 c43b b331 95bd 534a a73d ae00 49bd
000000f0: 4b2b 31bd dd27 0f3d 6124 0c3d bd67 23bd
00000100: bfea 0dbd 2cb5 4dbd 249c 76bd 8c58 c9bc
00000110: e3b9 bbbb f30a a1bc 1775 cd3c 031f 21ba
00000120: 4caa ea3c 9eff 8fbb 8072 a83d 6524 9a3c
00000130: 47b5 643c 299e 70bb 66db 793d f98e 35bc
00000140: ae83 88bd 226b 1fbd d5d3 993c add4 38bc
00000150: 5aa4 cebd 35ad a1bc 7d3c b83c e7bb afbd
00000160: ce69 5e3d b735 c1bc dfb4 843b e9db 04bd
00000170: ba83 363d d442 ac3d 23bd 74bd 21c3 8d3d
00000180: fbb4 82bc bb58 3abd d20f a83d 6282 1b3d
00000190: eae2 4a3d 1a15 a1bc 29a8 113c dfeb 5bbd
000001a0: 1162 88bd 4aca bcbb 8b9f a2bd f928 b2bc
000001b0: 536d a7bd cfec 5ebd b294 80bd dbd9 88bd
000001c0: b0fb 5cbd f38f 573d 400d 453d 10ec 2a3d
000001d0: 0524 4d3d c9bf 0e3b 6e9b 003c 2dce 433d
000001e0: b973 64bd 5495 c9bc 42ec abbd cee2 8a3d
000001f0: 0d7b 6a3d d34e 88bd ba4b 223d 7a78 73bd

layers.block_3.layer.0.weight f4 [128, 128]
0.14847504 0.067240365 0.14587267 -0.03346006 0.0114801815 -0.03861215 0.119770356 -0.034238033
-0.025674663 -0.06689822 -0.0029869084 0.041778944 0.000485279 0.08935645 0.020084847 -0.049068857
0.036935546 -0.08364644 -0.004496504 0.09276368 -0.04671648 0.09329713 0.039981358 -0.033172693
-0.10336558 0.034026064 0.039690875 -0.06512274 0.09143204 0.052699577 0.010883498 0.08426031
-0.007610167 0.033958245 0.03511058 0.088399224 0.07374865 0.046588153 0.035861492 0.10606309
0.14712656 -0.045022316 0.09325907 0.003861121 -0.01973638 0.014103679 0.17768086 0.026621718
0.06599396 0.06233124 -0.0024656153 -0.097312644 0.055266235 0.019314835 -0.019301081 0.11788373
-0.02813922 0.1359113 0.062172294 -0.056948055 -0.0023502735 0.07211796 -0.013577701 0.035137292
0.19280887 0.23823865 -0.08544801 -0.005826973 -0.044282947 -0.028639162 -0.03664769 0.09140719
0.0049346914 -0.095345914 0.13901277 0.000489285 0.0009962698 0.07406265 -0.058848087 0.03171254
0.13855462 0.010368707 -0.29670838 -0.056586888 -0.008748682 0.012403504 0.004916451 -0.09446505
-0.003721171 0.019358996 -0.09823539 -0.095779955 0.07340281 0.09684619 -0.08584859 0.05350226
-0.10087621 0.07811725 -0.16075683 0.00629351 0.0065097334 0.004993666 0.0327969 0.024540791
0.06047634 -0.037142467 -0.0022876102 0.058312763 -0.16295044 -0.015578482 0.002224731 -0.025343146
0.090613544 -0.10897063 -0.00093993667 -0.0050457804 0.118523546 0.08715429 -0.06975079 0.03903436
-0.054673344 -0.07728013 0.046348657 -0.08194159 -0.14186387 0.06894976 -0.2033112 -0.018586902
0.02806113 0.12988245 -0.03391909 0.10682991 -0.10018007 -0.048611052 0.016736642 0.072284915
-0.024615645 -0.0046626837 0.07251807 0.10886889 0.08482225 0.01306311 -0.05201521 -0.096265875
-0.10174157 -0.04382017 0.05104074 0.18827282 0.10723842 -0.032775234 0.009992813 -0.035527088
-0.060682397 0.047718145 0.021549799 0.08186827 0.12754628 -0.1037776 0.09109355 0.060612783
0.094775364 0.13458799 0.07962357 -0.00064352417 0.113880485 -0.103074305 -0.06624563 -0.012978641
-0.023844171 -0.07825694 0.11245821 0.01330863 0.07311215 0.06447789 0.040815957 -0.032883033
0.010412503 0.03733683 -0.0448763 0.0035642898 0.11263283 0.050950773 -0.053978566 -0.09005511
0.05283504 0.119201966 -0.097136185 -0.12727903 -0.032759238 0.011708742 -0.002429903 -0.042577233
0.030424118 0.07720481 0.06820738 0.105407424 0.07949418 -0.13276719 0.1535725 -0.1336506
-0.116264865 0.0052538933 0.021431677 0.027371604 0.06452826 -0.01560047 -0.046244938 -0.048365876
0.10076994 -0.02265053 -0.065468326 -0.10926516 -0.016954888 0.055141874 -0.07042047 0.019091012
0.006323531 0.0051130773 0.029751848 -0.07878611 0.10876827 -0.04755429 0.0070158998 -0.074768275
-0.0489646 -0.0630589 -0.008829303 0.04781487 -0.044003405 0.0036211032 0.058968496 0.06974427
0.10053286 -0.046174757 -0.0075427536 0.059179913 -0.23153734 0.038017944 0.097430944 0.03827716
0.037789658 0.029003765 0.003471254 -0.15110065 0.01001357 -0.17058797 0.1057695 0.00038224168
0.047810983 -0.05384797 0.09767887 0.050168455 -0.048970547 0.008932915 -0.15651792 -0.07575527
00000000: d709 183e 51b5 893d a55f 153e 6a0d 09bd
00000010: 5f17 3c3c c627 1ebd 294a f53d 2e3d 0cbd
00000020: ac53 d2bc ef01 89bd 02c0 43bb 6620 2b3d
00000030: 0b6d fe39 8400 b73d fa88 a43c 6dfc 48bd
00000040: ba49 173d d34e abbd 6957 93bb e2fa bd3d
00000050: c859 3fbd 9112 bf3d 7ec3 233d 17e0 07bd
00000060: 55b1 d3bd ea5e 0b3d e692 223d 125f 85bd
00000070: b940 bb3d 83db 573d b350 323c ab90 ac3d
00000080: b55e f9bb cd17 0b3d 1dd0 0f3d a70a b53d
00000090: 8809 973d 38d3 3e3d 80e3 123d 9b37 d93d
000000a0: 58a8 163e 5269 38bd 9cfe be3d dc0a 7d3b
000000b0: 30ae a1bc 1e13 673c f9f1 353e ca15 da3c
000000c0: d727 873d 0b4f 7f3d 2996 21bb da4b c7bd
000000d0: d95e 623d 253a 9e3c 4d1d 9ebc 066d f13d
000000e0: 3984 e6bc 552c 0b3e 60a8 7e3d 5d42 69bd
000000f0: 0c07 1abb 95b2 933d 0175 5ebc 1fec 0f3d
00000100: b06f 453e d5f4 733e 5eff aebd 31f0 bebb
00000110: 0962 35bd ad9c eabc e31b 16bd b133 bb3d
00000120: 31b3 a13b b844 c3bd 5d59 0e3e 5c43 003a
00000130: 4495 823a 29ae 973d b10a 71bd 02e5 013d
00000140: 43e1 0d3e 82e1 293c 29ea 97be a7c7 67bd
00000150: a256 0fbc 1138 4b3c 2e1a a13b e476 c1bd
00000160: e4de 73bb c296 9e3c a32f c9bd 4828 c4bd
00000170: 3654 963d 4c57 c63d 63d1 afbd 3025 5b3d
00000180: 3098 cebd f0fb 9f3d 709d 24be ca39 ce3b
00000190: 9a4f d53b e8a1 a33b 0b56 063d c509 c93c
000001a0: 0ab6 773d b322 18bd bbeb 15bb 5dd9 6e3d
000001b0: 7bdc 26be e43c 7fbc cbcc 113b 6e9c cfbc
000001c0: 9893 b93d fe2b dfbd 1566 76ba 1357 a5bb
000001d0: 79bc f23d f37d b23d 81d9 8ebd 7ee2 1f3d
000001e0: 28f1 5fbd 0b45 9ebd 17d8 3d3d fed0 a7bd
000001f0: c344 11be 8835 8d3d d030 50be 8f43 98bc
00000200: 74e0 e53c e8ff 043e beee 0abd a4c9 da3d
00000210: 352b cdbd 621c 47bd 481b 893c 1d0a 943d
00000220: c0a6 c9bc 6dc9 98bb 5b84 943d a7f6 de3d
00000230: 4ab7 ad3d a806 563c e70d 55bd 0b27 c5bd
00000240: e25d d0bd c77c 33bd 1810 513d 97ca 403e
00000250: d19f db3d 533f 06bd e5b8 233c da84 11bd
00000260: 1b8e 78bd 1a74 433d 3489 b03c 8daa a73d
00000270: 7e9b 023e 5a89 d4bd 418f ba3d 1c45 783d
00000280: 9619 c23d 6fd1 093e af11 a33d 2db2 28ba
00000290: 2c3a e93d 9f18 d3bd caab 87bd 5ea4 54bc
000002a0: da54 c3bc 2d45 a0bd 7d50 e63d 710c 5a3c
000002b0: d3bb 953d fc0c 843d a22e 273d 5cb0 06bd
000002c0: 3499 2a3c 81ee 183d 36d0 37bd dc96 693b
000002d0: 0bac e63d c2b1 503d a118 5dbd d06e b8bd
000002e0: 8e69 583d 2920 f43d 56ef c6bd 6f55 02be
000002f0: 8d2e 06bd 06d6 3f3c 023f 1fbb 7765 2ebd
00000300: 003c f93c 8e1d 9e3d 50b0 8b3d d9df d73d
00000310: d8cd a23d 1ff4 07be 1c42 1d3e b4db 08be
00000320: 461c eebd da28 ac3b 7c91 af3c 6a3a e03c
00000330: 6427 843d 1d99 7fbc 556b 3dbd 4c1b 46bd
00000340: 7860 ce3d 9b8d b9bc 4214 86bd 6ac6 dfbd
00000350: fae4 8abc 72dc 613d 9b38 90bd c164 9c3c
00000360: 9f35 cf3b 9a8b a73b 26ba f33c 9d5a a1bd
00000370: e6c1 de3d 4ac8 42bd a2e5 e53b 1c20 99bd
00000380: 1b8f 48bd 0625 81bd c8a8 10bc 86d9 433d
00000390: ea3c 34bd 0850 6d3b f388 713d 15d6 8e3d
000003a0: 2ce4 cd3d be21 3dbd 3429 f7bb a366 723d
000003b0: 2018 6dbe b4b8 1b3d e089 c73d 83c8 1c3d
000003c0: 54c9 1a3d 4e99 ed3c fa7d 633b 21ba 1abe
000003d0: f50f 243c 9dae 2ebe ae9d d83d 9c67 c839
000003e0: 73d5 433d b08f 5cbd dc0b c83d 707d 4d3d
000003f0: 5795 48bd 5c5b 123c 3c46 20be 9425 9bbd

layers.block_3.layer.0.bias f4 [128]
-0.047661427 0.08754521 -0.07102993 0.08543196 -0.08678028 -0.018494334 0.058953546 0.016075144
-0.00898403 0.057633508 0.07303596 -0.05448433 0.032942932 -0.041819658 -0.08259294 0.014814186
0.10167636 -0.030573256 -0.02744803 -0.04454181 0.06095078 -0.029298322 0.024630886 0.03122975
-0.08267761 0.034368124 -0.033863064 -0.036752358 0.057744727 -0.07436518 -0.06302494 0.062324993
0.024756905 0.018320765 -0.05908289 -0.03747334 0.052475385 -0.05485944 -0.07204591 0.009693191
-0.014433275 -0.035722986 -0.018845212 0.026175655 0.018457366 -0.09249277 -0.014185499 -0.06814149
0.012659029 0.07133826 -0.008487805 -0.008096694 0.09031713 -0.0660086 -0.04438147 0.131944
-0.062833205 0.031438027 -0.050058205 -0.023157993 0.037437912 0.003315628 -0.062384468 -0.10988918
0.07108172 -0.048739344 -0.047230937 -0.12058635 -0.054807074 -0.080066614 -0.039225277 -0.059027083
0.09050698 0.057951935 -0.07120815 0.008044804 0.0560827 -0.04507693 0.053013626 -0.0589275
0.087078296 -0.08397615 -0.062264066 0.057197943 0.004731679 0.053102788 -0.005025309 0.06954813
-0.0053460826 0.055374037 0.04453333 0.037244167 -0.02184105 0.023368232 -0.048375987 0.08495737
0.04150896 -0.048553042 -0.028207762 0.053604882 0.04283162 0.108905666 0.03287196 -0.08340184
0.06850716 -0.008429667 -0.07112258 0.007456534 0.056026865 0.059218135 -0.07262399 0.07011782
0.038546033 -0.022631206 -0.020652669 -0.057051584 -0.0739933 0.007719988 -0.018135725 0.09440301
-0.054900818 0.018907575 -0.034597628 0.07439504 0.078294694 -0.12099629 -0.039728932 -0.020298714
00000000: a138 43bd e74a b33d 2478 91bd f4f6 ae3d
00000010: dcb9 b1bd 6e81 97bc 4679 713d 05b0 833c
00000020: c131 13bc 1d11 6c3d e193 953d f62a 5fbd
00000030: 2bef 063d 174b 2bbd 7d26 a9bd 33b7 723c
00000040: b23b d03d c474 fabc b1da e0bc 7971 36bd
00000050: 86a7 793d 0903 f0bc b6c6 c93c 88d5 ff3c
00000060: e152 a9bd 97c5 0c3d ffb3 0abd a489 16bd
00000070: bc85 6c3d c64c 98bd 3813 81bd 7e48 7f3d
00000080: fece ca3c 6e15 963c e700 72bd a57d 19bd
00000090: 6ef0 563d 4bb4 60bd ce8c 93bd 31d0 1e3c
000000a0: 8b79 6cbc 4452 12bd 4661 9abc 546e d63c
000000b0: e733 973c d96c bdbd 4c6a 68bc c48d 8bbd
000000c0: d167 4f3c cb19 923d 6f10 0bbc ffa7 04bc
000000d0: 30f8 b83d 842f 87bd 58c9 35bd 541c 073e
000000e0: b2ae 80bd 29c5 003d d509 4dbd d5b5 bdbc
000000f0: 7f58 193d 024b 593b db86 7fbd 940d e1bd
00000100: 4b93 913d e8a2 47bd 3a75 41bd faf5 f6bd
00000110: 627d 60bd f7f9 a3bd afaa 20bd 62c6 71bd
00000120: b95b b93d 025f 6d3d 94d5 91bd 5bce 033c
00000130: f9b6 653d 96a2 38bd d124 593d f65d 71bd
00000140: 1b56 b23d b0fb abbd 9b08 7fbd 6448 6a3d
00000150: 330c 9b3b 4f82 593d 59ab a4bb 406f 8e3d
00000160: 312e afbb e3cf 623d 9568 363d 578d 183d
00000170: 00ec b2bc bc6e bf3c e625 46bd 21fe ad3d
00000180: 4d05 2a3d 8edf 46bd f713 e7bc cb90 5b3d
00000190: 3570 2f3d ef09 df3d c0a4 063d 95ce aabd
000001a0: 7b4d 8c3d 961c 0abc b7a8 91bd f155 f43b
000001b0: 6d7c 653d b78e 723d e3bb 94bd ee99 8f3d
000001c0: 72e2 1d3d 1465 b9bc c92f a9bc ecae 69bd
000001d0: cd89 97bd f4f7 fc3b 5f91 94bc 5e56 c13d
000001e0: aedf 60bd 0fe4 9a3c 3eb6 0dbd 6d5c 983d
000001f0: f858 a03d e7cc f7bd ceba 22bd 7d49 a6bc

layers.output.weight f4 [2, 128]
-0.18984126 0.07074096 -0.029134132 -0.027283734 -0.078842014 -0.045741286 0.08608244 -0.21442026
0.27489737 0.103484236 0.048591245 -0.12652817 0.119255684 0.19955778 -0.17024484 -0.11484746
0.23360522 0.10226801 -0.04892799 -0.00890453 -0.13814886 -0.16242997 -0.2891264 0.16549176
-0.12235361 -0.17643073 -0.1446632 -0.21173084 -0.13756534 -0.14669421 -0.08862116 0.14237547
0.027224941 0.082398444 -0.15175582 -0.07564577 -0.04943223 0.20338733 0.05067591 0.03182506
0.20640495 0.073833406 0.13929418 -0.060200576 -0.0676723 -0.07099103 0.21601775 0.016952503
0.021674145 -0.00013675672 -0.041391995 0.05099059 0.12680393 -0.18816677 0.121203825 -0.29143488
0.10901864 0.11199482 0.14215474 0.055245277 0.36187688 -0.16618061 0.078482 0.16353947
-0.090038896 -0.03911009 0.16073906 0.12581295 -0.06026512 0.09911937 -0.21011724 -0.01403533
-0.14183088 0.20131585 -0.07055347 0.18006058 -0.19705753 -0.11184233 0.17134728 -0.2445603
-0.011025291 -0.19021292 0.025415253 0.11949708 -0.24297425 -0.092051744 -0.16582957 -0.10323241
-0.11444495 0.09824659 0.101521686 0.09812387 -0.13714546 0.06322673 -0.033176795 0.14572972
0.09550536 0.13242926 0.02753959 -0.119168125 -0.16628546 -0.15896939 -0.19040756 -0.0888336
0.0038945898 -0.23706812 0.09360906 0.12693994 0.3402353 0.11326936 -0.29106304 0.053771745
0.1810124 0.20803392 0.11432212 0.2876758 -0.12847334 -0.060808334 -0.11968469 0.13762106
-0.07233245 -0.041728057 0.04180127 0.022308039 0.10145076 0.07115536 -0.09045705 0.07239842
0.20358202 0.18501787 0.30198786 0.10280948 -0.092453696 0.069281384 0.04936409 -0.03720436
-0.050514 -0.07081908 -0.2330733 -0.07133156 -0.029274767 0.12560198 0.0939354 0.028607074
0.016187906 -0.07188198 0.044865247 -0.22465864 -0.14242113 -0.10889006 0.27798858 0.1037011
-0.06148563 0.027506564 0.05214053 -0.104113005 -0.07415918 -0.05618255 0.019698726 -0.002703697
0.2127232 0.043566626 0.064501956 0.12665482 0.063639835 0.081312 -0.1477091 0.2240018
0.105302855 0.05900851 -0.073999524 0.14770657 0.30191785 0.09461817 0.10661068 -0.22470571
-0.22374997 -0.06757836 0.23262872 0.069549 0.123019725 0.22415996 -0.04651674 0.07395227
-0.06811548 0.18507183 0.11967549 0.14231549 -0.31282955 -0.09681112 -0.17906155 0.12098268
0.23844232 0.066904955 0.004199655 -0.18789566 -0.07223426 0.016329767 0.32076994 -0.27284947
0.012933098 -0.022267694 0.012033392 0.015439304 -0.0033928377 0.03245932 -0.043749295 -0.012829648
0.047798663 -0.02829289 -0.10338771 0.04711036 0.34926182 -0.099827655 0.036851693 -0.09183317
-0.06880445 0.25195464 0.16091475 0.100816734 -0.2178134 0.009762105 0.27538076 0.066710465
0.13161448 -0.28854048 0.3105555 0.06924511 -0.09429353 0.26825264 0.17561238 -0.12452881
0.20077498 0.0472344 0.093683295 0.062797256 -0.19145535 0.12332857 0.3340077 -0.2973023
-0.013540506 -0.24903914 0.09054772 -0.35096723 0.015393345 -0.12696575 0.07769733 0.14250791
0.2600259 0.033484478 0.17518273 -0.06920278 0.116165824 -0.15648997 -0.10715952 0.16918117
00000000: bf65 42be a3e0 903d b4aa eebc 2382 dfbc
00000010: ec77 a1bd 375b 3bbd fe4b b03d fc90 5bbe
00000020: 59bf 8c3e 8bef d33d 9d07 473d 9a90 01be
00000030: 533c f43d e058 4c3e aa54 2ebe 2535 ebbd
00000040: 3536 6f3e e471 d13d b768 48bd 4ee4 11bc
00000050: e576 0dbe 0b54 26be 6008 94be ac76 293e
00000060: 8894 fabd 42aa 34be 9722 14be f8cf 58be
00000070: eedd 0cbe 0237 16be 037f b5bd e0ca 113e
00000080: d706 df3c 84c0 a83d e165 1bbe 2bec 9abd
00000090: 7379 4abd c544 503e 8b91 4f3d fe5a 023d
000000a0: d25b 533e f835 973d 22a3 0e3e e194 76bd
000000b0: c697 8abd bf63 91bd c233 5d3e fadf 8a3c
000000c0: fa8d b13c 5a66 0fb9 a78a 29bd 82db 503d
000000d0: e4d8 013e caae 40be b639 f83d f436 95be
000000e0: 2a45 df3d 8a5d e53d 0391 113e df48 623d
000000f0: ed47 b93e 402b 2abe 2cbb a03d e476 273e
00000100: 5066 b8bd e731 20bd c898 243e 1cd5 003e
00000110: 8fd8 76bd 19ff ca3d f928 57be 71f4 65bc
00000120: 1d3c 11be be25 4e3e 567e 90bd cd61 383e
00000130: 73c9 49be 970d e5bd a975 2f3e 046e 7abe
00000140: 6ca3 34bc 2dc7 42be a633 d03c e3ba f43d
00000150: 3ece 78be a085 bcbd 3acf 29be 846b d3bd
00000160: 1d62 eabd 8235 c93d 9aea cf3d 2bf5 c83d
00000170: dc6f 0cbe 047d 813d 64e4 07bd 2c3a 153e
00000180: 5098 c33d 899b 073e b59a e13c 6b0e f4bd
00000190: bc46 2abe dfc8 22be 33fa 42be 64ee b5bd
000001a0: 603c 7f3b fcc1 72be 1bb6 bf3d 8bfc 013e
000001b0: 5233 ae3e c4f9 e73d 3706 95be c33f 5c3d
000001c0: 515b 393e d806 553e b721 ea3d 3e4a 933e
000001d0: 848e 03be 2912 79bd 3f1d f5bd 89ec 0c3e
000001e0: 0923 94bd 0aeb 2abd cf37 2b3d 59bf b63c
000001f0: 6bc5 cf3d e7b9 913d 8c41 b9bd 9f45 943d
00000200: ce77 503e 5375 3d3e 279e 9a3e c78d d23d
00000210: 5d58 bdbd 66e3 8d3d 0032 4a3d 9963 18bd
00000220: c5e7 4ebd 9809 91bd c4aa 6ebe 4816 92bd
00000230: a3d1 efbc ce9d 003e 3461 c03d 6259 ea3c
00000240: 809c 843c dc36 93bd 9fc4 373d ea0c 66be
00000250: d8d6 11be c001 dfbd 8554 8e3e 3e61 d43d
00000260: 5bd8 7bbd 7255 e13c 4f91 553d 3339 d5bd
00000270: c5e0 97bd ac1f 66bd 395f a13c 8230 31bb
00000280: 1cd4 593e eb72 323d 9a19 843d cdb1 013e
00000290: 9a55 823d e886 a63d 0e41 17be ba60 653e
000002a0: 06a9 d73d e8b2 713d 108d 97bd 6440 173e
000002b0: fa94 9a3e 2cc7 c13d b356 da3d 4119 66be
000002c0: b61e 65be 8666 8abd 3936 6e3e b56f 8e3d
000002d0: c4f1 fb3d 308a 653e 5688 3ebd 4a74 973d
000002e0: 2180 8bbd 7883 3d3e 6c18 f53d 27bb 113e
000002f0: 322b a0be e944 c6bd e95b 37be c4c5 f73d
00000300: 392a 743e 7705 893d 429d 893b b867 40be
00000310: 8eef 93bd 01c6 853c f53b a43e edb2 8bbe
00000320: 58e5 533c bd6a b6bc b427 453c 22f5 7c3c
00000330: 5f5a 5ebb 10f4 043d 7632 33bd 7233 52bc
00000340: 88c8 433d 7ec6 e7bc f0bc d3bd cbf6 403d
00000350: 72d2 b23e 7172 ccbd cdf1 163d 0713 bcbd
00000360: 59e9 8cbd 3300 813e d6c6 243e 0179 ce3d
00000370: 7a0a 5fbe 3cf1 1f3c b5fe 8c3e 7f9f 883d
00000380: f2c5 063e 94bb 93be 2101 9f3e 61d0 8d3d
00000390: f71c c1bd 6958 893e bbd3 333e f608 ffbd
000003a0: f597 4d3e dc78 413d 07dd bf3d d99b 803d
000003b0: df0c 44be b093 fc3d 0f03 ab3e 0238 98be
000003c0: 00d9 5dbc 1e04 7fbe 1571 b93d fab1 b3be
000003d0: 5e34 7c3c 4f03 02be c71f 9f3d 98ed 113e
000003e0: 1d22 853e 0527 093d 1a63 333e 30ba 8dbd
000003f0: 59e8 ed3d e83e 20be 7376 dbbd d43d 2d3e

layers.output.bias f4 [2]
0.029422844 -0.049491886
00000000: 2d08 f13c 01b8 4abd
