results/SMOTE5K/smote420/smote0.45/model.pth (torch, 205093 bytes, 10 tensors)

layers.block_0.layer.0.weight f4 [128, 2]
0	0x3ef650e2	0.48108584
1	0xbf42a281	-0.7602921
2	0x3e33076f	0.17483304
3	0x3f20f933	0.6288025
4	0xbf153e76	-0.5829843
5	0xbe83a416	-0.25711125
6	0xbe5cde44	-0.21569163
7	0x3f3f798d	0.74794847
8	0xbed119f4	-0.40840113
9	0x3f27ea89	0.6559225
10	0xbf407fca	-0.7519499
11	0xbec2c7c5	-0.38043037
12	0x3f71d6da	0.9446846
13	0xbed55a61	-0.41670516
14	0xbe318548	-0.17335999
15	0xbe57cb4f	-0.2107365
16	0xbea0758e	-0.31339687
17	0x3f5b4090	0.8564539
18	0xbf76d5a5	-0.96419746
19	0x3e387b58	0.18015802
20	0x3e71564d	0.23568077
21	0x3eed21cd	0.4631485
22	0xbea80560	-0.328166
23	0xbf26c357	-0.65141815
24	0x3f5ea4b0	0.86970043
25	0xbebf3ff2	-0.37353474
26	0xbf4c843b	-0.7988927
27	0x3e6de6b3	0.23232536
28	0x3f52e9e6	0.8238815
29	0x3f328eea	0.6974932
30	0xbf064c7c	-0.52460456
31	0xbea43d74	-0.32078135
32	0xbf382b94	-0.71941495
33	0x3f12cb9d	0.5734194
34	0xbf0dc664	-0.55380845
35	0x3efafebb	0.4902247
36	0x3e822385	0.25417724
37	0xbf1328f6	-0.57484376
38	0x3f537216	0.82595956
39	0xbe84c817	-0.25933906
40	0xbf833d6c	-1.025312
41	0x3f2ef671	0.6834479
42	0x3dd1839e	0.10230182
43	0xbb9741ec	-0.004616013
44	0x3e8f330c	0.27968633
45	0xbd5a0ae9	-0.05323306
46	0x3e96d7b7	0.29461452
47	0x3ee451f4	0.44593775
48	0x3f1a5fd8	0.60302496
49	0x3e7d55fb	0.2473983
50	0x3f7e4652	0.9932605
51	0xbea7b37b	-0.3275412
52	0x3f19bdff	0.60055536
53	0x3c7a54af	0.015278979
54	0x3f6b5c32	0.91937554
55	0x3e8714a5	0.26382938
56	0xbe81718b	-0.2528194
57	0xbf3fa466	-0.7486023
58	0x3f2f9caf	0.68598455
59	0xbf18e200	-0.5971985
60	0xbf9c9fe8	-1.22363
61	0x3ec43c15	0.3832709
62	0x3f700a65	0.9376586
63	0xbe8c7111	-0.27430013
64	0xbd9c37c2	-0.076278225
65	0xbe1f9337	-0.15583502
66	0x3f602693	0.8755886
67	0x3d9a286e	0.075272426
68	0xbf290271	-0.6601935
69	0xbf0fd215	-0.56179935
70	0xbf3d3c29	-0.7391992
71	0xbf16b5a4	-0.5887091
72	0x3e11a380	0.14222527
73	0xbeb6f357	-0.3573253
74	0xbe228251	-0.15870024
75	0xbf2e9380	-0.6819382
76	0xbf7ffacf	-0.9999208
77	0xbe86dcf8	-0.2634046
78	0x3f8569b5	1.0422884
79	0xbef667c8	-0.48126054
80	0xbf5a5b55	-0.8529561
81	0xbf1ffe7d	-0.62497693
82	0xbf55299e	-0.8326663
83	0x3ee5e548	0.4490149
84	0xbf5bd6c9	-0.8587461
85	0xbf07d268	-0.5305543
86	0xbf101362	-0.56279576
87	0xbe274560	-0.16335058
88	0x3f68573f	0.90758127
89	0x3eb53067	0.3538849
90	0x3f16eb67	0.58952945
91	0x3e2d80c2	0.16943648
92	0xbeb327e0	-0.3499136
93	0x3b910620	0.004425779
94	0x3f310bcf	0.69158643
95	0xbd35691e	-0.0442897
96	0xbf4c84c9	-0.79890114
97	0xbc48bdb5	-0.012252261
98	0xbe1a9419	-0.15095557
99	0xbe6ec7b8	-0.23318374
100	0xbf7a7f69	-0.9785066
101	0x3f1c5ad4	0.6107609
102	0x3ed7c935	0.42145696
103	0xbf3b5dc7	-0.7318997
104	0x3ea524bb	0.32254586
105	0x3d4eb0b7	0.050461497
106	0xbf56aa0b	-0.83853215
107	0x3f1c64a4	0.61091065
108	0xbf089937	-0.5335879
109	0xbe557814	-0.20846587
110	0xbe7778e6	-0.24167213
111	0xbd95aaed	-0.07307992
112	0x3f4f7845	0.8104289
113	0x3e6d522c	0.23175877
114	0x3ec92007	0.39282247
115	0xbf296adc	-0.6617868
116	0x3e31cb48	0.17362702
117	0xbf1b5452	-0.6067554
118	0x3e5dce1d	0.21660657
119	0x3efad2f0	0.48989058
120	0x3f378b6d	0.7169712
121	0x3f450f7e	0.76976764
122	0x3ed9166f	0.42399928
123	0x3f3efa82	0.74600995
124	0x3f197f1b	0.5995957
125	0x3f31b26f	0.69412893
126	0x3e3c1552	0.18367508
127	0xbf15c1b3	-0.58498687
128	0x3f2dfbdf	0.6796245
129	0x3ef5447a	0.47903806
130	0xbf83ff61	-1.031231
131	0x3ef5db3d	0.48018828
132	0x3f4b724c	0.7947128
133	0xbdee07b0	-0.1162256
134	0xbf454d80	-0.7707138
135	0xbe861285	-0.26186004
136	0x3f8aa140	1.083046
137	0xbf1b3402	-0.6062623
138	0xbf41748b	-0.75568455
139	0xbf43d60a	-0.7649847
140	0xbea05dc4	-0.31321537
141	0xbec4db37	-0.38448498
142	0xbf71648d	-0.94294053
143	0xbea7104d	-0.32629624
144	0xbec4b2df	-0.38417718
145	0xbf353a77	-0.70792335
146	0xbd9c139c	-0.07620928
147	0xbe648a63	-0.22318415
148	0x3f5b5103	0.8567049
149	0xbe987768	-0.297786
150	0x3f47ec83	0.78095263
151	0x3c516f43	0.0127828745
152	0x3db44f5b	0.08804198
153	0x3e9b813d	0.30372038
154	0x3dc7271e	0.09724258
155	0xbee51c58	-0.44748187
156	0x3f72fc24	0.94915986
157	0x3e20826c	0.15674752
158	0xbf0b5e50	-0.54440784
159	0x3f00be2c	0.5029018
160	0x3f929a3e	1.1453321
161	0x3d8388e4	0.06422594
162	0x3f419229	0.7561365
163	0xbedc0e8c	-0.42979848
164	0xbf7c91cf	-0.98659986
165	0x3ea95514	0.33072722
166	0xbf01ed87	-0.5075306
167	0x3e7de1ce	0.24793169
168	0xbf2ae117	-0.6674971
169	0x3ef5c102	0.47998816
170	0xbdc23cc5	-0.09484247
171	0x3f226fd0	0.6345186
172	0xbf7ea7de	-0.99474895
173	0x3e8c2f74	0.27379954
174	0xbea5c187	-0.32374212
175	0xbf49191c	-0.7855394
176	0xbf4fc922	-0.8116628
177	0xbeab717e	-0.33485025
178	0x3f820ad9	1.015956
179	0x3f2c57e6	0.6732162
180	0x3f13b540	0.5769844
181	0xbe8237c5	-0.25433174
182	0xbefade57	-0.48997757
183	0x3f46dc72	0.7768012
184	0xbf7df567	-0.9920258
185	0xbe936921	-0.28791144
186	0xbf87d4ad	-1.0611778
187	0xbec48492	-0.38382393
188	0xbf8d98bd	-1.1062237
189	0xbdcf2009	-0.10113532
190	0x3f180bcb	0.59392995
191	0x3e3b7a29	0.18308319
192	0xbf2a7325	-0.66581947
193	0xbf32402c	-0.6962917
194	0xbec3cea5	-0.38243595
195	0xbf47f52d	-0.78108484
196	0x3eca2ede	0.39488882
197	0xbf3f011a	-0.74611056
198	0xbf23c330	-0.6396971
199	0xbc192c36	-0.00934892
200	0x3f3abaac	0.7294109
201	0xbdad77a1	-0.08470083
202	0x3f1ab322	0.60429585
203	0x3de5f9fa	0.1122932
204	0xbf840e4a	-1.0316861
205	0xbef2976b	-0.47381148
206	0xbec03a04	-0.37544262
207	0xbf30d8e0	-0.69080925
208	0xbf0e16ae	-0.55503356
209	0xbee8ba13	-0.45454463
210	0xbf4e2f21	-0.80540663
211	0xbc915775	-0.017741898
212	0xbf7b5cfb	-0.9818875
213	0x3efbb66b	0.4916261
214	0x3f44e576	0.7691263
215	0xbe6dc064	-0.23217922
216	0xbf4d4224	-0.8017905
217	0x3edd7f45	0.4326116
218	0xbef259d2	-0.47334152
219	0xbf41c525	-0.75691444
220	0xbe886e8c	-0.2664684
221	0x3f3f4016	0.7470716
222	0x3f5c1997	0.85976547
223	0xbee6acaa	-0.45053607
224	0xbef66fce	-0.48132175
225	0x3db99799	0.09062118
226	0xbef53c2e	-0.47897476
227	0x3e325531	0.1741531
228	0xbf942ef1	-1.1576825
229	0xbe5e61f9	-0.21717061
230	0xbf75889d	-0.9591158
231	0xbda9df00	-0.08294487
232	0x3f14c98b	0.5812003
233	0xbe8505b1	-0.25980905
234	0x3d6e2975	0.058145005
235	0x3f1b8133	0.6074402
236	0x3ebeb0c4	0.37244236
237	0x3e8422c6	0.2580778
238	0xbf880ae7	-1.0628327
239	0x3eb456a3	0.3522235
240	0xbef099ef	-0.46992442
241	0xbf0f4d7c	-0.55977607
242	0x3f1ea599	0.6197143
243	0x3f164b87	0.58708996
244	0xbf86a0a1	-1.051777
245	0xbcd3b3a2	-0.025842492
246	0xbf83e737	-1.0304936
247	0x3ea4df0d	0.32201424
248	0xbfa207d4	-1.2658639
249	0x3ebce1b8	0.3689096
250	0xbf3255ad	-0.6966198
251	0xbe545b77	-0.20738016
252	0x3f9d5d23	1.2294048
253	0xbebd1ded	-0.36936894
254	0x3ecd1f77	0.40063068
255	0xbf295844	-0.6615031

layers.block_0.layer.0.bias f4 [128]
0	0x3d26364a	0.040579118
1	0x3e385397	0.18000637
2	0xbd895921	-0.06706453
3	0x3e954faf	0.29162356
4	0xbd6dfbbb	-0.058101397
5	0xbf1b4500	-0.6065216
6	0x3ea9ccf3	0.33164176
7	0x3f1e9dfa	0.61959803
8	0x3ecbc403	0.39797983
9	0xbe9bafb9	-0.30407503
10	0xbeaf9276	-0.34291428
11	0x3f283122	0.6569997
12	0x3e777f3c	0.2416963
13	0x3eb0beff	0.34520718
14	0xbf1e56a2	-0.6185094
15	0x3d8d86c3	0.069104694
16	0xbf1c042d	-0.6094387
17	0xbed52556	-0.41630048
18	0xbe5b993e	-0.21445176
19	0xbf049fc0	-0.5180626
20	0xbf32c205	-0.698273
21	0xbea23dba	-0.3168772
22	0xbf2ee959	-0.6832481
23	0xbf372430	-0.7153959
24	0xba351df5	-0.0006909066
25	0x3f076b4a	0.52898085
26	0xbe8f2875	-0.27960554
27	0xbe194d00	-0.1497078
28	0xbe475ffb	-0.19470207
29	0x3ed729ea	0.42024165
30	0xbe7b7144	-0.24554926
31	0x3e647751	0.2231114
32	0x3edecade	0.4351415
33	0xbdd7d29e	-0.10538219
34	0xbd904bd6	-0.070457146
35	0xbf0fa28f	-0.5610742
36	0xbef8c5b6	-0.4858834
37	0x3f1a5b30	0.6029539
38	0xbe8e15e9	-0.2775109
39	0x3eb33b01	0.35005954
40	0x3f0f491f	0.5597095
41	0xbed66c6a	-0.41879588
42	0x3ebcb461	0.36856368
43	0xbe94280b	-0.289368
44	0xbf0af44a	-0.54279006
45	0xbe104ac8	-0.14091027
46	0xbed88703	-0.42290506
47	0xbea8c109	-0.32959774
48	0xbedff4d2	-0.4374147
49	0x3ef5dc91	0.4801984
50	0xbea3e8d0	-0.3201356
51	0x3f094fc2	0.53637326
52	0xbf2d145e	-0.676092
53	0xbf30ba86	-0.6903461
54	0xbed06d75	-0.4070851
55	0x3f277eb9	0.6542774
56	0xbed678fa	-0.41889173
57	0xbf1cc33d	-0.6123541
58	0xbdbd8c39	-0.09255261
59	0xbf0111b3	-0.5041763
60	0xbf150e1f	-0.5822467
61	0x3d57bf2e	0.052672558
62	0xbf365a42	-0.7123147
63	0x3f05d8ae	0.5228375
64	0xbe9de40f	-0.30838057
65	0xbf234698	-0.6377959
66	0xbe964bf9	-0.29354838
67	0x3f20563a	0.6263157
68	0x3f09e8c8	0.5387082
69	0x3f3f4ae2	0.7472364
70	0xbeaab4c2	-0.33341032
71	0x3f1877ec	0.59557986
72	0xbee7b33f	-0.4525394
73	0x3f1c2db2	0.61007226
74	0xbe139112	-0.14410809
75	0xbe2b780e	-0.16745016
76	0x3e5b09b9	0.21390428
77	0x3ee41c41	0.44552806
78	0xbc4e0b62	-0.012575956
79	0x3f151149	0.582295
80	0xbdca4462	-0.09876324
81	0xbe892931	-0.2678924
82	0xbee4bdaf	-0.44675967
83	0x3e7a869b	0.2446541
84	0xbe886c77	-0.26645252
85	0x3f2fc402	0.6865846
86	0xbeb4e541	-0.35331157
87	0xbf15c371	-0.58501345
88	0x3ec9387f	0.39300916
89	0xbee7c10b	-0.45264468
90	0xbf2903c8	-0.66021395
91	0x3f0ef7f5	0.558471
92	0x3e8b5ad1	0.27217725
93	0x3e52356c	0.20528191
94	0x3e05d10c	0.13068026
95	0xba9596f2	-0.0011412783
96	0x3f257714	0.64634824
97	0xbe0ac010	-0.13549829
98	0x3ea71b80	0.32638168
99	0xbf0914c8	-0.53547335
100	0x3f1affc2	0.60546505
101	0xbeadb0b0	-0.33923864
102	0x3e4afedd	0.19823785
103	0xbe87e365	-0.26540676
104	0x3ed3c3bf	0.4136028
105	0xbf1ebde3	-0.62008494
106	0xbf22ed58	-0.6364341
107	0xbee41ec6	-0.44554728
108	0xbefe17f0	-0.49627638
109	0x3d325d1e	0.043545835
110	0x3e181f1c	0.14855617
111	0x3ee9e037	0.45678875
112	0x3ec95934	0.3932587
113	0x3ebbedfc	0.36705005
114	0x3e94a934	0.29035342
115	0xbe90b57e	-0.28263468
116	0x3ec615b2	0.38688427
117	0x3ebb7f76	0.36620682
118	0x3f05d89c	0.52283645
119	0xbe5d1107	-0.21588527
120	0x3f06b46d	0.5261906
121	0xbde42a8f	-0.1114093
122	0x3db78dc5	0.08962587
123	0xbe4b1b0d	-0.19834538
124	0xbe8fb60d	-0.2806858
125	0x3f26f27a	0.6521374
126	0x3e972e3f	0.2952747
127	0xbf09cd72	-0.5382911

layers.block_1.layer.0.weight f4 [128, 128]
0	0xbe140aef	-0.14457296
1	0xbdbc0b50	-0.09181845
2	0xbd00742a	-0.031360783
3	0xbc935cc0	-0.017988563
4	0x3d7c32f1	0.06157202
5	0xbd091dd2	-0.033475704
6	0xbe0cc3d5	-0.13746579
7	0x3da29b83	0.07939818
8	0xbd2afefa	-0.04174707
9	0x3d57994f	0.05263644
10	0x3c96e658	0.018420383
11	0xba3ea256	-0.0007272115
12	0xbe5f542d	-0.21809454
13	0x3cb66802	0.022266392
14	0xbd12a160	-0.03579843
15	0x3d7ee4a9	0.062229786
16	0x3da7b994	0.08189693
17	0x3d86f2fc	0.06589314
18	0xbdd451d3	-0.10367169
19	0x3d0eb470	0.034840047
20	0x3daf94c2	0.08573295
21	0xbdbbf0e3	-0.09176805
22	0xbd904d25	-0.07045964
23	0xbd92cdaa	-0.071681336
24	0xbe0cc5a2	-0.13747266
25	0xbdfad23f	-0.122471325
26	0x3cc7ec4b	0.024404665
27	0xbe497e48	-0.19677079
28	0xbd328dbb	-0.043592196
29	0xbc6746e7	-0.0141160255
30	0x3e5a826d	0.21338816
31	0xbe141ffc	-0.14465326
32	0xbd65c19b	-0.05609284
33	0xbe658a77	-0.22416101
34	0x3db728a5	0.08943299
35	0xbbac9190	-0.005266376
36	0x3d1d0b17	0.038340654
37	0xbd5a09a7	-0.05323186
38	0x3cdc5d50	0.026899964
39	0xbd97f0ff	-0.07419013
40	0x3e17859f	0.14797066
41	0x3a1d1aeb	0.0005993086
42	0x3e1dac52	0.15397766
43	0xbd24983e	-0.040184252
44	0xbe0fc847	-0.14041243
45	0xbdcf0ba3	-0.101096414
46	0x3d83436c	0.06409344
47	0xbe0521b2	-0.13001135
48	0x3d9b0678	0.07569593
49	0x3d8cc6f3	0.06873884
50	0x3ddccee3	0.10781648
51	0xbd6ea96b	-0.05826704
52	0xbc30b0f6	-0.010784378
53	0x3d2e9014	0.042617872
54	0xbc9b0ace	-0.01892605
55	0xbd8e26fd	-0.0694103
56	0xbd286797	-0.041114416
57	0x3c9759b5	0.018475393
58	0xbcc35e4a	-0.023848671
59	0x3bc15a4c	0.005900657
60	0xbd3d0e45	-0.046156187
61	0xbc898639	-0.016787635
62	0xbd23e75d	-0.040015567
63	0xbbfc0381	-0.0076908474
64	0xbdef7e8f	-0.11694061
65	0x3db7a0f2	0.08966245
66	0xbd6fc829	-0.058540497
67	0x3b54cc70	0.0032470487
68	0xbd29fce2	-0.041500933
69	0x3b7c5bbe	0.003850683
70	0xbd8a17f1	-0.06742848
71	0x3d98ea8b	0.074666105
72	0x3d90f0e2	0.07077195
73	0xba176953	-0.00057758874
74	0xbdb74bf0	-0.08950031
75	0xbe4336f0	-0.19063926
76	0x3cb42e15	0.02199463
77	0xbd3fcbbe	-0.046825163
78	0xbdcaafb1	-0.09896792
79	0x3da3ba23	0.07994487
80	0xbe02a250	-0.1275723
81	0xbd82d04a	-0.06387384
82	0x3d4b79e7	0.049676802
83	0x3d7d59f7	0.061853375
84	0x3dd6499e	0.1046326
85	0xbcf776cc	-0.030208014
86	0x3e17baa8	0.14817297
87	0x3d9e150a	0.07718857
88	0x3db54d05	0.08852581
89	0xbd4695c2	-0.048482664
90	0xbc20686a	-0.009790519
91	0xbd5d0d33	-0.053967666
92	0x3de50d7a	0.11184211
93	0x3e162097	0.1466087
94	0x3e6a26c1	0.22866346
95	0xbe298b2e	-0.16556999
96	0x3e0174b7	0.1264218
97	0x3db4e5af	0.08832871
98	0x3d0c2d7b	0.03422306
99	0x3bbe1c49	0.0058017117
100	0xbb702608	-0.0036643762
101	0xbdfb8a64	-0.12282255
102	0x3e05f328	0.13081038
103	0xbcd568e8	-0.026051
104	0x3da66f9f	0.08126759
105	0xbce09091	-0.027412685
106	0x3e05d8d1	0.1307099
107	0x3cad7f8d	0.021178985
108	0x3d5407e8	0.051765352
109	0xbca3a5f9	-0.019976603
110	0xbb71c13f	-0.0036888865
111	0xbdec1bbc	-0.115287274
112	0x3df54120	0.11975312
113	0xbc402971	-0.01172863
114	0x3d8fd23e	0.070225224
115	0x3d96bfef	0.07360827
116	0x3d0844cd	0.03326874
117	0x3d17374e	0.036917977
118	0xbd844437	-0.064583234
119	0x3e213230	0.15741801
120	0x3da3d20b	0.07999047
121	0xbe06fe27	-0.13182889
122	0x3e6cb21f	0.23114823
123	0x3e4f9591	0.20271899
124	0x3e5fdd85	0.21861847
125	0x3d52d778	0.05147502
126	0xbe29a3f5	-0.16566451
127	0xbad00fc4	-0.0015873839
128	0xbdc616ce	-0.096723184
129	0xbda45a3a	-0.08025022
130	0xbcdc0aff	-0.026860712
131	0xbc2aa0d1	-0.010414318
132	0xbbc4cb02	-0.0060056457
133	0x3dbf881a	0.09352131
134	0xbd77aa13	-0.06046493
135	0x3d5b447b	0.053532105
136	0x3d8193c1	0.0632701
137	0x3d82c5db	0.06385394
138	0xbd70b5e5	-0.05876722
139	0x3d8f8aed	0.0700892
140	0xbe2916c3	-0.16512589
141	0x3d2c2c84	0.04203464
142	0x3c3d56ad	0.01155631
143	0x3e0426a2	0.12905362
144	0x3b4712a4	0.00303761
145	0x3dae929e	0.08524059
146	0xbd04e6e9	-0.032446776
147	0x3ca3c86f	0.019993035
148	0x3da31a65	0.07964019
149	0x3d35d86f	0.04439586
150	0xbd9549aa	-0.07289441
151	0xbd18d8be	-0.037316076
152	0xbe55d3f8	-0.20881641
153	0xbd9b5937	-0.07585376
154	0xbc92d385	-0.017923126
155	0xbe85ce06	-0.26133746
156	0x391a9d1e	0.00014745115
157	0xbdad4cb5	-0.08461896
158	0x3e3da067	0.1851822
159	0xbe0e84fb	-0.13917916
160	0xbda4bf6d	-0.08044324
161	0xbe77e7e1	-0.24209549
162	0x3dd7009b	0.10498162
163	0xbc80ec06	-0.015737545
164	0x3c9dde0e	0.019270923
165	0x3dc46a78	0.0959062
166	0xbb64d8fb	-0.003491937
167	0xbe2dcf9f	-0.16973732
168	0x3d0fdfe5	0.03512563
169	0xbbbbecb9	-0.0057350066
170	0x3dc9abda	0.09847231
171	0xbd1ac607	-0.03778651
172	0xbdd4b827	-0.10386687
173	0xbd52e645	-0.051489133
174	0xbca0eb3e	-0.019643422
175	0x3c17facc	0.009276103
176	0x3d0589b7	0.03260204
177	0x3ccc6d29	0.024954395
178	0x3d384b70	0.044993818
179	0xbd6c32c1	-0.05766559
180	0x3d20af1d	0.0392295
181	0x3d9ecc33	0.07753792
182	0xbc95ff03	-0.018310076
183	0xbd57a653	-0.052648854
184	0xbd97113d	-0.07376335
185	0xbc90a674	-0.017657496
186	0x3d566821	0.0523454
187	0x3d2d8077	0.04235884
188	0xbc54b68b	-0.012982975
189	0xbc8cb11a	-0.017174292
190	0xbde1a152	-0.110170975
191	0x3c5760eb	0.013145666
192	0xbe062e24	-0.13103539
193	0x3d4b3a09	0.049615894
194	0xbd6d319c	-0.05790864
195	0x3dca88cc	0.09889373
196	0xbdc2f075	-0.0951852
197	0xbccb8354	-0.024842896
198	0xbd6db985	-0.058038253
199	0x3dfd5bd1	0.12371028
200	0x3d9ce187	0.076602034
201	0xbd694e57	-0.056959476
202	0x3b1b39c7	0.002368556
203	0xbe1c2106	-0.15246972
204	0x3da3c24e	0.07996045
205	0xbc3422be	-0.010994611
206	0xbe0dd035	-0.13848956
207	0xbd55e1ec	-0.05221741
208	0xbdf0b596	-0.11753385
209	0xbcccf1e4	-0.025017686
210	0x3d959e18	0.073055446
211	0x3c88d7ae	0.016704407
212	0x3e0b48ce	0.13601992
213	0xbb0205bb	-0.0019839841
214	0x3d918f9a	0.07107468
215	0x3d098ee8	0.03358355
216	0x3e18a80b	0.14907853
217	0xbd9c782c	-0.076401085
218	0xbd8efd8f	-0.06981956
219	0x3caad396	0.020852845
220	0x3e3a21a3	0.18176894
221	0x3e71c9f0	0.2361219
222	0x3dbfebee	0.09371172
223	0xbe876fa6	-0.26452368
224	0x3ddbd5f8	0.10734171
225	0x3dd61867	0.10453873
226	0xbd6b82df	-0.057497855
227	0x3df5f08d	0.12008772
228	0xbd5c276b	-0.05374853
229	0x3c6e854c	0.014558148
230	0x3e0eb691	0.13936831
231	0xbc9f2503	-0.019426828
232	0x3d706e4d	0.05869894
233	0xbc02078d	-0.007936371
234	0x3de4cb5b	0.111715995
235	0x3d53d47b	0.05171631
236	0x3d84b851	0.06480468
237	0x3d5847a2	0.05280269
238	0xbd26b9f4	-0.040704682
239	0xbc075557	-0.008260093
240	0x3d849139	0.064730115
241	0xbd443eb4	-0.04791136
242	0x3e05cb93	0.13065939
243	0xbb34954a	-0.0027554804
244	0x3b8bf595	0.004271219
245	0xbd9ddf9e	-0.07708667
246	0xbdd011c0	-0.101596355
247	0x3e102fb4	0.14080697
248	0x3d1242cf	0.035708245
249	0xbe1bad22	-0.15202764
250	0x3db861d8	0.09003037
251	0x3dc7f7cd	0.09764061
252	0x3e1343e5	0.14381368
253	0x3df520a3	0.119691156
254	0xbe2de9d7	-0.16983734
255	0x3d87063f	0.06592988

layers.block_1.layer.0.bias f4 [128]
0	0xbd462999	-0.048379514
1	0x3c1349bd	0.008989749
2	0xbd8e06ae	-0.06934868
3	0xba80afec	-0.0009818054
4	0xbd82a536	-0.06379168
5	0xbcc16b11	-0.023610624
6	0x3d029352	0.031878777
7	0xbd883718	-0.06651133
8	0xbdb61c53	-0.08892121
9	0x3dca3784	0.0987387
10	0xbdaa9826	-0.08329801
11	0x3d8d3e08	0.06896597
12	0xbdca9d17	-0.09893244
13	0x3db5ab26	0.088705346
14	0x399b3270	0.00029601483
15	0xbe053e78	-0.13012111
16	0x3cd90cf2	0.02649543
17	0x3db51824	0.08842495
18	0xbdb215dd	-0.08695576
19	0x3ce220c6	0.027603518
20	0x3c33bc87	0.010970241
21	0x3d987470	0.07444084
22	0x3d1b606a	0.037933744
23	0x3d522014	0.051300123
24	0x3d9a664e	0.07539044
25	0xbd8e7706	-0.06956296
26	0x3c0a7a68	0.0084520355
27	0x3d1a81e6	0.037721537
28	0xbcf2e6d5	-0.029651085
29	0xbd84c416	-0.06482713
30	0x3d1943a7	0.037418034
31	0x3d1baa4b	0.0380042
32	0xbd4d669b	-0.05014668
33	0x3d836b94	0.06417003
34	0x3d87a232	0.06622733
35	0xbdb80be3	-0.08986642
36	0x3d702a28	0.058633953
37	0x3daf095c	0.08546707
38	0x3d8cf9e4	0.068836
39	0xbc080c99	-0.008303785
40	0xbcd0bd19	-0.025480794
41	0xbd8b7b82	-0.068106666
42	0xbd4cc571	-0.049992982
43	0xbdebaff4	-0.1150817
44	0x3cf55792	0.029948983
45	0x3c287606	0.010282045
46	0x3d9a72c4	0.07541421
47	0xbdc10133	-0.09424057
48	0xbdcfae1f	-0.10140633
49	0x3d26d0bd	0.040726412
50	0xbdcdb28e	-0.10043822
51	0xbcbf87c7	-0.023380173
52	0x3b4b7085	0.0031042409
53	0xbc01cbcf	-0.007922127
54	0x3d68a236	0.05679532
55	0xbdaa1cdc	-0.08306286
56	0x3c86de01	0.016463282
57	0x3d24e793	0.04025991
58	0x3d51498b	0.051095527
59	0x3c54b470	0.012982473
60	0xba7a5b62	-0.000955036
61	0x3d2aa6f9	0.041663144
62	0xbd34e083	-0.044159424
63	0xbdbbe33d	-0.09174202
64	0xbd8956ab	-0.06705984
65	0xbd7b2ffa	-0.06132505
66	0xbccce231	-0.0250102
67	0x3d728650	0.05921012
68	0x3c4eb917	0.012617371
69	0x3dcf28a0	0.101151705
70	0x3c630430	0.013855979
71	0x3da9afd9	0.082854934
72	0x3d81cc9e	0.06337856
73	0xbd18e500	-0.037327766
74	0xbd6f26e9	-0.058386717
75	0x3da33727	0.07969504
76	0xbd8cdeeb	-0.06878456
77	0xbd6b4304	-0.057436958
78	0xbd266af5	-0.040629346
79	0x3d4df4f3	0.05028243
80	0xbdcfa324	-0.101385385
81	0xbc444409	-0.0119791115
82	0xbd980bc5	-0.0742412
83	0xbd614c24	-0.055004254
84	0x3ca17010	0.019706756
85	0xbd34e440	-0.04416299
86	0x3c931dfc	0.017958634
87	0xbd874085	-0.06604103
88	0xbd13c72d	-0.03607862
89	0xbc9d943e	-0.019235726
90	0xbc9cc610	-0.019137412
91	0xbbd49075	-0.006486947
92	0x3d5a7d5e	0.053342216
93	0x3d00329d	0.03129827
94	0x3d3658ee	0.044518404
95	0xbd9134c2	-0.07090141
96	0x3c8ecfd7	0.01743309
97	0xbdc762d6	-0.09735648
98	0x3d945423	0.0724261
99	0x3d8b42d4	0.06799856
100	0xbd861340	-0.065466404
101	0xbdc91ad9	-0.09819574
102	0x3c8dffc4	0.017333873
103	0xbdb3dfe6	-0.087829396
104	0x3cc50d55	0.024054209
105	0xbd636b2d	-0.055522133
106	0x3d58438e	0.0527988
107	0xbd2ed072	-0.042679258
108	0xbd207512	-0.039174147
109	0xbe07db3f	-0.1326723
110	0x3d28ca5e	0.041208617
111	0x3d3b4459	0.04571948
112	0x3c31589b	0.010824348
113	0xbd66edf9	-0.056379292
114	0x3d9d09cf	0.076678865
115	0xbd9076fe	-0.07053946
116	0x3db29908	0.08720595
117	0xbc716e58	-0.014735781
118	0x3beeaea5	0.007284003
119	0xbd360c73	-0.044445466
120	0xbd98290e	-0.074297056
121	0x3bd98384	0.0066379923
122	0xbcf7c2e1	-0.030244293
123	0xbd15ec31	-0.036602203
124	0xbd553232	-0.052049823
125	0xbd93a747	-0.0720964
126	0xbd387449	-0.045032773
127	0x3c7e852d	0.015534681

layers.block_2.layer.0.weight f4 [128, 128]
0	0x3dae37cd	0.08506737
1	0x3e31a33f	0.1734743
2	0xbd71a202	-0.058992393
3	0xbdb1252b	-0.08649667
4	0xbda9253f	-0.08259057
5	0x3cdcc794	0.026950635
6	0x3d21ec94	0.03953226
7	0xbc90fa52	-0.017697487
8	0xbd356235	-0.04428311
9	0x3d20ab7e	0.039226048
10	0xbc8082db	-0.015687397
11	0x3d32022b	0.0434591
12	0xbd516117	-0.051117983
13	0x3d71c56f	0.059026178
14	0x3d5f71e3	0.05455197
15	0xbdf803df	-0.12110113
16	0xbcd13cb0	-0.025541633
17	0xbd9da395	-0.076972164
18	0xbd89da52	-0.067310944
19	0x3d15e7c2	0.036597975
20	0x3d990e88	0.07473475
21	0x3d2a9273	0.04164357
22	0x3a9f407e	0.0012149957
23	0x3c4c09d5	0.012453516
24	0x3db5ede0	0.08883262
25	0x3cafe7c3	0.021472817
26	0xbccd0e96	-0.02503137
27	0x3dae0c1d	0.08498404
28	0x3e13d5be	0.14437005
29	0xbd8cac5a	-0.06868811
30	0xbdc56aa0	-0.09639478
31	0xbdd3487f	-0.10316562
32	0xbce6baa3	-0.028165167
33	0xbd6f4a51	-0.058420483
34	0xbd8c517c	-0.068514794
35	0xbd302834	-0.04300709
36	0xbc8566c5	-0.016284356
37	0xbc6a046f	-0.014283284
38	0x3bd0b1db	0.0063688583
39	0xbd6d90ed	-0.05799954
40	0xbcd330ef	-0.02578017
41	0xbd3096d1	-0.04311258
42	0x3d7f2c6a	0.062298216
43	0xbde12cae	-0.1099485
44	0x3d741157	0.05958685
45	0x3d319c79	0.043362115
46	0xbda4ed19	-0.08053035
47	0xbb4e26b3	-0.0031456172
48	0x3d083a96	0.033258997
49	0xbd1c88e6	-0.038216494
50	0x3c8e21e1	0.01735014
51	0x3bdc43ef	0.0067219655
52	0xbd97ffdc	-0.07421848
53	0xbd56c524	-0.0524341
54	0xbc230e1c	-0.009952094
55	0x3c396387	0.011315233
56	0xbd46e350	-0.048556626
57	0x3b1d7ce2	0.0024030735
58	0xbd681b49	-0.056666646
59	0xbda90e1c	-0.08254644
60	0xbd89d926	-0.06730871
61	0x3cc021e0	0.023453653
62	0x3daf8617	0.085704975
63	0x3d41dd07	0.04732993
64	0x3d9ad175	0.07559482
65	0xbda94cda	-0.082666114
66	0xbd9b916d	-0.07596097
67	0x3cecc70f	0.028903512
68	0xbadd8cc7	-0.0016902917
69	0xbdadc8f3	-0.08485594
70	0x3e0d1010	0.13775659
71	0x3d1f5388	0.03889802
72	0x3d31cbda	0.0434073
73	0xbca35161	-0.019936265
74	0x3ba032e9	0.0048888815
75	0x3d666f2d	0.05625837
76	0x3c7e2c3e	0.015513478
77	0xbcda29eb	-0.026631316
78	0xbd5aa4a4	-0.05337967
79	0xbd48d854	-0.04903443
80	0xbdb300ba	-0.08740373
81	0xbe02d08a	-0.12774864
82	0x3d89190b	0.0669423
83	0x3c16acbc	0.0091964565
84	0x3cc8ed81	0.024527313
85	0xbca54482	-0.020174269
86	0xbd4d97dc	-0.050193653
87	0x3d650761	0.05591524
88	0x3c5c19b2	0.013433861
89	0xbcbd19a7	-0.023083521
90	0x3ca4943f	0.02009022
91	0x3d3bd406	0.0458565
92	0xbb8efbe4	-0.004363524
93	0xbd8f959b	-0.07010957
94	0x3bd5cb9c	0.0065245163
95	0xbd960d03	-0.073267005
96	0x3c881c53	0.016615069
97	0xbd5d0c2b	-0.053966682
98	0x3d16666c	0.03671877
99	0xbd35a1e0	-0.04434383
100	0xbd28170a	-0.041037597
101	0xbcdd1014	-0.026985206
102	0x3c5061d4	0.012718637
103	0xbd7cec6f	-0.06174892
104	0xbdab4ddd	-0.083644606
105	0x3e0ca6a8	0.1373545
106	0x3cc0db3d	0.023542041
107	0x3d5b3321	0.053515557
108	0x3d9b6554	0.07587686
109	0xbd771a63	-0.0603279
110	0xbacf36a2	-0.0015809129
111	0xbd6911ac	-0.05690162
112	0x3d1ff11f	0.03904831
113	0x3d2c7186	0.042100452
114	0x3dd6fd45	0.10497526
115	0xbb9383d0	-0.0045017973
116	0x3da1df5f	0.07903933
117	0xbd6d1622	-0.057882436
118	0xbdd165c9	-0.10224492
119	0xbda08ef4	-0.07839766
120	0xbdae1ef5	-0.08501998
121	0xbd5cc60b	-0.053899806
122	0x3d41133e	0.04713749
123	0xbccb901f	-0.024848996
124	0xbd1646ce	-0.03668862
125	0xbd994840	-0.07484484
126	0x3c81aa96	0.015828412
127	0xbd94dae7	-0.07268315
128	0xbe0680a0	-0.13135004
129	0x3cbc2b49	0.022969859
130	0x3d072b1d	0.0330001
131	0x3d98073e	0.07423256
132	0x3d0ef607	0.0349026
133	0x3d326b53	0.043559384
134	0xbddb4e54	-0.10708299
135	0xbdac5675	-0.08414928
136	0xbdb922a5	-0.09039811
137	0xbde00f2d	-0.109403946
138	0xbb7c465d	-0.0038494088
139	0x3dbc267e	0.09187029
140	0x3cf520f2	0.029922936
141	0xbcca293f	-0.02467787
142	0xbdf9b9a5	-0.12193612
143	0x3ce5eec4	0.028067954
144	0xbd336ef3	-0.04380698
145	0x3d767e21	0.06017888
146	0xbc4dec22	-0.0125685055
147	0xbb38e230	-0.002821099
148	0x3d87003b	0.06591841
149	0x3cbf9b9d	0.023389632
150	0xbc1c1484	-0.009526376
151	0xbd3a1924	-0.045434132
152	0x3d9a9626	0.0754817
153	0x3cf18257	0.029481096
154	0xbcb0c821	-0.021579804
155	0xbdb26fbb	-0.08712717
156	0x3cf5df76	0.030013781
157	0x3daa8fe7	0.083282284
158	0xbd89076a	-0.06690867
159	0x3bd1577b	0.0063886023
160	0xbcf4fd44	-0.029905923
161	0x3cdd1148	0.02698578
162	0xbc0d848e	-0.0086375605
163	0xbd57df0d	-0.052702952
164	0x3ca3227b	0.019913903
165	0x3d026f1f	0.031844255
166	0xbd3006ae	-0.04297512
167	0xbd8ac256	-0.06775348
168	0x3cde013e	0.027100202
169	0xbd9921bb	-0.07477137
170	0x3dd61fbb	0.10455271
171	0xbde9f48d	-0.114235975
172	0xbd55d0b0	-0.052200973
173	0x3da4f11d	0.08053801
174	0xbd08b76e	-0.033378057
175	0x3e036ee8	0.12835276
176	0xbdf84ce5	-0.121240415
177	0xbc9d6d90	-0.019217283
178	0xbdadd8b5	-0.08488599
179	0x3c74a63e	0.014932213
180	0x3c407dee	0.011748774
181	0xbd3ef5d5	-0.046621162
182	0xbde401af	-0.111331336
183	0x3d0a4532	0.033757396
184	0xbc16cafe	-0.009203671
185	0x3c6e465f	0.014543145
186	0xbc228b55	-0.009920915
187	0xbdbe9eee	-0.09307657
188	0x3d0eced7	0.034865227
189	0x3cbfcd9f	0.023413477
190	0x3bd70e04	0.00656295
191	0xbc1298ff	-0.00894761
192	0xbd42077f	-0.04737043
193	0x3da83f91	0.08215249
194	0x3dcfb405	0.10141758
195	0x3c82bf5e	0.015960392
196	0xbc09e3e5	-0.008416151
197	0x3d9a96bf	0.07548284
198	0x3d2df7cb	0.042472642
199	0x3c9726ca	0.018451113
200	0x3da7ffa4	0.082030565
201	0xbcb82758	-0.022479698
202	0x3d4d1c8e	0.05007606
203	0xbd914ad3	-0.0709435
204	0x3dabc852	0.083878174
205	0xbdbe0ef0	-0.09280193
206	0x3d3e00d8	0.046387523
207	0xbc3ffd0b	-0.011718045
208	0xbdc37a68	-0.095448315
209	0xbcbaf2a7	-0.022820784
210	0xbc19e4c0	-0.009392917
211	0xbda83d82	-0.08214857
212	0xbc80bb9d	-0.015714461
213	0xbce1a4b9	-0.027544366
214	0x3d9c6a08	0.07637411
215	0xbdc4a758	-0.09602231
216	0x3c901a17	0.017590566
217	0xbd80f50f	-0.06296741
218	0xbcab9c71	-0.02094862
219	0x3cb990eb	0.02265211
220	0x3db3c1ca	0.08777197
221	0xbda2da3b	-0.079517804
222	0x3d59d1b3	0.0531785
223	0xbc315a19	-0.010824704
224	0xbb98af13	-0.0046595423
225	0xbdeaeb94	-0.11470714
226	0x3c1b6ed3	0.009486872
227	0x3cc5095a	0.02405231
228	0xbc2e881d	-0.010652569
229	0xbdb82328	-0.089910805
230	0xbde1bd1b	-0.11022397
231	0x3d744089	0.059631858
232	0x3d1b42ad	0.037905384
233	0x3d707ca5	0.05871262
234	0xbd2781c3	-0.040895235
235	0xbb89849c	-0.0041967165
236	0x3d05ad3b	0.03263591
237	0xbd01f674	-0.031729177
238	0xbd8a46e3	-0.06751802
239	0xbca50a99	-0.020146655
240	0x3cfe64ba	0.03105389
241	0xbcdefc3e	-0.027219888
242	0x3d4440da	0.04791341
243	0xbbfd24b7	-0.007725324
244	0x3d8fae1f	0.07015633
245	0x3c5ddd20	0.01354149
246	0x3cffbaa4	0.031216927
247	0xbd124a1d	-0.03571521
248	0x3c394c06	0.011309629
249	0xbd102beb	-0.035198133
250	0x3cbac72a	0.022800047
251	0x3d94afb1	0.07260073
252	0xbd1daaaa	-0.038492836
253	0xbc9f87b5	-0.01947389
254	0x3e056cea	0.13029829
255	0xbdd0289a	-0.10163994

layers.block_2.layer.0.bias f4 [128]
0	0x390cd3f4	0.00013430399
1	0x3d32a339	0.043612693
2	0x3db4e8a6	0.08833437
3	0x3dc4b183	0.0960417
4	0xbd7d24ea	-0.061802782
5	0xbdc9d4cb	-0.0985504
6	0x3ce6c0bc	0.028168075
7	0x3db62502	0.088937774
8	0xbc39106a	-0.011295417
9	0x3d06b18d	0.03288417
10	0xbd00e3b3	-0.03146715
11	0xbd812241	-0.063053615
12	0xbd220513	-0.03955562
13	0x3dff5672	0.1246766
14	0xbd84bb35	-0.064810194
15	0x3c7d8893	0.015474456
16	0x3cc3fd04	0.023924358
17	0xbc74985e	-0.014928905
18	0x3dbfeb5b	0.09371062
19	0x3dc1a7c1	0.09455825
20	0x3d6b751c	0.05748473
21	0xbd277893	-0.040886473
22	0xbd78993b	-0.060693007
23	0x3d519df6	0.051176034
24	0x3ca3020b	0.019898435
25	0xbd32fb2a	-0.04369656
26	0xbccf699b	-0.025318911
27	0x3dc6b1e9	0.097019024
28	0x3d3e5373	0.046466302
29	0xbd8088eb	-0.06276115
30	0x3d31d8a8	0.04341951
31	0xbcaf8939	-0.021427738
32	0x3d14c270	0.036318243
33	0xbb648250	-0.0034867711
34	0xbce9203d	-0.028457755
35	0x3d49d548	0.049275666
36	0x3dc757a3	0.09733512
37	0x3d789f74	0.06069894
38	0xbaaf97f2	-0.0013396724
39	0xbb85b4f0	-0.0040804073
40	0xbd7fb545	-0.06242873
41	0xbba41308	-0.0050071515
42	0x3d2df5bc	0.04247068
43	0xbda6f96d	-0.08153043
44	0x3dccf42e	0.10007511
45	0xbd0eb277	-0.034838166
46	0x3cc1acc0	0.023641944
47	0x39d018f4	0.00039691443
48	0x3ceb58f7	0.028728945
49	0xbd0d1147	-0.034440305
50	0x3c5d8456	0.013520321
51	0xbd5cbd86	-0.05389168
52	0xbdb6d672	-0.08927621
53	0xbc3cdc37	-0.011527113
54	0x3d8d1ecd	0.068906404
55	0x3d6dc48a	0.058048762
56	0x3d26eeb4	0.04075499
57	0xbccd6093	-0.025070464
58	0xbdc7f5f2	-0.09763707
59	0x3d37992b	0.044823807
60	0xbd84cad2	-0.064839974
61	0xbd90100c	-0.07034311
62	0x3d3763de	0.044772975
63	0xbd9c32ef	-0.07626902
64	0xbd97ce36	-0.074123785
65	0x3c498b63	0.012301299
66	0x3d849f99	0.06475753
67	0x3d8ef655	0.06980578
68	0xbc933307	-0.017968668
69	0xbdab37a5	-0.08360223
70	0xbd3f805d	-0.046753276
71	0x3cd5a2b1	0.026078554
72	0x3c6eae60	0.014567941
73	0x3c34615d	0.011009541
74	0x3c422517	0.011849663
75	0x3cd41235	0.025887588
76	0x3d8121d0	0.06305277
77	0xbd988817	-0.07447832
78	0x3c1c8d76	0.009555211
79	0xbd30598f	-0.04305416
80	0x3da24f53	0.07925286
81	0xbd3553c0	-0.044269323
82	0x3dadbd8d	0.084834196
83	0xbcfd5d8e	-0.0309284
84	0x3dacb3c9	0.08432729
85	0xbc028918	-0.007967256
86	0x3a163990	0.00057306234
87	0xbdc28f8c	-0.09500036
88	0x3d59e356	0.05319532
89	0x3c880c23	0.01660735
90	0xbce51909	-0.02796604
91	0x3b888063	0.0041656955
92	0xbc13a9ea	-0.009012679
93	0xbd8c666a	-0.068554714
94	0xbd0915a3	-0.0334679
95	0x3d023c82	0.031795986
96	0x3c1474ad	0.009061021
97	0xbda5d5dd	-0.08097432
98	0xbd77c97b	-0.06049488
99	0x3bdba65c	0.006703181
100	0x3d930a50	0.07179701
101	0xbd6aaac6	-0.05729177
102	0x3d6facd7	0.058514442
103	0xbd992d27	-0.07479315
104	0xbdf5cc93	-0.1200191
105	0xbb7ae032	-0.0038280603
106	0xbd35875f	-0.044318553
107	0x3d96de62	0.07366635
108	0x3d02e44b	0.031956
109	0xbd336d24	-0.043805256
110	0xbdc142b7	-0.09436553
111	0x3d9f84ce	0.07789002
112	0xbcaf9687	-0.021434082
113	0xbd9f9749	-0.07792527
114	0x3ccb2f11	0.024802716
115	0x3da8f3c3	0.08249619
116	0x3d1ca9ea	0.03824798
117	0xbcc27961	-0.023739519
118	0x3d8ad4c4	0.06778863
119	0xbd1bfd35	-0.038083274
120	0xbdc8ad3a	-0.09798665
121	0x3c54097d	0.012941715
122	0x3d792e03	0.060834896
123	0x3d41651a	0.04721556
124	0xbdda5597	-0.10660856
125	0x3890d367	6.905832e-05
126	0x3d856bff	0.06514739
127	0x3d5a68ad	0.053322483

layers.block_3.layer.0.weight f4 [128, 128]
0	0xbd53a947	-0.051675107
1	0x3d8f67dd	0.07002232
2	0x3ca60130	0.020264238
3	0xbb72a851	-0.0037026594
4	0x3dd4ff2b	0.10400232
5	0x3de16e96	0.11007421
6	0xbdba86e5	-0.0910776
7	0xbd1954e5	-0.037434477
8	0xbe2765ef	-0.16347478
9	0xbd826db7	-0.06368583
10	0xbde1372b	-0.109968506
11	0x3d92dc84	0.07170966
12	0x3d31e7e5	0.043434042
13	0x3c90b295	0.01766328
14	0xbdd52c16	-0.10408799
15	0xbc4f432f	-0.012650295
16	0xbd67820e	-0.056520514
17	0xbd26268e	-0.040564112
18	0x3d1264ee	0.035740785
19	0x3c9d4c8b	0.019201538
20	0xbe01d484	-0.12678725
21	0x3d7da6a9	0.061926518
22	0xbc7f2593	-0.015572923
23	0x3de68e6a	0.11257632
24	0x3d68fd64	0.056882277
25	0x3dd01a30	0.10161245
26	0xbc6ce410	-0.014458671
27	0xbceb97a2	-0.028758828
28	0xbb278703	-0.002556265
29	0xbc38ebf7	-0.011286727
30	0x3e277e53	0.16356783
31	0xbe0be507	-0.13661586
32	0x3bbc3180	0.0057432055
33	0x3d165556	0.036702476
34	0xbc458c3c	-0.01205736
35	0xbdefc599	-0.11707611
36	0x3e333ad3	0.17502908
37	0xba9cb2f6	-0.001195519
38	0x3d2eaa59	0.042642925
39	0xbe8be133	-0.2732025
40	0xbd1eb49c	-0.03874646
41	0x3cd7b76f	0.026332585
42	0xbbd5df0d	-0.006526834
43	0xbc6760c7	-0.014122195
44	0xbdcf7d8f	-0.1013137
45	0xbe1c8be1	-0.15287735
46	0xbdee757a	-0.116435006
47	0x3d1693fd	0.036762226
48	0xbd8eced0	-0.0697304
49	0x3c4e20fa	0.012581104
50	0xbe249c86	-0.16075334
51	0x3c96b6b8	0.018397674
52	0xbdb02f1a	-0.08602734
53	0x3e0053a2	0.12531903
54	0xbdcddbce	-0.1005169
55	0xbd340dc9	-0.04395846
56	0xbe1b83de	-0.15187022
57	0xbdea9628	-0.11454421
58	0x3bad8836	0.0052957786
59	0x3dbf10ec	0.093293995
60	0xbce57477	-0.028009636
61	0xbce4e130	-0.027939409
62	0xbd920ef2	-0.07131757
63	0x3cc459a4	0.023968525
64	0x3a1ee403	0.0006061198
65	0xbd9cb22c	-0.07651171
66	0xbe1dfbcb	-0.15428083
67	0xbd6a6ae8	-0.05723086
68	0x3db51d94	0.08843532
69	0xbdc5b582	-0.096537605
70	0xbe8a912e	-0.27063888
71	0x3da1fc04	0.07909396
72	0x3db8bf82	0.09020902
73	0x3b87e285	0.0041468763
74	0xbc2ce009	-0.010551461
75	0x3d27af41	0.04093862
76	0x3d751738	0.059836596
77	0x3d178e13	0.037000727
78	0x3c9b05e6	0.018923711
79	0xbd360bc8	-0.04444483
80	0x3ca3c839	0.019992935
81	0x3deda3f8	0.1160354
82	0xbbbadb25	-0.0057023936
83	0x3913c5f5	0.00014092757
84	0xbdb4a7a5	-0.08821038
85	0x3ced3a69	0.028958516
86	0xbca8fb84	-0.020627744
87	0xbe0204ca	-0.1269714
88	0xbd47c3d6	-0.048770748
89	0xbccf85e0	-0.025332391
90	0x3ecdf805	0.40228286
91	0x3de6922d	0.112583496
92	0xbdc71255	-0.097202934
93	0xb9db0c60	-0.00041780155
94	0x3be9c736	0.0071343435
95	0xbe028fec	-0.12750214
96	0xbdd1fd46	-0.10253386
97	0x3e3a7278	0.18207729
98	0x3d615edd	0.05502211
99	0x3c01958a	0.007909188
100	0xbc3c8713	-0.011506814
101	0x3ab765d1	0.0013992136
102	0xbcdd96c3	-0.027049428
103	0xbd800b71	-0.06252182
104	0xbe025d64	-0.12730938
105	0xbe48b1ee	-0.19599125
106	0x3cb6d4bc	0.022318237
107	0xbe01ad9b	-0.12663881
108	0xbd35dcff	-0.04440021
109	0xbe054207	-0.13013469
110	0x3d76d409	0.060260806
111	0xbd106b09	-0.035258327
112	0xbdf37c27	-0.118889146
113	0x3dac4d1a	0.084131435
114	0xbd1768a2	-0.03696502
115	0xbd896761	-0.06709171
116	0x3c8c7e9f	0.017150221
117	0xbd90a536	-0.070627615
118	0x3dd0ef2c	0.102018684
119	0xbd5b6898	-0.053566545
120	0x3e098698	0.1343025
121	0x3e001f41	0.12511922
122	0xbc78bb03	-0.015181306
123	0x3d982d17	0.07430475
124	0xbe999875	-0.29999128
125	0x3d30e627	0.04318824
126	0x3dd23e1b	0.10265752
127	0x3d23586e	0.039879255
128	0x3d3b5bab	0.04574172
129	0x3d706915	0.058693964
130	0x3d88b20e	0.06674586
131	0x3d197bb5	0.03747149
132	0x3ac37a21	0.0014913717
133	0xbc96cc1d	-0.018407876
134	0xbdd012d8	-0.10159844
135	0x3d378ee3	0.044814
136	0x3d9e73b1	0.0773691
137	0x3bf4a617	0.0074660885
138	0x3db541d4	0.08850446
139	0xbc2807f5	-0.010255803
140	0xbc36a171	-0.011146889
141	0xbd23a328	-0.03995052
142	0x3cda444a	0.02664389
143	0xbc2f61f5	-0.010704507
144	0x3d4e1390	0.050311625
145	0x3dc1f4c7	0.09470516
146	0x3dd21550	0.10257971
147	0xbda0ade7	-0.07845669
148	0xbd5f262c	-0.054479763
149	0xbd91bce8	-0.07116109
150	0xbb6ec7a8	-0.0036434922
151	0xbe3ae8d5	-0.18252881
152	0xbe3c1d06	-0.18370447
153	0x3da650bc	0.081208676
154	0x3d021cb4	0.031765655
155	0x3d2a7223	0.041612756
156	0xbd794e95	-0.060865957
157	0x3d83fa16	0.064441845
158	0x3a157be9	0.0005702363
159	0x3e57410b	0.21020906
160	0x3d0f9e8a	0.035063304
161	0xbcfd8ae1	-0.030950012
162	0x3cb71128	0.022347048
163	0xbd1c0367	-0.038089182
164	0xbbb0b9f0	-0.005393259
165	0x3dc2fad5	0.09520499
166	0x3beaa8cd	0.007161236
167	0x3e0a2c06	0.13493356
168	0x3de2c386	0.110724494
169	0x3d0e351b	0.034718614
170	0x3cc3b3e8	0.023889497
171	0x3ddad5b1	0.1068529
172	0x3ad78f75	0.0016445952
173	0x3d8e621b	0.06952306
174	0x3cad522c	0.021157347
175	0x3c1ffc65	0.009764765
176	0xbdbcbf6c	-0.09216198
177	0xbcb6c1dd	-0.022309238
178	0x3da4009c	0.08007929
179	0x3cd187b7	0.02557741
180	0xbbb2c644	-0.005455764
181	0xbc8f5ee8	-0.01750131
182	0x3da3ba94	0.07994571
183	0xbd39f9c4	-0.04540421
184	0xbd81dbc1	-0.06340743
185	0x3c730ea8	0.014835037
186	0x3da3ff11	0.080076344
187	0xbaf3e093	-0.0018606357
188	0x3d624391	0.055240218
189	0x3cf68bc1	0.030095937
190	0x3e136fea	0.1439816
191	0xbccace39	-0.024756538
192	0xbdc527e2	-0.09626748
193	0x3d8ad784	0.067793876
194	0xbcdcaa59	-0.026936697
195	0x3cb41827	0.021984173
196	0xbd0dbd20	-0.03460419
197	0xbbf900b5	-0.0075989612
198	0x3e0c669b	0.13711016
199	0xbc9b6204	-0.018967636
200	0xbe0e7988	-0.13913548
201	0xbc4b0d4a	-0.012393305
202	0x3d49a302	0.049227722
203	0xbd3225b9	-0.043493006
204	0x3df9b167	0.1219204
205	0xbd1ffe35	-0.03906079
206	0x3d90d874	0.07072535
207	0x3d43189b	0.047630887
208	0xbdd42231	-0.10358084
209	0xbbd25079	-0.0064182845
210	0xbd9eb4e7	-0.07749348
211	0x3d64f4e5	0.055897612
212	0x3c5f15c5	0.01361603
213	0x3c3e1486	0.011601573
214	0x3e0a29e2	0.1349254
215	0x3da98f08	0.08279234
216	0xbd8924bd	-0.066964604
217	0xbd46c2b1	-0.048525516
218	0xbe80b5b9	-0.25138643
219	0xbd1218ea	-0.03566829
220	0x3dfef364	0.12448767
221	0x3daed0e5	0.08535937
222	0x3cfd78a8	0.030941322
223	0x3d6ed0e6	0.05830469
224	0xbdef11da	-0.11673327
225	0xbe15cf9a	-0.14629975
226	0x3dc00ea7	0.09377795
227	0xbd9f311c	-0.07773039
228	0xbd2148c9	-0.039376054
229	0xbd50d2c3	-0.050982248
230	0xbd0c8af3	-0.0343122
231	0x3dea671d	0.114454485
232	0xbcc91f4d	-0.024551058
233	0x3d817950	0.06321967
234	0x3d861fce	0.06549035
235	0x3da69e57	0.0813567
236	0x3d54b069	0.05192605
237	0x3de1c8a3	0.110245965
238	0xbdae322e	-0.08505665
239	0x3dab8e84	0.08376792
240	0xbdc39dfd	-0.09551618
241	0x3d64b609	0.055837665
242	0x3d37af95	0.044845182
243	0x3da10905	0.078630485
244	0x3d98c1c0	0.0745883
245	0xbd9cb082	-0.07650854
246	0xbda084c9	-0.07837827
247	0xbd0a76d3	-0.033804726
248	0xbdb8153d	-0.08988426
249	0x3d5aaf0c	0.053389594
250	0xbd843b20	-0.0645659
251	0x3c933326	0.017968725
252	0x3e0e3348	0.1388675
253	0x3c960912	0.018314872
254	0xbbe6b291	-0.0070403297
255	0x3df14eb0	0.117825866

layers.block_3.layer.0.bias f4 [128]
0	0x3ca05ad7	0.019574566
1	0x3dd90d19	0.10598201
2	0x3da99858	0.082810104
3	0xbc906a4f	-0.017628817
4	0x3d05e6d7	0.03269085
5	0xbd74a680	-0.0597291
6	0x3d5353fb	0.051593762
7	0xbc508c1a	-0.012728715
8	0x3d859354	0.06522241
9	0x3d813e84	0.06310752
10	0x3dcb652e	0.09931408
11	0x3bd6c813	0.0065546124
12	0x3d341a2d	0.043970276
13	0xbd3f8f0b	-0.046767276
14	0xbd0bcb04	-0.034129158
15	0x3cea3da7	0.028593851
16	0xbcb198c9	-0.021679299
17	0xbe08c22e	-0.13355324
18	0xbd5dd705	-0.054160137
19	0xbd7ad623	-0.061239373
20	0x3d5e113b	0.05421565
21	0x3e2aa004	0.16662604
22	0xbde15083	-0.110016845
23	0xbd1b7e83	-0.037962448
24	0xbd0688c8	-0.03284529
25	0x3db7bdb7	0.08971732
26	0x3d69c94a	0.05707673
27	0x3d883539	0.066507764
28	0x3c4e4d98	0.012591742
29	0x3d6a7b02	0.057246216
30	0xbd091891	-0.033470694
31	0xbd4db50a	-0.05022148
32	0x3dbb898f	0.091570966
33	0x3dde6aa3	0.10860183
34	0x3cfca3eb	0.03083988
35	0x3d914166	0.07092552
36	0xbc441e3e	-0.011970101
37	0x3d927de5	0.07152919
38	0xbc608585	-0.013703709
39	0xbd1c926d	-0.03822558
40	0xbd2ece98	-0.042677492
41	0x3da7c7a8	0.08192378
42	0xbcf217f6	-0.029552441
43	0x3d84104f	0.06448423
44	0x3ca10fe4	0.019660898
45	0x3d95365b	0.07285758
46	0x3d850c26	0.06496458
47	0x3dad6657	0.084667854
48	0x3ce9e3c9	0.028551
49	0x3d8a23cb	0.06745108
50	0x3b6b4be2	0.0035903384
51	0x3d24b28d	0.04020934
52	0xbd05b336	-0.032641612
53	0x3cce9ef1	0.025222274
54	0xbd863c66	-0.06554489
55	0xbccdad49	-0.025107043
56	0x3dbd4a07	0.09242635
57	0xbd3ea63d	-0.046545256
58	0x3ca11fdf	0.019668518
59	0xbd8dc4f3	-0.06922331
60	0x3d96ecfa	0.073694184
61	0xbd4767be	-0.04868292
62	0x3d20b667	0.039236452
63	0xbd9eba15	-0.07750336
64	0xbc9440e0	-0.018097341
65	0x3bb1d1f2	0.0054266388
66	0x3d11cef0	0.03559774
67	0x3ce7fc9f	0.028318701
68	0xbd3edbbc	-0.046596274
69	0x3d92a97b	0.07161232
70	0x3d149a9f	0.03628027
71	0xbcb09cbd	-0.021559114
72	0xbb11d134	-0.002224994
73	0xbd29886f	-0.04138988
74	0x3d250890	0.04029137
75	0xbdd3296c	-0.10310635
76	0x3d1ac8ce	0.03778916
77	0xbda95f8a	-0.08270176
78	0xbd04a4a6	-0.032383583
79	0xbd36c690	-0.044622958
80	0xbd038628	-0.032110363
81	0xbdb8cd29	-0.09023506
82	0x3d9e150b	0.077188574
83	0x3db0b3de	0.08628057
84	0xbc1277ac	-0.008939665
85	0x3ca5ea35	0.02025328
86	0x3c8c0a2f	0.0170947
87	0x3d31425d	0.04327618
88	0xbd00c3dd	-0.03143679
89	0x3db70dc3	0.08938172
90	0xbdb5a74e	-0.088698015
91	0x3dd04118	0.10168666
92	0x3d5d5cd1	0.054043595
93	0xbd7b1924	-0.061303273
94	0x3d9e1d29	0.077204056
95	0xbd609d7e	-0.054837696
96	0x3df2f34c	0.118628114
97	0x3d5e7ef5	0.054320294
98	0x3d3a500b	0.04548649
99	0xbd82203f	-0.06353807
100	0x3d8949ec	0.067035526
101	0x3db5e84c	0.08882198
102	0xbdc0c38a	-0.09412296
103	0xbd5b96e1	-0.053610686
104	0x3dcdad41	0.10042811
105	0xbd414278	-0.04718253
106	0x3b8c39e6	0.004279363
107	0xbde78f28	-0.11306602
108	0xbdac23c3	-0.084052585
109	0xbd2d1ebb	-0.042265635
110	0xbc94281e	-0.018085536
111	0xbcf95e98	-0.030440614
112	0xbd703aa4	-0.058649674
113	0x3d96bc03	0.07360079
114	0x3d9e597f	0.07731914
115	0x3ac07132	0.0014682172
116	0x3db17b26	0.08666067
117	0xbd595a58	-0.053064674
118	0xbdda4a56	-0.1065871
119	0x3ae16d6e	0.001719875
120	0xbe00b2ac	-0.12568158
121	0xbd45ee2e	-0.04832285
122	0x3d758e0a	0.059949912
123	0xbd282f05	-0.041060466
124	0xbc4d14f4	-0.012517203
125	0x3c541aac	0.012945812
126	0x3d60e58e	0.05490642
127	0x3cfd4d59	0.030920671

layers.output.weight f4 [2, 128]
0	0x3f1414eb	0.5784442
1	0xbebad9ec	-0.36494386
2	0xbba552b7	-0.005045261
3	0xbe3ee238	-0.18640983
4	0xbe7a23f4	-0.24427778
5	0x3f08629e	0.5327548
6	0x3c5c7227	0.01345495
7	0x3ea3fbe7	0.32028124
8	0xbe1ad60c	-0.15120715
9	0x3e29143f	0.1651163
10	0xbed783c4	-0.42092717
11	0x3dc674d9	0.09690256
12	0xbd907488	-0.070534766
13	0x3e4d6923	0.20059638
14	0xbeafa14f	-0.34302756
15	0xbdd0dd5e	-0.101984724
16	0x3c522b84	0.012827758
17	0xbe6bd21f	-0.23029374
18	0x3ca7f84e	0.020504143
19	0x3e47ad14	0.19499618
20	0x3e476d01	0.19475175
21	0xbf13dc2a	-0.5775782
22	0xbea2f1ef	-0.31825206
23	0x3d64acd3	0.05582888
24	0x3e175aec	0.14780778
25	0x3df36f14	0.11886421
26	0x3e3037b0	0.17208743
27	0xbd5401bd	-0.05175947
28	0x3e9ea1e5	0.3098289
29	0x3dd78f63	0.10525396
30	0x3e173cf8	0.14769351
31	0xbdf6b7d7	-0.120467834
32	0xbd549282	-0.051897533
33	0x3d849a6f	0.06474768
34	0x3f4f775f	0.8104152
35	0xbe0d5df7	-0.13805376
36	0x3e0ec270	0.1394136
37	0xbe5bc54d	-0.21461983
38	0xbe2f1bbb	-0.17100422
39	0xbebf6729	-0.37383392
40	0x3c530133	0.012878704
41	0x3e1ddf6d	0.15417261
42	0xbe39cfb5	-0.1814564
43	0x3f33ba2f	0.7020597
44	0x3e4d5072	0.20050219
45	0x3e63492e	0.22195885
46	0xbe41d18f	-0.18927597
47	0x3c9617a3	0.018321818
48	0x3dd1ca90	0.10243714
49	0x3da7d831	0.08195532
50	0xbc0b3b98	-0.008498095
51	0xbe0f6b43	-0.14005761
52	0xbdc9fcd6	-0.09862678
53	0xbd5f16fd	-0.054465283
54	0x3eb646fd	0.35601035
55	0x3dbde145	0.092714824
56	0x3f3512fd	0.707321
57	0x3dd1bb36	0.10240786
58	0x3d5ee544	0.054417863
59	0x3d2a4f9d	0.04157983
60	0x3e12c581	0.14333154
61	0xbe7749ab	-0.24149196
62	0x3e72eebf	0.23723887
63	0x3ebff4bf	0.37491414
64	0x3e855825	0.2604381
65	0x3f0cf94c	0.55067897
66	0x3de89b33	0.11357727
67	0xbefc68b9	-0.49298647
68	0x3d392e63	0.045210253
69	0x3dd37fad	0.103270866
70	0x3d25ba1a	0.040460683
71	0x3dd4ed10	0.103967786
72	0x3dad0110	0.08447468
73	0x3f6c0bca	0.9220549
74	0x3e00d338	0.12580574
75	0x3ee95682	0.45573813
76	0xbf41e575	-0.7574075
77	0xbec91437	-0.39273235
78	0x3d8d7a90	0.069081426
79	0x3d9d14b1	0.07669962
80	0x3e2e34a1	0.17012264
81	0xbe1a23ab	-0.15052669
82	0x3cfc289b	0.030781081
83	0xbedec47a	-0.43509275
84	0x3f366478	0.71247053
85	0xbe1c171d	-0.15243192
86	0x3e098e87	0.13433276
87	0x3e9c96fd	0.30583945
88	0xbd96f2ab	-0.07370504
89	0xbe04ebd9	-0.12980594
90	0xbd8b1d7b	-0.06792732
91	0x3e645914	0.22299606
92	0x3f0cd18c	0.55007243
93	0x3df80a15	0.12111298
94	0xbe5bb910	-0.21457314
95	0xbd52c866	-0.051460646
96	0x3f0db90d	0.5536049
97	0x3e0241f5	0.12720473
98	0xbe623547	-0.22090636
99	0x3ef99a5c	0.4875058
100	0x3efb4145	0.49073234
101	0xbd150027	-0.0363771
102	0x3d097a96	0.033564173
103	0x3e1924fd	0.14955516
104	0x3f150af2	0.58219826
105	0xbdea5b33	-0.11443176
106	0x3f3ec8aa	0.7452494
107	0xbe31e8e6	-0.17374
108	0xbeef1082	-0.46692282
109	0x3dc1265b	0.09431144
110	0xbe1b36de	-0.15157649
111	0xbe128f11	-0.14312388
112	0xbd2e6c65	-0.04258384
113	0xbea1962b	-0.31559882
114	0xbeb3daec	-0.35127962
115	0x3d9d2bc6	0.07674365
116	0xbc1e5daa	-0.009665886
117	0x3e102b69	0.1407906
118	0xbf12c021	-0.57324415
119	0x3dc3a895	0.09553639
120	0x3f266a53	0.6500599
121	0xbc926e83	-0.017874962
122	0x3e04ddfd	0.12975307
123	0x3dd443bd	0.103644826
124	0xbed61352	-0.41811615
125	0x3e2341d7	0.15943085
126	0x3e2d0574	0.16896611
127	0xbf112710	-0.5670023
128	0xbf2575ab	-0.6463267
129	0x3ec3f05b	0.38269314
130	0xbe535f05	-0.20641716
131	0xbdf96cfe	-0.12178992
132	0x3c60f39d	0.013729957
133	0xbed95203	-0.42445382
134	0x3eb0c576	0.3452565
135	0xbd0226a1	-0.03177512
136	0xbe5708be	-0.20999429
137	0x3e34e2e8	0.17664683
138	0x3f0e64c6	0.5562252
139	0x3d2c072c	0.041999027
140	0x3d6472c7	0.055773523
141	0xbeb2b70f	-0.34905288
142	0xbea1fea2	-0.31639582
143	0x3e5b2827	0.21402036
144	0xbeb54b5c	-0.35409057
145	0x3deddd83	0.11614516
146	0xbe34ff94	-0.1767562
147	0x3db7ff1d	0.08984206
148	0xbe6987de	-0.22805735
149	0xbe807931	-0.25092462
150	0x3d9deed8	0.077115715
151	0x3eb9d6ef	0.36296794
152	0x3de9d565	0.11417655
153	0xbea820cf	-0.3283753
154	0x3dd2c71c	0.10291883
155	0xbe8b6d00	-0.27231598
156	0x3ea741b5	0.32667318
157	0x3e6e838f	0.23292373
158	0xbf1dea06	-0.61685216
159	0x3d2d9f0c	0.042388007
160	0x3d4514df	0.048115607
161	0x3d89cc2e	0.06728397
162	0xbeefdb20	-0.46846867
163	0x3c2847fb	0.010271068
164	0xbcc52a6d	-0.024068082
165	0xbdda7d6a	-0.10668452
166	0xbea7fe37	-0.32811138
167	0x3f31a420	0.6939106
168	0xbe85a960	-0.26105785
169	0xbda66b45	-0.08125929
170	0x3b29dc96	0.0025918833
171	0xbe8f5bbc	-0.27999675
172	0x3cc3df5c	0.023910217
173	0x3e0e2307	0.1388055
174	0x3e90d613	0.28288326
175	0x3e098cb8	0.13432586
176	0xbe879965	-0.26484218
177	0x3d9178b7	0.07103103
178	0x3dc9c057	0.09851139
179	0x3d83cd64	0.064356595
180	0xbe4a0ee9	-0.1973225
181	0x3ebf3370	0.3734393
182	0xbeeb9ca7	-0.46017954
183	0xbebd0cb8	-0.36923766
184	0xbe3f670c	-0.18691653
185	0x3e45e60f	0.19326042
186	0x3dce89d0	0.100848794
187	0xbe8e4565	-0.2778732
188	0x3e0ee600	0.13954926
189	0xbd4a8c08	-0.04944995
190	0xbcafd75d	-0.021464998
191	0xbf226473	-0.63434523
192	0x3e7c807f	0.24658392
193	0xbeacb5e5	-0.33732525
194	0xbda95ecc	-0.08270034
195	0x3d4e1f95	0.050323088
196	0x3e4ac3c9	0.19801249
197	0x3e14ee14	0.14543945
198	0xbe7a1aca	-0.24424282
199	0xbedec1b9	-0.43507174
200	0x3e2c78a9	0.16842903
201	0x3f007078	0.50171614
202	0x3effa73b	0.49932274
203	0xbecd2a21	-0.40071204
204	0x3e8bffbe	0.27343553
205	0xbe11f607	-0.14254008
206	0xbdeca761	-0.115553625
207	0xbdc24d36	-0.09487383
208	0x3e1f0805	0.15530403
209	0xbc81e6ca	-0.01585712
210	0x3dbb5342	0.091467395
211	0x3e8870b2	0.2664848
212	0xbf223488	-0.63361406
213	0x3c4a7953	0.0123580275
214	0xbeca63f8	-0.39529395
215	0xbee5a5bf	-0.44853017
216	0xbd2763c3	-0.040866625
217	0xbc787059	-0.0151635045
218	0xbe39e5ea	-0.18154112
219	0x3d04318d	0.032273818
220	0xbe871897	-0.26385948
221	0x3e6a2087	0.2286397
222	0xbe07485b	-0.13211195
223	0x3ee2f090	0.4432416
224	0xbd86cf72	-0.06582536
225	0x3e3bad19	0.1832775
226	0x3e8f301c	0.27966392
227	0xbe96749b	-0.29385838
228	0xbe1cb84d	-0.1530468
229	0x3dcbcad2	0.09950794
230	0xbe891973	-0.2677723
231	0x3efbcd3c	0.4918002
232	0xbf1f9a30	-0.62344646
233	0x3df66e49	0.12032754
234	0xbe6b88d8	-0.2300142
235	0xbe4b3257	-0.19843422
236	0x3ec25fe0	0.37963772
237	0x3dc95bcd	0.09831963
238	0xbe11607e	-0.14196965
239	0x3ec8edc8	0.39243913
240	0x3d83e37c	0.064398736
241	0x3f1befcd	0.6091278
242	0x3ea4a544	0.32157338
243	0x3c91e6a1	0.017810168
244	0x3e755dfe	0.23961636
245	0x3cd60952	0.026127491
246	0xbdaa1a45	-0.08305792
247	0x3e929347	0.2862799
248	0xbea95370	-0.3307147
249	0xbe0f0213	-0.13965635
250	0x3e39c9cc	0.18143386
251	0xbee6c318	-0.4507072
252	0x3eafe11c	0.34351432
253	0xbf1c6a5a	-0.6109978
254	0x3d89ea60	0.067341566
255	0x3ec74e8f	0.38927123

layers.output.bias f4 [2]
0	0x3e352aab	0.17692058
1	0x3d8013fd	0.062538125
