results/SMOTE2K/smote25/smote0.15/model.pth (torch, 205093 bytes, 10 tensors)

layers.block_0.layer.0.weight f4 [128, 2]
000000 7d 93 3a bf b8 7a ca 3e 0d f5 c6 be e9 b4 3c 3d
       -0.728813 0.39546752 -0.38858834 0.046070967
000010 d7 15 23 3d c0 ce e3 be 11 6f 55 be 2c 3b 4c be
       0.03981575 -0.44493675 -0.2084315 -0.19944447
000020 aa 9a 3e 3f 8c e7 1b 3f 25 3a 54 3e 17 26 49 3f
       0.7445475 0.6090019 0.20725305 0.78573745
000030 bd ea 1d 3e a2 61 09 3f a7 c7 6f 3f 35 da 92 be
       0.15421577 0.536646 0.9366402 -0.28682104
000040 ab bf 5a 3f 66 73 e1 be 07 9b 15 3f 00 78 41 3f
       0.8544871 -0.44033355 0.5843968 0.7557373
000050 5c cc 20 3f 2d 56 05 3e 3e 6d 9c be ac 0e f4 3e
       0.6281183 0.13021155 -0.30552095 0.47667444
000060 44 91 19 bf 5d 59 05 bf f4 1d c5 3e 61 b8 17 3f
       -0.5998728 -0.5208948 0.38499415 0.59265715
000070 0d 1a 2e bf d5 2b dc 3e ef 55 f3 be 5c 41 42 3f
       -0.680085 0.4300219 -0.475265 0.7588098
000080 22 98 79 3f db 44 92 be e5 95 5c bf 27 40 03 3e
       0.9749776 -0.28568158 -0.8616622 0.12817441
000090 38 6e 13 3f 7e fe 37 3f 5d ce 90 3e 87 b9 55 3f
       0.57590055 0.718727 0.28282443 0.8348622
0000a0 e6 bf 5a 3f a1 db d7 be d2 60 53 bf 1d 0a 84 3e
       0.85449064 -0.4215975 -0.8256961 0.25788966
0000b0 17 41 14 bf 0b 53 32 bf c0 d0 5b be 07 da bb 3e
       -0.5791182 -0.69657964 -0.2146635 0.3668978
0000c0 f2 07 7f bf 4f 43 82 3c a4 22 44 bf 80 d2 f8 3e
       -0.996215 0.015901236 -0.7661536 0.485981
0000d0 66 e9 5f 3e df 0b 0e 3f 52 38 1c 3f ca de ea be
       0.21866378 0.55486864 0.6102344 -0.458731
0000e0 93 cc 03 3e b6 7a 02 3f cb ad 25 3f f1 08 e8 3e
       0.12871008 0.5096849 0.6471831 0.45319322
0000f0 de e0 2a bf d3 4e f7 3c 57 9e ca bd c4 cd e9 be
       -0.6674937 0.030188954 -0.09893482 -0.456648
000100 ff cd 1a 3f f7 10 1b bf 5b a5 b9 3e 12 a3 24 3f
       0.60470575 -0.6057276 0.3625897 0.64311326
000110 8d 79 42 be a4 a1 b2 bd 32 60 6f bf 11 52 33 3e
       -0.1899168 -0.08722237 -0.9350616 0.17511775
000120 33 d5 82 bf 4f d7 71 be cd a5 c2 be f5 5a 1b 3f
       -1.0221313 -0.2361729 -0.3801712 0.60685664
000130 24 30 32 bf 5b e4 04 bf 00 ea 23 bf 87 9f 41 3d
       -0.69604707 -0.5191094 -0.6402893 0.047271278
000140 9f 4b 96 be 95 e0 38 bf ad 77 4a bf 8f f7 c2 3e
       -0.2935457 -0.72217685 -0.7908886 0.38079497
000150 c1 74 61 bf 63 df 4e be e8 f7 88 3f 53 46 7c 3d
       -0.8806878 -0.20202403 1.0700655 0.061590504
000160 16 3c bf 3e 87 48 96 3d 8e a4 88 3f 6e e5 e9 3e
       0.3735053 0.07338052 1.0675218 0.45682853
000170 f8 d5 02 3f 23 0d 2b 3e f8 35 ee be 8c 7f bb 3e
       0.5110774 0.1670423 -0.4652555 0.36620748
000180 ef 2d 4b bf aa d4 ed be 87 73 06 3f e5 62 55 3e
       -0.79366964 -0.46451312 0.5252003 0.20838507
000190 01 1e 0d 3f d9 25 c7 be 37 0a 19 3f f6 f7 bd 3e
       0.5512391 -0.38896063 0.5978121 0.37103242
0001a0 c0 76 5f bf 8a 80 be 3e 46 fd 54 bf 91 3d 1d 3f
       -0.87290573 0.37207443 -0.83198965 0.6142207
0001b0 dd a4 5a bf 8b d0 b7 3e d9 85 62 3f 76 3d a1 3e
       -0.8540781 0.35901293 0.88485485 0.31492203
0001c0 b7 e9 41 3f 78 7a ee 3e 7d 71 1d bf 93 63 0a 3f
       0.75747246 0.4657781 -0.61501294 0.5405819
0001d0 2f 57 6b bf d0 02 be be 59 4c 68 bf 95 8e 1a 3f
       -0.91929907 -0.3711152 -0.907415 0.6037381
0001e0 3a 2c 89 3e 36 57 01 bf 15 5f 5e 3f 64 ed d0 bd
       0.26791555 -0.505237 0.86863834 -0.10201529
0001f0 96 bd 73 3f 2a 07 8f 3e 89 7e 0c bf ef 69 3f 3e
       0.9521116 0.27935153 -0.5488058 0.18692754
000200 38 2d 05 bf 96 24 d8 3e 47 62 56 3f 43 59 1a bd
       -0.52022123 0.42215413 0.8374371 -0.037682783
000210 42 f6 be be 7f 5c 4e 3e ab 1e 42 bf 21 9e 13 3f
       -0.37297255 0.20152472 -0.75828046 0.5766316
000220 b1 d4 e1 3e 00 72 46 3f 28 05 28 bf f8 03 f4 3e
       0.44107583 0.775177 -0.6563287 0.47659278
000230 c3 fb 09 3f b1 68 2d bf ba 44 0d bf 08 3e b8 3e
       0.5389978 -0.6773787 -0.55182993 0.35984826
000240 f8 45 4b 3f 79 bb 02 bf 04 de ca be 90 dc 01 3f
       0.7940364 -0.5106731 -0.3962251 0.50727177
000250 ba 4a 1a 3f e7 5a 15 bf 76 ad 9f 3d 95 01 46 3f
       0.60270274 -0.5834183 0.07796757 0.77346164
000260 89 c1 45 3f a3 09 f2 3e ba 60 4a bf 9c 93 27 3f
       0.77248436 0.47272977 -0.79053843 0.6545961
000270 11 1a 43 bf d8 c4 97 bd 50 22 f1 be 75 d2 7d 3e
       -0.7621165 -0.07410592 -0.4709649 0.24787314
000280 21 8b c2 be 29 8d 36 bf 48 e5 88 bf 25 dc 6a be
       -0.37996772 -0.71309143 -1.0694971 -0.22935541
000290 4d 69 11 bf 8f 2c 91 bd 26 64 50 3f df 28 07 3f
       -0.568013 -0.07088577 0.81402814 0.5279674
0002a0 19 ba 1c 3f 82 a2 da 3e 57 10 88 3f b7 38 01 bf
       0.6122146 0.4270211 1.0629987 -0.50477165
0002b0 76 47 5e 3f 35 25 2f be f4 e2 fd 3e b9 d4 11 3f
       0.8682779 -0.17104037 0.49587214 0.56965214
0002c0 8b dd 26 bf e5 c2 3c be cb a6 81 be 9a 33 2a 3f
       -0.651818 -0.18433721 -0.25322565 0.6648499
0002d0 14 cc 02 3f 16 40 1b 3f 17 ff 36 3f 9c 40 cf 3e
       0.5109265 0.6064466 0.71482986 0.4047898
0002e0 8e 4d de be 36 26 57 3e f4 7d f0 3e 3e 49 02 be
       -0.43418545 0.2101067 0.46971095 -0.12723252
0002f0 b0 a3 33 3f fd e4 30 3f ef 9e 05 3f 95 25 07 bf
       0.7017164 0.6909941 0.5219564 -0.5279172
000300 40 99 4c bf 81 d9 87 be fa 35 2b 3f 73 d3 53 be
       -0.7992134 -0.2653313 0.66879237 -0.2068613
000310 b5 55 60 bf 68 3c 13 bf 56 61 10 3f 8a fe 28 be
       -0.8763078 -0.5751405 0.5639852 -0.16503349
000320 bf cb 22 bf 7d 7a e6 be 78 f4 3d bf df 86 37 bf
       -0.6359214 -0.45015326 -0.74201155 -0.7169017
000330 a6 27 27 3f 25 b2 6a 3d 6e 11 63 3f 7b 31 92 be
       0.65294874 0.057298798 0.8869847 -0.28553376
000340 42 f7 7f 3f e0 fe 9a 3e ae a8 38 3f ed 44 f3 bc
       0.9998666 0.3027258 0.72132385 -0.029695952
000350 71 e5 1e bf 49 87 37 3f ec d6 18 3f 27 70 09 3f
       -0.6206885 0.71690804 0.59702945 0.53686756
000360 b5 26 18 3f 77 ca d9 be cd 64 40 bf b5 76 4e 3e
       0.5943406 -0.4253728 -0.7515381 0.2016247
000370 01 69 94 3d 40 d5 2c bf 0d fd 95 3e 79 e6 45 bf
       0.072465904 -0.67512894 0.29294625 -0.773048
000380 08 29 7e bf 58 a0 4c be dc 74 1a bf e0 9d bc 3e
       -0.9928136 -0.19983041 -0.60334563 0.368392
000390 bc 05 e4 be 50 21 51 3c 53 2e 81 bf f6 0f b2 be
       -0.44535625 0.01276429 -1.0092262 -0.34777802
0003a0 57 36 2c 3f 1e 45 34 3d f5 88 1f 3f 1a 4d 1f be
       0.67270416 0.044011228 0.62318355 -0.15556756
0003b0 6b 79 64 3f c3 18 11 bd eb 89 81 3f 83 81 dc be
       0.8924777 -0.035424005 1.0120214 -0.4306756
0003c0 63 4d 3c 3f 04 4b 0b 3f ea 1b 4d bf 70 b7 eb be
       0.7355558 0.5441134 -0.8012072 -0.4603839
0003d0 d1 7f 42 3f 98 2c 4f 3e 7c e5 66 3f 01 da 87 be
       0.7597628 0.20231855 0.90193915 -0.2653351
0003e0 94 8b 1f bf 0e cd 92 3e ef b6 32 3e ee 1a 0e bf
       -0.62322354 0.2867207 0.17452596 -0.5550984
0003f0 0e f0 db 3e 4c 61 88 bd f9 e8 d2 3e 48 9b 9b 3c
       0.42956585 -0.06659183 0.4119337 0.018994942

layers.block_0.layer.0.bias f4 [128]
000000 cf 1f d5 3e 3b 5b be be c9 93 24 bf 20 dc 90 3e
       0.4162583 -0.37178978 -0.64288 0.28292942
000010 33 21 01 bf 51 cd 18 3f 1b d3 3b be 92 3f c4 3e
       -0.50441283 0.5968829 -0.18342249 0.3832975
000020 b2 d2 20 3d 5b 66 42 bf 69 1c e2 be 5c 74 11 3e
       0.039263435 -0.7593743 -0.441623 0.14204544
000030 3a f1 b0 3e 63 88 73 be dd 93 0d bd f6 1e b1 be
       0.3455904 -0.23782496 -0.03456484 -0.34593934
000040 31 df 95 3e ff 17 e0 be f2 c6 31 bf 3d af 0a 3f
       0.29271844 -0.43768308 -0.6944419 0.5417364
000050 f0 46 17 bd 49 d2 01 bf 0f 88 92 3d 6f 51 30 bf
       -0.036932886 -0.50711495 0.07154857 -0.6887426
000060 3d dc 1c 3e ba e7 8b bb 26 4f db 3e 64 a7 b0 bd
       0.15318389 -0.0042695673 0.42833823 -0.08625677
000070 4d 5a b1 3d c8 3d ee 3e dc c1 ba 3e de 99 6a bd
       0.08659802 0.4653151 0.36476028 -0.057275645
000080 e4 73 5a be 44 8a 2e 3e c4 42 0f 3f 4a 43 15 bf
       -0.21333271 0.17044932 0.5596125 -0.583058
000090 b0 5b 7e bd 81 63 38 bf 74 20 4c 3e 81 46 82 3e
       -0.06209916 -0.7202683 0.19934255 0.25444415
0000a0 10 5d bd bd 89 b8 1a bf 91 5e 0f 3f 93 6b cc 3d
       -0.09246266 -0.6043783 0.5600367 0.09981456
0000b0 34 f8 1b 3f d9 ad af be 9d cd 1b 3f 23 e5 22 3e
       0.609256 -0.34312323 0.60860616 0.15907721
0000c0 94 76 a1 3e a7 71 b9 3d 0c 64 b8 be 43 a9 21 bf
       0.3153578 0.090548806 -0.3601383 -0.631489
0000d0 fc 51 ba be b0 6e c5 be 4a 5f b9 be 5d 78 2a 3e
       -0.36390674 -0.3856101 -0.36205512 0.16647477
0000e0 b4 53 14 3f b5 ff d6 3e 15 18 d1 3e 6a cf d9 be
       0.5794022 0.41991964 0.40838686 -0.42541057
0000f0 65 22 18 bf c8 d2 f1 bd 2c 72 15 be 42 4b b9 3e
       -0.5942748 -0.118077815 -0.14594334 0.3619023
000100 ae fc 0d 3f 49 ff 67 3e 26 a6 ff be c3 f6 e5 3d
       0.55463684 0.22655977 -0.4993145 0.11228707
000110 5e ad 90 3e 52 02 e7 be 22 5a cd bd 3e 86 2e 3f
       0.2825727 -0.45118958 -0.10026957 0.6817359
000120 2d 06 96 3e 6d 47 e7 3e bd 8e c2 be c6 f1 89 3d
       0.29301587 0.4517168 -0.37999526 0.06735568
000130 f1 56 88 be e5 3a ca be 21 88 55 3e 34 36 03 3e
       -0.2662883 -0.39498058 0.2085271 0.12813646
000140 f4 77 8c 3d 66 a9 7f 3e 05 b6 72 bd 22 d3 05 3f
       0.06858817 0.24966964 -0.05925562 0.5227529
000150 73 48 0f 3f 49 ec ed 3e 1d 28 0a 3f 2c 27 30 3c
       0.55969924 0.46469334 0.5396746 0.010751527
000160 ae 1d 8e bc 39 fa 5e bd eb b6 e6 be 60 75 f1 be
       -0.017348137 -0.05443785 -0.4506143 -0.47159863
000170 4f 74 0c 3f c5 4d 05 3f fc 4f ad be 11 0d 8e 3e
       0.5486497 0.5207179 -0.33850086 0.27744344
000180 20 a6 98 bd 1a 31 cf 3e b6 0f 9c 3e 49 25 87 3e
       -0.07453561 0.4046715 0.30480736 0.26395634
000190 7c b4 8d bb bb 7d 1f 3f 56 b6 1b 3f 90 09 7c 3d
       -0.004324494 0.62301224 0.608251 0.061532557
0001a0 03 ae 56 3d a1 1b 75 3e ca 7a fa 3e 0a aa 24 be
       0.052412044 0.23936321 0.48921806 -0.1608049
0001b0 cc 2d 6c 3e 78 da c0 be ec 4b 0d 3f ed ae fe 3e
       0.23064345 -0.37666678 0.5519397 0.49742833
0001c0 59 df 48 3e b5 5b bd bd 9d bc 2c bf cc fb bf 3e
       0.1961645 -0.09246007 -0.674753 0.37496793
0001d0 3d 95 8a 3d 0f 94 2d 3e 8f bb 8e be c4 f4 ef 3e
       0.06766746 0.16951011 -0.2787747 0.4686643
0001e0 5a 5a f7 be 9b 79 19 3f bc a2 0a bf d1 09 80 3e
       -0.4831112 0.5995118 -0.5415456 0.2500749
0001f0 39 0e 80 3e 2c 42 ae 3e 3c b0 1b bf b2 fe e0 3e
       0.2501085 0.3403486 -0.6081579 0.43944317

layers.block_1.layer.0.weight f4 [128, 128]
000000 c2 45 3e bd d3 62 14 be 8a 02 54 bd a7 62 e1 bc
       -0.046453245 -0.14490823 -0.051760234 -0.027512861
000010 d8 d4 27 bc 26 87 78 3d f2 2e 01 be 24 b5 08 3e
       -0.010243617 0.060675763 -0.12615564 0.1335035
000020 07 fd dc 3d 4a ac 5b 3c 91 f3 ad 3d 9a 95 fe bd
       0.10790449 0.013407776 0.08493722 -0.12430878
000030 ce 10 3c bc 55 8d 67 bd dc a9 3f be 77 fc 50 bd
       -0.011478616 -0.05653127 -0.1871714 -0.05102202
000040 35 30 5d 3e 4e df fd bd f1 be 52 3a 90 22 c8 3d
       0.21600421 -0.123961076 0.0008039317 0.09772217
000050 40 ff 03 3e c5 18 17 be cb d3 1c 3d 1a 89 03 be
       0.12890339 -0.14755543 0.03828792 -0.12845269
000060 85 ca 3d be fc 96 44 bd 4d 3d e6 bc d6 80 e7 3d
       -0.18534286 -0.047995552 -0.028105402 0.113038704
000070 b1 e2 b0 3b dc 76 00 3e 66 86 e1 bc 48 56 17 bc
       0.0053981175 0.12545341 -0.027529906 -0.00923688
000080 df 6a 11 3e 98 42 91 3d 23 82 b6 bb cb 05 12 be
       0.14200924 0.0709278 -0.0055697127 -0.14260022
000090 13 e3 19 bc ef d2 49 be 48 aa c4 bb a8 22 81 bd
       -0.009392518 -0.19709371 -0.0060017444 -0.06305438
0000a0 d4 3a 01 be d4 ec f5 bd 95 07 f4 bd 07 69 88 3d
       -0.12620097 -0.12008062 -0.11915509 0.066606574
0000b0 1e bf 18 3e f0 82 b4 3d 98 35 29 3c 0c 38 6a bb
       0.14916655 0.08814037 0.010327719 -0.0035738973
0000c0 cb c8 38 bd 3b cd 19 3e 4d 39 4e 3d f6 8b 01 bc
       -0.045113366 0.15019695 0.050347615 -0.007906904
0000d0 44 a7 3c be c3 59 02 be f9 ca 5a be 28 c1 d4 3c
       -0.18423182 -0.12729554 -0.2136649 0.02597101
0000e0 7f 22 d3 3d 37 85 e5 bd 87 6e 23 be 47 18 3b be
       0.10309314 -0.11207049 -0.15960132 -0.1827098
0000f0 29 72 b6 bd b6 e6 0f 3e 0c 48 11 3e af 04 30 bd
       -0.08908493 0.14052853 0.1418764 -0.042973217
000100 52 36 85 bd bd 49 1a 3d d6 95 56 bc ba 8a 15 be
       -0.065045014 0.03766798 -0.013097247 -0.14603701
000110 c8 c4 b3 3c cb 96 b8 bd 58 ac 4f 3d 79 7c fe bc
       0.021944419 -0.090131365 0.05070147 -0.031065213
000120 01 ed 0d 3e 4a ec 1f 3c 33 a7 b8 3d cf 99 92 bd
       0.13859941 0.009760926 0.09016266 -0.07158243
000130 85 ed 74 3d 70 5b 14 be 11 58 b3 bd 95 0c e3 bc
       0.05979683 -0.14488006 -0.08757032 -0.02771596
000140 60 f5 c4 bd 85 83 0b be 11 e0 0b be b5 4d cb 3d
       -0.09617114 -0.1362439 -0.13659693 0.09926931
000150 79 00 01 3e ad 4e 41 3e d3 80 11 3e 3c 9b be bc
       0.12597837 0.18877669 0.14209299 -0.02326738
000160 6a 26 9d bd e1 b0 0e be 45 04 6b bd 62 cc e5 3d
       -0.076733425 -0.13934661 -0.05737712 0.112206236
000170 da e4 95 bd 9b 34 16 3e 62 73 cc 3d 7d 0f 1f 3d
       -0.073190406 0.14668505 0.09982945 0.03883313
000180 d5 38 13 be 43 d2 cc 3d c3 0b 90 bd e4 16 4f 3e
       -0.14377148 0.10001042 -0.07033493 0.20223576
000190 d8 87 8c bd 42 91 c4 3d 90 13 0e 3e a4 da 36 3e
       -0.06861848 0.09598018 0.1387465 0.17856842
0001a0 b0 df b4 3c 40 94 31 3d 7a 67 03 3d 25 34 4a 3d
       0.022079319 0.043354273 0.032081105 0.049366135
0001b0 76 af 56 3e 93 11 3f be 21 13 30 3d fe 58 a1 3d
       0.2096537 -0.18659048 0.042986993 0.07878302
0001c0 e4 1c 03 be 54 13 4a be e0 28 3c bd 48 f0 2e be
       -0.1280399 -0.19733936 -0.04593742 -0.17083848
0001d0 8c b9 39 3e 8d 57 6c 3e 60 47 00 3e a3 89 26 3e
       0.18137187 0.23080273 0.12527227 0.16263442
0001e0 9f 2a 90 3d 5d 24 86 bd b8 09 ec bc dc 79 dc 3d
       0.07039379 -0.065499045 -0.028813228 0.1076543
0001f0 44 c4 59 bd 8f 06 0a 3e f4 0e cf 3c b0 e1 dc 3d
       -0.05316569 0.13479064 0.025275685 0.10785234
000200 52 48 6d bd 99 6f 4c bd d3 e4 0c 3d d9 db 9e bc
       -0.0579303 -0.049911115 0.03439791 -0.01939194
000210 7d e3 ff bc 31 d5 b1 3c 03 f0 e1 3c 18 26 ec 3b
       -0.031236405 0.021708103 0.027580267 0.0072066896
000220 cb f5 85 bd af ba 84 bd 25 ec ed bc 44 0d f4 3b
       -0.06541022 -0.064809196 -0.029043267 0.0074478704
000230 96 80 b1 bc 45 d2 3b 3a fb 1c a0 bc 62 f6 5d bd
       -0.02166776 0.00071648165 -0.019545069 -0.054190047
000240 1f 8d 48 3d c4 49 96 3d 02 e0 a1 bc 27 03 55 bd
       0.04896271 0.073382884 -0.019760136 -0.05200496
000250 3f e2 2e 3c c3 f3 37 3d 8a ca 91 3d cc 5d 5c 3c
       0.010674058 0.044910204 0.071187094 0.013450097
000260 1e 6f 46 3d 3b 88 52 3d 6c 7e ec 3b 06 25 b6 3d
       0.048445813 0.05139945 0.007217219 0.088937804
000270 67 f9 9e bb 60 5e 85 bc 19 7c a9 3c 97 33 44 bd
       -0.0048515084 -0.016280353 0.020689057 -0.047900762
000280 f0 2d 40 3d c2 e3 cd bd 63 5a 9b bd 41 67 c0 3c
       0.04691881 -0.10053207 -0.07585599 0.023486735
000290 07 9d 1c bb b0 c1 16 3c 47 35 9d bc c9 cc 60 3c
       -0.0023897307 0.009201452 -0.019190444 0.0137207
0002a0 bb 8c ed 3b 17 60 9d 3d 6c 3b aa bd fb 54 f8 bb
       0.0072494424 0.07684343 -0.08312115 -0.00757849
0002b0 5c 81 98 3d ea a1 fe 3c 6f de be bd ee 75 cb b9
       0.07446548 0.031083066 -0.093197696 -0.00038807042
0002c0 27 81 80 bc c6 98 dd 3c 15 8c 93 3d eb e0 94 3c
       -0.015686585 0.027050387 0.07204453 0.018173655
0002d0 8c 2c 3a bd 29 25 bf 3d 98 3d a6 3c f5 78 20 bc
       -0.04545264 0.093332596 0.020293042 -0.009794463
0002e0 19 bd 43 bd 65 fc dd 3c 0f 0a bd bc f0 4d 36 3d
       -0.04778776 0.02709789 -0.023076085 0.04450792
0002f0 ea a6 97 3c e4 84 f0 3a 86 43 96 bd be 03 2a 3d
       0.018512208 0.0018350151 -0.07337098 0.041507475
000300 34 c7 d9 bc f0 cf be 3c 9b ef 8a 3d 58 3c 90 bd
       -0.026584245 0.023292512 0.06783982 -0.0704276
000310 db 8b b6 bd c9 b8 1e ba c9 88 0c 3d de dd 16 bd
       -0.08913394 -0.0006054757 0.034310136 -0.036832683
000320 a9 80 9f 3b 22 d6 4d bc 0d 3d 9b bd e9 89 4a bd
       0.0048676324 -0.01256326 -0.07580004 -0.049447928
000330 a5 d0 75 3c ed 10 5f 3d 93 8a e0 bb 3b 1a 6b bd
       0.015003358 0.0544595 -0.006852457 -0.057398062
000340 67 5a 2d 3d 4f 03 42 bd e4 08 5a 3c 35 f4 30 bd
       0.042322543 -0.047366437 0.013307784 -0.043201644
000350 7f 1d 48 bc 91 25 f3 ba d6 c8 d1 bc e6 11 86 3d
       -0.012214064 -0.0018550624 -0.025608461 0.065463826
000360 d5 00 fb 3c cf c3 89 bd 3a 4f 8e bd 26 4c 81 3d
       0.030640045 -0.06726801 -0.06948705 0.06313352
000370 29 49 68 bd 6f b9 aa bd ca 54 3a bd 68 a2 92 3c
       -0.056710396 -0.0833615 -0.045491017 0.017899707
000380 a6 6d 13 bd 13 d1 44 bd 1b 63 9c bd 48 78 42 bc
       -0.03599324 -0.04805095 -0.0763609 -0.011869498
000390 39 83 24 bd 4e 24 89 bc a7 ae 3d bd a2 10 61 bd
       -0.040164206 -0.016740944 -0.04630914 -0.054947503
0003a0 fb 03 36 3c 0c a1 75 3d a9 21 67 bd 54 bf 3e 3d
       0.011109347 0.05996804 -0.056428585 0.046569183
0003b0 91 f3 ab bd 09 d7 76 bc 67 3b c0 bd bf 7d d5 3c
       -0.08396066 -0.015065917 -0.0938633 0.026060937
0003c0 e8 1b 80 3d 7b 9c 75 3d ea ba a3 3d e0 fa bb bd
       0.06255323 0.059963685 0.079946354 -0.0917871
0003d0 17 ad 08 bd c5 f4 bd bd f9 b6 b0 3d d5 16 aa bc
       -0.033368196 -0.09275202 0.08628649 -0.02076284
0003e0 7a ae 61 bd 92 25 53 3c b3 91 f9 3a 8a 34 86 3c
       -0.055098034 0.012887375 0.0019040614 0.016382474
0003f0 dd db a8 bd b0 73 6c bd a5 b5 76 3d 86 6b 7b 3d
       -0.082450606 -0.057727516 0.060231823 0.06138184

layers.block_1.layer.0.bias f4 [128]
000000 97 9d 04 bd 71 96 99 bd 05 6f 59 3d 73 09 65 bd
       -0.032376852 -0.074993975 0.053084392 -0.055917215
000010 6e ac 51 bd f0 84 a2 bc 1a a2 84 3d 31 2d b5 3c
       -0.051189832 -0.01983878 0.06476231 0.022116276
000020 82 8b 84 3d 6f e9 aa 3d 7a c3 09 3c aa bc 86 3d
       0.064719215 0.08345305 0.008408422 0.065789536
000030 6a 36 ad bc 95 a9 10 3d 43 a2 be bc 69 40 bb 3d
       -0.02114411 0.035317976 -0.023270732 0.09143145
000040 69 91 85 bd 83 cb c4 bd 0e 0b 33 bc a9 72 da bc
       -0.065218754 -0.09609129 -0.010927929 -0.026666002
000050 e7 6d 4b bd 80 8c a6 bd 32 c5 7c 3d 4f 34 b6 3c
       -0.049665358 -0.08132267 0.061711498 0.02224174
000060 09 99 87 bd 36 d9 82 bd a6 54 9c 3d f0 c7 51 bb
       -0.06620986 -0.06389086 0.07633333 -0.0032010041
000070 04 df 88 bd e7 6e 24 bc b6 e9 4c 3d a6 d1 48 bd
       -0.06683162 -0.010036207 0.05002757 -0.04902806
000080 23 51 7f 3d f1 56 71 bd ee 01 35 3d 70 72 a5 bd
       0.062333237 -0.058920804 0.044191293 -0.08078468
000090 c2 10 ad bd c2 59 87 3c 00 37 16 3d 32 54 44 bd
       -0.08450462 0.016522292 0.036673546 -0.047931857
0000a0 4a 9d 3b bd df 87 9e 3d f6 53 4c bd 52 8f 87 bc
       -0.0458043 0.07740759 -0.04988476 -0.016547833
0000b0 0b 3f a1 bd 50 4c e1 3a 19 58 51 3c da eb 62 3d
       -0.078733526 0.0017188881 0.012777352 0.055400707
0000c0 aa db 2c 3d 79 d6 6d bd 65 30 49 3d ff c4 5e bd
       0.042201675 -0.058065865 0.04911842 -0.05438709
0000d0 4e 9a e1 bd 35 75 0d 3d 6a c1 4a 3d cc 2e cc bd
       -0.110157594 0.034535605 0.04950086 -0.09969863
0000e0 ca f1 e3 bb ca 7e 68 3c 5e ac 96 ba b6 89 b2 bd
       -0.0069563137 0.014190385 -0.0011495461 -0.087176725
0000f0 37 32 83 bd 01 64 bd 3c c3 19 b3 3c c0 d4 bc 3d
       -0.06406062 0.023118975 0.02186287 0.09220266
000100 c2 7c 4d bd 5c f3 d1 bb e5 9b 7e bd c4 c6 4e bc
       -0.050167806 -0.0064071845 -0.06216039 -0.012620632
000110 74 c2 bb 3d c2 67 4c bd e3 74 61 bd f9 4a 09 3d
       0.09167948 -0.04990364 -0.055043112 0.033518765
000120 9b b7 dd 3c d9 f7 6a bc 7f 6b be bd 35 0b e4 3d
       0.027065089 -0.014341318 -0.09297847 0.1113495
000130 b0 fc 5f 3d e7 47 6e 3d 7a a0 bc 3d 74 f6 8c bd
       0.05468434 0.05817404 0.09210296 -0.06882945
000140 b5 9f 1a bc 8b 29 ac 3d df 09 43 bd 76 13 0f 3c
       -0.009437491 0.08406361 -0.047616836 0.008732667
000150 24 53 5b 3d 2b 08 44 bc 6a 2e a1 3d 59 40 a1 3d
       0.053546086 -0.011964838 0.07870181 0.078736015
000160 ba 62 82 bd 08 42 82 bd 57 f1 52 3d 11 87 0b bd
       -0.06366487 -0.06360251 0.05149969 -0.034064356
000170 f7 72 e1 3b 7a 97 93 bd e2 e1 c3 3d d8 42 a7 bc
       0.00688016 -0.07206626 0.09564568 -0.020417616
000180 0a 38 14 bd 7f 2b 03 3e 30 07 45 bd dc b6 e6 bc
       -0.036186256 0.12809561 -0.048102558 -0.028163366
000190 6e 1a 09 3c d3 4f 90 bd 99 60 97 3b ee d6 51 bd
       0.008368118 -0.07046475 0.0046196696 -0.051230364
0001a0 bf b7 63 bd 80 bf 43 bd bb 05 73 bd e5 95 84 3d
       -0.055595156 -0.04779005 -0.059331637 0.064739026
0001b0 6d 08 a9 3d a1 11 71 3c 35 b5 92 bd c8 83 46 bd
       0.0825356 0.014713676 -0.07163469 -0.04846552
0001c0 98 1f 73 bd e5 c2 41 3c bf 89 8d 3d b7 57 a7 bd
       -0.059356302 0.011826252 0.069110386 -0.08171027
0001d0 0c 05 86 3c 06 65 34 3d 95 8d ab bd 7a 6d 81 3d
       0.016359828 0.044041656 -0.08376614 0.06319709
0001e0 91 b9 ff ba b5 f4 d3 3d f4 45 49 bd 62 52 43 bd
       -0.0019510259 0.103494085 -0.049138978 -0.04768599
0001f0 ac 8d 8b 3d 50 f2 84 3d 38 5e 1d 3d af a4 1e bb
       0.06814131 0.0649153 0.038419932 -0.0024207046

layers.block_2.layer.0.weight f4 [128, 128]
000000 11 46 13 3d 37 50 5b 3d a8 d0 82 3b e8 ac c3 bb
       0.035955492 0.053543296 0.003992159 -0.0059715398
000010 d2 4b 69 3c 09 25 de bb 56 23 98 3d 63 23 99 3d
       0.014239268 -0.0067793173 0.07428615 0.074774526
000020 51 3a 55 bd c7 93 f1 3d 79 8b e0 3d 83 55 93 3c
       -0.052057568 0.117957644 0.10964102 0.017985111
000030 53 d6 fe bd 82 76 b3 bd 04 e8 11 3e 1b 69 8d 3d
       -0.12443223 -0.08762838 0.14248663 0.06904813
000040 0c 6c 2a bd f5 fe 66 bc 23 19 19 3e 12 04 01 3e
       -0.041606948 -0.014098872 0.14950995 0.12599209
000050 3c 82 41 bd 11 38 7d 3c cb b0 ce bd b5 58 32 bd
       -0.04724334 0.015455262 -0.10092314 -0.04354163
000060 9d 31 89 3d de a2 e1 3d c6 79 32 bb 1f 62 6b be
       0.06698916 0.110173926 -0.0027233227 -0.22986649
000070 aa 72 dc bc c6 00 0c be 4b 0d fe bd f7 c2 f2 3d
       -0.026910145 -0.1367217 -0.12404879 0.11853593
000080 5f 99 47 3d 13 af 02 bd 33 1f 53 3d 31 a8 89 3d
       0.04873025 -0.031905245 0.051543426 0.06721533
000090 36 91 98 bd 42 01 0e 3e f1 54 a8 bc 4b 8d cb bb
       -0.07449572 0.13867667 -0.020548316 -0.006211912
0000a0 43 ed cb 3c 32 8c 0c 3e c9 6c d2 bc 7e ab 95 bc
       0.024893409 0.13725355 -0.025686638 -0.01827025
0000b0 6f c4 fd 3d db 74 86 bd 6f e7 d8 bd 22 e6 0c 3c
       0.12390982 -0.06565257 -0.105910175 0.00859979
0000c0 37 72 b6 bd 4c e8 2b 3e d5 00 99 bc 59 bc d5 3d
       -0.089085035 0.16787833 -0.018677155 0.10436315
0000d0 7d b8 05 3c d5 1c 33 3b 1b fd 13 3d 5d cc b3 3d
       0.008161661 0.0027330418 0.036130052 0.087792136
0000e0 2a 9e a9 3a b4 61 ca 3d 8f f7 e6 bb 5a 01 53 bd
       0.0012940813 0.09881917 -0.0070485543 -0.05151496
0000f0 01 8a 36 3d 66 4e de bc d6 62 14 bd e9 37 16 be
       0.044565205 -0.027136993 -0.03622707 -0.14669766
000100 93 79 07 be 7d 93 0d 3d b3 79 75 3d 5b 42 5f bd
       -0.1322997 0.034564484 0.059930515 -0.05450664
000110 b4 3a 87 3d 6d 80 9a bd 72 7f 2a 3d 7e 9f 70 3d
       0.066029936 -0.075440265 0.041625448 0.058745854
000120 f1 a9 46 3c 69 21 79 bc 69 fe b9 bd fc ed 02 be
       0.012125478 -0.0152057195 -0.09081728 -0.12786096
000130 8a ad 86 be bb 33 d3 bd 26 8e b1 bd db eb 9e bb
       -0.26304275 -0.10312601 -0.08669691 -0.0048498935
000140 38 e1 d9 bd 14 97 81 3c 28 8e 0f 3d 2b 84 04 be
       -0.1063866 0.01581911 0.03504768 -0.12941043
000150 9d 4e cd 3c ac 20 14 3e c8 c4 06 bd 56 10 b4 bd
       0.0250619 0.14465588 -0.03290251 -0.08792178
000160 ee fc 5d bd 6e 26 98 bd 66 87 ec bd 00 33 a3 3d
       -0.05419629 -0.07429205 -0.11549263 0.07968712
000170 a6 06 bc 3d 17 9f 4f bc f1 96 14 be 19 28 88 3b
       0.091809556 -0.012672207 -0.14510705 0.0041551706
000180 6f 8e bc 3c b3 fb 2b bc cb ee d6 bd ce 0e 26 be
       0.023017136 -0.0104970215 -0.10494765 -0.16216585
000190 ca 4b 96 bd a1 fe 1f bc 1e 04 14 bc 49 06 51 be
       -0.07338674 -0.009765298 -0.009034185 -0.20412554
0001a0 41 da bd bd 7a 9c cd bb 69 78 32 bd 02 4a 6a 3d
       -0.09270144 -0.006274757 -0.043571863 0.057199486
0001b0 21 8a f2 bd ea 37 c0 bd 5f d8 04 3d 05 49 ca 3d
       -0.11842752 -0.09385665 0.03243291 0.098772086
0001c0 f9 91 86 3d ec 0e 79 bd 0b 3c a4 bd fb 14 d1 3d
       0.06570811 -0.060805246 -0.08019265 0.1020908
0001d0 e7 8a 99 bc e8 7a ac bc 68 3b a0 bd 7f bc 10 bd
       -0.018742992 -0.0210547 -0.07823831 -0.035336014
0001e0 69 cf 04 3d 46 75 e0 3b fc 2c 12 bd 7c 54 ee 3c
       0.032424364 0.0068499176 -0.03568743 0.02909302
0001f0 c4 67 cf bd e9 c1 a8 3d d1 6c 28 bd 2b 01 08 bd
       -0.101272136 0.082401104 -0.0411194 -0.03320424
000200 36 07 af bd d3 f4 52 bd 75 d5 c8 bd 46 67 19 bd
       -0.08546297 -0.051503014 -0.09806339 -0.037452005
000210 5d 64 11 3e 1a 34 dc 3b 01 98 36 be 70 15 ec bc
       0.14198442 0.006720078 -0.17831422 -0.028818816
000220 dc 44 42 3e 81 67 2d be 95 3e 29 be 30 18 15 be
       0.1897158 -0.16934015 -0.1652778 -0.14560008
000230 19 dc 3d 3d 7e e9 86 3d 44 25 2d 3c 25 1e 34 be
       0.04635248 0.06587504 0.010567967 -0.17589624
000240 b7 99 c4 3d 68 97 5c bd 3c ed a1 bd 66 f1 6e be
       0.09599631 -0.05385533 -0.07906577 -0.23334274
000250 28 25 ca 3c cf 1f 2a be 45 2d 9b 3d 15 c6 12 be
       0.02467592 -0.16613697 0.07576994 -0.14333375
000260 78 cf 7c 3c df 62 8a bd af 01 e3 3d a1 f9 56 3d
       0.015430324 -0.067571394 0.110843055 0.05248416
000270 6c 59 2b 3d 51 6a 18 3e 38 2b 4c 3c b8 fa a5 bd
       0.041833326 0.14884306 0.012461476 -0.081044614
000280 01 e9 a5 bd c5 16 fa bc 34 9c 1d be 5f 23 c6 bc
       -0.081010826 -0.030528435 -0.15391618 -0.024186788
000290 7e a4 80 3e df 81 b9 bd 66 a4 01 3e fd 14 08 3e
       0.25125498 -0.09057974 0.1266037 0.13289256
0002a0 87 5e 83 bd aa 8b f0 bd 85 45 39 bd e0 7b 6c 3c
       -0.06414514 -0.11745389 -0.045232315 0.014433831
0002b0 d2 5d d3 3c c5 c7 e3 bd 1e a5 3c 3e 7a 2f de bd
       0.025801573 -0.111220874 0.18422362 -0.10848899
0002c0 25 98 46 3e d9 85 dc bd 1a 58 16 3e eb 29 ff bd
       0.19393976 -0.10767717 0.14682046 -0.12459167
0002d0 e9 f6 40 3e e1 8e 25 be b1 1f ea bd 67 9c fd 3c
       0.18844189 -0.16167785 -0.11431826 0.030958368
0002e0 aa c7 44 be 1f 85 ab bd f5 6e 2d 3e 2f 77 af 3d
       -0.19216791 -0.08375 0.16936858 0.08567654
0002f0 b1 c2 06 be 67 a6 fe 3d ab 43 a8 bd 88 1d c4 bd
       -0.13160206 0.124340825 -0.08216032 -0.09575945
000300 65 52 a8 3d c7 5a 28 3e 01 42 9c bd ae 3f aa 3d
       0.082188405 0.16440879 -0.07629777 0.08312927
000310 31 9e f1 bd 78 01 e6 3d 27 33 07 3d b3 55 33 bb
       -0.11797751 0.11230749 0.033007767 -0.0027364313
000320 b8 23 9a bd 34 e9 50 be 0a b4 d9 3d 5c 6c 94 bb
       -0.07526344 -0.2040146 0.10630043 -0.004529519
000330 24 83 70 3d 00 50 88 3d 09 1c 61 3d 7b c1 55 3d
       0.058718815 0.06655884 0.054958377 0.05218647
000340 85 ed 25 3e 05 d6 26 3e da a4 d7 bd 2b ff 8f bd
       0.16203888 0.1629258 -0.1052949 -0.07031091
000350 36 93 ea bd 7e a4 00 be 7d 93 3d bd 0f eb 3e 3e
       -0.114538595 -0.12562749 -0.046283234 0.18644355
000360 bd 10 94 3d e8 f3 ab 3c fb fe 91 3d 07 aa 98 bd
       0.07229755 0.020990327 0.07128712 -0.07454305
000370 9d 79 af bd 6c 77 0d be 9f 76 ac 3b 52 34 7f bc
       -0.08568118 -0.13815087 0.005263164 -0.015576439
000380 a9 eb 76 bd 3e 16 2e bd f0 d2 20 3e 34 ae cd 3c
       -0.060283337 -0.04250168 0.15705466 0.02510748
000390 6e e1 d8 3d 64 e7 8a bd dc 95 66 be ab 42 10 bd
       0.10589872 -0.067824155 -0.22518104 -0.03521983
0003a0 70 a5 ba 3c 18 ef 30 bd 55 86 66 3e 57 09 28 be
       0.022783965 -0.043196768 0.22512181 -0.16409813
0003b0 7b 06 53 3c bb d4 df 3d 4c dc 57 3d 20 72 22 be
       0.012879963 0.10929247 0.052700326 -0.15863848
0003c0 ac 78 c4 bd ce 4a 9f 3c 6e 2d 2b be 21 eb 37 3d
       -0.09593329 0.01944485 -0.16716549 0.04490197
0003d0 fa e4 7b bd 48 02 e7 bd 68 ab 43 3e 09 cb 3f bb
       -0.061497666 -0.11279732 0.19108355 -0.0029265305
0003e0 c0 49 69 be 55 46 2d 3e 2e 9a 11 3e 97 6c a8 bd
       -0.2278204 0.16921361 0.14218971 -0.08223837
0003f0 d2 47 50 3e 42 ed 86 bd 89 b3 21 3e 92 04 7f 3c
       0.20339897 -0.06588222 0.15791143 0.0155650545

layers.block_2.layer.0.bias f4 [128]
000000 1d 18 2d bd ea d0 8d 3c b4 64 ef bd 8c d3 4e 3d
       -0.042259324 0.017311532 -0.116891295 0.050494716
000010 04 ef 78 bd c9 a3 d0 bd f2 03 b5 3c 1e 0b cc bd
       -0.060774818 -0.101874895 0.022096608 -0.09963058
000020 b5 c4 0d 39 a4 49 3f bd d9 7c 1c bd 6f 96 58 bd
       0.00013520087 -0.04670109 -0.038205 -0.05287784
000030 6b 52 d5 3c 30 db 25 3d b3 9d 03 bd 03 0e 98 3d
       0.026040277 0.040492237 -0.032132816 0.074245475
000040 74 46 d1 bc 8a 13 7a bd 6e ff 95 3d 03 39 d5 3b
       -0.02554629 -0.06105379 0.0732411 0.0065070405
000050 da f5 6a 3c 79 0a 64 bd 70 f9 36 3d a2 2a 87 bd
       0.014340842 -0.05567405 0.044671476 -0.065999284
000060 c7 d5 91 3a 59 4e 92 bc 55 9a d2 3d 57 d5 8f bc
       0.0011126333 -0.017859625 0.10283343 -0.017557783
000070 35 c7 c2 3d 0b 05 b8 bd 83 14 ad 3d ee b9 4c bc
       0.09510652 -0.08985337 0.08451178 -0.012495501
000080 6e 02 e1 3d d1 58 41 3d 14 22 c0 bd a4 db a2 3c
       0.109867916 0.047203843 -0.093815 0.019880123
000090 93 3d 9a 3c 91 32 1d 3d 48 d4 92 3c 0e 25 e3 3b
       0.018828189 0.038378302 0.01792349 0.0069319075
0000a0 10 fa be bd f7 49 e4 3d 46 de b5 bc 65 eb 5f bd
       -0.093250394 0.1114692 -0.022200715 -0.05466785
0000b0 11 78 e6 ba 16 49 12 bd d3 31 51 bd 61 ee 17 bd
       -0.001758339 -0.03571423 -0.051072907 -0.03709257
0000c0 d8 8a ac bc 43 22 ac 3d 4a c7 87 bd 95 b6 9b bd
       -0.0210623 0.084049724 -0.06629808 -0.07603184
0000d0 45 de 07 3c f7 26 bd 3d d0 50 5f bd 89 fe ac bc
       0.008292739 0.092359476 -0.05452043 -0.021117466
0000e0 70 e4 d6 3c 9d fa b4 3d 89 17 f0 bc 9b 5e 3f bb
       0.026231974 0.08836863 -0.029308097 -0.0029200676
0000f0 33 cc 34 bc c2 19 bd bd a4 89 c1 bd 73 18 b2 3d
       -0.011035013 -0.092334285 -0.09450081 0.086960696
000100 83 5b 7c 3d 72 08 cd 3c 79 f3 9f 3d f0 21 8a 3d
       0.06161071 0.025028441 0.078101106 0.06744754
000110 54 d2 36 3d 5e 57 69 bd 0e 86 ff bc 7c 34 ad 3c
       0.04463418 -0.056968085 -0.031191852 0.02114319
000120 85 ef b4 bd 05 3d 0f 3c e7 d7 95 bd e1 b9 c6 bd
       -0.08834747 0.0087425755 -0.07316571 -0.09703422
000130 d2 d1 af bc 6f c7 47 3d 81 11 a2 bd 85 a4 8f 3c
       -0.021462355 0.04877418 -0.07913495 0.017534504
000140 44 11 0f 3d 4d bc ab bd 0a 5f 9e bd e7 5f 28 3d
       0.034928575 -0.08385525 -0.07732971 0.041107085
000150 2b da c5 3d a5 76 38 3d 5e 4f 85 3c ea bf 43 3d
       0.09660753 0.045035023 0.016273197 0.047790445
000160 3d 73 24 bd b0 1d eb bc 34 ea e0 bd 21 df 86 bd
       -0.040148962 -0.02870068 -0.10982171 -0.06585527
000170 0f 26 22 bd 52 d8 cc bb ff a0 e5 bb 73 d0 06 3d
       -0.039587077 -0.0062513733 -0.0070077176 0.032913636
000180 eb 54 00 bc 19 d8 9b 3d 9d 45 a7 3d 8a da 66 3d
       -0.007832746 0.07609577 0.081675746 0.05636076
000190 cf 08 41 3d 66 bb cf bb 3b 8a ba bb 4e 67 d4 3d
       0.04712754 -0.0063394783 -0.005692748 0.10371266
0001a0 3e 64 4f 3d 53 b0 d9 bc c6 76 8a 3d 93 43 97 bd
       0.050632708 -0.026573336 0.067609355 -0.07385936
0001b0 58 4d b2 bc 5e 72 54 bd 3c df 41 bd e7 7d af bd
       -0.021765396 -0.05186688 -0.047332034 -0.08568936
0001c0 fd ca b9 3d 10 54 97 bd 01 df d6 3c 25 29 3f bd
       0.0907192 -0.073890805 0.026229383 -0.046670098
0001d0 b7 90 90 bc e8 84 ae bd 44 5f 84 3d 7a 2e 6d 3d
       -0.01764713 -0.085214436 0.06463483 0.05790565
0001e0 2c 0c 4d 3d 85 8c 89 3c f7 1f 9a 3d 1b 50 90 3d
       0.050060436 0.016790638 0.07525628 0.07046529
0001f0 c1 65 6d bd b9 fd 06 3d 1a 6f da 3c af 63 85 bc
       -0.05795837 0.032956813 0.026664305 -0.016282884

layers.block_3.layer.0.weight f4 [128, 128]
000000 48 5e 08 3e d7 42 07 3d 40 2a 33 bc 9e 7a ac 3c
       0.13317215 0.033022728 -0.010935366 0.021054562
000010 9e 03 a4 bc 7c 41 3a 3c 91 84 b4 bd 40 dd fc bc
       -0.020021256 0.011368152 -0.088143475 -0.030867219
000020 c8 bb 21 3d 52 41 94 bd 4d 81 b5 bc d7 98 32 bc
       0.039485723 -0.07239021 -0.022156382 -0.010900698
000030 19 f8 ee bd af 10 59 3e 85 8c 87 3d 2a 1d 24 bd
       -0.116684146 0.2119777 0.06618599 -0.040066876
000040 b2 ac 65 bd ae 74 4c 3c 10 3d 0a 3d fc 9b 79 3c
       -0.0560729 0.0124789905 0.03374964 0.0152349435
000050 90 b6 b8 3d bc 71 f2 bd 87 53 d7 bd 74 f3 af 3b
       0.09019196 -0.11838099 -0.105139785 0.005369598
000060 ae 76 76 bd 0b 96 27 3b c0 e8 9b 3d bc d5 40 bd
       -0.060171776 0.002557161 0.07612753 -0.047078833
000070 31 79 47 be 91 af 60 3c 87 a8 4a 3d 4d 2d 4d bd
       -0.19479825 0.013713733 0.049477126 -0.05009203
000080 93 7a 2e bc c3 c7 68 3d a4 9b 14 3d d9 ec 4e bc
       -0.010649341 0.056831133 0.036281243 -0.012629711
000090 44 b1 f3 3b 39 00 e4 3d 68 ca b8 bd 72 ef 52 bc
       0.007436903 0.11132855 -0.09022981 -0.012874471
0000a0 18 03 2c 3b 5a 2c f0 bd cd ef c3 3a 28 22 75 bd
       0.0026246961 -0.117272094 0.0014948786 -0.059847027
0000b0 89 20 48 3d b1 4c ac bd 81 b8 ba bd 02 1e 28 bb
       0.048859153 -0.08413065 -0.091172226 -0.0025652652
0000c0 fb ab c6 3b 62 d0 ee 3d 44 27 c6 bd 77 90 fc bd
       0.006062982 0.116608396 -0.09675458 -0.12332242
0000d0 ce 49 7c bd 04 5e 92 bd 56 cb 00 3e e4 a8 bc 3c
       -0.061593823 -0.07146838 0.12577567 0.023029752
0000e0 b4 67 0b 3e f6 5f 04 3e 99 19 f7 3c 92 23 17 bd
       0.13613778 0.12927231 0.030163573 -0.036899157
0000f0 59 91 94 3d 9d 58 9c 3d a0 82 5b 3c 44 a7 47 3d
       0.07254285 0.07634089 0.013397843 0.0487435
000100 d5 29 5a 3c ae 55 81 3d ae 0c d9 3d b4 c5 65 bd
       0.013315638 0.0631517 0.105981216 -0.056096748
000110 74 ec 1f bd 01 a5 a8 3d ab 02 ee 3d 9d 6d 43 bd
       -0.03904386 0.08234597 0.116216026 -0.047711957
000120 59 81 ca bd e3 2d a4 bd dc 8d f7 3c c0 9f de 3b
       -0.09887952 -0.08016565 0.030219011 0.006793946
000130 9c ce 9b bd e2 82 8b 3d ef ef b4 bd ec 01 a8 3b
       -0.07607767 0.06812073 -0.08834826 0.005127182
000140 ab 5f bf bc 73 fd f4 bd 6a ef 4f 3d a4 f0 85 bd
       -0.023361048 -0.11962404 0.050765432 -0.06540039
000150 9c 6d 15 be 62 87 df bd 03 8d 61 3c 76 60 99 bd
       -0.14592594 -0.10914494 0.01376653 -0.074891016
000160 08 25 c5 bb f4 c3 1d 3b bf c5 05 3d 11 e9 99 3c
       -0.0060163774 0.0024073096 0.03265929 0.018787893
000170 74 a2 5f bd 2f f5 13 3d 19 9d 9a bd fb 62 4c 3c
       -0.054598287 0.036122497 -0.07549495 0.012474771
000180 fe e8 63 bd 47 88 68 3d a8 32 2b 3d cc ce af 3c
       -0.05564212 0.05677059 0.041796356 0.021460913
000190 62 6c 95 3c 2a 16 0b bd f5 d0 d8 3c cc 48 55 bd
       0.018240158 -0.033956684 0.026466826 -0.052071378
0001a0 dc fe ae bc 2c 78 f6 bd 54 c6 73 bc 7a 6c 50 bd
       -0.02136176 -0.1203464 -0.014878828 -0.0508847
0001b0 dc 74 c5 3d 33 94 e6 bc ae 64 17 3e 85 36 62 3d
       0.0964143 -0.028146839 0.147845 0.055227775
0001c0 49 05 d9 bc ab 6a 05 3d ec 69 87 3d aa 95 0b be
       -0.026491778 0.03257243 0.06612 -0.13631311
0001d0 0c 64 43 3c e9 10 65 3d 68 30 d9 bd 04 09 2d 3d
       0.0119257085 0.05592433 -0.10604936 0.042244926
0001e0 c9 26 03 3d 92 f8 c9 bd 54 bf 9e ba 5b 56 e4 bc
       0.03201941 -0.09861864 -0.0012111464 -0.027873209
0001f0 16 65 a0 3c dc c5 e5 3b 6b 8e b8 bc 32 ca 44 3d
       0.019579452 0.007012112 -0.022528848 0.04804439
000200 1c 47 5b bc 2c 1c 9b 3c 6b 2a 97 bb 7b 6c 97 ba
       -0.013383653 0.018934332 -0.004613211 -0.0011552715
000210 a7 07 49 3d e3 55 c4 bd 2a 83 d9 3c a8 21 a6 bd
       0.049079563 -0.09586694 0.026551802 -0.08111888
000220 4a f4 ea bd 58 e2 fe 38 8c 82 34 3b 8d 79 7c 3d
       -0.11472376 0.000121538236 0.0027543632 0.061639357
000230 01 04 6f 3c cb cb c6 bd e3 ca 17 bd 06 00 82 bd
       0.014588357 -0.09706839 -0.037058722 -0.06347661
000240 59 1f a6 3c a3 fa cc bc b8 95 5e bd 1f d5 72 bd
       0.02027862 -0.025021857 -0.054342 -0.05928528
000250 18 ad be bb 6d 86 2f 3d b8 65 fd 3c 3e 16 fc bb
       -0.005818974 0.042852808 0.030932292 -0.007693081
000260 dc 5d fc 3d a8 1d 3d bd 3e 27 71 bd 37 21 29 3d
       0.1232259 -0.04617086 -0.058875315 0.04129144
000270 c7 9c cb 3b ed dd 16 3d 5a 96 74 3d 9d bb a2 3d
       0.0062137577 0.03683274 0.0597137 0.07945941
000280 16 60 f0 3d 3c d7 98 3d 5e 43 2a bd 6c 79 a9 3d
       0.11737077 0.07462928 -0.041568153 0.082751125
000290 40 58 8a 3c c8 82 09 be 94 85 78 3d db 0c 74 3d
       0.016887784 -0.13428795 0.060674265 0.059582572
0002a0 40 62 03 be db 1c 27 3c 3e 64 f4 3b cc b9 75 bd
       -0.12830448 0.010199751 0.007458239 -0.059991643
0002b0 87 ae 4c bb 2e 75 9f 3c 92 ae 31 3c 6a af a9 3d
       -0.0031231956 0.019465055 0.010844843 0.08285411
0002c0 05 6d a9 bd 25 2c 8b bd b2 08 24 bd 51 ab 70 3d
       -0.08272747 -0.06795529 -0.040047355 0.05875713
0002d0 9d ce c2 3d bc dc ac 3d 4e 10 19 3c 36 8d 8e bd
       0.095120646 0.08440539 0.009342266 -0.069605276
0002e0 79 86 97 bd 05 55 a5 bd d6 7e 70 bd 30 a9 5f 3d
       -0.073986955 -0.08072857 -0.05871471 0.05460471
0002f0 41 d5 b3 bd e9 a9 b0 bd 76 42 84 3c c5 2a 14 3d
       -0.08780909 -0.08626158 0.016144972 0.0361736
000300 b8 45 39 bd b1 91 56 bd 05 09 72 bd b2 0a 04 3d
       -0.045232505 -0.052385036 -0.059090633 0.032236762
000310 ff b0 eb bc cb ff 9d bd 0e 63 ff bb 67 4e 7f 3c
       -0.028770922 -0.07714804 -0.0077937907 0.015582657
000320 d7 6f 11 bd d1 03 d9 bc 10 73 ce 3c d3 97 0b 3d
       -0.03550705 -0.026491078 0.02520135 0.034080338
000330 63 a3 07 3d 03 b3 1b bd 18 2e bc 3b 29 cb d6 bd
       0.033114802 -0.038012516 0.0057427995 -0.104879685
000340 1e f0 7f 3c b2 ca a2 3c 04 b7 ac bb 35 4b 04 bd
       0.015621213 0.019872043 -0.0052708406 -0.032298286
000350 07 3d 80 3c 97 4d af bd 86 06 09 bd a7 68 a1 bd
       0.0156541 -0.08559721 -0.033453487 -0.07881289
000360 74 3b 9c 3d a7 fb f0 3b 93 97 06 bd e8 f9 74 bd
       0.07628527 0.007354218 -0.032859396 -0.05980864
000370 ae a1 b2 3d ff 10 69 bd 69 a6 e2 3c a1 30 3f 3d
       0.08722244 -0.056900974 0.027667241 0.046677236
000380 ae 14 52 3d 4d 2e 47 3d ab 9f ac 3c 23 57 ab bc
       0.051289253 0.04862814 0.02107223 -0.020915573
000390 4e 11 99 bc 80 8f ab 3a fd f6 71 3d 00 aa de 3c
       -0.01868501 0.0013089031 0.059073437 0.027180672
0003a0 6c 7d d5 3d 90 55 98 3d fe e3 ec 3c 83 27 1d bc
       0.10424313 0.07438195 0.028917309 -0.00959194
0003b0 0b bb c3 bc 70 2e 08 3d 6a f7 1c be 72 dd 84 3c
       -0.0238929 0.03324741 -0.15328756 0.016218875
0003c0 4c 68 2a bd cd 55 9a 3d bb 84 e0 bd b0 8a 77 3d
       -0.04160337 0.075358965 -0.10962816 0.060434997
0003d0 57 7d 8c bc 09 95 c7 3c a4 34 83 b7 e8 47 d9 bd
       -0.01714961 0.024363058 -1.564093e-05 -0.10609418
0003e0 29 f8 03 3d 0f 13 b4 bc 99 1f 9e 3d af f7 b4 bd
       0.032219086 -0.021981744 0.077208705 -0.088363044
0003f0 b5 fe b0 bc 2a d8 53 3d 10 3b 54 3d 85 85 bf bd
       -0.021605829 0.051719822 0.05181414 -0.09351639

layers.block_3.layer.0.bias f4 [128]
000000 21 7b e4 bc 27 97 50 bd 9f 6a b0 bd 6e 12 b8 bc
       -0.027890744 -0.0509254 -0.08614086 -0.022469725
000010 07 17 cc 3b b6 d3 7a bd 5b e4 d6 3c ba 44 ad bc
       0.006228331 -0.06123706 0.026231935 -0.021150935
000020 9a a1 c6 3d e5 4f c3 bd bf 03 1a bd e8 cc 18 bd
       0.09698792 -0.09536723 -0.03760123 -0.03730479
000030 5a b0 33 bd 5e a1 90 3d cc ba f1 bb a5 99 0d 3c
       -0.043869354 0.07062028 -0.0073770043 0.008642589
000040 94 29 c3 3d ae 4f 7d 3d 83 a6 6d 3d c0 bd f6 bc
       0.09529415 0.061843567 0.058020126 -0.030119777
000050 ec 45 5a bd f2 48 08 3d 9a 7c 83 3d c6 7c 8c bd
       -0.05328934 0.03327269 0.0642025 -0.06859736
000060 8a 95 38 3d 07 77 e3 3a 46 3e 32 3d 96 fb ab 3d
       0.045064487 0.0017354198 0.04351642 0.083975956
000070 b1 25 b7 3d 76 51 8d 39 32 3e c6 3d 90 df 26 3d
       0.08942736 0.0002695431 0.096798316 0.04074055
000080 14 04 e7 3d d2 13 0d bd 75 8f aa 3c 4c d2 42 3d
       0.11280075 -0.03444273 0.020820359 0.047563836
000090 02 79 94 3b d5 01 93 3d 75 e4 81 bd 9b d2 db bd
       0.004531027 0.07178084 -0.06342403 -0.10733529
0000a0 a0 7e bb 3c 65 91 c1 bd 8e 45 1f bd cc f8 10 3d
       0.022887528 -0.0945156 -0.038884692 0.03539352
0000b0 ea 8c f7 bc f5 cc 3f bd 97 a4 24 bd 4f 31 92 3d
       -0.03021856 -0.04682632 -0.040196028 0.07138311
0000c0 ef cf b8 bd 78 63 16 bd 77 95 89 bd 53 ff ca bc
       -0.09024035 -0.036715955 -0.06717961 -0.024779951
0000d0 05 a2 8a bd 78 cb 8c bd 22 1b b9 3c 68 32 fe 3c
       -0.06769184 -0.06874746 0.022595946 0.031029895
0000e0 5f bf 5a 3d 4f ce e9 3d 7b 07 c4 bd 84 85 91 3d
       0.053405162 0.11416303 -0.09571739 0.07105544
0000f0 c8 51 26 bd 6a bb cc 3d 1a 48 5c bd 11 00 cc bc
       -0.040605336 0.09996684 -0.0537797 -0.024902375
000100 1c 88 50 3d 14 a8 67 bd dd 30 a7 bd aa 48 6e bd
       0.050911054 -0.056556776 -0.08163617 -0.058174767
000110 37 e0 02 bd 70 d9 c5 3d cb 8b 34 bb 34 d9 3d bc
       -0.03195211 0.096606135 -0.0027549143 -0.01158743
000120 be 08 a1 3d de ed a3 bd 2a 25 39 3d 2b 4f 9a bd
       0.078629956 -0.08004354 0.045201458 -0.07534631
000130 42 93 ab 3d e8 ee c5 ba 1d 13 60 3d b4 6d a1 3d
       0.083776966 -0.0015101107 0.054705728 0.07882252
000140 1c f1 38 3d de 2e 1b bd 25 27 a5 3d 73 d7 ba bd
       0.045151815 -0.037886493 0.08064107 -0.09123125
000150 ea b5 72 3c a1 fa 22 3d ce d1 8f 3d 34 f5 03 3d
       0.0148138795 0.0397898 0.07022439 0.032216266
000160 f9 4e 84 3d 32 05 a7 bd ce 37 58 bc 63 61 8c bd
       0.06460375 -0.08155288 -0.013196899 -0.068545125
000170 ea 4c a1 bd 3d fe 80 bd 54 44 aa 3d f2 ee d9 3c
       -0.07875998 -0.06298492 0.08313814 0.026603196
000180 87 1d 01 bd 89 41 a6 bd 10 1a 18 3c 83 fe a9 3b
       -0.0315223 -0.081179686 0.0092835575 0.005187811
000190 e5 36 06 3d 63 3a c0 bd 41 48 27 3d 8b 21 8f 3d
       0.032767195 -0.093861364 0.04084039 0.0698882
0001a0 02 c3 62 3d 7a f6 19 3d 99 21 99 3d b1 fb e6 3b
       0.055361755 0.037588574 0.07477111 0.007049047
0001b0 4f 44 ce bc 99 ab 5a 3d fa c3 ff 3c 7b 49 91 bb
       -0.025179056 0.053386305 0.031221379 -0.0044338084
0001c0 6d ff 1d bd be 48 c8 3c 9f ce 95 bd ce 99 78 bd
       -0.03857367 0.024448749 -0.073148005 -0.060693555
0001d0 ff 7a cc bc d4 18 7f bc 83 a7 89 bd c4 84 65 3d
       -0.024960993 -0.015569884 -0.067214034 0.05603482
0001e0 26 8d bb bd ba 67 2a 3d 7c 28 8d bd 07 e8 40 bc
       -0.09157781 0.041602828 -0.068924874 -0.01177407
0001f0 a2 a7 54 3d 1a 58 40 bd a5 9b 73 bc c3 ed 34 bd
       0.05191768 -0.04695902 -0.0148686515 -0.04417206

layers.output.weight f4 [2, 128]
000000 4c 37 6c 3e b2 7d 0c bd ca b9 bf 3e 16 df 8a 3e
       0.23067969 -0.03429956 0.37446433 0.27123326
000010 25 17 c1 3e 4a 74 32 3e 43 f4 f5 bc 7d 89 05 3e
       0.3771297 0.17427173 -0.0300237 0.13040729
000020 6e 43 fa 3c 4f e1 b1 3c e1 c2 94 bd b0 a4 96 bd
       0.030549731 0.02171388 -0.07263733 -0.073556304
000030 e4 83 65 3b 06 3f df bd a9 75 8e bc 22 bc c9 bd
       0.003502124 -0.10900693 -0.01739009 -0.098503366
000040 cd 70 c1 3d 9f f5 5a bd 14 43 8b bc d1 c7 0d 3e
       0.09445343 -0.0534569 -0.016999759 0.13845755
000050 23 61 df 3c ca 4d 84 3e da 9f f0 bd 5d 65 a1 bb
       0.027267998 0.25840598 -0.11749239 -0.0049254135
000060 6a d4 20 3e 1b 15 1d 3e 8d ab 1d be 74 c5 f3 bd
       0.1570603 0.15340082 -0.15397473 -0.119028956
000070 a5 6c 9a bd 2d 02 12 3d 44 43 ac 3d b6 b3 0d 3e
       -0.075402535 0.035646606 0.084112674 0.13838086
000080 92 a5 0b 3e 36 86 64 be 1c 5c 94 bd 1c fb 8c 3d
       0.13637379 -0.22316822 -0.07244131 0.06883833
000090 c7 78 3f 3e 27 99 cd 3d 88 08 1b 3e 13 1c 17 3e
       0.18698417 0.10038977 0.15139973 0.14756803
0000a0 10 77 93 3e 81 59 9f 3d 8d f4 65 bd 84 28 c8 3d
       0.28801775 0.077807434 -0.056141425 0.09773353
0000b0 a7 f6 09 bd a4 69 72 ba ed 4c 33 be a8 95 af be
       -0.03368249 -0.0009247309 -0.17509814 -0.34293866
0000c0 ff c7 ec bd 9e 72 a9 3e cf 26 f2 bd 88 00 b5 3d
       -0.11561584 0.33095258 -0.118238084 0.08837992
0000d0 bf f3 b4 be ad dc 43 3e be 8d 45 3e 2c 18 7a bd
       -0.35342214 0.1912715 0.19292352 -0.06105821
0000e0 d4 c0 9f bd ae 5f 22 3d d2 67 87 3d ba 43 90 3d
       -0.07800451 0.03964203 0.06611599 0.07044168
0000f0 e0 93 de 3d cd 42 3c bd 51 61 b6 bd 2a 75 9b 3d
       0.10868049 -0.045962144 -0.089052804 0.07590707
000100 fb 32 1f be c3 37 60 3e 39 aa 41 3d b5 57 81 3e
       -0.15546791 0.21896271 0.047281478 0.25262228
000110 90 9f 79 3e 48 c2 82 3d 2a bd 09 3e 2e 58 09 be
       0.24377275 0.063847125 0.13451067 -0.13412544
000120 66 7e de 3d 00 f4 0f bd 74 bf 47 3e 4c 48 21 be
       0.10863952 -0.035144806 0.19506627 -0.15750235
000130 6d 0a cc bd 3e a0 f3 bd ae 52 ac bd 3f 38 0e 3e
       -0.09962926 -0.11895798 -0.084142074 0.13888644
000140 20 6c 90 be 22 b4 b4 3d e2 5d 0f be ec d7 83 bc
       -0.28207493 0.0882342 -0.14000657 -0.01609417
000150 c7 a9 ca bd d2 32 cf bc 57 b9 49 3d 1b e7 22 3e
       -0.09895664 -0.025292788 0.04924902 0.15908472
000160 56 02 91 be 93 6b fc bd 44 38 f1 bd 39 de df 3d
       -0.28322095 -0.12325206 -0.1177831 0.109310575
000170 93 4b 77 3e 78 a5 d8 3d 38 da b5 bd 09 12 93 3d
       0.24149923 0.10578436 -0.088795125 0.07181174
000180 dd 3d 37 bd 2c bc 29 3e 75 c3 8c bd 55 8d 83 3d
       -0.04473673 0.16575688 -0.06873218 0.06423441
000190 5a 7e 4f 3e c9 82 b2 bd 90 9d e0 3d 53 00 de 3c
       0.20263043 -0.087163515 0.10967553 0.027099764
0001a0 9b 18 97 3d e3 73 a5 bc 87 8b 02 be 6e 47 af be
       0.0737774 -0.02019686 -0.12748538 -0.34234184
0001b0 a6 3d 25 be 03 39 3c 3c 11 36 88 bd 8a 6b 9a 3d
       -0.16136798 0.011488202 -0.06650937 0.07540043
0001c0 d1 80 2c 3e 4d 3e 83 3d b6 fa 8e 3d 94 15 e0 bc
       0.16846015 0.06408367 0.06981413 -0.02735404
0001d0 93 0b 18 be cf 36 d3 3d a5 94 16 3e 4d f8 f3 3d
       -0.14848165 0.10313188 0.14705141 0.11912594
0001e0 82 39 d6 3d 40 29 d3 3d 63 00 95 be 41 ac 8d 3c
       0.104601875 0.10310602 -0.29101858 0.017294051
0001f0 4e 10 0f be 64 fe f8 bd 9b b1 8f ba 99 7f 10 be
       -0.13971063 -0.12157896 -0.0010962965 -0.14111175
000200 2b 61 3b be a3 e4 95 3e 12 f0 73 be fb 90 87 be
       -0.18298785 0.29275998 -0.23822048 -0.264778
000210 d3 2d be be 54 1a cd 3c be d1 67 3e 3a 69 85 be
       -0.37144336 0.025036968 0.22638604 -0.26056844
000220 a6 9d 56 3e f1 7b 15 be e9 d7 f5 3c aa 16 6a be
       0.20958576 -0.14598061 0.03001018 -0.22860208
000230 2f 22 bc 3e 48 d5 10 be 94 b4 8c be 4f b4 0a be
       0.3674483 -0.1414386 -0.2748152 -0.13545345
000240 ab ba 49 3e 1c 50 7e 3e 68 3d 18 be 4b 27 df 3c
       0.19700114 0.24835247 -0.14867175 0.027240416
000250 c5 b9 85 be b8 c5 98 be 9f d7 03 3e e1 19 1d 3e
       -0.26118293 -0.29838347 0.12875222 0.15341903
000260 8c 61 1c 3e ce 76 fa 3c 42 3d 14 be ef e8 16 3d
       0.15271586 0.030574229 -0.14476493 0.036843237
000270 c9 71 ba 3e e7 68 5c 3e c1 94 51 3e 14 ae 78 be
       0.36414936 0.21524392 0.20466901 -0.24285156
000280 8c db 91 be 08 00 79 bb b0 45 32 be 7e 3d 84 3e
       -0.28487813 -0.0037994403 -0.17409396 0.25828165
000290 f6 cb 16 3d e6 99 93 be 9c 8d e8 3d da b3 2e be
       0.036815606 -0.28828353 0.11355135 -0.17060795
0002a0 c7 34 70 bd 3c 38 c7 bd 6e 83 4f be 3d 3a a8 3d
       -0.058644082 -0.09727523 -0.2026498 0.08214233
0002b0 49 d6 6e 3e bd c8 a5 be 73 d6 47 bd 84 ae 9e 3d
       0.23323931 -0.32379714 -0.0487885 0.0774813
0002c0 4a f9 52 3d 02 4e 66 be cd 2c f5 bd 5c 64 6b 3e
       0.05150727 -0.22490695 -0.11971436 0.22987503
0002d0 5c 7f 37 3d e3 4d 5c be c2 e7 f4 bd 76 85 36 3e
       0.044799194 -0.21514086 -0.11958267 0.17824349
0002e0 9d ae 66 3d 7e 03 51 3e 53 42 1d be 7f 4c 25 be
       0.056318868 0.20411488 -0.15357332 -0.16142462
0002f0 6e df ae 3d b2 64 07 3d 70 23 3b 3d f7 48 41 3d
       0.085387096 0.033055015 0.045688093 0.047188725
000300 51 7c 9a 3d 03 80 9f be d0 ea 97 3d c5 44 0e be
       0.07543243 -0.31152353 0.07417834 -0.13893421
000310 03 d5 8c be c8 11 76 3e 07 a4 cb 3d 5f 3c 1e be
       -0.27506265 0.2403022 0.09943395 -0.15452717
000320 0a 32 4a 3e f3 a4 30 be ab 19 d8 bb 81 c0 da 3d
       0.19745651 -0.17250423 -0.0065948567 0.106812485
000330 7f a2 da 3c ba e3 54 3d ab ef d8 bd ec bc 89 3d
       0.026688812 0.05197499 -0.10592588 0.06725487
000340 84 46 ec 3d 18 e2 db 3d 20 e5 e1 bd 6b e0 ac be
       0.11536887 0.10736483 -0.1103003 -0.33764967
000350 48 0a f4 bd 8d fa bc bd d0 a0 af bd 04 d2 26 3d
       -0.119160235 -0.09227476 -0.085755944 0.04072763
000360 a2 73 8c 3e 55 b4 71 3d 9c 8b f1 bd 97 b4 e0 bd
       0.2743197 0.05900987 -0.117942065 -0.10971945
000370 6a 11 8a be aa 66 35 bd 0a 7b fe bd 5a 4a 3e be
       -0.2696641 -0.04428736 -0.124258116 -0.1858305
000380 8d 3b 55 be 46 2b 15 3e 5e d1 0d 3e a5 14 90 3e
       -0.20823498 0.14567289 0.13849398 0.2814075
000390 1a 5f 6b 3d 1a 58 6d be e4 16 b0 be e6 6d 7a be
       0.057463743 -0.2317814 -0.34392464 -0.24455985
0003a0 49 ca fc 3d 87 ed d8 bd c9 02 7f 3e 14 18 f3 bd
       0.1234327 -0.1059218 0.24903406 -0.11869827
0003b0 f7 c9 10 be 21 6b 90 be 43 ae c6 3e f5 f7 1a be
       -0.14139543 -0.28206733 0.38804826 -0.1513365
0003c0 48 36 e5 b9 2b e0 2e be 73 8d 91 be a4 2c 31 be
       -0.00043718726 -0.17077701 -0.2842823 -0.17302185
0003d0 9d 66 e1 3d 74 b3 4d 3e 80 08 c6 3d 75 d7 b9 3d
       0.110059 0.20087987 0.0966959 0.09074298
0003e0 bf b9 5b be 73 2e 79 bc b7 8b f9 3d 26 9b 55 3e
       -0.21457575 -0.015208828 0.121848516 0.20859966
0003f0 95 f4 57 bd ad ed 98 bc 78 30 f2 bd 64 bb 30 3e
       -0.052723486 -0.01866802 -0.11825651 0.17258984

layers.output.bias f4 [2]
000000 dc 01 de 3d c9 d5 ce bd
       0.108401984 -0.1009937
