results/SMOTE2K/smote999/smote0.15/model.pth (torch, 205093 bytes, 10 tensors)

layers.block_0.layer.0.weight f4 [128, 2]
000000 08 75 0f bf 36 bf de 3e a8 e7 0a bf e8 97 20 bf
       -0.5603795 0.43505257 -0.5425973 -0.6273179
000010 fb 5d 15 bf bb 56 16 bf 55 df 06 bf e3 e7 00 3f
       -0.5834653 -0.5872609 -0.5268453 0.5035383
000020 70 06 55 bf 11 d0 e7 bd 35 fc 23 bf 62 c4 dd 3d
       -0.8321295 -0.113189824 -0.6405671 0.10828473
000030 61 2a 01 3d 57 fd e3 3e 35 de 4b bf de 2e c6 be
       0.031534556 0.4452922 -0.79635936 -0.38707632
000040 ff b9 be bd 4f be 4f bf 35 f0 24 bf d8 e0 ec 3e
       -0.0931282 -0.8114976 -0.64429027 0.46265292
000050 97 08 5f bf 0d e5 8a 3e b9 be 66 be a9 fc 33 bf
       -0.8712248 0.27127877 -0.22533692 -0.70307404
000060 f3 2e 0c bf 3b e3 fe 3e 4f f0 d7 be 57 68 5d 3f
       -0.5475914 0.49782738 -0.42175528 0.86487335
000070 45 91 c9 be f5 0b e8 3c 21 b5 38 3d 3c 9a 19 bf
       -0.39368644 0.028326014 0.045094613 -0.6000097
000080 33 d4 cd be 77 a2 fc 3e 08 e8 99 be 13 9c 5a 3f
       -0.40200958 0.493427 -0.30059838 0.853944
000090 3a 5a 87 3e e4 50 2e 3f 0a e4 08 bf 15 08 b1 be
       0.26436025 0.6809218 -0.5347296 -0.3457648
0000a0 de 08 5d bf e1 0d 7c 3d a7 9d 45 bf 75 30 bc be
       -0.86341655 0.061536673 -0.77193683 -0.3675572
0000b0 b3 f4 57 bf 29 80 29 be eb 0a 06 3e c5 53 5f bf
       -0.84357756 -0.16552795 0.13090102 -0.872372
0000c0 e2 e4 f6 3e 72 d3 41 bf 6f cd 48 3f b6 da 2a be
       0.482215 -0.75713265 0.78438467 -0.16684994
0000d0 e0 b9 19 bf 36 ae 47 bf ba 67 78 be 85 dd ac be
       -0.6004925 -0.780002 -0.24258319 -0.33762756
0000e0 6d 11 2c 3f da 74 a6 3e 35 1c 81 3e 69 d1 3c bf
       0.6721409 0.32511026 0.25216833 -0.73757035
0000f0 54 2f e3 3e d3 98 27 bf 2b 1a b2 be 1c cf 56 3f
       0.44372046 -0.65467566 -0.3478559 0.83909774
000100 ea 8f 23 3f 67 07 08 bf 78 be d0 3e 0b 41 8e be
       0.6389147 -0.53136295 0.40770316 -0.27784
000110 a2 f7 88 3e 9f 52 10 bf c1 3e 05 3f 54 ce 83 3e
       0.2675143 -0.5637607 0.5204888 0.25743353
000120 75 a5 4d be a0 fd 1b 3f ce 00 6a 3f c5 f3 00 bd
       -0.20082648 0.60933876 0.9140748 -0.031482477
000130 c1 a6 24 3f ce f5 16 3f d6 76 54 bf 39 82 d2 be
       0.64316946 0.5896882 -0.8299383 -0.41114977
000140 bb 82 51 3f 6a 3a 03 3f c3 f7 11 3f d8 3b 6f be
       0.81840104 0.5126101 0.5701868 -0.23362672
000150 bd 06 c8 be f5 e8 be 3e e4 b8 55 3f 5a 19 06 bf
       -0.3906764 0.37287107 0.83485246 -0.52382433
000160 be 9e ed be a9 17 00 bf 99 4a 24 bf 3f 7c 92 3d
       -0.46410173 -0.500361 -0.64176327 0.07152604
000170 d4 20 ad 3e 78 f3 ca be b6 66 80 bf 85 b7 f2 3d
       0.33814108 -0.39638877 -1.0031345 0.1185141
000180 45 77 a2 3e cf 6f 6d bf 9d c1 17 3f 93 4f f5 be
       0.3173162 -0.9274873 0.59279805 -0.47912273
000190 36 f0 cb be c0 6f dc 3e f6 3a c9 3e 4a 0c 37 bf
       -0.39831704 0.43054008 0.39302796 -0.71503127
0001a0 30 41 48 3e 6e 10 6e bf 42 65 cc be d6 55 ad be
       0.19556117 -0.9299382 -0.39921004 -0.3385455
0001b0 8d 69 9e 3d d0 9d 52 3f 68 42 16 3f db 1a a8 bd
       0.07734976 0.8227205 0.5869508 -0.08208247
0001c0 9d 23 70 3f dd c9 17 be 70 35 b7 be b8 7f 3b bf
       0.9380434 -0.14823098 -0.35782957 -0.7324176
0001d0 b8 4e a8 3e 35 5b 70 be bc f3 10 3e bd f8 71 3d
       0.32872558 -0.23472293 0.14155477 0.059075106
0001e0 5a b2 d0 3e e4 d4 15 3f 02 35 04 bf 6e ab 97 3e
       0.4076107 0.5852797 -0.51643384 0.29622978
0001f0 8a ea ee 3e bd e1 2c bf 95 57 95 be 85 23 22 3f
       0.46663314 -0.6753195 -0.29168382 0.6333545
000200 2f a1 61 3f c2 1f a6 3d 1e cf 01 3f 6d d6 b6 3e
       0.8813657 0.08111526 0.5070666 0.3571047
000210 0a 24 b3 be 19 29 f9 3e 26 02 e6 3e 60 43 0b 3e
       -0.34988433 0.48664168 0.44923514 0.1359992
000220 89 18 00 3f 39 7a 38 bf da eb 4a 3f 45 fd a7 3d
       0.5003744 -0.72061497 0.7926613 0.08202604
000230 d4 72 11 3f 2c be 02 bf 62 71 8f 3e 9c 17 44 3f
       0.5681584 -0.5107143 0.28016192 0.76598525
000240 c2 93 d3 be 64 2e c9 be 88 1f 0c bf e9 4a eb be
       -0.41323668 -0.39293206 -0.5473561 -0.4595559
000250 cd 8a 08 3f 76 0c 2e 3f af ed cf 3b 64 e6 2a be
       0.53336793 0.67987764 0.0063454728 -0.1668945
000260 0d 1d 72 3f fe 41 17 bf 2e aa 3b bf 04 c8 27 bf
       0.9457558 -0.5908507 -0.7330655 -0.65539575
000270 ac 5b 23 3f 94 53 f2 3e f9 50 3f bf ea b5 18 3f
       0.63811755 0.4732939 -0.7473293 0.5965258
000280 5e a3 b6 be 4b a6 c6 3e f3 19 60 3f 60 51 8a 3e
       -0.35671514 0.38798746 0.87539595 0.2701521
000290 46 f5 2b bf 3b 78 9e bc 1d 4f 94 be 4b 01 26 3f
       -0.6717113 -0.01934444 -0.2896661 0.6484572
0002a0 84 d9 01 bf cd bf 19 3e 6c 15 1b 3f a6 0e 2b 3f
       -0.5072253 0.15014572 0.6057956 0.66819227
0002b0 66 97 3e bf 78 5c 27 3d f8 80 62 3f b2 64 09 bf
       -0.74449766 0.04085967 0.8847804 -0.53669274
0002c0 24 8c 16 bf 10 f1 06 3e 6f b4 d6 be 1b 5e a4 3e
       -0.5880759 0.13177896 -0.41934535 0.32103047
0002d0 67 9e 34 3e c9 f6 d8 bd ec ba 28 bf 8e 2b d2 3e
       0.1763855 -0.105939455 -0.6591022 0.41048855
0002e0 cb 18 14 bf 2a 6f ce 3e 8a 70 c7 3e 2a f0 52 3f
       -0.5785033 0.40319186 0.38953048 0.8239771
0002f0 5b bb 4b bf f3 70 1f bf 69 e2 85 be f8 78 c4 3e
       -0.79582757 -0.6228172 -0.261493 0.38373542
000300 a6 7a 2a bf 41 e0 0a 3f d3 b8 20 3f 87 85 47 3e
       -0.66593397 0.54248434 0.6278202 0.1948453
000310 3b 6d ea be bd 21 32 3f b3 6a 31 3f 6e 61 be be
       -0.4578646 0.6958273 0.69303435 -0.37183708
000320 a6 fa 28 3f 13 86 04 3d f5 65 16 3f dd 39 19 bf
       0.6600746 0.032354426 0.58749324 -0.5985392
000330 d6 5a 3f 3f c3 27 28 be ea a5 c2 be 80 21 37 bf
       0.7474798 -0.16421418 -0.38017207 -0.7153549
000340 ac 89 57 be e5 d6 c0 3e 1c a7 0c bf a9 a7 fb be
       -0.21048611 0.37663952 -0.5494249 -0.49151352
000350 0f 85 6f 3f d9 73 d5 bd 2d 09 5f 3e af 8a 2d 3f
       0.93562406 -0.10422487 0.21780844 0.6778974
000360 4f cd 4b 3f 18 2f 8a be 3b ea 5a 3f 46 12 13 bf
       0.7961015 -0.26989055 0.8551366 -0.5744976
000370 d5 e3 54 bf 8b 44 8a be ca c8 1a 3f 10 e7 79 3e
       -0.83160144 -0.2700542 0.6046263 0.2440455
000380 b6 c8 17 be 69 e8 54 bf 2a 13 e2 be 16 ae 23 bf
       -0.14822659 -0.8316713 -0.44155246 -0.6393751
000390 89 72 93 be d4 b0 23 bf 72 83 9d be 7e 20 10 3f
       -0.2879832 -0.63941693 -0.30764347 0.5629958
0003a0 24 ee 12 bf 61 a7 bd be 9f 90 73 3f 13 13 ba 3e
       -0.57394624 -0.37041762 0.9514255 0.36342677
0003b0 29 b9 0a bf 12 d6 be be 9d 22 7c bf f2 44 43 be
       -0.5418878 -0.37272698 -0.98490316 -0.1906927
0003c0 c5 fb 17 bf 9b b3 54 3c 26 f1 95 be 69 36 b3 3e
       -0.59368545 0.012982274 -0.29285544 0.3500245
0003d0 3e fe 46 bf a6 b6 03 be 2f 96 15 3e 91 3c c1 bd
       -0.7773169 -0.12862644 0.14608072 -0.0943538
0003e0 b5 5c e4 be 96 f0 31 3f 83 00 79 bf e8 56 91 3e
       -0.4460198 0.6950773 -0.97266406 0.28386617
0003f0 5d 06 bc be 91 3d c5 3e fa 19 52 3d 73 11 4d bf
       -0.36723605 0.38523534 0.051294304 -0.8010475

layers.block_0.layer.0.bias f4 [128]
000000 2d af 68 be 9e 0e 8f 3e 6d 29 e4 3e fa b9 01 bf
       -0.22723074 0.2794084 0.44562855 -0.506744
000010 32 76 14 be 56 3f 29 bf 15 fa fb be 92 c3 01 3f
       -0.14498213 -0.6611227 -0.49214235 0.5068904
000020 31 49 ac bd 00 f2 07 bf e6 84 6e be 15 5b b2 3e
       -0.08412398 -0.5310364 -0.23292884 0.34835115
000030 84 bb 00 3f a4 54 1d 3f 8b 49 14 bf 7e c7 22 3f
       0.50286126 0.61457276 -0.5792472 0.6358565
000040 db a8 33 bf 50 a0 0a 3f 47 76 3c bd 37 93 9b be
       -0.7017953 0.5415087 -0.046011236 -0.30385754
000050 1c 46 ab be 9f f5 ac 3e af a6 b3 3e a6 13 77 bd
       -0.33451927 0.33781144 0.35088107 -0.060321473
000060 cd 77 0d 3e 48 af 88 3e 5a 72 17 3f 05 9a bb bd
       0.13815232 0.2669623 0.5915886 -0.09160236
000070 f4 2a c8 bd 5c 77 b5 bd 6d 66 3c 3f ce 62 8c bc
       -0.09773818 -0.088606566 0.7359379 -0.017136957
000080 2f 9c 32 3f 7b bc 97 3e 2e 93 82 3e 46 4e f7 3e
       0.6976957 0.29635987 0.25502914 0.48301905
000090 2b 99 6f 3e 57 2f 04 3f 24 53 00 bf 06 e0 b9 3e
       0.23398273 0.51634735 -0.5012686 0.3630373
0000a0 06 26 6a be 19 12 fd 3e b4 43 19 3f ac 2c a1 3e
       -0.22866067 0.4942787 0.5986893 0.31479394
0000b0 1f e1 b2 3e 8d 7a a3 3e e0 8c d8 3d 9f 7a b3 bc
       0.3493738 0.31929436 0.10573745 -0.021909056
0000c0 67 a2 97 be 47 fe 12 3f 8a 79 99 3e c6 31 97 bd
       -0.2961609 0.57419246 0.2997554 -0.073825404
0000d0 5a 17 19 bf 71 96 9d 3e 33 c8 f2 3d b8 7d 20 bf
       -0.59801257 0.3077884 0.11854591 -0.6269183
0000e0 3e c4 73 3e 32 04 52 3e d7 83 bd 3e 8e 17 bd 3e
       0.23805329 0.20509413 0.37014648 0.36932033
0000f0 31 d4 f3 be 6c 65 c1 be 96 96 66 3e 0f 92 c1 be
       -0.47622827 -0.3777269 0.22518381 -0.37806746
000100 74 b3 0a be 23 b9 b1 be 3b 49 1c bf 46 43 85 bc
       -0.13545018 -0.3471156 -0.6104924 -0.01626743
000110 3d 8f 1e be 10 97 87 3e 2e eb 0d bf 2c 57 1d be
       -0.15484329 0.2648244 -0.5543698 -0.15365285
000120 87 ba 00 3e 72 a6 11 3f c2 c3 78 be 40 6d 30 3f
       0.12571155 0.568946 -0.24293426 0.689167
000130 ba ed 15 3f e8 90 18 3f 39 08 00 bf 7b 0c 0e bf
       0.58565867 0.5959611 -0.50012547 -0.55487794
000140 3d 1f f9 3e 04 86 72 be 1c 93 f1 be 62 e8 31 bf
       0.48656645 -0.23683935 -0.47182548 -0.69495213
000150 89 c3 83 be a8 8b 33 bf 79 72 a2 3b 20 c0 05 3f
       -0.2573512 -0.70134974 0.004957494 0.52246284
000160 5f 98 7d 3d 93 29 5e bd 53 6b 19 bf 68 8e 0a 3f
       0.06191289 -0.054238867 -0.5992939 0.54123545
000170 ee d7 15 3e fa 1f 4c 3e 6a 8d 05 bf 79 e3 81 be
       0.14633152 0.19934073 -0.52168906 -0.2536886
000180 30 e5 6e 3e 4f bb 1c 3f 58 d7 e9 3e 9a 3f 6d 3d
       0.23329616 0.6122331 0.45672107 0.057921983
000190 26 3b f3 bd 8d 8c fb be e8 a2 e7 3e d7 3b 5d bd
       -0.11876516 -0.4913067 0.45241475 -0.054012146
0001a0 1d 76 37 3f fb c0 7c bd c1 84 36 bd c9 ff 20 bf
       0.716646 -0.061707478 -0.044560198 -0.628903
0001b0 31 be 86 3e e5 0b 97 3e 5a 55 7b be 97 62 22 3f
       0.2631698 0.29501262 -0.24544278 0.63431686
0001c0 50 cf aa be 02 77 fb 3e 56 a3 07 3f c8 82 eb 3e
       -0.33361292 0.49114233 0.52983606 0.45998216
0001d0 d5 48 e9 be f4 70 9e be 6a a3 0f 3f 10 b9 c1 3d
       -0.4556338 -0.3094555 0.56108725 0.09459126
0001e0 b6 27 2d 3f 0c 8f 33 3f 71 3c a9 3e ed d5 26 bf
       0.6763872 0.7014015 0.33053926 -0.65170175
0001f0 ca 7e ab be 82 03 5e be 50 68 e4 be 85 75 9c be
       -0.3349517 -0.21681026 -0.44610834 -0.3055841

layers.block_1.layer.0.weight f4 [128, 128]
000000 71 49 d7 3c 6a 06 c8 39 29 6e b7 3d 9c df a6 3d
       0.026280137 0.00038151752 0.08956558 0.08148119
000010 b8 49 07 3e 44 cb 5e 3d 0d c2 99 bd 0e 41 e2 3d
       0.13211715 0.054393068 -0.075077154 0.110475644
000020 31 b6 da 3d 0c 01 79 3d 4e 37 ec bb cc a3 c3 3d
       0.106792815 0.060792014 -0.0072087413 0.09552726
000030 56 c9 d2 3d 47 e7 51 bc c6 02 76 bc 99 7d 86 bd
       0.10292308 -0.0128114885 -0.01501531 -0.065669246
000040 b9 3f 53 bd 77 5e 34 3d f4 fb ad bd 8b 7c f1 bb
       -0.051574443 0.0440354 -0.08495322 -0.007369583
000050 e1 be e3 3c 58 06 d2 3d 24 96 25 3d 7f 0f d9 bc
       0.02780098 0.10255116 0.04042639 -0.026496647
000060 d0 2e 6d 3d 64 29 f8 bd 47 b0 b1 bb 99 8a f0 bc
       0.057905972 -0.1211727 -0.005422625 -0.029362964
000070 48 20 17 be a6 0c 02 3d 20 5d de bd 5e bb 57 3d
       -0.14758408 0.031750344 -0.10857606 0.05266892
000080 b9 ba ca bd 73 07 82 bd b3 d4 01 bd 26 ce f3 bd
       -0.09898896 -0.06349077 -0.031696986 -0.11904554
000090 2c 68 76 3d 17 2e 5a bd f1 b0 a2 bd f9 43 7b 3c
       0.06015794 -0.05326661 -0.07943905 0.01533603
0000a0 bf 7d 32 bc d8 95 79 bd 58 bf 84 3d 20 e4 04 be
       -0.010894238 -0.060933918 0.064818084 -0.12977648
0000b0 41 96 3d 3d 90 c5 ec 3d 0d 59 e0 bd 79 8a f8 3d
       0.04628587 0.115611196 -0.10954485 0.121357866
0000c0 bf f7 81 bc 55 57 43 3b f8 b9 88 3d 63 19 c5 bd
       -0.015865205 0.0029806693 0.06676096 -0.09623983
0000d0 68 a1 42 bd b9 3d 0a 3e 53 4a fa bd ec f3 99 bd
       -0.04751721 0.13500108 -0.122212075 -0.075172275
0000e0 93 6b 87 bd 1d 67 ea 3d 2a b7 ad 3c 55 59 30 3d
       -0.06612315 0.114454485 0.021205503 0.043053944
0000f0 40 48 c1 bd 49 67 b5 3d a5 6d 54 bd 40 ab 5a bd
       -0.09437609 0.08857591 -0.051862378 -0.053385973
000100 8b b2 c1 bc 83 17 2e bc e0 eb 7b 3d c6 0a 56 bd
       -0.023644706 -0.010625723 0.061504245 -0.052256368
000110 81 a9 cb bd 33 a5 f9 bc 07 4b c1 bd cc ed 0b 3a
       -0.0994444 -0.030474281 -0.094381385 0.00053378637
000120 bb 46 2c 3e 73 45 c0 3d 98 68 ac bd 08 31 62 3c
       0.16823857 0.093882464 -0.08418387 0.013805635
000130 99 4e 9d bd 3f 94 64 3c 8b a0 c8 bd c6 69 be bc
       -0.07681007 0.01395136 -0.09796246 -0.023243796
000140 f3 b1 00 bd 28 1b 02 bc 4d d5 82 3d ef fc 10 3c
       -0.031419706 -0.007941045 0.0638834 0.008849367
000150 40 22 00 3e d2 52 e3 bd ac 1b e4 3d 22 83 8c bb
       0.12513065 -0.11099781 0.111380905 -0.004288093
000160 5c f3 a6 3c 2f 1d fd 3d 5b 2b 88 bd 86 93 e7 3d
       0.020379715 0.12359082 -0.066488944 0.11307435
000170 72 35 0e 3e 6c bd b7 3c 8a 91 e9 3d ca 54 02 3d
       0.13887575 0.02242919 0.114047125 0.031819142
000180 5c 18 e2 3d a6 f7 60 bd fa a6 5e 3d c9 c3 93 bd
       0.110398024 -0.054923676 0.05435846 -0.072150774
000190 ee bd 3f bc f0 0f 9b 3c 86 e5 a2 bd be 27 ba 3d
       -0.011702998 0.018928498 -0.07953934 0.090896115
0001a0 ee 24 81 3d 5e 3b 93 3d e4 f1 2c be e5 44 be 3c
       0.06305872 0.07189058 -0.16889149 0.02322621
0001b0 4a db e7 ba ae 56 f1 bd 46 4a cc 3d 87 b9 98 bd
       -0.0017689255 -0.11784111 0.09975104 -0.074572615
0001c0 b4 e7 08 bd 53 ad 12 bc 31 65 ae 3d f1 d0 8c 3d
       -0.033424094 -0.0089524565 0.085153945 0.0687579
0001d0 7c a4 10 bc 01 cf 18 be b3 7b 74 bc 29 8a 88 3d
       -0.008828279 -0.14922716 -0.01492207 0.06666977
0001e0 1f d7 d4 3d ed f9 21 bd ce 7c d5 3b 41 82 82 bd
       0.103925936 -0.03954499 0.006515122 -0.063725
0001f0 df 41 39 bc 6f b4 d1 3d de ce 4e 3c b0 d0 99 3c
       -0.011307209 0.10239493 0.012622563 0.018776268
000200 3d 5c de bd f0 c9 23 3d 5b 8f e0 bc e4 c8 56 bd
       -0.10857437 0.039987504 -0.027412107 -0.052437678
000210 a2 08 8a bd 8e 99 4c bc b8 20 f3 bd ba 3b b8 3c
       -0.06739928 -0.012487782 -0.11871475 0.022489417
000220 fe 4a 0f bd 2c dd 06 be 3c b8 f3 bd 0d 2d 57 3d
       -0.034983627 -0.13170308 -0.11900374 0.0525332
000230 8e 01 fe 3b f7 40 27 3c 0c 64 14 3d f6 4e f6 3d
       0.00775165 0.01020836 0.036228225 0.12026779
000240 89 30 ee bd df 8f d4 3d 53 d3 03 3c 68 01 93 bd
       -0.11630351 0.10379004 0.008045989 -0.071780026
000250 8c cb 86 bd 8e 4d a5 3a a2 05 41 3d 7a e8 8f bd
       -0.06581792 0.0012611614 0.047124512 -0.07026763
000260 5f 8c 76 3c 05 01 08 b9 9c db d6 bc 88 13 76 3d
       0.0150481155 -0.0001297035 -0.026227765 0.06007722
000270 ee 15 c6 bc 4b 8f cd 3c be 33 f9 3d de 7d d0 3c
       -0.024180379 0.025092741 0.12168072 0.025450643
000280 53 b6 92 bc 3a ca 1e 3a bf c3 fb 3d 36 e9 cb 3d
       -0.017909205 0.0006057356 0.12293195 0.09956591
000290 21 bf 48 bd 70 56 cb 3b 0f 05 9e 3a 80 56 54 bd
       -0.0490104 0.0062053725 0.0012055951 -0.051840305
0002a0 6c da c4 bb 67 8a ac bc ae ac 4a 3d cd c9 1d 3e
       -0.006007483 -0.02106209 0.049481086 0.15409012
0002b0 e7 e4 a5 3d 88 ff 82 3c d4 ff 83 3d ff e1 31 be
       0.081003 0.015990987 0.0644528 -0.17371367
0002c0 d8 77 3a 3d 2f 65 01 3e 3e 19 5f 3d b0 d7 cd 3d
       0.04552445 0.12636255 0.054467432 0.10050905
0002d0 ed 59 a6 bd 8b fb a0 bc 25 2d f2 3b 93 8a 02 3d
       -0.08122621 -0.019651195 0.0073906356 0.031870436
0002e0 00 a3 0d 3e 1f 28 bd 3c ec 31 ed 3d ff 76 e3 bc
       0.13831711 0.02309042 0.115817875 -0.027766703
0002f0 dc 4c e9 bd f6 a6 be bd fd 97 b9 3d 95 ba 0a bd
       -0.11391613 -0.09309189 0.090621926 -0.033869345
000300 70 65 27 3d da 8b cd bd bd 1f 27 bd 0c 22 aa 3c
       0.040868223 -0.1003644 -0.040801752 0.020768188
000310 15 13 3f bc e3 d4 b4 3d 67 23 95 bd 09 ea bd bd
       -0.011662264 0.088296674 -0.07282143 -0.09273154
000320 0d fb 71 bd bf 77 17 3d a3 58 87 bd 03 63 26 bd
       -0.05907731 0.036979433 -0.06608703 -0.04062177
000330 93 bf 1f 3e 72 26 b6 3b 5f d3 d5 bd af 7c 7d 3c
       0.15600424 0.0055587823 -0.104407065 0.015471621
000340 76 cf 7e 3d bd d9 85 bd 0b 3e 3d bb 16 70 df bd
       0.06220957 -0.06535671 -0.0028876092 -0.109100506
000350 4a c8 af bd 79 a3 c9 bd 67 9e 08 be 73 81 1c 3e
       -0.08583124 -0.09845633 -0.13341676 0.15283756
000360 01 59 0d bd 6f ad 1b be 0b d1 71 3d a3 6d 8c bd
       -0.03450871 -0.15202878 0.05903725 -0.06856849
000370 a7 6d dd 3c 3c ff d7 bc f5 07 da 3b c1 16 81 bd
       0.027029825 -0.026366822 0.0066537806 -0.06303168
000380 7b 74 6d 3d f4 fc d3 3c 82 4e 41 bc 4a 0f 1e 3e
       0.057972413 0.025877453 -0.011798503 0.1543552
000390 b1 0c f0 3d e2 a8 25 bc e1 b8 a2 3d 5c 91 1c 3c
       0.11721171 -0.010111066 0.07945419 0.009556141
0003a0 77 68 76 3d d8 d3 78 bd 47 85 e1 3d 7c 6b ec bd
       0.06015822 -0.060748905 0.11011749 -0.115439385
0003b0 18 e6 0c 3e da 8b a1 3d 1b 13 34 3d 47 db f7 3c
       0.13759649 0.07888003 0.043963533 0.030255927
0003c0 59 13 e2 bc 58 ed 78 3c f1 e1 5d 3d ab f2 80 3c
       -0.027597116 0.015193306 0.054170553 0.015740713
0003d0 a6 6e 08 3d c4 53 ae ba 45 ad ca 3d 29 3c 35 bd
       0.033308648 -0.0013300111 0.0989633 -0.044246826
0003e0 f1 bb 46 3d c5 a6 ba bb ff 4d 83 bd 6e 12 8e bd
       0.04851908 -0.00569615 -0.06411361 -0.06937109
0003f0 f4 e2 52 bd cc d4 22 be b0 1d 1d 3d 75 91 2b bd
       -0.05148597 -0.15901488 0.03835839 -0.041886766

layers.block_1.layer.0.bias f4 [128]
000000 0f ed 24 bd a1 03 8b bc 2f 32 6a 3d 9f 2a 56 bd
       -0.04026514 -0.016969504 0.057176765 -0.05228674
000010 64 d8 0c 3d 0b 9a 81 bd 48 3a 12 bd c0 e3 b6 3d
       0.034386054 -0.063282095 -0.035700113 0.089301586
000020 06 fc db 3d f6 a7 f9 b9 d5 e9 6d 3d 11 b3 4c bd
       0.10741429 -0.00047618122 0.058084328 -0.04997546
000030 5f e9 a0 bd 61 5a 89 3d c3 9a d8 bd 93 72 b0 3b
       -0.07857012 0.067066915 -0.105763935 0.005384752
000040 5c 20 9d 3d 85 7a 8f 3c 3f 05 05 3d 97 d4 63 3d
       0.07672188 0.017514477 0.032475706 0.055622663
000050 d8 06 e2 3d fb bb 3b bc 1d 08 1b bd db d1 9a 3d
       0.110364616 -0.011458392 -0.037849534 0.07559558
000060 f9 39 a3 bd 98 2d c3 bc b1 fd 2d 3d 8a 31 4b bd
       -0.07970042 -0.023825452 0.042478267 -0.04960779
000070 8e 79 ac bc 00 8f b3 bd 78 32 82 3d 6e b9 6f bd
       -0.021054056 -0.087675095 0.063572824 -0.05852645
000080 de 0f 23 bd aa 19 2f 3a c8 e0 94 bd 6a 99 a1 3d
       -0.039810054 0.00066795445 -0.07269436 0.078905895
000090 6b 6e 83 bd 45 75 0f bd df fc c0 bd 64 2f 9a bd
       -0.06417545 -0.035023946 -0.09423231 -0.0752857
0000a0 e1 ce 87 bd 91 54 06 bd ee 8e 6a 3d 4f 5f aa 3c
       -0.06631256 -0.032795493 0.057265215 0.0207974
0000b0 c6 f8 1c be 54 d4 29 3d 4e e2 86 3c 39 6b 2e bd
       -0.15329275 0.041462258 0.016465332 -0.042582724
0000c0 15 88 55 3d dc d2 a1 3d bf c9 a4 3d 00 2b 6d 3a
       0.05213173 0.07901546 0.080462925 0.000904724
0000d0 8a 96 26 bd 2b c9 39 3d 19 3a 78 3d 58 8f 33 bd
       -0.04067091 0.045357864 0.06060228 -0.043837875
0000e0 ba de 4a 3d d7 e5 b6 bc 2e 5e 74 bd 46 b6 9e 3d
       0.049528815 -0.022326393 -0.05966013 0.0774961
0000f0 66 1b 10 3d d3 74 40 bd c8 7d 7e 3c f7 15 10 bc
       0.03518238 -0.046986412 0.015532918 -0.008794299
000100 6f a3 e4 bc ee e5 bc 3d fe 57 a9 3c a0 fa 96 ba
       -0.027909962 0.09223543 0.02067184 -0.0011518784
000110 85 6a a9 bd 18 d3 c4 3c 29 c1 29 bd e6 ff aa bc
       -0.0827227 0.024026439 -0.041443978 -0.020873975
000120 3a d2 a9 3a 40 6b c2 bc 68 40 7a 3d b2 16 d4 bc
       0.0012956329 -0.023732781 0.06109658 -0.025889728
000130 1f 0c 60 3d a0 7e 26 3d 0b e7 9e bd 78 e2 af 3d
       0.05469906 0.040648103 -0.07758912 0.08588117
000140 e3 bf 03 3c ae 07 b6 bd b5 0e 32 bd f9 9f 26 bd
       0.008041355 -0.088881835 -0.043471057 -0.040679906
000150 7c 23 4c bd 6e 9e 25 bd e8 97 27 bd 97 53 71 bd
       -0.049838528 -0.040434293 -0.040916353 -0.058917608
000160 ea d3 29 bd 87 90 d9 bd b8 90 14 bb 4c d1 77 bd
       -0.041461863 -0.106232695 -0.0022669267 -0.060502335
000170 da 79 87 bd ff 1e 7b 3c cb e7 2a bd 3f c5 27 bd
       -0.06615038 0.015327214 -0.04172496 -0.040959593
000180 34 d5 1e 3c 5c 1e 30 bb 91 1c 84 bd 79 d6 ba 3d
       0.009694386 -0.0026873564 -0.06450761 0.09122939
000190 c8 05 28 3d 30 ee 77 3d 5b 7e 94 bc 1e 4f a1 bc
       0.04102114 0.060529888 -0.018126657 -0.019691046
0001a0 7d 44 37 bd e2 fb f0 3d d0 67 93 bd 1f e3 67 bd
       -0.04474305 0.11766793 -0.07197535 -0.056613084
0001b0 7a f7 89 bb 80 5c 1c bd 2c 3e ac bb 83 0b 91 bd
       -0.0042104097 -0.038174152 -0.005256435 -0.07082274
0001c0 47 4f b0 3c 56 68 10 3d 2f e0 98 bd 30 ab bc bc
       0.021522177 0.035255753 -0.074646346 -0.023030847
0001d0 90 f0 7a 3d c0 58 cd bc 72 7e 16 3d 08 00 44 3d
       0.061264575 -0.025066733 0.03674168 0.047851592
0001e0 bd 9b 92 3d a3 9f e1 3c 6c cf f3 ba a6 8f df bd
       0.07158611 0.027541941 -0.0018601245 -0.10916071
0001f0 9f fc 1d bd b6 13 84 3d 23 b7 40 3d c2 82 cb 3c
       -0.038570996 0.06449072 0.047049653 0.024842624

layers.block_2.layer.0.weight f4 [128, 128]
000000 8b 17 00 3d 05 80 1b 3d 8c b2 c2 bd 0e 02 46 bc
       0.031272452 0.037963886 -0.09506711 -0.012085451
000010 44 1f 93 3d 55 69 9c 3d 4b dc 9b 3d ce 54 1b 3e
       0.07183698 0.07637278 0.07610377 0.15169069
000020 dd 9f 7c 3d 3f 22 0d bc 35 1d 85 3d 8f 02 7e bc
       0.061675895 -0.008614122 0.064997114 -0.01550354
000030 39 4c 34 3d ac 90 d2 3d de 1d f5 3c 2d 3f f4 bd
       0.044018004 0.102815 0.029921468 -0.11926112
000040 ad 79 22 3c 18 69 37 3c d8 00 51 bc 0a 73 a8 3d
       0.009916705 0.01119449 -0.012756549 0.08225067
000050 17 37 51 3c 5c 7e ab bd de 4c f5 bd 68 8c c6 3c
       0.012769482 -0.083737105 -0.11977552 0.024236873
000060 91 9a fd 3c a1 5c c8 bd 6d ea 09 be ce 56 00 bd
       0.030957492 -0.097832926 -0.13468333 -0.031332783
000070 59 89 eb bd f5 4a 37 3c d3 04 25 3d d4 ba b4 bc
       -0.11500806 0.011187305 0.040287804 -0.022061743
000080 72 49 84 3d 4a 71 9e bc 23 9b 8a 3d 17 52 64 bd
       0.06459321 -0.01934113 0.06767871 -0.05574235
000090 a3 1a 75 bd a8 32 57 3d 9d f6 39 3d 64 7f 07 3b
       -0.059839856 0.052538544 0.045401204 0.0020675296
0000a0 3f 17 cc 3d 2e d1 ba bc c4 d9 93 bd 4d d7 16 bd
       0.09965371 -0.022804823 -0.0721927 -0.03682642
0000b0 cf e6 13 3e f8 8d a0 39 e7 5d 34 3b 8b ec 62 bd
       0.14443515 0.00030623353 0.002752179 -0.055401366
0000c0 63 d7 10 bc e7 d4 98 bd 39 f8 af bd 89 84 a6 3d
       -0.008840415 -0.07462483 -0.085922666 0.08130748
0000d0 e8 ff 5e bd d0 dc 96 3d 3a e8 d2 bd 1a 3d 4f 3c
       -0.05444327 0.073663354 -0.102982 0.012648845
0000e0 6b 53 7e bc 82 6f 49 3d 87 18 0a 3e e8 08 b2 3d
       -0.015522818 0.049178608 0.13485919 0.08693105
0000f0 85 9e a9 3c 43 0f 55 bd 1b c9 e0 bd 40 48 7a 3d
       0.02070547 -0.052016508 -0.10975858 0.06110406
000100 c9 9e 6c 3d 88 a2 28 3d 11 89 89 3d ce 79 cf bd
       0.057768617 0.041170627 0.067155965 -0.10130654
000110 11 5f a1 bd 93 40 2c be f9 5a 16 3d c9 ac 30 bd
       -0.078794606 -0.16821508 0.036707852 -0.04313353
000120 0e 9e a2 bd fa 76 01 3d 97 a4 80 3c dc 14 12 bb
       -0.07940303 0.031607606 0.015703483 -0.0022290265
000130 f5 17 1e be 39 b6 23 3d fc 1b 0c 3d 9a 51 aa bd
       -0.15438826 0.039968703 0.034206375 -0.083163455
000140 91 76 7c bd 08 11 91 3d c1 6a 94 bd 1d dd 8b 3d
       -0.06163651 0.070833266 -0.07246924 0.068292834
000150 35 85 56 bd 92 df 00 be d6 76 07 3d 89 80 42 3e
       -0.05237313 -0.12585285 0.033072315 0.18994345
000160 8c 8d d9 3d 82 83 85 3d c1 30 b8 3a 0f 41 8c bc
       0.10622701 0.06519224 0.0014052616 -0.017120866
000170 18 42 3a 3d d8 9d c1 bb 59 c4 95 3d 19 34 5d bd
       0.04547319 -0.005908709 0.07312841 -0.054004762
000180 4e f8 49 bd 37 51 e4 bd 85 07 a6 3c ca f3 18 3d
       -0.049309067 -0.11148303 0.020267257 0.03734187
000190 03 d3 35 bb 6b 2c a5 bd ed 38 aa 3d 29 e4 3e bd
       -0.002774418 -0.08065113 0.08311639 -0.04660431
0001a0 44 56 b9 bc 51 86 47 bd e5 20 92 3c 23 e3 16 bd
       -0.022624142 -0.04871208 0.017837951 -0.03683771
0001b0 8e 7b a0 3d 63 ef 60 3c c3 42 75 bd 43 60 a2 bd
       0.07836066 0.013728949 -0.059878122 -0.07928517
0001c0 49 f9 7f 3d 50 68 84 3d 1b ce b5 bd 16 1d e4 3c
       0.062493596 0.064652085 -0.08877202 0.0278459
0001d0 64 e9 2c bd 30 29 16 be 48 75 df 3c d4 4f 11 3d
       -0.042214766 -0.1466415 0.027277604 0.03547652
0001e0 d4 3c fd 3c 01 cc 6f bd 66 04 aa bd 07 b3 0d 3e
       0.030912794 -0.058544163 -0.0830162 0.13837825
0001f0 4f 0e 99 3c 22 45 eb 3d 19 86 c2 3d 4d c4 19 bd
       0.01868358 0.114877954 0.09498233 -0.037540723
000200 23 98 39 3c 1e ad 75 bd 81 1d ae 3d 5f 73 d5 3d
       0.011327776 -0.05997955 0.08501721 0.10422396
000210 20 cd b5 bc 0e 4e ee ba 18 f8 01 3d 06 f4 9a bd
       -0.022192538 -0.0018181221 0.03173074 -0.07566075
000220 c1 8c a4 bd 09 c3 d0 3d 03 98 01 3d 54 1c 6e 3c
       -0.08034659 0.1019345 0.03163911 0.014533121
000230 dd f0 18 bd 40 5a 1b be 2b c1 ba 3d 04 9d b7 3d
       -0.03733908 -0.15171146 0.09118875 0.08965495
000240 7c e9 bf 3c e7 fe e5 bd 64 51 d1 ba 1a 8f 67 bd
       0.023426764 -0.112302594 -0.0015969691 -0.056532957
000250 4b b1 97 3c 12 28 0a 3e f0 60 12 3e ef 4c ac bd
       0.018517157 0.13491848 0.14294791 -0.084131114
000260 1f 7a 01 3d 64 31 b3 3d db 85 cd 3a 3d fa 15 3d
       0.031610604 0.08749655 0.0015680151 0.0366156
000270 1b 75 ef 3d 72 77 17 3e 8c 7c 12 3b 28 59 93 bd
       0.11692258 0.14791659 0.0022352068 -0.071947396
000280 c6 55 86 bd b1 1b a1 bd 63 59 a2 3d 9e 23 2e bd
       -0.06559329 -0.0786661 0.079272054 -0.042514436
000290 3b a0 61 3d ba b3 b6 bd 9e 47 80 bb 2e 3e 63 bd
       0.05508445 -0.08920999 -0.0039147874 -0.05547922
0002a0 c7 cd 96 3d 02 3b 11 3d c6 7a 5d bd 09 f9 8a bb
       0.07363468 0.035456665 -0.054072164 -0.004241113
0002b0 36 47 61 3e a2 da 59 3d 6b c8 ff 3c 0c bc cb bd
       0.21999821 0.05318702 0.031223496 -0.099479765
0002c0 ed e8 16 be d5 af 97 bb 7d ec 25 3d 0f 42 ce bc
       -0.14737292 -0.004629115 0.040508736 -0.025177984
0002d0 5b 25 b0 bd 74 74 1a 3d e7 86 1e 3d 83 a1 11 3d
       -0.08600875 0.037708715 0.03870287 0.03555442
0002e0 23 79 aa 3c 09 db be bd c8 e2 dc bd 91 13 01 be
       0.020809716 -0.093191214 -0.107854426 -0.1260512
0002f0 0b 64 02 bd 7e b9 91 bc 4d 3a 57 3c e3 2e 86 bd
       -0.03183369 -0.017788645 0.013136459 -0.06551912
000300 ad 76 18 3e 33 47 7b bd 9d be d3 bd bc 0b ae 3d
       0.14889021 -0.061347198 -0.10339091 0.08498332
000310 14 44 bc bc d9 72 2b 3d 55 d5 c8 3c 34 0d d4 3c
       -0.02298168 0.041857574 0.024515787 0.025885202
000320 63 84 81 3d 99 89 26 bd 94 4b d5 3c 33 8a dc bd
       0.06324079 -0.040658567 0.026037015 -0.10768547
000330 bc 89 62 bd 34 be 03 be 44 aa 21 be 55 21 6c 3d
       -0.055307135 -0.12865525 -0.15787607 0.057648975
000340 39 4f b8 3d 04 1f 95 3c 86 61 d0 3d a1 42 7d bd
       0.089994855 0.018203266 0.10174851 -0.06183112
000350 3d 73 b6 3d c1 42 a5 3d 57 1d cb 3c 96 5e be bd
       0.08908699 0.08069373 0.024794264 -0.092953846
000360 9b 57 7a 3d b7 d5 d9 3d 13 7f 00 bd 6c de 44 bc
       0.061118703 0.10636466 -0.031371187 -0.01201592
000370 7a 68 03 bc ec 10 04 3e 5b da e1 bd 93 a8 f4 3d
       -0.008020515 0.1289708 -0.11027976 0.119462155
000380 08 1f 16 3e 67 a3 54 bc e4 b2 cd bd a9 43 4f bd
       0.14660275 -0.012978411 -0.10043886 -0.050601635
000390 ee 2d fa bd 05 47 a3 bd 55 86 65 bd e0 81 fb 3d
       -0.12215792 -0.0797253 -0.056036312 0.12280631
0003a0 bb 58 84 3d 5e 18 d9 bd 9d 57 8a 3d fa ff 16 3e
       0.064622365 -0.10600351 0.06754992 0.14746085
0003b0 66 43 46 bc 2e c1 f3 3d ed ec ff 3c 6b 26 fa 3b
       -0.01210103 0.119020805 0.031240905 0.0076339743
0003c0 82 91 b8 3c 53 2a 5a 3c 3e a4 11 bd d2 b8 c0 3d
       0.022530321 0.013315755 -0.035557024 0.09410252
0003d0 71 f1 25 3c 37 75 8d 3d 44 d1 0d bd f4 23 2b 3d
       0.010128365 0.069071226 -0.0346234 0.041782334
0003e0 41 7f f4 bd 2f d9 d7 3d be 59 29 3e 3e af 34 3d
       -0.11938334 0.10539471 0.1653814 0.044112436
0003f0 48 45 78 3c 12 9e 40 bd 5c b9 ba bd 3f 8b 1d bd
       0.015153237 -0.047025748 -0.09117386 -0.038462874

layers.block_2.layer.0.bias f4 [128]
000000 8d c2 8e bc dc 6f 66 3d 66 78 3b 3d 11 53 9e 3d
       -0.017426753 0.05625902 0.045769118 0.077306874
000010 96 19 a3 bd 99 2e 70 3d cc c6 c4 bb e8 20 87 3c
       -0.079638645 0.05863819 -0.0060051437 0.016495183
000020 4f 18 9d 3d 4a 4e 8a 3d 2f 8d 76 3d 67 54 29 bd
       0.07670652 0.06753214 0.060193237 -0.041340258
000030 19 32 b1 bd b8 fe 89 bd e4 e9 d3 3c c1 4a 24 bd
       -0.086521335 -0.06738037 0.025868364 -0.040110353
000040 31 78 90 bd dd 50 c2 3d 79 08 3f 3d 70 fb 14 3d
       -0.07054175 0.0948808 0.04663894 0.036372602
000050 e3 d4 42 3d 1c 92 1a 3c 0c 48 2a bd 1a b8 1f 3d
       0.047566306 0.009434249 -0.041572616 0.038993932
000060 12 bb a6 bb c0 59 0b bd f1 d0 55 3d d6 39 8d 3d
       -0.0050882185 -0.03402114 0.052201215 0.06895797
000070 97 a1 45 3d fa 6e 5c 3d 00 80 66 3d 8a ef 5c bd
       0.048249807 0.053816773 0.056274414 -0.05393938
000080 33 52 57 3c 35 3c 39 bd 4b 00 28 3d 1a a4 a6 3d
       0.013142156 -0.045223434 0.041015904 0.08136769
000090 b1 99 39 bd 57 1f a8 3d c2 9d 3c bd 18 05 e3 3b
       -0.045312587 0.082091026 -0.046048887 0.0069280975
0000a0 a3 5a 79 bb 4b dd 6f 3d 71 24 8a bd a0 04 b7 3d
       -0.0038048408 0.05856065 -0.06745232 0.08936429
0000b0 ef aa 48 3d 5e e1 4a bc 4a 55 22 3c 55 73 56 bd
       0.04899114 -0.012382833 0.00990803 -0.052356083
0000c0 e6 b9 bc 3d b8 1b 25 3d 32 bc 9b bd c9 60 a0 bb
       0.09215145 0.040309638 -0.07604255 -0.00489435
0000d0 0a b5 57 bd 6d 18 92 bd 0d 87 78 bd 31 a4 0a 3d
       -0.052662887 -0.07133565 -0.06067567 0.03384799
0000e0 86 dd 06 3d 8d 20 fd ba bb 8e 80 3d 84 f7 7f 3d
       0.032926105 -0.0019312069 0.06277224 0.06249191
0000f0 18 79 b8 3d d0 b7 98 bc c6 58 7f 3b bb 60 ea 3c
       0.09007472 -0.018642336 0.0038962825 0.028610578
000100 74 2d 64 bd 51 e2 0b bd 14 3c bf 3b b0 ab e9 bc
       -0.05570741 -0.03415138 0.0058360193 -0.02852425
000110 63 c8 61 bc d3 82 74 3c 9d df 00 3d ed 24 b7 3a
       -0.013780686 0.014923769 0.031463254 0.0013972797
000120 ab 10 8c bd 1f de b4 3c bb 6a 97 bd cb 91 89 bd
       -0.06839117 0.022078572 -0.07393404 -0.06717261
000130 bc 6c 08 bc eb 9b d8 bc 58 ab 86 bc 3b e0 7a bc
       -0.008326706 -0.026441535 -0.016439125 -0.01531225
000140 88 18 6f bd 8a 2a 9c bd 0c c6 82 3d 1b 06 a4 bd
       -0.058373004 -0.07625301 0.06385431 -0.08008977
000150 53 53 97 3d c5 5f a4 bd 8f 80 a5 bd 15 7e 18 3d
       0.0738894 -0.08026079 -0.08081161 0.037229616
000160 83 ca 15 3c db c0 c1 bc cd 2a 8f 3d 53 d1 3d bd
       0.009142521 -0.023651531 0.069905855 -0.046342205
000170 4f aa a7 3b eb ea 4f bc ba b1 7a bd da c4 56 3d
       0.005116738 -0.012690286 -0.06120465 0.052433826
000180 f9 e8 39 bd f7 05 07 3e 0c 76 82 3d ef db a1 3d
       -0.045388196 0.13185869 0.06370172 0.07903277
000190 b2 09 5e bb 8c a6 bc bd 2f 14 2d bd 33 89 d9 3c
       -0.003388029 -0.09211454 -0.042255577 0.02655468
0001a0 9b 0c e7 3a d9 46 f8 3c 93 a7 ac bd ca f0 4e bd
       0.0017627658 0.03030722 -0.084304 -0.050522603
0001b0 b5 c3 9f 3d 0d da 45 bc 41 77 29 bd 60 55 0b 3d
       0.07801 -0.012075913 -0.041373495 0.034016967
0001c0 55 90 86 bd 14 0b 99 bd 5c 03 4b bc fd c4 67 bd
       -0.06570498 -0.07472816 -0.012390938 -0.056584347
0001d0 98 69 92 3d 69 19 47 3d e0 b4 f0 3c 1f cc 67 bd
       0.07149047 0.048608217 0.029383123 -0.05659115
0001e0 13 76 28 bd 70 e0 87 bc 06 f9 c5 bc 6b 13 d8 bc
       -0.04112823 -0.016586512 -0.024166595 -0.026376447
0001f0 34 8b 1a bd 6e cf 25 bd f4 93 e6 bc 49 03 47 bd
       -0.03773041 -0.040481023 -0.028146721 -0.048587117

layers.block_3.layer.0.weight f4 [128, 128]
000000 e2 82 47 bd 54 74 2c 3c 76 26 8f 3e b2 fa 3f 3e
       -0.048708804 0.010525782 0.2795903 0.18747976
000010 b1 e3 25 3e f9 fa 27 ba 0c b5 0f 3e 24 06 e5 bc
       0.16200139 -0.0006407942 0.14033908 -0.02795703
000020 e2 ec 1c bd 9b 00 51 be 98 c9 82 bd 96 d0 03 be
       -0.038311847 -0.20410387 -0.06386107 -0.12872538
000030 c6 fb 0e be 10 d3 b1 bd 33 14 ac 3d c2 fd 7f bc
       -0.13963231 -0.08682835 0.0840229 -0.015624465
000040 f2 db 4b bc 32 b1 07 3e af 04 84 3e 97 99 27 3e
       -0.012442576 0.13251188 0.25784823 0.16367184
000050 2d 1c cf 3d 00 47 e3 3d 02 cd 82 3d 0a 1e 10 3e
       0.10112796 0.110975266 0.063867584 0.14073959
000060 6c 14 4e bc 1e 4c ff 3d 77 65 ab bd 2c 86 25 be
       -0.012578111 0.1246569 -0.08368962 -0.16164464
000070 3f 33 02 be 37 0f 56 bd 10 9b 88 3d e8 70 8a bd
       -0.12714861 -0.052260604 0.06670201 -0.067598164
000080 cb 3a 2a 3e f2 76 05 3e c6 ab 40 3e 5c 75 08 bc
       0.1662399 0.13033655 0.18815526 -0.008328762
000090 8b e5 1e 3d 68 0c 4f bc e5 7c f7 bd d3 1d 52 bd
       0.038793128 -0.012637235 -0.120843686 -0.051297974
0000a0 07 af 8a 3c 80 37 b2 3d 52 ec 0b 3e ed d6 ad 3c
       0.016929163 0.08701992 0.13664368 0.021220649
0000b0 2d dd 8c bd 83 4f d2 bc ff dc 82 bb f4 5a 93 bc
       -0.068781234 -0.02567268 -0.00399363 -0.017987706
0000c0 c9 18 09 3d 4b b9 84 3c 57 90 0e be 70 a9 5e bb
       0.033470903 0.016201636 -0.13922249 -0.0033975504
0000d0 b7 f5 48 bd f5 c5 2e bd 95 53 f2 bd 34 6e 51 3e
       -0.049062457 -0.042669255 -0.11832348 0.20452195
0000e0 c6 34 18 be e7 10 07 3c 0b cb 81 bd df 2c 1a bc
       -0.14863881 0.008243776 -0.063375555 -0.009410112
0000f0 a9 40 e4 bd 28 38 0a 3d 34 9f 4e be 7e ef 98 3d
       -0.111451454 0.03374496 -0.20177919 0.074675545
000100 ef a3 bb 3d 21 a4 8a bc ab 3f 99 3d bc 20 6f 3d
       0.09162127 -0.016923966 0.07482847 0.058380827
000110 9c 27 a8 3d 37 14 7a 3d 47 19 56 3d 51 6b 07 3d
       0.0821068 0.061054435 0.0522702 0.03306133
000120 7c c5 df bb 75 4e 11 bd 2d 80 11 3e de e5 61 bc
       -0.006828962 -0.035475213 0.14209051 -0.013787715
000130 00 ac d0 bd 45 06 34 be 5c 27 77 be 05 20 4c be
       -0.101890564 -0.17580517 -0.24136108 -0.1993409
000140 e7 c0 93 bd 2a 86 98 3d ec 96 a1 3d f6 22 b7 3d
       -0.072145276 0.07447465 0.07890114 0.08942215
000150 6d db a1 bd 8a cf 64 bc d4 d8 37 3c 3f 12 00 3e
       -0.0790318 -0.013965497 0.011221129 0.1250696
000160 6f e3 b9 bd 47 53 91 bd 23 f3 99 3c 06 9c ad 3b
       -0.09076583 -0.07095962 0.018792694 0.0052981405
000170 66 c3 99 3d 2c 40 38 bc e6 8a d0 3d 4c e1 5c 3d
       0.075079724 -0.0112457685 0.10182743 0.053925797
000180 d5 0e d0 bd 46 7e 8d bd 08 27 1b 3e 1f 95 da 3d
       -0.10159079 -0.0690885 0.15151608 0.10672974
000190 80 45 e2 3d 61 34 19 3e 96 41 18 3d 0a 13 3c 3d
       0.11048412 0.14961387 0.037171923 0.045916595
0001a0 cf d9 b8 bd 5f 0e 9f bd 3f 5b 21 3e 3f 3c 24 be
       -0.09025919 -0.07766413 0.15757464 -0.16038607
0001b0 93 5b 6b 3c 58 9d 06 bd d4 9a b5 bc 12 17 e8 3d
       0.014365095 -0.0328649 -0.022168554 0.11332525
0001c0 88 00 af 3d 73 24 14 3e ff 84 48 3e 66 b9 ef 3d
       0.08545023 0.1446703 0.19581984 0.11705284
0001d0 77 44 36 3e bb 70 fa 3c 8c 30 08 3d 5a 77 0a bd
       0.17799555 0.030571332 0.033249423 -0.03380523
0001e0 73 8e 12 bd c6 94 aa bd ad 2c 22 3d db 9a 83 3d
       -0.03578038 -0.083291575 0.039593387 0.06426021
0001f0 f9 26 2a bd 98 3e 98 be 5b cc d9 3b 38 d5 7c b7
       -0.041541073 -0.29735255 0.0066466755 -1.5070014e-05
000200 9f bc 2a 3e 47 1a a9 bd c6 fa 69 3c 18 99 2a bd
       0.16673516 -0.08256965 0.01428098 -0.041649908
000210 cf 88 4e 3c 18 5d 8e bd 04 48 87 3b 48 00 6a 3d
       0.01260586 -0.0695135 0.004128458 0.057129174
000220 f8 24 c0 3c c8 7f bf bd 4d b5 92 3d 2e e6 e7 3c
       0.023455128 -0.09350544 0.07163487 0.028308
000230 53 81 6d 3d c6 73 ba 3d b6 72 7e bd 66 2a e5 3d
       0.05798466 0.09104113 -0.062121116 0.111897275
000240 83 24 1d 3c 0d fb 24 bc e6 5b e2 bd aa 27 70 bd
       0.009591225 -0.010069621 -0.110526845 -0.058631577
000250 0a 7e ad bd 64 ed 7f bd 55 6a 9c 3d c1 e9 cb 3c
       -0.08471306 -0.062482253 0.07637469 0.024891736
000260 f2 e3 02 3e 1e d4 6a 3c 7b b4 d9 3c a2 d1 6d 3d
       0.12782267 0.014332799 0.026575318 0.05806125
000270 d0 a4 cd 3d 08 47 d2 3c 68 9b ed bd 04 1f 0e be
       0.10041201 0.025668636 -0.11601907 -0.13879019
000280 25 13 50 bd d5 80 8f bd 59 86 2c bd 32 2a 87 bd
       -0.050799508 -0.07006995 -0.04212031 -0.06599845
000290 e3 67 00 be c1 37 26 3d ba 21 be 3d 1a 04 49 bc
       -0.1253963 0.040580515 0.092837766 -0.012269044
0002a0 a2 a1 20 3d 2d e9 f5 3c bc 2f 6a 3d b8 a6 82 3c
       0.039216645 0.030018413 0.05717443 0.015948638
0002b0 62 28 01 3d aa 2e df 3d bc 1a 83 bd 30 99 35 bd
       0.031532653 0.10897572 -0.064015836 -0.044335544
0002c0 5b 32 9c 3d 36 39 b7 3b 93 75 dd bc 86 3e 1d 3e
       0.07626792 0.005591537 -0.027033603 0.15355882
0002d0 73 12 c1 3d b7 54 0d 3d 52 51 ea bd 38 ce 21 bc
       0.09427347 0.03450462 -0.11441292 -0.009875827
0002e0 ed 5f 72 3d 0c e3 cf 3c b6 97 d4 3c de d0 43 bd
       0.059173513 0.02537682 0.025951248 -0.047806613
0002f0 a1 34 55 3b ae ee 01 bd 59 39 74 3d 57 67 21 3d
       0.003253259 -0.031721763 0.059625003 0.039405193
000300 3f a0 ca bd 89 fb 44 bd 91 82 02 be ab 8b 4e be
       -0.09893846 -0.048091445 -0.1274512 -0.20170467
000310 b4 33 64 3d 8b 61 15 bd 4c 00 b1 3d 0b 47 90 3d
       0.05571337 -0.036469977 0.08642635 0.070448
000320 f7 d5 fb bb e7 9e 1a 3c 87 3d 6c 3d fa 0d 1a bd
       -0.0076854187 0.009437299 0.057675865 -0.037610985
000330 04 25 bf bd 48 af dc 3c fd b0 48 bc 4a 67 86 3d
       -0.09333232 0.02693905 -0.012249229 0.065626696
000340 99 82 40 3c 50 e2 7a bd bb 16 56 bd eb 69 33 3c
       0.011749887 -0.061250985 -0.05226777 0.010950546
000350 65 cb 5a bc 19 9b b9 3d 10 76 75 3d ea b7 16 bd
       -0.013354157 0.09062786 0.059927046 -0.036796488
000360 d0 d0 56 3c 1d b0 44 3d 66 b9 bb bc ae 16 be 3b
       0.013111308 0.048019517 -0.022915553 0.0058010435
000370 54 fb 7d 3d b6 44 65 3d 5b 87 29 3d b9 de 95 3d
       0.062007263 0.05597373 0.04138885 0.073178716
000380 c2 fe 93 3d cd b0 9b bd ed ee bc bd 8c 8b 03 be
       0.072263256 -0.076020814 -0.09225259 -0.12846202
000390 8d 33 d2 bd 89 e6 09 be a3 e6 b4 3d d7 a1 c5 3c
       -0.10263739 -0.13466848 0.08833053 0.024125023
0003a0 11 d2 fc 3c 9a 20 5f 3d 72 c2 e3 bc 0a 98 0f 3e
       0.030861886 0.05447445 -0.02780268 0.14022842
0003b0 0f ba 37 bd e3 57 b2 3c 2f 08 26 3e 1f 6d 2d 3d
       -0.044855174 0.021770423 0.1621406 0.042340394
0003c0 85 5c 2a bc 8a 8b 63 bc 07 1f 95 bd 22 fe a3 3d
       -0.010398035 -0.013888249 -0.072813086 0.08007456
0003d0 0e f1 cd bd 74 49 4a bd ce 37 38 bc f4 77 b2 bd
       -0.10055743 -0.049386457 -0.011243774 -0.087142855
0003e0 a8 a3 27 bd df ae 76 3d 68 69 81 bc c3 3e df bd
       -0.04092756 0.060225364 -0.015797332 -0.10900643
0003f0 c1 ca 18 3e 1d b4 de bd c6 d0 b7 bd 61 f3 33 3d
       0.14921094 -0.10874198 -0.08975367 0.043933276

layers.block_3.layer.0.bias f4 [128]
000000 62 3a c1 bd 61 f0 89 3d 30 f4 8b 3d f7 5c b0 3c
       -0.09434964 0.06735302 0.068336844 0.021528704
000010 99 f2 83 bd 05 10 67 bb a2 f8 d4 bc 9d d8 0b bd
       -0.06442756 -0.003525735 -0.025997464 -0.034142125
000020 36 32 28 3d b6 dd a9 bd 6b d1 9b bc 0d 96 e3 bc
       0.04106351 -0.08294241 -0.019020757 -0.02778151
000030 c3 9b 4b 3d da ff de bb 7a c2 61 bd 54 3a 01 3d
       0.049709093 -0.006805402 -0.055117108 0.031549767
000040 f9 56 1b bd da aa a2 3d e8 2c c7 3d 9f 62 d1 bb
       -0.03792474 0.079427436 0.09725362 -0.0063899304
000050 13 b6 26 bd be 57 8c 3d cc 3d bb bc a7 6a 96 bd
       -0.040700983 0.06852673 -0.022856615 -0.07344561
000060 de 3f a4 3d 95 e3 8b 3d 4d 02 4d bd ca 1e 35 bd
       0.08019994 0.06830517 -0.050051022 -0.044218816
000070 58 44 96 3d d5 50 79 bd 76 03 1e bd 4d fb 3e 3b
       0.07337254 -0.060868103 -0.03857752 0.0029141486
000080 98 4f e7 3c 36 ba 54 bd cf f2 af bd 6c d4 ac 3d
       0.028236195 -0.051935397 -0.08591234 0.08438954
000090 d4 4c 0f bd 26 aa 8a 3d 43 32 98 bb 7c 7d c3 3d
       -0.03498538 0.067707345 -0.0046446635 0.095454186
0000a0 93 a4 7c bd 2e e3 b4 bc da 1a 55 bb b5 53 a8 bc
       -0.061680388 -0.022080984 -0.0032517225 -0.020547727
0000b0 02 44 7f bd 58 e7 63 3d 20 a8 04 3d cb da 1e bc
       -0.062320717 0.05564055 0.0323869 -0.009695719
0000c0 09 ba 45 bd 34 ac 48 3c ea f0 fd 3c 88 5d e6 3d
       -0.04827312 0.012248088 0.030998666 0.112483084
0000d0 77 51 03 bd fa cb a3 bd 06 23 86 bc 55 d9 7f 3d
       -0.032060113 -0.0799789 -0.016374122 0.062463123
0000e0 39 5d 6f 3d 1a 70 85 3d a0 bc 12 bd 78 2c 47 3d
       0.058438513 0.06515522 -0.035824418 0.048626393
0000f0 50 fd d9 3c ff 9a e0 bc f8 20 a9 3d de ed da 3d
       0.026610047 -0.027417658 0.082582414 0.10689901
000100 99 06 61 3d 7f e6 7e 3c 29 33 66 bc ee 39 4b 3d
       0.054937933 0.015557884 -0.0140502835 0.049615793
000110 3e eb ca 3d 2d 25 9a bd 73 7f af bd 90 2e b0 bc
       0.0990815 -0.07526622 -0.08569231 -0.021506578
000120 6a 5c 05 bd 31 69 7c bd a9 77 63 3c c4 29 e0 bc
       -0.032558836 -0.061623756 0.01388351 -0.027363665
000130 20 fa 9d bd 19 23 1b 3d 34 dd c6 3d b8 dc 03 bd
       -0.07713723 0.03787527 0.0971016 -0.032192916
000140 08 17 75 3d 33 84 ba bd 09 83 47 3d d7 14 0d 3d
       0.059836417 -0.09107246 0.04870895 0.034443703
000150 27 37 c0 bc 12 2a a0 bd 17 d6 9a bd df b6 6c 3d
       -0.023463799 -0.07820524 -0.07560366 0.057791587
000160 eb ce 11 bd 7f ac 00 bd 09 df fb 3c 6e ac 0a bd
       -0.035597723 -0.031414505 0.030746 -0.033855848
000170 dd c0 ad 3b 40 19 25 bd 2a de 84 bd 84 40 24 bd
       0.005302532 -0.040307283 -0.06487687 -0.04010059
000180 8a a3 91 bd 23 0b 50 bd 24 2c 83 3d fd a7 ea 3c
       -0.07111271 -0.05079187 0.064049035 0.028644556
000190 36 88 5e 3d a0 29 81 3d f9 d0 f1 3c 9f 8a 86 bd
       0.05432912 0.063067675 0.029518591 -0.065694086
0001a0 b5 e7 cb 3c 1b 89 f9 bd 14 8b cb 3c f8 15 6d bd
       0.02489076 -0.12184354 0.024846591 -0.05788228
0001b0 eb 4b 42 3c d9 7e cd 3b 30 e6 6c bd 40 63 02 3b
       0.011858921 0.006271225 -0.05783671 0.0019895583
0001c0 a6 44 4c 3c 83 0d 58 bd f0 7f 30 3d 0f 6f 92 3b
       0.012467539 -0.05274726 0.04309076 0.0044688056
0001d0 57 9c f0 3c 4a 1f 17 3d 0d ee 4a 3d f6 be a3 3d
       0.029371424 0.036895074 0.04954343 0.07995407
0001e0 8a 64 cc 3d 7d 04 68 3d ce a2 2a bd 6c 5c 92 bc
       0.09980114 0.056644905 -0.04165917 -0.017866336
0001f0 36 cb 99 bd 31 1c 8e bc 70 92 ff bc 58 b1 8c 3b
       -0.075094625 -0.017347427 -0.031197757 0.004293602

layers.output.weight f4 [2, 128]
000000 69 de e1 bd ed b2 d0 3d 12 11 fa 3d db 15 3b be
       -0.110287495 0.101903774 0.12210287 -0.18270056
000010 15 fd 2f 3e 45 8a dc 3e 94 65 9c bd da d7 1d 3b
       0.17186387 0.4307424 -0.07636562 0.0024084956
000020 45 b2 9e bd ba 4d e7 3e 13 3c 9c bd 62 fe 22 3e
       -0.07748846 0.45176488 -0.07628646 0.15917352
000030 a7 87 2e 3e 3c f8 8b 3e 17 00 95 be 75 d2 26 3e
       0.17043935 0.27337825 -0.2910163 0.1629122
000040 3b 2e 2a be 7b 3a 6e be a6 4e 5c bd 27 a1 d1 3d
       -0.16619198 -0.23264496 -0.053785942 0.102358155
000050 4e c0 b4 3d ef 91 17 be 0c 2b 01 3e 2d 0f 32 3e
       0.08825742 -0.14801763 0.12614077 0.17388602
000060 8a f9 0b 3e e1 a1 70 3e 4d 8f a8 3c 95 13 7b 3c
       0.1366941 0.23499252 0.020576144 0.015324493
000070 b1 2a 18 be df 80 07 3e 7f d4 9e 3e f3 92 7b 3e
       -0.14860035 0.13232754 0.31021497 0.24567775
000080 5c 17 2d 3e fd 8a 56 be 15 fc 9f 3e 4d 0d a8 3b
       0.16903442 -0.20951457 0.3124701 0.0051285387
000090 fe fe 18 be ee de 84 3d 47 21 05 be c8 1d 8f bd
       -0.14941022 0.06487833 -0.13000976 -0.06988102
0000a0 02 64 95 3e 05 d6 39 3e 56 55 af be fc f6 5c be
       0.29177862 0.18148048 -0.34244794 -0.21578592
0000b0 a1 11 4f bd 71 0c 0c 3e 81 00 61 be 88 bb e8 3e
       -0.05055392 0.13676621 -0.21972848 0.45455575
0000c0 5b 83 89 3d 30 2b 84 3c 07 30 e6 3d ae 22 c0 bb
       0.06714507 0.016133875 0.11239629 -0.005863509
0000d0 26 38 3c 3d 91 2b b0 3d c5 cf fc 3d 8c a5 a3 3e
       0.045951985 0.0860206 0.123443164 0.3196224
0000e0 53 d6 35 3e fa bf a0 3e 10 2a b9 be 75 29 cf bd
       0.1775754 0.31396466 -0.36164904 -0.10115329
0000f0 ca 96 aa 3e 19 a5 7f 3d be 89 26 3e 66 23 35 be
       0.33318168 0.06241331 0.16263482 -0.17689285
000100 09 93 27 3e 10 f9 8c 3d 1e f8 89 3d 2c 56 07 be
       0.16364683 0.068834424 0.06736778 -0.13216466
000110 1b 93 bc 3d 1a ef 2f be 90 14 32 3d e3 4a e6 3d
       0.09207746 -0.17181054 0.04347664 0.11244752
000120 a5 fd e3 bd 65 83 18 3e aa e3 43 3d 29 d0 96 bd
       -0.11132363 0.14893873 0.04782454 -0.07363922
000130 ab 7b 3b be 78 85 d6 3d 1f 7e 1e 3e 2e 4e db be
       -0.18308894 0.10474676 0.15477799 -0.42833084
000140 72 0c 30 be 4a bb dc 3d d7 e8 50 3d 66 d5 95 bc
       -0.17192248 0.1077791 0.051003303 -0.018290233
000150 7a b0 1e 3d 51 e6 12 bd 0e 1f 3c 3e c9 bd 3b 3d
       0.03874252 -0.035864178 0.18371221 0.04583529
000160 e1 69 81 3e 7f 01 3f 3e 69 05 72 bd 7d 8f 48 3e
       0.25276092 0.18652914 -0.05908719 0.19585986
000170 71 45 7b 3e 85 10 bc 3d 12 3d 6f 3d 92 0e ad bd
       0.24538209 0.09182838 0.05840785 -0.08450045
000180 a1 99 e4 3c dd 17 1a 3e da f8 f8 3d 99 67 30 be
       0.027905287 0.15048166 0.1215684 -0.1722702
000190 f3 a3 08 be 19 4b 3d be 46 41 9f bd 9c e4 60 be
       -0.13343792 -0.18485679 -0.07776122 -0.21962208
0001a0 10 85 e9 3e 0b c8 34 3d 06 4e cc 3c 8c c7 f1 3d
       0.4560933 0.04413609 0.024939548 0.11805639
0001b0 c3 96 49 3d dc 44 a2 3d 1f db cc bd fa b3 b5 bd
       0.049216043 0.0792329 -0.100027315 -0.088722184
0001c0 d2 a8 12 3e 79 ef 08 be 6b e0 5f 3e 24 1e 92 3e
       0.14322212 -0.13372602 0.21862952 0.2853862
0001d0 52 6a 38 bd 73 2f 22 be 4b d8 37 3e 8f b4 7b be
       -0.04502327 -0.15838413 0.17953603 -0.24580596
0001e0 a3 fb f1 3d 53 0e 12 3e c1 7f fa bd 1b b5 bc 3d
       0.11815574 0.14263277 -0.122313984 0.092142306
0001f0 d9 a2 1b bd 38 f9 64 3c 30 47 2c 3e 8f df 1c 3e
       -0.0379971 0.013975434 0.16824031 0.15319656
000200 4a 05 29 3d 98 ce c4 bd 68 fa 4d 3d 1d 8e 17 bd
       0.04126481 -0.09609717 0.050287634 -0.037000764
000210 8b 31 33 3e 23 81 9c be 2a 29 cf 3c 0b 84 84 be
       0.17499368 -0.30567273 0.025288183 -0.2588199
000220 b7 d0 3f 3e 99 b0 af be b4 f4 04 3e ef 64 96 be
       0.18731962 -0.3431442 0.12983972 -0.2937388
000230 ef bd b0 3d 0c 7e 44 be 8b 2f c1 bc 78 64 68 3d
       0.08629977 -0.19188708 -0.02358224 0.05673644
000240 e5 b7 80 bd e5 8f 3d 3e a2 07 1f 3e 02 18 17 bd
       -0.06285075 0.18511923 0.15530255 -0.03688813
000250 95 9c 0f 3e 59 32 c2 bd 4c f3 e0 bd 5e 7b bd be
       0.14024575 -0.09482259 -0.10983905 -0.37008184
000260 cc 68 e4 3d 70 58 0c 3e 6c 72 91 3e 0d 1b 9b 3e
       0.11152801 0.13705611 0.2840761 0.30294076
000270 9c 0b ba 3a 0c 47 5e 3e 9d 7a b0 3c 58 07 e0 be
       0.0014194134 0.2170679 0.021542842 -0.43755603
000280 2b d8 41 3d ed ec a5 bd 39 5c 92 bd d1 3f 69 be
       0.047325294 -0.08101831 -0.07146496 -0.2277825
000290 38 3f 05 3e d3 da d5 bd 89 82 4d 3c 66 79 b9 3d
       0.13012397 -0.10442128 0.012543329 0.09056358
0002a0 07 72 45 3d e5 b6 3c be fb 1b b7 3e f6 9f 3b bd
       0.048204448 -0.18429144 0.35763535 -0.045806848
0002b0 e3 c7 54 3e 16 62 dd be a4 82 39 bd 4d 5d bc be
       0.20779376 -0.43238896 -0.045290604 -0.36789933
0002c0 d5 86 7d 3e ff 3c 82 be 69 c9 11 3e b4 1a cf 3d
       0.24758466 -0.2543716 0.14236988 0.10112515
0002d0 e6 b5 33 3e bf 8c 9a ba 10 dd de 3d 87 84 b2 bd
       0.17549857 -0.0011791213 0.10882008 -0.08716684
0002e0 6d 93 f2 3c d1 7f f1 bd 1a 4c af 3e c7 31 83 3e
       0.029611314 -0.11791957 0.34237748 0.25623915
0002f0 f2 59 b3 be c4 4f b4 be 93 e6 e3 3c c4 c3 0c bc
       -0.3502956 -0.35217106 0.027819907 -0.008591596
000300 75 c2 e4 3c 65 a9 51 3e df c6 28 be 87 ae 28 3e
       0.027924756 0.20474775 -0.16482113 0.16472827
000310 58 2c e3 3d 2c e4 6b be 65 39 30 be dc 46 a2 bc
       0.11092442 -0.2303626 -0.17209394 -0.019809179
000320 e9 5b 99 3b fe 90 93 be 09 75 e8 3d 64 f8 3c be
       0.004680146 -0.28821558 0.11350448 -0.18454129
000330 4f 23 8b bd 8f 64 aa 3d bb 00 a1 3c ea 82 a9 3e
       -0.06793844 0.08319961 0.019653669 0.33107692
000340 ef d6 b8 bb 30 c1 0e 3c 94 fb 5f 3e 51 4f 9b 3e
       -0.0056408565 0.008713052 0.21873313 0.3033395
000350 c6 04 b4 3e 11 f8 e8 3c 84 f3 29 bd e7 d7 81 be
       0.35159892 0.0284386 -0.041492 -0.25360033
000360 72 f1 05 be 7c ca 0a 3e 38 2e 0b be 68 c4 c9 3d
       -0.13080385 0.13553804 -0.1359185 0.09851915
000370 b4 cd 2f bd 8a 28 1e be b5 d4 ce be 53 7f 68 3e
       -0.042920783 -0.15445152 -0.40396658 0.2270482
000380 7d f0 90 be e0 06 c1 3d 65 96 fb bc 4e 8f c4 3d
       -0.28308478 0.094251394 -0.030711362 0.09597646
000390 6c cd 1e be 48 1b 77 3d eb 83 e2 3d ef c6 8d bd
       -0.1550805 0.06032875 0.110603176 -0.06922709
0003a0 5f 87 ac be cb 7b 6c 3d 32 7d 3f 3e 27 7e 9b bd
       -0.3369703 0.057735246 0.18700102 -0.07592421
0003b0 75 a2 c9 bd 10 c3 4f 3e 1e 88 22 bd 1a f1 a5 3d
       -0.09845439 0.20289254 -0.039680593 0.08102627
0003c0 1f 2d be 3d e9 b5 cc bd 06 33 83 bd aa b1 ca be
       0.0928595 -0.09995634 -0.06406216 -0.39588672
0003d0 00 3a 29 3e 5a c1 29 be 39 47 c6 3c d4 9f a1 3b
       0.16526031 -0.16577664 0.024203883 0.004932383
0003e0 7b 97 30 bd 50 69 19 3e ea 34 8b 3c 9b 99 d4 be
       -0.043113213 0.1498158 0.016993005 -0.41523442
0003f0 88 b2 14 be 05 6c 43 be b0 f8 ad 3d 5c 15 97 3d
       -0.1452123 -0.19084175 0.08494699 0.07377121

layers.output.bias f4 [2]
000000 8c d7 7d 3d fc 1a 6b bd
       0.06197314 -0.05739878
