results/SMOTE20K/smote0/smote0.45/model.pth (torch, 205093 bytes, 10 tensors)

layers.block_0.layer.0.weight f4 [128, 2]
0	0xbea1fc25	-0.31637684
1	0x3f1e4b01	0.61833197
2	0x3f854d3d	1.0414196
3	0x3f0f2a9e	0.55924404
4	0xbf7b29d9	-0.9811073
5	0x3e23f2f8	0.16010654
6	0x3f06897d	0.5255354
7	0x3e9f460d	0.31108132
8	0x3e30f76c	0.17281884
9	0xbf3a5461	-0.72785
10	0x3f0262bc	0.50931907
11	0xbf150b51	-0.5822039
12	0x3f16e5e2	0.58944523
13	0x3e814dee	0.25254768
14	0x3d2f7619	0.042837236
15	0xbde70b81	-0.11281491
16	0xbf8c7afb	-1.0975031
17	0xbe9cb0b3	-0.3060356
18	0xbe85ea81	-0.26155475
19	0x3e7b500e	0.24542257
20	0xbe95bab8	-0.29244018
21	0x3dab605b	0.08367988
22	0xbf5a3284	-0.8523333
23	0xbea0e853	-0.3142725
24	0x3f9f1b08	1.2430124
25	0xbe601d1d	-0.21886106
26	0xbf3ae0af	-0.7299909
27	0x3eca60b6	0.3952691
28	0xbf85eb2a	-1.0462391
29	0x3f24a8f0	0.6432028
30	0xbf08eec8	-0.5348935
31	0xbee15f81	-0.44018176
32	0x3f360a03	0.71109027
33	0xbe9b1647	-0.30290434
34	0xbf174ffa	-0.5910641
35	0x3e87b73f	0.26506993
36	0xbf0f121f	-0.55887026
37	0xbf24f0c9	-0.6442991
38	0xbf4cee24	-0.80050874
39	0x3ef18956	0.47175092
40	0xbf25170c	-0.6448829
41	0xbf275d56	-0.65376794
42	0xbf572d71	-0.84053713
43	0x3eb5d633	0.35514984
44	0xbf5f43b3	-0.87212676
45	0xbe0ac236	-0.13550648
46	0xbf18dd56	-0.5971273
47	0xbe8a4aa0	-0.2701006
48	0xbf061717	-0.5237898
49	0xbccfa71f	-0.025348244
50	0xbf57a547	-0.8423657
51	0x3f08e4e8	0.53474283
52	0x3f7bc867	0.98352665
53	0xbe0de12b	-0.13855426
54	0xbec91ef0	-0.39281416
55	0xbf10bef7	-0.5654139
56	0x3f2e50ae	0.6809186
57	0xbd81d59e	-0.06339572
58	0xbf3823d1	-0.7192965
59	0xbf0391d9	-0.5139442
60	0x3f51e32c	0.8198726
61	0xba8d341b	-0.0010772975
62	0xbf35c651	-0.7100573
63	0xbea29545	-0.3175451
64	0xbf2953dd	-0.6614359
65	0xbf28178f	-0.6566095
66	0x3ec2739e	0.37978834
67	0xbf0aa668	-0.54160166
68	0xbf19ae39	-0.6003147
69	0xbf4fcb8a	-0.8116995
70	0x3eda3517	0.4261863
71	0x3e8b49b2	0.27204663
72	0x3f4a934e	0.7913102
73	0x3ee9909d	0.45618144
74	0xbd208494	-0.039188936
75	0x3f0c6eb7	0.5485644
76	0x3f8d95bc	1.106132
77	0xbea6aa5d	-0.32551852
78	0x3f70b072	0.94019234
79	0xbf206649	-0.62656075
80	0xbf0a3c92	-0.5399867
81	0xbe490373	-0.19630222
82	0xbe18f970	-0.14938903
83	0xbea7170b	-0.32634768
84	0x3ec3f3ef	0.38272044
85	0xbf0bb74a	-0.5457655
86	0x3f2866ef	0.65782064
87	0xbe223d4e	-0.15843698
88	0xbf1a28f5	-0.60218745
89	0xbec0f003	-0.37683114
90	0xbf54548a	-0.82941496
91	0x3f103cc3	0.56342715
92	0x3f82564a	1.0182583
93	0x3f1a22bb	0.60209244
94	0x3ecb8afe	0.3975448
95	0x3ece514f	0.4029641
96	0xbeb47210	-0.35243273
97	0xbf187ca2	-0.59565175
98	0xbf4eb763	-0.80748576
99	0x3f196f6b	0.59935635
100	0xbf6b13b9	-0.9182697
101	0xbecc0ac6	-0.3985197
102	0x3efe0aa2	0.49617487
103	0x3ef3d22c	0.47621286
104	0xbf152fd2	-0.58276093
105	0xbf025610	-0.5091257
106	0xbf805b78	-1.0027914
107	0x3ebe0a2d	0.37117139
108	0x3f686f87	0.9079518
109	0xbdd4df61	-0.10394169
110	0x3f17a421	0.59234816
111	0xbf199659	-0.5999504
112	0x3f43cac5	0.76481277
113	0xbeb42e71	-0.35191682
114	0x3f4705fe	0.7774352
115	0x3eaca07d	0.33716193
116	0x3f8e3f7d	1.1113125
117	0x3f0fc332	0.5615722
118	0xbe860c29	-0.26181152
119	0xbf3657c2	-0.7122766
120	0x3f6583fd	0.89654523
121	0x3ee23bf2	0.4418636
122	0x3f65b4e6	0.89729154
123	0xbe4e622b	-0.20154636
124	0xbec73834	-0.38910067
125	0xbe7c2e8a	-0.24627128
126	0x3e55dacb	0.20884244
127	0xbec24749	-0.3794501
128	0x3f210b62	0.62907994
129	0xbf08bb7d	-0.53411084
130	0xbf64778e	-0.89244926
131	0x3d0d26f3	0.034460973
132	0xbf4e8612	-0.80673325
133	0x3dbf5571	0.093424685
134	0xbecf0399	-0.40432432
135	0xbf2ef6fa	-0.68345606
136	0x3f2c8939	0.67396885
137	0x3ebeecb0	0.37289953
138	0xbf36607a	-0.7124096
139	0x3ea29370	0.3175311
140	0x3f6e02a9	0.9297281
141	0x3ea784a3	0.3271838
142	0x3f6b649f	0.9195041
143	0x3ed7ca1c	0.42146385
144	0xbf8ed40e	-1.1158464
145	0x3ea291b3	0.31751785
146	0x3f3bc463	0.7334654
147	0x3e7ca189	0.24670996
148	0xbf400aa2	-0.75016224
149	0xbede90d9	-0.43469885
150	0x3eeeff1e	0.46679014
151	0xbf3833f7	-0.7195429
152	0xbf6e1e31	-0.9301482
153	0xbc82bbc7	-0.01595868
154	0xbf3d2d56	-0.738973
155	0x3e9b611c	0.30347526
156	0x3f7a5b24	0.9779532
157	0xbe21cb19	-0.15800132
158	0x3cba15ad	0.022715414
159	0x3f17708d	0.59156114
160	0x3d45293a	0.04813502
161	0x3ef6b64d	0.4818596
162	0xbe82cb12	-0.25545555
163	0xbc3eb9fe	-0.011641024
164	0xbf6cb0fb	-0.9245755
165	0x3d1599df	0.036523696
166	0xbf95082f	-1.1643122
167	0x3d35a88c	0.044350192
168	0xbf6d207e	-0.92627704
169	0x3f0ef3c6	0.5584072
170	0x3f755a85	0.95841247
171	0x3ea55280	0.32289505
172	0xbe72e6a7	-0.237208
173	0xbef9e8eb	-0.48810515
174	0x3e43059e	0.19045112
175	0xbf34a9b2	-0.70571434
176	0x3f1ad79d	0.6048525
177	0x3e59c404	0.2126618
178	0x3ea1c559	0.31595877
179	0xbf106ff3	-0.5642082
180	0xbf19508a	-0.5988852
181	0xbe4b45f2	-0.19850901
182	0x3f282642	0.65683377
183	0xbda5f5c9	-0.081035204
184	0xbfa5153b	-1.2897104
185	0x3da28319	0.07935161
186	0xbf96549f	-1.1744574
187	0xbd5c8a98	-0.05384311
188	0x3f3b3806	0.7313236
189	0xbde70589	-0.112803526
190	0xbf7621a2	-0.9614507
191	0x3eb21252	0.34779602
192	0xbd4c137f	-0.04982328
193	0x3f32ed44	0.6989329
194	0xbfb04aef	-1.3772868
195	0xbcb26444	-0.021776326
196	0x3e1ce7ed	0.15322848
197	0x3e4a2914	0.19742233
198	0xbf0a3338	-0.53984404
199	0xbf19c146	-0.60060537
200	0x3eeb0023	0.45898542
201	0x3e8f9331	0.28041986
202	0x3f7ed4b7	0.9954333
203	0xbe285c47	-0.16441451
204	0xbefacbb6	-0.48983544
205	0x3ee49ebf	0.44652364
206	0xbf664b0e	-0.89958274
207	0xbee0577f	-0.43816754
208	0x3f67999e	0.90468776
209	0x3dc964a6	0.0983365
210	0xbf7bb496	-0.9832243
211	0x3ea6f2ad	0.32607022
212	0x3f1cb8dc	0.61219573
213	0x3dd4521f	0.10367226
214	0xbdd11686	-0.10209374
215	0xbed46090	-0.4147992
216	0x3f7d0e96	0.9885038
217	0xbe971486	-0.29507846
218	0x3f838099	1.027362
219	0xbd794e6d	-0.06086581
220	0xbfad3912	-1.3533041
221	0x3e5f0943	0.21780877
222	0x3ea87156	0.32898968
223	0xbf054968	-0.52065134
224	0xbe85bb85	-0.2611963
225	0x3f3910cb	0.7229125
226	0xbc367153	-0.011135417
227	0xbf19e4f6	-0.6011499
228	0x3f624391	0.8838435
229	0x3efceda5	0.49400058
230	0x3f84984e	1.035898
231	0xbc7b74c2	-0.015347661
232	0x3eeb53a9	0.45962265
233	0x3f1cba9e	0.61222255
234	0xbf2dbc57	-0.6786551
235	0x3f1317ca	0.57458174
236	0xbef6cef2	-0.48204762
237	0xbecb61a0	-0.3972292
238	0xbf3d10fd	-0.7385405
239	0x3e887588	0.2665217
240	0x3f372813	0.71545523
241	0x3f2677d3	0.6502659
242	0x3f425b88	0.75920916
243	0xbe807d77	-0.25095722
244	0xbed27d27	-0.4111111
245	0x3f0fbd1a	0.5614792
246	0xbf086218	-0.5327468
247	0xbd6193fe	-0.055072777
248	0xbede12e9	-0.43373802
249	0x3ec312df	0.38100335
250	0xbea17338	-0.31533217
251	0xbf1edb84	-0.62053704
252	0xbf534519	-0.8252731
253	0xbe328c13	-0.17436247
254	0x3f65f7d2	0.8983127
255	0x3e304268	0.17212832

layers.block_0.layer.0.bias f4 [128]
0	0xbf0df35f	-0.5544948
1	0xbeffd065	-0.4996368
2	0xbea9637f	-0.33083722
3	0x3ef431ac	0.47694147
4	0xbf270ba3	-0.6525213
5	0xbf0c4daa	-0.54806006
6	0xbf1eb390	-0.6199274
7	0xbf22da02	-0.63613904
8	0x3e80874b	0.2510322
9	0x3f3a692d	0.72816736
10	0x3f306a4b	0.6891219
11	0xbea5aa70	-0.32356596
12	0x3dc2fddf	0.09521078
13	0xbf1ed882	-0.62049115
14	0xbef06f6b	-0.46960005
15	0xbece6510	-0.4031148
16	0xbf1da57d	-0.6158064
17	0x3d93617f	0.0719633
18	0x3e481b26	0.19541606
19	0xbf2ad15c	-0.6672571
20	0x3ea7457e	0.32670206
21	0xbe2b1404	-0.16706854
22	0x3e8d1e99	0.27562407
23	0xbf1dd6bc	-0.61655784
24	0xbec8ad3a	-0.3919466
25	0xbe50bec5	-0.20385273
26	0x3ec28d68	0.3799851
27	0x3f0a00ee	0.5390767
28	0xbf02f084	-0.5114825
29	0x3ebe5ca1	0.37180045
30	0xbf0f28da	-0.5592171
31	0xbdd36fcf	-0.1032406
32	0x3f36dbc1	0.7142907
33	0xbed60d06	-0.4180681
34	0xbf2329ca	-0.6373564
35	0x3edad691	0.42741826
36	0xbeb608c2	-0.35553557
37	0xbf023786	-0.5086597
38	0x3e7d8ba6	0.24760303
39	0x3ede5ce5	0.43430248
40	0xbd7d73d3	-0.061878037
41	0xbed92378	-0.42409873
42	0xbdb97793	-0.0905601
43	0x3f27c36d	0.6553257
44	0x3edd7965	0.4325668
45	0xbf26f9a0	-0.6522465
46	0xbeeeb722	-0.46624094
47	0x3dfe4664	0.1241577
48	0x3ef2fed9	0.47460058
49	0xbf152ac3	-0.58268374
50	0x3eb5b31c	0.35488212
51	0x3db9ff10	0.090818524
52	0x3e5d373c	0.21603101
53	0xbe9382cc	-0.28810728
54	0xbe8669d3	-0.26252612
55	0x3f18c398	0.5967345
56	0xbf31edc4	-0.69503427
57	0x3e61373a	0.21993724
58	0xbec15d78	-0.37766623
59	0xbd23d79c	-0.040000543
60	0xbee494e2	-0.4464484
61	0xbe84aacc	-0.25911558
62	0x3efdced5	0.49571863
63	0xbf2c2195	-0.6723874
64	0x3ed2f7c7	0.41204664
65	0xbedfa96f	-0.43683955
66	0xbdae3476	-0.085061
67	0x3e4ebbf1	0.20188881
68	0x3e5e6a69	0.2172028
69	0x3ed9a6ca	0.42510062
70	0xbe94f3ab	-0.29092154
71	0xbf0ff389	-0.5623098
72	0xbea299e1	-0.31758025
73	0x3ef8db24	0.4860469
74	0x3f27885b	0.65442437
75	0xbd2419be	-0.040063612
76	0xbe3ff0a2	-0.18744138
77	0x3dfa7d6b	0.12230953
78	0x3e9ace30	0.30235434
79	0x3f05040e	0.5195931
80	0x3f0d9c4f	0.55316633
81	0xbeec8a8f	-0.46199462
82	0x3df6f45b	0.12058326
83	0x3dd1f706	0.10252194
84	0xbecb054c	-0.3965248
85	0xbf2208c4	-0.63294625
86	0x3eff0169	0.49805763
87	0xbec17b65	-0.37789455
88	0x3e1c8bff	0.1528778
89	0xbef17af7	-0.47164127
90	0x3eb5ffa9	0.35546616
91	0xbd6e9834	-0.05825062
92	0xbde6987f	-0.11259555
93	0x3c93c7f0	0.018039674
94	0xbe15906e	-0.14605877
95	0xbe460f90	-0.19341874
96	0x3f09a0b0	0.53760815
97	0x3c5ced6e	0.013484342
98	0xbf162c56	-0.586614
99	0x3f1267dc	0.57189727
100	0xbeca3daf	-0.39500186
101	0x3ec48cb4	0.38388598
102	0xbecb47f8	-0.39703345
103	0x3e4f63bc	0.2025289
104	0x3e3a4508	0.18190396
105	0xbf1fdf38	-0.6244998
106	0x3f320194	0.6953366
107	0xbee3bc69	-0.44479683
108	0x3e5d7eef	0.21630453
109	0x3e705705	0.23470695
110	0xbe5cc207	-0.2155839
111	0xbf16b799	-0.588739
112	0xbeaad912	-0.33368737
113	0x3e7ceea1	0.24700405
114	0xbe9e36d5	-0.3090121
115	0xbe169642	-0.14705756
116	0x3e5e5971	0.21713807
117	0xbec943a1	-0.3930941
118	0xbedcf874	-0.43158305
119	0x3f0e19eb	0.555083
120	0xbeedc84a	-0.4644187
121	0x3d145778	0.03621623
122	0x3e04ea66	0.12980041
123	0x3f2be3b6	0.67144334
124	0xbe4d6adc	-0.20060295
125	0x3dfed088	0.12442118
126	0x3eef568f	0.46745726
127	0xbde0e371	-0.10980881

layers.block_1.layer.0.weight f4 [128, 128]
0	0xbe30e956	-0.1727651
1	0xbe12da98	-0.143412
2	0xbd068049	-0.032837186
3	0x3d3010ac	0.04298465
4	0xbd4498e7	-0.04799738
5	0x3da27915	0.07933251
6	0xbe27cc43	-0.16386513
7	0xbdc06925	-0.09395055
8	0x3d5f2ddc	0.054487094
9	0x3d8f5fde	0.07000707
10	0x3d9e73e6	0.077369496
11	0x3c84aa9e	0.016194638
12	0x3c513c05	0.012770657
13	0xbdae8d0d	-0.08522997
14	0xbe3aea66	-0.18253478
15	0x3cf5a475	0.029985646
16	0x3b42844f	0.0029680913
17	0xbdc79c01	-0.09746552
18	0x3dfc5231	0.12320364
19	0xbe219a5e	-0.15781543
20	0x3db1f2cd	0.08688889
21	0xbe1b2d98	-0.15154111
22	0x3d9d9933	0.07695236
23	0xbc820bb0	-0.015874714
24	0xbd637e06	-0.055540107
25	0xbe33f6b2	-0.17574576
26	0x3dfbc2dc	0.12293026
27	0x3dfc9413	0.123329304
28	0x3d27ff08	0.0410147
29	0x3e4fbdce	0.20287248
30	0x3bca743f	0.0061784084
31	0xbd6657a7	-0.056235936
32	0x3d8cc835	0.06874124
33	0x3ce407ca	0.027835745
34	0xbc80e144	-0.015732415
35	0x3cdf035d	0.027223283
36	0xbe0956b1	-0.13411976
37	0xbe0c2e2e	-0.13689491
38	0x3e6dfadb	0.23240225
39	0x3d62b98f	0.055352744
40	0x3da8c9a6	0.082415864
41	0x3d884d66	0.066553876
42	0x398c06d8	0.0002670798
43	0x3e0337e1	0.12814285
44	0x3de976f4	0.11399642
45	0xbdd27784	-0.10276702
46	0xbe69cd7a	-0.2283229
47	0xbdb271d6	-0.08713119
48	0x3e0e35b4	0.13887674
49	0xbe195d6b	-0.14977042
50	0x3df361d4	0.118838936
51	0x3cf3bb7f	0.029752491
52	0x3e243acc	0.16038054
53	0xbe07d131	-0.13263394
54	0xbd1e5dc1	-0.03866363
55	0x3e5dca1b	0.21659128
56	0xbde31c7b	-0.110894166
57	0x3c218b25	0.009859835
58	0xbdfc9790	-0.12333596
59	0x3d304f8e	0.04304462
60	0xbe4b57b4	-0.19857675
61	0x3d4fbdbf	0.050718065
62	0x3d8eb80a	0.069686964
63	0xbc120334	-0.0089118965
64	0x3e4f8fd6	0.20269713
65	0xbddded30	-0.108362556
66	0xbd9e8d0b	-0.077417456
67	0x3e27e8d9	0.16397418
68	0xbd8127bd	-0.063064076
69	0xbd0f74e9	-0.035023604
70	0xbe381362	-0.17976144
71	0xbd7c11b7	-0.06154033
72	0xbe4ec749	-0.20193209
73	0xbb5177d1	-0.0031962285
74	0x3e2c5cc6	0.16832265
75	0x3b033c2c	0.002002488
76	0x3c353223	0.011059317
77	0xbe10a428	-0.1412512
78	0x3d0990be	0.033585303
79	0xbdd2f26d	-0.10300145
80	0x3d661cfa	0.056179978
81	0xbd7bb80a	-0.06145481
82	0x3b08b2dc	0.0020858562
83	0xbd46322a	-0.048387684
84	0xbe1ee865	-0.15518339
85	0xbe1412c5	-0.14460285
86	0x3e5038f6	0.20334229
87	0x3dcd6ab9	0.10030121
88	0x3ce729a1	0.028218092
89	0x3d9354db	0.07193919
90	0x3d4d3c0c	0.050106093
91	0x3d288bca	0.04114894
92	0xbe004d4d	-0.12529488
93	0x3d64d084	0.05586292
94	0x3e030c57	0.12797676
95	0xbd960068	-0.07324296
96	0x3d505636	0.050863467
97	0x3c99fd45	0.018797526
98	0xbe0ce771	-0.13760163
99	0x3e087e3c	0.13329405
100	0xbd9982c6	-0.07495646
101	0x3dc891f9	0.09793467
102	0xbe6ce134	-0.23132783
103	0x3d3cbb5b	0.046077114
104	0x3d157b35	0.036494453
105	0xbd0fd3a5	-0.03511395
106	0x3dbe3f1b	0.0928938
107	0x3d4d4b4c	0.050120637
108	0x3e3b9c05	0.18321235
109	0x3e0cd01f	0.13751267
110	0xbe4af496	-0.19819865
111	0x3d7ba39b	0.061435323
112	0xbd69006f	-0.05688518
113	0x3dda5e97	0.10662573
114	0xbe58e622	-0.21181539
115	0xbca667c8	-0.020313159
116	0x3d0385e7	0.03211012
117	0xbe46efce	-0.19427416
118	0xbd029804	-0.031883255
119	0xbc44bf51	-0.012008504
120	0xbe26a946	-0.1627551
121	0x3e0ddd4c	0.1385395
122	0xbceffd00	-0.029295444
123	0x39ebaa78	0.00044949702
124	0xbe19a719	-0.15005149
125	0x3e1bfe52	0.15233734
126	0x3cc69bac	0.024244152
127	0xbc707ba6	-0.014677918
128	0x3da31283	0.07962515
129	0x3e4650eb	0.19366805
130	0xbdd2a4bb	-0.10285326
131	0xbd10f6d3	-0.03539164
132	0x3cc4c411	0.024019273
133	0x3dd4d327	0.103918366
134	0x3dd7f48f	0.10544693
135	0xbc26359f	-0.01014462
136	0xbe28f6f4	-0.16500455
137	0xbd1a8ea5	-0.037733693
138	0xbd21532e	-0.039385967
139	0xbd557bee	-0.05212014
140	0x3cc7d494	0.024393357
141	0xbd1c3926	-0.03814044
142	0xbd9f0fcb	-0.07766684
143	0xbdf08eb2	-0.11745967
144	0x3db5ea00	0.088825226
145	0xbd8a8e6b	-0.06765445
146	0xbda82ecc	-0.08212051
147	0x3d4c5fbb	0.049895983
148	0xbe2dcc6f	-0.16972516
149	0xbd3aeff7	-0.045639005
150	0xbdbdba51	-0.09264053
151	0x3c65abd8	0.0140180215
152	0xbdfa775c	-0.12229797
153	0xbdc78478	-0.09742063
154	0x3e10fab8	0.14158142
155	0xbdfa5a61	-0.1222427
156	0x3dc1e44e	0.09467374
157	0xbd88f4db	-0.066873275
158	0x3dea86f9	0.11451525
159	0xbd99bdff	-0.07506942
160	0xbe33f346	-0.1757327
161	0x3db70009	0.089355536
162	0xbd997155	-0.074923195
163	0x3dcf6f9b	0.10128709
164	0x3de224aa	0.11042149
165	0x3e2725c0	0.16322994
166	0x3d638609	0.055547748
167	0x3ce837f7	0.028346999
168	0xbe2e50ce	-0.17023012
169	0x3d13daba	0.036097266
170	0x3d5bb4ef	0.05363935
171	0x3bb63815	0.0055608847
172	0xbe2cb54b	-0.16866033
173	0xbd2985a5	-0.04138722
174	0x3df93c11	0.1216966
175	0x3de43c08	0.111442626
176	0xbe5a4be7	-0.21318017
177	0x3d62027a	0.055178143
178	0xbe03a26e	-0.12854931
179	0x3da76853	0.08174195
180	0xbe074656	-0.13210425
181	0xbd82b908	-0.06382948
182	0x3d93e174	0.07220736
183	0x3d5e71cd	0.054307748
184	0x3a193a27	0.0005845152
185	0x3dbdf52d	0.09275279
186	0x3def40cc	0.11682281
187	0xbdc45f46	-0.095884845
188	0x3dadc89b	0.08485528
189	0x3c2fd30b	0.010731469
190	0xbd63f849	-0.055656705
191	0x3d78617d	0.060639847
192	0xbcf03a72	-0.029324744
193	0x3d00697e	0.031350605
194	0xbdeeaf44	-0.11654523
195	0xbbd5d49d	-0.0065255896
196	0x3a68be76	0.00088784785
197	0xbc725419	-0.014790558
198	0x3cfec379	0.031099068
199	0x3de42cca	0.11141355
200	0xbe044d29	-0.1292006
201	0x3cf98b31	0.03046188
202	0xbd7c9af7	-0.061671223
203	0xbcaa0a6b	-0.02075692
204	0xbdd0e09a	-0.10199089
205	0xbe0928f2	-0.13394526
206	0x3da97bb4	0.082755476
207	0x3d698f6d	0.057021547
208	0xbd2ecbd3	-0.04267485
209	0xbd65b0e5	-0.056076903
210	0xbe0e4395	-0.13892968
211	0xbd176148	-0.03695801
212	0xbdbe0511	-0.0927831
213	0x3deb2119	0.11480922
214	0xbce90c1b	-0.028448155
215	0xbcb99b48	-0.022657052
216	0x3df1d948	0.11809021
217	0xbd47eb38	-0.048808306
218	0xbd44a239	-0.04800627
219	0x3ce577c6	0.028011214
220	0xbd3d63ef	-0.046237882
221	0xbea002cd	-0.31252137
222	0x3e1c49e8	0.15262568
223	0xbc585901	-0.013204814
224	0xbdc9e5fc	-0.09858319
225	0xbe84ffc5	-0.25976387
226	0x3db416ad	0.087933876
227	0xbd86f24e	-0.06589185
228	0x3dba68bc	0.09102008
229	0x3e159a0f	0.1460955
230	0x3d8b783d	0.06810043
231	0xbd9f7ddf	-0.0778768
232	0x3ceac261	0.02865714
233	0x3b8e395e	0.004340335
234	0xbc1ab851	-0.0094433585
235	0xbc869c74	-0.016432025
236	0x3dbb4e21	0.09145761
237	0x3e234747	0.15945159
238	0xbce46321	-0.0278793
239	0x3dd57af6	0.104238436
240	0x3d98bb3f	0.07457589
241	0xbd9fc545	-0.07801298
242	0x3de229a3	0.11043098
243	0x3e3685a7	0.17824422
244	0x3df30b92	0.11867441
245	0x3d44d6cf	0.04805642
246	0xbc503b50	-0.012709454
247	0xbdb919e9	-0.09038145
248	0x3e1cdb57	0.15318047
249	0x3d54323a	0.051805712
250	0xbb876852	-0.004132309
251	0xbd912f2d	-0.07089076
252	0x3d643877	0.05571791
253	0xbdbcf2e2	-0.09226014
254	0xbd6ab66b	-0.057302874
255	0x3e7d03b6	0.24708447

layers.block_1.layer.0.bias f4 [128]
0	0x3d84f949	0.0649286
1	0xba939836	-0.0011260572
2	0x3c1366a0	0.008996636
3	0xbd5a34ac	-0.053272888
4	0x3d94b80c	0.07261667
5	0x3da3718c	0.07980642
6	0xbc6ee2c5	-0.014580433
7	0xbd62f57e	-0.0554099
8	0x3d1a2936	0.037636958
9	0xbd25d4a3	-0.04048599
10	0xbdba3836	-0.09092753
11	0xbc35bdcc	-0.011092614
12	0x3d8f5801	0.06999207
13	0x3d728212	0.059206076
14	0xb927b19e	-0.00015992529
15	0xbd60fd47	-0.054929044
16	0x3dc519ff	0.09624099
17	0xbc62b2a3	-0.013836536
18	0x3db072d0	0.08615649
19	0xbc430b20	-0.011904508
20	0xbd184c39	-0.037182067
21	0x3d051dd3	0.032499146
22	0x3ce6efef	0.028190581
23	0xbda2fa01	-0.07957841
24	0x3d70c281	0.058779243
25	0xbd703109	-0.058640514
26	0xbb9eebc7	-0.004849884
27	0x3d5842d6	0.052798115
28	0xbd6e2c4d	-0.058147717
29	0xbaa1e748	-0.0012352252
30	0x3cc270c2	0.023735408
31	0x3d46555f	0.04842126
32	0xbd8da9fb	-0.06917187
33	0x3da55144	0.08072141
34	0xbdc3b549	-0.09556062
35	0xbc12c4eb	-0.008958082
36	0x3da224ca	0.07917173
37	0x3d3301f8	0.04370305
38	0xbcc8d763	-0.024516767
39	0xbc420538	-0.011842065
40	0xbcba2965	-0.022724817
41	0xbce02e82	-0.027365927
42	0x3d12d564	0.035848036
43	0xbd5fc85c	-0.054634437
44	0xbd7dd428	-0.061969906
45	0x3c28193b	0.010259922
46	0x3db65469	0.08902819
47	0x3d330fca	0.04371623
48	0x3d730d39	0.059338782
49	0x3d279602	0.040914543
50	0xbc56eb17	-0.013117573
51	0x3d586f08	0.052840263
52	0x3d8ff51c	0.07029173
53	0xbd05e242	-0.03268648
54	0x3ca2b0ac	0.019859634
55	0x3d1eaef6	0.038741075
56	0xbc87f1d1	-0.0165948
57	0xbdd8c229	-0.10583908
58	0xbd6a9c69	-0.05727807
59	0x3c30b842	0.010786118
60	0x3c7bff2f	0.015380665
61	0x3dc3a013	0.09552016
62	0x3cab381d	0.02090078
63	0x3bd92cbb	0.0066276467
64	0xbcf3f42f	-0.029779522
65	0xbcaa4551	-0.020785006
66	0xbcad3d82	-0.021147493
67	0x3d46dc28	0.0485498
68	0xbcbae561	-0.022814455
69	0xbd800e8e	-0.06252776
70	0xbda422b2	-0.0801443
71	0x3e074a77	0.13212
72	0xbdb7ab44	-0.08968213
73	0xbd70ec66	-0.058819197
74	0xbdfc4688	-0.1231814
75	0xbd54b604	-0.051931396
76	0x3c86d0b9	0.016456949
77	0x3d61e763	0.05515231
78	0x3cd60fcf	0.026130585
79	0x3d8d91b2	0.06912555
80	0xbd8a91a3	-0.06766059
81	0x3db8de38	0.0902676
82	0x3c96a71d	0.018390233
83	0x3b76ead5	0.0037676592
84	0xbd4a3f50	-0.049376786
85	0xbdbf4623	-0.093395494
86	0x3dc66673	0.096875094
87	0xbcd79e7b	-0.026320687
88	0xbbf83d9c	-0.007575704
89	0x3d9a4682	0.075329795
90	0xbd3f785c	-0.046745643
91	0x3c8ef093	0.0174487
92	0x3dc10e31	0.09426535
93	0x3d0498f8	0.032372445
94	0x3dac0b86	0.084006354
95	0x3dade441	0.084908016
96	0x3dd4b10b	0.10385331
97	0x3d596d02	0.053082474
98	0xbd8d874d	-0.06910572
99	0x3db0e436	0.08637278
100	0x3cc165e1	0.02360815
101	0xbc83feb1	-0.016112657
102	0xbb9aa22d	-0.00471904
103	0x3caccf8e	0.021095064
104	0xbdaabf96	-0.08337323
105	0x3da179ba	0.078845456
106	0x3da2c7e7	0.079482846
107	0xbda1eb2f	-0.07906186
108	0xbd571c46	-0.052517198
109	0x3da2bdb7	0.079463415
110	0x3dd20ce8	0.10256368
111	0x3d8d5144	0.06900266
112	0x3cb13e32	0.021636102
113	0x3d974bc7	0.073875
114	0xbd9b018e	-0.07568656
115	0x3d8b11be	0.067904934
116	0x3d49462b	0.049139183
117	0x3d961af1	0.073293574
118	0x3a2fb570	0.00067027565
119	0x3da88e36	0.082302496
120	0xbd6ff949	-0.058587346
121	0xbd05a800	-0.03263092
122	0x3d9ef5a1	0.07761694
123	0xbd98f4d0	-0.07468569
124	0x3dbb6331	0.09149779
125	0x3d987fbf	0.07446241
126	0x3cfa7ec1	0.03057802
127	0x3d2de3f3	0.042453717

layers.block_2.layer.0.weight f4 [128, 128]
0	0x3d53225c	0.05154644
1	0xbe071c0c	-0.13194293
2	0xbd7aa297	-0.061190214
3	0x3d951227	0.07278853
4	0xbd3ea729	-0.046546135
5	0x3e1d3e0b	0.15355699
6	0x3db199d1	0.08671916
7	0xbd9212ff	-0.071325295
8	0xbd8288f1	-0.06373776
9	0x3d9db83a	0.07701154
10	0xbd800ebd	-0.06252811
11	0x3cf61247	0.030038012
12	0x3d506767	0.050879862
13	0x3d2693bb	0.04066823
14	0x3d321d42	0.043484934
15	0x3b353cc9	0.002765464
16	0x3d2faf29	0.042891655
17	0xbc778f2d	-0.015109819
18	0xbd22e39a	-0.03976784
19	0x3d0830ed	0.033249784
20	0x3ca88654	0.020571865
21	0xbaf36135	-0.0018568399
22	0xbd406992	-0.04697568
23	0xbe0cf600	-0.13765717
24	0xbdbc6ba5	-0.09200219
25	0xbc90ee17	-0.017691655
26	0x3d6efbd7	0.058345642
27	0xbe098d12	-0.1343272
28	0xbdc3bcc6	-0.0955749
29	0xbd2ff134	-0.04295464
30	0x3d955da8	0.07293254
31	0xbc47a391	-0.012184993
32	0xbd8f46dc	-0.06995937
33	0x3c9b4687	0.018954528
34	0x3cb1d471	0.021707745
35	0x3dc3734b	0.09543475
36	0xbd5549e7	-0.052072432
37	0x3d2c10d3	0.042008232
38	0x3def86da	0.11695643
39	0x3d916157	0.07098644
40	0x3dd2a0b3	0.10284557
41	0x3d395091	0.04524285
42	0xbdaf25e7	-0.08552151
43	0xbda890c9	-0.082307406
44	0xbbe5ef6f	-0.007017068
45	0xbc207ae6	-0.009794926
46	0x3da85655	0.082195915
47	0xbd80d520	-0.0629065
48	0x3da5d3a5	0.080970086
49	0x3d49701a	0.049179174
50	0xbd2afafd	-0.041743267
51	0xbb52a8c0	-0.003214404
52	0x3de1180c	0.10990915
53	0x3d818007	0.063232474
54	0xbcbd234d	-0.023088122
55	0x3e05d3a8	0.13069022
56	0x3da3c6a8	0.07996875
57	0xbdf7a229	-0.120914765
58	0xbc4f1939	-0.012640291
59	0xbd062a9f	-0.03275549
60	0xbdbdc045	-0.09265188
61	0xbdbee402	-0.09320833
62	0xbdba1685	-0.090863265
63	0x3d61fcd5	0.05517276
64	0x3cbffe5e	0.023436721
65	0xbd3d776c	-0.046256468
66	0xbd4ce8af	-0.050026592
67	0xbc9c54ed	-0.019083465
68	0xbd837f5d	-0.06420777
69	0x3d06a09b	0.03286801
70	0xbdc1f34e	-0.09470235
71	0xbda11d09	-0.07866866
72	0xbd0eea47	-0.034891393
73	0x3bcc8ed5	0.006242613
74	0x3ce5f67e	0.028071638
75	0x3cd3d754	0.025859512
76	0xbb3b9a6c	-0.0028625978
77	0xbbd8f94c	-0.0066215154
78	0x3c8627ee	0.016376462
79	0x3d9b7be8	0.075919926
80	0x3d3b6898	0.045754045
81	0xbc80fbb0	-0.015745014
82	0x3d47cbd8	0.048778385
83	0xbd3edeaa	-0.046599068
84	0xbde7f34b	-0.11325701
85	0x3d3c2883	0.045937072
86	0x3cb2f1fa	0.021843899
87	0x3c781f7f	0.015144228
88	0xbd0ff80d	-0.03514867
89	0x3dd9f52c	0.10642466
90	0xb861f5b6	-5.3873016e-05
91	0xbdbd114b	-0.09231814
92	0x3b341f5d	0.0027484514
93	0x3d963e84	0.07336143
94	0xbdff797f	-0.124743454
95	0xbc648a8b	-0.013949047
96	0x3dd7a578	0.105296075
97	0x3c56363d	0.013074455
98	0x3ce65572	0.028116915
99	0xbd91cff8	-0.07119745
100	0x3b322c89	0.002718719
101	0x3c906f63	0.017631238
102	0xbc129a41	-0.00894791
103	0xbbbac7f1	-0.0057001044
104	0xbda4c515	-0.08045403
105	0x3df0ef70	0.11764419
106	0xbcd0f4c3	-0.025507336
107	0xbd01068a	-0.031500377
108	0xbd5ae802	-0.053443916
109	0x3c2bb403	0.01047993
110	0xbc4fb6e6	-0.012677884
111	0xbc367025	-0.011135136
112	0x3d97105d	0.07376168
113	0xbd9c995f	-0.07646441
114	0xbd9f3f6d	-0.077757694
115	0xbd3d2cad	-0.046185184
116	0xbd83f4bf	-0.06443166
117	0xbcbff73d	-0.023433322
118	0xbce8d329	-0.028421002
119	0xbd070dd9	-0.03297219
120	0xbd9b275d	-0.07575867
121	0x3c3cee44	0.011531416
122	0xbd270d66	-0.040784262
123	0xbd68b1d0	-0.0568102
124	0x3d3e6c6c	0.046490118
125	0x3db62c3f	0.08895158
126	0xbc9c3342	-0.01906741
127	0x3db2918e	0.087191686
128	0x3df4b831	0.11949194
129	0x3da41c45	0.080132045
130	0xbd7ab4fa	-0.06120775
131	0x3df6eaf9	0.12056536
132	0xbda7f9ab	-0.08201917
133	0x3e5c7f2a	0.21532884
134	0x3dc345a1	0.09534765
135	0x3df3537e	0.11881159
136	0x3da95f4f	0.08270132
137	0xbd49afe0	-0.049239993
138	0x3e129081	0.14312936
139	0x3e6edc72	0.2332628
140	0xbb2eb7b1	-0.0026659782
141	0xbc01a200	-0.007912159
142	0x3bab5176	0.0052282168
143	0x3c905610	0.017619163
144	0xbddf0481	-0.10889531
145	0xbd124c6f	-0.035717424
146	0x3c9883ab	0.018617472
147	0x3dfe2cab	0.124108635
148	0x3c8983c9	0.016786473
149	0xbdbc7dc0	-0.092036724
150	0x3dba2f92	0.090911046
151	0x3d475a1f	0.04866993
152	0x3d88bc64	0.06676558
153	0x3cd9de20	0.026595175
154	0x3e539709	0.20663084
155	0xbd12199b	-0.03566895
156	0x3e2397fa	0.15975943
157	0xbad43c03	-0.0016192201
158	0x3d999051	0.07498229
159	0xbc453d8f	-0.0120386025
160	0xbce76fa1	-0.028251471
161	0xbd084414	-0.03326805
162	0x3e10bbdd	0.14134164
163	0xbd9c1616	-0.076214
164	0xbd3004ee	-0.04297345
165	0x3bd44084	0.0064774174
166	0xb9b730ce	-0.00034940842
167	0x3db4cd11	0.08828176
168	0x3df55a17	0.11980074
169	0xbdbc5dd3	-0.09197583
170	0xbe2e5adc	-0.17026848
171	0x3c09d975	0.008413662
172	0xbc62fee3	-0.013854715
173	0xbc007dde	-0.007842509
174	0x3d3ad57d	0.045613755
175	0x3d8d9937	0.06913989
176	0xbcfa8103	-0.030579096
177	0xbd76cc5e	-0.060253493
178	0x3cd737a9	0.026271658
179	0xbd56356b	-0.052297037
180	0x3c719a66	0.014746284
181	0xbd9c5dbe	-0.076350674
182	0xbe0d5931	-0.13803555
183	0x3d06f453	0.03294785
184	0xbe71622b	-0.23572604
185	0xbd7c030b	-0.06152634
186	0x3cd85f06	0.026412498
187	0x3d915f18	0.07098216
188	0xbd23a8b3	-0.039955806
189	0xbe0e2aff	-0.13883589
190	0x3cf5faea	0.030026872
191	0x3cf3015f	0.02966374
192	0xbc1c0044	-0.009521548
193	0xbdf949c7	-0.12172275
194	0x3d097811	0.03356177
195	0x3d028633	0.031866264
196	0x3c90797b	0.017636051
197	0x3d3146e1	0.043280486
198	0xbd4bee5e	-0.04978787
199	0xbe5fbdb4	-0.2184971
200	0x3df5bc39	0.11998791
201	0x3e0928e3	0.13394503
202	0x3cc51c5f	0.02406138
203	0x3d75a43c	0.05997108
204	0x3d25e36b	0.040500086
205	0x3d4cefcf	0.050033387
206	0x3db6fad5	0.08934561
207	0x3dde3c7a	0.10851379
208	0x3dca59e2	0.09880425
209	0xbc87122d	-0.01648816
210	0xbb773fc0	-0.0037727207
211	0x3e03bdae	0.12865326
212	0x3ddbad2c	0.10726389
213	0x3dd06a6b	0.101765476
214	0x3c2eecc5	0.010676567
215	0x3e063ce2	0.13109162
216	0x3da6845b	0.081307136
217	0x3d21f9a2	0.03954471
218	0x3ce9876d	0.028506959
219	0x3d4b9326	0.04970088
220	0xbdeb7852	-0.11497559
221	0x3be3c707	0.006951216
222	0x3de5a73d	0.11213539
223	0xbb196807	-0.0023407952
224	0x3e034345	0.1281863
225	0x3c6de229	0.014519253
226	0xbdb8f933	-0.09031906
227	0x3d26cdb3	0.040723514
228	0xbde27c3e	-0.110588536
229	0xbd1284dc	-0.035771236
230	0xbd630d4f	-0.055432614
231	0x3b73338a	0.0037109577
232	0x3d9829c8	0.07429844
233	0x3e4674e9	0.19380535
234	0x3d70caba	0.058787085
235	0xbce58ddc	-0.028021745
236	0x3d835d8c	0.06414327
237	0xbdb435b7	-0.08799308
238	0xbd7957d9	-0.060874794
239	0x3d56b364	0.052417174
240	0x3dd6d4f1	0.10489834
241	0xbd3f3ecb	-0.046690743
242	0xbabb735c	-0.0014301348
243	0xbd6e0033	-0.05810566
244	0xbdcc31a7	-0.09970408
245	0xbe131712	-0.1436427
246	0x3df1bee6	0.11803989
247	0x3dbfe23a	0.09369321
248	0xbd421c75	-0.04739042
249	0xbd3200b5	-0.043457706
250	0xbe2c1ed8	-0.16808641
251	0x3e2ae5b9	0.16689195
252	0x3d2b5a82	0.04183436
253	0xbde37031	-0.11105383
254	0xbed423c2	-0.4143353
255	0xbeb03967	-0.34418795

layers.block_2.layer.0.bias f4 [128]
0	0x3d9e9d6f	0.07744872
1	0xbddc96f7	-0.10770982
2	0xbcaa74dc	-0.020807676
3	0xbbcc9203	-0.006242992
4	0x3cbff480	0.023432016
5	0x3dab5dae	0.08367477
6	0x3c51e0fc	0.012809988
7	0x3cb1dfa8	0.021713093
8	0x3cfdc9ba	0.03097998
9	0xbdac04ff	-0.083993904
10	0xbde1388c	-0.109971136
11	0xbdac2965	-0.08406333
12	0x3d0c5eff	0.034270283
13	0xbd1e10cc	-0.038590237
14	0xbb33e61e	-0.0027450393
15	0x3dc3a8e8	0.09553701
16	0x3dafc236	0.08581965
17	0xbdab6943	-0.083696865
18	0x3df02f37	0.117277555
19	0x3d14b55f	0.03630578
20	0xbc846f02	-0.016166214
21	0x3de22aed	0.11043344
22	0xbd032f25	-0.032027382
23	0xbda3bead	-0.07995353
24	0xbdaae8c7	-0.0834518
25	0x3d032b91	0.03202397
26	0x3aabac75	0.0013097661
27	0x3d01ddbe	0.03170561
28	0xbbff2b5c	-0.0077871513
29	0xbcfbf48d	-0.03075626
30	0xbd4daf58	-0.05021605
31	0xbdc6be62	-0.097042814
32	0xbc94d6b8	-0.018168792
33	0x3d6cb606	0.05779078
34	0xbc8ba5ed	-0.017046893
35	0x3cb58e68	0.022162631
36	0x3b2ab26c	0.002604629
37	0xbd065b6c	-0.03280203
38	0xbd7bef93	-0.061507773
39	0x3daf831b	0.08569928
40	0x3cdd17d1	0.026988896
41	0x3d8729b6	0.065997526
42	0xbc1a48b2	-0.009416746
43	0x3d393c7e	0.045223705
44	0xbd884567	-0.066538624
45	0x3cfb1474	0.030649401
46	0xbc36926d	-0.011143309
47	0xbd90a573	-0.07062807
48	0xbc12b2ca	-0.008953759
49	0x3d1b4255	0.037905056
50	0x3dc12dec	0.09432587
51	0xbd878377	-0.06616872
52	0xbc8bdabb	-0.017072072
53	0xbd731e4a	-0.059355058
54	0x3d793efb	0.06085108
55	0xbd8b29e0	-0.067950964
56	0x3d4e32bb	0.05034135
57	0xbdcaad19	-0.09896297
58	0x3a942518	0.0011302559
59	0xbd93b58f	-0.07212364
60	0x3d0da1ae	0.034578018
61	0x3b03378e	0.0020022127
62	0xbd9a69ac	-0.075396866
63	0x3dc122e8	0.09430486
64	0xbd67e769	-0.056617174
65	0xbbafb469	-0.0053620827
66	0xbca183d1	-0.019716175
67	0xbd4f292b	-0.05057637
68	0x3d023aa5	0.03179421
69	0x3d2f14f5	0.042744596
70	0xbd798173	-0.060914468
71	0xbd0b0703	-0.033942234
72	0xbd7ef5bf	-0.06224608
73	0x3db2baf5	0.087270655
74	0xbd5902d1	-0.0529812
75	0xbd7d67de	-0.061866634
76	0x3d0d7778	0.034537762
77	0x3d3e11ea	0.046403803
78	0x3d0389aa	0.03211371
79	0x3d4ca987	0.04996636
80	0xbd11eb77	-0.035624947
81	0xbc1d79d4	-0.009611566
82	0xbc5806e4	-0.013185237
83	0xbc0f6dea	-0.008754233
84	0xbdf4205c	-0.119202346
85	0x3c4989e3	0.012300941
86	0x3d94738a	0.072486
87	0xbd5b335e	-0.053515784
88	0x3cc399ff	0.023877142
89	0x3d7ca069	0.061676417
90	0xbd09be68	-0.03362885
91	0xbd7ca035	-0.061676223
92	0xbd33fdde	-0.04394328
93	0xbd1e3e7f	-0.03863382
94	0x3d023fea	0.031799234
95	0x3d282c35	0.041057784
96	0x3d48c600	0.049016953
97	0xbceca5b9	-0.028887616
98	0xbd440cee	-0.047863893
99	0x3d456dd1	0.048200432
100	0xbdb25373	-0.08707323
101	0xbd7f04d0	-0.06226045
102	0x3d21ca27	0.039499428
103	0x3c6e797b	0.01455533
104	0xbd9fbde2	-0.07799889
105	0x3da00f4d	0.078154184
106	0x3b1ab244	0.002360479
107	0x3d3312c6	0.043719076
108	0x3cf3b17b	0.029747715
109	0x3c9dcee4	0.019263692
110	0xbdd8b599	-0.10581512
111	0xbdb4e2bc	-0.08832309
112	0x3d802565	0.062571324
113	0x3d8b1a1b	0.067920886
114	0xbd6748c5	-0.056465883
115	0x3bb4d16d	0.0055181296
116	0xbc2a9d16	-0.010413429
117	0x3daee243	0.0853925
118	0xbd997280	-0.07492542
119	0xbd1a1d11	-0.037625376
120	0xbd9c3a11	-0.07628263
121	0xbc911a93	-0.017712867
122	0xbdb099b9	-0.0862307
123	0x3bd311f8	0.006441351
124	0x3da5296b	0.080645405
125	0xbc899866	-0.016796302
126	0xbd9454c0	-0.07242727
127	0xbd967e56	-0.073483154

layers.block_3.layer.0.weight f4 [128, 128]
0	0xbd4bf84c	-0.04979734
1	0xbdbf0602	-0.09327318
2	0x3db24740	0.08704996
3	0x3d8691eb	0.065708004
4	0x3d9f301a	0.077728465
5	0xbca50316	-0.020143073
6	0x3db543df	0.08850836
7	0x3db18808	0.08668524
8	0xbd0a69b1	-0.0337922
9	0x3dc2feda	0.09521265
10	0xbd0f865d	-0.03504025
11	0xbdc3bc5a	-0.095574096
12	0x3cf52757	0.029925985
13	0x3db8450a	0.08997543
14	0xbd12c418	-0.03583154
15	0xbb6ba4af	-0.0035956313
16	0x3d0033cd	0.0312994
17	0xbbb6ae05	-0.005574944
18	0x3d7876a7	0.06066003
19	0x3dae9cf8	0.08526033
20	0xbd828ce4	-0.06374529
21	0xbd2a51d1	-0.041581932
22	0xbe078e63	-0.1323791
23	0x3da604ad	0.081063606
24	0x3e80ea05	0.25178543
25	0x3dd10da1	0.10207678
26	0xbd0403ac	-0.032230064
27	0xbe2ac8e3	-0.16678195
28	0x3d2f0522	0.042729504
29	0x3dc0d1b2	0.09414996
30	0xbde84d1f	-0.11342835
31	0x3d90bce0	0.07067275
32	0x3cdcd241	0.026955726
33	0xbdf062b7	-0.11737578
34	0xbd2a1b14	-0.04152973
35	0xbde9d9b8	-0.1141848
36	0x3d94c6aa	0.07264455
37	0xbd24d13c	-0.040238604
38	0xbd7d8ecf	-0.06190377
39	0x3d000b4a	0.031260766
40	0x3d60da02	0.05489541
41	0x3d8471dc	0.064670295
42	0x3c4089c1	0.011751593
43	0x3db9ef4a	0.09078844
44	0x3cb348f5	0.021885375
45	0xbc097a7e	-0.008391021
46	0xbacc6c73	-0.0015596285
47	0x3dbabe25	0.091182984
48	0xbb752bb9	-0.0037410094
49	0x3e0b79fc	0.13620752
50	0xbd4db311	-0.0502196
51	0x3b809194	0.0039236043
52	0x3d9daba5	0.07698754
53	0xbce3c03f	-0.027801631
54	0xbd0d64fb	-0.03452013
55	0xbda362f6	-0.0797786
56	0xbe2787ef	-0.16360448
57	0xbd8b0281	-0.06787587
58	0x3bc83372	0.0061096484
59	0x3d8122ba	0.06305452
60	0xbdc03a74	-0.09386149
61	0xbe133107	-0.14374171
62	0xbd6f0792	-0.05835683
63	0xbdb0b5f8	-0.08628458
64	0xbcf7be57	-0.030242128
65	0xbd931d25	-0.07183293
66	0x3cd7a890	0.026325494
67	0x3d5a1f55	0.053252537
68	0x3d6ce6c0	0.057837248
69	0xbd14df00	-0.036345482
70	0x3b83b128	0.0040189214
71	0x3e0808a7	0.1328455
72	0xbd5c97e1	-0.05385578
73	0xbdbb7c99	-0.091546245
74	0xbd73b673	-0.05950017
75	0x3deb55d2	0.11490978
76	0x3e0208f5	0.1269873
77	0xbd757f03	-0.05993558
78	0xbda39ca5	-0.07988862
79	0x3cc26fbc	0.02373492
80	0xbc870c83	-0.016485458
81	0x3de61e53	0.11236253
82	0xbc8f338d	-0.017480636
83	0x3d505f11	0.050871912
84	0xbce1333b	-0.027490249
85	0x3ce29f37	0.02766381
86	0xbcc8f98b	-0.024533054
87	0x3cad1d3c	0.021132104
88	0x3dd9fd4d	0.106440164
89	0x3d9aa6c7	0.075513415
90	0xbd8b8f73	-0.0681447
91	0xbd6e3549	-0.058156285
92	0xbdf113e1	-0.1177137
93	0x3d855467	0.06510239
94	0x3d38ef75	0.04515024
95	0xbdb39589	-0.08768756
96	0x3b98cdd3	0.004663208
97	0x3d83ef36	0.0644211
98	0x3d476d35	0.048688132
99	0x3de882b1	0.113530524
100	0xbdeb371b	-0.1148512
101	0x3b23c723	0.002499052
102	0x3ce3a237	0.027787311
103	0x3da4f716	0.080549404
104	0x3d641555	0.055684406
105	0xbd1b8801	-0.0379715
106	0xbdb31dd6	-0.08745925
107	0x3d6cd5b3	0.057820987
108	0x3e41284b	0.18863027
109	0x3d8ed2d4	0.06973806
110	0x3d037a6a	0.032099165
111	0x3d16c5be	0.036809675
112	0x3da9d9fc	0.0829353
113	0x3d161d99	0.03664932
114	0x3d6fc565	0.05853786
115	0xbc90b135	-0.017662624
116	0x3c1f1ca0	0.009711415
117	0x3dce7586	0.100810096
118	0xbda8987e	-0.082322106
119	0x3d929f26	0.071592614
120	0x3d2a1897	0.041527357
121	0x3ddc1faa	0.10748227
122	0x3d0318b9	0.032006
123	0x3e06039c	0.13087314
124	0xbd42f104	-0.04759313
125	0x3c201b34	0.009772111
126	0x3d6cfb17	0.057856645
127	0xbd8b6160	-0.06805682
128	0x39f713a1	0.00047126136
129	0x3d62aae3	0.05533875
130	0x3e1be73d	0.15224929
131	0x3c3c46d6	0.011491498
132	0xbddb4cfb	-0.10708042
133	0xbd5c6f4e	-0.053817086
134	0xbd9f4e38	-0.07778591
135	0xbe02b3f2	-0.12763956
136	0x3c61d943	0.013784709
137	0x3d7d84e4	0.061894313
138	0xbb8ef6b7	-0.004362907
139	0xbe1968c6	-0.14981374
140	0xbe33bf8a	-0.17553535
141	0xbd1733e3	-0.036914717
142	0x3cc99547	0.024607314
143	0xbccdc359	-0.025117563
144	0xbb22a868	-0.0024819616
145	0x3b119e0f	0.0022219454
146	0x3af7bdb8	0.0018901145
147	0xbd3fcf53	-0.04682858
148	0x3d1b985d	0.0379871
149	0xbe73e49c	-0.23817676
150	0xbe0f2061	-0.13977195
151	0xbd2509fc	-0.040292725
152	0xbd0596b8	-0.03261444
153	0xbd28ab70	-0.04117912
154	0xbdeb74c5	-0.114968814
155	0xbdde1d9b	-0.108454905
156	0xbac12a80	-0.0014737397
157	0xbced2f8c	-0.028953336
158	0xbda9aa48	-0.08284432
159	0xbc98ee03	-0.01866818
160	0x3d1e2e26	0.03861823
161	0x3e290221	0.16504718
162	0xbd913ff6	-0.07092278
163	0xbd00ee26	-0.031477116
164	0x3d2ad61f	0.041708108
165	0xbd9c527d	-0.07632921
166	0x3cd3df2d	0.025863254
167	0xbd980ae2	-0.07423951
168	0xbdca3d03	-0.09874918
169	0xbcd33f70	-0.025787085
170	0xbc7e95a6	-0.015538609
171	0xbd3ed9b9	-0.046594355
172	0xbd437436	-0.04771825
173	0xbdf9915b	-0.121859275
174	0x3d30c37c	0.04315518
175	0xbcb04a4d	-0.021519804
176	0xbdbedf71	-0.09319962
177	0x3c9309e0	0.017949045
178	0x3c8be465	0.01707668
179	0x3d379a56	0.04482492
180	0xbe19f549	-0.15034975
181	0xbcd5f170	-0.026116103
182	0xbb5001f2	-0.003173944
183	0xbc78be64	-0.015182111
184	0x3e6bb561	0.2301841
185	0xbc8ef620	-0.017451346
186	0xbd58d086	-0.05293324
187	0xbe0b48b6	-0.13601956
188	0xb9c679c1	-0.00037856217
189	0xbd82d803	-0.06388857
190	0xbcaa05ff	-0.020754812
191	0x3cbc1b99	0.022962378
192	0xbda00a10	-0.07814419
193	0x3c077cba	0.008269483
194	0xbdb8423e	-0.0899701
195	0x3dd75b0b	0.10515412
196	0x3c05e619	0.008172535
197	0x3cdae424	0.026720114
198	0x3ce94b00	0.028478146
199	0xbe18e022	-0.1492925
200	0xbda65958	-0.0812251
201	0xbdb827be	-0.08991955
202	0xbd8074ca	-0.06272276
203	0x3d5ea8b6	0.054360114
204	0x3c8d1d42	0.017225865
205	0xbc72ea66	-0.014826393
206	0x3d96c9d4	0.073627144
207	0x3dab09ef	0.08351504
208	0x3c9271f3	0.0178766
209	0x3e05373d	0.13009353
210	0xbe15c54a	-0.14626041
211	0xbd940d43	-0.07229092
212	0x3d254299	0.040346716
213	0xbe06ff41	-0.13183309
214	0xbd8d2d2d	-0.06893382
215	0xbbd62e18	-0.0065362565
216	0xbc87ad59	-0.01656215
217	0x3d1dfa89	0.038569007
218	0x3c98995d	0.018627817
219	0xbd500702	-0.050787933
220	0x3ce205a7	0.027590586
221	0x3d699e33	0.057035636
222	0xbe0577c8	-0.13033974
223	0x3c6f090b	0.014589558
224	0x3cc67e30	0.024230093
225	0xbe0545a3	-0.13014846
226	0x3ddb43fc	0.10706326
227	0x3e321607	0.17391215
228	0xbcc8e2ae	-0.024522152
229	0x3e4aed1a	0.1981701
230	0x3d89bbf8	0.06725305
231	0xbcaeab13	-0.021321809
232	0x3c879cc0	0.016554236
233	0xbcd973e2	-0.026544515
234	0x3d595a5a	0.05306468
235	0xbd1d370b	-0.03838257
236	0x3dc31068	0.095246136
237	0xbd1a21d3	-0.037629914
238	0xbcea44e3	-0.0285973
239	0x3d4062c0	0.046969175
240	0xbdab73f0	-0.08371723
241	0x3dba16d2	0.09086384
242	0x3d068458	0.032841057
243	0x3d224345	0.039614934
244	0xbda8fd45	-0.08251432
245	0x3c821bf4	0.01588247
246	0xbdb30716	-0.08741586
247	0xbc12d89c	-0.0089627765
248	0x3d175601	0.036947254
249	0xbd8361d3	-0.06415143
250	0xbdaccee6	-0.084379
251	0x3cb60050	0.022216946
252	0xbd8869ce	-0.06660806
253	0xbda79128	-0.08181983
254	0xbc885e27	-0.016646458
255	0xbdbac5ce	-0.091197595

layers.block_3.layer.0.bias f4 [128]
0	0x3cbe32a1	0.023217501
1	0x3d6d72c4	0.057970777
2	0x3bcb3fad	0.006202659
3	0x3d43c4a1	0.04779494
4	0x3d29146a	0.041279234
5	0xbb86af85	-0.004110279
6	0xbdc90b16	-0.098165676
7	0x3d75c873	0.060005616
8	0xbd70596f	-0.05867904
9	0xbd6c7ea5	-0.057737965
10	0x3cc376cd	0.02386036
11	0xbd250c5e	-0.040294997
12	0xbd10ca99	-0.035349462
13	0x3cd7cced	0.026342833
14	0x3d72f5cf	0.059316453
15	0xbce26329	-0.027635174
16	0x3d659fbb	0.056060534
17	0xbdbb02b8	-0.09131378
18	0xbdb9e599	-0.090769954
19	0xbdc576a4	-0.096417695
20	0xbd985ac1	-0.07439185
21	0xbdab07d4	-0.083511025
22	0x3abeaf5d	0.0014548112
23	0xbce9e93c	-0.028553598
24	0x3d9e558b	0.0773116
25	0x3d28e6a8	0.041235596
26	0x3d01d4d4	0.03169711
27	0x3da549c8	0.08070713
28	0xbd10c525	-0.03534426
29	0x3bccddff	0.00625205
30	0xbd0cb32d	-0.034350563
31	0xbd3ad9a4	-0.045617715
32	0x3cea5376	0.02860425
33	0xbc41f627	-0.011838472
34	0xbd86a377	-0.06574147
35	0xbc2649e3	-0.010149452
36	0xbd5fba4b	-0.054621022
37	0xbdb87388	-0.09006411
38	0x3d0fb0f9	0.035080884
39	0xbd67e7ad	-0.056617428
40	0xbd75e6d2	-0.06003458
41	0xbdcbee5b	-0.09957572
42	0xbd8f35ae	-0.069926605
43	0x3d82936c	0.06375775
44	0xbbfa4d8a	-0.007638638
45	0x3c7940c5	0.015213196
46	0xbcc0e91f	-0.02354866
47	0xbddc6b84	-0.107626945
48	0x3dab861b	0.08375188
49	0x3d8d1d2c	0.0689033
50	0x3d014685	0.031561393
51	0x3d3be71f	0.04587471
52	0xbac8c807	-0.0015318402
53	0x3cff4244	0.031159528
54	0xbd7142b4	-0.058901504
55	0x3ca8499a	0.020542908
56	0x3da483d8	0.0803296
57	0xbda82d80	-0.082118034
58	0xbd2e046c	-0.042484686
59	0xbd8ba70a	-0.068189695
60	0x3d43e1f0	0.047822893
61	0x3dae59f8	0.08513254
62	0xbd553f15	-0.052062113
63	0x3d10cdcd	0.035352517
64	0x3caf7edc	0.021422796
65	0x3ad69bb9	0.0016373313
66	0x3dd2df64	0.10296515
67	0xbde65a47	-0.11247688
68	0xbd14a788	-0.036292583
69	0x3c6d86bd	0.014497456
70	0xbc3021fa	-0.010750288
71	0xbc5fa3a3	-0.013649854
72	0x3ccf52ca	0.025308032
73	0xbdb27be3	-0.08715036
74	0xbd68101d	-0.05665599
75	0x3d3553b7	0.04426929
76	0xbd3bf928	-0.04589191
77	0xbd7603b4	-0.060062125
78	0xbaa6c7a4	-0.0012724292
79	0x3c630933	0.013857174
80	0xbc5240b6	-0.012832811
81	0x3d2c062f	0.041998085
82	0xbdabd335	-0.08389894
83	0xbd8ec870	-0.06971824
84	0x3db85bdf	0.09001898
85	0xbdd285fa	-0.1027946
86	0xbd1c349b	-0.038136106
87	0x3d8c1412	0.068397656
88	0xbc102207	-0.008797175
89	0xbd51ab24	-0.051188603
90	0x3cfa7077	0.030571206
91	0xbcb5bedf	-0.022185741
92	0xbc894fdd	-0.016761715
93	0x3d147675	0.036245782
94	0xbd8abb4c	-0.06774005
95	0x3d84d2c5	0.064855136
96	0xbc2615d7	-0.010137043
97	0x3d00ed4f	0.031476315
98	0xbd3b5fc9	-0.045745645
99	0x3c54e393	0.012993711
100	0x3c003d6d	0.007827145
101	0x3e03770c	0.12838382
102	0xbdafddd8	-0.08587235
103	0x3d1e7e24	0.038694516
104	0x3d513bc6	0.051082395
105	0x3d8bdaaa	0.06828816
106	0x3de3ea3b	0.1112866
107	0xbd53706e	-0.051620893
108	0xbcf4dd15	-0.029890576
109	0x3d444653	0.04791863
110	0xbcb620e4	-0.02223248
111	0xbdabce51	-0.08388961
112	0xbd8e89f9	-0.0695991
113	0xbd57d6f8	-0.052695245
114	0xbabdcab6	-0.0014479968
115	0x3c5c1a33	0.013433981
116	0x3dc09beb	0.09404739
117	0xbd728cb8	-0.05921623
118	0xbd732c10	-0.059368193
119	0x3dbf455a	0.093394
120	0x3c67218a	0.014107117
121	0x3da874b9	0.08225388
122	0x3d9c4b6f	0.07631575
123	0x3ba7deff	0.0051230188
124	0xbb1e5c29	-0.0024163818
125	0xbc6fc969	-0.014635422
126	0x3d90790e	0.07054339
127	0xbdabac31	-0.08382452

layers.output.weight f4 [2, 128]
0	0x3e9634de	0.2933721
1	0xbee0f6b3	-0.43938217
2	0xbf26f149	-0.6521192
3	0x3e7732ae	0.24140427
4	0x3e2861ef	0.16443609
5	0x3f2150b4	0.6301377
6	0xbf256043	-0.6460001
7	0x3eba9872	0.36444432
8	0x3e05b5b4	0.13057595
9	0xbe6f745d	-0.23384233
10	0x3e536801	0.20645143
11	0x3e200828	0.15628111
12	0x3f05b4ab	0.522288
13	0x3e2bb2a3	0.16767363
14	0xbd0020c9	-0.031281266
15	0x3d7d509c	0.061844453
16	0x3df55ead	0.119809486
17	0xbdcae63d	-0.09907196
18	0x3f2c8ff6	0.67407167
19	0xbc2e43c4	-0.010636274
20	0x3ec6ecdb	0.3885258
21	0xbe27c2c8	-0.16382897
22	0xbda0739c	-0.07834551
23	0x3f99b5c1	1.2008592
24	0x3f64c4b9	0.89362675
25	0xbdefacc7	-0.117028765
26	0xbdb02568	-0.08600885
27	0xbf522626	-0.8208946
28	0xbe11d40c	-0.14241046
29	0xbe4e7f8b	-0.20165841
30	0xbe8567cb	-0.2605575
31	0xbc97174f	-0.018443732
32	0x3d5ec1c7	0.05438402
33	0x3f5299bc	0.8226583
34	0xbe8e6bff	-0.2781677
35	0x3e405255	0.18781407
36	0xbd4bdd5a	-0.049771644
37	0xbdf9dd50	-0.12200415
38	0xbd9ee0f0	-0.07757747
39	0xbd44b5e6	-0.048025034
40	0x3f396e7b	0.72434205
41	0xbc80be67	-0.01571579
42	0xbe8acdb4	-0.27110064
43	0x3d04e966	0.03244915
44	0xbe6a2e42	-0.22869208
45	0xbf855275	-1.0415789
46	0x3e06af95	0.13152917
47	0xbea810ef	-0.3282542
48	0x3d9339c5	0.07188753
49	0xbec0ed96	-0.37681264
50	0x3d798066	0.060913466
51	0xbde4b751	-0.11167777
52	0x3e0b8481	0.13624765
53	0xbf4681d3	-0.77541846
54	0x3ed6b13a	0.41932088
55	0xbdee3a93	-0.11632266
56	0xbc8926ad	-0.016742075
57	0x3ea6009c	0.3242234
58	0xbe9ed2eb	-0.31020293
59	0x3e9da986	0.307934
60	0x3e4ab772	0.19796541
61	0x3ce4dab0	0.02793631
62	0x3daf079a	0.08546372
63	0xbf3b562b	-0.73178357
64	0x3f786461	0.97028166
65	0x3d283df5	0.04107471
66	0x3e8613cf	0.26186988
67	0x3df8530c	0.12125215
68	0xbe826b38	-0.25472426
69	0xbe6c00a4	-0.2304712
70	0x3d7d219c	0.06179963
71	0xbd9d45ad	-0.07679305
72	0x3dc5cb58	0.09657925
73	0xbde614f6	-0.11234467
74	0x3df15076	0.11782925
75	0xbdd03d84	-0.10167983
76	0x3d8ddceb	0.069269024
77	0x3d9e3031	0.077240355
78	0xbf63e9dc	-0.89028716
79	0x3e15bd2d	0.14622946
80	0xbe688bc7	-0.22709571
81	0xbd5a41d1	-0.053285424
82	0xbf5f0487	-0.87116283
83	0x3e4ab923	0.19797187
84	0xbd796836	-0.0608904
85	0xbf1f70e0	-0.6228161
86	0xbd5a831d	-0.053347696
87	0xbec48b05	-0.38387313
88	0xbcf8d247	-0.030373706
89	0x3e6aba88	0.22922719
90	0xbe328d29	-0.17436661
91	0xbf141cee	-0.57856643
92	0x3e138b80	0.14408684
93	0x3d919014	0.07107559
94	0xbd9af07b	-0.07565399
95	0x3d720aab	0.059092205
96	0x3e467b78	0.19383037
97	0x3e0d71fb	0.13813011
98	0x3e193e4d	0.14965172
99	0x3dc006df	0.093763106
100	0x3e283a1c	0.16428417
101	0x3f05fe73	0.52341384
102	0xbdef0938	-0.1167168
103	0xbf8498f3	-1.0359176
104	0xbf2226d0	-0.63340473
105	0xbdcfd352	-0.10147728
106	0xbe6a89b3	-0.2290409
107	0xbf2fbfc9	-0.68652016
108	0x3e6a841e	0.22901961
109	0x3ef6f3c3	0.4823285
110	0xbeb4f7c5	-0.35345283
111	0x3dce9254	0.100865036
112	0x3dc3d490	0.095620275
113	0x3f0209a6	0.5079597
114	0x3e5888ee	0.21145985
115	0xbe0625dc	-0.1310038
116	0xbd4cb3ea	-0.049976267
117	0xbe8d446b	-0.2759126
118	0xbf50d9fb	-0.8158261
119	0x3e197150	0.14984632
120	0x3d987ae6	0.07445316
121	0x3bbef75d	0.005827828
122	0xbb98e5f3	-0.004666084
123	0xbdaaa0b1	-0.08331431
124	0x3b97f5c5	0.0046374523
125	0x3e8dc12c	0.2768644
126	0xbe6b992f	-0.23007654
127	0x3df97ac4	0.12181619
128	0xbecb57a2	-0.39715296
129	0x3f079227	0.52957386
130	0x3e9ef22f	0.31044146
131	0x3e04110f	0.12897132
132	0xbe1d3149	-0.15350832
133	0xbd906244	-0.07049993
134	0x3d8a0d46	0.06740813
135	0xbec80d93	-0.39072856
136	0xbc08e57c	-0.008355495
137	0x3e0dc840	0.1384592
138	0xbefae365	-0.49001613
139	0xbc6dac2d	-0.014506382
140	0xbf1921e7	-0.59817356
141	0xbeee9806	-0.4660036
142	0x3e6bca2a	0.23026338
143	0xbeb1e326	-0.34743613
144	0x3de80380	0.113287926
145	0xbe8a09c3	-0.26960573
146	0xbda8d4b3	-0.08243694
147	0xbe2f4d7b	-0.171194
148	0xbe3e67f2	-0.1859434
149	0x3c03a51f	0.008034973
150	0xbe2fb5fe	-0.17159268
151	0xbedbe632	-0.42949063
152	0x3e295e39	0.1653985
153	0xbe2b343c	-0.16719145
154	0xbe880d76	-0.2657277
155	0x3dbd6eca	0.09249647
156	0xbf05e654	-0.5230458
157	0x3ed82600	0.42216492
158	0xbd4821e4	-0.048860446
159	0x3e49fa3f	0.19724368
160	0xbe91c260	-0.2846861
161	0xbf35b026	-0.70971906
162	0xbd4712fd	-0.048602093
163	0xbcee596f	-0.02909538
164	0xbdd4c80e	-0.1038972
165	0xbdc86eb2	-0.097867385
166	0xbe14f813	-0.14547758
167	0x3dac68b9	0.08418412
168	0xbe9af36f	-0.3026385
169	0xbe7076c2	-0.23482803
170	0x3e13939e	0.1441178
171	0xbe2bc964	-0.16776043
172	0xbe25d53e	-0.16194627
173	0x3f0a7c85	0.5409625
174	0x3dc1e549	0.09467561
175	0xbebc04e4	-0.3672248
176	0xbd798b30	-0.060923755
177	0x3ef899d2	0.48554856
178	0xbd1cac60	-0.038250327
179	0x3dacb9db	0.084338866
180	0xbc190d92	-0.009341614
181	0xbe563080	-0.20916939
182	0xbf3ce09d	-0.7378023
183	0xbe221801	-0.1582947
184	0x3e808884	0.25104153
185	0x3dbfa6c5	0.09357981
186	0xbdcb46a0	-0.0992558
187	0xbf340852	-0.70325196
188	0xbe908509	-0.28226498
189	0x3e36008e	0.17773649
190	0x3d061617	0.03273591
191	0x3f1a551d	0.6028612
192	0x3d772888	0.060341388
193	0x3e4cdd05	0.20006187
194	0xbe0e02bb	-0.13868229
195	0xbbb64320	-0.005562201
196	0xbdab129f	-0.08353161
197	0xbeceb6bd	-0.40373793
198	0x3e9446d5	0.2896029
199	0xbe129586	-0.14314851
200	0x3d729fd0	0.05923444
201	0xbe65bf50	-0.22436261
202	0x3c029262	0.007969471
203	0x3dcfdd32	0.101496115
204	0xbefeb2bb	-0.49745736
205	0x3e239c64	0.15977627
206	0x3e30f831	0.17282178
207	0x3e83dbac	0.25753534
208	0x3cc8edef	0.024527518
209	0xbea4a195	-0.32154527
210	0x3efb8900	0.4912796
211	0xbe80ff6c	-0.2519487
212	0xbc8afb11	-0.01696542
213	0x3eb1d044	0.34729207
214	0x3e46adf4	0.19402295
215	0x3cb5558d	0.02213552
216	0x3ede0527	0.43363306
217	0x3da2d3c6	0.07950549
218	0x3d1614ff	0.036641117
219	0x3ea9f2e4	0.33193123
220	0x3ea08fa2	0.31359583
221	0xbe2599a0	-0.16171885
222	0x3e8ee1a3	0.27906522
223	0xbdb5aad2	-0.08870472
224	0x3d5b73ac	0.05357711
225	0x3d83257b	0.06403633
226	0xbe855c7c	-0.26047122
227	0x3e571488	0.21003926
228	0x3c528dc5	0.012851183
229	0xbe8a6219	-0.27027968
230	0xbdc83a03	-0.0977669
231	0xbea58d60	-0.32334423
232	0x3c16c2ee	0.009201748
233	0xbe3cf550	-0.18452954
234	0x3ed4e2db	0.41579327
235	0x3f649b87	0.89299816
236	0xbe090eff	-0.13384627
237	0xbeeeba09	-0.4662631
238	0xbf5c4f0f	-0.86058134
239	0xbd266cb2	-0.040631004
240	0xbe1ae6e9	-0.15127148
241	0xbf29e135	-0.66359264
242	0x3dfd32f5	0.12363235
243	0xbe724de7	-0.2366253
244	0x3ee6b2a0	0.45058155
245	0x3ea59d08	0.32346368
246	0x3f440193	0.765649
247	0x3e66de81	0.22545816
248	0x3d23bee4	0.03997697
249	0x3e894173	0.26807746
250	0x3dc15502	0.09440042
251	0xbe8e059e	-0.2773866
252	0xbe283487	-0.16426288
253	0xbd87440e	-0.06604777
254	0xbdeb6528	-0.114939034
255	0xbdee20a6	-0.11627321

layers.output.bias f4 [2]
0	0x3e1dccb0	0.15410113
1	0x3d3a17b0	0.045432746
