results/SMOTE5K/smote999/smote0.25/model.pth (torch, 205093 bytes, 10 tensors)

layers.block_0.layer.0.weight f4 [128, 2]
0.8455226 -0.370688 -0.7983606 0.65186954 -0.60312307 0.17456973 -0.88028663 0.017232774
-0.35750777 0.111856714 0.5605661 0.59973687 0.87931556 -0.16695482 1.1424861 0.36688864
-0.5611703 0.011079631 -0.45505312 -0.2133329 -0.57585377 -0.26863503 -0.5507158 0.37779468
0.31956598 0.6672523 0.4990987 -0.044844277 0.8593637 -0.08881498 0.94338584 -0.43060476
-0.9968734 0.60822546 0.5652724 -0.50200146 -0.609759 -0.12135532 -0.68928814 0.0495379
-1.0543082 0.34375805 -0.55645716 -0.098705 0.26743624 0.45823345 0.27980685 -0.47527707
-0.3528732 -0.7918208 0.25203317 0.2154514 -0.8278722 0.33301827 0.92132497 -0.4473659
-0.8091285 -0.28929585 0.16923691 0.7498401 0.3800953 0.43432125 -1.0423366 0.15011743
0.2554692 -0.64459383 -0.7919922 -0.11873046 0.60797334 -0.6858051 0.45704 0.6694532
-0.80583376 0.6565597 0.2703964 0.60558933 -0.98268664 -0.04161736 0.7867223 0.29436633
0.0025091465 0.7904737 -0.3995258 -0.15825473 0.10261672 0.766078 -1.0028849 0.54462385
0.084148616 -0.5743524 0.65743804 0.13495629 -0.6800442 0.23874655 0.9652403 0.58251184
-0.6515619 0.39436597 0.6085504 0.48400167 0.8246344 -0.6759576 -0.56160736 -0.3345475
0.6653943 -0.4604521 0.55756235 0.72463304 -0.90751404 -0.11915607 0.5835874 0.44023076
0.25387064 -0.6269 0.77245015 -0.17647886 -0.654675 -0.51367164 -0.8542603 0.7172389
-0.8376887 -0.14472172 -0.11271115 -0.7517781 -1.0931125 -0.41473117 1.0782064 0.5442207
-0.5298979 -0.7328431 1.097178 0.06256128 -0.38260716 -0.61171454 -0.35915858 0.16917695
0.53447276 -0.45901516 0.65374905 0.011894102 0.79636353 -0.14613622 0.13124815 -0.55279166
-0.8929328 -0.25423232 -0.111221 -0.70332086 1.1486524 0.51793796 -0.4979865 -0.26791656
0.77263314 -0.24357805 -0.9966006 0.07408738 0.4998751 0.5933728 0.57503843 -0.48205632
-0.4447673 0.6410988 0.6278842 -0.67605764 -0.0806796 0.69761825 -0.17540617 0.5837852
-0.22514547 -0.657835 -0.8414235 0.47435397 0.30769446 0.37212718 -0.92749804 0.11528785
0.82761496 0.37831116 1.0059671 0.16387503 0.93158925 0.59455884 0.6732442 0.60163003
0.66805506 -0.39198643 1.0225775 0.42598513 -0.19030027 -0.44496873 0.743317 0.48443535
-0.9329646 -0.60068274 -1.0673642 0.17179611 -0.6924984 0.7524275 -0.6604057 -0.34928733
-0.9756984 -0.21620873 -0.7312996 0.15834033 -0.42168465 0.38015378 -0.51517123 0.45152757
-0.8110021 0.55918324 -0.5980545 0.27494025 -0.9318581 -0.69530433 0.8501763 -0.096711375
0.3959299 0.2706967 -0.7727428 0.30964825 -0.72249585 0.33767003 -1.1997688 0.19739006
0.45279932 0.36910698 -0.9271164 -0.39692432 -0.171847 0.68931913 0.40953577 0.598165
-0.17600732 -0.5801978 0.69918615 -0.08473953 -0.091939084 0.5757502 0.73811376 -0.07147772
0.97058916 -0.36582655 -0.848683 -0.45403466 -0.53423005 0.21772066 0.5401171 0.12225333
1.1634954 -0.44826 -0.66712666 0.20066836 0.54224014 0.050006177 0.5973665 -0.10047609
00000000: 2b74 583f d1ca bdbe 5c61 4cbf ece0 263f
00000010: 4666 1abf 68c2 323e 775a 61bf bf2b 8d3c
00000020: 420b b7be 2215 e53d 4381 0f3f 5b88 193f
00000030: d31a 613f 34f6 2abe fc3c 923f d4d8 bb3e
00000040: dba8 0fbf 5787 353c b9fc e8be f173 5abe
00000050: 276b 13bf 888a 89be b6fb 0cbf 4e6e c13e
00000060: 279e a33e 0cd1 2a3f dd89 ff3e a2ae 37bd
00000070: 42ff 5b3f a1e4 b5bd bc81 713f 3a78 dcbe
00000080: 1833 7fbf aab4 1b3f b1b5 103f 2b83 00bf
00000090: 2a19 1cbf 2389 f8bd 3075 30bf 41e8 4a3d
000000a0: 92f3 86bf 0e01 b03e fa73 0ebf d925 cabd
000000b0: 67ed 883e 939d ea3e d842 8f3e 8457 f3be
000000c0: ccab b4be c5b4 4abf 7e0a 813e 4b9f 5c3e
000000d0: 6fef 53bf 5f81 aa3e f4db 6b3f 250d e5be
000000e0: 0c23 4fbf 961e 94be 714c 2d3e 85f5 3f3f
000000f0: da9b c23e 5b5f de3e 496b 85bf 62b8 193e
00000100: dccc 823e 1a04 25bf 00c0 4abf f528 f3bd
00000110: 24a4 1b3f ec90 2fbf 2601 ea3e 4961 2b3f
00000120: 1f4b 4ebf 4c14 283f 6671 8a3e e707 1b3f
00000130: 5a91 7bbf f776 2abd a266 493f 2fb7 963e
00000140: 7e70 243b 7c5c 4a3f a58e ccbe 870d 22be
00000150: b728 d23d b01d 443f 885e 80bf 786c 0b3f
00000160: 1c56 ac3d c208 13bf dc4d 283f fb31 0a3e
00000170: 6017 2ebf fa79 743e fd19 773f 7f1f 153f
00000180: c3cc 26bf 56ea c93e f6c9 1b3f 11cf f73e
00000190: 3d1b 533f 8f0b 2dbf 80c5 0fbf cf49 abbe
000001a0: 4857 2a3f 61c0 ebbe 68bc 0e3f 8d81 393f
000001b0: d752 68bf 1908 f4bd fc65 153f ed65 e13e
000001c0: 55fb 813e 857c 20bf 4bbf 453f e0b6 34be
000001d0: c898 27bf fc7f 03bf ceb0 5abf f89c 373f
000001e0: c472 56bf ee31 14be 1ad5 e6bd 8874 40bf
000001f0: 1ceb 8bbf a557 d4be ab02 8a3f 0c52 0b3f
00000200: 64a7 07bf 9b9b 3bbf 5470 8c3f 2120 803d
00000210: 16e5 c3be 5399 1cbf a2e3 b7be b93c 2d3e
00000220: 35d3 083f 0904 ebbe 195c 273f 7bdf 423c
00000230: 7bde 4b3f bca4 15be ea65 063e c183 0dbf
00000240: 3e97 64bf bd2a 82be d6c7 e3bd d60c 34bf
00000250: 0b07 933f 9597 043f 16f8 febe 5c2c 89be
00000260: 49cb 453f 866c 79be 3821 7fbf 20bb 973d
00000270: a1ef ff3e 48e7 173f b835 133f 16d0 f6be
00000280: 8ab8 e3be 0d1f 243f 05bd 203f 1d12 2dbf
00000290: 593b a5bd 1c97 323f ad9d 33be f272 153f
000002a0: 898c 66be e067 28bf 8867 57bf 86de f23e
000002b0: 218a 9d3e 7487 be3e 8370 6dbf 091c ec3d
000002c0: 93de 533f 00b2 c13e 88c3 803f dbce 273e
000002d0: a27c 6e3f 0235 183f bb59 2c3f 6d04 1a3f
000002e0: a805 2b3f 72b2 c8be d2e3 823f b91a da3e
000002f0: 13de 42be f1d2 e3be 064a 3e3f e907 f83e
00000300: c5d6 6ebf 58c6 19bf 649f 88bf 52eb 2f3e
00000310: 9347 31bf 179f 403f 5910 29bf cad5 b2be
00000320: 5fc7 79bf d265 5dbe 7336 3bbf f823 223e
00000330: 0de7 d7be 84a3 c23e 43e2 03bf 9f2e e73e
00000340: d59d 4fbf a226 0f3f 1a1a 19bf f8c4 8c3e
00000350: 418e 6ebf 77ff 31bf 27a5 593f 9d10 c6bd
00000360: 53b7 ca3e c298 8a3e 79d2 45bf 378a 9e3e
00000370: 7df5 38bf 16e3 ac3e 0692 99bf 9f20 4a3e
00000380: 50d5 e73e 97fb bc3e 8057 6dbf aa39 cbbe
00000390: a9f8 2fbe 3877 303f acae d13e 5721 193f
000003a0: 433b 34be d887 14bf ddfd 323f eb8b adbd
000003b0: 8f4a bcbd 5d64 133f 06f5 3c3f e962 92bd
000003c0: 8878 783f 9e4d bbbe 4a43 59bf 3b77 e8be
000003d0: 4dc3 08bf 2af2 5e3e 1d45 0a3f f45f fa3d
000003e0: 6bed 943f 5682 e5be d0c8 2abf 027c 4d3e
000003f0: 40d0 0a3f 47d3 4c3d 03ed 183f 69c6 cdbd

layers.block_0.layer.0.bias f4 [128]
0.18244621 -0.50255364 0.094419815 0.1899813 -0.32843688 -0.40341258 0.11412762 -0.4273531
-0.53093344 0.61486393 0.6690836 0.18370724 -0.32916173 0.29330838 -0.2540187 0.49933937
-0.5955072 -0.52072763 0.65475893 -0.3837931 -0.3227006 -0.50483614 -0.48394483 -0.4444037
0.65153074 0.30307713 -0.45561838 0.5058559 0.29574105 -0.30900985 0.028718267 0.030110534
0.62561536 -0.0049363626 0.32761368 0.45086175 -0.71580744 -0.3617357 0.120306134 -0.4927091
0.56323147 -0.43191588 0.24836533 -0.66696453 0.5360308 0.5118674 -0.47075382 -0.64982396
0.5640447 -0.20198016 0.45894346 0.6508332 0.18315941 -0.6542982 0.35733247 0.3002389
-0.7127433 0.16120058 0.21085806 -0.7179852 0.53161675 -0.04065643 0.49794325 -0.35995936
0.5841866 -0.033008855 -0.2932377 0.3321735 -0.12246058 0.16700147 0.12499153 -0.30191794
0.5638485 -0.24440992 -0.6234331 -0.27081862 0.49597436 -0.0526377 0.10373305 0.28464183
0.58137727 0.55439496 0.22294684 -0.3151018 -0.23487663 -0.253047 0.5393985 0.2850474
0.2241751 -0.44040692 -0.5423175 0.43420678 0.2640516 -0.3735634 -0.42215937 -0.43838692
0.4271216 -0.14928128 0.68078977 -0.052122574 0.41728702 -0.31388438 0.3460786 -0.46248642
-0.5597795 0.5394924 0.7183818 0.12962066 0.23545617 -0.63560545 0.32771584 -0.40570346
0.12295328 0.22707017 0.292278 -0.5728492 0.08927673 -0.14844726 0.5486596 0.10073462
0.39155504 0.35623223 -0.14743537 -0.6692941 0.34153733 0.5271564 0.5838746 -0.17165498
00000000: 2ed3 3a3e 5ba7 00bf 2d5f c13d 758a 423e
00000010: e128 a8be 188c cebe bebb e93d 07ce dabe
00000020: 41eb 07bf b967 1d3f 1049 2b3f c01d 3c3e
00000030: e387 a8be 842c 963e bd0e 82be 69a9 ff3e
00000040: 2973 18bf 684e 05bf 489e 273f 8780 c4be
00000050: 0339 a5be f13c 01bf 9ec7 f7be e288 e3be
00000060: b8ca 263f ed2c 9b3e d046 e9be c67f 013f
00000070: 5f6b 973e 8a36 9ebe 9242 eb3c 5eaa f63c
00000080: 5428 203f 36c1 a1bb fbbc a73e 5ad7 e63e
00000090: 283f 37bf 6c35 b9be 1063 f63d 5e44 fcbe
000000a0: f02f 103f 1424 ddbe 7b53 7e3e 30be 2abf
000000b0: 5139 093f be09 033f a506 f1be dd5a 26bf
000000c0: 3c65 103f e3d3 4ebe a3fa ea3e 019d 263f
000000d0: 248e 3b3e 1680 27bf 48f4 b63e eab8 993e
000000e0: 5876 36bf c411 253e 2deb 573e e1cd 37bf
000000f0: 0918 083f 5b87 26bd 6bf2 fe3e 984c b8be
00000100: 418d 153f 4b34 07bd 4023 96be a512 aa3e
00000110: 9dcc fabd 6f02 2b3e 8ffb ff3d fd94 9abe
00000120: 6058 103f 9846 7abe 5099 1fbf bda8 8abe
00000130: 5af0 fd3e a19a 57bd fe71 d43d 93bc 913e
00000140: 24d5 143f d4ec 0d3f 2d4c 643e 0655 a1be
00000150: 8083 70be 608f 81be 0516 0a3f bcf1 913e
00000160: 288e 653e 047d e1be 52d5 0abf 5a50 de3e
00000170: c531 873e b443 bfbe 4625 d8be 4074 e0be
00000180: afaf da3e 31dd 18be 3d48 2e3f 7b7e 55bd
00000190: a5a6 d53e 74b5 a0be 3731 b13e 05cb ecbe
000001a0: b64d 0fbf 2d1c 0a3f dfe7 373f 47bb 043e
000001b0: 6c1b 713e 0ab7 22bf 5fca a73e 5db8 cfbe
000001c0: eece fb3d 1585 683e 76a5 953e 3fa6 12bf
000001d0: b8d6 b63d 8f02 18be f574 0c3f f44d ce3d
000001e0: e779 c83e 1264 b63e 4cf9 16be dc56 2bbf
000001f0: fbdd ae3e b9f3 063f ce78 153f 53c6 2fbe

layers.block_1.layer.0.weight f4 [128, 128]
-0.06765386 0.05788412 0.117092535 0.020125348 -0.078078836 -0.12930402 -0.09135571 -0.021843864
-0.0039249263 -0.054499574 -0.025329893 0.08895387 -0.14394727 -0.019699985 -0.0033396904 -0.033378404
0.062049415 -0.06967292 0.03240173 -0.050473258 -0.041908536 0.068628505 -0.013920036 0.034260277
0.11877111 -0.03839944 0.06703649 -0.05203931 0.11764582 -0.04664211 0.006061972 -0.02383683
0.06480328 0.002279051 0.017242694 0.06307147 0.02178077 -0.043420687 -0.01573626 -0.11071693
-0.019256582 -0.04846468 -0.062658764 -0.0175989 -0.051810615 0.029205665 -0.071113065 -0.03046826
0.07264436 -0.15333197 0.10080579 0.09732766 -0.101755075 -0.061350036 0.086916715 -0.093946315
-0.014991332 -0.028810868 0.070314094 -0.09050363 0.013304201 0.057560958 0.05925085 -0.11972887
0.045720737 -0.12109909 0.06630132 0.081826724 -0.065385744 -0.035518043 0.04617485 -0.06802045
0.030929472 -0.013522938 0.02434012 0.05994387 0.07148851 0.107991695 -0.10167678 -0.031030072
0.07042558 0.07463316 -0.023220394 0.022019686 0.0403675 -0.009060551 0.048104417 0.031273462
-0.11029603 -0.07750286 -0.1446822 -0.022506157 -0.07997502 -0.05625844 0.061589293 0.017070502
0.095600665 0.08864323 -0.02678983 0.06419961 0.106844306 0.062702864 0.103544906 0.004291985
-0.07778216 0.03226957 0.123900115 -0.050531816 -0.10026416 -0.050989967 0.11205122 -0.036355373
-0.06987066 0.03759492 0.01200938 -0.0932519 0.036073126 -0.09286027 0.025944738 0.0008588135
0.006578517 -0.01807002 -0.042492602 -0.11589998 -0.0895916 0.117075816 0.03568586 -0.0696116
-0.02811911 -0.061342385 -0.010147229 0.031013208 -0.060856752 -0.09870051 -0.17791183 0.05388537
-0.05600904 -0.07141319 -0.0014472145 -0.0388889 -0.009776186 0.040483844 -0.020543577 -0.057780597
0.039742287 0.0564407 0.06764763 0.019004708 0.039964356 0.08867163 -0.04500314 -0.00029917972
0.0061068665 0.044704054 -0.04913394 0.035574812 -0.011884986 -0.09150641 -0.062737204 0.02103856
0.07423864 0.14883769 -0.04451876 -0.06693838 0.03820045 0.030176235 0.12000383 -0.05664333
-0.07592245 -0.04859585 0.010373455 0.072014615 0.06113042 0.00027502776 -0.050969932 -0.103940204
-0.07939671 -0.019701127 -0.074990936 -0.03090373 -0.01461644 -0.0043227044 0.073351175 -0.10592121
0.05554108 0.003194838 0.08838175 0.024344662 0.050690006 -0.019673506 0.06544376 -0.07412799
0.10737663 -0.176637 -0.045711655 0.050748564 0.011394328 -0.100955985 -0.07110784 -0.0013047779
0.045336112 -0.013644715 -0.026402246 -0.0057347035 0.06542379 0.19373901 -0.10689163 -0.027866641
-0.027041195 0.047824863 0.0054494664 0.010931247 0.10828977 -0.04092779 -0.02048451 0.016109658
-0.14268284 -0.036043644 -0.080935284 -0.09438836 0.05383186 -0.04006607 0.048961073 -0.011056833
0.023491323 0.049143814 -0.09019489 0.030095713 -0.045385804 0.046121117 0.009543976 -0.021718021
0.07595792 0.06810591 0.0376808 0.0158927 -0.045878842 0.105049774 -0.08310125 -0.01619497
-0.11165813 0.018326908 0.015801778 0.011822017 0.11995972 0.026013786 -0.07408157 -0.0345389
-0.0098804105 0.029980041 0.047632154 0.035089068 -0.08377117 0.00039646408 -0.007014648 0.023157371
00000000: 1b8e 8abd e617 6d3d 36ce ef3d eadd a43c
00000010: cce7 9fbd 4668 04be b418 bbbd e7f1 b2bc
00000020: ab9c 80bb f23a 5fbd a380 cfbc 722d b63d
00000030: ea66 13be dd61 a1bc b5de 5abb cbb7 08bd
00000040: 8727 7e3d adb0 8ebd adb7 043d 0cbd 4ebd
00000050: 49a8 2bbd 1a8d 8c3d dd10 64bc 8154 0c3d
00000060: 453e f33d bb48 1dbd 6d4a 893d 2c27 55bd
00000070: 4bf0 f03d cc0b 3fbd 82a3 c63b 7545 c3bc
00000080: 95b7 843d 225c 153b 8d40 8d3c 9d2b 813d
00000090: 966d b23c e4d9 31bd 54e9 80bc 8fbf e2bd
000000a0: fbbf 9dbc e682 46bd 3d53 80bd 912b 90bc
000000b0: 5e37 54bd b840 ef3c baa3 91bd 9398 f9bc
000000c0: 91c6 943d 0e03 1dbe 4473 ce3d b953 c73d
000000d0: f764 d0bd 2d4a 7bbd 6401 b23d ed66 c0bd
000000e0: 349e 75bc c504 ecbc d600 903d f859 b9bd
000000f0: ddf9 593c 0ac5 6b3d 05b1 723d 6934 f5bd
00000100: ab45 3b3d cd02 f8bd fdc8 873d c594 a73d
00000110: f6e8 85bd 5e7b 11bd d721 3d3d 4e4e 8bbd
00000120: ce5f fd3c 508f 5dbc ee64 c73c b487 753d
00000130: 9168 923d c02a dd3d ea3b d0bd c732 febc
00000140: 493b 903d 45d9 983d b238 bebc a162 b43c
00000150: 6458 253d b572 14bc 2309 453d 9a18 003d
00000160: e3e2 e1bd d2b9 9ebd 9227 14be d55e b8bc
00000170: f1c9 a3bd 406f 66bd 0e45 7c3d 70d7 8b3c
00000180: 48ca c33d 958a b53d 5876 dbbc 167b 833d
00000190: 30d1 da3d 5c6a 803d 5a0f d43d c8a3 8c3b
000001a0: 414c 9fbd 192d 043d 58bf fd3d 73fa 4ebd
000001b0: 4c57 cdbd dbda 50bd 1c7b e53d 5fe9 14bd
000001c0: 5918 8fbd 21fd 193d fec2 443c dafa bebd
000001d0: 6ac1 133d 862d bebd 0f8a d43c 0022 613a
000001e0: 9a90 d73b 9407 94bc b90c 2ebd f85c edbd
000001f0: cd7b b7bd 72c5 ef3d 562b 123d 8790 8ebd
00000200: 0c5a e6bc 2742 7bbd 9040 26bc 690f fe3c
00000210: ee44 79bd 7e23 cabd 852e 36be e8b6 5c3d
00000220: bc69 65bd 1441 92bd 76b0 bdba f849 1fbd
00000230: 4c2c 20bc 63d2 253d 014b a8bc 59ab 6cbd
00000240: cfc8 223d 5d2e 673d d78a 8a3d c3af 9b3c
00000250: aab1 233d 7999 b53d 3655 38bd 39db 9cb9
00000260: 1c1c c83b 991b 373d ac40 49bd e5b6 113d
00000270: 3fb9 42bc b667 bbbd 5d7c 80bd 0f59 ac3c
00000280: 6e0a 983d e868 183e 4e59 36bd fd16 89bd
00000290: 1378 1c3d 2734 f73c 91c4 f53d d602 68bd
000002a0: 3b7d 9bbd 710c 47bd 6cf5 293c 667c 933d
000002b0: e463 7a3d 9a31 9039 d9c5 50bd 9ade d4bd
000002c0: be9a a2bd 4264 a1bc d994 99bd d229 fdbc
000002d0: cb79 6fbc 79a5 8dbb 2439 963d 38ed d8bd
000002e0: 0b7f 633d 7d60 513b 7e01 b53d 756e c73c
000002f0: 53a0 4f3d 552a a1bc 6107 863d 6ad0 97bd
00000300: 47e8 db3d 54e0 34be 253c 3bbd badd 4f3d
00000310: 47af 3a3c 03c2 cebd fda0 91bd 1505 abba
00000320: 5cb2 393d 158e 5fbc 8649 d8bc 2eea bbbb
00000330: e8fc 853d 8563 463e 00ea dabd 9548 e4bc
00000340: 7f85 ddbc 01e4 433d 7091 b23b f918 333c
00000350: 07c7 dd3d e6a3 27bd 22cf a7bc 67f8 833c
00000360: 731b 12be 80a2 13bd 66c1 a5bd af4e c1bd
00000370: cc7e 5c3d 521c 24bd 688b 483d b827 35bc
00000380: e070 c03c 064b 493d 19b8 b8bd 498b f63c
00000390: 77e6 39bd 7fe9 3c3d 565e 1c3c fee9 b1bc
000003a0: d38f 9b3d 1d7b 8b3d 2f57 1a3d 6831 823c
000003b0: 74eb 3bbd 5624 d73d fd30 aabd 50ab 84bc
000003c0: 05ad e4bd 5022 963c bb72 813c 22b1 413c
000003d0: 71ad f53d dd1a d53c 14b8 97bd a978 0dbd
000003e0: 72e1 21bc b498 f53c ef19 433d 8eb9 0f3d
000003f0: 3890 abbd 82dc cf39 22db e5bb 87b4 bd3c

layers.block_1.layer.0.bias f4 [128]
0.069017164 0.07017344 0.014381208 -0.13344747 -0.08505023 0.08667851 0.013582367 -0.005046592
0.011799651 0.07076446 -0.03342863 -0.0268881 0.08101486 -0.041735742 -0.0015855603 -0.018515961
-0.030966941 0.0704104 0.05995481 -0.011126688 -0.013445155 0.039181404 0.026416184 0.062816225
0.0122119235 -0.036314238 0.037278883 -0.046260044 -0.088611946 0.059959006 0.05271209 -0.07794138
-0.07537934 -0.027150296 -0.022198755 -0.06177119 0.03772272 0.01316278 -0.033510797 0.023144769
0.0027415154 0.039680835 -0.061686967 -0.076910466 -0.06240838 -0.030207343 -0.110869095 0.050973754
0.046849996 -0.05394215 0.024207873 -0.015532914 0.03904882 -0.028646452 -0.10070961 -0.02601246
0.053516697 -0.017877674 -0.03516109 -0.04754715 0.039342325 -0.07716672 -0.027044728 -0.022747058
0.0115114795 0.05299232 0.08494864 0.02795105 0.0012247186 0.09624424 -0.0065846266 0.10680218
0.012850111 -0.0133638885 -0.007911431 -0.005635161 0.036731936 0.030453758 -0.00028460022 0.09005758
0.064344615 -0.04520739 0.07987016 -0.014881277 0.027792975 -0.035235103 0.084508896 0.05563631
-0.030112641 0.056838084 -0.005333723 0.016734982 0.008724576 0.08091805 -0.009146692 -0.004540567
0.03518944 0.07211041 -0.06171788 0.06376071 0.02253167 0.019465385 -0.02515796 0.017085722
-0.07816353 -0.026448578 0.07579776 0.06092851 0.052370384 -0.09509763 -0.020306401 -0.035423584
0.051859323 0.09347945 -0.17574915 0.028141094 -0.050650325 -0.039981633 0.07676992 0.080377296
0.03641929 0.05917724 -0.082182035 0.02823688 0.034867916 -0.07621621 0.052970342 0.056413572
00000000: df58 8d3d 18b7 8f3d 299f 6b3c 74a6 08be
00000010: d12e aebd 8184 b13d 9488 5e3c e25d a5bb
00000020: 5353 413c f5ec 903d 76ec 08bd 6f44 dcbc
00000030: 1eeb a53d 19f3 2abd 93d2 cfba c9ae 97bc
00000040: 62ae fdbc 5433 903d 2d93 753d b64c 36bc
00000050: 1149 5cbc ae7c 203d c166 d83c cba5 803d
00000060: 8514 483c 3dbe 14bd beb1 183d 2c7b 3dbd
00000070: 2e7a b5bd 9397 753d a2e8 573d bb9f 9fbd
00000080: 7c60 9abd 4c6a debc 2ada b5bc ca03 7dbd
00000090: 2483 1a3d b3a8 573c 9e42 09bd 199a bd3c
000000a0: ffaa 333b 5f88 223d 79ab 7cbd 3c83 9dbd
000000b0: ee9f 7fbd 6475 f7bc 560f e3bd dbc9 503d
000000c0: c8e5 3f3d 72f2 5cbd 974f c63c c37d 7ebc
000000d0: a8f1 1f3d f7ab eabc d740 cebd 1518 d5bc
000000e0: 5334 5b3d 3374 92bc 1305 10bd cdc0 42bd
000000f0: 6b25 213d 9609 9ebd e88c ddbc 0a58 babc
00000100: a59a 3c3c 7a0e 593d 8df9 ad3d 9af9 e43c
00000110: bd86 a03a b31b c53d dac3 d7bb 1abb da3d
00000120: 4689 523c 36f4 5abc f29e 01bc 28a7 b8bb
00000130: 3a74 163d 297a f93c 6536 95b9 1c70 b83d
00000140: 1cc7 833d 622b 39bd f792 a33d 9ad0 73bc
00000150: 18ae e33c af52 10bd 0013 ad3d e6e2 633d
00000160: c9ae f6bc 0dcf 683d 83c6 aebb cd17 893c
00000170: 86f1 0e3c 5db8 a53d 02dc 15bc 09c9 94bb
00000180: cd22 103d 9fae 933d e3cb 7cbd fa94 823d
00000190: 5694 b83c df75 9f3c 1118 cebc 5bf7 8b3c
000001a0: 3314 a0bd b0aa d8bc db3b 9b3d 2c90 793d
000001b0: 5482 563d 8cc2 c2bd 9c59 a6bc 5218 11bd
000001c0: 716a 543d 2772 bf3d 96f7 33be 2788 e63c
000001d0: b776 4fbd c8c3 23bd 8c39 9d3d da9c a43d
000001e0: 652c 153d d563 723d 0e4f a8bd 0851 e73c
000001f0: a9d1 0e3d 3f17 9cbd 6ef7 583d eb11 673d

layers.block_2.layer.0.weight f4 [128, 128]
0.09936193 -0.049159188 -0.08301235 -0.05523236 -0.035331678 0.0018479632 -0.14553688 0.04506227
0.042768344 -0.03991128 0.12620763 -0.018520718 0.010223356 -0.13817598 0.092523724 0.09302052
-0.1361406 0.07360995 0.021769326 -0.009754902 0.064125314 -0.07577133 0.015414183 0.040885385
-0.10464691 -0.092291884 -0.063827455 -0.110403396 -0.012615882 0.0741286 -0.0042044627 -0.098315135
-0.10522629 0.07815922 -0.031167392 -0.003869063 -0.010535671 -0.11635994 -0.0949978 -0.13319913
0.015320953 -0.01641484 -0.06758838 0.04697942 -0.0034334075 -0.003068029 -0.07710046 0.007842293
-0.02165926 0.04728316 0.04048131 -0.035157423 0.11935841 0.010434907 -0.07392508 0.10775365
-0.017931012 0.005361599 -0.02164133 -0.0011176701 0.08810297 -0.036336042 0.0733994 -0.17617694
-0.019952413 0.15149538 0.028127884 0.029389022 -0.06223379 0.09604796 0.015576903 0.19664319
0.06879651 0.09417367 0.004457544 -0.018556854 -0.043528393 -0.07282928 0.0436915 0.07770368
0.11570539 -0.03377665 0.00056918134 0.029594356 0.03899029 -0.071795724 0.12278364 0.03285613
-0.09606758 -0.11937394 0.07542196 -0.04086972 -0.092754945 0.058220748 0.12040296 0.026438424
0.053059604 0.14434305 -0.14910689 0.09532627 -0.085719556 0.0852362 0.024463566 -0.11775399
-0.013570214 -0.010985984 0.012247287 -0.012493523 0.02554553 -0.08196347 -0.041412268 -0.014057519
-0.040056657 0.038287643 -0.08119264 -0.08007659 -0.0054766736 -0.028661886 -0.06539403 0.084426016
-0.008220056 -0.15068321 0.03961238 0.035944704 0.01780391 0.11182445 -0.054249633 -0.0969949
-0.011609794 -0.12065933 0.03085816 0.12188687 0.07693716 -0.03792084 0.10435712 0.09941588
-0.028807083 0.0069123977 -0.027744684 -0.028802397 -0.011455412 0.1035685 -0.048973095 0.10110225
-0.08208302 0.02978832 0.04133753 0.056647968 0.073477395 0.03233396 -0.0033520516 -0.04594232
0.06508763 0.08308022 -0.012612533 0.053631898 0.018262105 -0.036233738 -0.056729108 0.021892663
0.098450184 -0.10982791 -0.015146518 -0.018703353 -0.085757785 0.09491501 0.0102380095 0.05066571
0.15436167 0.037144765 0.06626794 0.037721854 -0.1300642 0.0719857 0.064423844 0.0066092135
-0.06403237 0.0020945421 0.006380884 0.027359243 0.02330191 -0.10619658 0.17910871 -0.016666137
0.013959531 -0.05198317 -0.0408796 -0.07878287 0.021752292 -0.031118149 -0.01944163 0.05648536
0.066997334 0.046591505 0.006852662 -0.03600202 -0.06883566 -0.14164637 -0.040250447 -0.0017875766
-0.028370937 -0.07452654 -0.030693814 0.19023667 -0.037786346 0.02106615 -0.04261972 0.101735435
-0.059397712 0.014212122 0.028162299 -0.08784268 -0.110663794 -0.07521269 0.022163825 0.07735633
0.0731936 0.06380959 0.15461203 -0.055132043 -0.13168608 0.099416874 -0.1423344 -0.070627004
-0.04995553 -0.06144531 0.035156086 -0.13041595 0.011425771 -0.023804078 0.05551657 -0.029790843
-0.022899235 -0.019474316 -0.083565846 -0.061531752 0.07922785 0.043490723 0.033450812 -0.039980832
-0.06695958 -0.08608817 -0.09523691 -0.036370303 -0.079063915 0.04340345 0.027580224 -0.04194933
-0.0055062 0.12983775 -0.14445364 -0.11018539 0.07521011 -0.08405064 0.066846736 0.039520983
00000000: 447e cb3d 255b 49bd 6102 aabd 543b 62bd
00000010: f3b7 10bd 5b37 f23a 9f07 15be 3793 383d
00000020: dc2d 2f3d 037a 23bd 933c 013e c3b8 97bc
00000030: dd7f 273c 017e 0dbe 147d bd3d 8b81 be3d
00000040: 7168 0bbe d0c0 963d 9655 b23c 06d3 1fbc
00000050: 2254 833d 002e 9bbd c58b 7c3c 6f77 273d
00000060: 1f51 d6bd 8703 bdbd f8b7 82bd 2d1b e2bd
00000070: d8b2 4ebc bcd0 973d 97c5 89bb 7259 c9bd
00000080: e280 d7bd f111 a03d c252 ffbc 1b90 7dbb
00000090: cf9d 2cbc 1f4e eebd 358e c2bd 5a65 08be
000000a0: bc04 7b3c 6a78 86bc c76b 8abd 7e6d 403d
000000b0: 0503 61bb fc10 49bb d9e6 9dbd f67c 003c
000000c0: c36e b1bc fdab 413d bbcf 253d 3b01 10bd
000000d0: 2f72 f43d 2cf7 2a3c 0866 97bd f2ad dc3d
000000e0: 0fe4 92bc 5ab0 af3b 2949 b1bc c97e 92ba
000000f0: 546f b43d 1ad5 14bd 6d52 963d ba67 34be
00000100: 3e73 a3bc 9b21 1b3e 736c e63c 3fc1 f03c
00000110: dce8 7ebd cbb4 c43d 4436 7f3c d55c 493e
00000120: 2fe5 8c3d 20de c03d 9710 923b 8b04 98bc
00000130: d44a 32bd 8427 95bd dcf5 323d 1b23 9f3d
00000140: f3f6 ec3d 6259 0abd 1d35 153a dd6f f23c
00000150: 48b4 1f3d a309 93bd fd75 fb3d 2694 063d
00000160: 14bf c4bd 537a f4bd d476 9a3d 0267 27bd
00000170: 4ef6 bdbd e178 6e3d d495 f63d 6595 d83c
00000180: 0755 593d aace 133e 7aaf 18be 6b3a c33d
00000190: bc8d afbd 5190 ae3d d167 c83c 0129 f1bd
000001a0: 9a55 5ebc 8efe 33bc d8a8 483c a2b1 4cbc
000001b0: dc44 d13c 77dc a7bd e99f 29bd 8251 66bc
000001c0: 7312 24bd 81d3 1c3d 5448 a6bd 32ff a3bd
000001d0: ab75 b3bb 55cc eabc 4eed 85bd 8ce7 ac3d
000001e0: 6aad 06bc b34c 1abe 9740 223d c13a 133d
000001f0: 81d9 913c 3804 e53d dd34 5ebd 43a5 c6bd
00000200: 0137 3ebc 3d1c f7bd 41ca fc3c d39f f93d
00000210: 3b91 9d3d e252 1bbd 30b9 d53d 8e9a cb3d
00000220: d5fc ebbc 6581 e23b d248 e3bc 01f3 ebbc
00000230: 7baf 3bbc b91b d43d 0398 48bd b20e cf3d
00000240: 241b a8bd a306 f43c 8b51 293d b307 683d
00000250: 517b 963d 9d70 043d 18ae 5bbb 042e 3cbd
00000260: aa4c 853d f625 aa3d cca4 4ebc 1fad 5b3d
00000270: 699a 953c d469 14bd c85c 68bd 3e58 b33c
00000280: 40a0 c93d 75ed e0bd 1a29 78bc c637 99bc
00000290: c7a1 afbd cd62 c23d 53bd 273c d986 4f3d
000002a0: fc10 1e3e 1c25 183d 7cb7 873d 3b82 1a3d
000002b0: 8d2f 05be 3d6d 933d a6f0 833d 1a92 d83b
000002c0: 6723 83bd 9644 093b bc16 d13b 7e20 e03c
000002d0: a6e3 be3c 987d d9bd 4668 373e 6c87 88bc
000002e0: 84b6 643c 4eec 54bd 5e71 27bd ea58 a1bd
000002f0: dd31 b23c 7deb febc 0e44 9fbc 315d 673d
00000300: e635 893d bcd6 3e3d 4c8c e03b db76 13bd
00000310: b6f9 8cbd bf0b 11be a7dd 24bd 1e4d eaba
00000320: 2b6a e8bc 5fa1 98bd 9871 fbbc 67cd 423e
00000330: dbc5 1abd eb92 ac3c 0492 2ebd ab5a d03d
00000340: 044b 73bd f6d9 683c 9fb4 e63c dde6 b3bd
00000350: b3a3 e2bd 1c09 9abd e990 b53c ff6c 9e3d
00000360: 87e6 953d 9aae 823d 9e52 1e3e 23d2 61bd
00000370: b7d8 06be 139b cb3d 1cc0 11be e4a4 90bd
00000380: 2b9e 4cbd 14ae 7bbd d4ff 0f3d c28b 05be
00000390: 2833 3b3c c500 c3bc 5865 633d ed0b f4bc
000003a0: 2d97 bbbc 9a88 9fbc 9224 abbd b808 7cbd
000003b0: 3642 a23d 5423 323d b803 093d f1c2 23bd
000003c0: 1b22 89bd ff4e b0bd 920b c3bd 07f9 14bd
000003d0: 43ec a1bd d1c7 313d ecef e13c 10d3 2bbd
000003e0: 5a6d b4bb 30f4 043e a8eb 13be e1a8 e1bd
000003f0: c207 9a3d be22 acbd f1e6 883d c1e0 213d

layers.block_2.layer.0.bias f4 [128]
-0.025985535 -0.06437926 -0.0056083268 0.004385989 0.05800253 -0.0076328604 0.043302268 -0.014733267
-0.023340316 -0.011404099 -0.10160108 0.0698048 0.07862515 -0.03879371 0.06855312 -0.048922822
0.0046821414 -0.05404407 0.05059981 -0.017198438 -0.07752286 0.071913145 0.05734485 -0.023122115
-0.0615178 0.038599815 0.030713601 -0.021801578 -0.025240244 0.07317151 0.012958358 -0.08280106
-0.06442275 -0.007387216 -0.017545275 -0.006157815 -0.017932743 0.005578047 -0.0986864 0.03924126
0.042093214 -0.06722639 -0.007872813 0.06005922 0.009813794 -0.029323148 0.008846553 -0.012424592
-0.06798297 0.0049236915 -0.008451173 0.025409972 0.05275865 -0.089086354 0.07496317 -0.051471233
0.07739978 -0.04155398 -0.08994139 0.05216406 0.052925352 -0.07234349 -0.00554735 -0.07330426
-0.06597892 -0.0012476941 -0.064575456 -0.008185107 0.08217193 0.06823337 0.005983344 -0.0666284
-0.07986891 -0.06365379 0.020906823 0.087601185 -0.041569725 0.074344255 -0.048287325 0.0099955
0.01468487 0.081043996 -7.1603325e-05 0.071454965 -0.019057626 0.03425558 0.02927911 -0.028707225
0.0045307856 0.030559262 0.0762232 0.056228776 -0.08921469 -0.026193973 -0.031028153 0.004804959
0.029989328 0.019866435 -0.057137154 -0.04632557 0.013524265 0.02023046 0.007471509 -0.0007894943
-0.034462195 -0.08276776 -0.053585812 -0.047982994 0.03838688 -0.024959542 -0.057905097 -0.08026117
-0.039740182 -0.061820906 0.013697974 0.023850556 0.005935878 -0.06736977 -0.048571873 -0.1021024
0.038767144 -0.024828514 -0.0075324783 -0.065195836 0.043167774 -0.06508376 -0.078712046 0.009465832
00000000: 9edf d4bc 46d9 83bd 0ec6 b7bb 58b8 8f3b
00000010: 1094 6d3d 131d fabb b85d 313d cd63 71bc
00000020: 3134 bfbc 42d8 3abc 3a14 d0bd d2f5 8e3d
00000030: 3906 a13d 27e6 1ebd 9465 8c3d 4c63 48bd
00000040: a66c 993b 515d 5dbd bf41 4f3d bde3 8cbc
00000050: 4ec4 9ebd 3347 933d 6fe2 6a3d 976a bdbc
00000060: 17fa 7bbd d71a 1e3d 179b fb3c 3999 b2bc
00000070: a1c4 cebc f2da 953d 4b4f 543c 9a93 a9bd
00000080: 13f0 83bd 7610 f2bb 1cbb 8fbc 7fc7 c9bb
00000090: b0e7 92bc 0dc8 b63b 181c cabd 72bb 203d
000000a0: ef69 2c3d fdad 89bd f9fc 00bc a800 763d
000000b0: 09ca 203c 1937 f0bc 22f1 103c 8490 4bbc
000000c0: a83a 8bbd eb56 a13b ca76 0abc 9328 d03c
000000d0: 7419 583d e872 b6bd 4a86 993d 80d3 52bd
000000e0: c783 9e3d 8234 2abd 3133 b8bd fba9 553d
000000f0: 41c8 583d d328 94bd 8bc6 b5bb 8b20 96bd
00000100: f51f 87bd ab89 a3ba 2340 84bd d41a 06bc
00000110: c249 a83d f0bd 8b3d ed0f c43b 7874 88bd
00000120: 5092 a3bd eb5c 82bd c944 ab3c 4068 b33d
00000130: 0445 2abd cd41 983d eec8 45bd 2ac4 233c
00000140: cf98 703c 65fa a53d be29 96b8 fb56 923d
00000150: bd1e 9cbc 944f 0c3d beda ef3c 6a2b ebbc
00000160: fc76 943b 6b57 fa3c e91a 9c3d 2550 663d
00000170: 31b6 b6bd be94 d6bc c12e febc eb72 9d3b
00000180: 2eac f53c efbe a23c a608 6abd e2bf 3dbd
00000190: e194 5d3c 5aba a53c 8fd3 f43b 11f6 4eba
000001a0: 3b28 0dbd 2582 a9bd cc7c 5bbd d189 44bd
000001b0: 903b 1d3d f477 ccbc e52d 6dbd f85f a4bd
000001c0: 9ac6 22bd eb37 7dbd 786d 603c 3e62 c33c
000001d0: c181 c23b 29f9 89bd 4df3 46bd 101b d1bd
000001e0: 4cca 1e3d 2b65 cbbc 02d3 f6bb 6585 85bd
000001f0: b1d0 303d a24a 85bd c833 a1bd 9416 1b3c

layers.block_3.layer.0.weight f4 [128, 128]
0.017875468 -0.0896481 0.023980614 0.054079577 -0.05685115 -0.08383759 0.08615215 -0.052379485
0.021561421 -0.04478094 -0.074956425 -0.026490094 0.13442531 -0.09738606 0.0070522493 -0.031647373
0.04627536 0.03777761 0.034948383 0.06098343 0.07130879 0.06560441 -0.12004398 0.03226472
-0.05459909 0.08233253 0.022753496 0.09008828 -0.1050241 0.12859209 -0.07212949 0.0037620324
-0.0008718512 -0.03284673 0.08955931 0.028169839 0.028345928 -0.0717278 -0.024069222 -0.010784699
-0.07071183 -0.11274504 0.0001566284 -0.047750182 0.07009957 0.07697163 0.034128983 0.013266349
-0.06371336 0.010977425 -0.059964437 -0.010706245 0.006435162 -0.07738915 0.017128656 -0.03669367
0.08653998 -0.024693215 0.054903828 0.052613594 -0.036451675 0.071245514 0.040694647 -0.06812181
0.036985923 0.016924726 0.063315414 0.000966018 -0.041927375 0.016321994 -0.008920432 0.034612585
0.11485507 0.055050813 0.04981985 0.024407843 -0.14441495 -0.04580272 -0.14527637 -0.21128654
-0.022517953 0.01009964 -0.11143237 0.17542748 0.10433006 0.088787355 0.08273145 -0.07857958
0.057491146 -0.092587 0.013934989 -0.017836593 -0.023755768 0.06917365 -0.016851865 0.008910154
0.064029165 -0.028664423 -0.10907 0.07839187 0.09383363 0.024970323 0.045320023 0.009006846
-0.055198774 0.044105973 -0.051474396 -0.029093016 0.13002092 -0.10804087 -0.0073220897 -0.004009597
0.04948368 -0.065695435 -0.05891649 0.100560926 0.009809332 -0.08951954 -0.06040578 0.029273538
0.09675999 0.019705066 -0.03272032 0.06656171 -0.064761385 -0.0030634906 0.10493589 -0.050237957
-0.0040548337 -0.10684167 -0.032843936 -0.016698338 -0.0025995579 0.14458036 0.12268076 -0.16508345
0.12748261 0.019485861 0.03210302 -0.003733177 -0.057882622 0.18129578 -0.07097991 -0.110240616
-0.0809916 0.0072977226 0.021506365 0.021651551 -0.020461598 -0.09941662 -0.132197 0.10273999
0.025705481 0.003636167 0.09841211 0.14495775 -0.0379366 -0.002513862 -0.021576103 -0.10951479
-0.09610981 -0.055334873 0.0027322543 0.07040655 -0.024896631 0.07407538 -0.020161336 0.10351193
0.004797792 0.07525391 -0.008461178 -0.11316652 -0.056424335 0.03978278 -0.035058755 -0.028035946
-0.06219282 -0.048922203 0.0343266 -0.029040102 0.038232174 0.05416734 -0.00871925 -0.059624445
0.022524858 -0.022277603 0.032227166 0.046611287 0.039212313 0.02881848 -0.15985243 -0.012561595
-0.104252554 0.04214659 0.017485524 0.15117012 -0.025750488 -0.0495202 0.060456924 0.08130524
0.14195596 -0.14245152 0.07624636 0.031481173 -0.010779832 0.045057405 0.08293648 0.072213
-0.022564597 -0.039806318 -0.027056215 -0.07319844 0.016755711 0.067376435 -0.026429154 -0.013944887
-0.038667023 0.063418426 -0.040188547 -0.0042660553 -0.0142484745 0.04881613 -0.028341658 -0.045141783
-0.09401371 -0.00050066976 0.04160237 -0.05318414 0.0033359635 0.10975911 -0.07713537 0.025738973
0.01460718 -0.06420823 0.12166202 -0.05941142 -0.10275855 0.073051795 0.04353226 -0.009882807
0.06623943 0.08277996 0.049771585 -0.03402312 -0.043273162 -0.003690671 0.007508021 -0.26090983
0.045158256 -0.056026425 0.017080013 -0.031049665 0.0037007092 0.15770744 0.0019107774 -0.010679781
00000000: 936f 923c 6c99 b7bd fe72 c43c 8c82 5d3d
00000010: c0dc 68bd 0bb3 abbd 8a70 b03d df8b 56bd
00000020: 94a1 b03c 386c 37bd c182 99bd c101 d9bc
00000030: caa6 093e 5872 c7bd 8e16 e73b ada0 01bd
00000040: 3b8b 3d3d b2bc 1a3d 0926 0f3d c3c9 793d
00000050: 580a 923d 9b5b 863d 9ed9 f5bd 0328 043d
00000060: 4ca3 5fbd f59d a83d 8a65 ba3c 3480 b83d
00000070: e016 d7bd a5ad 033e a0b8 93bd 6e8c 763b
00000080: f28c 64ba 4b8a 06bd df6a b73d 6fc4 e63c
00000090: b835 e83c 06e6 92bd d12c c5bc 4eb2 30bc
000000a0: 5dd1 90bd dfe6 e6bd 9e3c 2439 b295 43bd
000000b0: 5d90 8f3d 4da3 9d3d d5ca 0b3d 1a5b 593c
000000c0: 267c 82bd a8da 333c 459d 75bd 3f69 2fbc
000000d0: 0dde d23b 347e 9ebd 6551 8c3c 1a4c 16bd
000000e0: df3b b13d 6d49 cabc d6e2 603d 5a81 573d
000000f0: 5a4e 15bd 2be9 913d 6eaf 263d 7383 8bbd
00000100: 8d7e 173d b9a5 8a3c 83ab 813d 5f3c 7d3a
00000110: 0abc 2bbd b4b5 853c 0127 12bc edc5 0d3d
00000120: 2339 eb3d f67c 613d e60f 4c3d f5f2 c73c
00000130: 83e1 13be a29b 3bbd 54c3 14be 805b 58be
00000140: 9277 b8bc f678 253c a836 e4bd 43a3 333e
00000150: 00ab d53d 25d6 b53d 1b6f a93d 55ee a0bd
00000160: d67b 6b3d 419e bdbd 954f 643c 0c1e 92bc
00000170: 759b c2bc eaaa 8d3d ec0c 8abc e5fb 113c
00000180: b921 833d a7d1 eabc 1860 dfbd eb8b a03d
00000190: d92b c03d 908e cc3c 7da1 393d 7391 133c
000001a0: 1c18 62bd 77a8 343d d1d6 52bd 7a54 eebc
000001b0: 3424 053e 8844 ddbd 24ee efbb f062 83bb
000001c0: 66af 4a3d 548b 86bd 6b52 71bd e3f2 cd3d
000001d0: 52b7 203c 0556 b7bd 0d6c 77bd 0fcf ef3c
000001e0: 1a2a c63d 856c a13c be05 06bd 8151 883d
000001f0: 9ea1 84bd d8c4 48bb a1e8 d63d 51c6 4dbd
00000200: 69de 84bb cecf dabd 5d87 06bd f4ca 88bc
00000210: 585d 2abb e00c 143e 0d40 fb3d a30b 29be
00000220: cd8a 023e d0a0 9f3c 757e 033d 51a8 74bb
00000230: 5416 6dbd 9aa5 393e ea5d 91bd d5c5 e1bd
00000240: edde a5bd bc21 ef3b 1e2e b03c 985e b13c
00000250: 159f a7bc f19a cbbd a65e 07be 5869 d23d
00000260: 4d94 d23c c24c 6e3b 4a8c c93d ce6f 143e
00000270: 6963 1bbd 9bbf 24bb 5ec0 b0bc 4a49 e0bd
00000280: 38d5 c4bd d2a6 62bd 9f0f 333b 4f31 903d
00000290: 05f4 cbbc d5b4 973d 6329 a5bc 10fe d33d
000002a0: cc36 9d3b b91e 9a3d c1a0 0abc d9c3 e7bd
000002b0: 341d 67bd 45f3 223d c599 0fbd a4ab e5bc
000002c0: e6bd 7ebd a662 48bd 0d9a 0c3d 82e5 edbc
000002d0: 5799 1c3d 93de 5d3d 2fdb 0ebc c338 74bd
000002e0: 0d86 b83c 857f b6bc a200 043d 7aeb 3e3d
000002f0: 179d 203d bc14 ec3c 5bb0 23be 26cf 4dbc
00000300: 5d82 d5bd e7a1 2c3d cd3d 8f3c 57cc 1a3e
00000310: b0f2 d2bc b1d5 4abd aea1 773d 5d83 a63d
00000320: e75c 113e d0de 11be 0d27 9c3d 67f2 003d
00000330: e49d 30bc 1d8e 383d 9ada a93d 69e4 933d
00000340: 64d9 b8bc f30b 23bd ffa4 ddbc 10e9 95bd
00000350: 4643 893c a8fc 893d f481 d8bc 1879 64bc
00000360: 5061 1ebd 85e1 813d bf9c 24bd 44ca 8bbb
00000370: 6f72 69bc 6cf3 473d c42c e8bc 97e6 38bd
00000380: 438a c0bd 613f 03ba 3f67 2a3d 9dd7 59bd
00000390: 2ea0 5a3b 62c9 e03d 26f9 9dbd 8ada d23c
000003a0: f452 6f3c 9b7f 83bd f029 f93d 6459 73bd
000003b0: 1373 d2bd 2e9c 953d e24e 323d 7feb 21bc
000003c0: 8aa8 873d 8a88 a93d 4add 4b3d d45b 0bbd
000003d0: 333f 31bd 2fdf 71bb d805 f63b f995 85be
000003e0: ddf7 383d f77b 65bd 62eb 8b3c de5b febc
000003f0: 9987 723b 0f7e 213e 0d73 fa3a 40fa 2ebc

layers.block_3.layer.0.bias f4 [128]
0.073189944 0.0062419474 -0.018236553 -0.08252404 -0.06756253 -0.043403823 0.089946076 -0.047997445
0.012421002 -0.012837161 -0.05455657 -0.013678051 0.053400565 -0.02697805 -0.0513624 -0.0075506517
0.015232596 0.041679885 -0.056422323 0.018614223 -0.006369574 -0.058528315 0.050707538 0.016028387
0.0019865273 -0.013169521 -0.11454809 -0.02671906 -0.014862941 -0.062269904 0.073786914 -0.01342587
0.028961936 -0.07403439 0.027577298 0.065206 -0.009455599 -0.032845203 -0.042502217 -0.0013672124
0.0020611337 -0.022756677 0.05667558 0.046704788 0.056280117 -0.026192553 0.041929316 0.037553467
0.033612877 0.067909256 0.054518465 -0.08858435 0.04137127 -0.0155778 -0.031134294 -0.06412307
0.054644633 0.03266457 -0.027325287 -0.0361361 -0.080451146 -0.1030825 0.03332854 -0.047374558
-0.08013496 -0.03667435 -0.06735827 -0.05115459 -0.07124495 -0.03627921 -0.020322993 0.0014714012
0.053998716 0.0027145115 0.03131065 -0.006925953 -0.02568158 -0.066798456 0.0054494585 -0.06742163
-0.09305835 -0.06922757 -0.03864258 0.038522813 -0.0963666 0.0045831166 0.06647835 -0.058043428
-0.05269329 0.051761355 0.03488932 -0.02442505 0.0005691432 0.038491327 0.0074508428 0.057060353
0.019601053 0.015584689 0.09126474 0.06094332 0.018571403 0.063861616 0.05559338 -0.014434778
-0.11558093 -0.03461119 0.021692866 0.0773598 -0.061231356 0.052618414 -0.046810232 -0.056871723
-0.07721137 -0.024982125 0.0161772 0.03501239 0.043608665 -0.018219257 0.04970902 -0.08617758
0.0129166925 0.05502076 0.040656753 -0.02930437 0.09995273 -0.052068073 0.038411945 -0.08247591
00000000: 9ce4 953d 4089 cc3b d364 95bc 5d02 a9bd
00000010: 395e 8abd 35c8 31bd a635 b83d f898 44bd
00000020: 7581 4b3c f552 52bc b676 5fbd e719 60bc
00000030: 8dba 5a3d 1201 ddbc 6161 52bd 756b f7bb
00000040: 2392 793c 87b8 2a3d 181b 67bd db7c 983c
00000050: dcb7 d0bb 63bb 6fbd b5b2 4f3d f74d 833c
00000060: 6630 023b f9c4 57bc 3098 eabd eee1 dabc
00000070: b183 73bc ba0e 7fbd 981d 973d 2ef8 5bbc
00000080: 9541 ed3c 589f 97bd c9e9 e13c b98a 853d
00000090: a8eb 1abc b188 06bd ce16 2ebd 0934 b3ba
000000a0: 1614 073b 366c babc a724 683d 854d 3f3d
000000b0: fb85 663d c491 d6bc 13be 2b3d aad1 193d
000000c0: a8ad 093d 0214 8b3d c14e 5f3d b66b b5bd
000000d0: ec74 293d 073a 7fbc 590d ffbc f552 83bd
000000e0: 0dd3 5f3d 49cb 053d 48d9 dfbc 7203 14bd
000000f0: 92c3 a4bd eb1c d3bd 8283 083d d30b 42bd
00000100: cc1d a4bd d837 16bd 22f3 89bd 7a87 51bd
00000110: dfe8 91bd 8299 14bd 687c a6bc 08dc c03a
00000120: c22d 5d3d f2e5 313b 993f 003d 1bf3 e2bb
00000130: 2d62 d2bc a1cd 88bd 5f91 b23b 5a14 8abd
00000140: 6095 bebd 2fc7 8dbd af47 1ebd 19ca 1d3d
00000150: da5b c5bd f82d 963b cd25 883d f2be 6dbd
00000160: ebd4 57bd b703 543d 1be8 0e3d 0b17 c8bc
00000170: 8e32 153a 15a9 1d3d 3326 f43b 1eb8 693d
00000180: 6392 a03c ec56 7f3c 02e9 ba3d b49f 793d
00000190: 0e23 983c e1c9 823d e2b5 633d d97f 6cbc
000001a0: b2b5 ecbd 77c4 0dbd 3db5 b13c d16e 9e3d
000001b0: bbcd 7abd 6886 573d 16bc 3fbd 53f2 68bd
000001c0: ff20 9ebd 50a7 ccbc 0c86 843c 2769 0f3d
000001d0: 009f 323d 8d40 95bc af9b 4b3d df7d b0bd
000001e0: 89a0 533c 735d 613d b287 263d b80f f0bc
000001f0: 04b4 cc3d 5545 55bd d855 1d3d 21e9 a8bd

layers.output.weight f4 [2, 128]
0.25484052 0.041134454 0.09284044 -0.16103518 0.09129899 0.12874499 -0.19476391 0.4282839
0.12623657 0.3708052 -0.28502288 -0.73261255 0.10242009 -0.47467887 0.089736044 -0.04930713
-0.19745317 -0.06938138 0.2586729 0.19458228 -0.24918176 -0.027738886 0.09837238 0.15223046
0.28480822 -0.06834613 0.53207076 0.23234166 0.07225618 -0.009089944 -0.21748383 0.01907278
-0.21461177 -0.6516547 0.2677189 0.39389378 -0.47556183 0.21942744 0.08549925 -0.6095132
-0.41978428 0.13776664 0.24779898 0.09762088 -0.19242558 0.22707473 -0.08587123 -0.10695555
0.04067791 -0.5284071 -0.27266908 0.1005067 -0.1772515 0.14070968 -0.0021747113 0.17559235
-0.0067072753 -0.00631804 0.062407266 0.32389122 0.27362862 -0.074308485 0.15660933 0.0043052337
-0.08757043 -0.002229823 0.23061925 -0.0261794 -0.060617823 0.2525104 -0.07184428 0.005732685
-0.4353187 0.32716483 -0.10760121 -0.07677946 0.058550842 0.0020903647 -0.26606753 -0.050727803
-0.11532091 0.008077541 0.042918596 -0.073319696 -0.37587 -0.12319146 -0.36433527 0.018353403
0.15940452 -0.1451041 -0.08274895 -0.17192174 0.095835105 -0.24676177 -0.090239786 -0.9199698
0.17228821 -0.18124929 0.12979561 0.086655 0.5778068 -0.03747843 -0.18308002 0.221224
-0.103183165 0.14667024 -0.4695381 -0.07360503 -0.25779626 0.22250608 0.17989165 -0.5597436
0.084771596 -0.50639707 0.16824885 -0.3000732 0.68438864 -0.046274003 0.18124218 -0.106772564
0.6346419 -0.06553728 -0.2415855 -0.08949048 0.7948857 -0.20287395 0.08202254 -0.14627321
-0.03392826 -0.5973126 0.15312964 -0.099455796 -0.36618352 0.18567955 -0.07279484 -0.1824102
-0.37724677 -0.83235806 0.33498666 0.11199293 0.14089836 0.1392107 0.014472932 0.03683519
0.26211706 0.005168245 -0.23709139 -0.35329658 0.32530218 -0.371272 -0.30323657 0.19607528
-0.18848999 -0.20770407 -0.56533885 0.092584975 0.10356767 0.19027947 0.47798985 0.26852828
0.46272373 0.60502076 -0.6569347 -0.17242688 0.32211825 -0.34123075 0.005291447 0.8264276
0.56131905 0.20615809 -0.2501501 -0.015650475 0.56522757 0.04867253 0.034995884 -0.1329636
0.1878865 0.20743841 0.47231486 -0.16202977 -0.023778267 0.16903608 0.05246467 -0.28212616
0.20673664 -0.045187566 -0.40048388 -0.53047466 -0.25753736 -0.1360611 -0.33408865 0.057930406
-0.18976514 0.015329973 -0.24747325 0.25288966 0.65312225 -0.03259387 0.056446258 -0.19630666
0.565391 -0.3293928 -0.056339353 0.16687734 -0.0029539948 -0.26171345 0.2255947 -0.042141903
-0.117455535 -0.19893847 -0.013932499 0.36418322 -0.059646305 0.3447013 -0.25709605 0.0036354114
0.029060092 -0.16010329 0.2719335 0.3286352 0.26498607 -0.5424562 -0.0076019512 0.17284486
0.13937275 0.5755308 0.13030317 0.11128914 -0.23958081 0.020746 -0.09751171 -0.45782104
-0.09141322 0.16338602 -0.117025755 -0.21004577 -0.15133289 -0.07325365 0.09337382 0.5762123
-0.3617747 0.8070102 -0.13930872 -0.2345556 -0.29685813 0.19096558 -0.200579 -0.061601095
-0.22251551 0.0007851098 0.0016409922 -0.100754194 -0.4161286 0.1535475 0.09962499 -0.17542551
00000000: 757a 823e 9a7c 283d 2123 be3d 68e6 24be
00000010: f7fa ba3d bad5 033e 3170 47be 0748 db3e
00000020: 2944 013e 2eda bd3e 85ee 91be 7f8c 3bbf
00000030: a0c1 d13d 1c09 f3be 88c7 b73d 46f6 49bd
00000040: 2a31 4abe d317 8ebd c670 843e 9440 473e
00000050: 8129 7fbe a93c e3bc 7577 c93d 4de2 1b3e
00000060: 62d2 913e 0ef9 8bbd ca35 083f f9ea 6d3e
00000070: 0cfb 933d fded 14bc 15b4 5ebe 853e 9c3c
00000080: 30c3 5bbe d8d2 26bf 7412 893e 72ac c93e
00000090: d77c f3be 96b1 603e 3b1a af3d 0f09 1cbf
000000a0: f7ed d6be b312 0d3e 04bf 7d3e 75ed c73d
000000b0: 360b 45be 4786 683e 41dd afbd 830b dbbd
000000c0: e19d 263d b045 07bf 489b 8bbe 75d6 cd3d
000000d0: 6b81 35be 3316 103e 9a85 0ebb 7bce 333e
000000e0: b4c8 dbbb 9007 cfbb c39e 7f3d 12d5 a53e
000000f0: 0d19 8c3e 0c2f 98bd 325e 203e eb12 8d3b
00000100: 2058 b3bd 3922 12bb 7427 6c3e 2e76 d6bc
00000110: 654a 78bd 0b49 813e 1823 93bd 3fd9 bb3b
00000120: 18e2 debe 2682 a73e 065e dcbd 8d3e 9dbd
00000130: 02d3 6f3d 80fe 083b 013a 88be f5c7 4fbd
00000140: 5f2d ecbd aa57 043c 69cb 2f3d a328 96bd
00000150: 0872 c0be ce4b fcbd 278a babe e059 963c
00000160: f03a 233e 2b96 14be 4878 a9bd 410c 30be
00000170: 3245 c43d 1eaf 7cbe a3cf b8bd 2483 6bbf
00000180: 526c 303e 6a99 39be 24e9 043e 2d78 b13d
00000190: 25eb 133f fb82 19bd 5479 3bbe 8b88 623e
000001a0: b251 d3bd b930 163e 4c67 f0be 3cbe 96bd
000001b0: dffd 83be a2d8 633e 8435 383e 5b4b 0fbf
000001c0: bb9c ad3d 3da3 01bf 6d49 2c3e 32a3 99be
000001d0: 1834 2f3f cf89 3dbd 8d97 393e 93ab dabd
000001e0: e477 223f 6938 86bd 3062 77be c946 b7bd
000001f0: a17d 4b3f 30be 4fbe 6ffb a73d a5c8 15be
00000200: 5cf8 0abd 7be9 18bf 04ce 1c3e 7baf cbbd
00000210: 687c bbbe c822 3e3e 7615 95bd bdc9 3abe
00000220: 7d26 c1be 6b15 55bf 5f83 ab3e 8d5c e53d
00000230: a947 103e 408d 0e3e e01f 6d3c 7fe0 163d
00000240: 3534 863e 625a a93b 16c8 72be 4ae3 b4be
00000250: 028e a63e 5d17 bebe d341 9bbe f5c7 483e
00000260: 8503 41be 60b0 54be 0cba 10bf 319d bd3d
00000270: 491b d43d 9fd8 423e 16bb f43e 8a7c 893e
00000280: 20ea ec3e a4e2 1a3f df2c 28bf ac90 30be
00000290: afec a43e ccb5 aebe e063 ad3b c290 533f
000002a0: 9bb2 0f3f 1b1b 533e ad13 80be 6d35 80bc
000002b0: c1b2 103f d95c 473d d857 0f3d 9c27 08be
000002c0: 5265 403e bc6a 543e 41d3 f13e 22eb 25be
000002d0: a4ca c2bc cb17 2d3e 32e5 563d d772 90be
000002e0: c5b2 533e 9916 39bd 390c cdbe 30cd 07bf
000002f0: f0db 83be 9a53 0bbe ab0d abbe 6f48 6d3d
00000300: cb51 42be 912a 7b3c a169 7dbe c17a 813e
00000310: 0533 273f 2681 05bd 3134 673d 9d04 49be
00000320: 77bd 103f 2ca6 a8be 18c4 66bd e5e1 2a3e
00000330: cf97 41bb 4eff 85be 4c02 673e fd9c 2cbd
00000340: 878c f0bd 87b6 4bbe 2345 64bc 3976 ba3e
00000350: af4f 74bd b07c b03e 18a2 83be 1540 6e3b
00000360: 6e0f ee3c 1ef2 23be de3a 8b3e df42 a83e
00000370: 41ac 873e 69de 0abf ca19 f9bb 3efe 303e
00000380: bbb7 0e3e fd55 133f 326e 053e 90eb e33d
00000390: ac54 75be 84f3 a93c 38b4 c7bd 8567 eabe
000003a0: db36 bbbd aa4e 273e 33ab efbd 3d16 57be
000003b0: 02f7 1abe 0206 96bd c63a bf3d a682 133f
000003c0: 893a b9be 3898 4e3f f2a6 0ebe 582f 70be
000003d0: cafd 97be 7b8c 433e 9564 4dbe 6e51 7cbd
000003e0: 1bdb 63be d4cf 4d3a 9016 d73a 3758 cebd
000003f0: cf0e d5be 8e3b 1d3e 3008 cc3d bfa2 33be

layers.output.bias f4 [2]
0.16469294 -0.03912807
00000000: 44a5 283e c144 20bd
