results/SMOTE20K/smote999/smote0.15/model.pth (torch, 205093 bytes, 10 tensors)

layers.block_0.layer.0.weight f4 [128, 2]
00000000: 2622 353f 3515 2f3f 8682 c2be 37cc ff3e
00000010: cc9d f23e bf3e c63e efa8 2e3f e7f0 cfbe
00000020: 1e89 663f f571 ad3e 0446 6fbf f6c1 89be
00000030: a2db 96bf ff8d d1bd 3e21 083f b6f0 fabe
00000040: 8d5f 263e 727a 12bd 7f20 423f 1cbf 343e
00000050: f542 833f 8469 0fbf f339 5bbf 3cf4 223e
00000060: 6c9b 743f 260a f93e c97d 15bf 819d 153f
00000070: e52d 53bf 62da 133f 6aee 20bf cd0a 873d
00000080: 5ad0 46bf bb83 49be c0b3 64be d85c e33e
00000090: 95f9 973e 4c18 0c3e d1cf 9a3f 0fe3 963c
000000a0: f637 aebe 39f0 9dbe 0c41 493f fc6d a73e
000000b0: ca72 87bf 9eff 49be e9ee 8cbf 326a 393e
000000c0: e4fb 563e db57 2c3f 4462 7c3d eea1 06bf
000000d0: 4abb 44bf fae3 163d 344d 003f 1be7 ecbe
000000e0: 83d0 5dbf cb3e b33e 977e 383f 7f2f 94bd
000000f0: f913 ba3e 758e b33e 7567 9ebe 4fe7 513e
00000100: 773b afbf 1bc5 a0be 0a0d 49bf f6e5 ccbd
00000110: f3d9 063d d8a6 33bf 3ed5 60bf 7a41 f43e
00000120: c2e9 28bf fa83 a33e 666e c53e c390 e1bd
00000130: e5ce 90be d24a dd3e 3911 4fbf a914 4ebe
00000140: 8437 1e3e 0525 453f b633 0ebf 1bab a23e
00000150: b0af 48bf 6bb9 f2be a15f 44bf 1b52 aebd
00000160: 4006 9b3f df12 1f3e a45d 0b3f e8d2 e6be
00000170: 61ae 8ebf ffb0 433e fb75 7dbf 1921 03bf
00000180: 8c88 80bf d270 30be 3598 53bf 90b3 8b3e
00000190: e356 5fbf 73df ea3e 97af cebe 083e 50bf
000001a0: cd5b 87bf 92d6 29bd 1692 0ebf ced4 fd3e
000001b0: 7e83 713f 922b 063f c0e0 0e3f 4c91 003f
000001c0: 5cf1 703f 7b15 233f f264 1abf 396d aebe
000001d0: 8078 083f ec0b b53c 693f 1a3d 901b bf3e
000001e0: a29f f73d cb29 1f3f 2e4d 093f 4e0d 493e
000001f0: 6d98 5b3f 28df 77bd a429 8e3f 15ba dfbe
00000200: 6b59 2c3f a1cc 13be e5c8 763f b173 813d
00000210: 73a9 32bf c1b0 ca3d f512 4b3f 357c c4be
00000220: 9b5a fc3e a96e 36be 98ca f23d e57b 29bf
00000230: 4a29 23be df93 0abf 46f1 f73e b5f7 3abf
00000240: 907a 9c3d 7c90 b93d a8d1 853f d4bb 2b3e
00000250: 26e7 34bf ae6a 08bf 55ef 003f 88d5 d93d
00000260: 3913 82bf 8660 213f ea82 433f 1fea f6bd
00000270: b573 f53e 1f99 fdbe c7e3 823f 29a2 143f
00000280: 315a d4be 50f9 433f 6e27 ff3e e2d1 05be
00000290: 61ab 0ebf b745 ca3e 4515 19bf 3570 cabe
000002a0: b559 783f 0824 1dbf 6bd2 583f a312 04bf
000002b0: 9a68 2bbf 5baf 7cbd ef06 d5be cb64 363f
000002c0: 64b6 6ebf 788f fabd 2841 a13e 1086 e73e
000002d0: f823 80be 122b 12bf 9bef 21bf 25c9 01bf
000002e0: 4044 10be aea7 0cbf 5729 323f d5e2 64be
000002f0: 8f9a 693f bfb3 6abe 8992 16bf e90e 943e
00000300: 03d3 abbe 0ccf af3e 4e4c 0bbe f928 b2be
00000310: 74c5 24bf a470 673e e335 abbd 6b29 11bf
00000320: 15ce 1f3f 9851 e4be 15b7 783e 2b89 34bf
00000330: c2bf 40bf b43a ebbe 8444 38bf f65c e13d
00000340: 9825 26bf e094 3abe 450e c73e e5fa 2c3f
00000350: 9935 c6be 0da3 1a3f a56c 473f 30c7 f0be
00000360: d4b5 27bf 822c 4f3e 281f 383f 0d29 023e
00000370: 7a2d 8b3f b360 f93e 5f2f a3bf 035a f5be
00000380: 04c4 e0be 6f48 fe3e 519c 013f e1f5 623e
00000390: 9c5f 7f3f fb1b 9c3e d82d 743f a625 313e
000003a0: 58a0 893e 6448 eb3e 6649 543f 956a 0a3f
000003b0: da02 133e c831 063f 818f 3abf 243c 15bf
000003c0: c818 8d3e fa80 b13e 445e d0be 5050 07bf
000003d0: 912e b53e 6822 173f 52e9 363e 312d 10bf
000003e0: 90d6 223f 0412 283d 442b 62bf b084 f63e
000003f0: acbb ee3e 2405 47bf d808 863f c223 27bf
0.7075523 0.68391734 -0.37990206 0.4996049 0.47386014 0.38719746 0.6822652 -0.4061348
0.90052974 0.33876005 -0.9346621 -0.26905793 -1.1785777 -0.10232162 0.53175724 -0.49011773
0.16247387 -0.035761304 0.75830835 0.17651027 1.0254809 -0.5602038 -0.856353 0.1591348
0.95549655 0.48640555 -0.5839506 0.58443457 -0.82491904 0.577551 -0.6286379 0.06593857
-0.7766167 -0.19679157 -0.22334194 0.44406772 0.29682603 0.13681144 1.209467 0.018418817
-0.3402707 -0.30847338 0.7861488 0.327011 -1.0581906 -0.19726416 -1.101041 0.18106917
0.20994526 0.67321557 0.06161715 -0.52590835 -0.7684828 0.03683851 0.501178 -0.4627007
-0.8664629 0.35008845 0.7206816 -0.07235622 0.36343363 0.35069624 -0.30938306 0.20498393
-1.3690022 -0.3140038 -0.7853552 -0.10004799 0.032922696 -0.7017646 -0.8782538 0.47706205
-0.65981686 0.31936628 0.3856079 -0.11013939 -0.28282848 0.43221146 -0.80885655 -0.20125069
0.15450865 0.7700961 -0.55547655 0.31771168 -0.7839308 -0.47407088 -0.7670842 -0.08511754
1.2111282 0.15534543 0.5443976 -0.45082784 -1.1146966 0.19110487 -0.9900815 -0.5122238
-1.0041671 -0.17230538 -0.82654124 0.27285433 -0.87241954 0.45873603 -0.4036834 -0.8134465
-1.057489 -0.041464396 -0.5569166 0.4957642 0.94341266 0.52410233 0.5581169 0.50221705
0.94118285 0.6370465 -0.6031028 -0.34067705 0.5330887 0.022100411 0.03765813 0.37325716
0.120909944 0.62173146 0.5363339 0.19633982 0.8577946 -0.060515553 1.1106458 -0.43696657
0.6732394 -0.14433528 0.9640029 0.063208945 -0.6978981 0.098969944 0.793258 -0.38376012
0.49287876 -0.17815651 0.11855048 -0.66204673 -0.1593372 -0.54131883 0.48426265 -0.7303422
0.076405644 0.09060761 1.0454607 0.1677087 -0.70665205 -0.5328778 0.5036519 0.10636431
-1.0162116 0.6303791 0.76371634 -0.12056374 0.4793984 -0.49530885 1.0225762 0.58059937
-0.4147506 0.76552296 0.4983477 -0.13068345 -0.55730253 0.39506313 -0.5979808 -0.39538732
0.9701188 -0.61383104 0.8469607 -0.5159094 -0.66956484 -0.06169067 -0.41606852 0.7124755
-0.93247056 -0.12234396 0.31495023 0.4521947 -0.25027442 -0.5709697 -0.63256234 -0.5069755
-0.14088535 -0.5494336 0.6959433 -0.22352155 0.9125146 -0.2292013 -0.58817345 0.28917626
-0.33559427 0.34337652 -0.13603327 -0.34796885 -0.6436379 0.22601563 -0.083598875 -0.56703824
0.6242383 -0.445935 0.2428859 -0.705218 -0.752926 -0.45943224 -0.71979547 0.11004059
-0.64901114 -0.18220854 0.38878074 0.67570335 -0.38712767 0.60405046 0.77900153 -0.47026968
-0.6551182 0.20231822 0.7192254 0.12710972 1.0873253 0.48706588 -1.2748832 -0.47920236
-0.43899548 0.49664637 0.50629145 0.22164108 0.99755263 0.30490097 0.9538245 0.17299518
0.26880145 0.45953667 0.829245 0.5406888 0.14356557 0.5241971 -0.7287522 -0.5829489
0.2755797 0.34668714 -0.4069692 -0.5285692 0.3538709 0.59036875 0.17862442 -0.56318957
0.63608646 0.041032806 -0.8834727 0.48148108 0.46627557 -0.7774222 1.0471449 -0.6528894

layers.block_0.layer.0.bias f4 [128]
00000000: 2db4 2ebf cbcf 043f 4717 cd3e e87f 0b3f
00000010: 3434 0abf 700a 853e bb8a f53d f32b 30bf
00000020: bd01 35be fc07 ab3e 8b8e 083f d7c2 0abe
00000030: 16d3 dcbe 0443 16bf 4986 fabe 3885 8a3e
00000040: 4961 e3be 21f5 34bd 6051 f8be 97c8 18bb
00000050: b585 283f 2299 3bbc 1385 243e a5d9 51be
00000060: c3f9 0ebf 13b4 37bf 9889 3a3d 8cb9 a13e
00000070: feb0 81be 8aae 383d 6c27 9a3d 3dc1 d13e
00000080: 83c8 9c3e 8b02 24be a1c2 c5be cd01 2ebe
00000090: 1c08 2dbe 0dcb d6bd d437 2a3f c2a7 093f
000000a0: 08aa 2c3f 64ff db3d 9f44 163f bb96 083e
000000b0: 844d 0bbe 0781 b63e a5d0 3ebe 396e e23e
000000c0: e613 1a3e db0d 70be 23be 0abf 4c61 2abf
000000d0: 966e 203e b96e 3a3e f425 13bf 3c00 28bf
000000e0: 974c 1fbf d775 62bd c42d b23e 3150 303f
000000f0: 5f3f cfbd e5c8 01be 033a 9dbd f54c 213f
00000100: 55f8 f83e 8b8d e9bc 1097 0c3f 0ffe 65be
00000110: c34c eabc 4aab ee3e 3204 0cbf 07b6 3c3f
00000120: 0e54 d0be bf52 8cbe 1707 e73e 5712 c0bd
00000130: d171 28bf 0629 d23e 90d4 c5bd f751 adbe
00000140: 9a12 7a3e ec81 02bf d75a 24bf 9cb5 8e3e
00000150: 24a0 1f3f 6ccb 303e dd13 06bf befa ddbe
00000160: 4241 ba3d 4ea1 c13e be2c db3e 90f7 d23d
00000170: 7840 273f 3d28 c33e bf39 003f a703 e63e
00000180: e331 283f 25df b2be 0d45 2ebe 3d64 003f
00000190: 87d6 d13e a735 16bf c865 75be a258 0d3f
000001a0: 9186 9cbd 9961 eebc 96a7 09bf e880 0b3f
000001b0: a75b fabd 6ef6 91bd bedb f9be ac43 ed3e
000001c0: 28e4 33bd c6f2 2fbe 6913 9ebe ede4 4dbd
000001d0: b07d b9be 3ba2 2cbf 61ee 2fbf c01d 953e
000001e0: 100f 983e 7f4a 0dbf cd5a 123e fcb2 41be
000001f0: 30f5 a23e c82f 0cbf 203d 21bf 7cbc 333f
-0.68243676 0.51879567 0.40056822 0.54492044 -0.53985906 0.25984526 0.11989351 -0.6881706
-0.17676444 0.3340453 0.53342503 -0.13550888 -0.43129796 -0.5869601 -0.48930576 0.27054763
-0.4441016 -0.044179086 -0.48499584 -0.002331292 0.6582902 -0.011450084 0.16066389 -0.20493181
-0.55849856 -0.71759146 0.045541376 0.31586874 -0.25330347 0.04508833 0.075270504 0.40967742
0.30621728 -0.16016595 -0.38625053 -0.16992874 -0.16897625 -0.104879476 0.66491437 0.53771603
0.6744695 0.10742071 0.5869846 0.13338749 -0.13603789 0.35645315 -0.18634279 0.44224718
0.15046653 -0.23442785 -0.54196376 -0.66554713 0.15667185 0.182063 -0.57479787 -0.6562536
-0.6222624 -0.055288162 0.3480054 0.6887236 -0.10119509 -0.12674291 -0.076770805 0.6300805
0.48626962 -0.028509876 0.54918003 -0.22460197 -0.028601056 0.46615058 -0.546939 0.7371525
-0.4068913 -0.2740688 0.45122597 -0.09378498 -0.6579867 0.41046923 -0.09659684 -0.33851597
0.24421158 -0.50979495 -0.6420111 0.27872932 0.6235373 0.172651 -0.5237406 -0.43355364
0.09094478 0.37818378 0.42807573 0.10301125 0.65332747 0.38116637 0.50088114 0.44924662
0.6570112 -0.3493587 -0.17018528 0.5015295 0.40983984 -0.58675617 -0.23964608 0.5521337
-0.07642854 -0.029099273 -0.5377134 0.5449357 -0.122245125 -0.07127081 -0.48800462 0.46340692
-0.04391876 -0.17182454 -0.30874184 -0.05026715 -0.36228704 -0.67435044 -0.6872311 0.2912426
0.29698992 -0.55191797 0.1429245 -0.18915933 0.31827688 -0.5476041 -0.62983894 0.7020948

layers.block_1.layer.0.weight f4 [128, 128]
00000000: 371d 3b3d 560f b2bd 7871 be3c 22b0 973a
00000010: 0d13 bd3d 873e fbbc 430b 2f3d 5ce3 13bd
00000020: bf01 eb3c 236c 603d 8abb 74bd 44b4 5f3d
00000030: 3eb0 f73d 73bd c13d b2ff ce3d e4ab 533c
00000040: aec4 153d 8818 6cbd 96ee 8bbd 32ba 933d
00000050: ae14 543d 6933 be3d 4a15 74bd 4ec3 7bbd
00000060: 574e 1b3c c5b9 a1bc c653 dfbb df48 afbc
00000070: 5b73 67bc b831 a83d 5b6b 913c 2771 8fbc
00000080: 5cc6 dcbd 5d61 4fbc 11a0 38bd ad32 4f3d
00000090: 6b0a 56bc f62a 623d 032c 03bd b6ec 753d
000000a0: b9f0 f83c 2991 b6bc 6620 dd3c ab58 123c
000000b0: 1982 a23d 6242 9bbd 8719 93bd 197d f8bd
000000c0: c40b aebd 4c94 81bd 5c5d 42bc 7494 9b3d
000000d0: 916c afbd a0b0 23bd 8235 e53c 5798 913d
000000e0: 32b5 a33d f9f1 bbbd f5ae 773d 0ddf 02bc
000000f0: 35a7 71bd b010 183c 475f d13c d759 1fbd
00000100: 3186 c9bc b4f0 593d 5731 33bd 189d 28bc
00000110: 0db5 9dbd 2e4b 5ebb bf8d 8e3d 128d d9bd
00000120: 6b4b 613d e6ce 7cbc e571 8abd 35aa ec3b
00000130: 80f5 d33d 594e a0bd f0fa b9bd 0659 92bc
00000140: 35bc a23c 8963 9bbd 524a 06bc 7b30 acbc
00000150: b0da 34bd 18ba 253d ccfd b5bc 3776 3d3d
00000160: 0ed7 5abc 71ca a03c 12fb b2bd d0bf 81bd
00000170: 9b58 8c3c d9aa 9ebd bd2e 72bb 7926 1c3d
00000180: 5bfd 383c 0b37 3f3d 2276 863d de19 843b
00000190: 309b 613a 0f05 223d 207d e03c 88a7 b03c
000001a0: 6869 d63c 4914 e0bc 0e26 d43c 2f4d 03bc
000001b0: 67d4 6e3d d6d1 c73d cab4 d83d 257c 133d
000001c0: ff9e b1b9 1cdb 7cbc 9f80 363d d5cd e83d
000001d0: b326 863d bbbd 41bd 4ff4 223d 1a8b 1fbd
000001e0: 114e 463d 7a22 813d 0d71 a7bd b34c 803d
000001f0: 04f0 99bd 0056 993d c10c 123d efc7 f93c
00000200: a09a 6abc 9097 993c 544c cf3d 0fc7 ff3d
00000210: 84c7 cc3d 93a1 04be b2d0 b3bd bcaf 37bd
00000220: 9a4a 6fbd 8c17 ec3d 3330 0d3d 3e1b 00be
00000230: 94b6 ecbb a8de 39be 38bb 2bbd 5f7a 18be
00000240: c759 4dbc 57f6 41be cf4b 2c3b 702a 283e
00000250: 0ad5 b13d 8fdf d73d 5012 983c 86a4 6bbe
00000260: 8d68 1bbe 4c2b bfbd eff0 a8bd df4b 5a3e
00000270: b195 0ebe 0a5b 993d c71c 94bd afa9 88bc
00000280: 459f c3bc ebbb 31bd 98ae 4d3d cfee 99bd
00000290: 3ffa 89bd 4bfa ea3d 23f0 203d c093 42bd
000002a0: ea3c c3bc 1dd9 15be 3e73 9e3b 0a35 23be
000002b0: e628 6a3c edad e73d efd6 c4bd 27f8 4cbd
000002c0: 5253 0ebd 1b26 65be 0280 3cbe b0ba f6bd
000002d0: 8e90 1bbd 477a edbc 80f3 193d d099 013d
000002e0: c757 d43c 314e aa3c 869a 043e 4fd6 ccbb
000002f0: 1579 b13c ab79 bf3d ec4d 6d3d de7e b13d
00000300: 221e a93d 1e85 233e c87d 72bd 8bcb 9f3d
00000310: 0995 303e bcec 413e f97f d1bd d6e6 c73d
00000320: 1b5c 9ebd b1ef d63c c71b d7bc 8014 82bc
00000330: 5c34 0fbd a558 d23d b4b6 f83d 8e33 18bd
00000340: 9f08 d2bd 5dbc 6a3d 2542 0ebe 69c8 ffbc
00000350: b23f f73d 0912 4d3d ec70 8abd b4dc a5bd
00000360: 8830 f0bd 69ce 093d b680 d63d 7717 acbd
00000370: e209 ad3d 49de a33c 81d7 1c3e 3d71 b6bd
00000380: afd4 c9bc 9bad ff3c facc 13bd fb6c 263e
00000390: 5fa3 d03d 8341 ffbc 47fc 65bd 1c52 3e3c
000003a0: 5525 01be 1772 803b 4981 17be 601f 2b3e
000003b0: 3ba8 58be e744 3c3d 3560 ef3d 97d4 79bd
000003c0: f656 19be 6941 26bd a5fd e23d da6e 153e
000003d0: df41 98bd 84f8 773d 373a 02be b7a2 cc3c
000003e0: ca42 c3bc bf10 47bd 9c5c a43d a3a3 de3a
000003f0: 9d46 703d dcfb 98bd c7cf f03b 3a4d fd3d
0.04568216 -0.08694331 0.023247465 0.0011572877 0.09232149 -0.030669464 0.04273535 -0.0361055
0.028687356 0.054790627 -0.059749164 0.054615274 0.120941624 0.09459963 0.10107364 0.0129194
0.03656452 -0.057640582 -0.06832616 0.07213248 0.051777534 0.092871495 -0.059590615 -0.061465554
0.009479127 -0.019741902 -0.0068154065 -0.021397052 -0.014126624 0.08212608 0.017751386 -0.01751001
-0.107800215 -0.012657491 -0.045074526 0.050585438 -0.013064007 0.055216752 -0.032024395 0.0600402
0.030388223 -0.022286015 0.026992988 0.008932273 0.079349704 -0.07581021 -0.07182603 -0.121332355
-0.08498338 -0.063271135 -0.011863079 0.075966746 -0.08565629 -0.039963365 0.027979616 0.07109135
0.07993545 -0.09177012 0.060469586 -0.00798775 -0.05899735 0.009281322 0.025558127 -0.038904037
-0.02460012 0.053208068 -0.043748226 -0.01029136 -0.07700548 -0.0033919322 0.0696063 -0.1062261
0.055003565 -0.015430188 -0.06760005 0.0072224387 0.1034956 -0.07827444 -0.09081066 -0.017864715
0.019865135 -0.07587344 -0.00819643 -0.021019211 -0.04415387 0.040460676 -0.022215746 0.046255317
-0.013356937 0.019627782 -0.08739294 -0.063354135 0.017132094 -0.0774743 -0.0036954128 0.038122628
0.011290873 0.046683352 0.06565501 0.004031404 0.00086061936 0.039555606 0.027403414 0.02156426
0.026173308 -0.027353423 0.025897052 -0.0080140075 0.05830803 0.0975682 0.10581358 0.036007065
-0.00033878532 -0.015433099 0.044556256 0.11367384 0.0655035 -0.04730008 0.039783772 -0.038951017
0.048414294 0.06305404 -0.081758596 0.06264629 -0.075164825 0.07487106 0.035656694 0.030490844
-0.014319092 0.018749028 0.1012198 0.12489139 0.09998992 -0.1295226 -0.0878004 -0.044845328
-0.058420755 0.11527929 0.034469794 -0.12510392 -0.0072239134 -0.18151343 -0.041926593 -0.14890431
-0.012533612 -0.18941627 0.0026290303 0.16422439 0.08683212 0.10540687 0.01856342 -0.2301198
-0.15176602 -0.0933443 -0.082490794 0.21318005 -0.1392429 0.074880674 -0.07232051 -0.016682474
-0.023879657 -0.043392103 0.050215334 -0.07516252 -0.06737184 0.11473521 0.039291512 -0.047504187
-0.023832757 -0.14633603 0.0048355153 -0.15938202 0.0142919775 0.113124706 -0.09611308 -0.050041344
-0.03474743 -0.22377817 -0.18408206 -0.120473266 -0.037979655 -0.02898897 0.037585735 0.031640828
0.025920762 0.020789238 0.12949571 -0.0062511335 0.021664182 0.09349378 0.05793564 0.08666776
0.082577005 0.15968749 -0.059201986 0.078024946 0.17244352 0.18937963 -0.10229487 0.09760825
-0.077324115 0.02623734 -0.026258362 -0.015878916 -0.034962043 0.10270814 0.12144223 -0.03715854
-0.102555506 0.057308543 -0.1389242 -0.031223493 0.12072696 0.050066028 -0.067598194 -0.080987364
-0.117280066 0.033644114 0.104737684 -0.08402913 0.084491506 0.020003455 0.15316583 -0.08908317
-0.024637548 0.031210711 -0.036084153 0.1625251 0.101874106 -0.031159168 -0.056148794 0.011616256
-0.12611897 0.0039198506 -0.14795412 0.16711187 -0.21157925 0.045964148 0.11688272 -0.060993757
-0.14974579 -0.040589724 0.11083535 0.14593068 -0.07434439 0.060539737 -0.1271752 0.024979932
-0.023835558 -0.048599955 0.08025476 0.0016986023 0.058661092 -0.07469913 0.0073489877 0.123682454

layers.block_1.layer.0.bias f4 [128]
00000000: f346 68bd d5d3 763d 7a39 5e3d 3deb b7bd
00000010: 6f20 82bc 686a 513d 5688 873d 8416 c03d
00000020: c759 e8bd a3de b0bd 0db2 29bc a459 b53d
00000030: c5e7 a23d 039f ce3d bef7 d13d 0158 d83d
00000040: 3660 b4bc ed16 d6bd a4bb cc3b a3bb fd3c
00000050: 6a11 9f3d 1b1c 1b3c 7997 c5b9 3d7f 4abd
00000060: 8a39 e6bc 061d 7dbd a44e 6cbd c5e8 a4bc
00000070: b37b 843d a812 973d ea3f a8bd b98f 73bd
00000080: 404d 9dbb a70b 533c bd4e 753d fb2f 0e3e
00000090: 8fd7 113c 2f15 c3bd 7c6f d0bc 2748 81bc
000000a0: a0c0 17bb ba33 82bd 418e de3d ac65 28bd
000000b0: a6c0 acbb 64c7 0d3d fae5 07bd 4685 1dbc
000000c0: b84c ed3c 7076 d1bc 53a2 10bd f064 4a3c
000000d0: 1e5c cf3c 9971 cfbc dd62 07bd 0034 e53d
000000e0: ae22 993c 686c 2bbd 7213 963d 3ff8 893d
000000f0: 6186 b6bd 0906 21bc c39e ccbd b48c 783d
00000100: 1742 593d e08b c43d 6110 2f3d 3936 02bd
00000110: 39e5 b2bd e50b 4abd fdaf e4bc f8d0 17bd
00000120: 93f9 9d3c 7288 0fbd ee09 1fbd b193 8339
00000130: 1823 7b3d 1147 3dbd d656 ab3d c690 d73d
00000140: 993a d4bc 4f95 61bd 1a80 b6bd d241 2e3c
00000150: 1aa6 38bc 64f5 c9bd 1b2b 9abd bfe1 dbbd
00000160: b725 863d f2b0 7ebc 8569 42bd ca09 74bd
00000170: b094 cebd 3737 40bd 45f7 05bd 029a c83c
00000180: 298b 663d 52b7 3ebd 822c 843d b9bc ca3b
00000190: 95e8 f9bd 4828 bdbc b6b8 0abe 9845 4f3d
000001a0: fa2e a83d ba4a a6bd 59e3 b6bc a406 363d
000001b0: 7578 743d f6f7 b5bd 8d12 573d 5334 a83c
000001c0: 796f 8f3c 36f9 06bd edfa 53bb 9640 0e3d
000001d0: 2cb4 f53c a7dc 0abd f257 baba e324 a3bd
000001e0: 6f90 8b3d 3513 02bd 51e8 96bc d659 62bd
000001f0: 70b7 853d b664 69bd c82f 84bd dbaf 153d
-0.056708287 0.060260613 0.054254033 -0.08980415 -0.015884606 0.051126868 0.06617801 0.093792945
-0.11345249 -0.086362146 -0.010357392 0.08854988 0.07954363 0.10088923 0.10252331 0.105636604
-0.022018533 -0.104535915 0.0062479544 0.030973261 0.07766993 0.00946715 -0.00037687624 -0.04943775
-0.028103609 -0.061795257 -0.057692185 -0.020130524 0.06468906 0.07376605 -0.08215316 -0.059463236
-0.0048004687 0.012881196 0.059889544 0.1388549 0.008901491 -0.09525525 -0.025443785 -0.015781475
-0.0023155585 -0.06357522 0.108669765 -0.041112587 -0.005271989 0.03461398 -0.033178307 -0.009614294
0.028967246 -0.02556917 -0.035311054 0.012353167 0.02531248 -0.025322722 -0.033053268 0.11191559
0.018693294 -0.04185143 0.07327928 0.06736802 -0.089123495 -0.009828099 -0.09991219 0.06068106
0.053041544 0.095969915 0.04274023 -0.031789992 -0.08735127 -0.04932775 -0.027915949 -0.037064523
0.019284045 -0.035042234 -0.03882783 0.00025096306 0.061312765 -0.046210352 0.08366172 0.1052566
-0.025906848 -0.055074032 -0.08911152 0.01063581 -0.01127007 -0.09861258 -0.07527753 -0.10736417
0.06550162 -0.015545117 -0.047463913 -0.059579648 -0.10086954 -0.046927657 -0.032706518 0.0244875
0.056285057 -0.046561547 0.06453802 0.0061870483 -0.122025646 -0.023090497 -0.13547024 0.05060348
0.08212085 -0.08119722 -0.022325205 0.044439927 0.05968519 -0.088851854 0.052507926 0.020532763
0.017509209 -0.03295251 -0.0032345608 0.034729563 0.02999314 -0.033901837 -0.0014216884 -0.0796602
0.06814658 -0.0317566 -0.018421324 -0.055261455 0.065291286 -0.05698081 -0.06454426 0.036544662

layers.block_2.layer.0.weight f4 [128, 128]
00000000: b208 43bd 1357 26bd 79c6 243d c15d 703d
00000010: ce03 8fbd b082 8d3c 36a8 173d 91fc f93d
00000020: af96 67bd 7fe3 773d aa47 65bd baa7 f73d
00000030: 9f95 053c a7bf 7cbd b412 a1bd 855c 12bd
00000040: 8b59 3fbd 6f0c 81bd 0a77 b93c 1e11 e03c
00000050: ad0a 373d b942 1cbd 2480 4bbd 4059 19be
00000060: 1202 a0bd 2d27 89bc e274 8abc bd58 473d
00000070: 9856 d9bc 3e94 033d a3fc e13b f020 bfbd
00000080: 9b6b 1a3d 33d6 aabd 8b71 4ebe b6c8 6bbd
00000090: c5b7 f0bd 7c68 8c3d eb10 a43d bb98 9ebc
000000a0: 8f97 27bd 1e9e 8fbd a6f5 023c 3c7a 7e3d
000000b0: 1948 bcbd af54 dd3d 35aa 15bc 9f03 e23c
000000c0: 750d 2a3c ff87 c0bd c93a 8cba 466a a4bd
000000d0: 1a83 b73d b6b5 c53d c22a 8e3b 02c2 5bbd
000000e0: 6e7d 1bbd 6481 113d 9c50 b43d 8915 923c
000000f0: 4823 8fbc f845 523d f234 81bc 5e4d 9b3d
00000100: 3316 8dbd ee51 3abd 8f23 803d e275 21bd
00000110: d6e0 cdbd 62de 823c fab1 5ebd 0d3c 4c3d
00000120: a637 143c df16 933d 419a 62bd 1ed3 b6bc
00000130: 09c6 5abd b9d0 90bd 1d8d 82bc 2e84 2fbd
00000140: 38e3 6abd 8f8a 80bd 0d40 8b3d 9c89 a5bd
00000150: dfbd 65bd 27d7 3b3d 361e 8fbd 3c05 ccbd
00000160: 12c2 7d3d e2c8 92bd 570f cfbc fbea 53bd
00000170: 602f cbbd c176 b53a 7e7e f33c 7394 7cbd
00000180: d926 a43d 7a73 3f3c dfcc 103a 5509 b7bc
00000190: a054 a9bd 3977 8a3d 69d8 b8bd 4cdc ba3c
000001a0: f52a ea3d 89a6 bf3d cfb1 87bd a531 e2bd
000001b0: df95 fe3d c39e 48bd 30fa bf3c be1b a0bd
000001c0: 0987 cf3d 8b91 643d 1962 a9bc ddea 00be
000001d0: 4c09 ae3c 6474 393c bd84 87bd 1346 bbbc
000001e0: 5010 e93d ce5a 99bd 2bd3 8d3c 9bfb 1e3d
000001f0: e909 d1bd fb9b 1cbc d27b cfbc 5694 413d
00000200: 2057 a03d ee00 2e3d 99f7 f83b aa76 9b3d
00000210: 3811 063c f179 853b ce77 87bc 67e1 b7bc
00000220: aa2d 8e3d 9f5f b13d dd46 223d b7c9 b53d
00000230: ccb1 e53d 56f1 1c3d c9eb 773d 598f b9bd
00000240: 9fca b0bd 140d 9bbc aa16 fdbd 3dd3 d8bb
00000250: c70d 8e3c 3064 b1bc abd1 b9bb 0d99 003e
00000260: fe26 503d 5b5e 193e ea25 d43d 1366 3d3d
00000270: 1cd6 21bd e472 a13d ba80 ad3d 4689 8ebd
00000280: 278e aa3d 4868 16bd 639a 453d d24c b5bd
00000290: c849 47bd ce4f 42bd 52b5 c43d c897 193c
000002a0: 015d c03c 8ab8 76bb 4257 383d 873a 56bc
000002b0: 4428 9c3d 8f5e 493d f177 49bb 4bdd 4d3d
000002c0: ba2a 28bd 16f0 9d3d 89bc 3f3d 8380 e6bd
000002d0: 229e 97bd 037d d3bd 2288 983d d574 ca3c
000002e0: 6844 713c 2ca1 1f3d 1ab0 85bd 661d 943d
000002f0: 19ed 873d ea41 c43c 689a db3c 7001 5fbd
00000300: 7f91 0bbe c13b 0bbd 3150 103c 65aa 423c
00000310: 068f 4a3d a702 993d c56f 85bd cc11 4ebc
00000320: 3a14 523b ff60 313c 5892 2d3b f448 883d
00000330: ae63 073c f4e0 863d 2f7e 8ebd c27b a1bc
00000340: 9b20 993d 32fb 113d 8c03 02bc 4dda 813d
00000350: d0ba f4bd 8064 cd3c 9c61 103b 4e31 0e3d
00000360: 63e9 843d 8771 c0bc ae81 5a3d e986 41bd
00000370: 73db 5c3d a2b2 91bd 8d38 f6bd 71cc 79bc
00000380: efc5 c13c c360 823c fdf8 d03d af69 563d
00000390: 2c97 0fbd 3229 c8bd fd67 91bd e8b4 6c3d
000003a0: 8ceb 23be 0c99 23bd 19c0 d3bd e272 c83d
000003b0: f310 fbbd 36a7 573d 157f 07bc c8f0 49bd
000003c0: c375 62bd 66f3 b23c 4b39 5c3d c8f2 363d
000003d0: eee0 c63d 24fb 4bbd 8ece 753d 053f 30bc
000003e0: 56a7 c5bd b047 c2bc 03a1 edbc 1af9 22bd
000003f0: 057c 64bd 82fc 38bc 2245 9c3d e67e 26bd
-0.047615714 -0.040610384 0.04022834 0.05868316 -0.069831476 0.01727423 0.037025653 0.12206376
-0.056540187 0.06051969 -0.055976547 0.12092538 0.008153348 -0.06170621 -0.078648955 -0.035732765
-0.046716254 -0.063012 0.02263977 0.027351912 0.044687916 -0.03814957 -0.04968275 -0.14975452
-0.07812895 -0.016742313 -0.016901437 0.04866861 -0.026530549 0.032123797 0.0068965717 -0.09332454
0.037700277 -0.083416365 -0.201605 -0.05756446 -0.11753801 0.06855866 0.08011039 -0.019359937
-0.040916022 -0.0701258 0.007993137 0.06212829 -0.09193439 0.10807168 -0.009134819 0.027589617
0.010379185 -0.09400939 -0.0010698672 -0.080280825 0.089605525 0.09653799 0.004338593 -0.053651817
-0.037961416 0.035523787 0.088044375 0.017832534 -0.017472878 0.05133626 -0.015772317 0.07583116
-0.06889 -0.04548829 0.06256782 -0.039419062 -0.1005265 0.015975181 -0.05436895 0.049861956
0.009046471 0.07182097 -0.05532289 -0.022317465 -0.053411517 -0.07071061 -0.015936429 -0.042850666
-0.0573456 -0.06276428 0.06799326 -0.080828875 -0.05608928 0.045859482 -0.06988184 -0.09961936
0.061952658 -0.071672216 -0.02527587 -0.051737767 -0.099211454 0.0013844596 0.029723402 -0.06166501
0.08015222 0.011685247 0.0005523692 -0.022343317 -0.08268094 0.06761021 -0.09025652 0.022810124
0.11433975 0.09357936 -0.06625711 -0.11044625 0.124309294 -0.048979532 0.023434728 -0.078177914
0.10133178 0.055802863 -0.02067666 -0.12589593 0.021244667 0.011319254 -0.06617115 -0.022860562
0.113800645 -0.07488023 0.017312607 0.03881417 -0.10206968 -0.009558673 -0.025327597 0.047260605
0.07829118 0.042481355 0.0075978753 0.07590993 0.008182816 0.0040733744 -0.01653662 -0.022446347
0.069423035 0.086608164 0.03961836 0.08876365 0.11215553 0.038316093 0.060527597 -0.090605445
-0.08632397 -0.018927135 -0.123578385 -0.0066169784 0.017340554 -0.021654218 -0.0056707463 0.12558384
0.050818436 0.149774 0.10358794 0.046239924 -0.03951083 0.07883242 0.08471818 -0.069597766
0.08327895 -0.036720544 0.048242938 -0.08852543 -0.048654348 -0.04743939 0.096048966 0.009374566
0.023481848 -0.0037646615 0.04500509 -0.013075477 0.076248676 0.049162444 -0.0030741657 0.05025987
-0.041056372 0.077118084 0.04681066 -0.112549804 -0.07403208 -0.103265785 0.0744784 0.024713913
0.014725782 0.038972065 -0.06527729 0.0723217 0.0663702 0.023957212 0.026807025 -0.05444473
-0.13629721 -0.033992533 0.008808182 0.011881446 0.049452804 0.07471209 -0.06515459 -0.012577485
0.0032055513 0.010826348 0.0026484933 0.0665454 0.008263512 0.06585875 -0.06957661 -0.019712333
0.07476922 0.03563995 -0.007935416 0.06340466 -0.11949694 0.025072336 0.0022030836 0.03471499
0.064898275 -0.023491634 0.05334633 -0.0472478 0.05392022 -0.0711415 -0.12022505 -0.015246497
0.023653952 0.01591528 0.10203741 0.05234688 -0.035056278 -0.097734824 -0.07099912 0.057789713
-0.16007823 -0.03994088 -0.10339374 0.09787537 -0.12259092 0.0526497 -0.008270045 -0.049301893
-0.055288088 0.021844577 0.053765576 0.044665128 0.09710871 -0.049800053 0.06001144 -0.0107572125
-0.096510574 -0.023715824 -0.02900744 -0.039788343 -0.055782337 -0.011290671 0.076303735 -0.040648364

layers.block_2.layer.0.bias f4 [128]
00000000: 6b8f 9e3d db2d 3cbd e92e 57bd 9de2 693d
00000010: 43f3 7abc 134a 853d a0f2 6fbd f9e5 353d
00000020: 897c 8cbb e60e 99bc d867 dcbd 53b6 36bc
00000030: e807 cbb9 6c64 7abc 89b0 943b 5400 90bc
00000040: 2ee7 0ebd 5aa8 833d a96c a9bd 516d 8d3c
00000050: 7d05 6e3c 0f81 63bc e9fe 823a 31f4 b6bd
00000060: 04a7 073c b516 36bd 5c94 78bd 3a06 b03c
00000070: 4014 953d ccb7 a4bd 0adf 1f3d 8744 2dbd
00000080: 2d0e edbb 4853 c8bb 036b 1bbb 5f09 6ebb
00000090: 070a 863d fbdc 52bd 6fe8 e9bc 130c 4abd
000000a0: ad80 24bd 2697 683d 7f48 87bd 4efa aebb
000000b0: 57cb 923d f1a2 98bd e2f0 5b3c 9de4 89bc
000000c0: 17a7 1f3b eddf 63bd 84b4 17bd 5d22 24bd
000000d0: 9e68 fa38 dd68 a9bd 5d4f 98bc c31b 0ebd
000000e0: 9aaa bf3d 7bc1 1e3d 7b26 3d3d 1541 9f3d
000000f0: 1b51 ab3c 4cd7 edbc 1c75 57bd cd48 823d
00000100: b06c 26bd 883a 4c3d 2f38 453d 6600 8cbd
00000110: 745b 713d 3c9f 373d 0987 be3d e6c2 f5bb
00000120: e28d 9bbd c04b a2bd 2653 313d 388f 6e3d
00000130: 710b f3bc e92e ad3d 993c b6bb d0ea f63c
00000140: af8a a13c d55d 9a3c e3a7 263b 9fe4 8abd
00000150: 55e2 e1bd 0f1e a93d 80aa a7bc b3a0 bb3b
00000160: 701a ccbd a004 8cbc bcf4 8fba 9ffb 893c
00000170: 9bcb c53d 8363 92bd 828c 173d 93b5 dbbc
00000180: 116c da3d c270 263d eabe 723d 6829 293a
00000190: cb6b fc3b 752c a9bd 517b 19bd a7dd 0bbd
000001a0: 6b51 a13c b241 48bb 26fd 58bb 023f d9bc
000001b0: d928 023c fe72 bdbd e1e7 dbbd bd99 debb
000001c0: 9c65 be3b cee9 3abd c3ad 8e3d cec8 773d
000001d0: 1953 463c 8613 a6bd 2318 40bd ebd1 c8bc
000001e0: 5517 afbd 478c 8e3a 5fdb 8bbd 4b9a a33c
000001f0: 780d 1e3d 9a48 403d 1394 9f3c 1a87 bc3c
0.077421986 -0.04594217 -0.05253497 0.05710088 -0.015316787 0.06508269 -0.058580995 0.044408772
-0.0042873067 -0.018683862 -0.10761994 -0.011151868 -0.00038725068 -0.0152827315 0.004537646 -0.017578281
-0.03488844 0.06428595 -0.082726784 0.01726404 0.014527676 -0.01388575 0.0009994182 -0.089332946
0.008279566 -0.04445525 -0.06068836 0.021487344 0.07279253 -0.08042869 0.039031066 -0.04230168
-0.007234356 -0.0061134435 -0.0023714907 -0.0036321504 0.06544881 -0.051480275 -0.028553216 -0.04932792
-0.040161777 0.05678477 -0.066056244 -0.0053398972 0.0716769 -0.074529536 0.01342413 -0.016832644
0.0024361068 -0.055633474 -0.037037387 -0.040071834 0.000119404154 -0.08271954 -0.01859253 -0.034694444
0.093587115 0.038758736 0.046179276 0.07776085 0.020912698 -0.029033326 -0.05260192 0.06361542
-0.040630996 0.049860507 0.048149284 -0.068360135 0.058925107 0.044829592 0.093031 -0.0075000403
-0.075954214 -0.079246044 0.043292187 0.058242053 -0.029668542 0.08456213 -0.005561423 0.030141264
0.01971945 0.01884357 0.0025429658 -0.06781887 -0.110294975 0.08257686 -0.020467043 0.005725944
-0.0996598 -0.01709205 -0.0010982971 0.016843615 0.09657975 -0.071478866 0.036999233 -0.02681998
0.10665143 0.040634878 0.0592641 0.00064530084 0.0077032796 -0.08260433 -0.03747112 -0.03414693
0.019692143 -0.0030556736 -0.0033109873 -0.026519302 0.007944309 -0.09250449 -0.10737587 -0.0067932294
0.0058104526 -0.04563313 0.06966736 0.060494237 0.012104773 -0.081091926 -0.04689802 -0.02451416
-0.08549372 0.0010875546 -0.06828951 0.019971034 0.038587064 0.04694424 0.019479787 0.02301364

layers.block_3.layer.0.weight f4 [128, 128]
00000000: 6d13 2f3d 1eb5 8b3d 818f 95bc da5c f8bc
00000010: f0a2 c0bd 1d9b cdbc 070a acbd 7587 723c
00000020: 35fd 82bd f7e3 9bbd 24c4 c5bb 9953 273d
00000030: b310 fb3d 2c69 523d 6294 a53d 4460 d7bd
00000040: 766b bd3d a532 8c3d c2a7 043d a1b3 c73b
00000050: ba03 993d 3b55 7e3d debd 3d3c cfef 91bd
00000060: fcc8 fc3c f2e7 34bc 7111 943d ebf1 9abd
00000070: 05be d9bd 0039 803d 2822 b33c ccc4 7bbd
00000080: 6aaa aa3c 4229 503d f015 9fbc e6e7 9d3d
00000090: 2500 123c cc85 3ebd 3230 a23c 101d 9abd
000000a0: c589 0a3e e7b2 1ebd 219c 9cbd e901 233d
000000b0: 3db5 c5bc 2aca 863d 24ef 3cbd 2db5 cc3c
000000c0: 5e54 95bd 80e5 873d 5080 50bd 54a8 a4bc
000000d0: 4daf ccbb 3734 d23d c247 43bd 499a 18bd
000000e0: f8f1 78bc 229d 02be 5651 4a3b afbd ecbd
000000f0: ca9b 4a3d d344 b2bc bfce d63c 20fa 37bd
00000100: ef81 8cbd b0ea bfba fd40 873c 92b8 89bb
00000110: e336 6f3d 487d ccbb d3fb 8a3d e279 963d
00000120: 5137 ffbc 1d94 2d3c ddc7 e23d 9aa7 a1bd
00000130: 90f6 6dbd 3b86 bc3b e788 83bd 429c 1bbe
00000140: d1c0 b03d 45bd 703c 55a6 96bd b39c e33d
00000150: 99b5 8f3d 24fc 103d f0cc 473d 6c6e 8abd
00000160: 41e4 143d b3df e53d e1f7 16be 6473 8f3d
00000170: 689c 893d dcd2 89bd 26c9 89bd d375 0fbd
00000180: 73d2 e1bb 4642 063e ef04 653d 7551 7cbc
00000190: 174a 2e3c abf5 9abd 0ae6 ccbc 76d4 213e
000001a0: dd32 763d 2934 b2bd 247f bf3d 3d75 313c
000001b0: f113 98bd 9e98 29bd c3e8 89bd c7e1 5f3c
000001c0: d41b 6b3d 3afa 78bb c6a7 0e3d 1d8b 53bc
000001d0: d6a2 5c3d fec9 6fbc b7c7 433c b2dd 623d
000001e0: ecb1 4f3d 5a56 36bd 4eb6 bc3d 02a1 893d
000001f0: 7f33 07be b406 833c 2b51 58bd 4e5a 6e3c
00000200: 9e2a efbd 78e0 a3bc 8d5f eebd c869 d6bd
00000210: 6fa0 73bd 6b49 d33d 6700 8e3d 57c6 7ebd
00000220: 8971 88bc 4b9b 443d a384 2c3e 0cbb 713d
00000230: 0d69 0d3e 3dac f33b 2bb9 ef3d f68f 54bd
00000240: f395 cc3d fab9 b33c 1931 083e 9f67 61bd
00000250: ef83 ccbb 64c1 ca3d e548 40bd ff35 b53c
00000260: 83c0 b23d c73b 4cbd 5d87 783b bc81 8fbd
00000270: dccb 40bd 91fb 023e b86f 3cbd 7548 8abd
00000280: 8710 b9bc 7914 33bd 9083 523d 17c6 16be
00000290: 9c1d 243c d4ee 853c 281e fa3d 38d8 50bd
000002a0: c0d3 313d 91c2 b73c 398a 88bd 7c4b 123d
000002b0: 590f 63bd cb55 653d d29a 823c a81e 5b3c
000002c0: 2211 87bd 99f0 473d a82c 8c3d 0e63 243a
000002d0: 1810 ed3d 46f7 0dbd 8107 b0bd 3279 68bc
000002e0: 6b01 f3bd 5eee 9fbd 0206 a83d 3c3b babc
000002f0: 8b57 cebd 76f5 d63d db6f 0cbd c329 963d
00000300: 73ef d1bb c9ef 8e3d 4837 90bd 3f25 9abd
00000310: 71bd 23bb 12bc 1f3e 04c2 9fbc d895 943c
00000320: 46a1 463d a7bc a13b 0d88 313c f8cd 373d
00000330: 75af 0cbe 3ee4 0bbe 8a7c c03d 8d86 0e3d
00000340: 2005 99bd 96e2 1d3d 373b d4bc 2158 bbbb
00000350: 88c6 b43c 5061 d53d 2520 e9bc f82b 793d
00000360: 632a 9b3d f48f 223e 25b7 0ebe 39a2 3bb8
00000370: 4b0a 3bbc 74ec 52bd 4007 b9bd d11f a9bc
00000380: 5f54 a4bd ac03 8a3d 486f 5fbd 0bf1 bbbd
00000390: 2621 1dbe b4fd 06be 47f6 d0bc 80bf 203e
000003a0: 3e35 acbd e03d 10be 3095 d73d cf1b 3e3d
000003b0: 4d98 0bbd f05d c13d b4c8 c93d 6627 acbd
000003c0: 068d 9dbd 563c 86bd cbe8 f33d 6310 073d
000003d0: b2e7 993d c208 d2bc dd9a 413d d865 dc3d
000003e0: 70f7 a03d 32cd f93d ac20 8fbc 81b7 06bd
000003f0: de9e f1bc 6e62 473d edb7 d9bb 90c3 d5bd
0.042743135 0.06821655 -0.018256905 -0.030317713 -0.09406078 -0.025098378 -0.0840035 0.014802803
-0.06395952 -0.0761184 -0.0060353447 0.04085121 0.122590445 0.05136983 0.080849424 -0.10516408
0.09249012 0.06845597 0.03238655 0.0060944115 0.07471414 0.062093 0.011580912 -0.07125818
0.030857556 -0.011041628 0.07229889 -0.075656734 -0.106319465 0.06260872 0.021866873 -0.061466977
0.020833213 0.050820597 -0.01941964 0.07710247 0.008911167 -0.046514317 0.019798372 -0.075250745
0.13529117 -0.038744833 -0.07646967 0.039796744 -0.024134273 0.065815285 -0.0461265 0.024988735
-0.072914824 0.066355705 -0.05090362 -0.020099796 -0.0062464834 0.102638654 -0.047675855 -0.037256513
-0.015194409 -0.12755254 0.0030871234 -0.11559617 0.04946498 -0.021761334 0.026221631 -0.044916272
-0.0686072 -0.0014642086 0.016510481 -0.0042029107 0.058401953 -0.0062405206 0.06786313 0.07347466
-0.031154307 0.010594395 0.11073277 -0.078932956 -0.05809647 0.005753306 -0.064225964 -0.15196326
0.08630527 0.014693563 -0.07355944 0.111138724 0.07017059 0.03539671 0.048779428 -0.067593426
0.036350492 0.11224308 -0.14742996 0.07004431 0.06719285 -0.06729671 -0.06727819 -0.035024475
-0.0068915426 0.13111219 0.05591291 -0.01540028 0.010637782 -0.07566389 -0.025012035 0.15803704
0.0601071 -0.08701355 0.09350422 0.010831174 -0.074256785 -0.041405313 -0.06733849 0.013664669
0.057399586 -0.0037990944 0.03482797 -0.012911585 0.05386623 -0.014635561 0.011949471 0.055387206
0.05070679 -0.044515945 0.09214459 0.06720163 -0.13203238 0.015994407 -0.052811783 0.0145478975
-0.116780505 -0.020004496 -0.116393186 -0.10469395 -0.059479173 0.10316738 0.069336705 -0.06220087
-0.0166557 0.04799966 0.16847472 0.059016272 0.13809605 0.007436304 0.1170524 -0.051895104
0.09989538 0.021939266 0.1329998 -0.05503046 -0.0062413136 0.099001676 -0.046944518 0.022120474
0.08728125 -0.049861696 0.003792248 -0.07007167 -0.047069415 0.12791277 -0.04600498 -0.06752101
-0.022590889 -0.043720696 0.051395 -0.14724003 0.010016825 0.016349234 0.12212783 -0.050987452
0.04341483 0.022431644 -0.06666989 0.03571652 -0.05543456 0.05599002 0.015942965 0.013374008
-0.06595065 0.048813436 0.06844455 0.0006270864 0.11575335 -0.034659646 -0.08595181 -0.014189051
-0.11865505 -0.07809137 0.08204271 -0.022733323 -0.10075291 0.10496037 -0.03428636 0.07332184
-0.0064067184 0.06979329 -0.07041794 -0.075266354 -0.0024984742 0.15599087 -0.019501694 0.018137857
0.048493646 0.004935819 0.01083566 0.04487416 -0.13738807 -0.13661286 0.09398754 0.034796286
-0.07471681 0.038546167 -0.025907142 -0.005717293 0.022067323 0.104189515 -0.02845771 0.060832947
0.07576444 0.15875226 -0.13937052 -4.4735356e-05 -0.011416028 -0.05149503 -0.09034586 -0.020645054
-0.08023905 0.067389816 -0.054549485 -0.09176835 -0.15344676 -0.13182718 -0.02550806 0.15698051
-0.08408593 -0.14086103 0.10526502 0.04641324 -0.034080792 0.09441745 0.09852734 -0.08405952
-0.07692914 -0.06554477 0.11909636 0.032974612 0.075148955 -0.025638942 0.04726683 0.10761613
0.07859695 0.12197341 -0.017471634 -0.032889847 -0.0294947 0.048677854 -0.00664424 -0.10437691

layers.block_3.layer.0.bias f4 [128]
00000000: 97f0 c5bc 02ac c9bb 8296 babd 00e4 b03d
00000010: 9184 083d 5f59 8ebd 642e 643b a359 db3c
00000020: 1db4 c0bd 13b1 913d 6c6f 9a3d 97c2 c53d
00000030: 3904 463c f127 ea3b daa5 a5bc d4da 80bc
00000040: 09dc 75bd 133c 833d 9c95 a03d ad1f 2f3d
00000050: db7a ab3c 9f3a b73d 2846 e1bb 45a7 f43c
00000060: 35d4 39bd 7fd6 ad3d ab5f 2d3d 2416 04be
00000070: 0456 963d c96e 683d ff32 613d 788f 84bd
00000080: 87df f9ba e4f8 57bd 573b cabc 3271 193d
00000090: 9291 35bd f2d3 ea3c 7327 a33d a9ee 04bd
000000a0: 8f9d 9fbd 46a3 9dbd 19ca b53d 8b5a b33a
000000b0: 7134 6139 db71 a2bd 42d1 833d 6b44 afbd
000000c0: 00f7 c03c d890 81bd 349f ae3d ca74 30bd
000000d0: 0d19 60bd 5daa 25bd 357f 46bb 75cd 6fbb
000000e0: 2592 51bd ca7c b73b dd5d 5d3d ee85 6f3d
000000f0: 96d7 babd 74e2 5e3d 5529 643d d011 94bd
00000100: f0f0 52bc 4c16 9d3d e4c1 c93d a866 83bd
00000110: f084 2a3b a9a1 9bbd 1593 513d fd44 a93d
00000120: 8f92 ef3d 88b0 4fbd e62b 9f3c e578 353d
00000130: 1912 823d c6b0 9c3d 9b30 8ebc 27a6 ac3d
00000140: 3359 cbbc 5708 fabc b2e8 a73d a074 813d
00000150: cca5 4d3d d7d6 803c 5c8d 513d 954e 2ebd
00000160: 8e47 f73c 8981 96bd 918c c5bd 3df3 843d
00000170: 72c7 b73d 96a2 7b3d 205d b7bc 3f04 b93d
00000180: cc2d e53c bf9f 25bd f652 933c e862 823c
00000190: ac5b 92bb a2b7 063e 9080 7dbd d09f 3b3d
000001a0: 844c 383d f245 fe3c e482 8a3d fbbd 8cbc
000001b0: 8d34 2f3d 08b7 87bd d9aa 493d 5641 5bbd
000001c0: 5409 b73d 4b05 a4bc 4d82 d53b 5179 5f3d
000001d0: d8ea 453d ef2f 923d 1429 c7bd bf57 83bd
000001e0: af87 6bbd d3fa 7fbd ac93 d23d 9d04 84bc
000001f0: 0ff7 42bd 9170 32bd 56f9 c5bd 9bbd 7ebd
-0.024162574 -0.006154538 -0.09110738 0.086372375 0.03332955 -0.0695064 0.003481769 0.02677614
-0.09409354 0.07113852 0.07540783 0.09656256 0.012085968 0.0071458747 -0.020220686 -0.015729345
-0.060024295 0.064079426 0.07841036 0.042754818 0.020932605 0.08946728 -0.0068748184 0.029864917
-0.045368392 0.084881775 0.042327564 -0.12899071 0.07340625 0.056746278 0.054980274 -0.06472677
-0.0019063809 -0.052727595 -0.024686499 0.037461467 -0.04432828 0.028665517 0.07966509 -0.032454167
-0.07793724 -0.076971576 0.08876438 0.00136836 0.00021477208 -0.079318725 0.06436397 -0.085579716
0.023555279 -0.06326455 0.08526459 -0.04308013 -0.05471139 -0.040445674 -0.0030288224 -0.0036590968
-0.051164765 0.005599593 0.054044593 0.058477335 -0.09123151 0.05441518 0.05570348 -0.0722996
-0.012874827 0.076702684 0.09851435 -0.064160645 0.0026019178 -0.075991936 0.05116566 0.082651116
0.11697876 -0.050705463 0.019430112 0.044304747 0.06351108 0.07650904 -0.017357161 0.084301285
-0.024822807 -0.030521555 0.0819868 0.063210726 0.050206944 0.015727444 0.0511602 -0.04255541
0.030185487 -0.073489256 -0.096459515 0.064917065 0.08973588 0.06143435 -0.022383273 0.09034013
0.02797594 -0.04043555 0.017983895 0.015916303 -0.0044664945 0.13155988 -0.061890185 0.045806706
0.044994846 0.031039212 0.06763247 -0.017180433 0.042774726 -0.06626707 0.0492352 -0.053529106
0.08937326 -0.020022055 0.006515777 0.054559056 0.048319668 0.07138049 -0.09724632 -0.064132206
-0.057502445 -0.062495064 0.102820724 -0.016115481 -0.047598895 -0.043564383 -0.09666698 -0.06219254

layers.output.weight f4 [2, 128]
00000000: d3ef e63c 5d35 db3d 4ad6 3b3f 436b 0fbb
00000010: e476 623e e5c1 ef3d 0deb 63be 3bf0 efbd
00000020: 87a5 fd3d 5014 853e 40d8 d3be b64f 8b3e
00000030: 30f5 87be 5644 9d3e 3e3d 1dbe 81a2 6a3d
00000040: 821a c1be 0e13 74bf fe73 163e df5a 06be
00000050: 8d80 a2be da01 5b3d befb 643e a21c 673e
00000060: 01cb 24be 7e93 17be 7ffc 47be c2b8 813f
00000070: d186 e63d c1df 77bf c3f5 cc3d cc1d 823e
00000080: 9c81 413f 98d4 6dbc 4612 94be 78a2 f1bd
00000090: aa20 14be 401d 70bf 0267 963b b648 9ebe
000000a0: bced 07be 5db7 ff3d 7d83 4cbf f31c fcbc
000000b0: 1391 eabd d62a 4bbe 61d5 41bf 4d8c f83d
000000c0: b8ed 3fbd ad1f 993e 55c5 3fbd 8dbc 8cbe
000000d0: 4a26 933e 1896 253e c26a 503e 0e18 e03e
000000e0: b4f9 bb3c 81a8 1a3e 6a5d 8a3b b6f2 5d3f
000000f0: b2c5 b13d 80b2 9a3e db82 51bf 9c27 2d3d
00000100: f375 66bd a4da 863d ee94 ec3d 24c0 333d
00000110: 4631 563f f302 8d3d 6636 3abe a13f 6f3e
00000120: f0e2 e93b 1cd8 1cbf b932 573d 6b3b 1ebe
00000130: 029b 1bbd 1df8 05bf 480c 78bf 6eca f7bc
00000140: 9249 7abe fb3b 57be 1f79 213f 68d7 203e
00000150: b084 04be 5d91 4dbf cce7 ab3d c82e 1d3e
00000160: e6bd 3cbe f3cd 8ebe e999 c33e c711 bd3e
00000170: 6fa0 173e 9b6f 733e 3937 d03d f941 263e
00000180: 7bc0 bb3e 59f0 043d 8ed2 f03d 6900 1cbe
00000190: 9c73 8d3e 806f 0dbf 1675 743f 4ebd 973e
000001a0: 550a 0c3e a057 91be 8618 2c3e e563 2cbe
000001b0: 92e4 403f 3675 aabe 5d19 06be 14b2 d7be
000001c0: 422a ca3e 6d14 a33e d470 16bd c700 79bc
000001d0: 3a38 303e e325 d4bd dcf2 01be 1826 9d3c
000001e0: 2861 4fbe 5b39 6abd c80a b8bc 55ae 8a3d
000001f0: 10db 1e3e 16c2 4cbe 2014 33be 8f2f 40be
00000200: ce7b 433e b847 bebd 7f75 17bf 1da8 c63d
00000210: 9e3b c13d b7cd 0bbe 4416 9bbe 3867 0fbe
00000220: 8a0c b4be 35cc 1ebe a6c3 fa3e a13d 683c
00000230: 9e3c 893e c282 c1bc 0b8a eb3a d7ed 973e
00000240: b426 9b3d f8df fc3d 23a8 37be c54e 6abe
00000250: 6c73 833e 72da cbbd ce5f 4abe 3489 0d3e
00000260: ac95 193f dddf 803e 07e6 38be 5c75 813d
00000270: 336d 973d c8eb 4a3e 85e3 27bd 4fd0 21bf
00000280: 2ae9 0bbf a3aa 60be 66c1 213e 0a6a 9bbe
00000290: 98be 17bd 1350 563c 9477 7f3e 256a 1b3f
000002a0: 8bd1 70bd b9b2 803e f0b8 cd3e 4ce0 c0bc
000002b0: 25b6 8a3e e95d 18be eb77 433f 3320 14bd
000002c0: 3ad2 0abe 1e05 a4be 7c1d 9ebc 3eac 223e
000002d0: a090 a33d eb1c d03c 240f cb3c 25fa 15bf
000002e0: cc7b 0a3e ceec 2fbc 4aa9 f9bd 36c4 81be
000002f0: c61b 5ebd 12a0 04be 3010 afbd 5dee cd3d
00000300: 718f 86bd 4460 3b3e 0ebf 0c3e e1c0 78be
00000310: 5d73 303b a96e 7abf 5970 853e 8749 2d3e
00000320: dd61 273e 3566 613f 7081 533e e4cd 4b3e
00000330: 788b 8f3e aa3d 193f add2 fa3e 2a48 de3d
00000340: b3ae 74bd 15eb 2b3e 07ca 1ebf f2c0 d73d
00000350: 4750 f5bd 0a46 b93e c89b ff3c d7a4 093e
00000360: 2e41 67be 59c9 d83e b4c0 013f 50d5 27be
00000370: c955 e73c 3be8 53be fabe 033e 9bf5 f23d
00000380: b1df d73d ab3f 88be 9fae 04be 03de 653e
00000390: 1971 b2be 31e4 593f b545 9dbe 758e 8c3d
000003a0: 632d 833e 6298 8e3e 7754 cd3d b900 573e
000003b0: faf8 cabe 35ef 38be 44f8 57be d37d 943e
000003c0: c2ed f83d 806b 413d dee9 4a3e 98d2 16bd
000003d0: 4f3c 1f3e c24d f3bb e78a c2bd b191 32bd
000003e0: 14d6 48be 89aa 0abc 7771 ab3c 1c9c 63be
000003f0: a060 763b d702 e83e 0c46 53be 15be 4c3e
0.028190529 0.107035376 0.73373854 -0.0021884001 0.22115666 0.11706904 -0.22257634 -0.11715742
0.123850875 0.2599206 -0.41375923 0.27209252 -0.2655425 0.307162 -0.15355393 0.057283882
-0.37715536 -0.95341575 0.14692685 -0.13120602 -0.317387 0.053468563 0.22361657 0.22569516
-0.16093065 -0.14802358 -0.19529913 1.0134509 0.11256183 -0.96825796 0.10007813 0.25413358
0.75588393 -0.014516018 -0.28920192 -0.117985666 -0.14465585 -0.9379463 0.004589916 -0.3091485
-0.13274282 0.12486146 -0.79888135 -0.030775523 -0.11453452 -0.1984056 -0.75716215 0.12136135
-0.046857566 0.2990698 -0.04681905 -0.27487603 0.2874015 0.16170537 0.20353225 0.43768352
0.022946216 0.15103342 0.0042225616 0.8669847 0.086802855 0.3021431 -0.81840295 0.042274103
-0.05626483 0.06584671 0.115518436 0.04388441 0.83668935 0.06885328 -0.18184814 0.23364116
0.0071376488 -0.61267257 0.052538607 -0.15452354 -0.037989624 -0.52331716 -0.9689374 -0.030247893
-0.24442127 -0.21018974 0.6307544 0.15707171 -0.12941241 -0.8029993 0.08393821 0.15349877
-0.18431816 -0.27891502 0.38203362 0.36927626 0.14807294 0.23773043 0.10166783 0.16236104
0.36670288 0.032455776 0.1175891 -0.15234531 0.27627265 -0.5524826 0.9549116 0.29636616
0.13675816 -0.28387165 0.1680623 -0.16834982 0.7534877 -0.3329255 -0.13095613 -0.4212805
0.39485365 0.3185152 -0.036728695 -0.015197939 0.17208949 -0.10358789 -0.126903 0.019183204
-0.20251906 -0.057183605 -0.022466078 0.067715324 0.15513253 -0.19995913 -0.17488146 -0.18768142
0.19090196 -0.09291023 -0.5916366 0.09700034 0.09435199 -0.13652693 -0.30290425 -0.14004219
-0.35165817 -0.15507586 0.48977393 0.01417485 0.2680406 -0.02362192 0.0017970217 0.29673645
0.075757414 0.12347406 -0.17935233 -0.2288161 0.25673997 -0.099537745 -0.19763109 0.1382187
0.59994006 0.25170794 -0.18056498 0.06321213 0.07393875 0.19816506 -0.040988464 -0.6320848
-0.54652655 -0.21940093 0.15796432 -0.3035434 -0.037047 0.013080615 0.24947959 0.6070884
-0.058793586 0.25136355 0.4018016 -0.023544453 0.2709209 -0.14879574 0.76354855 -0.03616352
-0.13556758 -0.32035154 -0.019301169 0.15886018 0.079865694 0.025404414 0.024787493 -0.58584815
0.13523787 -0.010737611 -0.121904925 -0.2534501 -0.054225706 -0.12951687 -0.085480094 0.1005523
-0.06570328 0.18298441 0.13744757 -0.24292327 0.002692423 -0.97825104 0.26062277 0.1692258
0.16345926 0.8804658 0.20654845 0.1990276 0.28036094 0.59859717 0.48988858 0.10853608
-0.05973692 0.16788895 -0.6202702 0.10534848 -0.11978202 0.36186248 0.031202212 0.13441788
-0.22583458 0.42341116 0.50684667 -0.16389966 0.028239148 -0.20694058 0.1286582 0.11863252
0.105407126 -0.26611075 -0.12957238 0.22447972 -0.34851912 0.8511382 -0.30717245 0.06863109
0.25620565 0.27850634 0.10025876 0.2099637 -0.3964308 -0.1806 -0.210908 0.29002246
0.12154724 0.04722166 0.19815776 -0.03682193 0.1555035 -0.007425041 -0.0949915 -0.043595973
-0.19612914 -0.00846351 0.020928128 -0.2222752 0.0037594214 0.45314667 -0.2063219 0.19994386

layers.output.bias f4 [2]
00000000: 9a2c 533e 5e7c fb3b
0.20622483 0.007674738
