results/VANILLA/Vanilla25/vanilla2k/model.pth (torch, 205093 bytes, 10 tensors)

layers.block_0.layer.0.weight f4 [128, 2]
0.90313894 0.1963149 0.82312065 -0.32265246 -0.20351617 -0.20869665 -0.14414689 0.36934868
0.32436368 -0.3153423 -0.6202991 0.0807462 0.9646426 -0.550734 -0.5166656 0.100854285
0.5908103 -0.48816907 0.908838 -0.17565183 0.6829046 -0.5022202 0.679123 0.22134466
0.131367 0.6387823 0.78093773 -0.60368943 -0.63330877 0.036016036 0.8484369 0.6920853
0.030718561 0.16785279 0.9911046 0.49616075 -0.64598274 -0.57744914 0.62019354 0.37792978
0.40660575 -0.6270722 0.97478026 -0.09721184 -1.0167202 -0.19473702 0.7621768 -0.05240403
0.31726432 0.24276133 -0.7419249 -0.16613503 -0.8474768 -0.13509557 0.7177884 0.1488404
-0.6518239 -0.6939533 0.36079592 0.6485802 -0.42246392 0.70376754 0.6356884 -0.25948715
0.06350844 0.7001633 1.0520297 -0.6637167 0.16157676 0.6521009 1.0544724 -0.51064694
0.28933316 -0.31867012 0.41978002 -0.30639246 0.8149587 -0.102275915 0.4070679 0.31546542
0.64170384 -0.54233605 -0.41693646 -0.41680026 0.7945923 0.3511923 -0.63226056 -0.3206841
0.31405824 0.42427948 0.86489475 -0.4185582 0.47234252 0.23579338 -0.70629114 -0.46478838
-0.6191556 -0.13524923 -0.72733504 -0.62268496 -0.195222 0.38298905 -0.38401753 0.56549835
-0.91385865 0.50329626 -0.42095855 -0.7774523 0.8724567 0.3134939 -0.3748464 0.6441425
0.56317294 0.33063057 0.9022578 -0.12705858 0.92301166 0.22031593 -0.8887314 -0.36189413
-0.28811774 -0.47240236 -0.77400124 -0.35119268 -0.57021266 -0.47211128 0.83073765 -0.32320598
-0.7861348 -0.20702559 0.5695883 0.6583291 0.26464733 -0.33560687 0.5713117 -0.58950865
0.7680833 0.69349205 -0.0073658344 -0.0992643 -0.9231405 0.6516007 -0.405368 0.40405956
0.5766924 0.34025857 -0.5360318 -0.5104916 -0.18199237 -0.74034125 0.16213633 0.6296581
-0.23650505 -0.25625533 0.25627828 0.5492505 -0.8598067 -0.47814256 -0.78109264 -0.12386167
-1.0184761 0.06970435 -0.2037616 0.22478583 -0.87736535 -0.085154176 0.6577803 -0.6528233
0.48826894 0.5540726 -0.16604601 0.691997 -0.91489094 0.40950218 0.24076767 -0.59346867
-0.7949499 0.13326474 0.5311496 -0.59619415 -0.8633934 -0.54155 -0.22845761 0.5540857
-0.27199477 0.8250365 -0.80913466 0.03624964 -0.4277075 -0.4350908 -0.53360045 0.6029636
1.0629715 -0.6096362 0.71515864 0.3476968 -0.8346416 0.29273355 -0.7005813 -0.20127037
-1.1219854 0.36485463 0.41964594 0.52082604 0.597682 0.7049146 0.69636303 0.2430245
-0.30156347 0.7383823 -0.9259046 -0.056710962 0.86541164 -0.11643819 0.111437686 -0.65859234
0.9223393 -0.09479862 -0.96310365 0.3381346 -0.34994346 0.6309361 -0.7033892 -0.33010033
0.85945255 -0.24382502 -1.0485829 0.59343594 -0.763039 0.03962952 -0.8170798 0.25896654
0.27843127 -0.55472183 -0.88244057 -0.03013463 -0.6679307 -0.50275433 0.6255861 0.43683815
0.6515926 0.16608267 0.8510867 0.48960045 0.91518867 -0.51661533 0.6654533 -0.60454816
-0.38575986 0.5724034 0.63568914 0.21849798 -0.7968082 0.5348998 0.3812993 -0.25886127
00000000: 1d34 673f c606 493e 09b8 523f b432 a5be
00000010: 8b66 50be 93b4 55be 3e9b 13be 451b bd3e
00000020: ff12 a63e 8c74 a1be eccb 1ebf 445e a53d
00000030: d1f2 763f e7fc 0cbf 3244 04bf b18c ce3d
00000040: 583f 173f 4cf1 f9be 9ba9 683f 13de 33be
00000050: d6d2 2e3f 8191 00bf 01db 2d3f 2da8 623e
00000060: 1285 063e 3d87 233f 89eb 473f 648b 1abf
00000070: 8620 22bf 8d85 133d 2933 593f 812c 313f
00000080: 7ea5 fb3c 9ae1 2b3e 08b9 7d3f c808 fe3e
00000090: 205f 25bf b5d3 13bf 01c5 1e3f 0380 c13e
000000a0: a12e d03e ce87 20bf 338b 793f 0017 c7bd
000000b0: e323 82bf 2469 47be 051e 433f 9ca5 56bd
000000c0: 7870 a23e 6d96 783e caee 3dbf 4d1f 2abe
000000d0: 3df4 58bf 7e56 0abe fbc0 373f 9e69 183e
000000e0: eedd 26bf eca6 31bf 3eba b83e 5a09 263f
000000f0: 314d d8be 1c2a 343f 7abc 223f 80db 84be
00000100: b710 823d e73d 333f e9a8 863f 56e9 29bf
00000110: 6174 253e 16f0 263f f4f8 863f c2b9 02bf
00000120: 7a23 943e bb28 a3be 68ed d63e 79df 9cbe
00000130: 22a1 503f 0976 d1bd 346b d03e af84 a13e
00000140: b446 243f 89d6 0abf b278 d5be d866 d5be
00000150: 676a 4b3f 7acf b33e d4db 21bf b530 a4be
00000160: 3ecc a03e 293b d93e be69 5d3f 434d d6be
00000170: e1d6 f13e d273 713e 7fcf 34bf bef8 edbe
00000180: fb80 1ebf c67e 0abe a132 3abf 4868 1fbf
00000190: 47e8 47be 2417 c43e f29d c4be 80c4 103f
000001a0: a4f2 69bf 06d8 003f e187 d7be 1d07 47bf
000001b0: 5359 5f3f 4682 a03e deeb bfbe 86e6 243f
000001c0: 1a2c 103f 6948 a93e 5efa 663f a51b 02be
000001d0: 7e4a 6c3f 809a 613e e783 63bf 304a b9be
000001e0: 2b84 93be b9de f1be f224 46bf 87cf b3be
000001f0: 75f9 11bf 92b8 f1be 39ab 543f 417b a5be
00000200: 2140 49bf 84fe 53be 8ad0 113f 4288 283f
00000210: db7f 873e aad4 abbe 7c41 123f 0aea 16bf
00000220: 1ba1 443f b288 313f 195d f1bb 154b cbbd
00000230: f052 6cbf 4ecf 263f 658c cfbe e5e0 ce3e
00000240: 1da2 133f 5f36 ae3e 6139 09bf 94af 02bf
00000250: 355c 3abe 0187 3dbf 1107 263e 4631 213f
00000260: 612e 72be e633 83be e836 833e ae9b 0c3f
00000270: 4b1c 5cbf 1acf f4be b0f5 47bf 30ab fdbd
00000280: 6d5d 82bf 27c1 8e3d e2a6 50be 422e 663e
00000290: 049b 60bf 5065 aebd 4a64 283f 6e1f 27bf
000002a0: 63fe f93e b4d7 0d3f f707 2abe b726 313f
000002b0: 4b36 6abf 45aa d13e cd8b 763e 90ed 17bf
000002c0: d681 4bbf 8d76 083e 6cf9 073f 2ea0 18bf
000002d0: 5a07 5dbf 05a3 0abf cbf0 69be 8fd8 0d3f
000002e0: e642 8bbe 9835 533f 7323 4fbf 817a 143d
000002f0: 7afc dabe 39c4 debe 0a9a 08bf d35b 1a3f
00000300: 730f 883f 1e11 1cbf a314 373f 5105 b23e
00000310: 12ab 55bf 2ce1 953e 4c59 33bf d219 4ebe
00000320: 389d 8fbf 3ace ba3e d5db d63e db54 053f
00000330: b001 193f 4975 343f d944 323f 6adb 783e
00000340: 8766 9abe 9f06 3d3f 1508 6dbf c149 68bd
00000350: 9e8b 5d3f 2577 eebd 7139 e43d 8299 28bf
00000360: 6e1e 6c3f c725 c2bd f68d 76bf fa1f ad3e
00000370: ca2b b3be 0785 213f 5111 34bf e902 a9be
00000380: 1505 5c3f 44ad 79be f737 86bf 6beb 173f
00000390: 8656 43bf 9052 223d 242c 51bf 4397 843e
000003a0: 8b8e 8e3e 4002 0ebf a0e7 61bf e6dc f6bc
000003b0: 82fd 2abf 82b4 00bf 6926 203f 40a9 df3e
000003c0: c6ce 263f 9311 2a3e d1e0 593f e9ac fa3e
000003d0: ce49 6a3f e740 04bf 265b 2a3f abc3 1abf
000003e0: 5182 c5be 0789 123f 86bc 223f efbd 5f3e
000003f0: 9ffb 4bbf 31ef 083f a939 c33e 7789 84be

layers.block_0.layer.0.bias f4 [128]
-0.34217232 0.16994779 0.7048435 0.6999812 -0.5824616 -0.27661934 0.111247905 0.61036277
-0.7037421 0.2827153 0.46639588 -0.10192016 0.28091958 -0.66796094 -0.21427912 -0.68823534
-0.6018041 -0.4917434 0.41829646 0.56170666 -0.5354188 0.15789053 0.4766201 0.47667336
0.45146552 -0.31373838 0.123892896 -0.086750075 -0.6340504 -0.34597328 0.50091344 0.18632182
0.542521 0.7192439 0.15524773 0.35718316 0.18310949 -0.44288877 0.25771323 -0.1802138
0.5913604 -0.10643125 0.1538019 0.54458797 0.40791196 0.3906918 -0.44169623 -0.44510877
-0.46987423 0.61034626 0.42096114 -0.12954172 -0.42378098 0.20445266 -0.25371453 -0.07584959
-0.48205155 0.6173031 -0.13112631 0.20731427 0.25997156 -0.00044383018 0.6860499 -0.21632046
-0.6142104 -0.34366527 -0.64043486 0.33192688 -0.6397283 -0.64082855 -0.4367786 0.49068868
-0.32027188 0.4025278 0.05533173 -0.45901525 0.7269345 0.44775987 0.17789388 0.33488214
0.042552706 0.33557454 0.0827565 -0.22843765 0.081669606 -0.026186738 -0.21658407 -0.09541086
-0.07150406 0.59143907 0.10051357 0.14214265 0.14018059 -0.35489666 0.09228315 -0.22191492
0.46383402 -0.29523548 -0.6257192 0.34202465 -0.24594504 -0.15234439 0.4968232 0.563016
-0.66144586 0.070540935 0.20609452 -0.5427303 -0.2189616 -0.27115703 0.024079273 0.5131717
0.09644398 -0.63847476 0.36678812 0.646781 -0.32326403 0.06348042 -0.24335407 -0.024187274
-0.3611417 -0.4382312 0.44069877 0.18055035 -0.3506184 -0.026605109 -0.6644178 0.58746105
00000000: 3631 afbe cb06 2e3e a070 343f f831 333f
00000010: 341c 15bf 0da1 8dbe f1d5 e33d bc40 1c3f
00000020: 7128 34bf 0fc0 903e 71cb ee3e 84bb d0bd
00000030: b1d4 8f3e 7dff 2abf fc6b 5bbe 3130 30bf
00000040: d50f 1abf cac5 fbbe f42a d63e 02cc 0f3f
00000050: 3511 09bf 0eae 213e 8d07 f43e 880e f43e
00000060: 7d26 e73e 51a2 a0be 8fbb fd3d 06aa b1bd
00000070: 2151 22bf 6923 b1be dd3b 003f 26cb 3e3e
00000080: a8e2 0a3f 5e20 383f 43f9 1e3e b6e0 b63e
00000090: 0e81 3b3e 51c2 e2be fdf2 833e f789 38be
000000a0: 6563 173f a1f8 d9bd 3f7e 1d3e 1e6a 0b3f
000000b0: d6d9 d03e c108 c83e 0226 e2be 4ce5 e3be
000000c0: 5b93 f0be a73f 1c3f 3888 d73e 96a6 04be
000000d0: d2f9 d8be 0a5c 513e dfe6 81be 0857 9bbd
000000e0: 76cf f6be 9307 1e3f fa45 06be 314a 543e
000000f0: fe1a 853e e1b1 e8b9 f7a0 2f3f 1c83 5dbe
00000100: e53c 1dbf e5f4 afbe 8af3 23bf 52f2 a93e
00000110: 3cc5 23bf 570d 24bf 72a1 dfbe 8c3b fb3e
00000120: adfa a3be 2018 ce3e 86a3 623d 0c04 ebbe
00000130: 6118 3a3f c840 e53e d029 363e ac75 ab3e
00000140: bf4b 2e3d 6dd0 ab3e 3d7c a93d 8feb 69be
00000150: 6542 a73d 9285 d6bc 37c8 5dbe c566 c3bd
00000160: b870 92bd 8d68 173f 0fda cd3d d88d 113e
00000170: 808b 0f3e 04b5 b5be f3fe bc3d aa3d 63be
00000180: a77b ed3e 1b29 97be 222f 20bf db1d af3e
00000190: 04d9 7bbe 2b00 1cbe 9c5f fe3e d121 103f
000001a0: 8454 29bf c477 903d 710a 533e 5ff0 0abf
000001b0: 7837 60be 18d5 8abe e541 c53c 385f 033f
000001c0: 6c84 c53d 1573 23bf a7cb bb3e 7193 253f
000001d0: dd82 a5be 0602 823d cf31 79be 6424 c6bc
000001e0: 91e7 b8be d75f e0be 45a3 e13e 31e2 383e
000001f0: 4184 b3be f5f2 d9bc 4917 2abf d963 163f

layers.block_1.layer.0.weight f4 [128, 128]
-0.11577612 -0.23653221 0.010959146 0.00027859668 0.004762084 0.037052937 -0.17822513 -0.034454208
-0.08387967 -0.16276395 -0.11838502 -0.16839695 -0.095947675 -0.08017637 0.03206521 0.06578579
0.009308425 -0.022111624 -0.062839635 -0.10995539 0.03469121 -0.22617812 0.12208665 -0.024301091
-0.0111664655 0.12983382 0.10230147 -0.23634388 0.07345761 0.12431384 0.08053892 -0.15738408
0.005211329 -0.20997548 0.05172339 -0.119646534 -0.19333269 0.061770935 -0.07244234 0.11399697
-0.05476013 0.07808016 -0.03298385 0.0077683446 -0.040172618 -0.086470656 -0.043210402 0.028814306
0.1427904 -0.0393464 -0.091928534 0.21094222 0.14549847 -0.060779955 -0.026006676 0.13529167
0.06203611 -0.1078693 -0.18084805 0.13461694 -0.019360567 0.09610116 0.07174811 -0.13481298
0.12558506 -0.040348373 0.06986063 -0.18793207 0.034655023 0.0126696 0.09357425 -0.024680814
0.028170528 -0.13418789 -0.10105697 0.07552492 -0.03468483 -0.08226875 0.056164883 0.10648818
0.16317488 -0.05850351 0.15619983 -0.07930143 -0.09020345 0.022606937 0.13784973 -0.062333267
0.18026024 -0.19470239 0.096585564 0.085049175 0.07102229 0.11742084 0.053035837 0.15283966
-0.2054235 -0.01988764 0.15612675 0.10377487 0.27061868 -0.021666154 -0.1257451 -0.08276605
0.0687578 0.237199 -0.22771262 0.076725304 -0.07368659 0.16448651 0.01872662 -0.040919024
-0.20752715 0.061006367 0.13434859 0.07988912 -0.025556736 0.07485785 0.040365197 -0.059483863
-0.05695427 -0.022154205 -0.19089809 -0.14816396 0.27012122 -0.12255211 0.19662596 -0.052656826
-0.05090477 -0.10738894 0.06844443 0.08962225 0.046517026 0.07981342 -0.10717158 0.05784123
0.023880603 0.049405493 0.0066554584 -0.28979406 0.01135714 0.06277477 0.0769244 0.05284544
0.05936952 -0.12768023 -0.045328394 -0.07164515 0.058107387 -0.031166587 0.09155874 0.046703808
0.08617645 0.071997926 0.08964906 -0.20815977 -0.09180771 0.020050703 0.010690879 -0.08170573
-0.01910565 0.017445404 -0.03415311 -0.11434526 -0.06935635 -0.102789015 -0.05222822 -0.015822906
-0.07655665 0.03072528 -0.057645835 -0.033341188 -0.008561518 0.068608664 -0.104590304 -0.09104384
0.04450002 -0.048925117 -0.03462387 -0.008756713 0.024587952 0.09713664 -0.006536429 -0.010631486
-0.06640962 -0.028214274 -0.098932855 0.11968396 -0.019857636 0.056713533 -0.0130435135 -0.0035562853
-0.034902222 -0.07046094 0.05198165 0.01582578 -0.087262236 -0.014863337 0.011926059 -0.011136636
0.040179443 -0.018496465 -0.012451976 -0.0032037143 0.040219914 -0.030758642 0.09459028 0.11939104
0.22423083 0.04001809 0.21816808 -0.101693496 0.03916659 0.024038492 0.068790674 -0.07610998
0.15148208 0.016014954 0.046059273 -0.024278464 0.04355027 0.050955236 0.031006265 0.08340014
-0.07773264 -0.07888749 0.07807337 0.055999868 0.11627945 0.016827526 0.037599377 -0.027129058
0.007778094 0.0954438 -0.00549896 -0.028193703 0.016498072 0.08787941 0.021621466 0.111181065
-0.21133168 0.017720055 0.12152146 0.013179191 0.0015025218 0.06583482 0.08800807 -0.12409831
0.039353754 -0.05285453 -0.10635693 -0.016770408 0.03264581 -0.08082761 0.08051746 0.020549478
00000000: 081c edbd 8035 72be fd8d 333c 9d10 9239
00000010: 420b 9c3b d2c4 173d a680 36be db1f 0dbd
00000020: 1bc9 abbd 98ab 26be d873 f2bd 4070 2cbe
00000030: 3780 c4bd 8233 a4bd cf56 033d b3ba 863d
00000040: 5d82 183c 7023 b5bc 11b2 80bd 4b30 e1bd
00000050: 5f18 0e3d 3d9b 67be 9108 fa3d 1513 c7bc
00000060: 8df3 36bc 28f3 043e 6f83 d13d 2104 72be
00000070: f270 963d 4198 fe3d 97f1 a43d 4b29 21be
00000080: ccc3 aa3b d003 57be e8db 533d 3e09 f5bd
00000090: 01f9 45be 8503 7d3d a65c 94bd 3e77 e93d
000000a0: 284c 60bd 7ee8 9f3d 131a 07bd 998d fe3b
000000b0: 0b8c 24bd 8717 b1bd 64fd 30bd fb0b ec3c
000000c0: a637 123e b129 21bd 0745 bcbd 3d01 583e
000000d0: 8dfd 143e 67f4 78bd f40b d5bc e689 0a3e
000000e0: 9319 7e3d 94ea dcbd 3b30 39be 06d9 093e
000000f0: 0d9a 9ebc afd0 c43d acf0 923d 6a0c 0abe
00000100: 5f99 003e 5644 25bd 1713 8f3d 4471 40be
00000110: 6df2 0d3d 2794 4f3c dba3 bf3d 6b2f cabc
00000120: e1c5 e63c 8d68 09be f5f6 cebd cfac 9a3d
00000130: ae11 0ebd 857c a8bd 260d 663d 7a16 da3d
00000140: 5117 273e 60a1 6fbd d9f2 1f3e ca68 a2bd
00000150: 96bc b8bd 2f32 b93c 7b28 0d3e 2b51 7fbd
00000160: 2496 383e 1060 47be a7ce c53d 432e ae3d
00000170: 2274 913d 567a f03d 1b3c 593d 0082 1c3e
00000180: 8a5a 52be 67eb a2bc b1df 1f3e eb87 d43d
00000190: 888e 8a3e 387d b1bc 53c3 00be 3f81 a9bd
000001a0: e4d0 8c3d 4be4 723e 7f2d 69be 2822 9d3d
000001b0: ffe8 96bd 276f 283e 9268 993c b59a 27bd
000001c0: ff81 54be d0e1 793d ad92 093e e89c a33d
000001d0: 5c5c d1bc 134f 993d fa55 253d 5aa5 73bd
000001e0: e148 69bd bc7c b5bc ca7a 43be 4bb8 17be
000001f0: 544d 8a3e 9afc fabd 5158 493e afae 57bd
00000200: 8581 50bd bcee dbbd 982c 8c3d df8b b73d
00000210: a388 3e3d 3875 a33d c67c dbbd edea 6c3d
00000220: 41a1 c33c 6a5d 4a3d 0816 da3b e35f 94be
00000230: 4c13 3a3c 0f90 803d 8a8a 9d3d 7674 583d
00000240: 742d 733d 9bbe 02be 44aa 39bd b1ba 92bd
00000250: 0302 6e3d 1251 ffbc 2683 bb3d 7e4c 3f3d
00000260: 477d b03d a673 933d ed99 b73d d627 55be
00000270: ae05 bcbd 5f41 a43c cc28 2f3c 5555 a7bd
00000280: 7483 9cbc aae9 8e3c 22e4 0bbd d92d eabd
00000290: b40a 8ebd 0c83 d2bd 42ed 55bd 0a9f 81bc
000002a0: bcc9 9cbd 95b3 fb3c 0a1e 6cbd c590 08bd
000002b0: 9c45 0cbc b382 8c3d 7133 d6bd 3175 babd
000002c0: a745 363d b465 48bd c2d1 0dbd 5178 0fbc
000002d0: ac6c c93c 93ef c63d 8a2f d6bb af2f 2ebc
000002e0: c401 88bd 9f21 e7bc 4f9d cabd dd1c f53d
000002f0: 7bac a2bc 734c 683d 76b4 55bc 9110 69bb
00000300: a2f5 0ebd d34d 90bd b6ea 543d 11a5 813c
00000310: 8bb6 b2bd 5b85 73bc 8465 433c 7076 36bc
00000320: 3393 243d e685 97bc 5f03 4cbc 68f5 51bb
00000330: a3bd 243d 8cf9 fbbc 8cb8 c13d 4a83 f43d
00000340: c49c 653e 02ea 233d 7467 5f3e ae44 d0bd
00000350: 256d 203d 5fec c43c 20e2 8c3d 8ddf 9bbd
00000360: 1e1e 1b3e cb31 833c a6a8 3c3d a1e3 c6bc
00000370: c561 323d 70b6 503d da00 fe3c b1cd aa3d
00000380: 4a32 9fbd c48f a1bd eee4 9f3d 1e60 653d
00000390: ec23 ee3d e1d9 893c ce01 1a3d c23d debc
000003a0: 62df fe3b 0a78 c33d 9f30 b4bb 7bf6 e6bc
000003b0: f726 873c 1ffa b33d 801f b13c e6b2 e33d
000003c0: 5567 58be a629 913c 3ee0 f83d 89ed 573c
000003d0: 44f0 c43a 68d4 863d 933d b43d 4127 febd
000003e0: 6731 213d fe7d 58bd aad1 d9bd 1862 89bc
000003f0: 9db7 053d f288 a5bd 57e6 a43d 6157 a83c

layers.block_1.layer.0.bias f4 [128]
-0.011225806 0.011994598 0.01122315 0.020481227 -0.07070581 -0.07458694 -0.021890003 0.07970768
-0.056908935 -0.062444218 0.08468415 0.054269236 -0.013772712 -0.09017985 0.017312428 -0.1200219
0.055753764 0.006381832 0.042103417 0.05305152 0.07540086 -0.046035286 -0.012049533 -0.11357491
0.060899254 0.031638745 -0.051048897 -0.06390738 -0.14291349 0.109054156 -0.07905169 0.060127635
0.032804877 -0.009972492 -0.0010934398 0.073180035 0.03163161 -0.045916375 -0.040420137 -0.03617013
-0.073496476 0.07137475 0.034594703 -0.026024126 0.087567985 0.025425944 0.027696012 0.06589335
-0.020075856 0.030853607 0.08269995 -0.031137208 0.03964002 -0.004031895 -0.0420969 -0.013763658
-0.047945198 -0.02563113 -0.044750467 -0.0068671894 -0.072961 -0.02537624 -0.017312502 -0.0052025216
-0.017403314 0.12025124 0.07422052 -0.03952503 -0.08145666 -0.0805771 -0.092607655 -0.09049516
-0.07972372 0.008521642 0.021372335 -0.07359656 -0.020724293 -0.07453041 0.0071203895 -0.029699923
0.026862562 0.0049584797 0.08136789 -0.0431017 -0.10405509 0.022720503 -0.034057006 0.07237686
-0.051697467 -0.08269414 0.08530142 0.05767093 -0.065039165 0.035479635 0.06370839 0.043384507
-0.086756974 -0.048487213 -0.04130285 -0.0054390715 0.044440553 0.023961725 -0.018190574 -0.06530277
0.04900239 0.04246445 0.065566406 -0.08668142 0.014446677 -0.033307403 -0.06453787 -0.1176347
-0.043691754 -0.020368923 -0.05079433 0.093786106 0.05665591 -0.0026995249 0.049245104 -0.08297994
0.11655647 0.030085057 0.090188354 -0.07869465 0.037648402 -0.063630365 -0.009390825 -0.054783106
00000000: 71ec 37bc fe84 443c 4ee1 373c 3fc8 a73c
00000010: 35ce 90bd 0ac1 98bd aa52 b3bc c83d a33d
00000020: 5819 69bd 82c5 7fbd e26e ad3d 6b49 5e3d
00000030: f1a6 61bc 37b0 b8bd cbd2 8d3c 0bce f5bd
00000040: 0f5e 643d b01e d13b a274 2c3d 8d4c 593d
00000050: c46b 9a3d 7f8f 3cbd 686b 45bc f699 e8bd
00000060: 7f71 793d a197 013d a618 51bd dfe1 82bd
00000070: ea57 12be c957 df3d dae5 a1bd 6548 763d
00000080: 685e 063d aa63 23bc c051 8fba 6adf 953d
00000090: 2690 013d cf12 3cbd 968f 25bd 2127 14bd
000000a0: 5285 96bd ed2c 923d 2db3 0d3d 8c30 d5bc
000000b0: d856 b33d 124a d03c bfe2 e23c 18f3 863d
000000c0: 1f76 a4bc b4c0 fc3c 975e a93d 7513 ffbc
000000d0: 935d 223d fd1d 84bb cd6d 2cbd f780 61bc
000000e0: 2f62 44bd 60f8 d1bc 444c 37bd 2906 e1bb
000000f0: 946c 95bd d5e1 cfbc f3d2 8dbc ea79 aabb
00000100: 6591 8ebc 4846 f63d ee00 983d ffe4 21bd
00000110: c0d2 a6bd 9b05 a5bd 15a9 bdbd 8755 b9bd
00000120: 3146 a3bd 5b9e 0b3c 0915 af3c cbb9 96bd
00000130: fec5 a9bc 66a3 98bd 2852 e93b 414d f3bc
00000140: e00e dc3c be7a a23b 35a4 a63d 688b 30bd
00000150: d61a d5bd 5920 ba3c 5c7f 0bbd 523a 943d
00000160: b9c0 53bd 8c5b a9bd 83b2 ae3d 5a38 6c3d
00000170: 4133 85bd 1853 113d 8b79 823d f4b3 313d
00000180: a4ad b1bd 879a 46bd 2d2d 29bd 3d3a b2bb
00000190: 4c07 363d 614b c43c 6604 95bc 75bd 85bd
000001a0: bbb6 483d 34ef 2d3d ae47 863d 0786 b1bd
000001b0: c1b1 6c3c 586d 08bd 6e2c 84bd 76ea f0bd
000001c0: 20f6 32bd badc a6bc b70d 50bd ee12 c03d
000001d0: 0710 683d 83ea 30bb 3cb5 493d 63f1 a9bd
000001e0: 29b5 ee3d f074 f63c acb4 b83d a92a a1bd
000001f0: 3635 1a3d a350 82bd fadb 19bc 4064 60bd

layers.block_2.layer.0.weight f4 [128, 128]
0.09321298 -0.05640932 0.007983778 0.11146324 0.07024835 -0.106878914 -0.08629759 0.069167644
0.049992736 -0.035337087 -0.022411022 -0.0005155458 -0.020843633 0.074646205 -0.021839026 0.10836169
-0.011852269 -0.006856482 -0.061786704 -0.023099743 0.038329232 -0.020311067 0.09602634 -0.052003104
-0.01621937 0.028433532 0.06448062 -0.07671491 -0.06245635 -0.074735574 -0.006898861 -0.076236404
-0.060218368 0.05352923 -0.019093871 -0.053161442 0.05526711 -0.06956953 -0.10448783 -0.08294689
-0.07110168 -0.045050494 0.09844796 -0.055444095 0.06053611 0.026303139 0.0025912744 -0.055381715
-0.036920067 0.017665025 0.016101304 -0.06495061 -0.09523478 0.0038542252 0.049298096 -0.021761274
-0.016437048 0.092089266 -0.006081129 0.01410363 0.04492145 0.109661944 -0.058110364 0.032606095
0.050837193 0.03552441 -0.009395781 -0.060010258 -0.06734985 0.06817528 0.073621295 -0.08186706
0.07243013 0.026464213 -0.06621675 0.014543642 0.009195284 0.06902608 -0.08204214 0.020975655
0.035737015 0.111444406 -0.122354224 -0.031083426 0.034912087 0.1426339 0.021300012 0.05451743
-0.10624559 0.056958612 0.06241379 -0.07406084 -0.06701989 0.061414167 0.008073093 0.06561352
-0.026082667 0.038343575 0.041714195 -0.0484706 -0.06519289 0.0074123098 0.06456923 -0.09449621
0.082299635 -0.015694803 0.058258556 0.020413151 0.09054146 0.08125862 -0.047606498 0.086707585
-0.07027691 -0.012654747 0.079913914 -0.03988161 0.07108167 -0.00890749 -0.04501015 -0.039321326
-0.015887786 0.05561469 -0.017482951 0.077378534 0.0653432 0.07608493 -0.004906599 -0.043833435
0.04009591 0.012802859 -0.079363436 -0.04766501 -0.03085893 -0.028290788 0.03103796 -0.029312594
-0.11846158 0.058234353 0.017857458 -0.067245424 0.023435956 -0.05941859 0.04192304 -0.019015284
0.0005818327 0.017453402 -0.052257285 0.024074135 -0.03329224 -0.023249965 0.059826262 -0.054932337
0.044580996 -0.03327492 -0.0771369 0.08116597 0.03185146 0.017294042 -0.053444643 0.024556382
0.06679926 0.005126493 -0.0976136 0.01554498 -0.047310513 -0.061287183 0.07307969 0.053798273
0.030805135 -0.076449834 -0.06540734 0.02018957 0.083427705 -0.0453204 0.010957178 0.023734974
0.0366359 -0.024463251 0.027601134 0.0010289111 0.11816238 0.07814497 -0.04565033 -0.08038667
-0.0587144 0.055490278 -0.092807055 0.101919875 -0.04727019 0.06717212 0.07517303 0.04542281
0.08433213 0.016903087 0.021340258 -0.022864077 0.04142874 -0.024342312 -0.08593205 -0.0748431
0.04411369 0.08603315 -0.080194265 0.056156807 -0.059617396 -0.051744554 0.0026206453 0.096162066
-0.06810553 -0.07776259 0.04839009 0.027195282 0.0038465809 0.033808224 -0.021757618 0.023096796
-0.015189996 -0.041271828 0.0011474508 0.00814842 0.017961064 0.05305338 -0.006537957 0.0033834693
0.062585175 -0.060415793 -0.014376573 0.044854704 0.04184779 -0.08748241 0.07444775 0.018632371
-0.07025024 -0.0013820273 0.0027693296 0.024496423 -0.053866275 0.001307572 -0.025746023 -0.05535283
-0.044586055 0.094472565 0.08140639 0.029522823 -0.030001307 -0.020378832 -0.082882114 -0.00080364116
0.06877591 -0.08851249 -0.03434155 0.03570379 -0.08976376 0.03226387 -0.011992389 -0.0394019
00000000: 72e6 be3d 760d 67bd 64ce 023c d746 e43d
00000010: 5ede 8f3d 55e3 dabd cabc b0bd c4a7 8d3d
00000020: 2fc5 4c3d 9fbd 10bd 5297 b7bc b125 07ba
00000030: 44c0 aabc 1ce0 983d c2e7 b2bc bcec dd3d
00000040: 0530 42bc 57ac e0bb 0e14 7dbd ac3b bdbc
00000050: 1dff 1c3d 6563 a6bc 75a9 c43d 3501 55bd
00000060: 7cde 84bc 70ed e83c 6a0e 843d b51c 9dbd
00000070: 3bd2 7fbd f70e 99bd d70f e2bb d521 9cbd
00000080: 89a7 76bd 7741 5b3d c06a 9cbc d0bf 59bd
00000090: c45f 623d 787a 8ebd b7fd d5bd 0fe0 a9bd
000000a0: c29d 91bd de86 38bd 169f c93d 5919 63bd
000000b0: b6f4 773d ae79 d73c 5fd2 293b f0d7 62bd
000000c0: 7f39 17bd 3eb6 903c e2e6 833c d304 85bd
000000d0: 740a c3bd 2b97 7c3b cdec 493d b344 b2bc
000000e0: fda6 86bc 4c99 bc3d 3544 c7bb e912 673c
000000f0: 8eff 373d 7196 e03d 2205 6ebd f88d 053d
00000100: a93a 503d 0b82 113d c3f0 19bc 51cd 75bd
00000110: b8ee 89bd 7b9f 8b3d c3c6 963d eba9 a7bd
00000120: 3f56 943d 7acb d83c a69c 87bd 7548 6e3c
00000130: d1a7 163c 8c5d 8d3d b605 a8bd 23d5 ab3c
00000140: fa60 123d f73c e43d da94 fabd aba2 febc
00000150: faff 0e3d 9f0e 123e 5d7d ae3c ab4d 5f3d
00000160: 4a97 d9bd 6f4d 693d 9aa5 7f3d 36ad 97bd
00000170: b941 89bd 6c8d 7b3d 0245 043c 6260 863d
00000180: 51ab d5bc 270e 1d3d 81dc 2a3d 1c89 46bd
00000190: da83 85bd f6e2 f23b df3c 843d 3b87 c1bd
000001a0: b68c a83d 6392 80bc 86a0 6e3d 7b39 a73c
000001b0: cd6d b93d eb6a a63d 08ff 42bd bf93 b13d
000001c0: 57ed 8fbd db55 4fbc e8a9 a33d e65a 23bd
000001d0: 4493 913d b9f0 11bc 905c 38bd 660f 21bd
000001e0: 1a27 82bc 3bcc 633d 6838 8fbc a378 9e3d
000001f0: a8d2 853d 6ad2 9b3d 89c7 a0bb b08a 33bd
00000200: 9c3b 243d 15c3 513c 4c89 a2bd 633c 43bd
00000210: decb fcbc 15c2 e7bc 5243 fe3c f720 f0bc
00000220: fc9b f2bd 2587 6e3d ce49 923c f8b7 89bd
00000230: c3fc bf3c e860 73bd 7eb7 2b3d f1c5 9bbc
00000240: 2286 183a 70fa 8e3c bc0b 56bd 1f37 c53c
00000250: 725d 08bd b676 bebc 620c 753d bb00 61bd
00000260: 909a 363d 484b 08bd f3f9 9dbd 583a a63d
00000270: ad76 023d 3cac 8d3c c5e8 5abd 772a c93c
00000280: 0dce 883d 24fc a73b a4e9 c7bd 5fb0 7e3c
00000290: abc8 41bd 4508 7bbd ceaa 953d 945b 5c3d
000002a0: 0d5b fc3c bb91 9cbd 49f4 85bd 9964 a53c
000002b0: 25dc aa3d e2a1 39bd bc85 333c d96f c23c
000002c0: 870f 163d 2867 c8bc c61b e23c 87dc 863a
000002d0: 1eff f13d 780a a03d d7fb 3abd c4a1 a4bd
000002e0: 837e 70bd c649 633d a011 bebd 5ebb d03d
000002f0: 639e 41bd 8991 893d 51f4 993d 450d 3a3d
00000300: 53b6 ac3d 5878 8a3c c4d1 ae3c 724d bbbc
00000310: 2fb1 293d 8769 c7bc 25fd afbd 5747 99bd
00000320: 8eb0 343d 2632 b03d e43c a4bd ae04 663d
00000330: 5f31 74bd 19f2 53bd 22bf 2b3b 9ef0 c43d
00000340: ea7a 8bbd fe41 9fbd b034 463d a4c8 de3c
00000350: eb16 7c3b 7e7a 0a3d 083d b2bc 7e35 bd3c
00000360: 76df 78bc a60c 29bd 0f66 963a f380 053c
00000370: 1523 933c 804e 593d 5c3c d6bb 32bd 5d3b
00000380: a82c 803d 8d76 77bd b88b 6bbc 91b9 373d
00000390: 9768 2b3d fa29 b3bd 1078 983d eaa2 983c
000003a0: 5cdf 8fbd 2425 b5ba a47d 353b b9ac c83c
000003b0: e2a2 5cbd d662 ab3a 53e9 d2bc a6b9 62bd
000003c0: de9f 36bd d57a c13d 65b8 a63d d9d9 f13c
000003d0: 4dc5 f5bc 82f1 a6bc 19be a9bd 72ab 52ba
000003e0: 62da 8c3d 0946 b5bd baa9 0cbd 233e 123d
000003f0: 10d6 b7bd 1f27 043d ba7b 44bc e363 21bd

layers.block_2.layer.0.bias f4 [128]
-0.09001452 0.058578018 -0.011701394 0.046166155 -0.12186784 0.083124354 0.07723181 -0.047824427
0.07669759 0.022701995 0.029019408 -0.057772674 0.11464611 -0.041344374 -0.018190801 0.0011352062
0.042215426 0.048228335 -0.04555671 -0.079872854 0.0057048905 0.038525023 0.042541657 0.02501745
-0.049505632 -0.06446784 -0.013061035 -0.032677047 -0.040020403 0.079350516 -0.026510086 0.018508036
0.0011713043 -0.049066193 0.07781413 -0.042699594 0.015055043 -0.055605162 -0.0032138103 -0.036078967
0.0092982 -0.029197307 0.08785804 -0.06090055 -0.013946123 -0.004909545 -0.07959757 -0.05844798
-0.07255493 -0.00812151 -0.08732007 0.09817466 -0.07485323 0.05600981 0.056276485 0.012433682
0.038367763 -0.09707052 -0.012639483 0.024397459 -0.035620138 -0.089475006 0.0804418 0.0018738173
-0.076240726 0.02587833 -0.09816687 0.060665444 -0.028970899 0.042970367 0.010437418 -0.057382543
0.059827555 -0.117327705 0.050898213 0.02259717 -0.004185155 -0.03928806 0.024040544 0.043948803
0.022424696 0.0005223501 -0.045257542 -0.04748126 0.043910105 0.07522138 -0.0798544 0.026504865
0.06992133 -0.02586457 0.024439154 -0.0020005684 -0.08423404 -0.016780049 0.007565605 -0.037471447
-0.0069595855 -0.027570533 0.004483721 0.022793455 -0.022278959 -0.022067675 0.08764016 0.0050868546
0.074900866 0.09838881 0.054938406 0.06877751 -0.07495426 0.0035088307 0.044281255 -0.0670864
-0.074389696 -0.060452912 0.087787725 0.076088324 0.007893512 0.05843347 0.045224383 0.058072492
-0.027681429 -0.010901594 0.0164741 0.018176712 -0.006004975 -0.052727774 0.07344587 -0.09092027
00000000: 8859 b8bd 81ef 6f3d 34b7 3fbc b918 3d3d
00000010: d995 f9bd 1a3d aa3d b62b 9e3d 8ce3 43bd
00000020: a013 9d3d 89f9 b93c 1cba ed3c 0aa3 6cbd
00000030: 94cb ea3d b858 29bd e004 95bc 33cb 943a
00000040: 15ea 2c3d 138b 453d ac99 3abd 6194 a3bd
00000050: 17f0 ba3b 6acc 1d3d 2940 2e3d 65f1 cc3c
00000060: 6bc6 4abd b707 84bd f4fd 55bc 5ed8 05bd
00000070: 6fec 23bd 8682 a23d ae2b d9bc 2a9e 973c
00000080: 7386 993a a2f9 48bd 045d 9f3d c5e5 2ebd
00000090: 6da9 763c 3dc2 63bd ca9e 52bb 8ac7 13bd
000000a0: 7a57 183c 312f efbc ebee b33d db72 79bd
000000b0: 487e 64bc 40e0 a0bb 0d04 a3bd 2667 6fbd
000000c0: ae97 94bd 1510 05bc ddd4 b2bd cc0f c93d
000000d0: a64c 99bd 8b6a 653d 2c82 663d a4b6 4b3c
000000e0: 8427 1d3d e9cc c6bd d615 4fbc 2edd c73c
000000f0: 6ce6 11bd ac3e b7bd acbe a43d e09a f53a
00000100: 1924 9cbd cbfe d33c b60b c9bd 547c 783d
00000110: 6154 edbc b201 303d b401 2b3c f509 6bbd
00000120: bd0d 753d 8249 f0bd a57a 503d b31d b93c
00000130: a023 89bb 84ec 20bd adf0 c43c a903 343d
00000140: ffb3 b73c 52ee 083a f95f 39bd b67b 42bd
00000150: 15db 333d ab0d 9a3d b48a a3bd bb20 d93c
00000160: ea32 8f3d efe1 d3bc 9f34 c83c f81b 03bb
00000170: e582 acbd 5076 89bc e5e8 f73b a97b 19bd
00000180: 3c0d e4bb 99db e1bc 2eec 923b 57b9 ba3c
00000190: 5d82 b6bc 45c7 b4bc af7c b33d a1af a63b
000001a0: a065 993d 1380 c93d 1807 613d 39db 8c3d
000001b0: 9e81 99bd 69f4 653b 4360 353d 9864 89bd
000001c0: a059 98bd 799d 77bd 0dca b33d 32d4 9b3d
000001d0: ca53 013c ef57 6f3d 343d 393d 6cdd 6d3d
000001e0: 2ac4 e2bc 999c 32bc b1f4 863c 54e7 943c
000001f0: 62c5 c4bb 14f9 57bd ca6a 963d 6834 babd

layers.block_3.layer.0.weight f4 [128, 128]
0.062420037 0.0038889635 -0.13725773 -0.048232872 0.013630902 0.029735947 0.0018820298 0.037886463
-0.04118411 0.0802307 0.05412992 -0.068318166 0.072276995 0.019350618 0.18013036 -0.09273407
-0.11685131 0.1142486 0.084476665 0.041920926 -0.07781071 -0.0043069427 -0.04744327 0.06674397
0.07332954 -0.14611286 0.061529633 -0.1337516 0.028801985 0.024813669 0.0048754867 -0.01979334
-0.1596035 -0.00788817 0.01875423 0.046962004 0.02105505 -0.0048391544 -0.018858686 -0.010858001
0.07640081 -0.23481724 -0.0393813 -0.030518355 0.06378818 0.068159804 0.08989873 -0.092841566
0.10082104 -0.008275713 0.04850254 -0.013028091 -0.019842684 -0.14137721 -0.011348913 0.048784863
-0.1985936 0.0056938264 -0.11952771 -0.05341087 -0.1293174 -0.012448937 -0.08368572 -0.023274342
0.05836787 0.047261 0.049065992 -0.06905396 0.0982448 -0.045957673 0.02466743 -0.060086753
-0.08442143 0.017398458 -0.06307877 -0.121986374 0.046567474 -0.0065169097 -0.07051876 -0.026111549
-0.08333668 -0.04359443 0.028343244 -0.010577864 0.08368417 -0.061972003 0.06461195 -0.08540399
-0.16114466 -0.019800883 -0.1382695 0.01991882 -0.28954944 -0.07641933 0.10321143 0.14959832
0.10219066 0.08106467 0.03990151 -0.25079152 -0.002649668 -0.04741749 0.039315093 0.060412075
0.04732252 -0.010375474 -0.10202036 0.005055582 0.05300724 0.014482771 0.020371854 0.112563364
-0.010695766 0.16284943 -0.020259967 -0.019664442 0.30204058 -0.083095424 -0.025764147 -0.1406592
-0.03825185 -0.043480102 0.10159527 0.009905523 0.2003444 0.031387735 -0.0687918 0.019227773
-0.05234825 -0.005174957 -0.047017474 -0.032683574 -0.09529239 0.027717609 0.082772456 0.018529952
-0.041719668 0.029588869 -0.030868467 0.010273964 0.049683016 0.06420325 -0.04720339 -0.014815329
-0.062297907 -0.010250574 -0.086056 0.09543945 0.084106095 -0.12643504 0.0036060165 0.027427364
0.105342016 0.022056568 -0.03144199 0.02238457 -0.009976651 -0.06297969 -0.06047033 0.00016707898
-0.058250897 0.0054965913 0.08516109 -0.05037279 0.14121835 0.063157976 -0.060482062 -0.0037113293
0.11969471 0.018411933 0.036908515 0.08184832 -0.014514823 -0.05844721 -0.078133054 -0.03836721
0.0531189 -0.03844399 -0.016772388 0.0317478 0.003219108 -0.05929367 0.043278784 -0.07192263
0.0446151 -0.012780489 -0.029333469 -0.07619603 -0.03481893 -0.043718126 0.048431616 -0.021867782
-0.002470952 -0.09747855 -0.032877646 0.05861573 -0.11221214 -0.024651174 0.0048625995 0.046573307
0.02712835 0.107906796 -0.009414202 0.062134888 0.06889649 -0.010537017 0.095406674 0.08350052
-0.12990706 -0.09209916 -0.07250832 0.11836186 0.07134243 -0.15671739 -0.047637347 0.06795386
0.06888429 -0.10762365 -0.08560249 -0.02143887 0.022555923 -0.09942806 -0.08177692 -0.090545416
0.012917587 -0.11373273 0.021349745 -0.03799352 0.08492904 0.026118146 0.16091241 0.033822533
-0.04865734 0.0033241448 -0.026994627 -0.12019327 -0.023560423 -0.022579914 0.024583263 -0.050006624
-0.016817655 0.030318739 0.012632701 0.06908008 -0.03293149 0.14652888 -0.05665368 0.10943048
0.025324548 0.11110473 0.026667079 -0.0018423505 -0.08832464 0.008011998 0.05842429 -0.107504845
00000000: 27ac 7f3d fbdd 7e3b 4a8d 0cbe d58f 45bd
00000010: 2654 5f3c cd98 f33c 71ae f63a d62e 1b3d
00000020: abb0 28bd fe4f a43d 56b7 5d3d 65ea 8bbd
00000030: f605 943d 3085 9e3c 1874 383e 5ceb bdbd
00000040: bd4f efbd 2cfb e93d 1a02 ad3d 47b5 2b3d
00000050: 395b 9fbd 4121 8dbb e053 42bd 10b1 883d
00000060: cc2d 963d 9c9e 15be 7f06 7c3d 2ef6 08be
00000070: 24f2 eb3c 0946 cb3c 8cc2 9f3b a425 a2bc
00000080: 1a6f 23be 623d 01bc 79a2 993c 3b5b 403d
00000090: a47b ac3c c591 9ebb 887d 9abc c2e5 31bc
000000a0: 0778 9c3d ee73 70be 494e 21bd a101 fabc
000000b0: 61a3 823d 5e97 8b3d d31c b83d b823 bebd
000000c0: 437b ce3d db96 07bc 99aa 463d c673 55bc
000000d0: 208d a2bc 30c5 10be cbf0 39bc a3d2 473d
000000e0: 1f5c 4bbe 4793 ba3b f2ca f4bd 5bc5 5abd
000000f0: c86b 04be a0f6 4bbc 6b63 abbd d5a9 bebc
00000100: 2613 6f3d c094 413d 6cf9 483d 2a6c 8dbd
00000110: 9234 c93d 1d3e 3cbd 5a13 ca3c 871d 76bd
00000120: 25e5 acbd 3687 8e3c 712f 81bd fed3 f9bd
00000130: 89bd 3e3d cd8b d5bb 246c 90bd e3e7 d5bc
00000140: 6cac aabd 1390 32bd 1730 e83c c74e 2dbc
00000150: 9b62 ab3d 5bd6 7dbd 4553 843d 49e8 aebd
00000160: 1b03 25be 7635 a2bc 8596 0dbe cb2c a33c
00000170: d33f 94be bd81 9cbd 8460 d33d 4d30 193e
00000180: 5649 d13d 3c05 a63d c46f 233d bf67 80be
00000190: 0da6 2dbb d838 42bd dd08 213d a772 773d
000001a0: 42d5 413d e4fd 29bc 0df0 d0bd 4ca9 a53b
000001b0: 1f1e 593d 2549 6d3c e0e2 a63c 9f87 e63d
000001c0: 4b3d 2fbc 00c2 263e 3bf8 a5bc 5317 a1bc
000001d0: 10a5 9a3e ef2d aabd 550f d3bc f708 10be
000001e0: f9ad 1cbd 3118 32bd 2e11 d03d c64a 223c
000001f0: 1527 4d3e 6d90 003d b7e2 8cbd 9083 9d3c
00000200: 1e6b 56bd b092 a9bb 6595 40bd 36df 05bd
00000210: a828 c3bd 0a10 e33c 9b84 a93d 20cc 973c
00000220: 3ee2 2abd 5b64 f23c dedf fcbc 2154 283c
00000230: 6b80 4b3d fe7c 833d 5858 41bd febb 72bc
00000240: 172c 7fbd 06f2 27bc 213e b0bd c275 c33d
00000250: d13f ac3d 3078 01be eb52 6c3b 5aaf e03c
00000260: 8ebd d73d faaf b43c 51c9 00bd d95f b73c
00000270: 1b75 23bc 7ffb 80bd bdaf 77bd ec31 2f39
00000280: 7e98 6ebd c01c b43b f068 ae3d b353 4ebd
00000290: 8b9b 103e f858 813d 0abc 77bd c639 73bb
000002a0: 8022 f53d 9fd4 963c 622d 173d 18a0 a73d
000002b0: 95cf 6dbc 5766 6fbd 3904 a0bd f026 1dbd
000002c0: 3493 593d 7277 1dbd 3f66 89bc fb09 023d
000002d0: acf7 523b ebdd 72bd 1845 313d 2c4c 93bd
000002e0: 53be 363d 4265 51bc be4c f0bc aa0c 9cbd
000002f0: 4b9e 0ebd c711 33bd 3b60 463d 1024 b3bc
00000300: b2ef 21bb d6a2 c7bd b6aa 06bd 0c17 703d
00000310: 7acf e5bd 42f1 c9bc 7156 9f3b a7c3 3e3d
00000320: 463c de3c 3dfe dc3d 063e 1abc 2781 7e3d
00000330: 9a19 8d3d 74a3 2cbc 9364 c33d 5202 ab3d
00000340: 5b06 05be 7c9e bcbd 3e7f 94bd b467 f23d
00000350: fb1b 923d 867a 20be 611f 43bd 652b 8b3d
00000360: 3513 8d3d ca69 dcbd 5c50 afbd 92a0 afbc
00000370: 33c7 b83c f0a0 cbbd a87a a7bd e06f b9bd
00000380: 49a4 533c b5ec e8bd a9e5 ae3c 189f 1bbd
00000390: 47ef ad3d b9f5 d53c 39c6 243e 7f89 0a3d
000003a0: eb4c 47bd e5d9 593b d623 ddbc e427 f6bd
000003b0: ca01 c1bc 83f9 b8bc d762 c93c bfd3 4cbd
000003c0: 2ec5 89bc 015f f83c 63f9 4e3c db79 8d3d
000003d0: 2ce3 06bd ab0b 163e b00d 68bd 161d e03d
000003e0: 6d75 cf3c e08a e33d eb74 da3c 067b f1ba
000003f0: 8de3 b4bd c144 033c 4f4e 6f3d 802b dcbd

layers.block_3.layer.0.bias f4 [128]
-0.0068970257 -0.045907654 -0.014577261 0.017758176 -0.041849345 -0.043503694 -0.06730504 -0.07258225
0.030327128 -0.084896445 -0.06326615 0.07032369 -0.031505685 0.08950271 0.032270294 -0.042546354
-0.048089776 0.023397697 -0.0078078895 -0.08202651 0.046067003 0.02788004 0.05760645 -0.038889956
-0.06814562 -0.051368922 0.054350525 -0.102389455 0.02249589 -0.0086886855 0.059419338 0.07970094
-0.013241007 0.031022234 0.07371338 0.059462342 -0.04642837 -0.019382153 0.0032779176 -0.067217164
-0.047714513 0.067154855 -0.009903316 -0.053999122 0.048735682 0.04934351 -0.02960111 -0.09338631
-0.05332441 0.07029811 0.015311991 0.06308141 -0.06016996 -0.0754625 -0.08364632 -0.016688298
0.08632219 0.045519236 -0.06484623 -0.010226705 -0.03222938 0.047011696 -0.041740138 -0.06348889
0.07508395 0.025229849 0.0486728 -0.014967968 -0.038632438 -0.08082553 -0.046371046 0.05396183
-0.07610412 0.07219106 -0.05946568 -0.07104475 -0.00017619148 0.074207276 -0.0773139 -0.072744705
0.06114384 0.014179157 0.050497293 -0.09504811 0.057732448 -0.08670195 0.06715193 0.060034845
0.07823114 -0.078472055 0.020383602 -0.024748283 -0.07243802 0.0422146 0.04260719 0.03994611
0.015843898 0.029826464 -0.059876394 -0.1078651 0.040538836 0.07460396 -0.04181921 -0.021403067
0.06505436 -0.08862422 -0.083234504 0.023879029 0.081137076 -0.0065779337 0.08548649 0.047441706
-0.08232397 0.06850942 0.009810976 0.014435368 0.0035093874 -0.009884241 0.013721988 -0.06795435
-0.02482151 -0.01092979 -0.0117473025 0.0609082 -0.029613268 0.034067824 -0.051085394 0.00049983116
00000000: 7200 e2bb aa09 3cbd 77d5 6ebc 9879 913c
00000010: 386a 2bbd ee30 32bd 3ad7 89bd 01a6 94bd
00000020: 9970 f83c 30de adbd af91 81bd de05 903d
00000030: 1b0c 01bd 324d b73d db2d 043d 1645 2ebd
00000040: c9f9 44bd 87ac bf3c 53d9 ffbb 84fd a7bd
00000050: c1b0 3c3d af64 e43c bef4 6b3d 134b 1fbd
00000060: ee8f 8bbd 3868 52bd a89e 5e3d 90b1 d1bd
00000070: 4d49 b83c fd5a 0ebc b161 733d 3f3a a33d
00000080: cff0 58bc 5722 fe3c 0af7 963d c98e 733d
00000090: ad2b 3ebd 52c7 9ebc 55d2 563b 27a9 89bd
000000a0: 4b70 43bd 7c88 893d 8541 22bc 2f2e 5dbd
000000b0: 119f 473d 6c1c 4a3d 077e f2bc 5241 bfbd
000000c0: b26a 5abd 75f8 8f3d 25df 7a3c d430 813d
000000d0: c774 76bd 158c 9abd c34e abbd e6b5 88bc
000000e0: b0c9 b03d 6172 3a3d 1ace 84bd e98d 27bc
000000f0: f402 04bd 568f 403d b5f7 2abd 7706 82bd
00000100: 9dc5 993d d4ae ce3c 215d 473d 353c 75bc
00000110: 0c3d 1ebd db87 a5bd 91ef 3dbd 1407 5d3d
00000120: 7adc 9bbd e8d8 933d 4992 73bd e97f 91bd
00000130: 0ac0 38b9 fcf9 973d c056 9ebd 2dfb 94bd
00000140: f771 7a3d b24f 683c 40d6 4e3d 95a8 c2bd
00000150: dc78 6c3d cb90 b1bd f386 893d 19e7 753d
00000160: a637 a03d f5b5 a0bd 83fb a63c e9bc cabc
00000170: 625a 94bd 37e9 2c3d e084 2e3d 889e 233d
00000180: 10cb 813c a156 f43c f340 75bd 61e8 dcbd
00000190: 0d0c 263d f6c9 983d 9f4a 2bbd 7c55 afbc
000001a0: 383b 853d 9d80 b5bd da76 aabd f49d c33c
000001b0: 322b a63d b58b d7bb 8a13 af3d 3c52 423d
000001c0: 7899 a8bd ab4e 8c3d 37be 203c 5282 6c3c
000001d0: c0fd 653b 83f1 21bc 30d2 603c a62b 8bbd
000001e0: 7b56 cbbc dd12 33bc c277 40bc e07a 793d
000001f0: 8697 f2bc b48a 0b3d eb3e 51bd 1a07 033a

layers.output.weight f4 [2, 128]
0.12230313 0.13146421 -0.14572415 -0.105491795 -0.09662722 0.12474372 -0.1176292 0.05907435
-0.06432132 0.043220397 0.084927574 -0.10167829 0.065298386 0.01120946 -0.19074681 -0.07552102
-0.0668579 -0.15599173 0.122903444 0.13602303 0.04439817 0.28405994 -0.03684043 0.11529383
-0.053476974 0.021520816 0.032491677 0.10330729 -0.10834079 -0.27244326 -0.108998686 -0.1574426
0.06909706 -0.1292639 -0.13534355 0.0111094285 0.12152012 0.0959997 -0.048833687 -0.15022144
0.12971234 -0.115275405 -0.09655302 -0.05753676 -0.01606479 0.10713517 0.06505008 0.08905381
-0.029058808 0.055503063 -0.030439427 0.096887134 -0.06388278 0.04284219 0.041478973 -0.050366607
0.10558774 0.2194199 0.0004653113 -0.17127067 -0.039503742 -0.15110654 0.123722 -0.12445693
-0.028350696 0.102990836 -0.13935958 0.11314003 -0.087733515 0.18617086 0.051016685 0.2529422
0.13450171 0.065432884 -0.08675296 -0.11752965 -0.03847845 -0.06598065 0.059157353 0.01078234
0.0022913741 0.13534123 -0.12419973 -0.12406184 0.0818553 0.11153317 0.3552287 -0.16132668
-0.04286465 0.04836092 0.041902866 -0.06036381 0.1442995 -0.008799308 0.095907114 -0.11781551
0.16586114 0.072078474 -0.06616062 -0.052688494 -0.046274513 -0.12889089 0.28927812 0.10166657
0.08584917 -0.003595351 0.0036353164 0.09620581 0.091961436 -0.18093058 -0.17512359 -0.110333584
0.20299569 -0.013866171 -0.24000823 -0.02261887 0.17154166 -0.026807861 -0.107613765 0.09913698
-0.10387132 0.035919353 0.05281064 0.14456022 -0.10116429 0.18191804 -0.018748727 -0.08145001
-0.2874909 -0.053710714 0.040681332 0.09400289 -0.0062054265 -0.09542328 0.0657813 0.171959
0.1386 -0.10345021 -0.26141492 0.19590163 -0.04858255 0.15282014 0.08191128 -0.19537142
-0.09427775 0.044845134 0.07373949 -0.07514005 -0.09557008 -0.319396 -0.182958 -0.09944634
-0.19068412 -0.21665712 -0.2127885 -0.049428772 0.28889892 0.013951566 -0.10177762 0.05747848
0.21298213 0.02007948 -0.027117511 -0.30428427 -0.06379171 -0.14951251 -0.07714881 0.013285654
-0.1324414 0.031123724 0.02995181 -0.069688104 -0.13088794 0.03477678 0.21416928 -0.12211797
0.16968895 0.074134216 -0.19246568 0.119046226 0.23014687 -0.12539575 0.15960604 -0.15066041
0.12386755 -0.21619049 0.2689965 0.016755216 -0.16543998 0.082906656 0.012926059 0.021409152
-0.12786865 -0.06601682 -0.029750697 0.100523226 -0.16515936 -0.17128897 0.19645165 -0.068400815
0.06646851 0.23611934 -0.110149555 -0.04395059 -0.09450372 0.07778941 0.2351203 -0.27761817
-0.26969948 0.037648663 -0.03357917 -0.10094874 -0.11462398 0.10782592 -0.15007244 0.10685683
-0.2009865 0.2843486 0.17690414 -0.14213479 0.029427929 -0.13403167 0.19036987 -0.032389894
0.026428655 0.07560253 0.1255315 -0.030733936 0.15249626 0.05079844 -0.24514076 0.15285963
-0.050151356 0.2185337 -0.13254036 0.009723802 -0.33295128 0.1392002 0.10145019 0.31480497
-0.086581916 0.23551412 0.2614887 -0.063164756 -0.018650213 -0.26338026 -0.0005771267 -0.0076491227
-0.053077403 0.11454066 0.09018368 0.010144783 0.044953123 -0.3011415 0.22099678 -0.11718826
00000000: 107a fa3d 8e9e 063e b638 15be 150c d8bd
00000010: 7ee4 c5bd a379 ff3d 94e7 f0bd f2f7 713d
00000020: e5ba 83bd df07 313d 82ee ad3d b53c d0bd
00000030: 29bb 853d e2a7 373c 2253 43be c4aa 9abd
00000040: cbec 88bd 4cbc 1fbe cdb4 fb3d 9f49 0b3e
00000050: dbda 353d 4e70 913e fee5 16bd 2c1f ec3d
00000060: ac0a 5bbd 6c4c b03c fe15 053d c692 d33d
00000070: c7e1 ddbd af7d 8bbe b43a dfbd a238 21be
00000080: c282 8d3d c15d 04be 8097 0abe 5204 363c
00000090: 8adf f83d 7e9b c43d d505 48bd a6d3 19be
000000a0: 50d3 043e 8315 ecbd 97bd c5bd aaab 6bbd
000000b0: 4e9a 83bc af69 db3d fa38 853d d861 b63d
000000c0: bd0c eebc 2e57 633d 1b5c f9bc c36c c63d
000000d0: fad4 82bd 4b7b 2f3d dbe5 293d 374d 4ebd
000000e0: 633e d83d 9caf 603e 07f5 f339 9461 2fbe
000000f0: adce 21bd acbb 1abe f661 fd3d 46e3 febd
00000100: b83f e8bc dcec d23d 47b4 0ebe f6b5 e73d
00000110: a1ad b3bd 93a3 3e3e dff6 503d a481 813e
00000120: d1ba 093e ad01 863d 89ab b1bd 63b3 f0bd
00000130: 949b 1dbd dd20 87bd fb4e 723d 69a8 303c
00000140: e12a 163b e496 0a3e 6e5c febd 2214 febd
00000150: c0a3 a73d 816b e43d 89e0 b53e d232 25be
00000160: d892 2fbd 1a16 463d 57a2 2b3d 0b40 77bd
00000170: 40c3 133e f92a 10bc f36a c43d 4249 f1bd
00000180: 81d7 293e e19d 933d 387f 87bd e4cf 57bd
00000190: 588a 3dbd f9fb 03be 431c 943e 9036 d03d
000001a0: b1d1 af3d fb9f 6bbb 7d3e 6e3b 8d07 c53d
000001b0: 4756 bc3d de45 39be 9953 33be 93f6 e1bd
000001c0: 1ade 4f3e f02e 63bc b8c4 75be 354b b9bc
000001d0: 9ea8 2f3e 299c dbbc 9b64 dcbd 5408 cb3d
000001e0: 7dba d4bd 2c20 133d f84f 583d 9807 143e
000001f0: 392f cfbd b948 3a3e ee96 99bc 43cf a6bd
00000200: 0232 93be c4ff 5bbd 78a1 263d 9684 c03d
00000210: e456 cbbb 486d c3bd 59b8 863d 0516 303e
00000220: 29ed 0d3e b4dd d3bd 2dd8 85be 709a 483e
00000230: 7ffe 46bd e27c 1c3e 1ac1 a73d 720f 48be
00000240: b114 c1bd 88af 373d bb04 973d 07e3 99bd
00000250: 3fba c3bd df87 a3be 5859 3bbe 86aa cbbd
00000260: b342 43be 5ddb 5dbe 3be5 59be d375 4abd
00000270: 8fea 933e 1c95 643c c970 d0bd 8e6e 6b3d
00000280: fd17 5a3e b97d a43c 8b25 debc 26cb 9bbe
00000290: 3aa5 82bd cf19 19be 3200 9ebd 12ac 593c
000002a0: b89e 07be 2ef7 fe3c 805d f53c a3b8 8ebd
000002b0: 7d07 06be 1972 0e3d 314f 5b3e fc18 fabd
000002c0: f1c2 2d3e aed3 973d b915 45be 82ce f33d
000002d0: 9fab 6b3e be67 00be c46f 233e b946 1abe
000002e0: 45ae fd3d 0a61 5dbe e9b9 893e 3c42 893c
000002f0: 1969 29be f7ca a93d d2c7 533c 3f62 af3c
00000300: 00f0 02be d433 87bd bcb7 f3bc 1fdf cd3d
00000310: 891f 29be 6066 2fbe 9f2a 493e ba15 8cbd
00000320: a420 883d 45c9 713e 1796 e1bd 8905 34bd
00000330: 2b8b c1bd 0e50 9f3d 60c3 703e f823 8ebe
00000340: 0d16 8abe 7c35 1a3d 508a 09bd 37be cebd
00000350: fabf eabd d6d3 dc3d 97ac 19be c1d7 da3d
00000360: 68cf 4dbe 2496 913e 5c26 353e c88b 11be
00000370: d712 f13c 993f 09be 52f0 423e 44ab 04bd
00000380: e880 d83c 80d5 9a3d 548b 003e bcc5 fbbc
00000390: fb27 1c3e 0612 503d 2e06 7bbe 3c87 1c3e
000003a0: 826b 4dbd 4cc7 5f3e a9b8 07be 9550 1f3c
000003b0: 9778 aabe 7f8a 0e3e 1ec5 cf3d 1e2e a13e
000003c0: dc51 b1bd 9d2a 713e d9e1 853e 865c 81bd
000003d0: 55c8 98bc c7d9 86be 514a 17ba 7ea5 fabb
000003e0: b167 59bd 4b94 ea3d 39b2 b83d 4e36 263c
000003f0: c420 383d 382f 9abe fb4c 623e 6600 f0bd

layers.output.bias f4 [2]
0.04627197 0.07953027
00000000: ad87 3d3d c4e0 a23d
