results/SMOTE10K/smote420/smote0.45/model.pth (torch, 205093 bytes, 10 tensors)

layers.block_0.layer.0.weight f4 [128, 2]
0	0x3f564f61	0.8371487
1	0xbe8f4fed	-0.27990666
2	0x3ea86fda	0.32897836
3	0xbe973b99	-0.29537657
4	0x3f2e8a76	0.68180025
5	0xbe5a1360	-0.21296453
6	0x3ea8e694	0.32988417
7	0x3e070bad	0.13188048
8	0x3f17e086	0.5932697
9	0xbe8f96f3	-0.28044853
10	0x3f24f2fb	0.6443326
11	0xbed2f410	-0.4120183
12	0xbed7066b	-0.41997084
13	0xbf016ff8	-0.50561476
14	0x3f715a37	0.9427828
15	0xbf3ea8f5	-0.7447656
16	0xbf7ebac7	-0.9950375
17	0x3e26f90c	0.16305941
18	0xbea9da95	-0.33174577
19	0x3f3abd65	0.72945243
20	0xbdc5881b	-0.09645101
21	0x3f380cf1	0.71894747
22	0xbed87730	-0.42278433
23	0x3ef4afca	0.47790366
24	0xbf569569	-0.8382173
25	0x3d4945e2	0.04913891
26	0x3ed9c74a	0.42534858
27	0x3e95b2cc	0.29237974
28	0xbf4be79b	-0.79650277
29	0x3eec3a5e	0.4613828
30	0xbe278a4c	-0.1636135
31	0x3f3d6631	0.73984057
32	0x3f50c002	0.8154298
33	0x3eb9afec	0.3626703
34	0xbf46e6c4	-0.7769587
35	0xbdca01e1	-0.098636396
36	0x3f361c7f	0.7113723
37	0xbe9da44f	-0.3078942
38	0x3f2bed8d	0.6715935
39	0xbf20b749	-0.6277967
40	0xbf3ebb03	-0.7450411
41	0xbc56f7b8	-0.013120584
42	0x3f815d73	1.0106643
43	0x3f12d99d	0.573633
44	0x3b87c072	0.0041428143
45	0xbf031f01	-0.51219183
46	0x3f43f625	0.7654746
47	0x3de21b35	0.110403456
48	0x3f9b29e4	1.2122159
49	0x3dae8f79	0.08523459
50	0xbbe71e38	-0.007053163
51	0x3f1d4062	0.61426365
52	0xbf98ecb8	-1.1947241
53	0x3d9cb3d3	0.07651486
54	0x3da5009a	0.08056755
55	0x3f3a175a	0.7269188
56	0xbf1fd034	-0.6242707
57	0xbf023819	-0.5086685
58	0x3f269613	0.65072745
59	0xbe1b6ff3	-0.15179424
60	0x3f4af311	0.7927714
61	0xbd83f86e	-0.064438686
62	0x3f833c01	1.0252687
63	0x3e20ca9b	0.15702288
64	0x3f024809	0.50891167
65	0xbef65699	-0.48112944
66	0x3efe7bbf	0.49703786
67	0xbf1d019a	-0.6133057
68	0xbea62f17	-0.32457802
69	0xbf38543e	-0.72003543
70	0x3f2460ee	0.642104
71	0x3eb91e3a	0.36155874
72	0x3f0b64ab	0.5445048
73	0x3f432012	0.7622081
74	0x3edb8050	0.42871332
75	0xbf1a7efb	-0.60350007
76	0xbfca3b8c	-1.5799422
77	0xbd95c801	-0.07313538
78	0xbe8766ae	-0.26445526
79	0xbe9ffe9c	-0.3124894
80	0x3f9ce836	1.2258365
81	0x3ec299f2	0.38008076
82	0xbe6ff6db	-0.23434012
83	0xbf0c9559	-0.54915386
84	0xbdd98c3e	-0.10622452
85	0xbebe94ce	-0.37222904
86	0xbfae8165	-1.3633238
87	0x3e9e6f4c	0.30944288
88	0xbecbf528	-0.39835477
89	0xbef8760b	-0.4852756
90	0x3f9c6353	1.2217811
91	0x3e8bec7d	0.27328864
92	0x3e983c86	0.29733676
93	0x3f3c638e	0.7358941
94	0xbf37aa5b	-0.71744317
95	0x3d6edb7e	0.058314793
96	0x3f85ce4f	1.0453585
97	0xbed76a85	-0.42073455
98	0x3e62755b	0.2211508
99	0xbf482bab	-0.7819163
100	0xbf685f75	-0.90770656
101	0x3ea169c5	0.31526008
102	0x3f671706	0.90269506
103	0xbefdf186	-0.4959833
104	0xbf84632b	-1.0342764
105	0xbe8cf24a	-0.27528602
106	0xbf857878	-1.0427389
107	0x3e3933a0	0.180861
108	0xbf280a52	-0.6564075
109	0x3ea9967a	0.33122617
110	0xbeddcb6b	-0.43319258
111	0x3caf90f8	0.021431431
112	0x3f89713f	1.0737685
113	0x3ecde018	0.40210032
114	0x3f256f23	0.64622706
115	0xbdf685e9	-0.1203726
116	0x3f029eb9	0.5102344
117	0xbf06ea30	-0.5270109
118	0x3f747e32	0.9550506
119	0xbec05b51	-0.3756967
120	0xbf347448	-0.7048993
121	0x3ec368c5	0.3816587
122	0x3edbcd56	0.42930096
123	0xbf53dd7b	-0.8275983
124	0xbf6f092c	-0.9337337
125	0x3d8672a9	0.065648384
126	0xbf217081	-0.6306229
127	0x3d8529bf	0.06502103
128	0xbf71b7ee	-0.9442128
129	0x3d5c2c03	0.05375291
130	0xbe9448ec	-0.28961885
131	0x3ed31c60	0.41232586
132	0x3db7c4db	0.08973094
133	0xbf1cd32a	-0.6125971
134	0x3f8fd97a	1.1238244
135	0x3eae5ee2	0.34056765
136	0x3e76410d	0.24048252
137	0x3e15d798	0.14633024
138	0xbe923d2c	-0.28562295
139	0xbf10652b	-0.5640437
140	0xbdb8bac4	-0.09019998
141	0x3f467f2f	0.77537817
142	0xbd4d0452	-0.05005295
143	0x3f237961	0.63857085
144	0x3f0332d9	0.5124946
145	0xbec81b78	-0.39083457
146	0x3f7b3b8f	0.98137754
147	0x3e9ac8b6	0.30231255
148	0x3f05396d	0.5204075
149	0xbd227bdc	-0.039668903
150	0x3f35b7f2	0.70983803
151	0x3f26dad5	0.6517766
152	0xbf34a6cb	-0.70567006
153	0xbf21b0e3	-0.6316053
154	0xbf1e97ee	-0.61950576
155	0xbf0cf4ab	-0.55060834
156	0x3f9721f8	1.1807241
157	0x3e938a3e	0.28816408
158	0x3f78bb43	0.9716074
159	0xbf00a585	-0.5025256
160	0x3f0184b8	0.5059314
161	0x3f06a787	0.52599376
162	0x3f1a920b	0.60379094
163	0xbdbfd111	-0.09366048
164	0xbdb67fea	-0.089111164
165	0x3e4bd9d7	0.19907318
166	0x3f73ad12	0.9518596
167	0x3dce8af3	0.10085096
168	0x3f6b015a	0.9179894
169	0x3efeef65	0.4979202
170	0xbf15006b	-0.5820376
171	0x3ed1ebaf	0.41000125
172	0xbf6929bf	-0.91079324
173	0xbe3388a8	-0.17532599
174	0x3f2cd207	0.67507976
175	0xbded6b60	-0.11592746
176	0xbec7f569	-0.3905442
177	0xbe268023	-0.16259818
178	0x3f59b3c4	0.85039926
179	0x3ed42fa7	0.41442606
180	0x3f2aea4a	0.66763747
181	0x3eb3cc4a	0.35116798
182	0xbd918751	-0.07105888
183	0xbf112051	-0.56689936
184	0xbf6f503f	-0.9348182
185	0x3dd7b6be	0.10532902
186	0xbf18a399	-0.5962463
187	0xbf497cc3	-0.78705996
188	0xbfb8971f	-1.4421118
189	0x3e415bef	0.18882726
190	0x3f53ac65	0.8268493
191	0x3e3be67a	0.18349639
192	0x3f975264	1.1822019
193	0xbe9baa66	-0.3040344
194	0x3f90774a	1.1286404
195	0x3e260ab5	0.16215022
196	0xbf17c7f1	-0.5928946
197	0x3d0c7528	0.034291416
198	0x3e9f7336	0.31142586
199	0x3f0af68a	0.5428244
200	0x3f01e72a	0.50743353
201	0xbf082931	-0.53187853
202	0xbf3fa1e9	-0.7485643
203	0x3d30a4fe	0.0431261
204	0xbf304878	-0.6886058
205	0x3f2a8070	0.6660223
206	0x3f23f6e4	0.640486
207	0xbe7f7da9	-0.2495028
208	0xbf1e009d	-0.61719686
209	0x3f21ff1a	0.6327988
210	0x3e6b1363	0.22956614
211	0x3eb6ebaf	0.35726687
212	0xbf3e42d4	-0.7432072
213	0x3dd33d33	0.10314407
214	0xbf63ee2d	-0.890353
215	0x3e406064	0.1878677
216	0xbf9dbc4b	-1.2323087
217	0xbeb93f23	-0.36180982
218	0xbf2e6906	-0.68129003
219	0xbd950789	-0.07276828
220	0x3efb0dca	0.49033958
221	0xbf29a0fb	-0.6626126
222	0x3ecd91e9	0.40150383
223	0x3efd747a	0.49502927
224	0x3ee6b520	0.45060062
225	0x3e9cd946	0.30634516
226	0x3f7859be	0.97011936
227	0xbf0c17ad	-0.54723626
228	0x3f3586eb	0.70908993
229	0x3f345c83	0.7045366
230	0x3f84f1a7	1.0386246
231	0xbe7281e0	-0.23682356
232	0xbf17bc89	-0.59272057
233	0x3f01dfa5	0.5073188
234	0xbf99ed19	-1.2025481
235	0x3f1ede8b	0.62058324
236	0x3f8db3fa	1.107055
237	0x3e8e00bb	0.27734932
238	0x3e272d47	0.16325866
239	0x3efcedd3	0.49400195
240	0x3f56aa46	0.83853567
241	0x3e92ccaa	0.2867177
242	0xbf345ba1	-0.70452315
243	0xbf0e3c79	-0.55561024
244	0xbf217fe4	-0.6308577
245	0x3ecc2892	0.39874703
246	0x3ee2e722	0.44316965
247	0xbf2a1ab5	-0.66447
248	0x3db5d093	0.08877673
249	0xbf3a3216	-0.72732675
250	0xbf04dc04	-0.5189822
251	0xbf1624bd	-0.5864981
252	0xbf386b51	-0.7203875
253	0x3f0aabcc	0.5416839
254	0x3f1ba154	0.6079304
255	0x3f0b51ce	0.544217

layers.block_0.layer.0.bias f4 [128]
0	0x3ee0bb59	0.43892935
1	0xbe4fd758	-0.20296991
2	0xbd527080	-0.05137682
3	0xbf1cac9f	-0.612009
4	0x3ec1babe	0.37837785
5	0x3d86ec3e	0.06588028
6	0x3ebb4d75	0.36582533
7	0x3f3d75e3	0.74008006
8	0xbef207ef	-0.47271678
9	0x3e8be171	0.27320436
10	0x3f20c9f6	0.6280817
11	0xbeccd5f1	-0.40006974
12	0xbcafa78b	-0.021442195
13	0xbd25637a	-0.04037807
14	0x3edd32c5	0.43202797
15	0x3eee5e86	0.4655649
16	0xbef58f38	-0.4796083
17	0xbe9f2310	-0.31081438
18	0x3efb4b04	0.4908067
19	0xbf33e885	-0.7027667
20	0x3f284cfc	0.6574247
21	0xbf04a9f7	-0.51821846
22	0xbf335b46	-0.7006115
23	0x3ecf62f9	0.40505198
24	0xbddcf37b	-0.10788628
25	0xbee01798	-0.43768
26	0xbc6fc4b0	-0.014634296
27	0xbeb414e1	-0.3517218
28	0xbe9e6320	-0.30935
29	0x3ccd527b	0.025063744
30	0xbf05489c	-0.5206392
31	0xbd08c0d3	-0.033387017
32	0x3f265224	0.64969087
33	0x3e3fe21c	0.18738598
34	0x3d9f20a1	0.07769895
35	0xbf28f462	-0.659979
36	0xbf3190f3	-0.693618
37	0x3eaae092	0.3337446
38	0x3cb53f5b	0.022124937
39	0xbeee9fa3	-0.46606168
40	0xbee2495b	-0.4419659
41	0x3ecd9222	0.40150553
42	0xbf0c652d	-0.5484188
43	0xbe7c77a0	-0.24655008
44	0x3f08c617	0.5342726
45	0xbea412f6	-0.32045716
46	0x3b5fd4d6	0.003415396
47	0xbd88efa9	-0.066863365
48	0x3ea80a5c	0.32820404
49	0xbe8284c3	-0.25491914
50	0xbee49b57	-0.44649765
51	0x3f18e557	0.59724945
52	0x3ec0e170	0.37671995
53	0xbe2b8d12	-0.16753033
54	0x3edfdb59	0.43722036
55	0x3e784506	0.2424508
56	0xbeca7960	-0.39545727
57	0xbf08cd54	-0.53438306
58	0x3f05196b	0.5199191
59	0x3e1505ec	0.1455304
60	0x3e8b078b	0.27154192
61	0xbf1bdbfd	-0.6088255
62	0xbe713489	-0.23555197
63	0xbedb9a4e	-0.42891163
64	0xbdd6b6bb	-0.10484072
65	0x3eaecaca	0.3413909
66	0x3f31befe	0.69432056
67	0xbe883485	-0.2660257
68	0xbeeb1956	-0.45917767
69	0xbea27a0c	-0.3173374
70	0x3df71740	0.120649815
71	0x3f0e6a2a	0.55630744
72	0x3ef7e598	0.48417354
73	0xbc418281	-0.0118109
74	0x3f30f821	0.69128615
75	0xbf0d1b0e	-0.5511941
76	0x3f2f2133	0.68410033
77	0xbf2a8bd0	-0.66619587
78	0xbe8a6eb4	-0.27037585
79	0x3f2a0870	0.66419125
80	0xbedf0292	-0.43556648
81	0x3e2d4371	0.16920258
82	0x3f2ac98a	0.66713774
83	0xbef894dc	-0.4855107
84	0xbeea4ce3	-0.45761785
85	0xbf2b0de4	-0.6681807
86	0x3f27c22b	0.6553065
87	0xbebedac9	-0.37276295
88	0xbed527de	-0.4163198
89	0xbe6d905f	-0.23199604
90	0xbe74ddbf	-0.23912714
91	0xbe8a9065	-0.2706329
92	0x3dbcf107	0.0922566
93	0xbf250b99	-0.6447082
94	0xbe7d986c	-0.24765176
95	0xbe316c65	-0.17326505
96	0x3eab6be6	0.33480757
97	0xbe122aae	-0.14274094
98	0xbe216a50	-0.15763211
99	0x3f2229b6	0.63344896
100	0xbf13320e	-0.5749825
101	0xbd7eeadd	-0.0622357
102	0xbf1c9e1c	-0.61178756
103	0x3d690305	0.056887645
104	0x3e8ad3f3	0.2711483
105	0xbe89a385	-0.26882568
106	0xbee29900	-0.44257355
107	0xbe73e4d1	-0.23817755
108	0x3ea2b6ba	0.31780034
109	0x3ed20146	0.41016597
110	0x3f34ce84	0.7062762
111	0xbf151398	-0.5823302
112	0x3e8028c6	0.25031108
113	0x3f1bd5f7	0.6087336
114	0xbf37b4dc	-0.71760345
115	0x3e85a2ef	0.2610087
116	0x3ee343c1	0.4438763
117	0xbf15c968	-0.58510447
118	0xbe0ee797	-0.13955532
119	0xbedd58f6	-0.43231934
120	0xbcdb8a05	-0.026799211
121	0x3eea9a31	0.45820764
122	0x3ec01546	0.3751623
123	0xbea316e9	-0.31853417
124	0xbe8a9427	-0.27066156
125	0x3eab8ec3	0.33507356
126	0x3f2377ad	0.63854486
127	0x3dbdd216	0.09268586

layers.block_1.layer.0.weight f4 [128, 128]
0	0xbd5d08ad	-0.053963352
1	0xba48204d	-0.0007634208
2	0x3c864c0b	0.016393682
3	0x3d7c105d	0.061539043
4	0x3d758c89	0.059948478
5	0xbdabfca0	-0.08397794
6	0x3cac7dfe	0.021056172
7	0x3cac551a	0.021036673
8	0x3d807ed4	0.062741905
9	0x3d384ef7	0.04499718
10	0xbc1e9e41	-0.009681285
11	0xbcf1dfdb	-0.029525688
12	0xba8d0897	-0.0010760006
13	0xbd5fff8b	-0.054687064
14	0x3b13f2b9	0.0022575094
15	0x3c5466fe	0.012964008
16	0xbdda8093	-0.10669055
17	0xbc4fd98d	-0.0126861455
18	0x3d3df3dc	0.04637514
19	0x3b92e718	0.004483115
20	0x3d494cc2	0.049145468
21	0x3c9cae37	0.01912604
22	0xbc49541b	-0.012288119
23	0x3d8b0e59	0.06789846
24	0xbdce2777	-0.10066121
25	0xbd247102	-0.040146835
26	0x3cd49c66	0.025953483
27	0xbd19f6d2	-0.0375889
28	0xbd565f1c	-0.052336797
29	0xbd92ea6a	-0.07173617
30	0xbc25d585	-0.010121708
31	0xbdf26ba0	-0.11836934
32	0x3cbbb2d2	0.022912417
33	0x3dbcb348	0.09213883
34	0x3d4d4f0e	0.05012422
35	0xbd78473a	-0.060614802
36	0x3caad991	0.020855697
37	0xbbea1279	-0.0071433154
38	0x3d4d75c0	0.050161123
39	0x3cdbeda7	0.02684672
40	0xbd83de1e	-0.0643885
41	0x3da88e6e	0.08230291
42	0xbc80ea05	-0.01573659
43	0x3d2b1279	0.041765664
44	0x3d97f6e7	0.0742014
45	0xbc9d1f1d	-0.019179875
46	0xbcca58d8	-0.024700567
47	0xbae24e2d	-0.001726573
48	0x3d7a03d8	0.061038822
49	0x3ccc011d	0.024902875
50	0xbb2adafa	-0.0026070462
51	0xbd5f11a7	-0.054460194
52	0xbcfecd97	-0.031103892
53	0x3c4c0cae	0.012454195
54	0x3c14fe64	0.009093855
55	0x3d0568f4	0.032570794
56	0xbd8b4fad	-0.06802306
57	0xbd600be4	-0.05469884
58	0xbc063d20	-0.008193284
59	0xbcf069b3	-0.029347276
60	0xbd12ca85	-0.03583767
61	0xbcd68f38	-0.026191339
62	0xbbfdc1c5	-0.0077440464
63	0x3c843198	0.01613693
64	0x3d33c322	0.043887265
65	0x3dc6f297	0.09714239
66	0x3bfc2af7	0.0076955515
67	0x3d10b89d	0.03533231
68	0x3c9872c6	0.018609416
69	0x3d7b4d61	0.06135309
70	0xbd7e7cc4	-0.062130705
71	0xbd3924d0	-0.045201123
72	0xbc892408	-0.016740814
73	0xbd20c4d1	-0.0392502
74	0x3d23da9c	0.040003404
75	0xbcecb080	-0.028892756
76	0x3c2db19b	0.0106014265
77	0xbdb76ebe	-0.08956669
78	0xbda6b1db	-0.08139392
79	0x3dc3babe	0.095571026
80	0xbc0257b0	-0.007955477
81	0x3dbaca89	0.09120662
82	0xbd55e373	-0.052218866
83	0xbceb6ba7	-0.028737856
84	0x3d03e3d1	0.032199685
85	0xbdc29069	-0.095002
86	0x3ca83318	0.020532176
87	0xbb64c608	-0.0034908075
88	0xbc1bdcfc	-0.009513136
89	0xbc03d3bb	-0.008046086
90	0x3ce3e838	0.027820691
91	0x3d053f45	0.03253104
92	0x3d873c02	0.066032425
93	0xbd554f8b	-0.05207781
94	0x3b551593	0.003251408
95	0x3d408b62	0.047007926
96	0xbd794cb8	-0.06086418
97	0xbdead466	-0.11466293
98	0x3d1b83ba	0.03796742
99	0xbd7d0e70	-0.061781347
100	0xbc5d573e	-0.01350957
101	0x3da7d6e1	0.08195282
102	0x3b835240	0.0040076077
103	0x3c81ef9e	0.015861329
104	0x3db6d088	0.08926493
105	0xbdb41586	-0.08793168
106	0xbcba478b	-0.022739192
107	0xbdae9116	-0.08523767
108	0x3d3e6b5c	0.046489105
109	0xbd808403	-0.06275179
110	0x3da8c52b	0.08240732
111	0xbd8b0c31	-0.06789435
112	0x3c93da64	0.018048473
113	0x3d290bbc	0.041270956
114	0xbd58b827	-0.052909996
115	0x3d3b5693	0.04573686
116	0xbc94ff44	-0.018188126
117	0xbc8e9983	-0.017407184
118	0xbe1b87b0	-0.1518848
119	0xbd886c51	-0.06661285
120	0xbd538323	-0.051638734
121	0x3d50c694	0.05097063
122	0x3d8201cb	0.06347998
123	0x3cb978d2	0.02264062
124	0xbdb2c278	-0.08728498
125	0x3e064b8b	0.13114755
126	0xbd0d44c4	-0.034489408
127	0xbcb6503b	-0.022255054
128	0x3db18995	0.0866882
129	0x3ae5d8b9	0.0017535902
130	0x3daed025	0.08535794
131	0xbd2e2478	-0.042515248
132	0xbd0d42ca	-0.034487523
133	0x3e0b4c2a	0.13603273
134	0x3d0197f0	0.03163904
135	0x3d323078	0.043503255
136	0x3d1789bd	0.03699659
137	0x3da58a49	0.080830164
138	0x3d7f37a0	0.062308908
139	0xbda7db56	-0.08196132
140	0xbc681f86	-0.014167672
141	0xbcf8650d	-0.030321622
142	0xbcf4254f	-0.029802946
143	0xbcadc353	-0.021211302
144	0xbd63edbb	-0.05564664
145	0xbcff2d96	-0.031149667
146	0x3c516794	0.012781043
147	0x3d1d5b89	0.038417373
148	0x3daefbba	0.08544107
149	0xbd309474	-0.043110326
150	0x3c53b973	0.0129226325
151	0x3d23b3f9	0.039966557
152	0xbd586520	-0.052830815
153	0xbde311cd	-0.110873796
154	0xbc2a689a	-0.0104009155
155	0xbe08bf6e	-0.13354275
156	0xbd9865af	-0.074412696
157	0xbd40797c	-0.046990857
158	0x3d817fae	0.06323181
159	0xbe26680a	-0.16250625
160	0xbc3de1d9	-0.011589491
161	0x3dd2dc83	0.102959655
162	0x3c7a07c9	0.015260645
163	0xbdd482a5	-0.10376481
164	0xbda13150	-0.07870734
165	0x3ce4e25c	0.027939968
166	0x3ddb0340	0.10693979
167	0x3c38b006	0.011272436
168	0x3c8ca0f8	0.0171666
169	0x3c79874c	0.015230011
170	0xbd2e46d9	-0.042548034
171	0xbd084c2c	-0.03327577
172	0xbd249702	-0.040183075
173	0x3d27e486	0.04098942
174	0xbdc98d07	-0.09841352
175	0x3d123172	0.035691686
176	0x3e11ec11	0.14250208
177	0xbdb372ea	-0.087621525
178	0x3bf7dae2	0.0075639347
179	0xbcb1fa34	-0.021725751
180	0x3d410ee5	0.047133345
181	0xbd8518e1	-0.06498886
182	0xbd8759d3	-0.066089295
183	0x3dc01daf	0.09380662
184	0xbcca3184	-0.024681814
185	0x3d06aaa6	0.032877587
186	0x3b40ae70	0.0029400848
187	0x3c05eac2	0.008173646
188	0x3d87c1f6	0.06628792
189	0xbd041aa0	-0.032251954
190	0x3da2e3b9	0.07953591
191	0x3d301496	0.042988382
192	0xbd81a1cd	-0.06329689
193	0x3ce05f40	0.027389169
194	0x3dbe6c89	0.09298045
195	0xbdc83f12	-0.09777655
196	0xbda06cea	-0.07833274
197	0x3be665d5	0.0070311823
198	0xbc198b63	-0.009371611
199	0xbcf7310f	-0.03017476
200	0x3d9aa4c2	0.07550956
201	0xbdb8357b	-0.089945756
202	0xbd006f06	-0.03135588
203	0xbe041e41	-0.12902166
204	0x3d01eb56	0.031718574
205	0xbca52a0a	-0.020161647
206	0xbdc807f3	-0.09767141
207	0x3c510a27	0.012758768
208	0x3d0ebf4d	0.034850407
209	0x3c2216cf	0.009893133
210	0x3d0f2450	0.03494674
211	0xbdc41a68	-0.09575349
212	0xbd829ed9	-0.06377954
213	0xbde31c80	-0.1108942
214	0x3d9bcfaa	0.07607968
215	0xbc7f6ca0	-0.015589863
216	0xbd81f771	-0.06346024
217	0xbd80f365	-0.06296424
218	0xbd9b2ea6	-0.07577257
219	0xbd95e417	-0.07318895
220	0x3d35f1d2	0.04442007
221	0x3bbfadff	0.0058495994
222	0xbd3f1d8b	-0.046659034
223	0xbd8138c4	-0.06309655
224	0xbd20ba23	-0.039240014
225	0xbdc6e22f	-0.0971111
226	0xbd231775	-0.039817292
227	0x3bb62a3b	0.0055592335
228	0xbd035fc3	-0.032073747
229	0x3d95c66a	0.07313235
230	0xbc433193	-0.011913675
231	0xbcb3804d	-0.021911765
232	0xbd61aa8b	-0.055094283
233	0xbd9f775c	-0.07786438
234	0xbda4a525	-0.08039311
235	0xbbda95e4	-0.0066707004
236	0xbd065ade	-0.0328015
237	0xbd884c97	-0.06655233
238	0x3d824717	0.063612156
239	0x3d408601	0.047002796
240	0x3d874aa2	0.06606032
241	0xbc37e2d4	-0.011223514
242	0xbdaaa8f1	-0.08333004
243	0x3d8da173	0.069155596
244	0xbd9441e3	-0.072391294
245	0xbd9537c9	-0.07286031
246	0xbd17f459	-0.037098262
247	0xbdd6f2aa	-0.10495503
248	0xbd7a9855	-0.06118043
249	0x3d8dde55	0.06927172
250	0xbd7d962a	-0.061910786
251	0xbcfb65f8	-0.03068827
252	0xbd57f941	-0.05272794
253	0x3d812a54	0.063069016
254	0x3dba02c3	0.09082558
255	0x3ce75fdb	0.02824395

layers.block_1.layer.0.bias f4 [128]
0	0xbcdf1200	-0.027230263
1	0x3d3da4ca	0.046299733
2	0x3dd70dc4	0.105006725
3	0xbda3f56f	-0.08005797
4	0xbd5df8ab	-0.054192226
5	0x3d9ce340	0.07660532
6	0x3ced93bd	0.029001111
7	0x3cbeda9b	0.023297599
8	0x3c9b4d66	0.018957805
9	0xbdb48dc4	-0.08816102
10	0x3cbd67f9	0.023120867
11	0xbcfa7b3f	-0.030576346
12	0x3c7f3176	0.015575757
13	0x3c7b2fa8	0.015331186
14	0x3da22918	0.07917994
15	0xbd2b1ab3	-0.04177351
16	0x3dca3691	0.09873689
17	0x3d6d4ed2	0.057936497
18	0x3dc93306	0.09824185
19	0xbdb007cd	-0.08595238
20	0x3cf9b678	0.030482516
21	0x3d9c248d	0.07624159
22	0x3d52367d	0.051321495
23	0x3d06ac6d	0.03287928
24	0xbc90134d	-0.017587328
25	0xbc91a065	-0.017776677
26	0xbb8a4519	-0.004219663
27	0xbe09cac4	-0.13456255
28	0x3d9f061f	0.077648394
29	0xbd717541	-0.058949713
30	0x3dde0f4c	0.108427614
31	0x3d8480d1	0.06469882
32	0xbce12d46	-0.027487408
33	0x3d553417	0.05205163
34	0xbd31dcd6	-0.043423496
35	0x3baf43f1	0.0053486754
36	0x3d984ead	0.07436881
37	0x3c3f7c43	0.011687341
38	0xbd43bff9	-0.0477905
39	0x3cc353d0	0.023843676
40	0xbd9b3902	-0.07579233
41	0xbda3abc3	-0.07991745
42	0xbc0a8a1a	-0.008455778
43	0xbccad495	-0.02475957
44	0xbddbf59a	-0.10740204
45	0x3dfdb69e	0.12388347
46	0x3dbd2824	0.09236172
47	0x3a4d7e7e	0.0007838978
48	0xbd8d842e	-0.06909977
49	0x3c414d8f	0.011798277
50	0x3d90236e	0.07038008
51	0xbd5d6e98	-0.05406055
52	0x3cf6ab00	0.030110836
53	0x3d8b2df3	0.067958735
54	0x3cb206ea	0.021731813
55	0xbd76ba58	-0.060236305
56	0x3ccb53ad	0.024820173
57	0xbd20655d	-0.039159168
58	0x3d9d240a	0.076728895
59	0xbc6ca0e3	-0.014442655
60	0xbdd726dd	-0.105054595
61	0x3d86675e	0.065626845
62	0x3bdcf44c	0.0067429896
63	0xbd9a521d	-0.07535193
64	0x3c0029fa	0.007822508
65	0x3d8079c4	0.06273225
66	0x3d159703	0.03652097
67	0x3d9de26b	0.077092014
68	0xbd1eb307	-0.038744953
69	0x3d795fc6	0.060882352
70	0xbcc0e8de	-0.02354854
71	0x3c3e9a30	0.011633441
72	0x3d0a710d	0.03379922
73	0x3cad9ecf	0.02119389
74	0xbd755c72	-0.059902616
75	0x3d331552	0.043721505
76	0x3bec3b03	0.007209183
77	0xbdb062d8	-0.08612603
78	0x3d2f58b9	0.042809222
79	0xbd6d3950	-0.057915986
80	0x3d83a7ec	0.06428513
81	0xbcbfe625	-0.023425171
82	0x3cf1faf6	0.029538613
83	0x3c37defe	0.011222599
84	0xbce55ccf	-0.027998356
85	0xbbdb20c3	-0.006687255
86	0xbccad757	-0.024760885
87	0x3db529f3	0.08845892
88	0x3d2cbd6f	0.042172845
89	0xbb762b7f	-0.0037562547
90	0x3d652665	0.05594482
91	0xba02fb36	-0.000499654
92	0xbd8e01fa	-0.06933971
93	0x3d9affc2	0.07568313
94	0xbda176c0	-0.07883978
95	0x3d97a94e	0.07405339
96	0x3d0d7f3c	0.03454517
97	0xbd3d68f0	-0.046242654
98	0xbc47a7a3	-0.012185964
99	0x3d3b030a	0.045657195
100	0xbd6c7bd6	-0.057735287
101	0x3d744c2b	0.059642952
102	0x3df1eb3d	0.11812446
103	0xbcfcd998	-0.030865476
104	0xbab32123	-0.0013666492
105	0xbc02a454	-0.007973749
106	0x3d14ba88	0.036310703
107	0x3b03184f	0.0020003503
108	0xbd6c1c17	-0.057643976
109	0xbdd3628e	-0.10321532
110	0xbd7c894f	-0.061654385
111	0xbd3528e0	-0.044228435
112	0xbd887a49	-0.06663949
113	0x3d6eab2a	0.058268704
114	0xbd13c0ed	-0.03607266
115	0x3ccff457	0.025385065
116	0x3d0ef15a	0.03489814
117	0x3d5f8bc1	0.05457664
118	0xbd01636e	-0.031588964
119	0x3da77c40	0.08177996
120	0xbd78f80a	-0.060783423
121	0xbd9c2066	-0.07623367
122	0xbd7c52ea	-0.06160251
123	0xbdbeee89	-0.09322841
124	0x3d00753b	0.0313618
125	0x3ca62dd8	0.020285532
126	0x3c450fde	0.012027709
127	0x3d2c6496	0.042088114

layers.block_2.layer.0.weight f4 [128, 128]
0	0x3cead1c7	0.028664483
1	0xbd261286	-0.04054501
2	0x3af94b52	0.001901964
3	0x3e548602	0.20754245
4	0x3d162b0d	0.03666215
5	0x3d635af0	0.055506647
6	0xbcbe8f00	-0.023261547
7	0x3d919c19	0.071098514
8	0xbe1adb50	-0.15122724
9	0xbc69bb09	-0.014265784
10	0x3c6f36ac	0.014600437
11	0x3e1765f8	0.14784992
12	0xbda6e601	-0.081493385
13	0xbc9f14d4	-0.019419111
14	0xbc1fb06d	-0.009746653
15	0xbe661009	-0.22467054
16	0x3c16ab59	0.009196126
17	0x3d47379e	0.048637025
18	0xbd19eac3	-0.0375774
19	0x3ddb1cce	0.106988534
20	0x3d8bd088	0.068268836
21	0x3d6c73d0	0.057727635
22	0xbdb8c3db	-0.090217315
23	0x3d3e3fd1	0.04644758
24	0xbccd4b65	-0.025060365
25	0x3c717750	0.014737919
26	0x3ce21f60	0.027602851
27	0xbc0b290f	-0.008493676
28	0x3b918a71	0.0044415523
29	0x3e106e42	0.1410456
30	0xbd1a9c26	-0.03774657
31	0x3c52a4e4	0.012856696
32	0xbd050420	-0.032474637
33	0xbc69400d	-0.014236462
34	0xbd0d0d54	-0.03443654
35	0xbdb41b2d	-0.08794246
36	0xbceb32b5	-0.028710702
37	0x3c695be2	0.014243098
38	0xbd24f3f8	-0.04027173
39	0x3c4de41a	0.012566591
40	0x3d58a0cb	0.05288772
41	0xbce55808	-0.027996078
42	0x3dae2338	0.08502811
43	0xbd6ad905	-0.057335872
44	0x3e27ba5b	0.16379683
45	0xbde09cdf	-0.10967421
46	0x3dc306c2	0.09522773
47	0x3af424a6	0.0018626645
48	0x3d920748	0.07130295
49	0xbd3ec3aa	-0.04657332
50	0xbdc4c501	-0.09607888
51	0xbba24d71	-0.0049530794
52	0xbdf82de4	-0.12118128
53	0x3e133046	0.14373884
54	0xbde11a8d	-0.10991392
55	0x3cf872e1	0.030328216
56	0x3d948f83	0.07253935
57	0xbdc553ab	-0.09635099
58	0xbd9b6afb	-0.07588764
59	0xbdc9fe98	-0.09863013
60	0xbb64b2f6	-0.0034896708
61	0x3c2bcf1d	0.010486391
62	0x3d022337	0.031771865
63	0x3dbb6cdf	0.09151625
64	0xbc108d26	-0.008822715
65	0x3e0b94b1	0.1363094
66	0xbe11ee2a	-0.14251009
67	0xbc4ab14e	-0.012371374
68	0x3d965949	0.073412485
69	0xbcba626b	-0.022752007
70	0x3cdc9f04	0.026931293
71	0xbdde63ea	-0.10858901
72	0x3dbd7270	0.09250343
73	0x3d8d802a	0.06909211
74	0x3da1c194	0.0789825
75	0xbd840ab3	-0.06447353
76	0x3d89da8f	0.0673114
77	0xbd8b581f	-0.06803917
78	0x3c315829	0.010824242
79	0x3d64764a	0.05577687
80	0x3d9caad7	0.076497726
81	0x3d27420c	0.04083447
82	0xbaeb1ac1	-0.001793705
83	0xbd06e0a8	-0.032929093
84	0xbd60adb2	-0.05485315
85	0x3d6138d7	0.054985847
86	0x3d956c25	0.072960176
87	0x3c8b58cb	0.017010113
88	0xbd53cbe2	-0.05170811
89	0xbd9f1927	-0.07768469
90	0xbe0162e2	-0.12635377
91	0xbe194208	-0.14966595
92	0xbd66d10b	-0.056351703
93	0x3bf08b6e	0.00734084
94	0xbd67302d	-0.05644243
95	0xbcb82796	-0.022479814
96	0xbc2331e1	-0.0099606225
97	0xbdd481e7	-0.103763394
98	0xbe41ba8c	-0.18918818
99	0x3d792697	0.060827818
100	0x3d48fefa	0.04907129
101	0xbd958542	-0.073008075
102	0xbdbfb6dc	-0.093610495
103	0x3cfbcdc1	0.03073776
104	0x3d59dd37	0.053189483
105	0xbe0870fe	-0.13324353
106	0xbd3d595f	-0.04622781
107	0xbd2dcf73	-0.042434167
108	0xbdde3345	-0.10849623
109	0x3db77e0e	0.0895959
110	0xbdbdd67f	-0.092694275
111	0x3dd78b6b	0.10524639
112	0x3e231df8	0.15929401
113	0x3c545945	0.012960737
114	0x3dd22666	0.1026123
115	0x3daf237a	0.085516885
116	0x3d05ffd7	0.03271469
117	0x3e06b2ad	0.13154097
118	0x3d8a47e6	0.06751995
119	0xbe05d6ef	-0.13070272
120	0xbe034cc1	-0.12822248
121	0x3d787242	0.06065584
122	0x3cc32cd7	0.023825092
123	0x3d0940b2	0.033508964
124	0xbd68617b	-0.05673359
125	0x3c1cad08	0.009562738
126	0x3c14629f	0.009056716
127	0x3d4893f4	0.048969224
128	0x3d826ef7	0.06368821
129	0x3db577d5	0.08860747
130	0x3cf9f8ae	0.030514088
131	0xbc83d538	-0.016092882
132	0x3d86eb03	0.06587794
133	0x3a0014d3	0.00048859156
134	0x3ce7afe2	0.02828211
135	0x3d924790	0.07142556
136	0xbe1c0695	-0.15236886
137	0xbd4395b7	-0.0477502
138	0x3ab3881b	0.0013697179
139	0xbd230998	-0.03980407
140	0xbd24d67c	-0.04024361
141	0xbe39a804	-0.18130499
142	0x3ddc8d69	0.10769159
143	0xbdcf9b83	-0.101370834
144	0xbd9b3375	-0.07578174
145	0xbda2ac48	-0.07943016
146	0x3ce9ee26	0.02855594
147	0xbd2236ab	-0.039602917
148	0xbaaced0b	-0.0013193203
149	0x3c0c98ce	0.008581353
150	0xbd0e5c30	-0.034755886
151	0xbd5f8b27	-0.054576065
152	0xbdea53c9	-0.11441762
153	0x3d94440e	0.07239543
154	0x3dcccf4e	0.10000478
155	0xbd0dc22c	-0.034609005
156	0xbc9d915d	-0.019234354
157	0xbd07f9d2	-0.03319723
158	0x3d2786ab	0.040899914
159	0x3d8ee996	0.06978147
160	0x3d4d0f27	0.05006328
161	0xbc0b6b6a	-0.008509496
162	0xbce25c2b	-0.02763184
163	0xbcdde444	-0.027086385
164	0xbb0ffd60	-0.0021971092
165	0xbd8a80e8	-0.06762868
166	0xbde42eb6	-0.11141722
167	0x39e63ea6	0.00043915695
168	0xbd7bd889	-0.0614858
169	0xbc7498ea	-0.014929036
170	0xbd693aa6	-0.056940697
171	0x3ccf0cb1	0.025274606
172	0x3d8525f9	0.06501383
173	0xbd8d43cb	-0.06897696
174	0x3da22f6c	0.07919201
175	0x3d63b4c6	0.05559232
176	0xbc2a0703	-0.010377648
177	0x3d905daa	0.07049115
178	0xbdc8c161	-0.09802509
179	0x3d31916a	0.04335157
180	0xbd1228dd	-0.0356835
181	0x3cb27d67	0.021788312
182	0x3ce2aab7	0.027669294
183	0x3d9431d2	0.07236065
184	0xbc4e2516	-0.012582084
185	0xbd97a126	-0.074037835
186	0x3d8472fb	0.06467243
187	0xbd8ed5cb	-0.069743715
188	0x3c43c1e0	0.011948079
189	0x3d51d693	0.051230025
190	0x3d0b4311	0.033999506
191	0xbd8e3c06	-0.06945042
192	0xbda68d9b	-0.08132478
193	0x37dc35c2	2.6251077e-05
194	0xbd0ae6e2	-0.033911593
195	0xbcc0ddc4	-0.023543246
196	0xbd134d61	-0.035962466
197	0xbb4a0e8b	-0.0030831422
198	0x3e4e5f85	0.20153625
199	0xbc85944b	-0.016306063
200	0x3db51ddb	0.08843585
201	0x3c8be76a	0.01707812
202	0x3d9d6b79	0.076865144
203	0xbd9ee3a5	-0.077582635
204	0x3cd45b63	0.025922483
205	0xbd175bf8	-0.036952943
206	0xbd223d64	-0.039609328
207	0xbbd95fa7	-0.006633717
208	0xbdb28f51	-0.08718742
209	0x3a999f15	0.0011720384
210	0x3c327a90	0.010893479
211	0xbd4a0bf0	-0.04932779
212	0x3ca8ca3a	0.020604242
213	0x3e053a4c	0.1301052
214	0x3dbdf003	0.09274294
215	0xbd3f5bc7	-0.046718385
216	0xbdfa9d27	-0.12237006
217	0xbe120fe3	-0.14263873
218	0xbd90b08f	-0.07064926
219	0xbd2283fa	-0.039676644
220	0x3d8dda52	0.06926407
221	0x3da8b43d	0.08237503
222	0xbd59447d	-0.05304383
223	0xbc8d24a8	-0.017229393
224	0xbd231b7d	-0.039821137
225	0xbd6e92d0	-0.05824548
226	0x3d06ba6e	0.032892637
227	0x3c3cc191	0.011520759
228	0xbd0eaa71	-0.034830514
229	0x3d01532c	0.03157346
230	0xbd86215e	-0.06549333
231	0xbddf0583	-0.10889723
232	0xbcb4545d	-0.022012884
233	0x3b827b02	0.003981949
234	0x3d3d81eb	0.046266478
235	0xbcd19868	-0.025585368
236	0x3c996485	0.01872469
237	0x3de2c336	0.1107239
238	0x3d86dd5d	0.065851904
239	0x3c683f8d	0.014175308
240	0xbd1b69a2	-0.037942536
241	0xbd62317f	-0.055222984
242	0xbdbd112d	-0.09231792
243	0x3db97008	0.090545714
244	0x3b283d7a	0.0025671409
245	0x3e23e4a4	0.16005188
246	0xbc1ff42b	-0.009762804
247	0xbca70393	-0.020387447
248	0x3bbbe8d2	0.0057345415
249	0xbd947c96	-0.072503254
250	0x3be58d59	0.0070053753
251	0x3ce7dc20	0.028303206
252	0x3c3d5c7e	0.011557696
253	0x3d9851dd	0.07437489
254	0x3b84c23e	0.004051476
255	0x3cfb93a7	0.030710055

layers.block_2.layer.0.bias f4 [128]
0	0xbda9a71b	-0.08283826
1	0x3caec274	0.021332957
2	0x3d73740e	0.05943685
3	0x3ce4a040	0.027908444
4	0xbd8143b6	-0.06311743
5	0xbd87db7d	-0.06633661
6	0x3e0d1815	0.13778718
7	0xbdcec977	-0.1009702
8	0xbcf4c344	-0.029878266
9	0x3d0613dd	0.032733787
10	0xbd8fd9b2	-0.07023944
11	0x3cdef478	0.027216181
12	0xbc5ee4d7	-0.013604364
13	0x3cc17a46	0.023617875
14	0x3d44a79e	0.048011415
15	0x3dc356dc	0.095380515
16	0xbc9642d3	-0.018342411
17	0xbcf73f26	-0.030181479
18	0xbd05a47d	-0.03262757
19	0x3b7f6ce7	0.0038974823
20	0x3d9af9ba	0.07567163
21	0xbc99cf23	-0.018775528
22	0x3cd40d1f	0.025885163
23	0x3d89ab47	0.06722122
24	0xbbac6fac	-0.0052623358
25	0xbc2cfdb8	-0.010558538
26	0x3d39baf3	0.045344304
27	0xbc72b101	-0.014812709
28	0xbd82a526	-0.06379156
29	0xbd463858	-0.048393577
30	0xbc82691e	-0.015919264
31	0xbcdca20f	-0.026932744
32	0x3d6b0726	0.057379864
33	0xbdac2b5d	-0.084067084
34	0xbb575012	-0.0032854122
35	0xbbf35cb2	-0.0074268216
36	0xbd821ad7	-0.063527755
37	0x3c0e2b0f	0.008677258
38	0x3c24a88a	0.0100499485
39	0x3bdf6e70	0.006818585
40	0x3cd995b2	0.026560638
41	0x3d98a434	0.07453194
42	0xbaad4142	-0.0013218301
43	0x3c380441	0.011231483
44	0xbd4808f9	-0.048836682
45	0xbc3b1b39	-0.011420065
46	0xbd6e7710	-0.058219016
47	0x3bb37497	0.005476545
48	0x3d5340d9	0.051575515
49	0x3cbe9f9c	0.023269467
50	0xbdd08be7	-0.10182934
51	0xbb805cc3	-0.003917308
52	0x3d94a45d	0.07257912
53	0xbd7b8924	-0.061410084
54	0xbd91d504	-0.07120708
55	0xbda72d8d	-0.08162985
56	0x3c5ac501	0.013352633
57	0x3b3494bd	0.0027554475
58	0xbc90ec8d	-0.017690921
59	0x3ce8d6c7	0.028422726
60	0xbd70545b	-0.058674198
61	0x3d5c9d98	0.05386123
62	0xbda2a178	-0.07940954
63	0x3d75ba2d	0.059992004
64	0xbd42bc7a	-0.047543027
65	0x3da01d91	0.07818139
66	0x3dc1e968	0.09468347
67	0x3d4d33d5	0.05009826
68	0x3dcbc342	0.09949352
69	0x3d1940c2	0.037415273
70	0xbcc85af8	-0.02445744
71	0xbd8caa41	-0.06868411
72	0xbb35822a	-0.0027695992
73	0xbd4cd9ec	-0.050012514
74	0x3ca6b8bd	0.020351762
75	0x3bb206a7	0.005432922
76	0xbd9c6832	-0.07637061
77	0x3d4ae9e9	0.04953948
78	0xbc8b2311	-0.016984494
79	0x3d22d031	0.039749328
80	0x3d1b1bc1	0.037868265
81	0xbda3853b	-0.07984396
82	0xbc945c66	-0.018110465
83	0xbda7ca4b	-0.08192881
84	0x3d6e5720	0.058188558
85	0x3cd01f2d	0.02540549
86	0xba5b29a7	-0.00083603937
87	0x3db442d4	0.08801809
88	0x3d63db07	0.055628803
89	0xbda3d2de	-0.07999204
90	0x3cae4d6f	0.021277158
91	0x3d6e6396	0.05820044
92	0x3bad79e0	0.0052940696
93	0xbd610af4	-0.054942086
94	0xbcbb3a7f	-0.022855042
95	0xbd903e10	-0.070430875
96	0xbc363de5	-0.011123155
97	0x3d334768	0.04376927
98	0xbd0eca65	-0.034860987
99	0xbda765d1	-0.08173717
100	0xbba2da30	-0.0049698576
101	0xbd66bd5b	-0.056332927
102	0x3d98cd20	0.074609995
103	0x3d1c87cf	0.038215455
104	0xbc91f511	-0.017817052
105	0xbc8f2683	-0.017474419
106	0x3dbfd05b	0.093659125
107	0xbd2872df	-0.041125175
108	0xbdbae405	-0.091255225
109	0xbd3501a0	-0.044191003
110	0xbdb678e6	-0.08909778
111	0xbd2772fb	-0.04088114
112	0xbdab6a4e	-0.083698854
113	0xbc660c15	-0.0140409665
114	0x3d8e0dc8	0.06936222
115	0x3d2262df	0.039645072
116	0x3cd8aefd	0.026450628
117	0x3d350926	0.044198178
118	0xbcb8a9a5	-0.02254183
119	0x3da91efe	0.082578644
120	0x3d08fcb0	0.033444107
121	0xbd41cb19	-0.04731283
122	0xbd12f7e5	-0.035880942
123	0x3c90fd43	0.01769889
124	0x3ada1330	0.0016637798
125	0xbd962081	-0.073304184
126	0xbd42890e	-0.047493987
127	0xbd72e59d	-0.059301008

layers.block_3.layer.0.weight f4 [128, 128]
0	0x3dd1de75	0.102475084
1	0x3d547174	0.05186601
2	0xbd2c24ba	-0.042027213
3	0xbd9da7b7	-0.07698005
4	0x3c648cc5	0.013949578
5	0x3d84fa3d	0.06493042
6	0xbdf92316	-0.12164895
7	0x3d2f1325	0.042742867
8	0x3e597343	0.21235375
9	0x3c5b081e	0.0133686345
10	0x3d79ea32	0.06101436
11	0xbbc4daee	-0.0060075438
12	0xbe2e76d2	-0.17037514
13	0x3dd45eb0	0.10369623
14	0x3e03f099	0.1288475
15	0x3d8994e5	0.067178525
16	0xbc9c8497	-0.019106193
17	0x3d061716	0.03273686
18	0x3ddfbb9d	0.10924456
19	0xbc16d751	-0.009206609
20	0xbdd22a51	-0.102619775
21	0x3e03e744	0.1288119
22	0xbc9b3295	-0.018945018
23	0xbdb9e82a	-0.09077485
24	0xbdd3f2c3	-0.103490375
25	0xbd832ad3	-0.064046524
26	0xbbbe377a	-0.005804953
27	0x3de0d331	0.109777816
28	0x3dd1f5c7	0.102519564
29	0xbd286cd6	-0.04111942
30	0x3cfbe975	0.03075097
31	0x3dfbf57a	0.1230268
32	0x3cbf6d92	0.023367677
33	0xbd77c9ea	-0.060495295
34	0x3df3f27d	0.11911485
35	0xbd4618c1	-0.04836345
36	0x3dd9e666	0.10639648
37	0xbd4526af	-0.048132595
38	0x3c5ad408	0.013356216
39	0xbd30f971	-0.043206636
40	0x3d7922f1	0.06082434
41	0x3ce6dcda	0.028181482
42	0xbddbc178	-0.107302606
43	0x3b94a873	0.0045366823
44	0x3db926b5	0.09040586
45	0xbd4db611	-0.05022246
46	0x3d5c9086	0.053848766
47	0x3d428e2a	0.04749886
48	0xbc6f3682	-0.014600398
49	0xbd9708d4	-0.07374731
50	0xbd2d0028	-0.042236477
51	0xbceb1937	-0.028698547
52	0x3d9ea4df	0.077462904
53	0x3d22845a	0.039677
54	0x3de8eba1	0.11373068
55	0x3e0bd51d	0.13655515
56	0x3b67cd77	0.003537027
57	0xba9f63c8	-0.0012160474
58	0xbe27f4ab	-0.16401927
59	0x3db856e9	0.09000952
60	0xbd83bfdd	-0.064330794
61	0xbdb6520e	-0.089023694
62	0xbd025f34	-0.031829074
63	0x3ce4c14d	0.027924204
64	0x3da909fb	0.08253857
65	0x3cf6679e	0.030078705
66	0xbc493db0	-0.012282774
67	0x3d1c0a89	0.038095985
68	0xbdda3660	-0.106549025
69	0xbd3e9686	-0.04653027
70	0x3d432408	0.047641784
71	0x3d13e30d	0.036105204
72	0x3da867f3	0.08222952
73	0xbd6bd701	-0.05757809
74	0xbd06ea37	-0.03293821
75	0x3dee5505	0.1163731
76	0xbb9002d2	-0.0043948675
77	0xbdc36be6	-0.09542064
78	0x3cdc7411	0.026910814
79	0x3d8d5bde	0.06902288
80	0x3dc14572	0.09437074
81	0x3d965acb	0.07341536
82	0xbd5fa139	-0.054597113
83	0xbe187f14	-0.14892226
84	0x3da1d9b8	0.07902855
85	0xbdf17126	-0.117891595
86	0x3daf44bc	0.08558032
87	0xbdb3974e	-0.087690935
88	0xbe3927d4	-0.180816
89	0xbdcec82c	-0.100967735
90	0x3cc409d3	0.023930466
91	0xbd5e8660	-0.05432737
92	0x3dc1fe2b	0.09472307
93	0x3df8a361	0.12140537
94	0x3cf26464	0.029588886
95	0x3e550b16	0.2080501
96	0x3db4fea9	0.08837635
97	0x3cbf66d9	0.023364471
98	0x3d0963b7	0.03354236
99	0x3d3e2602	0.046422966
100	0x3debe8f2	0.1151904
101	0xbd0b4701	-0.03400326
102	0x3e16b883	0.14718823
103	0x3da8a564	0.08234671
104	0xbdc61fa0	-0.09674001
105	0x3da5d610	0.0809747
106	0xbd9346ea	-0.0719126
107	0x3dc8a109	0.0979634
108	0x3d9bfbed	0.076164104
109	0x3e1dff55	0.15429433
110	0xbd0cef6a	-0.03440801
111	0x3caef68d	0.021357799
112	0xbbbb30d3	-0.0057126074
113	0x3c939f29	0.01802023
114	0xbd31df8f	-0.043426093
115	0x3c7dd1c3	0.015491906
116	0x3b9abcef	0.0047222297
117	0x3cb0f678	0.0216019
118	0xbb034417	-0.0020029598
119	0x3d930054	0.07177797
120	0xbd96b239	-0.07358212
121	0x3e067813	0.13131742
122	0x3de8da4c	0.11369762
123	0x3d84ef37	0.06490939
124	0xbd9ca11a	-0.07647915
125	0x3d70e0f5	0.058808286
126	0x3e01c66a	0.12673345
127	0x3c66888c	0.014070641
128	0x3db10123	0.08642795
129	0xbdb8e771	-0.09028519
130	0xbdeaa904	-0.114580184
131	0xbd95a277	-0.07306378
132	0x3d94f8ae	0.072739944
133	0x3cab16ed	0.020884955
134	0xbe87ddac	-0.2653631
135	0xbdde209d	-0.10846064
136	0x3d3c17e1	0.04592121
137	0xbdecac08	-0.1155625
138	0x3d5829eb	0.05277435
139	0xbdcfa894	-0.101395756
140	0x3dc85daa	0.0978349
141	0x3d526920	0.051369786
142	0xbd089fb5	-0.033355433
143	0x3ceab5cb	0.028651139
144	0x3dbe57c2	0.09294082
145	0x3dd1e057	0.102478676
146	0x3e1cf44f	0.15327571
147	0xbd837850	-0.06419432
148	0x3dc607d3	0.09669461
149	0xbca07d00	-0.019590855
150	0x3d987431	0.07444037
151	0x3d2689c9	0.040658746
152	0xbd83ee96	-0.06441991
153	0x3cb7918d	0.022408271
154	0x3da7962f	0.08182942
155	0x3dc46a85	0.095906295
156	0x3da84cc5	0.082177676
157	0xbc07a19f	-0.00827828
158	0xbd8fd2f8	-0.07022661
159	0xbcb1a806	-0.021686565
160	0xbcdfb005	-0.027305612
161	0xbd63e34a	-0.05563668
162	0xbe3a0a2d	-0.18167944
163	0x3e11d51f	0.14241455
164	0x3c594f3d	0.013263521
165	0x3d3eac91	0.04655129
166	0x3d0138ae	0.031548195
167	0x3db8e804	0.090286285
168	0xbe20bbf0	-0.15696692
169	0xbdb96a2a	-0.09053452
170	0x3ced1dbb	0.02894484
171	0xbd6afffd	-0.057373036
172	0x3d8d46bf	0.06898259
173	0x399afc68	0.00029561226
174	0xbd90cacf	-0.07069933
175	0xbcebf20e	-0.028801944
176	0x3d66c32e	0.05633848
177	0xbd8b4dd6	-0.068019554
178	0x3e131426	0.14363155
179	0x3dc0f9e8	0.09422666
180	0xbdf3dab7	-0.11906951
181	0xbdd193df	-0.10233282
182	0xbcd9c853	-0.02658478
183	0x3baa4949	0.0051967246
184	0x3d4f0270	0.050539434
185	0x3c7e1ee0	0.015510291
186	0x3d5025f7	0.050817456
187	0xbe375ec2	-0.17907241
188	0x3e08bc80	0.13353157
189	0x3d8417e4	0.06449869
190	0x3d6a6716	0.057227217
191	0xbd539a65	-0.051660914
192	0x3e134575	0.14381965
193	0x3d1f84c3	0.03894497
194	0x3e143b78	0.1447581
195	0x3d5f478e	0.0545116
196	0x3d3fddfe	0.046842568
197	0xbdb84e4f	-0.08999311
198	0xbd61533f	-0.05501103
199	0xbd9a0244	-0.075199634
200	0xbe31fc7d	-0.17381473
201	0xbea65d2b	-0.32492957
202	0xbc0e8d63	-0.008700701
203	0xbdd55546	-0.10416655
204	0xbd443544	-0.04790236
205	0x3d75e380	0.060031414
206	0xbdd068e3	-0.101762556
207	0x3c728988	0.014803298
208	0xbd4e118b	-0.0503097
209	0xbdaaca4b	-0.083393656
210	0x3d4c34a2	0.049854882
211	0x3df8c405	0.12146763
212	0xbcbe0e29	-0.023200111
213	0xbd176202	-0.036958702
214	0xbd36ff6d	-0.044677187
215	0xbc072ce3	-0.008250448
216	0xbd85b2d6	-0.06528251
217	0x3c516037	0.012779287
218	0x3e4a487b	0.19754212
219	0xbd2465de	-0.04013621
220	0xbd845039	-0.06460614
221	0xbe774f9c	-0.24151462
222	0xbcc076c1	-0.023494126
223	0x3dd1662c	0.10224566
224	0xbc3269a1	-0.010889442
225	0xbc574a2e	-0.013140244
226	0xbe47c066	-0.19506988
227	0xb89e5150	-7.549173e-05
228	0xbe240410	-0.16017175
229	0x3e012646	0.12612256
230	0xbe059edf	-0.13048886
231	0xbb530cdb	-0.0032203707
232	0x3ce73ebb	0.028228154
233	0xbda2d38f	-0.07950508
234	0xbbf0fa1d	-0.0073540346
235	0x3dcf2fc7	0.10116535
236	0x3d518434	0.05115147
237	0xbdf2915d	-0.11844132
238	0x3dfae660	0.12250972
239	0x3c836a76	0.016041975
240	0xbddd4ee9	-0.108060665
241	0xbbb6ee98	-0.005582642
242	0xbdb51300	-0.088415146
243	0xbe387307	-0.1801263
244	0xbdb09c4a	-0.0862356
245	0xbd981b7d	-0.07427118
246	0xbd07f948	-0.033196718
247	0x3a9d9e27	0.0012025282
248	0x3c98c652	0.018649254
249	0x3c82c752	0.015964184
250	0x3dd5cdfc	0.10439679
251	0x3ce7d7da	0.028301168
252	0x3dd698ca	0.10478361
253	0xbd140045	-0.03613307
254	0xbd548973	-0.051888894
255	0xbd38246c	-0.04495661

layers.block_3.layer.0.bias f4 [128]
0	0x3c08dcce	0.008353425
1	0xbd7ee81a	-0.062233068
2	0x3c36c8be	0.011156259
3	0x3d895a94	0.067067295
4	0xbdb63193	-0.08896174
5	0x3c951251	0.01819721
6	0xbd866857	-0.0656287
7	0x3cdd0c2c	0.026983343
8	0x3d871e19	0.065975375
9	0xbc9aedff	-0.018912314
10	0xbd2f2785	-0.042762298
11	0xbd0acbc2	-0.033885725
12	0xbd61dd26	-0.055142544
13	0x3d8a1e3c	0.06744048
14	0x3dba9bc6	0.09111743
15	0xbd541647	-0.051779058
16	0x3d8331d9	0.06405992
17	0x3da1f6b3	0.07908382
18	0x3d2400e8	0.040039927
19	0xbd69700d	-0.056991626
20	0x3da53f00	0.08068657
21	0x3ceeb332	0.029138181
22	0x3cacfd64	0.02111692
23	0xbd104047	-0.03521755
24	0x3d1d2d24	0.038373128
25	0x3d1e9aaf	0.038721737
26	0xbd48e55a	-0.04904685
27	0xbd92ec0a	-0.07173927
28	0xbcb6a001	-0.022293093
29	0x3c11b0cc	0.008892249
30	0x3dbe5abe	0.092946514
31	0x3d80b12f	0.06283795
32	0xbd3b0444	-0.045658365
33	0x3dc3a539	0.09552998
34	0x3cfd5577	0.030924542
35	0x3dbfaab1	0.09358729
36	0xbd60cd57	-0.054883327
37	0xbd04de91	-0.03243882
38	0x3daf6ab3	0.08565273
39	0xbd066db3	-0.03281946
40	0xbcfdc6c6	-0.030978572
41	0xb87531de	-5.8458994e-05
42	0x3dd54850	0.10414183
43	0x3c9c477f	0.01907706
44	0x3dc05cbe	0.09392689
45	0x3d05d349	0.0326722
46	0x3dc12512	0.09430899
47	0xbd925c29	-0.071464844
48	0xbdc84e53	-0.09780564
49	0xbd0f56c5	-0.03499486
50	0xbdd0d86f	-0.101975314
51	0xbc737454	-0.014859278
52	0x3db5aa3e	0.08870362
53	0xbd964883	-0.07338049
54	0xbc3ba7b6	-0.01145356
55	0x3d054c8d	0.032543708
56	0xbceab62c	-0.02865132
57	0x3d14f24c	0.036363885
58	0x3cd50355	0.026002565
59	0x3c85c6fd	0.016330237
60	0xbd961021	-0.07327295
61	0x3b914486	0.0044332175
62	0xbd03fea7	-0.032225277
63	0xbd6871c6	-0.056749128
64	0xbd6257e7	-0.05525961
65	0xbbb23288	-0.0054381527
66	0xbbebe28d	-0.007198638
67	0xbd6a23d9	-0.057163093
68	0xbcb023e2	-0.021501485
69	0x3c623d2f	0.013808533
70	0xbc213310	-0.009838834
71	0x3d8f9369	0.07010538
72	0x3d4bad65	0.04972591
73	0x3d80c397	0.06287306
74	0x3d04206d	0.032257486
75	0xbdb05403	-0.08609774
76	0xbdb0ec27	-0.086387925
77	0xbdb711ae	-0.08938919
78	0xbda745fa	-0.08167644
79	0x3dcb3715	0.099226154
80	0xbd1e68d1	-0.03867418
81	0xbdbe7050	-0.09298766
82	0xbd82d8cf	-0.06389009
83	0x3db2ba44	0.087269336
84	0x3c13419f	0.008987813
85	0x3c3b9ce0	0.011450976
86	0x3de7fee6	0.11327915
87	0x3d460bff	0.048351284
88	0xbb6aed4d	-0.0035847009
89	0xbd338e78	-0.04383704
90	0xbd9da5e1	-0.076976545
91	0x3d4efb42	0.050532587
92	0xbc67bc77	-0.014144055
93	0xbc2620bb	-0.0101396395
94	0x3ca5d5e8	0.0202436
95	0xbd8d1fe4	-0.06890848
96	0x3d9d35c3	0.0767627
97	0x3d542fcc	0.051803395
98	0xbcc63f01	-0.024199964
99	0xbde1e408	-0.11029822
100	0xbd3ca05d	-0.04605137
101	0xbd0dfcb8	-0.03466484
102	0xbdb6d63d	-0.089275815
103	0xbb585ff3	-0.0033016175
104	0x3c845d04	0.016157635
105	0xbd8b3273	-0.06796732
106	0xbc3a94b2	-0.011387991
107	0x3d756d1f	0.05991852
108	0xbdb9b8d9	-0.0906846
109	0xbd997075	-0.074921526
110	0x3d90739d	0.070533015
111	0xbd93e489	-0.07221324
112	0xbd69012d	-0.056885887
113	0xbdb72588	-0.089427054
114	0x3cabdbbc	0.020978801
115	0x3c4c6461	0.012475104
116	0xbd8a1c24	-0.06743649
117	0x3dba5891	0.09098924
118	0xbd17365c	-0.036917076
119	0xbd6dcf08	-0.05805877
120	0xbdbf2806	-0.09333806
121	0x3d7b8280	0.06140375
122	0x3c7b906b	0.015354256
123	0x3bbd5a28	0.0057785697
124	0x3c47f055	0.012203296
125	0x3c44f128	0.012020387
126	0xbd36f9c9	-0.044671807
127	0x3d6fd18c	0.05854945

layers.output.weight f4 [2, 128]
0	0x3e5e92ed	0.21735735
1	0xbdb2064c	-0.08692607
2	0xbe8f4b55	-0.2798716
3	0xbea1b4c8	-0.31583238
4	0xbca51796	-0.020152848
5	0xbcbefd5e	-0.023314174
6	0xbe07dd96	-0.13268122
7	0xbd8f4af9	-0.06996722
8	0xbd0cd65e	-0.034384124
9	0xbf163286	-0.5867084
10	0x3ef92d54	0.48667395
11	0xbe920cd4	-0.28525412
12	0x3e69a019	0.22814979
13	0xbf189a89	-0.596108
14	0x3e82d3c3	0.25552186
15	0x3f52191c	0.82069564
16	0x3eb89a23	0.36055097
17	0x3f486573	0.782798
18	0xbe1b7340	-0.15180683
19	0xbe68020e	-0.22657034
20	0xbf0f7317	-0.5603499
21	0xbf42bbec	-0.76067996
22	0x3df25e99	0.11834449
23	0xbf3b03e5	-0.7305282
24	0xbe099f36	-0.1343964
25	0x3cb5a09d	0.022171313
26	0x3e045d92	0.12926319
27	0x3f283168	0.6570039
28	0x3e145fc4	0.14489657
29	0xbe80144e	-0.2501549
30	0x3f0d1595	0.55111057
31	0xbf23f3b1	-0.6404372
32	0x3f02746b	0.5095889
33	0x3e0e4ffa	0.13897696
34	0x3da214cf	0.07914125
35	0xbf46468d	-0.774514
36	0x3eaab663	0.33342275
37	0xbe4b527b	-0.19855683
38	0x3eebaaf0	0.46028852
39	0xbe185a46	-0.14878187
40	0xbeca60af	-0.3952689
41	0x3e9919f3	0.2990261
42	0x3da18811	0.07887281
43	0x3dea9777	0.11454671
44	0x3d0f89d0	0.035043538
45	0xbe2fb193	-0.17157583
46	0xbe05707b	-0.13031189
47	0xbe3e1d7e	-0.18565938
48	0xbd8b17cd	-0.06791649
49	0x3d3ee9ae	0.046609573
50	0xbeb8242f	-0.35965106
51	0xbc43c67f	-0.011949181
52	0xbdb82bfa	-0.08992763
53	0xbd074887	-0.03302815
54	0xbd67886f	-0.056526598
55	0x3e8dc770	0.2769122
56	0xbdeb47c8	-0.114883006
57	0x3d4278d2	0.047478504
58	0x3e16b76a	0.14718404
59	0xbddcd6e9	-0.10783178
60	0x3f23bfce	0.63964546
61	0x3e059819	0.13046302
62	0x3e498dab	0.19682948
63	0xbd175be9	-0.036952887
64	0x3e7bc1c2	0.24585631
65	0x3f28862e	0.6582974
66	0xbd43cd66	-0.047803305
67	0x3f661bd2	0.898862
68	0x3de405a3	0.111338876
69	0xbefef7d8	-0.49798465
70	0x3e06f1f5	0.13178237
71	0xbe232847	-0.15933333
72	0xbe22c4c7	-0.15895377
73	0xbf254a65	-0.6456664
74	0x3eb010f3	0.3438793
75	0x3c8d9b29	0.0172859
76	0x3f3c0fa8	0.7346139
77	0xbdcda3fe	-0.10041045
78	0x3c99b76c	0.01876422
79	0xbe8adead	-0.27123013
80	0x3f455fbc	0.77099204
81	0x3d21abd5	0.039470512
82	0x3dbcfae9	0.09227545
83	0xbddf99cc	-0.10918006
84	0xbd26b695	-0.040701468
85	0xbe93e3be	-0.2888469
86	0xbbfb2ecf	-0.007665492
87	0xbf32c66d	-0.69834024
88	0xbe3ccc66	-0.18437347
89	0x3e58facf	0.21189426
90	0x3e9c9eb3	0.30589828
91	0x3ca4a62d	0.02009877
92	0xbcbf5383	-0.023355251
93	0x3f1b6d19	0.60713345
94	0xbe80065b	-0.2500485
95	0xbe802264	-0.25026238
96	0xbe0bd736	-0.13656315
97	0xbdaa58d7	-0.08317726
98	0xbe1c7ec5	-0.15282734
99	0xbd1dafa5	-0.038497586
100	0xbf562b07	-0.83659405
101	0xbea96904	-0.33087933
102	0x3f1f4214	0.622102
103	0x3e7bc1bf	0.24585627
104	0xbbbda94c	-0.005788004
105	0x3de3ef04	0.11129573
106	0x3f463c0b	0.7743537
107	0xbe389ab3	-0.18027763
108	0xbe0fe36e	-0.14051601
109	0xbed88763	-0.42290792
110	0xbe938467	-0.28811952
111	0x3d957605	0.07297901
112	0x3f32c91a	0.69838107
113	0xbd6c73ea	-0.05772773
114	0xbe5926c2	-0.21206191
115	0x3d27bc83	0.040951263
116	0xbdf9fd10	-0.12206471
117	0x3edcd5be	0.43131822
118	0xbf163f2a	-0.5869013
119	0xbf288ba0	-0.6583805
120	0xbe0745c6	-0.1321021
121	0xbec78d1d	-0.38974848
122	0xbd2f0b4d	-0.042735387
123	0xbe434d9a	-0.19072571
124	0x3efd2e0c	0.49449193
125	0xbe151bb3	-0.14561348
126	0xbd792cf5	-0.06083389
127	0x3e29dea4	0.16588837
128	0xbf00223a	-0.50052226
129	0xbe940e27	-0.28917047
130	0x3ee62e7f	0.4495735
131	0x3e86598b	0.2624019
132	0xbe31c8f2	-0.17361811
133	0x3eaddfaf	0.3395972
134	0xbc4c3b64	-0.012465332
135	0x3db10f68	0.08645517
136	0xbd99b45c	-0.07505104
137	0x3ea227ef	0.31671092
138	0xbf4deeaa	-0.804423
139	0x3ce2bc37	0.027677638
140	0x3e2ce5cb	0.16884534
141	0x3f08febf	0.5351371
142	0x3d1ffe7e	0.039061062
143	0x3e64af9f	0.22332619
144	0xbf08be70	-0.53415585
145	0xbc3c009f	-0.011474757
146	0xbe0e5cd4	-0.13902599
147	0xbd25dcb1	-0.04049367
148	0x3f0c4f14	0.54808164
149	0xbe04d80f	-0.12973045
150	0xbec1f118	-0.37879252
151	0x3ed6ebda	0.41976815
152	0xbe85fd54	-0.26169837
153	0x3e872538	0.26395583
154	0xbdc26dcb	-0.094935976
155	0xbe0f074c	-0.13967627
156	0xbd1e12a7	-0.038592007
157	0xbe9afd2c	-0.3027128
158	0x3e8fb229	0.28065613
159	0xbe2653c4	-0.16242892
160	0xbf297891	-0.66199595
161	0xbe30e87b	-0.17276184
162	0x3e77b17d	0.241888
163	0xbd36537c	-0.04451321
164	0xbe49f463	-0.19722132
165	0x3eadceb9	0.3394678
166	0x3edf031d	0.43557063
167	0xbe283986	-0.16428193
168	0x3ed4edd1	0.4158769
169	0xbeadb800	-0.33929443
170	0x3e48ef03	0.19622426
171	0xbd28364e	-0.041067414
172	0x3e2e8c0d	0.17045613
173	0xbdec84c3	-0.1154876
174	0x3d8e92bd	0.06961582
175	0xbd83d912	-0.06437887
176	0xbe72bc66	-0.23704681
177	0x3dd1c05d	0.102417685
178	0xbe955256	-0.2916438
179	0x3e89c2b2	0.26906353
180	0xbe7f33c0	-0.24922085
181	0x3def3c79	0.11681456
182	0xbea7c087	-0.32764074
183	0x3ee5caac	0.4488119
184	0xbeb45f4a	-0.3522895
185	0x3eae5e53	0.3405634
186	0x3d8d94b7	0.06913131
187	0xbea8c00d	-0.32959023
188	0xbece3bcd	-0.4028
189	0xbd175fad	-0.036956478
190	0xbd7ed492	-0.06221444
191	0x3dea083d	0.114273526
192	0x3da1dc16	0.07903306
193	0xbec63570	-0.38712645
194	0x3dec2b6d	0.1153172
195	0xbde7fb4b	-0.11327227
196	0xbdb2d148	-0.087313235
197	0x3ece976a	0.40349895
198	0x3de0d296	0.10977666
199	0xbe6333c6	-0.22187719
200	0xbe2bd189	-0.1677915
201	0x3e919a00	0.28437805
202	0x3d33d430	0.04390353
203	0x3e7ac9e8	0.24491084
204	0xbf4118bb	-0.7542836
205	0x3e02e391	0.12782122
206	0x3dea7648	0.114483416
207	0x3e8584ca	0.26077873
208	0xbd139c5a	-0.03603778
209	0xbdd0a545	-0.10187773
210	0xbdfd478c	-0.12367162
211	0x3ea4fd26	0.32224387
212	0xbe3ce33a	-0.18446055
213	0x3ed70c4e	0.42001575
214	0x3e396b06	0.18107232
215	0x3ecc6727	0.3992245
216	0xbd6a7125	-0.05723681
217	0xbf3f5d23	-0.7475149
218	0x3ec37e50	0.38182306
219	0x3d34d47e	0.04414796
220	0x3e615a35	0.22007068
221	0xbeb2989e	-0.34882063
222	0x3e331d69	0.17491688
223	0x3d0d562f	0.03450602
224	0xbe66cc4a	-0.22538868
225	0xbea19506	-0.31559008
226	0x3eb04732	0.34429318
227	0xbe63a4da	-0.22230855
228	0x3e40c5bb	0.18825428
229	0xbf1615bd	-0.5862692
230	0xbf184229	-0.5947595
231	0x3d9db6ca	0.0770088
232	0xbdc4c8ac	-0.096085876
233	0xbdc7617f	-0.09735393
234	0xbef619a6	-0.48066443
235	0x3e2b5b0a	0.16733947
236	0xbe3731bf	-0.1789007
237	0x3eac2828	0.33624387
238	0x3d2da722	0.04239572
239	0x3dc26023	0.09490993
240	0x3eff03ac	0.4980749
241	0x3e542976	0.20718941
242	0xbea2e75a	-0.31817132
243	0x3e6eb666	0.23311767
244	0xbe42ff9c	-0.1904282
245	0xbdb89d26	-0.09014349
246	0x3f1fc600	0.624115
247	0x3eb3e974	0.35139048
248	0xbe114517	-0.14186512
249	0x3eaa0549	0.33207157
250	0xbe23aff9	-0.15985097
251	0xbdef3d18	-0.116815746
252	0xbef8ad29	-0.4856961
253	0x3d08401c	0.033264264
254	0x3ea37622	0.31926066
255	0x3e08dffd	0.13366695

layers.output.bias f4 [2]
0	0x3dcaef3c	0.099089116
1	0x3cc5e426	0.024156641
