results/SMOTE20K/smote25/smote0.15/model.pth (torch, 205093 bytes, 10 tensors)

layers.block_0.layer.0.weight f4 [128, 2]
00000000: e2c8 133f 8347 193f cbcd 42bf ae10 023f
00000010: fe02 593f 3edd e5be da79 443e 464e 37bf
00000020: 0424 5bbf 87db d4be 7490 953f 07e7 c93e
00000030: 235f d8be 67a9 203f a7eb cb3e 4d37 0d3f
00000040: 5a90 923f 4716 2fbe e06d 08bf 53e1 31bf
00000050: f8c7 93bf 772d 1bbf a60b 8cbe b221 1ebf
00000060: b864 41be 917d 03bf 40b1 5a3e f47c fc3e
00000070: 1051 bc3e 6017 20bf 1429 fcbe 76e6 4f3e
00000080: 0c91 4f3f 2161 b73e 012c 7cbf 6909 223c
00000090: 21bf f83e 026f 293f 5fab 403f 2cb1 fa3d
000000a0: 8e0b 2c3f 34b1 10bd d2d8 3fbf d88d 0cbe
000000b0: 2d77 223f fc61 3dbf 7080 293f e98d 0a3f
000000c0: d75f febe f9eb 023f 9972 693f 2c08 82be
000000d0: 5e7f 43bf 8b9b de3e ff08 38bf 2953 c4be
000000e0: f518 82bf a9f2 b2be 0998 47be 3637 11bf
000000f0: d171 1a3f 1b27 0ebe d52f 333f b69a 52bb
00000100: 13a7 7fbf ce32 453e d321 9dbf 7778 023e
00000110: 4019 8cbf 75ab 03bf d276 2f3e b83c e0be
00000120: 9a17 89bf 64ba 0a3f f505 483e 9654 233f
00000130: b613 e1bd 8c58 34bf 0b8f 123f 2fb2 873e
00000140: 397c 0a3f e179 0b3f 4ed2 4bbe 4064 a7be
00000150: 1b6e 413f e2bf 843d 3817 61bf a9fc 673e
00000160: abba 9a3f 1f6d 9b3e 15c1 343f b835 09bf
00000170: f591 87bf 9bdc a13e ff0b 3dbf c488 e53e
00000180: 2fcf 3ebf 6324 443e 48de b13e 969f 293f
00000190: 533d d4be af4f 323f aadd 74bf 6f54 2abf
000001a0: 8d8d 483f 0e0d 7bbe 8c35 13bd 5e5c 443f
000001b0: 3224 253f 3b0e b4be d93f 50be 4798 c5be
000001c0: 493c 64be 6055 3d3f d446 ea3c a7d7 103f
000001d0: df73 6fbf 8cb1 59be 7e0e e9be 2e4f 503e
000001e0: 5612 35bf e29c 70be 9ca4 afbd c8cc 0e3f
000001f0: 9369 703f 4d09 f7bc 5488 8a3f 4149 d83e
00000200: 7b3f 56bf 7f57 1d3f 5beb 8e3f 0217 0abf
00000210: a9a6 81bf 98b5 a9be 2e0e 8b3f 05b7 ef3e
00000220: 6b32 86bd c1e8 023f 886b 123f 85a9 393f
00000230: 11ff e1be 838a 75bf cd26 7ebf 2f82 b23d
00000240: d158 4b3f bb4c 91be 4565 4d3f 8e7b 9bbd
00000250: 41b0 773f 2946 51bd 3b92 383e 0f0c 8c3e
00000260: de5e 843f e634 da3e 5dd9 cabe 9228 2f3f
00000270: 48ba 8e3f 2f88 ad3e e8d7 623d 1b96 47bf
00000280: 80da 3f3f b07f 343f b8c2 3abe 1920 b43d
00000290: 0713 213f 54ab 073f e792 19bf 5d66 6cbe
000002a0: 9ea2 793f 203e 0a3f e489 1fbe 5acb 833e
000002b0: 310f 10bf 989b 9e3e 1ea0 05be af62 f43e
000002c0: 3c5d 4b3f fe7f bdbe 9463 05bf 3cd6 9e3e
000002d0: 8270 9ebf cbb2 18bf 3029 303f 1e87 4c3f
000002e0: e472 f3be c8a2 3fbf 5f4c 96be 20c8 183f
000002f0: a78b 883d 259a f53e 16af a7bf 52f3 bcbe
00000300: 275c ebbe 0002 443f 5a29 043f f55b 92be
00000310: ef91 30bf daf4 193f 61e0 6dbf c280 793e
00000320: 9bd3 ecbe ebd7 2cbf 492b 6fbf 554a 6b3e
00000330: bb17 6e3f 982c 09bf d563 7a3f ad7c 32be
00000340: 1139 8dbf ea41 343e 4aeb 163f d7e0 4e3e
00000350: d383 5f3f b321 6a3e 8980 2ebd 7d96 423f
00000360: 5cab 643f 9a76 033f 0c69 11bf 12c3 dd3e
00000370: 265f c1be 10d0 013f f384 3abf b56f ce3e
00000380: cab6 9ebf 9aba b53e 45a9 8ebf e055 7b3e
00000390: bf3c 943f 50f8 c8be e7d1 cf3e 41eb a7be
000003a0: a30c 7bbf 9573 f3be e49f f03e 3625 eb3e
000003b0: a3d2 323f 228f bfbe ea0e 9abe 00d0 dabe
000003c0: eb21 a4be a732 383f 4466 95bf d2c7 bfbe
000003d0: bb8e 7bbf 118d de3e a205 2e3f dfde b9bd
000003e0: d8ad efbe 32bb c6be 3642 e83e 1228 023f
000003f0: 0065 4e3f 5500 d0bd d797 5c3f 068a a1be
0.577284 0.59874743 -0.76095265 0.508067 0.8477019 -0.44895357 0.19187108 -0.7160381
-0.8560183 -0.41573736 1.1684709 0.39434072 -0.42260084 0.6275849 0.39828226 0.5516251
1.1450303 -0.17098342 -0.53292656 -0.6948444 -1.1545401 -0.6061625 -0.27352637 -0.61770165
-0.18886077 -0.51363474 0.21356678 0.49314082 0.36780596 -0.6253567 -0.4925009 0.20302758
0.810807 0.3581629 -0.98504645 0.009889939 0.4858332 0.6618501 0.7526149 0.12240824
0.6720513 -0.035325244 -0.74940217 -0.13725984 0.634631 -0.7397764 0.66211605 0.5412279
-0.49682495 0.51141316 0.9119049 -0.2539686 -0.7636622 0.43478045 -0.71888727 -0.38344696
-1.0163866 -0.3495076 -0.1949159 -0.5672487 0.6032992 -0.13882105 0.6999486 -0.0032135672
-0.9986431 0.19257662 -1.2275947 0.12741266 -1.0945206 -0.514335 0.1713517 -0.43796325
-1.0710328 0.5419066 0.19533522 0.6380094 -0.10990088 -0.7044761 0.57249516 0.2650313
0.540958 0.5448285 -0.19904444 -0.32693672 0.7555863 0.06481911 -0.87926054 0.22654976
1.2088217 0.3035669 0.7060712 -0.53597593 -1.0591418 0.3161362 -0.7384643 0.44830906
-0.7453489 0.19154505 0.347399 0.66259134 -0.41453037 0.6965284 -0.9565073 -0.66535085
0.7834099 -0.24516699 -0.03593974 0.7670344 0.64508355 -0.35167107 -0.20336856 -0.3859274
-0.22288622 0.73958397 0.028598227 0.5657906 -0.9353618 -0.21259135 -0.4551887 0.20342705
-0.70731103 -0.23497346 -0.085763186 0.5578122 0.93911093 -0.030155802 1.0822854 0.42243388
-0.83690614 0.61461633 1.1165575 -0.5394136 -1.0128986 -0.33146358 1.0863702 0.4681932
-0.06552585 0.51136404 0.5719533 0.7252429 -0.44139913 -0.9591448 -0.99277955 0.08716237
0.794324 -0.28378853 0.8023265 -0.075919256 0.9675332 -0.0510923 0.18024532 0.2735295
1.0341451 0.42618483 -0.3961896 0.6842128 1.1150599 0.33892962 0.055381685 -0.7796342
0.7494278 0.70507336 -0.18238342 0.08795185 0.6291966 0.529958 -0.5998978 -0.23085923
0.9751376 0.54001045 -0.15579945 0.25741082 -0.5627318 0.30978084 -0.13049361 0.4773154
0.7943914 -0.37011713 -0.5210507 0.31022823 -1.2378085 -0.59647816 0.6881285 0.7989367
-0.47548592 -0.7485776 -0.29355142 0.59680367 0.066672616 0.47969165 -1.3100307 -0.3690439
-0.45968744 0.7656555 0.516256 -0.28585783 -0.68972677 0.6013924 -0.929205 0.24365523
-0.46255192 -0.67516965 -0.9342542 0.22977574 0.9300496 -0.5358367 0.9780858 -0.17430373
-1.103304 0.17603269 0.5895277 0.20202957 0.8731052 0.22864418 -0.04260305 0.76010877
0.89323974 0.51352847 -0.56800914 0.4331289 -0.37767905 0.50708103 -0.72859114 0.403196
-1.2399533 0.35493928 -1.1145407 0.24544477 1.1581038 -0.39251947 0.4058983 -0.32796672
-0.9806616 -0.4754912 0.46996987 0.45926827 0.69852656 -0.3741389 -0.30089504 -0.42736816
-0.32057127 0.7195229 -1.1671834 -0.37457138 -0.98264664 0.43467 0.67977345 -0.090757124
-0.4681232 -0.38814694 0.45363015 0.5084239 0.80622864 -0.10156313 0.8616919 -0.31550616

layers.block_0.layer.0.bias f4 [128]
00000000: 4c28 e5be b1e7 1bbf 39ca 163f f176 043f
00000010: fa4a 253e 2e8d bebe fb8c f2be bb0c 1fbf
00000020: 7618 1c3e 5f3c c8be c530 f03e 14eb 0cbf
00000030: d4ba 32bf f909 363f 9c45 373f 17f6 4b3e
00000040: 3df9 16bf 016c 40be e48b 473e bb33 92be
00000050: 76ae b3be 4c13 0e3f 6f8a 453f 8620 25bf
00000060: 25e3 b93e 55b2 01be 8343 b13e 196e 0a3e
00000070: a7a4 193f a683 6bbe 6503 2e3f 9049 5d3e
00000080: e698 b83d 122a debd 55e3 bc3e 4c4c babe
00000090: 0610 c7be f91c 26bf 2b8d 463f 203c 03bf
000000a0: 199b 0abd 93e2 b63e 7eed 903e b0e8 95bc
000000b0: 82d9 82be 149e 59be 81f5 a5be be19 d7be
000000c0: 8280 333d c505 eebe 95a2 06bf 231a 203f
000000d0: 7e29 123e 5935 1c3f 2986 123f 79b5 30bf
000000e0: 3f7d 2bbc e528 2e3f 544e d93d 9336 943c
000000f0: 5035 a3be af65 163f b6de 413e 0a63 e3be
00000100: 9743 26bf bf51 223f 8de9 003f a0d2 bebe
00000110: 3d0b edbe 577f c5be 515d 3cbf 5cc8 5ebe
00000120: e509 f1bd 8754 f2be f0fa 253d ed63 d6be
00000130: 3f46 dcbe b009 f93e 7859 b0be e89d a2bd
00000140: 24e2 3cbf ce78 06bf 2a01 153e a044 ffbd
00000150: bffd e6be 0979 02bf 4daa 873d 77c6 2c3f
00000160: 12d7 233f 7d80 b03e fda0 083f bd87 43bf
00000170: 80df 213f 29cd 06bf f78e 84bc 1d71 b43e
00000180: e61f 44bf e7cf aabd ad53 9f3e 23f0 98be
00000190: 84f1 923e 3a5f 28be a81b fb3e 99b0 7d3e
000001a0: acae e1bd e0ba 0c3f 531e 8c3e fb0e 1cbf
000001b0: a1cc 063e 17f3 273f 75c2 21be bdca 83be
000001c0: c9dd 9bbe 4b59 8bbe 268c be3e aa88 b6be
000001d0: 8f88 163f 9886 eabe 00d0 153f 74e4 1abf
000001e0: c4d5 20bf eb3e de3e be18 cabe 939f e33d
000001f0: 6eac 8d3e 541a 893e 7fd5 093c 5c94 173f
-0.44757307 -0.6090041 0.5890232 0.5174399 0.16141883 -0.37217087 -0.47373185 -0.621288
0.15243706 -0.3910856 0.46912208 -0.550462 -0.6981633 0.7110897 0.7159059 0.19918095
-0.5897406 -0.187912 0.19486958 -0.28555092 -0.3509404 0.55498195 0.7716436 -0.6450275
0.3630611 -0.12665685 0.3462182 0.13518561 0.60016865 -0.22999439 0.6797393 0.21610093
0.09013538 -0.10847868 0.3689219 -0.36386335 -0.38879412 -0.6488796 0.77559155 -0.5126362
-0.03383932 0.35719737 0.28306192 -0.01829943 -0.2555657 -0.21251708 -0.32413867 -0.42011827
0.043823726 -0.46488777 -0.5259183 0.6253988 0.1427364 0.610189 0.5723596 -0.69026905
-0.010466873 0.6803115 0.10610643 0.01809243 -0.31876612 0.58748907 0.18932614 -0.44411498
-0.64946884 0.63405985 0.5035637 -0.3727007 -0.46297637 -0.38573715 -0.7357989 -0.21756119
-0.11769465 -0.47330114 0.040522516 -0.41873112 -0.43022344 0.48640203 -0.3444326 -0.079402745
-0.73782563 -0.52528083 0.14551225 -0.12464261 -0.45115468 -0.50965935 0.06624279 0.67490333
0.64000046 0.3447303 0.5337065 -0.76378995 0.6323166 -0.526568 -0.016181452 0.3524255
-0.76611173 -0.083404355 0.31118527 -0.2987071 0.28699887 -0.16442576 0.49044538 0.24774398
-0.11019644 0.5497265 0.27366886 -0.6096036 0.13163997 0.656053 -0.15796836 -0.25740615
-0.30442646 -0.27216563 0.372163 -0.3565114 0.5880212 -0.45805812 0.5852051 -0.6050484
-0.6282618 0.43407378 -0.39472002 0.11114421 0.27670616 0.267779 0.008412718 0.59210753

layers.block_1.layer.0.weight f4 [128, 128]
00000000: f8be 883d b6b6 01bd 8494 4fbd 3610 dabc
00000010: 8cfd 41bd f06c 9c3d d1fb 273d 4f28 823d
00000020: c7e8 24bd 7a30 2abe 58ca f5bd 2c41 0cbe
00000030: a6d5 debd 7892 5a3d e26b cdbc 0b7a 1e3d
00000040: 6077 123d 3231 4e3c 7a6b 4a3e 19af a4bd
00000050: 79d5 98bd e155 613c a07a 4d3d 57bb b6bc
00000060: 0cf3 d23d dc83 25be f029 a73d e797 41be
00000070: efe0 6abc 2eed 21be 37ca a43c 5b8c fd3b
00000080: e2af ee3c 8803 943a 55af 0cbe 5f91 e9bd
00000090: fb97 183d 794c 6e3d 0759 3c3d 0329 9dbd
000000a0: a474 3c3e 8905 e13c 232d 123e 9b37 403d
000000b0: bd62 523d 831d 38be 59fc c83c ed4b ca3d
000000c0: bf48 3c3e 70cd d83c 3bef 1a3e 31fa 1a3b
000000d0: 6dd5 45bd 89c7 e73d aa27 78bd d58d b0bd
000000e0: bdc0 583e a100 013c 2a93 f3bd e1a3 133d
000000f0: 3a36 50bd 112f 063e 5445 183d 21d1 e03d
00000100: 4de3 2d3d ebe5 c1bc 5c1d 37bb 383a 2e3d
00000110: 5e14 cb3d 3046 203e bc45 14be beb0 3ebd
00000120: c374 06be e059 a8bd 0432 afbd cb1b 5dbd
00000130: bfe6 c93c df61 113e 0da8 d63c 8f6d aebd
00000140: 19e1 483d 77d0 c0bc 8f22 aa3c 572f 3abe
00000150: 05d6 5a3d db87 253d 3c3d 333d 2aa4 a83d
00000160: 5306 9e3d b5ed 2c3d 1585 dd3c 9ef1 c03d
00000170: 1c72 6f3b 88ae fd3d 2ce5 043e 9c8b 9dbd
00000180: 451c eb3c cfe8 bcbd 7eeb f13d 4161 f33c
00000190: 2c26 13bd bb52 1b3e 8c66 fabc 0dcd 96bd
000001a0: 91a4 ee3d 0f2b 003e 06b4 843c 8c14 433b
000001b0: 46f8 333e ede2 023e c0d1 d63d 3794 0a3e
000001c0: 1037 da3d 96a5 933b 0d2f 08be 710d 80ba
000001d0: bfb7 b53b 3a10 74bd c6cc 233d 81ea 86bd
000001e0: ba1c 1a3d 698b 78bd bd91 983d 138d 52bb
000001f0: d735 82bc 0052 033e 3102 d3bd e2e9 9a3d
00000200: bcce 6bbd 282e 6e3d 8bbf 0abd 8d02 54bc
00000210: 05c6 283e 3537 08be c4bd a43c 2bf3 e0bd
00000220: 59cd 79be 1220 9bbc 4c49 483b 145a 513d
00000230: 6e90 cc3c 65b1 25bd 5929 55bc 7303 d03b
00000240: 8a21 8dbd fa11 db3d be92 fd3c bc40 3c3c
00000250: 6ec1 f6bc 8d27 cfbc 8d1a adbd 0a60 52bd
00000260: fa8e 8e3b ec87 10be 1380 72bc d03b 653e
00000270: 8813 413d adf1 ce3c 3da5 acba 6114 f9bd
00000280: 8496 783d 67b5 6e3e 7d72 0d3e 8de7 973d
00000290: 974c 1d3e ef93 4e3c ed8d 883d f5aa d0bd
000002a0: 56ac bbbd cc5e 493d 8176 09be 0cf0 a13d
000002b0: ba50 85bd b340 dfbd d322 ab3d 0cd7 933c
000002c0: bac5 6b3d aa50 a2bd ff4d eaba b30c 103e
000002d0: 083f ddbd a051 adbd c482 bbbd eba9 8f3d
000002e0: 21ef 823d ac64 9f3d 9fed be3d e366 0d3e
000002f0: ebf4 e13d 78b8 aabd 89ff d83b e46a db3b
00000300: f3db dd3d 1c8f 95bd 0aa8 333d e5a5 27be
00000310: 9756 8b3d 4edd 09bd d178 ff3c 16c8 ee3d
00000320: 973c e7bc 6ece 39bd fd68 42be 2944 8fbc
00000330: bdb5 96bc c629 563d 5ee9 cebd baab b4bd
00000340: 90dc 3bbd 0f0e 673d d11e d1bc 3886 c63d
00000350: d416 dabd a733 963c 830f cc3d 0f36 10ba
00000360: d5d8 c4bd 9e46 093d 6070 8e3c 590c c3bd
00000370: c222 1b3d 6e78 91bc 347c 69bc 5088 9a3d
00000380: 17c8 8a3d e518 0cbc 6099 953d a969 5f3a
00000390: 58e2 4b3d a6ff ad3d 4913 0dbd cd40 c0bc
000003a0: 1c66 2c3e 33d3 e83b 563f 60bd 569e 773d
000003b0: bf34 edbd ce70 c13d a94d 3b3d ccdd fd3d
000003c0: 534b 023e bc38 093e 074b 80bc 7c99 b1bd
000003d0: 19ea 0c3e 363e 973c f871 bbbc 75cf 623d
000003e0: eba7 963d d523 303b 35b0 3d3b e501 1abc
000003f0: dcca 243d 84fb 6ebd b9ac 2fbe 01f6 a1bd
0.066770494 -0.031668387 -0.050678745 -0.026619058 -0.04736094 0.07637966 0.041011635 0.063553445
-0.040261056 -0.16620055 -0.12001485 -0.13696736 -0.10880594 0.05336234 -0.025075857 0.038690608
0.035758376 0.012584971 0.19767562 -0.0804121 -0.07462592 0.013753385 0.050165772 -0.022306127
0.10300264 -0.16163582 0.08162296 -0.18905602 -0.014335855 -0.15813133 0.020115955 0.007737679
0.029136602 0.0011292556 -0.13738759 -0.114046805 0.037254315 0.0581784 0.04598334 -0.07673838
0.1840387 0.02746846 0.14275031 0.04692803 0.051363695 -0.17980008 0.024534391 0.09877763
0.18387125 0.026465148 0.15130322 0.002364766 -0.04829924 0.11317355 -0.0605847 -0.08620802
0.21167274 0.007873685 -0.11893304 0.03604496 -0.050832964 0.13103892 0.03717549 0.10977388
0.0424531 -0.023669204 -0.0027941084 0.04253599 0.09915994 0.15651774 -0.14479727 -0.046555273
-0.13130479 -0.08220267 -0.085544616 -0.053981584 0.024646161 0.14197491 0.02620318 -0.085169904
0.049042795 -0.023536904 0.020768432 -0.18182121 0.05342676 0.040412765 0.04375957 0.08234437
0.0771605 0.042218883 0.027040998 0.09421085 0.003653652 0.12386805 0.12978047 -0.07692644
0.028700003 -0.09224092 0.11812495 0.02970946 -0.035925075 0.15168278 -0.030566476 -0.07363329
0.11652482 0.12516426 0.016199123 0.0029766886 0.17575178 0.12781878 0.104892254 0.13533102
0.106550336 0.0045058234 -0.13299198 -0.0009769631 0.005545586 -0.059585787 0.03999021 -0.06587697
0.037625052 -0.060679827 0.07449672 -0.0032127544 -0.015894813 0.1282425 -0.10303152 0.07564141
-0.057570204 0.058149487 -0.033874076 -0.012940061 0.16481788 -0.1330231 0.020110019 -0.109838806
-0.2439474 -0.01893619 0.0030561266 0.051111296 0.024971213 -0.04045238 -0.013010346 0.0063480674
-0.06891163 0.10696788 0.030953761 0.011490043 -0.030121531 -0.025287414 -0.0845233 -0.05136112
0.00435054 -0.1411435 -0.014801043 0.22386098 0.047137767 0.025261724 -0.0013171803 -0.1216209
0.060690418 0.23311387 0.13813205 0.07417212 0.15361248 0.012608512 0.06667695 -0.101888575
-0.0916373 0.04916267 -0.13424112 0.079071134 -0.06509538 -0.10901012 0.083562516 0.018046878
0.057561614 -0.07925542 -0.0017876028 0.14067344 -0.10803038 -0.08462834 -0.09155801 0.07014831
0.063932665 0.077828735 0.093226664 0.1380878 0.110330425 -0.08335966 0.006622259 0.006696092
0.108329676 -0.073026866 0.043861426 -0.16371877 0.06803625 -0.03365832 0.03118554 0.11659257
-0.028227134 -0.045362882 -0.18985362 -0.017488556 -0.018397206 0.052285932 -0.10103105 -0.08821817
-0.04586464 0.05640989 -0.02552739 0.09693569 -0.10648885 0.018335177 0.09963896 -0.00055012194
-0.0961167 0.03351461 0.017387569 -0.095238395 0.037874945 -0.01775762 -0.014250804 0.07545531
0.06776445 -0.008550857 0.073046446 0.00085225195 0.049776405 0.08496027 -0.03444222 -0.0234684
0.16835827 0.007105255 -0.0547479 0.060453735 -0.11582326 0.09445344 0.04572836 0.1239582
0.12724046 0.13400549 -0.015660776 -0.08671853 0.13761176 0.018462282 -0.022881493 0.055373628
0.073562466 0.0026876826 0.002894414 -0.009399866 0.040232524 -0.058345333 -0.17155732 -0.0790825

layers.block_1.layer.0.bias f4 [128]
00000000: f47c 25ba 9a02 953d 521b 233d 9fb1 d63c
00000010: 7ba9 4b3c b293 e8bb 02d8 14bd 6be3 803c
00000020: 5217 443d 7808 41bd ad6e 82bd 8ae1 643d
00000030: f689 0bbd 660f 02bc 67fe a9bd 682e 80bd
00000040: 35f3 bebd 9fb8 e0bc f205 dcbb b07f 4bbd
00000050: 2abd c2b8 2da8 acbc 6525 aebd c028 5b3d
00000060: 6bac 0b3d ca97 53bd 1c6c 3a3d d42b ebbd
00000070: e218 e5bc 930b c23b d3a0 2b3d c005 5a3d
00000080: 0e4d 8e3d 95a7 883d 0610 b9bd 63f8 463b
00000090: fa0e aa3c ce62 a73d 20f0 7ebd c1ad 7b3d
000000a0: 48ff 65bd b11e 513d d4ca d3bd 71a0 c63b
000000b0: c90a 04bd 4918 073b 9efd dabd dbb6 a63d
000000c0: 55ae f5bc b9b2 823d 7ff4 933d d98a 05bd
000000d0: a27b 863d bfc6 d0bb c1c0 82bc 8467 97bd
000000e0: 41eb b53c 2caa 60bc 3c9d 7a3d fdd1 1dbd
000000f0: 0530 c7bd f693 b6bd db03 373d cb71 7c3c
00000100: ceeb 183d d290 313d fb19 84bc 5ee3 473b
00000110: db92 3b3d e8fd 183d 0387 4b3d 4015 dcbb
00000120: 3e7f 04be 8154 51bc 5805 d9bc 9b03 06bd
00000130: f334 a33c d9f4 a43c 362c 2dbd 6e7d 2f3d
00000140: b5cc d23d 1b96 913d 8a74 b93c 858a c83b
00000150: 4f93 a43d c120 b4bc 6875 c33c b0a4 1bbd
00000160: 9fac ebbd fd55 a63d 4612 883d 441c 72bd
00000170: b45a 76bd 1321 bc3d d5c3 833d 6bd9 56bd
00000180: 5064 733d bdb4 21bd 8f86 4e3d 2cee 963c
00000190: 815e 74bb 1566 863c 9fb1 12bd 41dd 923c
000001a0: c349 c0bd 50b0 8c3d f5df d73b 289e b53d
000001b0: 7f21 d9bb 54d3 a5bc ec77 273c 0cfd 933c
000001c0: 56ce 153d 72e9 483d 2281 433d 6c26 5f3c
000001d0: 270c ac3c fde3 b9bd 51dd 883d c9b6 863c
000001e0: 185a 41bd cda7 d23b 6d08 2cbd 309a e2bc
000001f0: 3fc9 66bd ca99 81bd e8c8 c3bd 5779 87bd
-0.000631287 0.07275887 0.039820977 0.026207743 0.012430544 -0.007097685 -0.036338814 0.015733441
0.047873802 -0.047127217 -0.06368766 0.055879153 -0.034067117 -0.007938242 -0.083004765 -0.06258851
-0.09323732 -0.027431784 -0.006714576 -0.04968232 -9.2858754e-05 -0.021076286 -0.08503226 0.05350566
0.034099977 -0.05165843 0.045513257 -0.11482969 -0.027965967 0.00592179 0.04190142 0.05322814
0.06948291 0.06672589 -0.09036259 0.0030360452 0.020759095 0.081731424 -0.06224072 0.061445
-0.05615166 0.05105466 -0.10341421 0.0060616066 -0.032236848 0.002061384 -0.10692905 0.08140346
-0.029990355 0.06381745 0.07224368 -0.03260312 0.0656655 -0.0063713486 -0.015961053 -0.07392791
0.022206904 -0.013712447 0.061185107 -0.03853034 -0.09725956 -0.0891494 0.04468141 0.01540799
0.037334256 0.043351002 -0.01612567 0.0030500512 0.04579435 0.03735152 0.049689304 -0.0067164004
-0.12939164 -0.012776495 -0.026491806 -0.032718282 0.01992271 0.020136284 -0.04227849 0.04284423
0.10292951 0.071087085 0.022638578 0.0061200284 0.080359094 -0.021988275 0.023859695 -0.037998855
-0.11507534 0.0812187 0.066441104 -0.059108987 -0.060145095 0.09185996 0.06433836 -0.05245344
0.059421837 -0.039479006 0.050421294 0.018424116 -0.0037287774 0.016406098 -0.035813924 0.017927768
-0.09389069 0.068695664 0.006587977 0.088680565 -0.0066263075 -0.02024237 0.010221463 0.018064998
0.03657373 0.049050756 0.047730573 0.01362 0.021001888 -0.090766884 0.06682838 0.01644458
-0.04720506 0.006428695 -0.042000223 -0.027661413 -0.056344267 -0.06328161 -0.09559804 -0.066149406

layers.block_2.layer.0.weight f4 [128, 128]
00000000: 72de 303c e022 d5bd d868 cabd 3ede dd3d
00000010: 9071 d1bc 4129 463e 6a83 1f3e f3a1 023d
00000020: cf2d 4e3d 0351 403e dbc8 91bd 4771 d5bd
00000030: 9e63 043e a185 8fbd 658c 43bd b121 7b3d
00000040: c2de 68bd 9a57 813d cc90 bebd 8daa 75bd
00000050: 82fb 94bd ae82 2bbc 1e73 76bd 6953 933c
00000060: 6c24 45be b399 953d c821 3b3d 0256 6d3c
00000070: acd6 923d 4147 49bc 0e4c 29bb 7d6a b03c
00000080: 8a45 9b3d b2b8 f63c 68a0 253e 3daf 173e
00000090: 06af 833c 4083 bbbd e68c 763e 3a05 6fbd
000000a0: a6e5 33bc 17cc 963d 0d91 70bd 7e0b 3b3d
000000b0: 743e febc 15bc 3ebe 6512 bd3d 13d6 a7bd
000000c0: 9935 0ebd 57f5 babc 55d1 d93d 2235 73bd
000000d0: 6f65 203c 1a34 3b3c 4496 cb3c a7f3 cd3d
000000e0: 7c62 783d c4cd e03d 5c68 5f3d 9d72 9a3c
000000f0: 02f9 553e 08f8 8ebd 11d6 e03d 2c39 933d
00000100: dcb0 d03b 3157 55bd 8608 163e 666a a93d
00000110: dae1 d0bd 74a2 f0bd 9a7b e2bd 61aa 07be
00000120: 53d0 9e3d 1844 23bc 3b60 87bd be4e 9ebd
00000130: 14be 163e 8191 85bd 708c 173d bbf8 e83c
00000140: d211 e33d c33f c7bb becd 55be eae7 c8bb
00000150: 2496 403d 86b4 e8bc 9662 16be 7c00 d53d
00000160: 1330 6c3c 1fc5 a2bd 4ba8 f8bd 3efd b83d
00000170: caf5 f93d 3d3a d03d e99c 1bbd 34e9 1abc
00000180: cc34 e7bd 5188 fb3b f167 36bd 635d 403c
00000190: 6abf 543c ecee 853b 61b4 b1bb 8bb0 f9bc
000001a0: 7ba0 afbc 2833 50bd 4455 a8bc ffb8 54bd
000001b0: 8e8c 8b3d dcdc 363d 4ae8 35be a824 933d
000001c0: 5e75 fdbd 697d 14be 0cf3 88bd 9194 08bd
000001d0: 3b68 06bd 3e89 c7bd 1e0b 5dbc 558e a83d
000001e0: e814 cd3d 81e6 86bd 4255 3dbd 238a 1abc
000001f0: e019 0f3b 5185 9f3d c8cc 9fbd e740 b23d
00000200: fbae 30be 5ca3 5bbc af79 95bd 2e8a 1ebc
00000210: 3ac9 a83d 8f33 3dbe cac2 78bc e22c 21be
00000220: eb41 3fbd d9fe f43d 2a9a 1abe 3496 f0bd
00000230: eff0 3b3d a220 133c b2ca 6c3d a24b 8e3b
00000240: 2c31 b73c 1c03 843d 10e7 c5bd 4b35 863d
00000250: 7b52 76bd b828 98bd 4f5c 073c dfb6 d9bc
00000260: 64d6 2ebe 6282 edbc aa17 e53c 276f 22bd
00000270: a4db bd3d 1ac0 ecbd d982 c1bb 6891 10be
00000280: 9f99 e63d 738e c3bd 5327 8fbd 4404 273e
00000290: d260 22bd f622 733d 5581 c33d 78f4 ff3d
000002a0: 0527 83bb abda 4abd c0fd 05be 8f67 aa3c
000002b0: cf2d c43d 3f66 57bd 2baa 10bd 2409 92bc
000002c0: f890 a2bc 4d10 0bbe 5d67 01bd 1ae7 2dbe
000002d0: 0c16 edbd a2f8 cf3d 5b76 d63d 72b6 b83d
000002e0: 3564 903d 7fda 543d 006e f23c 328d 81bc
000002f0: 55f6 6b3d 6075 de3c e599 ef3d 175f cfbb
00000300: e7fd b7bd 83c8 71be d2da c33d 649e 953c
00000310: 8f55 08bd dc74 11bc 8fa2 dabc 343c 2bba
00000320: 65da 2d3d 4d22 2c3c cbcd 673d 1ac6 2bbd
00000330: 5ffe 013d 85f1 05be 3476 9b3d 7155 013e
00000340: 611d 043e ca94 a13c bae8 fcbd 126d dd3d
00000350: 7f89 ab3d 6731 443d f8e8 143e dbe0 ab3d
00000360: 0525 c9bb 7d95 0ebd 7810 56bc d279 073e
00000370: a9a4 293d 3a0c 1e3d 5870 e23c b752 c6bd
00000380: 0b22 00be ac92 aebd 9803 a73d 3dc6 323d
00000390: 03b7 9ebc 3f20 483d 24d4 9c3c 2320 fe3d
000003a0: 1b30 85bc 9058 0a3e 8a62 dabd 5cbe 43be
000003b0: 5e60 ab3d 2493 1bbd 432d afbd 25db 44be
000003c0: b4a4 1b3d 6c93 16be c3a4 063e b240 d0bd
000003d0: 287f 133c 3f28 37bd 3067 38be e085 f93d
000003e0: 089d 34be 77bb d13c c68c 3c3e 1c13 c9bd
000003f0: 7813 e13c fd59 b73d 2193 c23c 46f1 6d3d
0.010795223 -0.104070425 -0.098832786 0.10833405 -0.025566846 0.19351675 0.15577474 0.031892728
0.050336655 0.18780904 -0.07118388 -0.104219966 0.12928626 -0.070079096 -0.047741313 0.061311428
-0.056853063 0.06315537 -0.093049616 -0.059977103 -0.07274534 -0.010468168 -0.060168378 0.017984109
-0.19252175 0.073047064 0.045686513 0.014485838 0.07169852 -0.012285055 -0.0025832686 0.021535153
0.07581623 0.030117366 0.16174471 0.14812942 0.016074669 -0.09155893 0.24077186 -0.058354594
-0.010980045 0.07363146 -0.05873208 0.045665257 -0.03103564 -0.18626435 0.09232024 -0.08195128
-0.034719083 -0.022822065 0.1063563 -0.059376843 0.009789809 0.011425996 0.024851926 0.100562386
0.060640797 0.10976747 0.054542884 0.01885348 0.2089577 -0.06980902 0.1097833 0.07188639
0.0063687395 -0.052085105 0.14651689 0.08272247 -0.10199328 -0.117497355 -0.110587314 -0.13248588
0.077545784 -0.009964965 -0.066101514 -0.07729863 0.14720947 -0.06521893 0.036999166 0.028438916
0.11087383 -0.006080599 -0.20879266 -0.006131162 0.047018185 -0.028406393 -0.14686045 0.10400483
0.014415759 -0.07947754 -0.12141474 0.09032677 0.12205084 0.10167358 -0.037991438 -0.009455014
-0.11289367 0.0076761623 -0.04453272 0.011741015 0.01298509 0.0040873196 -0.005423114 -0.03047969
-0.021438828 -0.050830036 -0.02054847 -0.05193424 0.06813918 0.04464422 -0.17764392 0.07184726
-0.12375902 -0.14500965 -0.066869825 -0.03334481 -0.032814246 -0.09742974 -0.01349142 0.08230273
0.10013753 -0.06586934 -0.046223886 -0.009432348 0.002183549 0.077891 -0.07802731 0.087037854
-0.1725425 -0.013405647 -0.072986 -0.009676499 0.08241506 -0.184767 -0.01518316 -0.15739778
-0.046693724 0.11962671 -0.15097871 -0.11747399 0.04588407 0.008979948 0.057810493 0.004342512
0.022362314 0.064459056 -0.09663212 0.065531336 -0.060137253 -0.074296415 0.008261754 -0.026576458
-0.17073971 -0.028992835 0.027965385 -0.039656784 0.09270409 -0.11560078 -0.005905491 -0.14117968
0.1125977 -0.095486544 -0.069899224 0.16310221 -0.039643116 0.059359513 0.095461525 0.124978006
-0.004002454 -0.049524944 -0.13085079 0.020801334 0.0957905 -0.052587744 -0.035318535 -0.017826624
-0.019844517 -0.13580437 -0.031592716 -0.1698269 -0.11576471 0.10154845 0.10471793 0.09019174
0.07050363 0.051966187 0.029593468 -0.015814397 0.057607967 0.027155578 0.11699275 -0.0063284743
-0.08983975 -0.23611645 0.09563221 0.018264003 -0.03328472 -0.008877959 -0.026688842 -0.0006532103
0.042444605 0.010506225 0.056592744 -0.04193697 0.031736728 -0.13080414 0.07590905 0.1263025
0.12901832 0.019724268 -0.123490766 0.10811819 0.08375835 0.047898676 0.14541996 0.08392497
-0.0061384463 -0.034810532 -0.01306545 0.13230065 0.041416798 0.03858588 0.02764146 -0.09683745
-0.12512986 -0.08524069 0.08154982 0.043646086 -0.019374376 0.048858877 0.019144125 0.12408473
-0.01625829 0.13510346 -0.10663326 -0.19115585 0.0836799 -0.03798212 -0.08553555 -0.19224222
0.03799887 -0.14704674 0.13148789 -0.1016859 0.009002484 -0.044716116 -0.18008113 0.12183738
-0.17638028 0.025602086 0.18413076 -0.09818098 0.027475104 0.08952711 0.023751797 0.058091424

layers.block_2.layer.0.bias f4 [128]
00000000: f834 99bd 46d9 2f3d 4b6d abbc 23fd 2539
00000010: c7ea 8cbb 28bd 363d c8cc afbd ccb3 d4bc
00000020: 714d a73c f913 ab3d e0ed 8cbc 523e 6cbd
00000030: d5d5 683d 9d92 5cbc bea4 8bbd 094d eebb
00000040: fa2b b13c 36c1 803d 3841 113d d29f 4dbd
00000050: 7499 58bc eada 43bd 6cd2 043d ba5a 09be
00000060: c3b3 56bd 6f4b 35bd 5ba6 92bb 29e9 e0bc
00000070: 0adb bdbd f366 85bd 8f78 bebd 6cdf 4bbc
00000080: 7928 16bd 94f9 973d fca7 173d 1fbf 14bd
00000090: e1c8 923d c60c 7cbd c8f4 0cbd 5f4b ca3d
000000a0: e70d 203d 53fd ae3d d360 afba c465 b8bd
000000b0: 3d40 49bd d3ee e03c 7386 863d dbf5 983d
000000c0: 2b64 0cbd 22e4 9a3d 379f 5a3d f4b6 b93c
000000d0: dbef 823d 7c7c 483d 7e93 b43d 0456 63bd
000000e0: 15b4 993d 457d 993d 6fe3 093d 2aa2 b8bd
000000f0: d510 b1bd dd64 0e3d bae0 ecbc ca86 32bd
00000100: 66a1 e1bc c19f 93bd be4b 633c 0d82 ef3b
00000110: 4e99 b6bb 1540 1ebc 1d63 123d e9cc bcbc
00000120: b9f7 8ebd d8de 373d 19fe 813d 2c80 413d
00000130: 0bb1 01bd 0bc6 483d 4535 873d 00c1 6dbd
00000140: 2e55 933d f422 dabc bac1 203d 7b77 87ba
00000150: c100 73bc f9b6 c5bc af72 d33d 50f2 23bc
00000160: cf32 5abd 5f16 3d3d 5305 94bc 8530 b33d
00000170: d283 9fbc 608c 943c 59ba a63d b35a 8b3d
00000180: 1945 6a3c d633 a33c 49a2 363d 576b 9e3d
00000190: 303d 443d f1ee 123d 6858 99bd 1e22 ec3c
000001a0: 4120 a5bd 9579 6f3d cf95 533d e637 b3bd
000001b0: da7f 9c3b bbed 96bd fb94 983d 2cf4 e4bd
000001c0: 4298 1abd 9e16 9abd 0169 86bc 3465 463d
000001d0: 5645 ccbd 9d13 373d 7ff6 50bd a2d6 8e3d
000001e0: bb12 0bbd 1242 19be 877f 9bbc fa35 f1bc
000001f0: abcb acbb 1665 613c faf6 4abd 0a46 25bd
-0.07480806 0.042931817 -0.020926138 0.00015829927 -0.0043004486 0.044613987 -0.08583981 -0.02596464
0.02042267 0.08353419 -0.017203271 -0.05767662 0.05684455 -0.01346269 -0.068185315 -0.007272367
0.021627415 0.06286852 0.035462588 -0.050201245 -0.01322018 -0.047816195 0.032427236 -0.13413516
-0.052417528 -0.044261392 -0.0044753975 -0.02745493 -0.09270294 -0.06513777 -0.093003385 -0.012443405
-0.03665969 0.0742065 0.037025437 -0.03631508 0.07167221 -0.06153562 -0.03441313 0.09877657
0.03907576 0.085444115 -0.0013380296 -0.09003785 -0.049133528 0.02745763 0.06568613 0.07468768
-0.034275215 0.07563044 0.053374495 0.022670247 0.06393405 0.048946843 0.088171944 -0.055501953
0.07505051 0.074945964 0.033664163 -0.09015305 -0.086457886 0.03476416 -0.028915752 -0.043585576
-0.027542781 -0.07208205 0.013873039 0.0073092044 -0.0055724746 -0.009658833 0.035739053 -0.023046928
-0.06980843 0.044890255 0.063472934 0.047241375 -0.031662982 0.049016993 0.06601957 -0.058045387
0.07193981 -0.026627995 0.039247252 -0.001033529 -0.014831723 -0.0241351 0.103246085 -0.010006502
-0.05327111 0.046163913 -0.018068945 0.08749489 -0.019472037 0.018133342 0.08141012 0.06804409
0.014298701 0.019922178 0.04458836 0.07735317 0.047909915 0.035872404 -0.07487565 0.028824862
-0.080627926 0.05846556 0.05165654 -0.08750896 0.0047759833 -0.07369562 0.07450291 -0.111793846
-0.03774286 -0.07523845 -0.016407492 0.04843636 -0.09974162 0.04469644 -0.051016327 0.06974532
-0.03395341 -0.1496661 -0.018981708 -0.029444683 -0.0052733026 0.013757011 -0.04955194 -0.040349998

layers.block_3.layer.0.weight f4 [128, 128]
00000000: 77e6 0fbc 7361 ec3d c062 38bd d334 51bd
00000010: 348f 2d3e 714f b6bb 37bb 6b3b 1fb0 5e3e
00000020: 412f 00be 44fd 30bb b451 6b3d 5ab5 ce3d
00000030: e4b9 b23b f161 62bc 5791 983d bec6 b8ba
00000040: 03d8 a538 ce7f 32be e0bf cdbb 8a88 8dbd
00000050: 8bfe c63d 08f6 f3bd 8cd6 c03d ba93 ae3d
00000060: 5f35 d9ba 79c3 9abd cd90 05bd c9d5 01be
00000070: cc9c dabd b490 0f3c 2ce1 e73d 92fb 453b
00000080: e05c d8bd 2772 c83c 75d6 9a3d e94e 81bd
00000090: a19f 31bc ae40 82bc 5e05 683d d98d 29bc
000000a0: 97d9 113c 72d3 84bc c1aa 983c 65ab fb3c
000000b0: 5c86 a73d f664 1fbe 271c f2bc 7a6e 623d
000000c0: 2976 bebd b581 aabd 1b89 9fbc 078c 8c3d
000000d0: 0f32 45bd 0c68 143b 601d 00be 406d a6bd
000000e0: e257 83bc 9c53 c33d d684 4dbe a879 013d
000000f0: e581 a63c 6152 a33d 340f 65bd a7e5 803e
00000100: dbd8 04bd 02f2 29bd 33e1 c03d 2ea6 81ba
00000110: 6ee3 74be 09e7 863d d300 8abd a191 59bd
00000120: e1c0 9dbc 9f9b 46bd 6453 5d3d 20f5 3d3d
00000130: 6c03 2b3d b7b2 0b3d b517 213c f157 3dbc
00000140: 3a9f 133c b5aa bbbc 9c09 083d 8a81 b23c
00000150: 1542 b13d aa45 fc3d c829 883d 123f 18be
00000160: 9f99 843d 8b55 a93c 1a92 113d 115f 3b3d
00000170: 838d 003c 33d3 623c 3a4d 293e 489a 84bd
00000180: 2ff8 8b3d d883 c1bd a3b3 86bd f2af df3d
00000190: 044c 263d fac7 70bd 882f 973d fd7f 91bd
000001a0: b538 a4bd 8e0e 9cbd 2759 593d 5df8 ddbb
000001b0: 2ed8 a9bd 12f0 ba3d 0699 debd 4ccc 46bd
000001c0: a676 76bd 55d9 0d3d 3d6c bfbc 3450 cebc
000001d0: 8981 923d 2469 4fbd a41a da3c b098 a7bb
000001e0: 0b33 02be b961 893d 64bd 27bd 5223 b43d
000001f0: 54d8 08be 969d 1f3d 74d2 bdbc 61b1 28bd
00000200: 8916 9c3d 7df3 a33d 7ea4 a8bb 1b40 35bc
00000210: c4fe c73c 228b 2bbd b371 abbd fe4b c93c
00000220: b1e7 ef3c 3573 b03c ecfb 103d 98f7 ebbd
00000230: 723b 953c 0ef4 a0bd 5da4 9f3d 4aae be3d
00000240: 3e12 533c 55e9 e7bd e507 df3c 6768 b03d
00000250: 34d1 5a3d 566c 86bd 479f 90bc 700f e7bd
00000260: 6d0d eabc a59b 743d 9834 23bd f675 523d
00000270: 9b4d 84bd 5c30 d43b 9bdb 9ebc 7887 d93d
00000280: 4902 55bd 257c 953a f792 41bd 9096 12bd
00000290: 010a 22bd 8787 183e 88de 9f3d 4d50 edbc
000002a0: 68f7 54bd e128 96bc 7482 883d 5260 9f3c
000002b0: 7465 10bc 4864 793d 1957 1f3d 75a5 8bbd
000002c0: 0bdb f03c 4cf1 60bd bc67 c43d 9d7a 7cbb
000002d0: 7c03 d9bc 6105 7c3c 4e2c bbbd dd30 543d
000002e0: f074 0c3d cc1b 39bd fe87 0e3c 29c0 91bd
000002f0: ba7d 49bb c142 6b3d 40f9 e03d ac81 793d
00000300: 4ed5 2c3d 6c14 b2bd 988c d23c e82b 943d
00000310: e942 433d 6dbb c4bd ea20 c63d f55d a0bd
00000320: f2dd 5a3d 7c8d a03c 4d9a 09be 296e 2b3d
00000330: a9da 213c f31b 993d fead 16be 2fab 83bc
00000340: da59 4ebe e460 623d c316 d6bd 0177 763d
00000350: 82b4 0abc a101 f73c f5a8 9fbd 9795 623d
00000360: 25ba a83c cb61 04be 77d4 c63d e93c ae3b
00000370: 58f5 b63d 5a2b b8bc 194a 9ebd 7598 05be
00000380: a481 f2bc f924 9e3d adeb e2bd 128c 63bd
00000390: 1c72 123d 665e 163d 96b3 423d bcb2 edbc
000003a0: 8189 aabd 38cb 443d 13c6 02be 9416 11bd
000003b0: df8c cd3c 9604 a4bc 0a7f 043e a9d2 2fbd
000003c0: 690b 4b3d d4d1 9b3d 074b 99bd d1ca aabd
000003d0: bd97 c43c fdfd c5bd abfb f73d 3ce0 b63c
000003e0: 740a 6fbd 1b4a 393b 51f4 34bd c2a7 8c3d
000003f0: a0ab c23c 6f43 973c 8fcb 003d 5144 56bd
-0.008782974 0.115420245 -0.04501605 -0.051075768 0.16949159 -0.0055636694 0.0035969743 0.21746872
-0.12518026 -0.0027006427 0.057450965 0.10093184 0.005454289 -0.013817296 0.074495964 -0.0014097316
7.9080484e-05 -0.17431566 -0.006278977 -0.069108084 0.09716519 -0.11912161 0.094159216 0.0852427
-0.0016571692 -0.07556815 -0.032608796 -0.12679209 -0.10674438 0.008762527 0.11322245 0.0030209762
-0.105645895 0.024468495 0.07560436 -0.06313879 -0.010841281 -0.015899982 0.056645744 -0.0103487605
0.008901975 -0.016214106 0.01863611 0.030721376 0.08179924 -0.15565857 -0.02955444 0.05528114
-0.09299881 -0.08325521 -0.019474557 0.068626456 -0.048143443 0.0022645025 -0.12511206 -0.081263065
-0.016033117 0.095374316 -0.20070204 0.03161016 0.02032561 0.07974697 -0.055922702 0.2517521
-0.032433372 -0.041490562 0.09417953 -0.0009891444 -0.23914883 0.06587035 -0.067384385 -0.0531174
-0.01925701 -0.048488256 0.054034606 0.046376348 0.04175131 0.034105983 0.009832312 -0.011556611
0.009010131 -0.022908548 0.03321229 0.021790285 0.08655182 0.12317975 0.06648594 -0.1486781
0.064746134 0.020670673 0.035539724 0.04574496 0.007846239 0.013844299 0.16533366 -0.06474739
0.06834447 -0.09448975 -0.06577232 0.10922231 0.040599838 -0.058784463 0.07382113 -0.0710449
-0.080186285 -0.076199636 0.053063538 -0.006773992 -0.08293186 0.09127821 -0.10869031 -0.048534676
-0.060171746 0.034631092 -0.023367042 -0.025184728 0.07153613 -0.05063738 0.026624031 -0.0051146373
-0.12714784 0.06708092 -0.0409521 0.08795799 -0.13363773 0.038968645 -0.023171641 -0.041184787
0.07621486 0.08005426 -0.005146562 -0.011062647 0.024413474 -0.041880734 -0.08371296 0.024572369
0.029285284 0.02153931 0.0353965 -0.11521834 0.018216822 -0.0785905 0.07795022 0.09310587
0.012882767 -0.113238014 0.027225444 0.08613663 0.053422168 -0.06563632 -0.017654074 -0.11282241
-0.028570855 0.059718747 -0.03984508 0.051382028 -0.064601146 0.0064754914 -0.019391825 0.10621542
-0.052004132 0.0011404796 -0.047259297 -0.03578812 -0.03956032 0.1489545 0.07806116 -0.028968954
-0.051993757 -0.01833004 0.06665507 0.019455109 -0.008813251 0.06088665 0.038901422 -0.06818668
0.029401323 -0.05491762 0.09590098 -0.0038525232 -0.02649092 0.015382142 -0.0913931 0.051804412
0.034291208 -0.045192525 0.008699415 -0.0711673 -0.0030745105 0.05743671 0.10985041 0.06091468
0.04219561 -0.086953014 0.025701806 0.07234937 0.047671232 -0.09606061 0.096742466 -0.07830421
0.05343432 0.019598715 -0.13437767 0.041853104 0.009878793 0.07476034 -0.1471481 -0.016072838
-0.20151463 0.055268183 -0.1045356 0.060172085 -0.008465888 0.030152144 -0.07795898 0.05531844
0.020596573 -0.1292793 0.09708493 0.0053173197 0.08933514 -0.02248161 -0.07728977 -0.13046439
-0.029602833 0.07721896 -0.11080108 -0.055553503 0.035753354 0.03671112 0.047534548 -0.029015891
-0.08327008 0.048045367 -0.12770872 -0.035421923 0.025091587 -0.020021718 0.12939087 -0.04292551
0.04957143 0.07608381 -0.074850135 -0.083394654 0.023998136 -0.09667585 0.12108549 0.02232372
-0.05835958 0.002827293 -0.04417831 0.06867935 0.023763478 0.018464772 0.03144413 -0.052311245

layers.block_3.layer.0.bias f4 [128]
00000000: 2090 3a3d b4a3 ac3d 3dbe d4bd 9838 0abd
00000010: 0dc6 27bc b806 ab3d 7ffd 33ba 6552 493d
00000020: 22fb 933d 9a15 9e3c 57db ac3d 4b9f 88bd
00000030: 5406 8f3d 3222 733a a562 a73c db03 d9bc
00000040: 5473 393d 349e 8cbc e3ae ca3d 1a3a 6bbd
00000050: bda0 673d 6569 1e3c 4324 84bc ebcb 30bd
00000060: d6c9 8dbd fa53 553d a249 683c 85ac 783d
00000070: f71c 5c3d fca9 1f3d 3611 c9ba 18ed 08bd
00000080: 38ee 373d c8f3 9cbd ad9f 653d 01ad 3ebd
00000090: 2b26 11be 283f 7d3d 1516 6abd e7c4 50bd
000000a0: 261f f5bc ae75 023c d0ce 61bd 4e95 ce3d
000000b0: 290a cdbb 64e1 20bc 7fe7 22bb 0180 f5bc
000000c0: 3a50 933d 281b bbbc 0982 163d 2808 80bd
000000d0: 30a6 40bd 8dfa 9fbc 1377 d93d 00ae b4bd
000000e0: 7bf7 8c3b 324b 4f3c e7e8 e73d 88a1 833d
000000f0: baee 17bd 1562 60bd bed3 693d bc56 b9bd
00000100: 7cdc 97bd 01ce 26bd 94f6 0e3d 5e36 4b3d
00000110: dafc ee3c b650 643d 6ebc 69bd 88ff 40bb
00000120: 395b 6bbc 2282 263d 9c66 49bd ce6a 43bc
00000130: 2c0b 2b3d 2c0f c2bc b002 373c e5c4 26bd
00000140: 70c6 7e3b 526a 48bc c875 1fbd 8199 00bd
00000150: 4d1f 9dbd 4e42 a6bd fa9d a53c fb6f cf3c
00000160: 36a9 39bd 0ff6 163b d2ee 92bc 1560 4cbd
00000170: 88b3 79bd 657f 8fbd 046f a13d 449c 943d
00000180: b00a 9c3d 4e1c cd3c 9636 a1bd 073b 87bd
00000190: 7f3f 2d3d 3d75 903d 00ce c0bd 0871 5538
000001a0: c31e 74bd b041 cfbd b9dd 40bd bb00 183c
000001b0: df25 4fbd e856 72bd 5c50 5ebc 8805 8dbd
000001c0: 6031 de3c 9fff 65bc bb27 68bd 1a68 843d
000001d0: ba7e 2a3d 2185 abbd e2d5 863b 4ad2 54bd
000001e0: 3856 3fbd fa20 f63c e50d a7bc c538 e63b
000001f0: 230e 14bc 8790 32bc 3708 1e3d 0e8f b4bc
0.045547605 0.084296614 -0.103878476 -0.03374538 -0.01024009 0.08350891 -0.0006866082 0.049150843
0.07225634 0.01929741 0.08440273 -0.06671008 0.06983629 0.000927481 0.02043278 -0.026491096
0.045276 -0.01716528 0.09896638 -0.057428457 0.056549776 0.009668683 -0.016130572 -0.04316322
-0.06923263 0.05208204 0.014177712 0.060711402 0.05373856 0.03898047 -0.0015340212 -0.033429235
0.044904917 -0.07663685 0.05606048 -0.046551708 -0.14174716 0.06182781 -0.057149965 -0.05096903
-0.02992208 0.007962627 -0.055128872 0.10087071 -0.0062573147 -0.009819362 -0.002485722 -0.029968264
0.071930364 -0.022840098 0.036745105 -0.06251556 -0.04703349 -0.019528652 0.10618415 -0.0882225
0.004301963 0.012652205 0.113237195 0.06427294 -0.0370929 -0.05478104 0.0570867 -0.090497464
-0.07415101 -0.040723804 0.034903124 0.049612395 0.029173303 0.055741034 -0.057064466 -0.0029449183
-0.014365011 0.040651448 -0.04917012 -0.01192732 0.0417587 -0.023688875 0.011170074 -0.040715117
0.0038875602 -0.01223238 -0.038930684 -0.031396393 -0.07671986 -0.08118115 0.02021693 0.025321951
-0.045327388 0.0023034846 -0.017936144 -0.04989632 -0.06096223 -0.070067205 0.07882503 0.07256368
0.07619226 0.02503791 -0.078717396 -0.066030554 0.042296883 0.070536114 -0.094142914 5.0888426e-05
-0.05959965 -0.10119951 -0.04708645 0.009277518 -0.050573226 -0.05916491 -0.013568964 -0.068858206
0.027123153 -0.014037996 -0.056678515 0.06465168 0.041624762 -0.08375002 0.0041148523 -0.05195836
-0.046713084 0.030045021 -0.020392368 0.0070258104 -0.009036574 -0.010898716 0.038582053 -0.02204087

layers.output.weight f4 [2, 128]
00000000: b262 7f3e e3dd 54ba 2ddb dd3d 15bd 813d
00000010: f0d8 47bd 0dda c2bd 4071 dabd 398d 68be
00000020: 4de1 febc 07e7 87bf cde9 c1bd 0837 24be
00000030: 6fca 8a3e 1a75 443e b49f 5fbd d8b9 543d
00000040: e7ef 92be 6ca9 173f e093 363d 474b 873e
00000050: f2be a13d 9e5d 4c3e 2527 273e f486 98be
00000060: 9def f23e 6970 6e3e 6c33 323d 4d21 6cbf
00000070: 0179 bd3c 8675 213e 837b 2439 b9ec 023f
00000080: a8f7 ecbd 44f5 bcbd 3233 1e3d 2286 a23d
00000090: bc04 813f 836c 383e 2d87 3d3e bfd7 9cbe
000000a0: fcc8 423f 1571 ab3b 8575 5fbf a93c 473e
000000b0: cd6e 8ebd 0a4a 53bf 4d5c 8ebd 77b1 02bf
000000c0: 5d9d 8a3e eee1 5ebd 0355 813d ff57 df3e
000000d0: e81e fd3c fd30 af3d 2ab5 fabd b438 c2bd
000000e0: f952 95bd 68c5 3ebd decc 193e 134f b63c
000000f0: b39b cfbd f4fc adbd 91e3 313f 7f04 b4bd
00000100: ce70 3a3c 5195 423e 7c88 af3d 55c7 96be
00000110: c257 5f3e 3410 1b3f 2ba1 403f 3550 833e
00000120: e0ad 033e f1c9 f93d d502 903e 2f90 8b3e
00000130: f909 f13d c9a8 ae3d 2873 43bd 789e febd
00000140: dda6 383c 10b1 edbc 9034 acbe be94 653f
00000150: 4fe2 613f e1e4 1fbe 45f8 88be b91e 9fbe
00000160: d8da d23d 4532 913e cbe0 45be 06c0 153f
00000170: c5e7 743e 4834 1f3e 4ecf 2ebd 8194 8ebd
00000180: 5ed1 0f3e 9d37 293e c379 e53d 0a96 97be
00000190: 39f2 7dbf 50a6 5abe c72e 003e b048 babe
000001a0: 1d52 f73e 633a c1bd 09ed 63bd d08a ca3e
000001b0: e43f 48be 37ff ef3d 942c 9dbd db49 5c3f
000001c0: a177 da3d 1d67 04bd 1b82 6fbe 9940 eebe
000001d0: 76bf 88be 84ec 05be aebc 713f 7aaa 62bd
000001e0: 3db1 8d3e ec24 28be ff68 01be 5426 b2be
000001f0: 2ae9 8bbe 7ea7 33bb 3336 153d 6e40 2bbe
00000200: 0f25 ccbd aa06 a03e 7ec1 90be 1b58 783e
00000210: 51d0 903e efc8 90bc 4aec 4bbd c69b e53e
00000220: 03ab 903e 4a4e 3c3f 8d71 8e3e 3635 47bd
00000230: ddea 363e f293 44be 5a73 aabc 79d5 e8bd
00000240: ac52 afbb 002d 7abf dd9c 59bd 7a78 7ebf
00000250: c285 f7bc 7a12 413d f8f3 72be 0bc5 00bb
00000260: f74a 5cbe 2393 4fbe 651f 56be e58a 9d3e
00000270: dbb2 0c3e f910 143d 3d90 6ebd 053d 35bf
00000280: 2926 73bc 3735 fcbd 95bf 403e d83d 963e
00000290: 866b e0be 6b21 48be 0eca cb3d e8ec debd
000002a0: 9144 ddbd 8c9e 1e3c 095c 48bc 7796 31be
000002b0: bb42 193f ef25 473c 05c2 443f 026b 9b3d
000002c0: d1fe 5f3d 7c12 9bbc 1c51 67be 2e32 75be
000002d0: c71a 203e 44b5 98be 12d1 bf3e a455 10be
000002e0: 9885 b13e bbeb 57be b83d b43d 70bb 463e
000002f0: 0ff6 edbd 72d5 ea3e 5688 6bbf cee3 7e3e
00000300: 4446 bf3d be95 033e afe1 6bbf 5b48 063e
00000310: 7a72 16be ccc6 173e 539a f6be bd0b 0f3e
00000320: 997b e53d c798 a33e b6cb ee3c d562 51be
00000330: 7656 183e 3a0b 39bf 3ac6 c33d 554a e43d
00000340: 25e5 473e 92b4 cfbb 3329 bc3e 6146 e6be
00000350: 3706 4ebe efe0 d3bd 927c 693e 48ec 453e
00000360: b757 693d 374a 87be 86be 783e 7c6d 6fbd
00000370: 510d 23be fcd9 1d3e fad9 9dbd e3ed 53be
00000380: 89bd 543d f7c4 613e 1559 6d3d 13a5 23bc
00000390: dc21 093f fa08 bb3e 3513 17bd b061 563e
000003a0: b25b 5b3e a1dd 23be db4a 37bd a569 b5be
000003b0: 5abe 02be 8aa6 c6be d10e 6abc 1065 243e
000003c0: 727c 15bf 943c 8bbe 9b26 963e 7cf8 cc3e
000003d0: ae53 283e 5cd1 06be cd37 f2bd c985 16be
000003e0: dfab 0e3e ebb4 80bd 15a1 19be c5c6 853e
000003f0: f28b 23bc e170 1ebc b112 993e d8a2 803e
0.24939993 -0.0008120222 0.1083282 0.06334893 -0.048790872 -0.09514246 -0.10666132 -0.22710122
-0.031113291 -1.0617379 -0.09468422 -0.16036618 0.2710757 0.19185296 -0.054595664 0.051935047
-0.28698656 0.5924289 0.04457462 0.2642462 0.07897748 0.19957587 0.16323526 -0.2979046
0.47448435 0.23285069 0.04350607 -0.9223831 0.023128988 0.15767488 0.0001568627 0.5114246
-0.11570674 -0.09226468 0.038623042 0.0793574 1.007957 0.18010144 0.18508597 -0.3063335
0.7608793 0.0052319863 -0.87288696 0.19456734 -0.06954727 -0.8253485 -0.06951199 -0.5105204
0.27073184 -0.054414682 0.06315043 0.43621823 0.030898526 0.08554266 -0.122415856 -0.094834715
-0.072912164 -0.04657498 0.15019557 0.022254502 -0.10137119 -0.084955126 0.69487864 -0.0878992
0.011379434 0.19002272 0.08570954 -0.29448953 0.2181082 0.605716 0.7524592 0.2564713
0.12859297 0.121967204 0.2812716 0.2725844 0.1176948 0.08528287 -0.047717243 -0.12432569
0.011270252 -0.029015094 -0.33633852 0.8968009 0.88235945 -0.15614654 -0.26751915 -0.31078127
0.102956474 0.28358665 -0.19324033 0.5849613 0.23916538 0.15547287 -0.04267817 -0.069619186
0.14044711 0.16525121 0.11204865 -0.29606658 -0.9919773 -0.21352506 0.12517844 -0.3638358
0.48304835 -0.094349645 -0.055645976 0.3955903 -0.19555622 0.117186 -0.07674518 0.86050195
0.10667349 -0.0323249 -0.23389475 -0.4653366 -0.26708573 -0.13078505 0.9442853 -0.05533836
0.27674285 -0.16420335 -0.12637709 -0.34794867 -0.27326328 -0.0027413066 0.03642864 -0.16723797
-0.09968006 0.31255084 -0.28272623 0.2425236 0.28283933 -0.017673938 -0.04978589 0.44845408
0.28255472 0.7355696 0.27821007 -0.04863473 0.1786303 -0.19197062 -0.020806957 -0.11368842
-0.0053504314 -0.97724915 -0.053128112 -0.9940258 -0.030215148 0.04713676 -0.23725879 -0.0019648697
-0.21512972 -0.20270972 -0.20910414 0.3077003 0.13740103 0.036149 -0.058243025 -0.70796233
-0.014840641 -0.123148374 0.18823083 0.29344058 -0.43832034 -0.19543998 0.09950648 -0.1088503
-0.10804094 0.009681355 -0.012228974 -0.17342554 0.5986745 0.01215504 0.7685855 0.075887695
0.05468637 -0.018929712 -0.22589535 -0.23944923 0.15635215 -0.29825795 0.37464195 -0.1409517
0.34672236 -0.21086018 0.088008344 0.19407439 -0.116191976 0.4586597 -0.9200491 0.24891588
0.09339574 0.12850091 -0.9214124 0.13113539 -0.14692107 0.14821929 -0.48164615 0.13969322
0.11205215 0.31952497 0.029149871 -0.20447858 0.14876732 -0.72282755 0.09559293 0.1114699
0.19521005 -0.0063386643 0.36750183 -0.4497557 -0.20119558 -0.10345637 0.22801426 0.19328415
0.056968417 -0.2642381 0.24291429 -0.05845402 -0.15923049 0.15415186 -0.07707591 -0.20696215
0.051938567 0.22047792 0.057946283 -0.009988087 0.5356729 0.36530286 -0.03688355 0.20935702
0.21421698 -0.16002513 -0.044749122 -0.35432163 -0.12767926 -0.38798934 -0.014285759 0.16054177
-0.58393013 -0.27194655 0.2932633 0.4003333 0.16438171 -0.13165802 -0.118270494 -0.14699472
0.13932751 -0.06284507 -0.15002854 0.26128212 -0.009982096 -0.009670467 0.29897073 0.2512424

layers.output.bias f4 [2]
00000000: 6804 8e3e 8fe6 ef3c
0.27737737 0.029284744
