results/VANILLA/Vanilla25/vanilla40k/model.pth (torch, 205093 bytes, 10 tensors)

layers.block_0.layer.0.weight f4 [128, 2]
000000 22 8c bd be 08 16 27 3f 1c 2f 44 bf 16 b8 92 be
       -0.37020975 0.6526799 -0.76634383 -0.2865607
000010 42 f3 5c 3f 5d d9 9a be 9e 9b 51 bf 50 22 57 3e
       0.8630868 -0.3024396 -0.8187808 0.21009183
000020 b8 9d 20 be 44 40 51 3f 72 c7 91 bf 57 03 ec be
       -0.15685165 0.81738687 -1.1388991 -0.46096298
000030 77 e3 1d bf 01 a0 9d bd 46 21 7d 3f fc fc 2c 3f
       -0.6167521 -0.07696534 0.98878896 0.67573524
000040 a7 66 31 bc df 4e 83 3d 7e 46 36 bf b2 a4 51 be
       -0.010827697 0.06411528 -0.7120131 -0.20472983
000050 9e d6 36 3f 96 5f ff 3d 23 a2 48 be fa 3b 4e bf
       0.7142123 0.124694034 -0.195931 -0.80560267
000060 45 de 35 bf 59 8b 70 be 90 0d 48 3f 89 10 18 3f
       -0.7104228 -0.23490657 0.78145695 0.5940023
000070 39 10 3b bf 62 68 16 bf 7d cd 54 3f c2 9d d0 3e
       -0.7307163 -0.58753026 0.8312605 0.4074536
000080 f8 e3 0f 3f 42 75 40 bf 60 c8 2f be 1d 09 35 3f
       0.5620723 -0.7517892 -0.17166281 0.7071703
000090 10 e9 95 be 20 2a f1 3e 43 63 73 bf af d6 d7 3e
       -0.29279375 0.4710245 -0.95073336 0.42155978
0000a0 70 ee 0d 3e f5 77 12 3f dd 2a 8d 3f bc a7 9a 3c
       0.13860488 0.5721429 1.1028706 0.01887881
0000b0 a8 04 8a 3f cd b1 d5 3c 4f 3a 6f 3f 92 6e 0a 3f
       1.0782671 0.026085759 0.93448347 0.54074967
0000c0 b3 43 55 bf f1 ca ed 3c 19 69 43 bf bd 08 da be
       -0.83306426 0.029027434 -0.7633224 -0.42584792
0000d0 ab 09 48 3f 91 57 e1 be 3b 38 70 bf 89 c8 2e 3e
       0.7813975 -0.4401212 -0.938358 0.17068686
0000e0 05 50 45 3f 4a 82 03 3f 1b 2f 2b bf d1 88 18 3e
       0.77075225 0.5137068 -0.6686875 0.14895941
0000f0 38 e6 80 3f cf 6f c4 be 6b 04 92 3f 34 42 45 be
       1.0070257 -0.38366553 1.1407598 -0.19263536
000100 f6 1a 50 3e 8f 95 ee bc 75 77 75 bf 60 1d eb 3e
       0.20322785 -0.02912405 -0.958854 0.4592085
000110 4f 26 12 3f 33 90 29 3f f3 1b 89 bf 72 fd 17 3e
       0.57089704 0.66235656 -1.0711654 0.14842775
000120 cc a2 34 3f fa 29 9e 3e 6c f2 67 3f 90 d4 37 3f
       0.7056091 0.308914 0.9060428 0.7180872
000130 61 50 4b bf 70 fe 46 3e af 49 14 3f b5 cc d1 3e
       -0.79419523 0.19432998 0.5792493 0.40976492
000140 d8 94 1b 3f 01 ea b2 3e 23 d1 c4 be 2c a9 3c bf
       0.6077399 0.34944156 -0.3844081 -0.73695636
000150 4e b1 ff be 2a 5e 33 3f 30 a5 e3 be e3 c0 68 3d
       -0.4993996 0.7006556 -0.44461966 0.056824576
000160 d8 49 61 3f aa a7 1f bd 9b 56 fd 3e 70 17 2c 3f
       0.880033 -0.038978256 0.49480137 0.6722326
000170 a7 f0 23 3f bb e8 15 bf a4 77 14 bf fe ff af 3e
       0.6403908 -0.58558244 -0.5799506 0.34374994
000180 86 f2 66 3d 3c 7e 04 3f a6 e7 46 bf 46 16 2b be
       0.056383632 0.5175512 -0.7769722 -0.16707715
000190 5a d8 1d 3f 17 b9 5d be 57 2d 31 3f 4e 46 d5 bd
       0.6165825 -0.21652637 0.6920981 -0.104138
0001a0 06 00 11 3f d6 bb e3 3d 26 15 a4 bf 0d 25 99 be
       0.5664066 0.11119811 -1.2818954 -0.2991108
0001b0 27 bf 1d bf 21 76 e4 3d bc 93 42 bf eb c2 7f bd
       -0.616198 0.11155344 -0.76006675 -0.062441748
0001c0 42 7f 8c 3f 72 cb 59 3e c4 51 58 3f 10 98 0b 3f
       1.0976336 0.21269014 0.84499764 0.54528904
0001d0 72 db 0c be d1 51 5c 3f 50 cf 0a 3f dd fc d0 be
       -0.13755587 0.8606234 0.54222584 -0.4081792
0001e0 ec 25 71 3f d8 f3 39 be 7e 72 97 bf 3e 77 93 be
       0.9419849 -0.18159425 -1.1831815 -0.28801912
0001f0 3f 2a 80 be 09 65 1a bf 1e 94 52 3d bd c4 31 3f
       -0.2503223 -0.6031042 0.051410787 0.69440824
000200 f6 59 55 bf 5a 51 d4 be bc 7e 0e 3f a6 e3 00 3f
       -0.83340394 -0.41468316 0.5566213 0.50347364
000210 bd 43 4b 3f 58 7b 08 bf 4d 1f 52 be fb f5 f4 3e
       0.79400235 -0.5331321 -0.20519753 0.47843918
000220 df c4 62 3f 2d ea d6 be af 59 4d be 9c a0 14 bf
       0.8858165 -0.41975537 -0.20053743 -0.5805757
000230 3b b1 2e bf d7 75 0c be 6b 3e fc 3e 16 c5 49 bf
       -0.6823918 -0.13716827 0.4926637 -0.78816354
000240 b5 15 f6 3e d1 66 a1 be d9 3c cd be 8d a2 1d bf
       0.48063436 -0.31523755 -0.40085486 -0.6157616
000250 73 b3 90 bf fd f2 89 3e 8a e0 72 3f e2 03 1f bf
       -1.1304764 0.26943198 0.9487387 -0.621153
000260 b2 ae 57 bf e3 7e fb 3e d5 0c 75 3e e9 4c 27 3f
       -0.8425094 0.49120244 0.23930676 0.6535173
000270 fc c1 d8 be 9a 97 0a be 0e 4e 15 3f de ce a5 be
       -0.42335498 -0.13534394 0.58322227 -0.3238439
000280 b3 71 78 bf 51 2d 2c bf c4 0e d4 3e 49 13 fe 3e
       -0.9704849 -0.6725665 0.41417515 0.49624088
000290 31 f1 df 3e 9f a8 13 bf 8c c9 b4 be 9f cb 1a bf
       0.43738702 -0.5767917 -0.35310018 -0.6046695
0002a0 0e cd 42 3f 3a ee d4 3e 6c 6f 56 3f f1 03 18 be
       0.7609414 0.41588002 0.83763766 -0.14845254
0002b0 5a 43 20 bf b1 95 08 3f 76 2d 6e 3f 0f f1 b8 bd
       -0.6260277 0.5335341 0.9303812 -0.09030353
0002c0 55 a0 61 bf 7a 0e d6 be bb b4 28 be 57 12 44 3f
       -0.8813527 -0.4180792 -0.16475193 0.76590484
0002d0 9b 9f 84 bf af 99 11 bd 7e 16 70 3f 07 56 8b 3e
       -1.0361208 -0.035546955 0.9378432 0.2721407
0002e0 61 48 89 3e d6 60 26 3f a4 dc 18 bf 13 49 f9 be
       0.26813033 0.6499151 -0.5971167 -0.48688564
0002f0 9e e9 7a 3e 02 c3 f2 be e7 b8 b7 be 26 56 8d be
       0.2450318 -0.47414404 -0.35883257 -0.2760479
000300 c7 7f 6d bf f4 7d fb bd be c1 6e bf 0c df c8 3d
       -0.927731 -0.12279883 -0.9326438 0.09808168
000310 d4 8e 00 3f f5 16 df be f4 cd cb be 51 28 85 3e
       0.5021794 -0.43572202 -0.39805567 0.2600732
000320 cd 2e cd 3d 6b b8 43 3f 7d 57 c1 3e ff 24 05 3f
       0.10018692 0.76453274 0.3776206 0.52009577
000330 cf 30 34 3f be 8d e5 be 46 76 4e 3f 74 c0 d6 be
       0.70386976 -0.44834703 0.8064922 -0.41943705
000340 a7 82 de 3d 57 63 f9 3e a6 f6 91 bf 5a 82 c2 be
       0.10864764 0.48708603 -1.1403396 -0.37990075
000350 e1 ea 39 bf 2c ee ee 3e 99 0c 83 3f fc de 08 3f
       -0.7262402 0.46666086 1.023822 0.5346525
000360 dc b1 a7 3f df 6b ed 3e f1 55 67 3f f5 27 0c 3f
       1.3101153 0.46371362 0.9036551 0.5474847
000370 dd 36 6f bf 8b 71 6f be c6 05 37 3f 1d 5a bf 3e
       -0.9344309 -0.23383157 0.71493185 0.37373438
000380 d6 09 84 3f 7f 34 93 3e 00 df a3 3f 9a ed 33 be
       1.0315502 0.2875099 1.2802429 -0.17571107
000390 d2 59 5e be 84 62 19 bf 32 5d 73 3f 98 0c 31 bf
       -0.21713951 -0.5991595 0.9506408 -0.6915984
0003a0 b4 f7 a4 be bb e5 1b 3e 38 a0 98 bf d8 6c ec 3e
       -0.32220232 0.15224354 -1.1923895 0.4617679
0003b0 36 be 29 3e 96 df ac be 76 dc fd be e1 29 3b 3f
       0.16576466 -0.33764333 -0.4958226 0.7311078
0003c0 c6 a0 27 bf 18 4f 12 bf cd a6 78 3e ad 1e fa 3e
       -0.65479696 -0.5715194 0.2428238 0.4885153
0003d0 d2 8d 79 bf a2 3e ab 3e 30 91 99 bf 45 a8 fa 3e
       -0.97482026 0.33446223 -1.1997433 0.48956504
0003e0 6b ab 6f 3f d8 39 52 be e2 45 ce 3e eb a6 16 be
       0.9362094 -0.20529878 0.4028769 -0.14712112
0003f0 76 98 38 bf f2 84 76 3d e5 0f 9a bf f6 8c 9f be
       -0.72107637 0.06018538 -1.2036101 -0.31162232

layers.block_0.layer.0.bias f4 [128]
000000 f9 ab 74 bd 8e 61 1a bf 7b 87 85 be a2 4c 83 bd
       -0.05973432 -0.60305107 -0.26079926 -0.06411101
000010 b2 57 c7 3e 7c 4c cc 3e af 45 12 bf 06 2a 15 bf
       0.38934094 0.39902103 -0.5713758 -0.5826725
000020 d2 79 1f bf c5 c8 f9 be 7b 5a b3 3d cb 43 b2 be
       -0.6229526 -0.48785987 0.08757492 -0.34817347
000030 ee 19 aa 3e 6a aa 18 bf 23 b4 31 3f d8 31 1a bf
       0.33222908 -0.5963503 0.6941549 -0.60232306
000040 38 9f 44 3f 0e b0 1d 3f 99 4d 37 bf 52 7d cf be
       0.7680545 0.61596763 -0.7160278 -0.405253
000050 cd b6 3c 3f c3 ed 81 bd 60 ee e9 3c 6b 2b f5 be
       0.7371643 -0.063441776 0.028556049 -0.47884688
000060 e0 1c de 3e 20 04 c0 be a2 1c 09 3f 7c b0 fd bd
       0.43381405 -0.37503147 0.53559315 -0.12387177
000070 63 ce df be 2f 28 2d 3e 86 a9 ba 3e 21 74 77 3e
       -0.43712148 0.1690986 0.3645746 0.24165393
000080 39 a5 34 3f dd 9b 75 be 24 92 3e bf 31 67 a5 be
       0.7056461 -0.23985238 -0.7444174 -0.3230529
000090 4d b5 dc 3d 5b ad 1f bf aa b6 52 be dd 49 0c 3e
       0.10776768 -0.62373894 -0.20577493 0.13700052
0000a0 97 ed 9e be 85 3b cf be e0 c2 c3 be 07 dc 52 3e
       -0.31040642 -0.40475097 -0.38234615 0.20591746
0000b0 cd e6 61 3e b2 05 50 3e 32 d3 2e 3f 6c 5b ac be
       0.220607 0.20314673 0.6829101 -0.336635
0000c0 88 3e 04 3e 07 ba 23 3f 70 63 45 be 2c ad 06 3f
       0.12914479 0.6395573 -0.19276214 0.5260799
0000d0 d2 dd 11 3e 24 7c 89 3e aa 61 b5 3e 23 df a6 3e
       0.14244774 0.26852524 0.35426074 0.32592115
0000e0 b4 b3 84 be 32 a5 69 be 0e 85 29 3f a2 06 11 be
       -0.25918353 -0.22816923 0.6621865 -0.14162686
0000f0 db 11 e7 3e 67 d5 ed 3e 09 cf ea bb cc f3 49 bf
       0.4513081 0.46451876 -0.007165794 -0.7888763
000100 f0 ac 90 be f5 76 15 bf 75 6e b8 3e 92 73 c6 3e
       -0.2825694 -0.5838464 0.36021772 0.38760048
000110 48 89 67 3e 8f 81 d2 be 75 0f 96 3e 63 ca 33 3f
       0.22610962 -0.4111447 0.29308668 0.7023069
000120 57 36 86 3e eb 1e f2 3e 04 5f 03 be 43 4a 03 3f
       0.26213333 0.47289214 -0.12829214 0.5128519
000130 05 19 89 be 69 a5 11 3e fb c8 cf be 45 e8 97 3e
       -0.267769 0.14223255 -0.40583023 0.29669395
000140 d3 18 3a 3f 31 31 15 3f 7f 6d 28 bf 69 f7 79 3d
       0.7269413 0.58278185 -0.6579208 0.061026964
000150 ba bb 25 bf 7d e6 fb 3e c9 ca f0 be 18 67 91 b9
       -0.64739573 0.49199286 -0.47029713 -0.00027733366
000160 22 53 8b 3e ac ed d0 3e 81 4d 62 3d ce 1b 1e be
       0.27211863 0.4080633 0.055249695 -0.15440294
000170 b2 22 11 3e 8c 78 c0 be 8a d4 39 3d a0 28 8f 3e
       0.14173391 -0.3759197 0.04536871 0.27960682
000180 9a eb e1 be 97 9e 13 bf b0 a4 05 3d e5 18 6b be
       -0.44125062 -0.57663864 0.03262776 -0.22958715
000190 d7 0e f4 3e b8 51 d9 3e 02 62 58 3b ad 90 04 be
       0.47667572 0.4244516 0.0033017402 -0.12945814
0001a0 f3 b4 cc 3e 3b 34 18 3f d9 53 e4 be 65 07 e4 be
       0.39981803 0.594547 -0.4459522 -0.44536892
0001b0 02 7d e2 be 47 11 03 bf 32 28 2c 3e d5 14 19 bf
       -0.44235998 -0.5119824 0.16812208 -0.5979741
0001c0 b8 aa 6d be 6a 01 00 3e 64 4d 17 3f 55 5e 24 3f
       -0.23209655 0.1250054 0.59102464 0.6420644
0001d0 c9 2c d6 be ba c9 c4 be 38 97 d7 bd 9c 04 36 bf
       -0.41831043 -0.38435155 -0.105268896 -0.71100783
0001e0 c9 58 10 3f 2d bc 19 3f 50 a6 26 be 65 e3 db be
       0.56385475 0.6005276 -0.1627438 -0.42946926
0001f0 a3 54 3d 3e 70 31 80 3e dd 90 f3 bd cc f7 94 3e
       0.18489318 0.25037718 -0.11892865 0.29095304

layers.block_1.layer.0.weight f4 [128, 128]
000000 39 46 50 3b cc 8e 84 3d 04 06 aa 3d 9e 08 0f be
       0.0031780137 0.06472549 0.08301929 -0.13968131
000010 3d 10 f2 3c 57 a3 0f be 2c 5c 37 3d 02 1c 70 3d
       0.029548759 -0.14027153 0.044765636 0.05862046
000020 89 82 4c 3d aa 9b de bb 60 71 eb 3c 04 70 ac bd
       0.049929176 -0.006793459 0.028740585 -0.08419803
000030 ec a5 c3 bd 0c e0 42 3d 0b 4e 87 bc d5 ef b0 3d
       -0.095531315 0.04757695 -0.016516706 0.08639494
000040 b8 e7 80 3d 12 91 83 bd 11 1f 60 bd 3d c6 f8 bd
       0.06294197 -0.06424154 -0.054717127 -0.12147186
000050 63 27 8a bd cf dd 48 3e 6f 15 86 3d 2a 05 c5 3a
       -0.06745794 0.19615863 0.06547057 0.0015031446
000060 b7 47 0e bd 33 33 b0 bc 74 15 9e 3d d9 ea 37 bd
       -0.03473636 -0.021508789 0.077189356 -0.044901703
000070 22 d8 fe bc af ee bc bd 93 44 34 3e 01 87 2d 3e
       -0.03110892 -0.09225213 0.17604284 0.16946031
000080 a6 b6 42 bd 99 e7 10 be 79 2e 1f bd e2 68 06 bd
       -0.04753747 -0.14150847 -0.03886268 -0.032814868
000090 6c 3c 95 3d a0 e4 5c 3d 74 76 d2 bd f3 53 4b 3d
       0.07286915 0.05392897 -0.102764994 0.049640607
0000a0 c1 a5 98 3c bd 43 c5 bd 44 3f e7 bd 0b ae ec bd
       0.018633725 -0.09632061 -0.11291364 -0.115566336
0000b0 67 1f cc 3c 2d 2a 01 3e 62 18 f2 3d 8b 05 a6 bd
       0.024917318 0.12613745 0.11821057 -0.08106526
0000c0 60 46 d2 3b 41 8c f5 bc a2 70 16 3e 04 e4 4a 3d
       0.0064170808 -0.029974105 0.14691404 0.04953386
0000d0 dd b9 24 ba 66 5f 38 be 28 0d 0d 3d 74 eb e0 bd
       -0.00062837993 -0.18005142 0.034436375 -0.10982409
0000e0 c3 73 2c 3e 16 0d 20 3e 70 0e 07 bd 35 5c c1 3d
       0.16841035 0.15629992 -0.032972753 0.09441415
0000f0 b1 26 4a 3c db 74 0d be fc a3 15 bd af d1 14 3d
       0.012338326 -0.13814108 -0.03653334 0.036332782
000100 fa 00 94 bc 27 70 71 bd 66 d7 1e 3e de 82 85 3c
       -0.018066872 -0.058944847 0.15511855 0.016297754
000110 23 be db 3d b2 d2 c1 bd e4 06 68 bc 7b 16 2d 3d
       0.10729625 -0.09464015 -0.014161799 0.042257767
000120 7f f1 c8 3c 6d 56 7b bb e4 31 c9 bd 8c c5 fe 3d
       0.024529217 -0.0038351074 -0.09823969 0.12440023
000130 19 62 93 bd b1 96 6e 3d 4a 62 99 bd 1e 80 d9 3d
       -0.07196445 0.05824918 -0.0748945 0.106201395
000140 d3 48 22 bd 9a f0 63 3d 34 b9 14 3d 4e 23 10 bd
       -0.03962023 0.055649377 0.036309436 -0.03518992
000150 70 dd 21 3d a3 c0 c7 3d 9f 2b 08 be 23 92 11 3e
       0.03951782 0.097535394 -0.1329789 0.14215903
000160 eb 5a 82 bd 35 bd c5 bc 7e 36 36 be a3 cf 06 3e
       -0.063649975 -0.024138073 -0.17794225 0.13165145
000170 ef 13 8f bc b4 87 b9 3c 04 f4 b5 3d 93 fe 23 3d
       -0.01746556 0.022647716 0.08884433 0.040037703
000180 0a 3f 3f 3d ab a7 7d 3c f2 13 88 3d 84 e5 04 3c
       0.046690978 0.01548187 0.06644429 0.008111361
000190 ad 83 b0 3d a1 34 b2 3d 5f ca 15 3d a7 38 0e bd
       0.08618865 0.087014444 0.03656995 -0.034721997
0001a0 ba c8 03 bd bf aa cf bd d8 9b e1 bd ca 44 ca 3d
       -0.03217385 -0.10139989 -0.11016053 0.09876402
0001b0 a1 e7 c0 3a 9f 52 b3 3d 48 21 1d be a8 4e d0 3d
       0.0014717468 0.08755993 -0.15344727 0.101712525
0001c0 3a d4 31 3e bb 36 1c 3e 63 73 35 3d ac 35 6a 3d
       0.17366114 0.15255253 0.044299494 0.05718009
0001d0 bc 40 cb bd a9 87 64 be bc d7 be bc a3 3f 7f bd
       -0.099244565 -0.22317375 -0.02329623 -0.062316548
0001e0 0c ec 6b 3d 02 71 d9 bc 1b 6f 8c bd d8 8e b4 bd
       0.05759816 -0.026543144 -0.06857129 -0.08816308
0001f0 a6 76 04 3d 40 7f a3 bc d7 6c 9f bd c9 42 24 be
       0.032339714 -0.019958138 -0.077844314 -0.16041102
000200 81 20 df bb 66 ce b1 3d 9c 09 a9 bd 22 7c 87 bd
       -0.0068092947 0.086819455 -0.08253786 -0.06615473
000210 92 b9 76 3c 68 00 af 3d 59 24 50 3b 58 e0 23 be
       0.015058892 0.08544999 0.0031759946 -0.16003549
000220 8a 2f 72 bc 3e bc d7 3d 80 8d 0a be 12 98 c8 bd
       -0.014781842 0.10533951 -0.1353054 -0.0979463
000230 01 e5 04 3d 93 7f da bd f5 0f 38 3d f0 0d 8c bd
       0.032444958 -0.10668864 0.044937093 -0.06838596
000240 9b 72 bd 3d 08 f6 95 3d fb 56 ed bd f8 7e 76 bd
       0.09250375 0.07322317 -0.11588856 -0.06017968
000250 7c d1 0c bc 74 f7 ec bd 9f 66 a6 bd f3 37 0d be
       -0.008594867 -0.115706354 -0.08125042 -0.13790874
000260 d7 4f f5 3d 00 9b 4f 3d f1 67 c2 3d a4 da 70 bd
       0.11978119 0.05068493 0.094924815 -0.058802262
000270 b0 24 17 be 1b 29 87 3c bc 1b 81 bc eb 90 d2 bd
       -0.14760089 0.016499093 -0.015760295 -0.10281547
000280 b7 6d 7a bd 17 e2 67 bd 9c a6 29 bd 07 19 e8 bc
       -0.06113979 -0.0566121 -0.041418657 -0.028332246
000290 40 95 cb 3b 78 f3 59 be 24 2e 88 3d c8 a7 35 bd
       0.0062128603 -0.21284282 0.066494256 -0.04434946
0002a0 b2 b8 27 be dc 1b c6 bd af 18 87 bd 44 a7 ae 3d
       -0.1637905 -0.096732825 -0.06596505 0.08527997
0002b0 e9 bc d3 bd ca ea 7f bd e8 00 c5 3d 62 fd da 3c
       -0.10338766 -0.06247977 0.096193135 0.02673215
0002c0 ca 05 31 bd 7b 11 f8 3c 1a f1 ca bc 2f 34 ea 3c
       -0.04321841 0.030281773 -0.02477317 0.028589336
0002d0 6f 1c dc bd fc da 2e 3e b8 bf 3b bc af df 12 3e
       -0.10747611 0.17075723 -0.0114592835 0.14343141
0002e0 6e 9d 9f bd a8 37 7b bd d4 58 b8 bc b6 34 9c 3b
       -0.07793699 -0.061332375 -0.022503294 0.004767026
0002f0 ce 7b 55 bc 1e 23 09 3e 08 05 88 3d 0f bb 09 be
       -0.013030006 0.13392302 0.06641585 -0.13450263
000300 56 68 e7 3d e6 43 b7 bd d8 75 40 3e 61 34 e5 3d
       0.112991974 -0.089484975 0.18794954 0.11191631
000310 95 a0 88 3d 93 5c e4 3b 4f a5 fd 3d f8 93 48 3e
       0.066712536 0.0069690435 0.12385046 0.19587696
000320 35 a1 70 3b 53 0e 5c 3e b9 3b ab ba 5e 7a 99 3d
       0.003671718 0.2148984 -0.0013064063 0.07494043
000330 89 c5 34 bb 59 0c 96 3c 2e c9 1d 3d d8 f0 42 3d
       -0.002758356 0.018316435 0.038521938 0.047592968
000340 70 00 01 3e 07 6d e4 bb f8 26 44 bc 30 f7 bd bc
       0.12597823 -0.006971005 -0.0119721815 -0.023189157
000350 9a 2e b0 bd 60 99 d9 bd 13 0f 95 bd c2 15 9a bd
       -0.086026385 -0.10624957 -0.07278266 -0.07523681
000360 f8 c6 35 3e 2e 4e d9 3c 96 7d 22 3e c6 11 10 bd
       0.17751682 0.026526537 0.1586822 -0.0351732
000370 7c c6 35 3d 5e 14 92 bc 35 7b ff 3c 25 da bb 3d
       0.044378743 -0.017831977 0.03118668 0.09172467
000380 86 92 a6 3d 53 02 d3 3d 13 c5 a3 bc 01 3d 6a bd
       0.08133416 0.10303178 -0.019991433 -0.057187084
000390 7c e6 d1 3d 21 e4 19 3d 14 48 f4 bc 20 57 b8 bd
       0.102490395 0.037571076 -0.029819526 -0.09000993
0003a0 63 c8 6d bd 46 28 cf 3d 7e e3 69 bd 66 6e 41 be
       -0.05805243 0.101151034 -0.05710172 -0.1888977
0003b0 79 e8 17 be 1e d9 c5 bd a6 0c 3d 3e b2 bd 2f bc
       -0.14834775 -0.096605524 0.18461856 -0.010726379
0003c0 c3 11 7e be bb 65 e3 bc 44 78 81 3d 88 6d 9f 3d
       -0.24811463 -0.02775847 0.06321767 0.07784563
0003d0 0b 85 cb 3c 87 c3 e4 3c 8f 8e a4 3d 27 88 04 be
       0.024843713 0.027925266 0.080350034 -0.12942563
0003e0 9f 39 42 3e 86 8c 48 3d 86 00 2c bd 03 70 de 3c
       0.18967293 0.04896214 -0.041992687 0.02715302
0003f0 a5 49 20 bc 72 e1 14 bd 7c a0 15 3d 9f fd 50 3e
       -0.009783183 -0.036347814 0.036530003 0.20409249

layers.block_1.layer.0.bias f4 [128]
000000 50 08 c2 bd 3f ca ca 3d ff 9d 7b 3d a7 8f 87 3d
       -0.09474242 0.09901857 0.061429974 0.066191964
000010 6a 58 f3 3d 50 d5 42 bd 89 b8 be 3b 1b 1b c8 3c
       0.11882098 -0.047566712 0.005820338 0.024426987
000020 0e d0 52 bd 95 d2 3b 3d 24 f1 73 3a 69 77 54 bd
       -0.051467948 0.045855124 0.0009305647 -0.05187169
000030 ec d8 c9 3d 73 28 7b bd 9a c3 41 3d 4e 02 49 3d
       0.09855828 -0.061317872 0.04730568 0.049074464
000040 3e bf 7e bb c0 aa f1 bb ac 77 c6 bd 42 7b a0 bd
       -0.0038871313 -0.0073750913 -0.09690794 -0.078360096
000050 62 c7 4c 3d 18 f8 be bd fb 24 02 bd 47 0d b5 3c
       0.049994834 -0.09324664 -0.03177355 0.022101058
000060 f6 d8 76 3b 1b 5e 9c 3c 1f 22 f0 3c 4f ea e1 bc
       0.003766594 0.019087842 0.029313145 -0.027577547
000070 a7 35 97 bc f8 dc 70 bd d7 f9 1b 3c 6e 81 54 3d
       -0.0184582 -0.058804482 0.009520016 0.051881246
000080 6c 3c 4a bd 4c 21 4f bc d7 60 41 bd ba bf 29 bc
       -0.04937403 -0.012642216 -0.047211494 -0.010360653
000090 f9 3a e8 bd 75 29 a8 bc d9 cb 87 3d 82 5e bb bc
       -0.11339373 -0.02052758 0.06630678 -0.022872213
0000a0 5b 74 07 3d f9 97 d1 3c 16 18 bd 3d 9b 82 04 3c
       0.03306995 0.025585162 0.0923311 0.008087779
0000b0 6e 76 7a bd 91 cf b5 bd af cb a2 bc 18 d4 64 3d
       -0.0611481 -0.08877481 -0.019872515 0.05586633
0000c0 5f f2 2f 3c 1f 35 35 bb 21 d0 52 bd b7 da 8f bd
       0.010738938 -0.002765007 -0.05146802 -0.070241384
0000d0 10 8a ed 3d c4 1c e1 3d 17 4b 18 bd 5a ee e5 bc
       0.11598599 0.10991815 -0.037180986 -0.028067756
0000e0 96 9f d6 3c a5 d8 8c bd 74 6a 0a bd f5 c2 c0 bc
       0.026199143 -0.06877259 -0.033792928 -0.023530463
0000f0 f4 bd 8e 3d 52 d3 cb 3c 9e 29 93 3d c4 5d 34 bd
       0.069698244 0.024881039 0.07185672 -0.044034734
000100 d6 51 ea 3b f1 90 33 39 66 7e ed 3b 16 5f f9 bc
       0.007150869 0.00017124765 0.007247734 -0.030440848
000110 6f cf 4c 3c c2 dc de 3d bd ae a9 3d a6 f3 a4 bc
       0.012500628 0.1088195 0.08285282 -0.020135712
000120 86 9b a1 3d b6 86 a6 bd 9d 3f be bc 20 17 c9 bb
       0.07890992 -0.08131163 -0.023223693 -0.00613679
000130 27 35 b0 bd 7c 31 5b bd 5a eb 94 3d f4 d2 3c bd
       -0.08603888 -0.05351399 0.07271452 -0.046099618
000140 dc 51 06 bd fe cd 2b 3a d5 ca 0f 3d 59 b0 a4 3c
       -0.03279291 0.00065538276 0.035105545 0.02010362
000150 dd 6b c4 bc 25 dd 0c bd b2 cc 0e bb 30 6f 59 3d
       -0.023977214 -0.034390587 -0.0021789488 0.053084552
000160 f1 87 58 3d 4b 3f 20 3d ad 2f c8 3d d3 72 5f bd
       0.05286402 0.03912286 0.097747184 -0.054552864
000170 92 f4 2e bd 07 97 65 3d 95 b8 87 3d 35 14 2c 3d
       -0.04271371 0.056052234 0.06627003 0.04201146
000180 a0 51 1b bc 7c 55 33 bc 07 6d cd 3d 3e 7a a5 3d
       -0.00947991 -0.010945674 0.10030561 0.080799565
000190 6a f6 a3 3b 5d 22 aa bd 35 65 02 3e 7b f5 81 3c
       0.00500374 -0.083073355 0.1273392 0.015864125
0001a0 a5 f6 c4 bd dc a5 9a bd 87 f6 97 bd 5e e6 43 3b
       -0.09617356 -0.075511664 -0.07420068 0.0029891948
0001b0 c8 26 a0 bc 4f 48 9c 3c 43 bf 77 3c bf 06 79 bd
       -0.019549742 0.019077448 0.015121284 -0.06079745
0001c0 02 cc af bd 52 94 4a bd 6c 31 89 bd ee 18 99 bd
       -0.08583833 -0.049457856 -0.066988796 -0.07475458
0001d0 de e0 bc 3b 8e ef b0 bc 13 ae cf 3d 63 da 38 bd
       0.005764111 -0.021598604 0.10140624 -0.045130145
0001e0 68 a0 86 bd 25 29 81 bd ba e3 e6 3b cc 56 82 bd
       -0.06573564 -0.06306676 0.00704619 -0.063642114
0001f0 a9 b4 5e 3b 1f 46 77 3d 60 ef d4 3c f1 1a c5 3d
       0.0033982194 0.060369607 0.02599305 0.09624279

layers.block_2.layer.0.weight f4 [128, 128]
000000 7d 4f f0 3c 00 9a 07 be 7d 4d cb bd 99 53 af bc
       0.029334778 -0.1324234 -0.09926889 -0.021402167
000010 cc ed 39 3c 62 0b d8 bc 0f da 76 3d 29 a1 9a 3d
       0.011348199 -0.026372615 0.06026655 0.0755027
000020 95 f0 11 3e 12 8e f5 bd 81 ac d6 bc 5d 81 43 3d
       0.14251931 -0.119899884 -0.026205303 0.047730792
000030 1e 5e 97 3d 57 ac 99 3d 81 b6 81 bd 0b f6 41 3d
       0.07390998 0.07503574 -0.06333638 0.047353785
000040 07 49 87 bd 96 4a 17 bc 37 d4 a6 bc ae f8 76 3d
       -0.06605726 -0.009234091 -0.020364864 0.060295753
000050 be 9d 69 bd 5d d3 b1 3d aa 34 4d 3c 3c 5a ea bd
       -0.0570352 0.086828925 0.012524763 -0.11442992
000060 05 7a 75 3b 94 47 68 bd 82 45 ff bd d2 d2 cb 3d
       0.0037456763 -0.056708887 -0.124644294 0.0995232
000070 24 6b 1c 3c 50 ac 8e 3c ff 59 54 bd cc c3 b4 bd
       0.009547029 0.01741615 -0.05184364 -0.08826408
000080 94 35 fa 3c 40 de 35 bd de fb 2b bd ec 37 84 bd
       0.030543126 -0.044401407 -0.041988246 -0.06455979
000090 74 a8 81 bd c5 fc 05 bd 59 27 37 3d db 98 9d bd
       -0.06330958 -0.032711763 0.04471526 -0.076951705
0000a0 21 a6 99 bd 46 c8 25 3d 16 13 1d 3c 82 8d 62 bd
       -0.0750239 0.0404742 0.00958707 -0.055310734
0000b0 05 23 2a 3d 64 8d db 3c 96 f3 5a 3d ca e2 eb 3d
       0.041537303 0.026800819 0.053454958 0.11517866
0000c0 63 48 cb bd be 19 77 bb 95 ed 4d bc 86 56 96 3c
       -0.09925916 -0.0037704553 -0.012568851 0.018351804
0000d0 3b 67 a7 3d 6a 6c 84 bd 4e 62 0c bd 5d 64 a2 bc
       0.081739865 -0.06465991 -0.03427344 -0.019823248
0000e0 29 ab 1c be fd 97 2a bd 83 bb 98 3d e5 03 4c bc
       -0.15299667 -0.041648854 0.0745764 -0.0124521
0000f0 c8 b6 b9 bd 62 94 b0 bd cf 30 41 3c e0 40 94 3d
       -0.09068066 -0.08622052 0.011791422 0.072389364
000100 a8 f3 63 bd 71 f5 5f 3d ce d6 21 bd 84 ea 44 bb
       -0.05565229 0.05467743 -0.039511494 -0.0030047009
000110 82 11 35 3c e9 73 40 bc e8 54 d3 3b 4e a4 aa 3d
       0.0110515375 -0.011746385 0.0064493306 0.0833212
000120 ca 24 d1 bd bf 8d 21 3e eb aa 00 3e 1e e7 f6 bc
       -0.10212095 0.15776728 0.125652 -0.030139502
000130 3c dd 45 3d 53 22 cb bd cd 04 9a bd 2b 8d 92 3d
       0.04830669 -0.09918656 -0.07520447 0.07155832
000140 ec 50 da 3d c9 06 1e bc 0d f6 18 bd af 5e 5c bd
       0.10659966 -0.009645172 -0.037344027 -0.053801235
000150 5f a0 d4 bc 7c ea b5 bd da dc c4 bd 6c 0c 03 be
       -0.025955377 -0.08882615 -0.096124366 -0.12797707
000160 3a a0 c9 3d df a3 be bd 2d 93 03 3d 4e 15 c4 3c
       0.09845014 -0.093086 0.03212278 0.02393594
000170 8c c8 bb 3b f7 56 74 3d b9 4a 82 3d 7f 8a c0 bc
       0.005730694 0.05965325 0.063619085 -0.02350354
000180 7d 54 fc bd 9f 10 b7 bd 80 ec 8d 3d 40 8f 01 3d
       -0.12320802 -0.08938717 0.069298744 0.031630754
000190 42 71 38 bc 4e d1 0a bd 28 69 5f 3c c0 ba 12 bd
       -0.0112574715 -0.033891015 0.013635911 -0.03582263
0001a0 d1 ce 36 bd cd 38 bc bc 52 21 a9 bd 00 cf 70 3d
       -0.04463083 -0.022976303 -0.082583085 0.05879116
0001b0 91 a6 ee 3d ad 4a 68 bd 2d f6 8d bd ad 82 f7 bd
       0.11652864 -0.05671184 -0.0693172 -0.12085471
0001c0 f4 67 9c 3d 11 30 23 3d be ab fd bd 42 d0 73 3d
       0.07637015 0.03984076 -0.12386273 0.059524782
0001d0 28 62 f5 3c f7 81 33 bd 2f f8 00 3d 8d 25 92 3d
       0.029954031 -0.043825116 0.031486686 0.071360685
0001e0 61 f6 08 bd fe da a5 3d 3d e2 15 3d 38 d5 75 3d
       -0.03343809 0.0809841 0.03659271 0.060017794
0001f0 d9 61 40 bd ce cd 14 3d f9 6a 91 ba 13 1a 7f bb
       -0.046968315 0.036329083 -0.0011094502 -0.0038925454
000200 30 00 ba bd 3b 56 62 bd ae 55 80 3e cf 7d 26 bd
       -0.09082067 -0.055258017 0.25065368 -0.040647324
000210 7b e3 15 3d 0b fb 8f 3d 51 f4 1a 3d 8d cc 05 be
       0.036593895 0.070303045 0.037830655 -0.13066311
000220 e4 60 8b 3d 76 ac 74 3d 24 79 a2 bd dd f4 df bd
       0.0680559 0.059734784 -0.07933262 -0.10935376
000230 e8 58 32 bc 46 d8 e5 bc 93 b0 32 bb 91 2c b6 3d
       -0.010885455 -0.028057229 -0.002726589 0.08895219
000240 b8 ad 09 3e 18 5e 23 be c1 cf 24 3b 55 81 36 3c
       0.13445175 -0.15953863 0.0025148245 0.011139234
000250 81 3e 9d bc 7f 3c 9e 3c 4f 2d f4 3d f4 2b 96 3d
       -0.019194843 0.019315956 0.119227044 0.07332602
000260 44 5e be bd c8 af c6 bc 01 f4 ad 3c b9 1b 86 3c
       -0.092953235 -0.02425374 0.021234514 0.016370641
000270 c5 17 18 3e c6 3f 9a 3c 54 ce 98 3d 40 3d a5 bc
       0.14852817 0.018829238 0.07461229 -0.020170808
000280 b0 15 b8 3d 40 ef 15 3d f5 e5 07 3d 7c e0 cf bc
       0.089885116 0.03660512 0.03317829 -0.025375597
000290 89 f5 c1 bb d2 ef ff 3c 8d e4 8a 3d e4 ab 96 3b
       -0.0059191626 0.031242285 0.06781874 0.0045981277
0002a0 35 90 9a 3d 90 f1 92 bc 67 05 0a 3e 33 a0 9c bc
       0.075470366 -0.017937452 0.13478623 -0.019119358
0002b0 36 67 b5 3d 1d b6 ae bb b9 a8 00 3e 11 37 8b bd
       0.088575765 -0.005331768 0.12564363 -0.067976125
0002c0 58 8d c7 bd d5 8c 9d 3d a3 75 de bd 9b cc 23 be
       -0.09743756 0.07692877 -0.10862281 -0.1599602
0002d0 c6 13 df 3d b7 c3 33 3d 08 fc 0d 3b 4c 85 c7 bd
       0.10892443 0.04388782 0.0021665115 -0.09742221
0002e0 91 e2 b2 3d 18 b5 90 3c 2d 5f 9c 3c 90 a8 e3 3c
       0.0873462 0.017664477 0.019088352 0.027790338
0002f0 bd 03 14 3e 6b b3 7f 3d 03 cc cc 3d 60 1f d8 3a
       0.14454551 0.062426966 0.0999985 0.0016488843
000300 70 5e 7d 3b 4b 56 1f 3d 12 3f 07 bc 76 14 54 bd
       0.0038661025 0.038900655 -0.008254783 -0.051777326
000310 0b e3 9b 3d 5b 09 a8 3d 7a f5 c0 bc 96 eb 22 3d
       0.076116644 0.082049094 -0.023554552 0.039775454
000320 f0 32 a4 3a c4 90 69 ba 26 e9 04 be 05 a7 18 3e
       0.0012527388 -0.00089098164 -0.12979564 0.14907463
000330 1f ba a2 bc 52 7a a5 3c e7 9b 88 3d 33 4f 48 bc
       -0.01986414 0.020199928 0.06670361 -0.012225914
000340 73 20 f8 3c d9 76 ea 3c 57 ad c0 bd e7 ea a5 bd
       0.03028891 0.028621124 -0.09408062 -0.08101445
000350 5f 3b 9f 3c 69 a4 d5 3c c6 22 e9 bc ef 98 d7 3d
       0.01943749 0.026079373 -0.028458964 0.10527217
000360 83 95 06 be be 7d d7 3d 0a 6a 92 bd 95 99 f9 bb
       -0.13142972 0.1052203 -0.071491316 -0.0076171854
000370 69 7f 11 bd fa 31 85 bd 19 8a 06 be 26 d1 3c b9
       -0.0355219 -0.06503673 -0.13138618 -0.00018006991
000380 3f 00 db 3c 03 95 70 bc 7d bd 4f 3d 9c 83 23 bd
       0.026733516 -0.014683965 0.05071782 -0.039920434
000390 28 48 e1 3d d0 74 81 bb e6 3a 41 3d 97 ba 16 be
       0.11000091 -0.0039506927 0.04717531 -0.14719616
0003a0 87 68 d3 3c b9 e3 61 3d 79 d1 80 3d a9 1c 1e bd
       0.025806678 0.055148814 0.06289954 -0.03860155
0003b0 b0 8a ca bc 54 e7 b0 bd 9a 52 ed 3c 35 cf ed 3d
       -0.024724334 -0.08637872 0.028970052 0.11611787
0003c0 d1 a9 13 bd fc 8c e3 3c de 92 3e bd 2b 35 77 bc
       -0.03605062 0.027777188 -0.046526782 -0.01508836
0003d0 67 69 00 be e3 e9 0d 3c 17 79 03 be ca d2 92 3d
       -0.12540208 0.00866172 -0.12839161 0.07169111
0003e0 4c b9 c1 3c 3d 95 f0 bd ca 85 e7 bd 05 ba 83 bd
       0.023647927 -0.11747215 -0.11304815 -0.06431965
0003f0 7e 2a f1 3c 7d 16 d5 3d 91 9f e4 3d 19 12 1e 3d
       0.029439207 0.1040468 0.111632474 0.038591478

layers.block_2.layer.0.bias f4 [128]
000000 81 bb 10 bd 88 e5 d2 bc f8 10 91 bd f5 59 69 3d
       -0.035335068 -0.025744215 -0.07083315 0.056970555
000010 b8 17 9c bd 75 da b0 3d 69 c5 60 bd 05 58 58 3d
       -0.076217115 0.08635417 -0.054875765 0.052818317
000020 3c 3c 8f 3d 0c d0 a4 3d c9 7b d3 3b f1 4f b1 3c
       0.06993911 0.08047494 0.0064539653 0.021644564
000030 1a b0 ee 3c 5f b9 be 3c 65 93 60 bd 65 43 db 3c
       0.029136706 0.023281751 -0.054828066 0.026765535
000040 aa 6a 2c 3d 25 00 60 bd 13 2a 1a bd 85 2b 81 3d
       0.04209391 -0.054687638 -0.03763778 0.06307129
000050 4c 27 8c bd 26 5a 08 3d 04 9a 0d 3d 2d 8a 9f 3d
       -0.06843433 0.033289097 0.03457071 0.07790027
000060 6a 77 34 bd 18 a4 88 3d b3 2b 5a 3c 11 04 2c 3c
       -0.044059195 0.066719234 0.013316083 0.010499016
000070 1d ad c8 3d c1 f1 9b bc 24 e2 9b bc 5d a7 92 3c
       0.09798644 -0.019036176 -0.01902873 0.01790207
000080 a7 69 a8 3c a3 26 f2 3c 10 c1 00 3e a8 b1 91 3d
       0.020558191 0.029559439 0.12573647 0.07113963
000090 bd c1 46 bd 8d 2f c2 bb cd 51 aa 3d 37 b0 7e bd
       -0.048524607 -0.0059260787 0.083163835 -0.06217977
0000a0 fb a9 39 3d 47 2b 96 3d 1b 2b 56 3c 5e a1 a9 bd
       0.04532812 0.07332473 0.013071801 -0.082827315
0000b0 ac 0e fc bb ff 89 87 bd d6 51 d1 bc 12 3f 62 3d
       -0.0076921787 -0.066181175 -0.025551718 0.05523593
0000c0 5c 00 73 3d 3e c4 b7 3c 4e 6f 4c 3d c9 02 79 bd
       0.059326515 0.022432443 0.049910836 -0.06079367
0000d0 9b 1c 67 3c 02 2f 79 bc 71 22 28 bd b8 4e 89 bd
       0.014105941 -0.015208961 -0.04104847 -0.067044675
0000e0 21 b0 9e bd 93 d9 bd 3c aa 88 ae bb 29 d5 96 3d
       -0.07748438 0.023175037 -0.00532635 0.07364876
0000f0 9e 3c 4f ba 18 64 07 3d 61 98 04 3c 4a d8 1c bc
       -0.0007905456 0.03305444 0.008092971 -0.009573052
000100 e4 41 42 3d 3e 79 aa bb 3d 86 6d 3d 5f ee 37 bd
       0.04742612 -0.0052024415 0.057989348 -0.044905063
000110 91 03 f7 3c 9b 39 ed 3c 02 31 9a bd 7e d4 8d bb
       0.030153068 0.028958132 -0.07528879 -0.0043283096
000120 2f 66 15 bd 80 55 fc 3b 4e 9a e7 bd 37 c3 ba bd
       -0.036474403 0.007700622 -0.11308728 -0.091192655
000130 36 62 cb bd 00 7e 80 bd 73 fa 94 3d db 33 82 3d
       -0.099308416 -0.062740326 0.07274332 0.06357547
000140 c8 3d b3 bc f3 b6 9a 3d f4 a3 c6 3c bc 84 02 bd
       -0.021880046 0.07554426 0.0242481 -0.031864867
000150 0d 5a f1 bd 60 ed 85 3d 5f 3e 64 3d 7c 34 d9 bc
       -0.11784754 0.06539416 0.055723544 -0.026514284
000160 71 79 6e 3c 81 2c eb 3c c5 51 86 bb 5e 84 1e 3d
       0.014555321 0.028707745 -0.004099103 0.038700454
000170 b4 45 a8 bd cf 24 ce 3c c6 07 be 3d 25 80 54 bc
       -0.0821642 0.025164036 0.092788264 -0.012970005
000180 64 cb 9b bd 48 5b d3 3d b3 8c c1 3d d5 85 99 bc
       -0.07607153 0.10320145 0.09450664 -0.018740574
000190 06 db 5a bd 64 96 dd 3c 66 c3 a8 bd 45 ed 9a 3d
       -0.053431533 0.02704925 -0.08240394 0.07564787
0001a0 dd 85 2f bd 1d f8 4a bd 0d 6d 81 3d b6 d2 86 bd
       -0.04285227 -0.049553026 0.06319628 -0.06583159
0001b0 2b 6c 3c bd 0f 07 98 bd 4f 1a f2 bc aa 12 05 3c
       -0.046001595 -0.07423221 -0.02955356 0.008122126
0001c0 51 55 ec bd d4 d7 e9 bc 2e 7c e7 bc 7a 68 d3 3c
       -0.1153971 -0.028545298 -0.028257456 0.025806654
0001d0 e8 3a 91 3d be ae a8 bd c8 4b 91 bd f1 14 e1 3c
       0.070913136 -0.082364544 -0.07094532 0.027475806
0001e0 67 6e a6 3d e0 46 1e 3d cd c7 47 bc c0 cf a7 bd
       0.08126526 0.03864181 -0.012193632 -0.08193922
0001f0 ad 54 3f 3d 55 18 fb bc 10 a9 dd bd f4 12 8b 3d
       0.046711612 -0.03065125 -0.10823262 0.067907244

layers.block_3.layer.0.weight f4 [128, 128]
000000 4e 7f 0a be 0b 3d 34 3d a8 45 b3 3d 44 6f 09 bd
       -0.13525125 0.044003528 0.0875352 -0.033553377
000010 38 bb 82 bb 2d 46 aa bd 7a ef 8e bb d9 de 0a be
       -0.0039896034 -0.08314166 -0.004362044 -0.13561572
000020 d3 47 ea 3d 05 fb 05 bd 1a 97 93 bd 2e 5c ee 3d
       0.11439481 -0.032710094 -0.07206555 0.11638676
000030 7e c0 80 3c 18 f9 51 bd 55 2d 8c 3c f4 36 74 3d
       0.015716787 -0.051262945 0.01711146 0.05962272
000040 1e f9 c8 bb c6 4e 91 3d 5c a1 e4 3d 20 e3 01 be
       -0.0061332127 0.07095103 0.11163589 -0.12684298
000050 0d 81 87 bc 5b 40 a6 3d 7a 75 95 bc 2a c7 9e 3c
       -0.016541028 0.081177436 -0.018244494 0.019382078
000060 53 89 b7 3b e8 b4 ed 3d b6 79 11 3c 7c b2 65 3d
       0.005601087 0.11606771 0.008879116 0.05607842
000070 2c ee c0 bd 6f 59 b2 bd 28 99 f2 bb da e4 c1 3d
       -0.09420428 -0.08708464 -0.0074035116 0.09467478
000080 54 a5 15 3d cd bc 4b 3d 8b 1d a5 3d 9d 3e c6 bc
       0.036534622 0.0497406 0.080622755 -0.024199778
000090 5a db b1 bd 71 74 c0 3d 1d 14 1d bd 50 fd d5 3d
       -0.08684416 0.093972094 -0.03834926 0.10448706
0000a0 5d 19 96 3c cc 45 66 bd 92 ad 34 3c f5 4d ba 3c
       0.018322641 -0.056218907 0.0110277105 0.022742251
0000b0 c4 0a 44 bd b7 f0 b7 bc a5 5d 79 3d 02 03 ac bd
       -0.04786183 -0.022453649 0.060880322 -0.08399011
0000c0 c7 00 8b 3d c9 a8 28 3c 47 c0 eb bc 8f bf 04 bd
       0.06787258 0.010294148 -0.028778208 -0.032409247
0000d0 78 29 8b bd 92 e2 a4 bd 41 0d c1 bd 0c b5 55 3d
       -0.06795019 -0.08051027 -0.09426356 0.052174613
0000e0 25 29 83 3b 4f 7c 1c 3d cf 1c 26 3d ec 77 b9 3d
       0.0040027075 0.038204487 0.040554818 0.090560764
0000f0 cc ad 06 bd 37 cf 11 3d 30 9a fe 3d a3 b9 82 bd
       -0.03288059 0.035598006 0.12431753 -0.06383064
000100 1d 3a cc bd 82 63 6f bd a4 96 81 bd d0 e8 5c 3c
       -0.09972022 -0.058444507 -0.063275605 0.013483241
000110 69 6a 6e 3d 87 2c 4a 3c bb 1e a0 3a 2f 2b a0 3d
       0.05820695 0.012339718 0.001221619 0.078207366
000120 54 dd 87 bd 00 cf 52 bd 8e e9 f8 3b 21 b0 19 3e
       -0.06634012 -0.05146694 0.0075962013 0.15008594
000130 30 b0 27 bd 42 6c 82 3d 95 d1 74 3d 6b b9 3c bd
       -0.04093951 0.06368305 0.059770186 -0.046075266
000140 bf 0f 85 bd 80 7f 32 bc 03 8b ff bd 0f 97 b2 3b
       -0.06497144 -0.010894656 -0.12477686 0.0054501365
000150 04 3d 6d 3d 25 66 10 3e 49 8d 18 be 2b b7 de bd
       0.057919517 0.14101465 -0.14897646 -0.1087478
000160 08 c3 68 3c 01 75 3d 3d 5a aa 19 3d 84 2c 7c bd
       0.014206655 0.04625416 0.037515976 -0.06156589
000170 44 57 28 bd 46 0c 07 be 10 d5 bd bd 3e 00 cd 3d
       -0.041098848 -0.13188276 -0.09269154 0.10009812
000180 9c 36 d3 3d a9 63 66 3d 8e 87 98 3d 94 c7 ba bd
       0.1031315 0.056247387 0.0744773 -0.09120098
000190 5c d6 67 3d fb e8 a0 3c 16 82 e9 bc b6 0b 98 bd
       0.056600913 0.019642344 -0.028504413 -0.07424109
0001a0 78 23 2d 3e e3 e9 cd bd ce 83 11 bd 36 c1 66 bc
       0.16908062 -0.10054376 -0.03552609 -0.014084151
0001b0 75 4c 03 3d be 5a da bc 5d 14 00 3d 5b 08 3c 3c
       0.032055337 -0.026654597 0.03126942 0.0114766015
0001c0 7a 7e 54 3d 52 de 27 bd 91 72 52 bd 0f 2f a2 3d
       0.05187843 -0.040983506 -0.05137879 0.07919132
0001d0 49 48 5a bd b4 fb 5c 3c 6d 66 eb 3d f9 ba 26 be
       -0.053291593 0.013487745 0.114941455 -0.16282262
0001e0 0c 70 f1 3d 73 24 38 bd 26 3e 08 bd 92 92 8c bd
       0.11788949 -0.044956636 -0.033262394 -0.068638936
0001f0 d1 ef 8c bd 72 64 c2 bd 8e 9c cb bd 1b c9 21 bd
       -0.06881679 -0.09491815 -0.0994197 -0.03949843
000200 8d d5 bd 3d 39 08 a4 bd 11 f5 81 3d 3d b4 3f bd
       0.09269247 -0.08009381 0.06345571 -0.046802748
000210 e3 92 15 bc 1c 04 5e 3d 65 9d fc bc f1 f7 0d bc
       -0.009129259 0.054203138 -0.03083677 -0.008665071
000220 ea 17 a7 3d b4 52 bf 3d f1 4e 01 be 34 5c 8a 3d
       0.08158858 0.09341946 -0.1262777 0.067558676
000230 5a f1 fb 3d 71 b1 ae bb 21 a4 93 3c 6c d0 d0 3c
       0.123018935 -0.0053312113 0.018022599 0.025490008
000240 4d 99 0e be 98 72 95 3d 3c 6d d4 3d b7 60 8d bc
       -0.13925667 0.07297248 0.10372397 -0.017258031
000250 d4 b4 d8 3d b2 0c 92 3b 4d 4a 7c 3d df aa 73 bd
       0.10581365 0.00445708 0.061594296 -0.059489127
000260 b6 d3 e8 bd 60 49 c8 bb 79 81 0c bd 68 d1 04 bd
       -0.11368506 -0.0061122626 -0.034303162 -0.032426268
000270 ee 42 77 3c fd 57 f9 3d 71 ed 08 3d 7e 8f 67 3d
       0.015091641 0.121749856 0.033429567 0.05653333
000280 0d 6d 3f 3b 99 59 43 3d 90 59 0c ba 6e ad 68 3d
       0.0029209286 0.04769287 -0.0005353922 0.05680602
000290 ca e3 f0 bc f2 22 16 3e 44 87 19 bd 63 91 9a bd
       -0.029405493 0.14661768 -0.037482515 -0.075472616
0002a0 31 3b d1 3c 98 b8 05 3d b5 43 88 3c ae e6 17 3e
       0.02554092 0.032646745 0.016633848 0.14834091
0002b0 29 13 a1 bd ed 15 8c 3d 10 6e 01 3d 4d ce c3 bd
       -0.07864983 0.068401195 0.031599104 -0.09560833
0002c0 22 2a 4b 3d 72 70 a2 3c 6a 7e c4 bc 2e 3e 87 3d
       0.049600728 0.019829009 -0.02398606 0.06603657
0002d0 43 4c 0f bd f8 88 96 bd 8e a6 a1 3d 70 f1 57 bd
       -0.03498484 -0.073503435 0.07893096 -0.052720487
0002e0 db 22 2e 3d 62 e2 8a 3d 4d d5 78 bd b0 af fc 3c
       0.04251371 0.0678146 -0.060750294 0.030845493
0002f0 fd 0c f2 bc d6 27 24 3c 1f 49 ed 3b 26 5d d1 bc
       -0.029547209 0.010019263 0.0072413827 -0.025557112
000300 ae 3a f8 bd f4 8e a4 bc 44 b0 c5 bc 21 d6 17 3d
       -0.12120567 -0.020087697 -0.024131902 0.037069444
000310 97 77 c3 bc ef c5 a4 bc f3 d6 a5 bd df 99 2e bd
       -0.023860736 -0.020113913 -0.08097639 -0.04262721
000320 80 9d 18 bb 1f 24 84 bc ba dc 1e 3d d7 87 1a 3d
       -0.0023287237 -0.016130505 0.03878472 0.037727203
000330 d4 aa 80 39 f4 2e e4 bd 8c e4 1f bd ca c2 fb bc
       0.0002454134 -0.11141768 -0.03903632 -0.030732531
000340 3d 57 2a bd a9 0d 3f bc 28 0d bc bd 4d ac 58 bd
       -0.041587103 -0.011660972 -0.09182197 -0.052898694
000350 d1 a5 f5 3c fb 71 37 bd 65 23 b6 bc 77 a7 4e be
       0.029986294 -0.044786435 -0.022233674 -0.2018107
000360 9f a7 f6 3c f7 65 85 bd 78 f7 49 3d 5f c5 0f bd
       0.030109225 -0.06513589 0.04930827 -0.035100337
000370 39 0a ce 3b 53 f3 96 bd a4 ed 8a bd 6f 3d a5 bd
       0.0062878397 -0.07370629 -0.067836076 -0.08068358
000380 ce 2c 05 3e 8a 0b 64 bc 62 20 f7 bc 6f d7 66 bd
       0.13005373 -0.013918767 -0.030166809 -0.056357797
000390 28 01 d1 3d 07 e3 d3 bc da d3 bc bb 3b cc 8d bd
       0.10205299 -0.025865091 -0.0057625594 -0.069237195
0003a0 4a f0 d2 3d 0d fe 57 bb d0 30 23 3e b8 7e bd bd
       0.10299738 -0.0032957823 0.15936589 -0.09252685
0003b0 be 1c 0b 3e 47 45 20 3b b5 4b 48 bd 51 96 49 bd
       0.13585183 0.0024455355 -0.048900325 -0.04921562
0003c0 b0 7b 67 3d 6a af ac bc 41 7a df bd 7b 19 56 bd
       0.056514442 -0.021079738 -0.1091199 -0.052270394
0003d0 eb ef 06 3d 9e 84 d6 bd 8e d6 58 3d 4d 8a ef bd
       0.032943647 -0.104745135 0.05293899 -0.11696301
0003e0 de 7f de 3d f3 e7 15 be b5 c2 7a bc 9f 71 48 bd
       0.108642325 -0.14639263 -0.015305211 -0.048936483
0003f0 0f 9d d9 3d 03 8b 54 bd c0 c5 7b bd 0c 8a 10 3c
       0.1062566 -0.051890384 -0.061467886 0.008821975

layers.block_3.layer.0.bias f4 [128]
000000 6a ca 83 3c 2a bb 94 bd 4d f5 a9 3d ea 38 8a bd
       0.01608773 -0.07262261 0.082987405 -0.06749137
000010 41 5c 9a 3d ad be 97 bc 24 a1 55 3d de 8b 5c bd
       0.07537127 -0.018523538 0.05215563 -0.053844325
000020 00 97 15 ba f7 43 21 bd 95 38 92 3b 41 07 d8 3c
       -0.00057063997 -0.039371457 0.0044623115 0.026370646
000030 a3 f5 9b 3d 26 7a 18 3d 7b d7 3d bd 0d 73 fd bc
       0.07615211 0.037225865 -0.046348076 -0.03093865
000040 a1 19 8f bd 1d d0 0f bd e5 21 fb bb 32 ba 90 3b
       -0.0698731 -0.03511058 -0.0076639527 0.0044167275
000050 7f bc c6 bc d3 0c a4 3d f0 d1 c2 3c 6e 28 41 bc
       -0.024259804 0.080102585 0.023781747 -0.011789424
000060 ec 96 8d bd f9 38 92 bd 2e 67 c8 3d 2d c9 c4 3c
       -0.06913552 -0.07139773 0.09785305 0.02402171
000070 d3 09 e7 3c f2 55 9a 3d 5e 6b 37 3d c7 49 fd bc
       0.028202927 0.07535924 0.044780128 -0.030918969
000080 74 32 38 bd 3a 42 07 3d 9f 73 a3 3d 43 97 a5 bd
       -0.04496999 0.033022143 0.07981037 -0.080854915
000090 10 9c d7 bb 5d f1 3e bd 54 64 bc bd 4d ff 94 3d
       -0.0065798834 -0.0466169 -0.091988236 0.07275257
0000a0 f4 79 3f 3d d9 cf 3f bc ff aa f3 3c 5e 1f 8c bd
       0.046747163 -0.01170727 0.029744623 -0.0684192
0000b0 86 99 9e 3d 58 72 c5 3c 53 8e 86 3d 23 26 13 3c
       0.07744126 0.024102375 0.06570115 0.0089812605
0000c0 a7 61 a5 bd 09 ce 00 3d 43 e5 98 bd 00 c5 46 bd
       -0.08075266 0.03144649 -0.07465603 -0.048527718
0000d0 72 7a fe 3c ab c7 4e bd ee 2e b9 3d b4 92 90 3d
       0.031064246 -0.050483387 0.09042154 0.070592314
0000e0 0a eb 17 3d c8 37 b2 3c 7c 41 85 3d ac 51 29 bd
       0.037089385 0.021755114 0.06506631 -0.041337654
0000f0 35 a4 a6 bd af 48 51 3c 02 18 2f 3c 0d 26 e2 bc
       -0.08136789 0.012773677 0.010686876 -0.027606035
000100 dc 91 3b 3d ac a9 6f bd 26 a8 7a 3d 87 27 9f 3d
       0.0457934 -0.05851142 0.061195515 0.07771211
000110 b6 a5 86 bd 55 dd 28 3d 98 d5 02 3d d7 97 78 bd
       -0.065745756 0.041226704 0.03194198 -0.06069168
000120 72 1b e2 3b 9d a0 68 3d dd 63 95 bc 7d 9e df 3c
       0.0069002444 0.056793798 -0.018236095 0.027297253
000130 29 81 65 bd c8 5b 0b bd ca c7 3f 3d ee 7c 4c 3d
       -0.05603138 -0.034023076 0.046821393 0.04992383
000140 b1 b0 82 bd 9e eb ac 3c 94 83 bb 3d fd ec 99 bd
       -0.063813575 0.021108445 0.09155956 -0.07515905
000150 5d 2f 18 3d b9 e6 e9 3c 08 c3 0a bd 41 76 35 bd
       0.037154544 0.0285524 -0.033877403 -0.04430223
000160 19 7c b7 bd a0 93 83 bd d5 bf 42 bc 76 86 43 bb
       -0.089592166 -0.064246416 -0.011886557 -0.0029834784
000170 9f 1b 70 3d 3d f6 12 bc 9c 11 25 3c fa 92 3c 3d
       0.05862009 -0.008969841 0.010074999 0.046038605
000180 82 b4 79 3d 84 b6 5b ba fe db 28 3d 92 99 60 3a
       0.06096316 -0.0008381384 0.041225426 0.00085678056
000190 e4 4a 7d 3c 3e ac 1e 3b bf 90 e4 bd ee 5d 52 bc
       0.01545975 0.002421155 -0.111604206 -0.012839777
0001a0 24 13 42 bc fa f6 32 bd d1 39 8c bc a7 00 0c bd
       -0.011845384 -0.043692566 -0.017117413 -0.03418031
0001b0 49 4e fd bc b0 01 b6 3d 16 cb a4 3d fe 5d ac 3d
       -0.030921118 0.088870406 0.08046548 0.08416365
0001c0 4b 27 a6 bd 04 e9 a9 3b 43 f2 ad 3b 9c e3 54 bd
       -0.08112963 0.0051852483 0.005308421 -0.051974878
0001d0 0f 3d ff bc 43 cc c7 bb ba 71 ca bd c3 43 61 bc
       -0.031157045 -0.006097348 -0.09884973 -0.013749066
0001e0 aa 50 1d bc f7 f9 05 3d 36 c4 66 3d 26 3a 96 bd
       -0.009601751 0.03270909 0.056339465 -0.0733531
0001f0 76 35 79 bd 1b 45 93 3d 12 c4 e5 bd 78 58 0c bd
       -0.060842 0.07190915 -0.11219038 -0.034264058

layers.output.weight f4 [2, 128]
000000 dd 3e ee bd d9 88 2b 3d 0c 48 be bd 0f a4 0a bd
       -0.11633084 0.041878555 -0.092910856 -0.033847865
000010 7c c2 33 3a cc d3 31 3f df 0c f9 bd a5 6b 59 bd
       0.00068572885 0.694638 -0.12160658 -0.053081173
000020 44 f4 39 be fd d7 96 3e a5 d9 ca bd b5 aa 33 bf
       -0.18159586 0.2946166 -0.09904794 -0.70182353
000030 a1 f0 af 3e 0d c8 7e 3e e5 ff 25 3f f7 8c 3d be
       0.34363273 0.24881001 0.6484359 -0.18510805
000040 36 6c 00 3d 52 2f 22 bf 18 29 17 be 92 47 c7 bd
       0.031353198 -0.63353455 -0.1476177 -0.09730448
000050 96 41 2d 3f cb 01 a6 3d fc a4 01 bf 15 4e 81 bc
       0.676782 0.08105811 -0.5064237 -0.015784303
000060 4d ce 15 3f 64 1e 24 3e 1e 09 ec be b1 b9 d8 3e
       0.58517915 0.16027218 -0.46100706 0.4232917
000070 80 ae c1 3e 7d a5 e3 3d f4 c5 0b be 23 85 51 be
       0.37828445 0.11115549 -0.13649732 -0.20460944
000080 f9 2d 4d 3f 64 5c 7c 3f bc 70 f2 be 3e 89 26 3d
       0.80148274 0.98578477 -0.47351635 0.040658228
000090 6a b5 00 bf d8 7f 5d be 68 d9 09 3e b3 16 38 3e
       -0.50276816 -0.216308 0.1346184 0.17977409
0000a0 15 f3 c3 be b1 40 34 3c 4c 57 cf 3d 6a 36 30 3f
       -0.38271394 0.011001752 0.101240724 0.6883303
0000b0 84 c0 83 3e 1f c5 1c be e0 cd 58 bf b3 ca 5f 3e
       0.25732815 -0.1530957 -0.8468914 0.21854667
0000c0 96 62 15 bf 61 6d 22 bf 6f ce 1d 3e 28 50 94 bd
       -0.58353555 -0.6344815 0.1541078 -0.07241851
0000d0 63 30 11 bc 3e 99 62 bc ac 0f 5a 3b 4b d0 7b 3f
       -0.008861634 -0.013830481 0.0033273501 0.98364705
0000e0 83 46 8b bf a8 14 ea 3d e2 e6 94 3d f6 bf b5 3d
       -1.0880893 0.11429721 0.072706 0.08874504
0000f0 cc 2f 56 3e 44 c8 9f bc af 68 1a be 2c fe 8c 3d
       0.2091667 -0.019504674 -0.15078996 0.06884417
000100 63 40 9b 3e fd 27 79 3d 20 f4 8c 3e e4 a7 65 bd
       0.3032256 0.06082915 0.27530003 -0.056068316
000110 00 c3 84 bc 22 62 20 be e6 df bd bd dd 0c 04 be
       -0.016206264 -0.15662435 -0.09271221 -0.12895532
000120 f6 08 b6 3e fb a9 e6 bd da b9 fb bc 4c 5d 86 bd
       0.35553712 -0.1126289 -0.03072827 -0.06560764
000130 79 c5 d1 3d df 1d b8 3d 7a 68 e1 bc 0d b2 0d bf
       0.10242743 0.089900725 -0.027515639 -0.5534981
000140 bb 42 1f be 1c 51 77 3d e2 bf 73 3b 42 28 4d 3e
       -0.155528 0.060380086 0.0037193228 0.20034888
000150 39 2a d6 bd 04 03 55 bd 77 a9 5f 3f 41 1b 3c 3f
       -0.10457272 -0.05200483 0.8736796 0.73479086
000160 4c dd 4a 3f 6f 5c 9d be e6 11 4f bf 84 d7 68 bf
       0.7924392 -0.30734584 -0.80886686 -0.9095385
000170 ca 0b 7a 3e a7 8d 24 3d 96 34 c1 3e 37 96 c5 3d
       0.2441856 0.040174153 0.37735432 0.09647792
000180 12 f6 d9 bd 6c a8 41 3e cb 7a 4b 3d 3a d3 1d bf
       -0.10642637 0.18911904 0.04967765 -0.6165043
000190 7d 80 14 be 82 83 17 bf 82 39 24 bf dd 1c 06 3e
       -0.1450214 -0.5918504 -0.6415025 0.13096948
0001a0 48 23 d8 bd f1 64 1e be 93 54 ea bd 9d bd 87 bd
       -0.10553604 -0.15468194 -0.114419125 -0.06627963
0001b0 1d c7 5e bd 65 c2 b2 bd ad 01 67 3e 6a db 1a bf
       -0.054389108 -0.08728484 0.22559233 -0.6049105
0001c0 f4 eb 27 3d ae 4f 1a be 95 7f 23 3f 0b 2a dc 3c
       0.040996507 -0.15069458 0.6386655 0.026875516
0001d0 47 b9 3f bd a9 d3 d9 3e c5 c6 9d be 03 c6 68 bd
       -0.046807554 0.42544296 -0.30815712 -0.056829464
0001e0 18 2e 35 3e d7 b1 a1 be 35 88 fa bc 82 16 18 3f
       0.17693365 -0.31580994 -0.030582527 0.59409344
0001f0 58 22 03 be 56 72 70 be 8c 1c fa bc 01 e6 91 be
       -0.1280607 -0.23481116 -0.03053119 -0.28495792
000200 0e ec 2a be d8 bb 9c be 9f 6e 09 be 6a ac 63 3e
       -0.1669161 -0.30612063 -0.13421105 0.2223374
000210 3f af a4 be d2 a7 03 3e a8 28 9e 3e 04 c1 ef bd
       -0.32164952 0.12856987 0.30890393 -0.11706737
000220 4a 63 35 bf e0 53 b9 bc 3d fc 34 be 8e 9c 18 3f
       -0.7085463 -0.022623003 -0.17674346 0.59613883
000230 ba 84 f1 3d 2d 04 1d bf 95 c8 9c bc 00 67 d8 3e
       0.11792894 -0.61334497 -0.019138614 0.42266083
000240 ae 51 40 3e 9e a5 1b 3f 34 3b 22 be d1 94 98 bd
       0.18781158 0.60799587 -0.15842897 -0.074502595
000250 cb 5e d1 be 1a 07 49 be 76 7b 9f be f9 76 b5 3d
       -0.40892634 -0.19631615 -0.3114888 0.08860583
000260 cc df 20 bf 0a 3d aa 3d 7e 4d 03 3f ab 28 d7 be
       -0.62841487 0.083124235 0.5129012 -0.42023215
000270 71 eb 12 bf 23 a9 c2 3d 04 3f df be 4a 79 08 3f
       -0.57390505 0.095049165 -0.43602765 0.5331007
000280 0c 5a a5 bd da d8 ac be a8 87 2c 3f 18 43 a8 be
       -0.08073816 -0.33759195 0.67394495 -0.32863688
000290 b2 09 17 3f 33 04 8c 3e f6 41 fa 3d 75 be e3 bd
       0.5899917 0.27346954 0.12219612 -0.11120311
0002a0 51 94 8b 3e 10 f8 43 bd 0d c9 37 3e 82 bb 82 bd
       0.27261594 -0.047843993 0.17947789 -0.063834205
0002b0 4c 19 da bd 49 31 88 be ae 9f 9a 3d d4 c7 e9 3d
       -0.10649356 -0.26600102 0.07549988 0.11415067
0002c0 5b a6 d0 3d a9 e7 f4 be 5d 04 6b 3e f4 4c 62 be
       0.1018798 -0.47832993 0.22950883 -0.22099668
0002d0 04 29 7f be 0d 54 19 bd ee c6 87 be 7f 55 86 be
       -0.2491799 -0.037433673 -0.2651896 -0.26237103
0002e0 22 7c 71 bd cd e6 3f 3e ca 46 a3 be 46 56 19 3e
       -0.058956273 0.18740387 -0.31889945 0.14974317
0002f0 82 8e 91 be 83 9f a4 bc e8 24 47 bd 02 16 6c 3e
       -0.28429037 -0.020095592 -0.04861918 0.2305527
000300 d0 9f c7 be 3b bb 01 3e 14 e9 1f 3e 37 7d a3 3d
       -0.38989115 0.12669079 0.15616256 0.07982867
000310 67 b9 52 be 13 98 2c be 61 d3 32 bd 4a 9d 5e 3d
       -0.20578538 -0.16854887 -0.043658618 0.05434922
000320 ca 45 77 bd a9 e3 3e be 3f 65 a2 be 68 76 a1 3e
       -0.06036929 -0.18641533 -0.3171787 0.3153565
000330 53 e2 7c be 7d b3 0f bd 5a a6 8e be 48 29 26 3f
       -0.24695711 -0.035083283 -0.2786129 0.6490674
000340 6d 4b b2 bd ce f3 44 3e e8 58 28 3e c4 cf 8e be
       -0.087057926 0.19233629 0.16440165 -0.27892888
000350 66 2a 9a 3d cc 21 1a 3f 52 54 9d bd 27 8f 96 bd
       0.07527618 0.6020782 -0.076820984 -0.07351523
000360 57 13 f8 be d6 60 06 be 6e 38 27 3e 33 c5 d1 bd
       -0.48452255 -0.13122877 0.1633012 -0.10242691
000370 cc 33 05 3e fb 94 14 3e 87 cd 31 3e ab de 3a 3e
       0.1300804 0.14509957 0.17363559 0.18249004
000380 33 82 67 be 23 66 0e 3e d7 b1 36 3d fb e1 08 3e
       -0.22608261 0.1390615 0.044603195 0.13367455
000390 16 ad 18 3f 71 3f 01 3e f5 12 a6 3e a7 98 25 3d
       0.5963911 0.12621857 0.32436338 0.040428784
0003a0 dd 74 b6 3e 4b da 0c be 6c 12 96 bd 93 85 7c 3e
       0.35636035 -0.13755147 -0.073277324 0.2466033
0003b0 fa de e8 bd c8 73 5e be 94 ab 3b 3e b4 31 12 3f
       -0.113706544 -0.21723855 0.1832717 0.5710709
0003c0 7b 1b 7b 3e 57 31 d6 3e e9 9e 07 3f 81 c8 09 be
       0.24522202 0.41834518 0.5297685 -0.13455392
0003d0 0f 34 97 bd b7 b5 92 be a5 a0 1c 3e bf 6c ea 3c
       -0.07382976 -0.28654262 0.15295656 0.028616307
0003e0 33 ca 3f 3e cf 25 d0 3e 7c 67 0a 3d 5d b1 fd be
       0.18729477 0.40653846 0.033790097 -0.4954938
0003f0 7e a4 b1 bd 4b a5 23 3a a2 30 50 3e 46 63 e6 3d
       -0.086739525 0.0006242587 0.20331052 0.11249404

layers.output.bias f4 [2]
000000 99 ca 28 3e e5 7e 21 3b
       0.16483535 0.0024642285
