results/SMOTE5K/smote25/smote0.25/model.pth (torch, 205093 bytes, 10 tensors)

layers.block_0.layer.0.weight f4 [128, 2]
-0.69767594 0.31380343 -1.1700937 0.11375523 0.865245 -0.38612998 0.51456 0.6715921
-0.14454031 -0.41959974 -0.7927332 -0.1316474 -1.459368 -0.60019577 -0.8892057 -0.48759165
1.2427888 -0.4206155 -1.1463611 0.13302802 -0.4794345 -0.7454827 0.51203823 0.66746277
0.40071198 -0.8136783 0.19700946 0.50933164 -0.6463184 0.32057503 1.005032 0.5076701
-0.90967864 -0.0057087657 0.48606816 -0.26514843 -1.4318155 -0.17876166 0.8754979 0.22700748
-0.59006304 0.5631627 -0.65211564 -0.6129016 -0.535789 -0.16810884 -0.9797795 0.67981434
-0.9212215 -0.23015925 0.6148285 -0.43609273 -0.71310055 -0.27119902 -0.69048274 -0.3449165
-0.63966537 -0.033135433 0.7725349 0.6844365 -0.316441 0.7805048 -0.68582344 0.12487447
-0.7131298 -0.42073232 0.17048943 0.72061515 0.698552 -0.23537904 -0.09175659 -0.50914973
0.70355093 -0.16835363 -0.9860634 0.1089682 0.0051771244 0.56543356 -0.9853023 0.13838582
1.102756 0.44838077 -0.7996443 0.6814025 -0.77864754 -0.4030201 0.7815 0.30797055
-0.925372 -0.6006239 -0.022103665 -0.04238804 -1.0121435 0.08527581 0.48021415 -0.50620633
0.41886064 0.35611337 0.89641595 0.5748451 -0.170551 0.7975181 0.5009763 0.5732997
0.54944324 -0.48644018 -0.8800979 0.6196827 -1.480548 -0.51643467 0.5998732 0.03963357
-0.78065383 0.091543995 1.284698 -0.6828533 0.9652657 -0.16206557 -0.7531772 -0.38641992
0.8721109 -0.25441948 -0.91679513 -0.3912423 -0.69850856 -0.4701443 1.069512 0.76663244
0.40110222 0.040649083 -1.0130041 -0.29811788 0.7710889 0.48090002 -0.94323254 0.2649961
-1.385362 0.281164 0.58486426 0.07836471 0.3427548 -0.5887682 -0.7269258 0.38229364
0.38477433 0.68914175 0.1470865 0.6530344 -0.5247218 0.44259247 -0.9277787 0.6439304
-0.15721278 0.6576693 -0.9750343 -0.07014662 -1.0918872 0.093851596 1.0404588 -0.10080173
1.3085457 0.19204533 -1.1411451 0.53664464 0.75120044 -0.15320419 0.6267342 -0.5158931
-0.8495484 -0.044582892 0.6334251 0.13329929 0.5806418 -0.29587063 0.43323773 0.20939343
0.79721814 -0.17859715 0.5378481 -0.15106668 -0.08842361 0.62954086 -0.6831107 -0.4320187
0.5813471 0.7155553 -0.94931376 0.20806946 1.3008245 0.2873339 1.0366467 -0.32651916
-1.4354321 -0.04503485 0.2266988 0.36840335 -0.84268445 -0.3716386 0.47117704 0.5850883
0.66327584 -0.5133613 -0.30215842 -0.38868955 1.2405596 0.1706589 0.5557257 -0.6802778
-0.37050536 -0.6192145 0.44942003 0.7228302 0.8067809 -0.46655956 -0.9203799 0.48822492
-0.35661173 -0.17069459 0.9425397 -0.6561398 0.6000083 0.06506269 0.6751995 0.42646894
-0.794613 -0.01824098 -0.55133504 -0.6984369 -0.9410756 -0.48646447 -0.49626303 0.22871804
-0.44156817 0.6532014 -0.3380557 0.54822844 0.52353406 0.47520688 0.015474701 -0.7221181
-0.4484237 0.6599249 -1.1958044 0.12361248 0.16372184 -0.56666964 0.56708986 -0.01639203
-0.5894379 0.005481578 -0.71579397 0.69766825 -0.81180674 -0.19337395 -0.78435826 -0.1266339
00000000: e49a 32bf d8aa a03e a1c5 95bf 81f8 e83d
00000010: b280 5d3f d4b2 c5be 34ba 033f 76ed 2b3f
00000020: 6002 14be c7d5 d6be 90f0 4abf 93ce 06be
00000030: 92cc babf 6ea6 19bf fca2 63bf 9da5 f9be
00000040: b413 9f3f ea5a d7be f6bb 92bf 7f38 083e
00000050: 7078 f5be f4d7 3ebf f014 033f d7de 2a3f
00000060: 1f2a cd3e 394d 50bf d9bc 493e 8f63 023f
00000070: 1f75 25bf 6922 a43e e3a4 803f abf6 013f
00000080: b3e0 68bf 9910 bbbb eddd f83e 89c1 87be
00000090: bb45 b7bf 4c0d 37be a120 603f a674 683e
000000a0: 5f0e 17bf 6e2b 103f 0df1 26bf 1fe7 1cbf
000000b0: 7829 09bf b924 2cbe d4d2 7abf 5008 2e3f
000000c0: 2cd5 6bbf deae 6bbe 6765 1d3f 8c47 dfbe
000000d0: c28d 36bf 99da 8abe 7ac3 30bf e598 b0be
000000e0: 1cc1 23bf 05b9 07bd d9c4 453f 3b37 2f3f
000000f0: 8e04 a2be 2acf 473f 2092 2fbf 30be ff3d
00000100: ad8f 36bf 3a6a d7be c894 2e3e 3c7a 383f
00000110: 4ed4 323f 3407 71be e1ea bbbd a357 02bf
00000120: ea1b 343f e564 2cbe a76e 7cbf b82a df3d
00000130: dea4 a93b 41c0 103f c63c 7cbf 03b5 0d3e
00000140: 1c27 8d3f 2a92 e53e 7db5 4cbf 6570 2e3f
00000150: 7255 47bf a758 cebe 6210 483f 51ae 9d3e
00000160: 2ee5 6cbf 7dc2 19bf bf12 b5bc 159f 2dbd
00000170: eb8d 81bf 15a5 ae3d a1de f53e bd96 01bf
00000180: e774 d63e 7e54 b63e 847b 653f 0c29 133f
00000190: eca4 2ebe 252a 4c3f fc3f 003f c5c3 123f
000001a0: 50a8 0c3f b00e f9be 194e 61bf 87a3 1e3f
000001b0: 9982 bdbf 1035 04bf 4a91 193f cf56 223d
000001c0: eed8 47bf 6b7b bb3d fc70 a43f 79cf 2ebf
000001d0: a71b 773f 84f4 25be 39d0 40bf d5d8 c5be
000001e0: a942 5f3f 4543 82be 16b3 6abf e950 c8be
000001f0: 75d1 32bf c1b6 f0be c5e5 883f 0642 443f
00000200: 455d cd3e a77f 263d 1eaa 81bf e8a2 98be
00000210: 1566 453f 8738 f63e b077 71bf 92ad 873e
00000220: 8b53 b1bf baf4 8f3e aab9 153f ad7d a03d
00000230: 8f7d af3e 83b9 16bf cf17 3abf febb c33e
00000240: 2401 c53e 986b 303f d89d 163e 432d 273f
00000250: 2b54 06bf 7b9b e23e e882 6dbf 9fd8 243f
00000260: 63fc 20be 045d 283f d99b 79bf 08a9 8fbd
00000270: f6c2 8bbf 4435 c03d c12d 853f 2371 cebd
00000280: 6d7e a73f 88a7 443e 0b11 92bf 8b61 093f
00000290: ac4e 403f 8fe1 1cbe a771 203f 9211 04bf
000002a0: 017c 59bf 8d9c 36bd 2628 223f 9c7f 083e
000002b0: f1a4 143f 5b7c 97be 56d1 dd3e 3b6b 563e
000002c0: 7d16 4c3f 2ce2 36be 6ab0 093f 39b1 1abe
000002d0: 7017 b5bd 9729 213f 58e0 2ebf 8e31 ddbe
000002e0: 2ad3 143f a22e 373f 3a06 73bf 2910 553e
000002f0: 6b81 a63f 6e1d 933e d7b0 843f 852d a7be
00000300: 3dbc b7bf 7676 38bd bb23 683e 5d9f bc3e
00000310: 2bba 57bf 6a47 bebe 1e3e f13e 59c8 153f
00000320: 72cc 293f a56b 03bf 82b4 9abe 5102 c7be
00000330: a8ca 9e3f 35c1 2e3e 0a44 0e3f b026 2ebf
00000340: e1b2 bdbe d784 1ebf 621a e63e 660b 393f
00000350: 3189 4e3f e5e0 eebe 049e 6bbf 9ef8 f93e
00000360: d095 b6be 90ca 2ebe 484a 713f c7f8 27bf
00000370: 259a 193f 963f 853d e0d9 2c3f 235a da3e
00000380: c26b 4bbf 1c6e 95bc 4b24 0dbf c3cc 32bf
00000390: 55ea 70bf df11 f9be 3016 febe 1035 6a3e
000003a0: 3915 e2be 3538 273f a315 adbe b358 0c3f
000003b0: 5406 063f 514e f33e 9a89 7d3c bbdc 38bf
000003c0: cb97 e5be d7f0 283f 1e10 99bf 8a28 fd3d
000003d0: b3a6 273e 4311 11bf cd2c 113f 9448 86bc
000003e0: 67e5 16bf cf9e b33b 463e 37bf 639a 323f
000003f0: 91d2 4fbf d203 46be b4cb 48bf 51ac 01be

layers.block_0.layer.0.bias f4 [128]
-0.6764281 -0.035076186 0.41727465 0.46928036 -0.51939785 -0.21662089 0.48805824 0.34545293
0.5647855 -0.117538475 -0.3504796 -0.60695827 -0.4642532 0.38445044 0.5736398 -0.371621
-0.21761018 -0.47519526 0.29002762 0.21196216 0.4336789 0.49092087 0.5277586 -0.59375095
0.34410444 0.31940398 -0.5975167 0.12118461 -0.12744251 0.5724334 -0.7574692 0.05699812
0.6168388 0.521037 -0.048613206 0.5173533 -0.256584 -0.26593643 0.6232743 -0.044953108
-0.4356467 -0.7085113 0.14226045 -0.102657504 0.70506614 -0.3329819 0.040625878 -0.45216513
0.46903166 -0.3701691 0.65919566 0.069253705 0.07916839 -0.6096281 0.46207204 -0.5037317
-0.06140653 0.65168375 -0.16413102 -0.36560798 0.21761705 0.6603741 0.16503932 -0.79027534
0.6024258 0.017213536 0.39127284 -0.28650367 -0.17453678 0.3638417 0.1752016 0.06789881
-0.041044667 0.32728478 -0.5034839 -0.5017671 -0.41115925 0.20803674 -0.38580075 0.19787575
-0.17336278 -0.5224974 0.5936116 -0.088992566 0.40586144 0.62402284 0.19985843 0.16761774
-0.08447694 -0.37619725 0.57578564 0.18571235 0.6648638 -0.3634343 -0.074681245 0.15580006
-0.09343237 -0.55115676 0.080843896 -0.6899035 0.22374979 -0.63322216 -0.24424987 0.39629343
-0.48704457 -0.012262245 0.55139464 -0.5744262 0.3593979 0.5973609 0.2211611 -0.5421274
-0.6706217 0.6237145 0.38318264 0.36676756 0.18848798 0.36266288 -0.34729362 -0.45869952
-0.26796755 0.010648929 -0.71390235 -0.14184804 0.30581844 -0.37184092 -0.2450538 0.6208281
00000000: 642a 2dbf 0cac 0fbd 06a5 d53e 8445 f03e
00000010: 42f7 04bf ded1 5dbe c5e2 f93e 35df b03e
00000020: c895 103f 03b8 f0bd 1072 b3be 9e61 1bbf
00000030: 98b2 edbe b0d6 c43e 0fda 123f 1c45 bebe
00000040: 34d5 5ebe cb4c f3be 807e 943e 9c0c 593e
00000050: 290b de3e fb59 fb3e 301b 073f 1000 18bf
00000060: 752e b03e eb88 a33e dbf6 18bf a32f f83d
00000070: 4a80 02be ff8a 123f 80e9 41bf dc76 693d
00000080: 26e9 1d3f ae62 053f a41e 47bd 4471 043f
00000090: fa5e 83be d228 88be e88e 1f3f c020 38bd
000000a0: 160d dfbe ff60 35bf b9ac 113e 193e d2bd
000000b0: 377f 343f 9b7c aabe 5267 263d 3082 e7be
000000c0: eb24 f03e ce86 bdbe 0cc1 283f e3d4 8d3d
000000d0: 0923 a23d 9610 1cbf b594 ec3e 90f4 00bf
000000e0: 6a85 7bbd bfd4 263f f611 28be f830 bbbe
000000f0: 01d7 5e3e 470e 293f 1100 293e 7c4f 4abf
00000100: 9438 1a3f 6703 8d3c ea54 c83e 9cb0 92be
00000110: c5b9 32be 7649 ba3e 0c68 333e 880e 8b3d
00000120: 741e 28bd df91 a73e 52e4 00bf cf73 00bf
00000130: 7783 d2be 9507 553e ad87 c5be f19f 4a3e
00000140: 0386 31be 64c2 05bf eef6 173f bc41 b6bd
00000150: 12cd cf3e f6bf 1f3f b0a7 4c3e fca3 2b3e
00000160: 3f02 adbd ed9c c0be b066 133f 612b 3e3e
00000170: 8434 2a3f 1014 babe 7bf2 98bd 0d8a 1f3e
00000180: 7859 bfbd 9c18 0dbf 7c91 a53d 849d 30bf
00000190: aa1e 653e d91a 22bf a31c 7abe f9e6 ca3e
000001a0: e85d f9be 95e7 48bc 3328 0d3f 980d 13bf
000001b0: 0003 b83e a5ec 183f 0e78 623e dcc8 0abf
000001c0: ddad 2bbf c1ab 1f3f 8430 c43e f5c8 bb3e
000001d0: fe02 413e f3ae b93e 78d0 b1be aada eabe
000001e0: 0b33 89be d878 2e3c 4ec2 36bf 9d40 11be
000001f0: 3c94 9c3e ef61 bebe 62ef 7abe 97ee 1e3f

layers.block_1.layer.0.weight f4 [128, 128]
-0.07523639 -0.3234836 0.12090707 -0.041703228 0.012377546 -0.056586627 -0.050940566 -0.1376883
0.13380876 -0.32665238 -0.07398704 0.016610466 0.00055882655 0.059081763 -0.049736366 0.09381267
-0.10440188 0.12636058 -0.108466946 0.10742992 -0.0051734163 -0.01599103 0.023992123 -0.121846065
-0.1720828 0.050052136 -0.077754356 -0.17608999 -0.17027724 -0.017999094 -0.096349604 -0.15969497
0.004968977 -0.09603713 0.21023804 -0.06378267 0.08701223 -0.20124048 -0.04372157 -0.29537588
0.11471386 -0.025136745 -0.17353193 0.10588375 -0.0885867 -0.08307519 -0.1436884 -0.013024781
0.03219583 0.016536037 0.0070317276 0.07509179 0.113144875 -0.044013765 -0.09525126 0.043155745
-0.3497612 0.15532872 0.043132056 -0.045454822 0.19495809 -0.09550786 -0.1339166 0.048554294
0.07298066 -0.05260635 0.12399236 -0.09395807 -0.30003574 0.07887083 0.17659722 -0.09425393
0.0630472 -0.09819402 -0.15614049 -0.19315213 -0.03899779 -0.16360246 -0.15847811 0.1466398
0.10731068 -0.22328624 0.08164003 0.14048204 -0.03971754 0.1055861 0.20164245 0.073554665
0.102589175 0.011195526 0.013047507 -0.14306013 0.0539765 -0.10567428 0.097687304 0.12789594
-0.25681117 0.008374429 -0.1552863 0.06526359 0.064627774 0.014659323 0.11336681 0.030026047
-0.06985726 0.063980274 0.09210888 -0.19754253 -0.093045115 0.11821565 0.16118887 0.10874011
-0.10077878 0.014554446 -0.111738674 -0.13520278 -0.14906144 -0.031927172 -0.018852683 0.10629997
-0.03409591 -0.21619357 -0.003720574 0.16230355 -0.03289797 -0.13819288 -0.02353234 -0.06590281
0.028267497 0.26304194 -0.081041396 -0.097895384 0.111656666 0.007612562 -0.054352812 -0.16349027
-0.07967536 0.124904625 0.009158417 0.043334182 0.033008594 -0.10073154 0.049569223 0.14838688
0.18435887 -0.04812008 0.062672056 -0.114370525 -0.08982316 -0.1674406 -0.060548283 0.1955889
-0.10093191 -0.18257554 0.040937476 -0.026368478 0.05812906 -0.09046916 0.16740908 0.16691795
-0.07422799 0.011507857 -0.044851467 -0.15739487 0.052380733 0.03850231 0.017470289 0.21548495
-0.024792423 0.14819662 -0.11115674 -0.029379217 -0.0988627 -0.012617402 0.0791506 0.04032921
-0.04790479 0.1040268 -0.087146595 0.040911764 -0.16637886 0.16640878 -0.06887044 0.10516869
0.21625039 -0.1980933 -0.02111608 0.113787316 -0.2173074 0.03719784 -0.036244806 0.014795982
-0.09982013 0.0066181286 -0.072658814 0.16052635 0.2467525 -0.11757564 -0.16703112 0.0970314
-0.06401131 0.0286208 0.043799642 0.1323114 0.16897658 0.114678785 0.16270968 -0.11164099
-0.101434596 0.094749264 -0.04445359 -0.051595952 -0.036561348 -0.023334166 -0.12954295 -0.10685809
-0.121820845 -0.08792415 -0.0130825965 -0.048519824 -0.035523415 0.16220722 0.049919095 -0.17645462
0.1144802 0.117533006 0.063507624 0.16428837 -0.19806352 0.06950526 0.010253368 -0.116148084
0.120006986 -0.090827025 -0.1391064 0.054687448 -0.13461083 -0.044554047 -0.10730599 0.031827066
0.07277663 -0.16235918 -0.07290557 0.022239367 0.06881877 -0.08132111 0.06566424 0.09083165
0.072553605 0.115365006 -0.011766472 -0.042670656 -0.04134095 0.17542861 -0.017537259 -0.091185436
00000000: 8915 9abd a49f a5be 209e f73d 01d1 2abd
00000010: 31cb 4a3c 61c7 67bd 0ea7 50bd 29fe 0cbe
00000020: 2a05 093e fb3e a7be 8486 97bd ac12 883c
00000030: 377e 123a b8ff 713d 5cb8 4bbd db20 c03d
00000040: a7d0 d5bd ab64 013e eb23 debd 3804 dc3d
00000050: c385 a9bb 9fff 82bc 218b c43c 6e8a f9bd
00000060: 7936 30be 7803 4d3d ad3d 9fbd ef50 34be
00000070: 285d 2ebe d672 93bc f152 c5bd 1487 23be
00000080: cdd2 a23b 1daf c4bd a448 573e 7da0 82bd
00000090: 7833 b23d fc11 4ebe 6415 33bd 823b 97be
000000a0: 1aef ea3d 93eb cdbc 5bb2 31be 94d9 d83d
000000b0: f26c b5bd 5323 aabd 0d23 13be e465 55bc
000000c0: c6df 033d 9576 873c 686a e63b b9c9 993d
000000d0: 80b8 e73d c747 34bd 1813 c3bd 14c4 303d
000000e0: e613 b3be 7e0e 1f3e 3dab 303d d62e 3abd
000000f0: 18a3 473e a099 c3bd 6f21 09be dee0 463d
00000100: e276 953d c279 57bd b5ef fd3d 176d c0bd
00000110: 499e 99be 0887 a13d e7d5 343e 3408 c1bd
00000120: e41e 813d f219 c9bd 4be3 1fbe acc9 45be
00000130: 26bc 1fbd 6787 27be 1648 22be be28 163e
00000140: b4c5 db3d 26a5 64be e332 a73d 86da 0f3e
00000150: dcae 22bd 863d d83d 5c7b 4e3e d4a3 963d
00000160: 461a d23d 716d 373c 36c5 553c 5b7e 12be
00000170: 7616 5d3d c26b d8bd 4810 c83d 27f7 023e
00000180: c17c 83be e734 093c 5f03 1fbe eba8 853d
00000190: 915b 843d a82d 703c dc2c e83d 2ff9 f53c
000001a0: 5311 8fbd 1708 833d 95a3 bc3d 9748 4abe
000001b0: 708e bebd 0c1b f23d b20e 253e 23b3 de3d
000001c0: 1b65 cebd c575 6e3c 3fd7 e4bd 9972 0abe
000001d0: 90a3 18be 11c6 02bd f170 9abc ccb3 d93d
000001e0: 27a8 0bbd d961 5dbe e0d4 73bb e732 263e
000001f0: 06c0 06bd 6f82 0dbe e5c6 c0bc 0df8 86bd
00000200: 3d91 e73c 6fad 863e 08f9 a5bd 607d c8bd
00000210: 40ac e43d cc72 f93b 0ea1 5ebd fe69 27be
00000220: d62c a3bd ffcd ff3d 2f0d 163c 2f7f 313d
00000230: 0534 073d 564c cebd 1909 4b3d bbf2 173e
00000240: 92c8 3c3e 9019 45bd 355a 803d 183b eabd
00000250: 34f5 b7bd 8c75 2bbe 7a01 78bd 7548 483e
00000260: 64b5 cebd 15f5 3abe 0eae 273d b502 d8bc
00000270: bd18 6e3d e547 b9bd 496d 2b3e 8aec 2a3e
00000280: d804 98bd 738b 3c3c 2cb6 37bd 1f2c 21be
00000290: 2e8d 563d 99b4 1d3d da1d 8f3c 16a8 5c3e
000002a0: 7b19 cbbc dbc0 173e 25a6 e3bd afac f0bc
000002b0: 8778 cabd 38b9 4ebc b619 a23d 3e30 253d
000002c0: d037 44bd 010c d53d ea79 b2bd 1893 273d
000002d0: 385f 2abe 1067 2a3e f20b 8dbd af62 d73d
000002e0: be70 5d3e f8d8 4abe a1fb acbc 5309 e93d
000002f0: d585 5ebe c35c 183d 6f75 14bd d96a 723c
00000300: 7f6e ccbd e3dc d83b 25ce 94bd 0561 243e
00000310: b0ac 7c3e 7fcb f0bd 350a 2bbe 66b8 c63d
00000320: 5d18 83bd 2b76 ea3c 4167 333d a47c 073e
00000330: 3208 2d3e b6dc ea3d 5e9d 263e 08a4 e4bd
00000340: f1bc cfbd e70b c23d f814 36bd 4756 53bd
00000350: 5ac1 15bd 4b27 bfbc e8a6 04be 6ad8 dabd
00000360: 357d f9bd 9411 b4bd 6358 56bc b9bc 46bd
00000370: 0081 11bd a619 263e f777 4c3d 85b0 34be
00000380: 9874 ea3d 25b5 f03d 4910 823d 363b 283e
00000390: 2ad1 4abe c658 8e3d befd 273c 0cdf edbd
000003a0: 39c6 f53d 8503 babd e871 0ebe f2ff 5f3d
000003b0: 6cd7 09be 4e7e 36bd 3ec3 dbbd 195d 023d
000003c0: ea0b 953d 7c41 26be 844f 95bd 552f b63c
000003d0: dbf0 8c3d af8b a6bd f97a 863d f205 ba3d
000003e0: fc96 943d 7d44 ec3d 29c8 40bc 6dc7 2ebd
000003f0: 2155 29bd 8fa3 333e 4caa 8fbc 6ebf babd

layers.block_1.layer.0.bias f4 [128]
0.06987866 0.0104699 0.072362974 -0.008228103 0.050172497 0.022514107 -0.009244312 -0.014675565
-0.01846569 -0.082775354 -0.01701843 0.039622568 0.045789335 0.053038787 0.044993695 -0.023374068
-0.0047294926 0.033118837 0.009774244 0.06188842 -0.027166208 -0.097598955 0.031134032 0.07975651
0.009592481 0.0007475326 0.012104068 0.05116545 0.06970764 0.006914525 0.023688044 -0.06246727
-0.05189364 0.07290936 0.05185998 -0.054168556 0.02618408 0.014118318 0.10050113 0.010334114
-0.049971182 0.07095086 0.04577616 0.117755584 0.06507284 -0.003022626 -0.026725555 -0.0777923
-0.08539312 -0.07867825 -0.13829246 0.06867026 -0.015589507 -0.029825969 -0.014838971 -0.076455
-0.055582583 -0.070808925 -0.03911155 -0.09503688 -0.024794081 0.036470145 0.035912525 -0.010467419
-0.08169097 -0.009593936 0.0072360323 0.075116366 -0.06387692 -0.024001276 -0.102626726 -0.07834647
0.024140451 -0.0028753479 0.023973968 0.091744766 0.06811586 0.11296422 0.043561 0.058181267
0.11256725 0.034536034 -0.007598289 0.088245146 0.059648298 0.03826689 0.08886853 -0.04093797
-0.011254142 0.05310178 -0.0222372 0.04019269 -0.021941783 -0.09319822 0.08307737 -0.09361977
0.027537156 -0.049539313 0.048739575 0.0012243298 -0.040432278 -0.006893841 0.072378606 -0.04593191
0.08125581 -0.016792484 0.026541522 0.053886574 -0.04693609 -0.04266469 0.053845912 -0.059447296
-0.056795314 -0.0025247796 0.034338504 -0.05744998 0.057176415 0.02468665 -0.017981583 0.05803908
0.045685418 0.01982239 -0.041014895 0.015193368 0.06223352 -0.06320711 0.07503232 0.05852155
00000000: 8b1c 8f3d f289 2b3c 0a33 943d 2acf 06bc
00000010: ad81 4d3d 816f b83c 7475 17bc c871 70bc
00000020: 5c45 97bc 2086 a9bd 3c6a 8bbc 464b 223d
00000030: 998d 3b3d 333f 593d 4f4b 383d f97a bfbc
00000040: dcf9 9abb 9ea7 073d 2724 203c b67e 7d3d
00000050: ab8b debc f6e1 c7bd cc0c ff3c 6257 a33d
00000060: c829 1d3c 10f6 433a 2450 463c dd92 513d
00000070: e1c2 8e3d 3d93 e23b 6e0d c23c aedd 7fbd
00000080: 6d8e 54bd 8151 953d 216b 543d d9df 5dbd
00000090: ff7f d63c 8550 673c 89d3 cd3d 6a50 293c
000000a0: 95ae 4cbd af4e 913d c87f 3b3d d729 f13d
000000b0: e944 853d 4017 46bb 8def dabc 9251 9fbd
000000c0: 97e2 aebd 1022 a1bd 8a9c 0dbe fea2 8c3d
000000d0: 226b 7fbc 9755 f4bc 281f 73bc 7094 9cbd
000000e0: 90aa 63bd 4504 91bd 6f33 20bd b2a2 c2bd
000000f0: f51c cbbc b861 153d 0319 133d 8a7f 2bbc
00000100: 984d a7bd e22f 1dbc 3d1c ed3b 9cd6 993d
00000110: e7d1 82bd 539e c4bc f62d d2bd 1d74 a0bd
00000120: 32c2 c53c 5570 3cbb 0e65 c43c aee4 bb3d
00000130: 5480 8b3d c959 e73d 056d 323d 7b4f 6e3d
00000140: a989 e63d a875 0d3d 11fb f8bb dfb9 b43d
00000150: c651 743d bebd 1c3d b400 b63d 93ae 27bd
00000160: 4b63 38bc 4181 593d ca2a b6bc 17a1 243d
00000170: 41bf b3bc b5de bebd 7824 aa3d b9bb bfbd
00000180: 9a95 e13c bce9 4abd 26a3 473d b179 a03a
00000190: 519c 25bd bbe5 e1bb 3c3b 943d 1923 3cbd
000001a0: 7269 a63d 6490 89bc 9b6d d93c 2bb8 5c3d
000001b0: 0f40 40bd 2cc1 2ebd 888d 5c3d 027f 73bd
000001c0: 34a2 68bd c676 25bb 88a6 0c3d ac50 6bbd
000001d0: d131 6a3d a83b ca3c 1d4e 93bc 63ba 6d3d
000001e0: a220 3b3d 9162 a23c 3cff 27bd 9bed 783c
000001f0: 93e8 7e3d bb72 81bd 8caa 993d 4bb4 6f3d

layers.block_2.layer.0.weight f4 [128, 128]
0.09328152 0.0023588175 0.0013305407 -0.017190412 0.075468384 -0.07892677 0.06725662 0.032944568
0.09748095 -0.031183532 -0.07602636 0.03305184 -0.013497071 0.03611931 0.019894209 -0.17712899
-0.047256738 0.068169095 0.07369513 0.02964857 -0.053996805 -0.01829811 0.007549901 -0.054620154
0.032477245 0.029373623 0.00549116 0.03711814 0.121191815 0.017539714 -0.021321971 0.061081927
0.042993557 0.058708254 0.019597976 0.04198549 -0.07060779 -0.037240636 0.056478057 0.06839308
0.02352564 -0.025877723 0.039282788 0.014389667 0.021195108 0.025288485 0.2356499 -0.05980871
-0.059058253 -0.017291315 -0.021837028 -0.059425753 0.055878025 -0.06234567 0.06256995 0.009742265
0.044665445 0.05587866 0.082082264 -0.043331664 0.0032015021 -0.025892563 0.0047044554 0.023647957
4.544222e-05 0.05460655 -0.056718793 0.03128852 -0.008216022 0.010417993 -0.003523974 -0.020086931
0.04724822 -0.07188517 0.03850617 0.023666006 -0.044840973 0.066339694 0.06886164 0.07635468
-0.055663757 -0.09754477 0.048768356 -0.0039445907 0.083468 0.042156402 -0.062363364 0.0025259517
0.06844513 0.13387917 0.052160982 -0.035672642 -0.093755186 -0.09373284 -0.11724727 -0.0056406953
-0.087552264 0.01055832 -0.05191016 -0.034246642 -0.007349372 -0.102667816 -0.09207632 0.038885288
0.042577837 -0.08770631 0.08566879 -0.013068112 -0.15313508 0.09382464 0.0668727 0.09023354
-0.056796264 0.014329523 0.04749207 -0.047628243 -0.04579016 -0.0076569105 0.0034547627 -0.020840015
-0.05795719 0.05219748 -0.019224778 -0.0461676 0.08824125 -0.07033525 0.05391023 -0.016811032
-0.0070930775 0.031487234 -0.029104058 -0.09766309 -0.045151167 0.07974271 -0.03607813 -0.057058454
-0.10458249 -0.15028384 -0.07363921 0.07227411 -0.022131052 -0.105845235 -0.017272368 0.019289229
-0.03721346 -0.03401545 0.05607018 -0.039886758 0.08690137 -0.12450022 -0.0135294385 0.053956207
0.09281789 0.11616556 -0.0201794 0.10532737 -0.07772094 -0.053828955 -0.1589887 -0.0026043798
0.1760627 -0.014739751 -0.019949717 0.238944 -0.09037699 -0.09977123 -0.08255414 0.017768066
0.08048249 -0.09755032 -0.10640441 0.0053618886 0.09356292 -0.049631555 -0.013633226 -0.04960615
0.041483205 0.033624206 -0.016584909 0.016972447 0.05230185 -0.007374386 -0.027278343 -0.058712468
0.09630289 -0.049880803 -0.053864207 -0.11752596 0.07682764 0.15517463 -0.04103434 0.01314337
0.05816722 -0.059535254 -0.03409667 0.09746778 -0.053679004 0.109509006 -0.07542453 0.0452324
0.0228354 0.0539099 0.12136259 -0.028637696 0.090257324 0.017541109 -0.03760939 0.088976875
0.014650904 -0.16489214 0.19801997 -0.05577896 0.005088767 -0.04737272 0.10710083 -0.13514043
-0.113994434 -0.077148214 -0.0024829407 0.023245515 0.03144724 0.013663794 0.11435318 0.06581671
0.056987014 -0.029380102 -0.03464612 0.0029450601 -0.044577386 -0.01275574 -0.053926032 0.027063001
-0.009843743 -0.029011233 0.041976407 -0.105281204 -0.030719839 -0.098368585 -0.033670835 -0.13180365
0.029248556 0.076872684 -0.0056142975 0.101071835 0.050283253 0.050594512 -0.15030305 -0.04946312
0.011710517 -0.08259031 0.24938394 -0.07670559 0.18206865 0.022783715 0.07905085 0.047783878
00000000: 620a bf3d 6496 1a3b 8a65 ae3a e8d2 8cbc
00000010: 2b8f 9a3d 5ca4 a1bd d7bd 893d e2f0 063d
00000020: 18a4 c73d 9b74 ffbc b5b3 9bbd 5e61 073d
00000030: d222 5dbc d7f1 133d 2ef9 a23c 4d61 35be
00000040: 4890 41bd 3d9c 8b3d 79ed 963d 8fe1 f23c
00000050: c12b 5dbd ebe5 95bc 2965 f73b 62b9 5fbd
00000060: dc06 053d f4a0 f03c 30ef b33b 3109 183d
00000070: 6a33 f83d 72af 8f3c 6aab aebc 0b31 7a3d
00000080: 031a 303d 1178 703d ef8b a03c faf8 2b3d
00000090: d19a 90bd a389 18bd 8955 673d ac11 8c3d
000000a0: d8b8 c03c 85fd d3bc fde6 203d a3c2 6b3c
000000b0: 5da1 ad3c cc29 cf3c 354e 713e faf9 74bd
000000c0: 11e7 71bd 84a6 8dbc 91e3 b2bc 6b68 73bd
000000d0: 5be0 643d 2c5e 7fbd ad24 803d 059e 1f3c
000000e0: 1df3 363d 06e1 643d bf1a a83d 8b7c 31bd
000000f0: 4bd0 513b a41c d4bc d527 9a3b 5cb9 c13c
00000100: 3699 3e38 1eab 5f3d f751 68bd 6428 003d
00000110: 7e9c 06bc 3bb0 2a3c 79f2 66bb 598d a4bc
00000120: 5987 413d 8838 93bd a5b8 1d3d 36df c13c
00000130: 2bab 37bd 1bdd 873d 5507 8d3d d85f 9c3d
00000140: aeff 63bd 8dc5 c7bd 54c1 473d a041 81bb
00000150: 45f1 aa3d 31ac 2c3d ba70 7fbd 708a 253b
00000160: f62c 8c3d 9f17 093e c1a6 553d 7a1d 12bd
00000170: b802 c0bd 01f7 bfbd 561f f0bd 95d5 b8bb
00000180: 9a4e b3bd cefc 2c3c bf9f 54bd 3546 0cbd
00000190: 00d3 f0bb 8143 d2bd 8292 bcbd 2e46 1f3d
000001a0: 1966 2e3d 5e9f b3bd 1e73 af3d a21b 56bc
000001b0: 71cf 1cbe 2227 c03d 8ef4 883d 5dcc b83d
000001c0: 33a3 68bd 60c6 6a3c 0b87 423d d515 43bd
000001d0: 768e 3bbd d2e6 fabb 4d69 623b aeb8 aabc
000001e0: 8564 6dbd 06cd 553d 487d 9dbc 3d1a 3dbd
000001f0: d4b7 b43d ed0b 90bd f9d0 5c3d 4ab7 89bc
00000200: 0c6d e8bb c2f8 003d a26b eebc 9603 c8bd
00000210: 6ef0 38bd 2550 a33d a9c6 13bd 20b6 69bd
00000220: 582f d6bd 02e4 19be 27d0 96bd 7304 943d
00000230: 2e4c b5bc 63c5 d8bd c87e 8dbc 7204 9e3c
00000240: 246d 18bd c953 0bbd d8a9 653d 4c60 23bd
00000250: 58f9 b13d f9f9 febd 94aa 5dbc 2f01 5d3d
00000260: 4e17 be3d 36e8 ed3d 454f a5bc e0b5 d73d
00000270: 282c 9fbd c07b 5cbd efcd 22be 3eae 2abb
00000280: c849 343e ff7e 71bc 976d a3bc bcad 743e
00000290: 9217 b9bd dc54 ccbd 2512 a9bd 568e 913c
000002a0: 01d4 a43d 76c8 c7bd 8eea d9bd c8b2 af3b
000002b0: eb9d bf3d 754a 4bbd e55d 5fbc d12f 4bbd
000002c0: 4bea 293d 89b9 093d 13dd 87bc cd09 8b3c
000002d0: 773a 563d d5a4 f1bb d576 dfbc 7c7c 70bd
000002e0: 733a c53d d04f 4cbd b7a0 5cbd 73b1 f0bd
000002f0: cf57 9d3d 19e6 1e3e a013 28bd 4a57 573c
00000300: c040 6e3d 3ddb 73bd f3a8 0bbd 309d c73d
00000310: 84de 5bbd 4246 e03d 2d78 9abd 9c45 393d
00000320: 4e11 bb3c a1d0 5c3d f38c f83d 9a99 eabc
00000330: d5d8 b83d 5fb2 8f3c 4e0c 1abd 8239 b63d
00000340: 580a 703c 7cd9 28be bfc5 4a3e 7b78 64bd
00000350: acbf a63b e609 42bd ae57 db3d 4162 0abe
00000360: ea75 e9bd e2ff 9dbd d5b8 22bb 616d be3c
00000370: d2ce 003d 1bde 5f3c 0032 ea3d e9ca 863d
00000380: 376b 693d 8aae f0bc 17e9 0dbd e901 413b
00000390: c796 36bd 74fd 50bc 8be1 5cbd 3ab3 dd3c
000003a0: a747 21bc f7a8 edbc 74ef 2b3d ac9d d7bd
000003b0: 2ca8 fbbc 7875 c9bd 6eea 09bd 89f7 06be
000003c0: ab9a ef3c 6d6f 9d3d 24f8 b7bb c0fe ce3d
000003d0: d0f5 4d3d 313c 4f3d 0be9 19be d799 4abd
000003e0: 78dd 3f3c 1c25 a9bd 815e 7f3e d217 9dbd
000003f0: 3470 3a3e eaa4 ba3c 69e5 a13d 07b9 433d

layers.block_2.layer.0.bias f4 [128]
-0.08634609 0.10548021 -0.024072764 0.038100965 0.05767795 0.05380014 -0.021444049 -0.03687602
-0.09773202 0.05773138 0.050954286 0.05529637 0.014765091 -0.021357747 0.029337756 -0.048696607
-0.021231877 -0.08287555 -0.10712249 -0.075668335 -0.0014178582 0.014440598 -0.015776824 0.018750992
0.060067244 -0.025979564 0.04845369 0.029731266 -0.022482509 -0.018309051 -0.028980043 0.014657263
0.056318916 0.008887335 0.033609014 -0.009089057 0.04702324 -0.14227284 0.013449307 0.05444979
-0.030891815 0.062046178 -0.038832717 -0.00890096 -0.0048356354 -0.05666843 -0.046368815 -0.048688825
0.058304533 0.0131369075 0.008766473 -0.092247434 -0.006777495 0.06614877 -0.032275785 -0.04006301
-0.017799586 -0.024526048 0.026317561 0.029390976 0.08617733 -0.04231442 -0.022721661 -0.065981045
-0.04308402 -0.04376213 -0.08711407 -0.06409491 0.011537663 -0.08449505 -0.0030633013 -0.010468032
-0.012144877 0.041607216 -0.055501293 0.03317052 -0.029627515 0.092862666 -0.01649839 0.04770032
-0.027890231 0.07596026 0.077879444 -0.01959156 0.0704975 0.07558749 0.056814674 -0.011837011
0.06093597 0.11984994 -0.019793093 -0.05766432 0.0555244 -0.013264497 -0.03246324 0.07506216
-0.12406956 0.068183675 0.04504049 0.031973936 0.04674494 0.030261204 0.018417798 0.014220638
-0.05499699 -0.042577323 -0.044376865 -0.10259499 0.017274788 0.03363549 0.0063518337 0.057684876
0.03820756 0.026504384 -0.010448503 -0.062190723 -0.092406295 0.024602955 -0.020666616 -0.038598333
0.0042401976 -0.04374822 0.02450224 0.037233308 -0.032085948 -0.0021128694 0.07637988 -0.024396727
00000000: 38d6 b0bd 0206 d83d 3f34 c5bc c20f 1c3d
00000010: b73f 6c3d 895d 5c3d 6eab afbc 4f0b 17bd
00000020: ba27 c8bd bd77 6c3d 71b5 503d 727e 623d
00000030: 48e9 713c 71f6 aebc bc55 f03c 1876 47bd
00000040: 79ee adbc a8ba a9bd 0963 dbbd 00f8 9abd
00000050: 6dd7 b9ba 4298 6c3c 663e 81bc ae9b 993c
00000060: 1209 763d 18d3 d4bc 6077 463d fc8e f33c
00000070: 3d2d b8bc ddfc 95bc 8e67 edbc 0425 703c
00000080: aaae 663d 2f9c 113c 9ba9 093d 45ea 14bc
00000090: 719b 403d f9af 11be 7b5a 5c3c be06 5f3d
000000a0: d510 fdbc 2224 7e3d 0e0f 1fbd 55d5 11bc
000000b0: 4074 9ebb 281d 68bd 3aed 3dbd ef6d 47bd
000000c0: bcd0 6e3d 2f3c 573c 41a1 0f3c 39ec bcbd
000000d0: c015 debb 0279 873d 9d33 04bd 1c19 24bd
000000e0: 70d0 91bc daea c8bc ed97 d73c 58c5 f03c
000000f0: bd7d b03d e351 2dbd c722 babc 1221 87bd
00000100: df78 30bd eb3f 33bd dd68 b2bd 3144 83bd
00000110: 7708 3d3c be0b adbd abc1 48bb 1c82 2bbc
00000120: 4efb 46bc 546c 2a3d 5355 63bd d0dd 073d
00000130: 67b5 f2bc c82e be3d a227 87bc 6961 433d
00000140: 0e7a e4bc 0e91 9b3d 427f 9f3d 7b7e a0bc
00000150: fe60 903d 9dcd 9a3d 81b6 683d 06f0 41bc
00000160: ff97 793d e373 f53d 2025 a2bc 6c31 6cbd
00000170: 8e6d 633d 5553 59bc 2df8 04bd 31ba 993d
00000180: 2e18 febd e2a3 8b3d 607c 383d 1af7 023d
00000190: 9f77 3f3d 58e6 f73c ece0 963c aefd 683c
000001a0: 8644 61bd 8f65 2ebd 84c4 35bd 521d d2bd
000001b0: db83 8d3c 5ec5 093d 0b23 d03b fa46 6c3d
000001c0: 887f 1c3d b91f d93c 3330 2bbc b3bb 7ebd
000001d0: 833f bdbd 238c c93c 094d a9bc 4919 1ebd
000001e0: 5bf1 8a3b 5531 33bd ecb8 c83c f481 183d
000001f0: 8e6c 03bd 1178 0abb 0e6d 9c3d a5db c7bc

layers.block_3.layer.0.weight f4 [128, 128]
0.021582117 -0.053876184 -0.06829358 -0.008685129 0.057929154 0.15799944 0.08990611 -0.00073582696
0.1185496 -0.09251412 -0.11429626 -0.07721845 -0.021166768 0.0048070946 -0.11177718 0.048285455
0.07676896 0.039474934 -0.05244575 -0.034337807 0.056554504 0.18433397 -0.01480605 0.00017006676
-0.041127123 -0.00024034896 0.033919707 0.0025077828 0.053320646 0.040536862 0.028168317 0.025121395
0.036156133 0.028905433 0.027667463 -0.06287861 -0.02339826 -0.009990814 -0.06548906 -0.14285333
-0.032629598 0.009209828 0.017117813 -0.028555196 -0.0069100047 -0.059411693 0.10046308 0.07087139
-0.045105908 -0.004050717 0.054357424 0.008937921 -0.03911004 0.021703359 -0.02019017 -0.0016712742
0.017156797 -0.06260266 0.083275184 0.008859443 -0.06682608 -0.068101235 0.02067002 0.049371697
0.08908229 -0.009143019 -0.080759086 -0.009626733 0.019139543 -0.0026748658 0.02886669 -0.06580012
0.023101788 -0.12703364 0.16867334 -0.028028715 -0.0760642 0.047209036 -0.012880795 0.08128938
-0.05695292 -0.056356687 -0.037629098 0.03355741 -0.11939811 -0.090250894 -0.05890223 0.07034658
0.046674173 0.014435051 -0.07881983 0.038833503 -0.034750346 0.072631426 -0.0015892118 0.057843942
0.11244632 0.050384264 -0.0035771339 -0.05428138 0.021925317 0.0017706597 0.13730498 0.047297727
-0.0066139502 0.07103413 -0.104536854 0.05933903 -0.052128352 0.013365434 -0.04605669 -0.0005359579
-0.11859928 -0.015207241 0.056918953 0.07854889 0.0053153764 0.048901584 -0.07862207 0.074189015
-0.03779202 0.050058577 -0.108759545 -0.10295123 0.018939706 -0.034874853 -0.019985626 -0.006904531
0.09239693 0.043580487 0.03548766 -0.107694045 0.04067336 0.13715932 -0.03701264 0.065169595
-0.13122484 0.054451667 -0.12979528 -0.11004977 -0.047518823 -0.10107006 -0.025249723 -0.022134675
-0.055723544 0.00957693 -0.10054359 -0.17654549 -0.1004314 -0.0041892366 0.13495852 -0.1047232
0.04021918 0.018874979 -0.059561774 0.018072858 0.15945706 -0.0731271 0.19146764 0.015190967
0.063011535 -0.07968397 0.08384803 0.030448366 -0.19295113 0.082247615 0.020541389 -0.07038298
-0.09878675 0.09719537 0.09413764 -0.14686859 0.032455202 0.09266604 -0.0022148178 -0.019848105
0.17320287 -0.22173218 0.12016489 0.038446616 -0.022437485 0.10399774 0.08500981 0.15460101
0.03600688 -0.23317215 0.028683515 0.19994734 0.074762255 -0.06887554 -0.0018459229 -0.012456508
0.16520296 -0.11347188 0.16302219 0.16869628 0.08787742 -0.086510874 0.18549877 0.18811668
0.25748453 0.07477129 -0.06551162 0.12353143 -0.012298471 0.11367661 -0.056177698 -0.203185
-0.09939802 -0.02810947 0.024718411 -0.092497684 -0.065899394 -0.06611375 -0.10896703 -0.17635365
0.076661274 0.28375596 0.18010454 -0.07986076 0.14068003 0.08647701 0.014408066 -0.009247288
0.21250758 0.055821273 0.07044009 0.19839318 -0.053349674 -0.08286604 0.059861783 -0.08794599
-0.09329425 -0.1505849 0.12913257 0.011465514 -0.014018638 0.017665071 0.056062073 -0.073628806
0.021923123 0.065724745 0.054725375 -0.16398104 -0.08622446 -0.04397743 -0.14228784 0.18186477
0.06564885 -0.10789662 -0.1687948 -0.13062009 0.0034182048 0.037296824 -0.04961717 -0.10268426
00000000: fbcc b03c 46ad 5cbd 81dd 8bbd 124c 0ebc
00000010: 1f47 6d3d 9bca 213e b220 b83d 83e4 40ba
00000020: 22ca f23d 0b78 bdbd 2814 eabd b524 9ebd
00000030: ee65 adbc d584 9d3b 6feb e4bd f8c6 453d
00000040: 0b39 9d3d 78b0 213d 5bd1 56bd cda5 0cbd
00000050: b2a5 673d 0bc2 3c3e 1395 72bc f353 3239
00000060: ea74 28bd 2f06 7cb9 64ef 0a3d 9d59 243b
00000070: c066 5a3d fb09 263d 3ec1 e63c 62cb cd3c
00000080: 7418 143d 16cb ec3c e0a6 e23c 80c6 80bd
00000090: b5ad bfbc 83b0 23bc 211f 86bd 2548 12be
000000a0: 9da6 05bd d2e4 163c a83a 8c3c 96ec e9bc
000000b0: 526d e2bb ad59 73bd 96bf cd3d 0525 913d
000000c0: f9c0 38bd e1bb 84bb e4a5 5e3d 5c70 123c
000000d0: d931 20bd 3ecb b13c db65 a5bc a80e dbba
000000e0: 698c 8c3c d335 80bd 2e8c aa3d 3227 113c
000000f0: 1ddc 88bd a978 8bbd 2c54 a93c fa39 4a3d
00000100: c770 b63d 9acc 15bc 0565 a5bd 72b9 1dbc
00000110: 88ca 9c3c cd4c 2fbb d679 ec3c 37c2 86bd
00000120: f63f bd3c 1b15 02be b4b8 2c3e 7a9c e5bc
00000130: 8cc7 9bbd 435e 413d f809 53bc 0c7b a63d
00000140: 7747 69bd 45d6 66bd f820 1abd 7f73 093d
00000150: ff86 f4bd 76d5 b8bd 7743 71bd de11 903d
00000160: 6b2d 3f3d fe80 6c3c 4b6c a1bd e10f 1f3d
00000170: 6156 0ebd c9bf 943d 194d d0ba c5ed 6c3d
00000180: 424a e63d bb5f 4e3d 596e 6abb 2756 5ebd
00000190: b99c b33c 7b15 e83a ad99 0c3e 43bb 413d
000001a0: d6b9 d8bb 587a 913d 6b17 d6bd 7c0d 733d
000001b0: 8a84 55bd b1fa 5a3c f1a5 3cbd 877f 0cba
000001c0: 2ee4 f2bd cb27 79bc d923 693d 3ede a03d
000001d0: 9c2c ae3b 074d 483d 9c04 a1bd 69f0 973d
000001e0: cecb 1abd 390a 4d3d 53bd debd 18d8 d2bd
000001f0: 7127 9b3c efd8 0ebd e5b8 a3bc 673f e2bb
00000200: 9a3a bd3d 7481 323d 825b 113d b28e dcbd
00000210: 1c99 263d 7e73 0c3e 919a 17bd a377 853d
00000220: ce5f 06be b608 5f3d 0ee9 04be c661 e1bd
00000230: 19a3 42bd d2fd cebd 82d8 cebc c753 b5bc
00000240: 5f3e 64bd 8ee8 1c3c cce9 cdbd 57c8 34be
00000250: faae cdbd dd45 89bb 9132 0a3e 1e79 d6bd
00000260: debc 243d b39f 9a3c 0cf7 73bd 880d 943c
00000270: b648 233e a9c3 95bd 1810 443e 89e3 783c
00000280: 310c 813d 5931 a3bd 84b8 ab3d da6e f93c
00000290: fb94 45be 7071 a83d 6a46 a83c f424 90bd
000002a0: b550 cabd 5e0e c73d 3ccb c03d b864 16be
000002b0: bfef 043d b1c7 bd3d 7a26 11bb 7e98 a2bc
000002c0: 185c 313e c30d 63be 0319 f63d 337a 1d3d
000002d0: d1ce b7bc c4fc d43d a019 ae3d ba4f 1e3e
000002e0: f37b 133d aec4 6ebe b1f9 ea3c ffbe 4c3e
000002f0: f41c 993d 9e0e 8dbd e5f2 f1ba 6216 4cbc
00000300: f72a 293e f263 e8bd 4aef 263e b8be 2c3e
00000310: 14f9 b33d 9d2c b1bd 64f3 3d3e a9a1 403e
00000320: 03d5 833e b121 993d f52a 86bd 0cfe fc3d
00000330: 877f 49bc 48cf e83d 961a 66bd bb0f 50be
00000340: 3091 cbbd d545 e6bc 447e ca3c 6d6f bdbd
00000350: 43f6 86bd a566 87bd 1b2a dfbd 0d96 34be
00000360: 9600 9d3d 7648 913e 536d 383e 0a8e a3bd
00000370: 6d0e 103e dc1a b13d cf0f 6c3c f081 17bc
00000380: 969b 593e d9a4 643d e542 903d 9527 4b3e
00000390: 3085 5abd acb5 a9bd a131 753d 071d b4bd
000003a0: 0e11 bfbd ee32 1abe 543b 043e dad9 3b3c
000003b0: 6eae 65bc 57b6 903c 58a1 653d b3ca 96bd
000003c0: 1f98 b33c b29a 863d b727 603d a5ea 27be
000003d0: 7396 b0bd ad21 34bd e7b3 11be c23a 3a3e
000003e0: e772 863d e7f8 dcbd 8bd8 2cbe 46c1 05be
000003f0: f603 603b 8ec4 183d 603b 4bbd 204c d2bd

layers.block_3.layer.0.bias f4 [128]
-0.071306445 0.06426309 -0.1009554 -0.09882702 0.0058189644 0.021852532 -0.03352683 -0.08572956
0.037357096 0.0056716087 -0.028325774 0.056059733 -0.039960105 0.017871812 0.0051526437 0.028685054
0.0102714775 -0.039264694 -0.038184155 -0.0011778686 0.0063435216 0.036485843 -0.06080381 -0.0050817044
-0.012271033 -0.026381776 -0.05627877 -0.0030447198 0.04819535 0.07294414 0.056273453 -0.049262915
-0.08665512 0.06978046 -0.018776022 -0.058733754 -0.006855388 -0.048504867 0.019009419 0.047634017
0.023277426 -0.050076243 -0.022955198 -0.04395314 -0.060433056 -0.05982402 0.001015509 0.013153444
0.073354244 0.041408993 0.0048940564 0.07712433 -0.06972841 -0.05651476 -0.00711827 0.017412469
-0.064081274 0.07110154 -0.01751349 0.09893177 -0.031700842 -0.07286888 0.069458306 -0.07553675
-0.0097314445 0.09587617 -0.04382156 0.017643292 -0.0007765845 -0.016775534 0.050997447 0.006381404
-0.025670685 0.064383596 -0.03337459 0.040250935 -0.09232562 0.0453534 0.04055734 0.049701948
0.0010865976 -0.012606989 0.02421774 0.07130897 0.01274493 0.08065198 -0.0022173624 0.004585738
-0.043543763 0.06879704 -0.08191048 0.011287763 -0.06447546 0.06982232 0.042000253 0.031306513
-0.07691726 0.058004208 -0.016310018 0.062314857 0.070307285 -0.010586583 -0.05672035 0.054307394
0.047582712 0.091734625 0.043671258 0.04873836 0.007810655 0.013105479 -0.075167686 -0.061736166
-0.052091904 -0.060552083 -0.014250201 0.015072614 -0.08521546 -0.09240891 -0.02455467 0.066846415
0.04172578 0.017471042 -0.0032639855 0.03223871 -0.013904115 0.042318102 0.049589384 -0.010483837
00000000: 1d09 92bd 5e9c 833d b4c1 cebd d265 cabd
00000010: 03ad be3b 1504 b33c 6e53 09bd fb92 afbd
00000020: c103 193d e7d8 b93b 740b e8bc e49e 653d
00000030: 35ad 23bd e867 923c 82d7 a83b ebfc ea3c
00000040: b349 283c 04d4 20bd fd66 1cbd b662 9aba
00000050: 51dd cf3b 2e72 153d 6a0d 79bd 6d84 a6bb
00000060: 710c 49bc 981e d8bc 9184 66bd ec89 47bb
00000070: 7d68 453d bd63 953d fe7e 663d e9c7 49bd
00000080: 3d78 b1bd 0fe9 8e3d 2cd0 99bc ce92 70bd
00000090: 2aa3 e0bb 0aad 46bd a4b9 9b3c e31b 433d
000000a0: 4db0 be3c bf1c 4dbd 8a0c bcbc 3508 34bd
000000b0: a788 77bd 080a 75bd d41a 853a 8b81 573c
000000c0: c03a 963d 7a9c 293d 525e a03b 5cf3 9d3d
000000d0: c5cd 8ebd 057c 67bd 6040 e9bb 98a4 8e3c
000000e0: 0b3d 83bd af9d 913d 7378 8fbc bd9c ca3d
000000f0: bed8 01bd 483c 95bd 2840 8e3d 03b3 9abd
00000100: a370 1fbc ba5a c43d 3c7e 33bd aa88 903c
00000110: b493 4bba d86c 89bc b3e2 503d 191b d13b
00000120: 544b d2bc 8cdb 833d cbb3 08bd 2ade 243d
00000130: 3715 bdbd 7dc4 393d 741f 263d 4594 4b3d
00000140: 2a6c 8e3a 8b8d 4ebc 4864 c63c 700a 923d
00000150: 1cd0 503c de2c a53d 2b51 11bb f543 963b
00000160: f25a 32bd 76e5 8c3d afc0 a7bd 4ff0 383c
00000170: b60b 84bd 01ff 8e3d 7508 2c3d 423b 003d
00000180: cc86 9dbd d295 6d3d 969c 85bc dd3d 7f3d
00000190: 44fd 8f3d 5973 2dbc 9953 68bd 6e71 5e3d
000001a0: 17e6 423d 5ddf bb3d a2e0 323d e0a1 473d
000001b0: 86f0 ff3b 5db8 563c 84f1 99bd 10df 7cbd
000001c0: 525e 55bd 7605 78bd ad79 69bc 20f3 763c
000001d0: 7185 aebd e240 bdbd e026 c9bc c6e6 883d
000001e0: a7e8 2a3d 6e1f 8f3c 97e8 55bb bd0c 043d
000001f0: 16ce 63bc bf55 2d3d 3d1e 4b3d 66c4 2bbc

layers.output.weight f4 [2, 128]
-0.29719934 0.63574946 -0.059971098 -0.7226491 -0.05749774 -0.1826044 -0.17919064 0.3945993
0.16821986 -0.06271839 0.009909552 0.019652562 0.06880604 0.0003994885 -0.22519132 0.74700373
0.5609158 0.4471141 -0.15765017 0.010719379 -0.10921631 -0.5826324 -0.17236333 -0.17891388
-0.05564745 -0.5014223 0.053669415 0.1181778 0.054332826 -0.50462836 -0.16339774 0.2892818
-0.14531258 -0.21452643 0.7876324 0.18546797 -0.246634 -0.4209987 -0.08994087 -0.36900938
-0.15192069 -0.113499954 0.11109469 -0.30898273 -0.11810613 -0.11470472 0.24463952 0.6663348
-0.6731774 -0.56743735 0.11195304 0.18203418 0.51945406 0.22422688 -0.35468614 0.40689245
-0.111140795 0.18132189 -0.17894258 0.023206515 0.19847217 0.09527445 -0.07661986 -0.01971098
-0.15236893 -0.103961155 -0.12690331 0.1633973 0.17050993 0.26109996 -0.41880333 -0.27976185
0.051840812 0.29818276 -0.23976482 -0.2142573 0.013599736 -0.32809177 0.29144582 -0.08122862
-0.10858004 0.31245434 0.08404986 0.12030251 0.058742363 -0.026724681 -0.7736896 0.11614576
0.5605352 0.06754874 0.50223273 -0.4309966 0.08087492 0.05532258 -0.03191785 -0.31257415
0.06962383 -0.113471195 0.40791747 -0.1807786 0.10008552 -0.11472538 0.1991857 -0.5494969
-0.19373864 -0.30375648 -0.21026185 0.536273 0.5737552 -0.096839085 0.5682846 -0.006400424
-0.040340528 0.23566025 -0.041843966 -0.014039352 0.11406782 0.30158353 -0.07301657 0.8860292
-0.14437611 0.060698107 -0.16547543 0.38896844 -0.5780194 -0.72741157 0.05374942 0.10993468
0.039214626 -0.30900472 -0.090057544 -0.21427277 -0.016015274 -0.25741345 -0.1601468 -0.11374271
0.05928991 -0.20264989 0.24193594 -0.15643707 -0.3236478 0.04821017 -0.21760908 0.22395979
-0.15901102 0.14825284 -0.22717172 0.24488124 0.14528899 0.45842993 -0.25074753 0.15446827
0.45077217 0.02918489 -0.42490777 -0.30143648 0.28038356 0.10948754 -0.07574614 0.22766757
0.3474277 -0.06542058 -0.120021865 -0.06747115 0.033972137 0.285522 -0.08713668 0.41842845
-0.20272976 -0.061770193 -0.53206223 -0.004885914 -0.13849106 0.31760556 0.096517816 -0.34209567
0.40476012 -0.028703427 -0.25505722 0.16997428 -0.49712294 -0.48382655 0.22463207 -0.5423053
-0.21659753 -0.22025898 -0.47742987 -0.19260798 -0.4858011 -0.00962819 -0.2821814 0.144901
0.11535976 0.24159937 -0.10996647 -0.18939932 -0.0015507984 -0.06629688 0.75066346 -0.26951188
-0.24284826 0.19941078 0.24804905 0.14290345 0.27033272 0.44021016 -0.35827067 -0.00578467
-0.07768609 -0.44103593 -0.28301314 0.01954292 0.18289831 0.30423257 -0.18693373 0.2274256
-0.18056785 0.34362617 -0.4021371 0.116115145 0.21485767 0.18616992 0.020202667 0.29362115
0.50302297 -0.08942949 -0.75772 -0.26582587 0.05718635 0.05420506 -0.006957254 0.10893843
-0.0251756 0.37299597 0.4663397 -0.3103602 -0.04454269 -0.13788229 -0.42311594 0.21621911
-0.2351957 -0.4322056 0.11424494 -0.0037744395 0.101381704 0.7824946 0.40706733 -0.048622895
0.41433075 -0.07077783 -0.17287232 -0.05959368 0.6207881 0.22913694 0.19411728 0.15068865
00000000: 832a 98be 7ac0 223f 41a4 75bd 88ff 38bf
00000010: c082 6bbd a6fc 3abe c07d 37be eb08 ca3e
00000020: d441 2c3e 8072 80bd ac5b 223c 69fe a03c
00000030: 2eea 8c3d 7072 d139 8e98 66be a33b 3f3f
00000040: 2e98 0f3f 24ec e43e 0c6f 21be 56a0 2f3c
00000050: cdac dfbd 6627 15bf 0380 30be 3335 37be
00000060: 95ee 63bd 365d 00bf 76d4 5b3d 3407 f23d
00000070: 198c 5e3d 532f 01bf bd51 27be be1c 943e
00000080: d2cc 14be d1ac 5bbe 47a2 493f 51eb 3d3e
00000090: a08d 7cbe 248d d7be eb32 b8bd ccee bcbe
000000a0: 1991 1bbe aa72 e8bd 9d85 e33d fc32 9ebe
000000b0: a0e1 f1bd 4fea eabd c882 7a3e eb94 2a3f
000000c0: 5b55 2cbf 9343 11bf a347 e53d 2b67 3a3e
000000d0: f1fa 043f bb9b 653e 6c99 b5be 3554 d03e
000000e0: c99d e3bd 72ac 393e b93c 37be 971b be3c
000000f0: 4a3c 4b3e 401f c33d e0ea 9cbd ec78 a1bc
00000100: 9a06 1cbe 96e9 d4bd f1f2 01be 9f51 273e
00000110: 289a 2e3e e5ae 853e 646d d6be f23c 8fbe
00000120: 0857 543d 69ab 983e e984 75be 4466 5bbe
00000130: 6dd1 5e3c a5fb a7be 6338 953e 315b a6bd
00000140: 365f debd 04fa 9f3e 5522 ac3d 2a61 f63d
00000150: d59b 703d b8ed dabc 8610 46bf d4dd ed3d
00000160: 3c7f 0f3f fe56 8a3d 5392 003f 96ab dcbe
00000170: c0a1 a53d ee99 623d 4bbc 02bd b809 a0be
00000180: f096 8e3d 9663 e8bd 8fda d03e 061e 39be
00000190: a3f9 cc3d 24f5 eabd 56f7 4b3e d4ab 0cbf
000001a0: 6c63 46be f885 9bbe e24e 57be 3049 093f
000001b0: 9fe1 123f 9253 c6bd 197b 113f a6ba d1bb
000001c0: 1c3c 25bd ec50 713e 9464 2bbd 4f05 66bc
000001d0: 649c e93d 2869 9a3e b689 95bd cfd2 623f
000001e0: 55d7 13be 949e 783d 6472 29be df26 c73e
000001f0: 14f9 13bf a537 3abf 5a28 5c3d 6f25 e13d
00000200: 849f 203d de35 9ebe 1770 b8bd 526a 5bbe
00000210: 7732 83bc b2cb 83be 86fd 23be f0f1 e8bd
00000220: fad9 723d 7483 4fbe 0ebe 773e 0a31 20be
00000230: 2ab5 a5be 0778 453d ead4 5ebe b755 653e
00000240: c9d3 22be 98cf 173e b49f 68be 26c2 7a3e
00000250: a3c6 143e 54b7 ea3e fb61 80be ee2c 1e3e
00000260: 9ccb e63e 2715 ef3c 838d d9be e255 9abe
00000270: 6f8e 8f3e 013b e03d cb20 9bbd b021 693e
00000280: 0be2 b13e 3afb 85bd 06ce f5bd 502e 8abd
00000290: 5e26 0b3d f12f 923e b774 b2bd 413c d63e
000002a0: 6498 4fbe be02 7dbd 3b35 08bf 041a a0bb
000002b0: 9ad0 0dbe 329d a23e 22ab c53d 2a27 afbe
000002c0: b83c cf3e 7323 ebbc dc96 82be bd0d 2e3e
000002d0: e686 febe 1db8 f7be f305 663e 85d4 0abf
000002e0: becb 5dbe 928b 61be b071 f4be 073b 45be
000002f0: ecba f8be 8ebf 1dbc 157a 90be ee60 143e
00000300: bd41 ec3d d365 773e 1a36 e1bd e5f1 41be
00000310: 2944 cbba a9c6 87bd 7b2b 403f 76fd 89be
00000320: 37ad 78be 5732 4c3e 9200 7e3e 4855 123e
00000330: 0d69 8a3e 3a63 e13e 416f b7be 548d bdbb
00000340: e219 9fbd 76cf e1be 19e7 90be 7918 a03c
00000350: b249 3b3e 5fc4 9b3e 8e6b 3fbe 42e2 683e
00000360: c7e6 38be c5ef af3e eae4 cdbe c7cd ed3d
00000370: a603 5c3e 54a3 3e3e 1080 a53c 8355 963e
00000380: 1dc6 003f cf26 b7bd f0f9 41bf 541a 88be
00000390: 3c3c 6a3d 2006 5e3d adf9 e3bb 1d1b df3d
000003a0: 0f3d cebc 54f9 be3e 14c4 ee3e 88e7 9ebe
000003b0: 6572 36bd 0431 0dbe a7a2 d8be 8b68 5d3e
000003c0: 24d7 70be 0d4a ddbe 40f9 e93d 965c 77bb
000003d0: 36a1 cf3d 9151 483f 216b d03e cd28 47bd
000003e0: 2923 d43e f8f3 90bd 7105 31be 8118 74bd
000003f0: f8eb 1e3f e0a2 6a3e aec6 463e 204e 1a3e

layers.output.bias f4 [2]
0.1664155 -0.011184836
00000000: d368 2a3e 9a40 37bc
