results/SMOTE5K/smote0/smote0.25/model.pth (torch, 205093 bytes, 10 tensors)

layers.block_0.layer.0.weight f4 [128, 2]
-0.9998059 -0.04512893 -0.4852043 -0.53738177 -0.48953092 -0.3447312 0.68896335 0.34931275
-0.66652787 0.67722285 0.7912605 -0.15911289 -0.85069543 -0.5260683 0.27316076 -0.0045382823
-0.8894001 0.6247929 -0.4357646 -0.4644602 -0.90970707 0.022558274 1.1153203 -0.29085568
0.9463755 -0.35903767 0.2606563 0.73683816 -0.27557755 -0.22372222 1.0180783 0.5761997
0.6093997 -0.28573465 -0.11612254 -0.3624435 0.3776537 -0.82163846 -0.29605153 -0.7347816
0.98956335 0.4356251 0.68011194 0.14707227 0.8805731 -0.52085704 0.06828331 -0.2463205
-0.20056646 -0.70017684 -0.9686373 0.39207387 -0.29384694 0.5107988 0.60698795 0.487673
-0.276495 -0.63564205 0.76249284 -0.37737817 -0.46959463 -0.64047104 1.2945508 -0.02596816
1.0406469 -0.08133864 0.33208945 0.56542236 -0.49728534 -0.37416443 -0.6849928 -0.5637976
-0.8788315 0.52264386 -0.4737873 0.5690617 0.65336263 0.07317419 -0.8429418 0.26267487
0.74467313 -0.2451916 0.78246504 0.4643115 -1.3858263 0.028584257 -0.9995012 -0.30468428
0.76426613 -0.14476976 -0.00014870794 -0.32189623 0.8954394 0.15124711 0.7331833 0.37931797
-0.6420662 0.33102444 -0.09137149 0.6958131 -0.3187114 -0.41737336 -0.7213012 0.2689357
-0.5435525 0.38212195 0.74594766 0.58092344 0.71883005 -0.50274473 0.43125236 -0.22914198
-0.7525388 0.2049747 0.764595 -0.1517414 -0.705102 0.22195613 0.2411579 0.36154583
-0.8613276 -0.25804308 1.0605077 -0.2612747 -0.89103127 -0.27513522 1.0396204 -0.2874301
0.62152416 0.5832903 0.92242706 0.5266985 -0.7990345 -0.5068713 -0.15999852 0.67534703
-0.62149525 0.58263177 0.7443073 0.33739436 0.36896342 0.67594606 0.8288173 0.06787629
0.07015319 -0.022773398 -0.42174873 -0.65649104 0.49671343 -0.6488204 1.0430263 0.21169871
0.33993378 -0.52377987 -0.87817264 0.14256792 0.9442545 -0.34930256 1.0651437 0.28167567
-0.9925497 -0.539627 -0.50757694 -0.5215408 0.80515844 -0.3957977 -0.97576505 0.63731366
-0.30577382 -0.6037584 -0.9022507 0.19470932 -0.9798616 -0.2537281 -0.93723154 0.36312446
-1.2081797 -0.123697445 -0.028361948 -0.8443422 0.3749735 0.7825088 -0.8811875 0.10908806
0.31603286 -0.40162262 -0.77195257 0.69197124 -0.31752884 0.7365537 -0.99638605 -0.6153613
0.0845032 0.4582594 -0.58879197 -0.33955643 -0.2765341 -0.8408522 0.3413614 -0.040161096
0.6567752 -0.08256601 -0.12663603 0.16117428 0.61044866 -0.4759431 -0.88467366 0.31130004
-0.19611464 0.6975447 0.6514803 0.09770368 1.0243949 -0.3913821 -0.5948283 -0.35720703
0.050269302 0.53371537 -0.39477417 0.3600253 -0.37591082 0.11830298 -0.48318237 0.7711952
-0.34408674 -0.019496597 -0.7296935 -0.17027128 0.22722185 -0.09330244 0.3823719 -0.60428137
-0.4012523 -0.5479459 0.06091503 -0.29843035 1.0763094 0.10079931 -0.46880177 0.6534919
-0.26371893 -0.54210424 0.89916277 0.37328005 -1.1294093 0.07306604 -0.48098406 -0.37519816
-0.75631 0.4876748 0.26626176 0.1969085 0.37457797 0.2366131 0.62480366 -0.5567235
00000000: 48f3 7fbf 1dd9 38bd b36c f8be da91 09bf
00000010: cca3 fabe 9c80 b0be e75f 303f 1fd9 b23e
00000020: 92a1 2abf 7a5e 2d3f 0c90 4a3f 7dee 22be
00000030: 2dc7 59bf 69ac 06bf badb 8b3e dfb5 94bb
00000040: baaf 63bf 6df2 1f3f 8a1c dfbe bacd edbe
00000050: 90e2 68bf 21cc b83c d1c2 8e3f 09eb 94be
00000060: aa45 723f c9d3 b7be be74 853e 6da1 3c3f
00000070: 8018 8dbe 7017 65be 6450 823f d381 133f
00000080: 9e01 1c3f d04b 92be a7d1 edbd 3292 b9be
00000090: d35b c13e e656 52bf 1194 97be a61a 3cbf
000000a0: 0654 7d3f 410a df3e d11b 2e3f 1d9a 163e
000000b0: 3d6d 613f e356 05bf 1fd8 8b3d 713b 7cbe
000000c0: 4b61 4dbe ca3e 33bf 9df8 77bf e8bd c83e
000000d0: 1b73 96be b6c3 023f 9063 1b3f 47b0 f93e
000000e0: c190 8dbe 70b9 22bf bb32 433f b637 c1be
000000f0: b56e f0be e9f5 23bf d7b3 a53f 2ebb d4bc
00000100: eb33 853f df94 a6bd a107 aa3e 85bf 103f
00000110: 2f9c febe 7b92 bfbe b05b 2fbf 0a55 10bf
00000120: 1afb 60bf fdcb 053f 4094 f2be 07ae 113f
00000130: c642 273f 5adc 953d 09cb 57bf 527d 863e
00000140: e6a2 3e3f 8213 7bbe a14f 483f 3dba ed3e
00000150: c262 b1bf 8829 ea3c 50df 7fbf 94ff 9bbe
00000160: f2a6 433f 863e 14be 7cee 1bb9 95cf a4be
00000170: 843b 653f 86e0 1a3e e7b1 3b3f f735 c23e
00000180: 735e 24bf 097c a93e fa20 bbbd cf20 323f
00000190: 242e a3be f6b1 d5be 32a7 38bf f1b1 893e
000001a0: 4226 0bbf 7da5 c33e 6df6 3e3f 66b7 143f
000001b0: 3f05 383f e1b3 00bf 1ccd dc3e 32a4 6abe
000001c0: 62a6 40bf e3e4 513e 7fbc 433f 1962 1bbe
000001d0: 9181 34bf 7848 633e 19f2 763e 891c b93e
000001e0: f77f 5cbf 391e 84be b7be 873f ccc5 85be
000001f0: a01a 64bf 86de 8cbe 4812 853f 0a2a 93be
00000200: 351c 1f3f 8352 153f 2e24 6c3f b7d5 063f
00000210: 868d 4cbf 51c2 01bf a7d6 23be 8be3 2c3f
00000220: 501a 1fbf 5b27 153f ec8a 3e3f f4be ac3e
00000230: c6e8 bc3e cd0a 2d3f 5f2d 543f b902 8b3d
00000240: 7aac 8f3d 478f babc 73ef d7be cc0f 28bf
00000250: 3951 fe3e 1819 26bf e381 853f 8cc7 583e
00000260: cd0b ae3e 7016 06bf eccf 60bf 53fd 113e
00000270: aaba 713f c9d7 b2be a156 883f cb37 903e
00000280: bd17 7ebf ff24 0abf 90f0 01bf b383 05bf
00000290: dd1e 4e3f ffa5 cabe bdcb 79bf fd26 233f
000002a0: 638e 9cbe e98f 1abf e7f9 66bf e161 473e
000002b0: 36d8 7abf a6e8 81be 68ee 6fbf 73eb b93e
000002c0: a2a5 9abf 1655 fdbd 5157 e8bc cf26 58bf
000002d0: 87fc bf3e 7f52 483f 8195 61bf 9069 df3d
000002e0: 0fcf a13e 7ba1 cdbe af9e 45bf 0725 313f
000002f0: 2493 a2be c98e 3c3f 2813 7fbf 5188 1dbf
00000300: 0410 ad3d faa0 ea3e 12bb 16bf 57da adbe
00000310: e195 8dbe 1742 57bf ecc6 ae3e f67f 24bd
00000320: 6b22 283f 5e18 a9bd e0ac 01be df0a 253e
00000330: 5d46 1c3f d0ae f3be f979 62bf b862 9f3e
00000340: 47d2 48be 4a92 323f 6ac7 263f de18 c83d
00000350: 5f1f 833f 3c63 c8be ab46 18bf d7e3 b6be
00000360: 2fe7 4d3d 92a1 083f d71f cabe 3c55 b83e
00000370: 6277 c0be d548 f23d ae63 f7be 0c6d 453f
00000380: 232c b0be 54b7 9fbc 31cd 3abf 985b 2ebe
00000390: d8ac 683e 5a15 bfbd 40c6 c33e 2fb2 1abf
000003a0: f170 cdbe 2f46 0cbf 0a82 793d ddcb 98be
000003b0: 82c4 893f de6f ce3d c906 f0be 3f4b 273f
000003c0: 2b06 87be 58c7 0abf 882f 663f 901e bf3e
000003d0: 7c90 90bf a6a3 953d 8b43 f6be f919 c0be
000003e0: 889d 41bf 83b0 f93e 7653 883e 62a2 493e
000003f0: afc8 bf3e b44a 723e 22f3 1f3f 6e85 0ebf

layers.block_0.layer.0.bias f4 [128]
0.22261913 0.409744 0.32120383 -0.60843885 -0.3335951 -0.39116216 0.65799594 -0.49825826
-0.7014358 0.16253328 0.038000077 0.20412579 0.23683149 -0.120498955 -0.36025143 -0.32810107
0.5546495 -0.31680927 -0.6565826 -0.5346485 -0.4788217 -0.03480031 0.40168637 0.14956848
-0.6982251 0.042126942 -0.43451917 -0.22185877 0.0009340267 0.46064588 -0.017854339 -0.010013924
0.053295087 -0.5164259 0.6397944 0.3527767 -0.41042623 0.16753542 0.5528784 -0.24134485
-0.0075998465 -0.47218713 -0.03341394 0.16015963 0.2050181 -0.5080354 -0.23681992 -0.2895648
-0.14094912 -0.5986857 -0.236923 -0.026389673 -0.07301857 -0.43014133 0.3949368 -0.656155
-0.11480701 0.102340974 -0.5064979 0.60653865 -0.030833568 0.2996233 0.14749935 0.25246692
0.1463658 -0.36900324 0.2251512 0.5381863 -0.18302776 -0.24896947 -0.73912305 0.29484385
0.5526316 0.6337769 -0.4383055 -0.11061824 -0.14662033 -0.24558273 0.20235062 -0.23749328
0.51479405 0.5966794 0.53161424 -0.6108681 0.34356475 0.076290354 0.2262748 -0.12540397
0.0641653 -0.5801097 0.35572466 -0.14922081 -0.6758352 -0.40991732 -0.4459046 0.18244484
-0.568143 -0.47003788 -0.37740424 0.1661444 -0.32170954 -0.64928085 0.17723107 0.11437811
0.50190836 0.5198113 0.36378127 0.37792608 0.68161744 -0.3107762 0.12393231 0.15657009
0.56567097 -0.27010176 0.32625625 -0.65451294 -0.62347806 -0.49143612 -0.09597618 -0.56265754
0.55076796 -0.4116089 0.009178591 0.6745549 -0.67843986 -0.4584526 -0.5687849 0.584412
00000000: 45f6 633e f7c9 d13e d474 a43e a6c2 1bbf
00000010: facc aabe 6846 c8be 6c72 283f b51b ffbe
00000020: 4c91 33bf 206f 263e f8a5 1b3d 5a06 513e
00000030: f483 723e 28c8 f6bd e072 b8be ddfc a7be
00000040: 82fd 0d3f d334 a2be cc15 28bf b9de 08bf
00000050: 1e28 f5be c58a 0ebd d6a9 cd3e 7b28 193e
00000060: e1be 32bf 4d8d 2c3d 4c79 debe f22e 63be
00000070: 79d9 743a c7d9 eb3e 4343 92bc 7111 24bc
00000080: f34b 5a3d 7d34 04bf 91c9 233f 269f b43e
00000090: 6323 d2be 688e 2b3e 7089 0d3f 1b23 77be
000000a0: 2208 f9bb 83c2 f1be 0edd 08bd e300 243e
000000b0: 44f0 513e 9c0e 02bf ec80 72be d641 94be
000000c0: f754 10be 7743 19bf f19b 72be 282f d8bc
000000d0: c38a 95bd 7c3b dcbe 2835 ca3e c6f9 27bf
000000e0: f01f ebbd 2598 d13d d9a9 01bf 1e46 1b3f
000000f0: ae96 fcbc 3a68 993e 120a 173e 5843 813e
00000100: ebe0 153e feed bcbe 098e 663e 94c6 093f
00000110: a16b 3bbe daf1 7ebe 2b37 3dbf c6f5 963e
00000120: 4479 0d3f 343f 223f 9469 e0be d18b e2bd
00000130: a423 16be 0a7a 7bbe 0035 4f3e 7031 73be
00000140: 8bc9 033f fbbf 183f df17 083f da61 1cbf
00000150: b8e7 af3e 1e3e 9c3d 95b4 673e e669 00be
00000160: 1969 833d 1282 14bf 8b21 b63e 57cd 18be
00000170: 8903 2dbf afe0 d1be 9c4d e4be d2d2 3a3e
00000180: d271 11bf cea8 f0be 213b c1be c221 2a3e
00000190: 1db7 a4be 4537 26bf 107c 353e 123f ea3d
000001a0: 117d 003f 5a12 053f 8a41 ba3e 877f c13e
000001b0: 7b7e 2e3f 0f1e 9fbe 39d0 fd3d e953 203e
000001c0: d0cf 103f c74a 8abe 0f0b a73e 298e 27bf
000001d0: 429c 1fbf 849d fbbe 298f c4bd 530a 10bf
000001e0: 21ff 0c3f 67be d2be cd61 163c a1af 2c3f
000001f0: 3cae 2dbf 4dba eabe e39b 11bf 069c 153f

layers.block_1.layer.0.weight f4 [128, 128]
0.0054368526 -0.07773588 -0.06346342 0.06861698 0.033704393 0.086035095 -0.033299856 -0.0002713088
0.0402754 -0.019427592 -0.03664487 0.009431129 -0.015468961 0.05851971 0.01036759 0.0406139
-0.040220752 -0.042248037 0.07370003 -0.002275256 -0.050128512 -0.014776891 0.10713081 -0.047341228
-0.022408364 -0.111158855 0.065381184 -0.008173806 -0.011390824 0.035492454 -0.050091766 0.08646545
0.027422562 0.07825232 -0.020510275 0.03470863 0.00574688 -0.11128319 0.04428299 -0.051945888
0.027250653 0.045935094 -0.1403928 -0.039862793 0.10929424 0.039455175 0.10518528 -0.0047426755
-0.027478382 0.036030866 0.0694175 -0.012179448 -0.086928375 0.07742739 -0.018597718 0.07172346
-0.15042244 0.01566701 -0.06876053 0.02378734 -0.047287624 0.08906541 -0.13674644 0.108515225
0.054046378 -0.038774982 0.0052703647 0.038664997 -0.13096526 0.09641745 -0.048523925 0.07623632
-0.0074457712 -0.029824765 0.06005827 0.049225077 0.05857826 -0.0037446218 0.06931919 0.124828234
-0.00857177 0.030019414 -0.064343125 -0.022030056 -0.08367614 -0.081904344 -0.11550844 -0.045223635
-0.14408538 0.01031725 -0.017388748 -0.056264933 0.076901086 -0.061414503 0.0022159433 -0.042506147
-0.04233928 0.018442687 0.0007275798 -0.041785136 -0.031642225 0.060936842 0.0022521603 0.04166375
-0.04918599 0.05177702 0.10333728 0.008701068 -0.063177645 -0.037385333 -0.11860015 0.04346136
-0.041251656 0.043245435 0.04005209 0.084913135 -0.0692045 -0.045450974 0.039404895 0.08728224
0.025633639 0.038420957 -0.017586192 0.016742578 -0.083347306 -0.03295417 -0.016903939 -0.00012879107
-0.054789398 -0.054652542 -0.07286521 -0.008420026 0.056994017 0.038900867 0.022381356 -0.029241256
-0.0006544331 -0.072612055 -0.003330911 -0.20796208 -0.20533791 0.044325005 0.004623626 0.02511591
0.023635978 -0.04190121 -0.049047027 -0.07879307 0.05117743 -0.023155704 -0.1482353 -0.019947482
-0.01605546 0.060456626 0.04064496 -0.07238239 -0.019198252 -0.0037544728 0.0059844474 -0.1198902
-0.2252277 0.095084906 -0.037531137 -0.042853516 0.13848443 0.038667683 -0.01162197 0.13966782
0.009176793 -0.037426606 0.15040772 0.06234442 -0.00523147 0.033626344 0.003398449 0.06743716
0.09553288 0.08238472 0.09383756 0.024706254 0.12882392 0.07220903 -0.09730302 0.06826002
0.12832347 -0.12282907 0.03349115 0.0051345 0.121028244 -0.012222408 0.106232576 -0.19247238
0.015145619 -0.07434999 0.085993886 0.044047322 0.09610881 -0.09144202 0.08391521 -0.017656865
0.0037748744 0.037271656 0.036407396 -0.009552649 0.057689957 0.026830392 -0.19253537 -0.047652572
0.08253046 -0.09552165 -0.06320651 0.13795218 -0.08272668 0.14277892 0.07783367 0.13085395
0.16018929 -0.016659282 -0.058554865 0.020733247 0.029995704 0.025577173 0.00042798757 0.074480414
0.07331669 -0.034647327 -0.06849987 0.008460513 -0.020943781 0.0032136815 -0.16530932 0.09828433
-0.0045292373 0.008660496 -0.024169585 0.064085096 0.07922633 0.05721528 0.0692853 0.0308973
0.013144781 0.07573003 0.011239408 0.042427078 0.0672659 0.06014237 -0.09518137 0.00040405142
-0.0639491 -0.014404268 0.09981338 0.021482142 0.013083233 -0.002483018 0.0109506445 0.017925661
00000000: a027 b23b fd33 9fbd 1cf9 81bd 0f87 8c3d
00000010: 9e0d 0a3d 2b33 b03d 6e65 08bd 733e 8eb9
00000020: d1f7 243d 9d26 9fbc ee18 16bd 0685 1a3c
00000030: 8671 7dbc 5db2 6f3d d3dc 293c c35a 263d
00000040: 84be 24bd 470c 2dbd 0bf0 963d 761c 15bb
00000050: 8e53 4dbd c61a 72bc 6667 db3d e0e8 41bd
00000060: bf91 b7bc 41a7 e3bd 92e6 853d 6deb 05bc
00000070: 94a0 3abc 8960 113d 062d 4dbd cc14 b13d
00000080: 48a5 e03c c142 a03d 2a05 a8bc a32a 0e3d
00000090: 5350 bc3b 71e8 e3bd 1562 353d 36c5 54bd
000000a0: c33c df3c 7026 3c3d 21c3 0fbe 2b47 23bd
000000b0: a9d5 df3d c09b 213d 616b d73d 7268 9bbb
000000c0: 581a e1bc 1a95 133d c32a 8e3d 4f8c 47bc
000000d0: 8107 b2bd 4092 9e3d 3e5a 98bc c0e3 923d
000000e0: 5708 1abe 1a58 803c 52d2 8cbd abdd c23c
000000f0: abb0 41bd ed67 b63d 4207 0cbe 3b3d de3d
00000100: bc5f 5d3d 84d2 1ebd 06b3 ac3b 305f 1e3d
00000110: c21b 06be 8376 c53d 06c1 46bd ca21 9c3d
00000120: a8fb f3bb 1153 f4bc a9ff 753d 3ca0 493d
00000130: c2ef 6f3d 5468 75bb 38f7 8d3d f2a5 ff3d
00000140: 9c70 0cbc 46eb f53c 54c6 83bd 6078 b4bc
00000150: 655e abbd 77bd a7bd b08f ecbd 6b3c 39bd
00000160: 1e8b 13be af09 293c d972 8ebc 0f76 66bd
00000170: 517e 9d3d c68d 7bbd 5c39 113b ed1a 2ebd
00000180: f46b 2dbd 1e15 973c 0ebb 3e3a e426 2bbd
00000190: 479b 01bd e998 793d fb98 133b 9ca7 2a3d
000001a0: 4077 49bd 2414 543d 7fa2 d33d ed8e 0e3c
000001b0: 4863 81bd 5d21 19bd a3e4 f2bd 8a04 323d
000001c0: 7ff7 28bd 2022 313d a90d 243d f0e6 ad3d
000001d0: 17bb 8dbd cd2a 3abd 0767 213d 08c1 b23d
000001e0: a3fd d13c 4b5f 1d3d eb10 90bc bb27 893c
000001f0: feb1 aabd f4fa 06bd 217a 8abc 170c 07b9
00000200: d96a 60bd 58db 5fbd 5b3a 95bd 26f4 09bc
00000210: 8f72 693d 8456 1f3d 1b59 b73c 5c8b efbc
00000220: 438e 2bba a1b5 94bd 6a4b 5abb 03f4 54be
00000230: 1a44 52be 238e 353d c981 973b e2bf cd3c
00000240: 3da0 c13c 9aa0 2bbd 89e5 48bd 435e a1bd
00000250: 6d9f 513d 08b1 bdbc ffca 17be e768 a3bc
00000260: bd86 83bc 5ea1 773d 547b 263d 383d 94bd
00000270: a745 9dbc 9a0d 76bb 2f19 c43b fe88 f5bd
00000280: 17a2 66be e0bb c23d 40ba 19bd 2b87 2fbd
00000290: ddce 0d3e 0162 1e3d 136a 3ebc 1505 0f3e
000002a0: 425a 163c a44c 19bd 7b04 1a3e dd5c 7f3d
000002b0: c06c abbb c7bb 093d 83b8 5e3b 7e1c 8a3d
000002c0: bea6 c33d 52b9 a83d e82d c03d c564 ca3c
000002d0: 6bea 033e 54e2 933d ce46 c7bd e9cb 8b3d
000002e0: 3a67 033e cf8d fbbd 042e 093d 4f3f a83b
000002f0: a8dd f73d 7f40 48bc 7790 d93d 7b17 45be
00000300: 5525 783c cf44 98bd 901d b03d f76a 343d
00000310: b2d4 c43d f445 bbbd bddb ab3d 21a5 90bc
00000320: e263 773b 2aaa 183d ec1f 153d b782 1cbc
00000330: 4e4c 6c3d 69cb db3c fe27 45be 582f 43bd
00000340: bb05 a93d dba0 c3bd 6a72 81bd 5643 0d3e
00000350: 9b6c a9bd a334 123e 4267 9f3d 94fe 053e
00000360: a908 243e 0c79 88bc 3ad7 6fbd c5d8 a93c
00000370: 8db9 f53c 3887 d13c 8563 e039 3089 983d
00000380: 1027 963d 5bea 0dbd a949 8cbd f79d 0a3c
00000390: 4b92 abbc a19c 523b d946 29be 4b49 c93d
000003a0: ff69 94bb c1e4 0d3c 4bff c5bc 0c3f 833d
000003b0: 6a41 a23d 925a 6a3d 74e5 8d3d 561c fd3c
000003c0: 355d 573c 5918 9b3d 7e25 383c 04c8 2d3d
000003d0: b4c2 893d d957 763d 73ee c2bd ddd6 d339
000003e0: bff7 82bd e1ff 6bbc f56a cc3d 51fb af3c
000003f0: 0e5b 563c 21ba 22bb 556a 333c d6d8 923c

layers.block_1.layer.0.bias f4 [128]
-0.07971901 0.00044656557 -0.09094332 0.042495783 -0.113867074 0.034073547 -0.079097435 0.1262279
-0.051426914 -0.08756163 0.0027391058 -0.09120776 0.010874197 -0.09490632 -0.034045763 0.08348075
0.060097035 -0.02601841 -0.022908125 -0.0057337456 -0.02967665 0.033113707 -0.038375314 -0.02406346
-0.061788555 0.112310305 0.034907285 0.058922872 0.019242745 -0.02618233 -0.015289777 -0.014148128
0.038485494 -0.017973388 -0.0487267 0.06597243 0.06885455 -0.098643504 -0.04605448 0.008982623
0.13807918 0.02292405 0.04156237 -0.018038625 -0.05847917 -0.014953294 -0.08839547 0.0236011
-0.06852783 -0.023994861 -0.001309652 0.0036722515 0.06114274 0.074526675 -0.028773433 -0.018404013
-0.04513293 0.063366145 0.026834067 0.042529527 0.037815418 0.02728783 0.006720214 -0.03341494
-0.070838235 -0.061423067 0.06043289 -0.07471898 0.05595871 -0.023787443 0.01814037 -0.03388185
0.03199736 -0.09391382 -0.0045724954 0.03760281 -0.05331593 0.018209137 -0.005578281 -0.12192904
0.045203835 -0.06505106 0.0965976 0.04727783 -0.05957233 -0.046226528 -0.04972099 -0.07644295
-0.010107031 0.101991765 -0.031021597 -0.0016191496 0.06912605 0.018947542 -0.07913517 -0.08148427
0.045108024 0.07132415 0.008257835 0.01105514 -0.038187407 0.010936999 0.025332797 -0.022791915
0.0984826 -0.073998 0.072763756 0.0349475 0.0008891108 0.10182856 -0.070594035 0.018322015
0.057826027 -0.011783665 0.058982585 0.015815297 0.024331972 0.08445094 0.0688614 0.10613747
0.024888895 -0.024939295 0.01276695 -0.046959426 -0.022018138 0.027281087 -0.02584227 0.06315129
00000000: b843 a3bd 0421 ea39 7e40 babd 0f10 2e3d
00000010: 2433 e9bd b490 0b3d d6fd a1bd e341 013e
00000020: 07a5 52bd 8353 b3bd 9282 333b 22cb babd
00000030: b029 323c 3f5e c2bd 9273 0bbd f5f7 aa3d
00000040: 4f28 763d 9024 d5bc d2a9 bbbc 25e2 bbbb
00000050: 721c f3bc 3da2 073d 6f2f 1dbd bc20 c5bc
00000060: ff15 7dbd f202 e63d f1fa 0e3d 1c59 713d
00000070: f6a2 9d3c 537c d6bc f981 7abc 8dcd 67bc
00000080: f7a2 1d3d ed3c 93bc a695 47bd 8e1c 873d
00000090: 9d03 8d3d 9b05 cabd 9fa3 3cbd da2b 133c
000000a0: a164 0d3e 38cb bb3c 4e3d 2a3d bdc5 93bc
000000b0: db87 6fbd a9fe 74bc af08 b5bd 1857 c13c
000000c0: 5258 8cbd df90 c4bc a1a8 abba 28aa 703b
000000d0: cf70 7a3d 71a1 983d 43b6 ebbc 03c4 96bc
000000e0: 4fdd 38bd 1cc6 813d 1ed3 db3c 7133 2e3d
000000f0: 57e4 1a3d ba8a df3c 3e35 dc3b 1bde 08bd
00000100: a313 91bd c196 7bbd 7a88 773d 4406 99bd
00000110: f634 653d e2dd c2bc 1d9b 943c b2c7 0abd
00000120: aa0f 033d e455 c0bd dfd4 95bb 6705 1a3d
00000130: ce61 5abd 542b 953c 03ca b6bb efb5 f9bd
00000140: a827 393d 7d39 85bd f6d4 c53d 66a6 413d
00000150: 1e02 74bd 0758 3dbd 3da8 4bbd 1f8e 9cbd
00000160: f697 25bc 0fe1 d03d 0121 febc a539 d4ba
00000170: f591 8d3d e037 9b3c 9f11 a2bd 3ae1 a6bd
00000180: 31c3 383d 6512 923d df4b 073c 9e20 353c
00000190: 666a 1cbd 1931 333c ba86 cf3c 1cb6 babc
000001a0: 3fb1 c93d 438c 97bd 2a05 953d 1c25 0f3d
000001b0: 3713 693a 7e8b d03d 9b93 90bd 0d18 963c
000001c0: fcda 6c3d 4610 41bc b997 713d 158f 813c
000001d0: d853 c73c 9df4 ac3d 3507 8d3d 9a5e d93d
000001e0: cce3 cb3c 7e4d ccbc 782c 513c 8758 40bd
000001f0: 625f b4bc 967c df3c 2bb3 d3bc 7755 813d

layers.block_2.layer.0.weight f4 [128, 128]
-0.16095437 0.16062872 -0.15019752 -0.041767247 0.01023788 0.04500014 -0.15090653 -0.023506721
0.15012078 0.015380232 0.12525645 -0.09588005 0.11170885 0.0035961696 0.14191261 0.108690545
0.06566099 -0.030400662 0.059713304 -0.05869329 0.074654534 0.0024385331 0.14056909 0.15040816
-0.13808939 -0.2639496 0.04163484 0.104355246 -0.14898914 0.11889329 0.14341028 -0.19579892
-0.04242475 -0.072260685 0.018451165 0.10931077 0.027001075 0.12031599 -0.14799924 -0.20153818
-0.005149231 0.07006779 0.14359646 -0.13816994 -0.15376815 -0.005548619 -0.11923035 0.17756423
0.006217692 -0.03970323 -0.044041183 0.059063084 -0.018652966 -0.04518113 -0.051556706 -0.013233097
-0.11584157 -0.03541266 0.073564984 -0.02468401 0.069856435 0.012697386 0.02614943 -0.023179404
-0.028555851 0.13296247 0.14939201 -0.14059931 0.09601766 -0.08341905 0.12797602 0.008080027
-0.11718172 0.12913245 -0.036621828 -0.13147788 -0.07119156 -0.08206158 -0.19471337 0.040558785
0.053001463 -0.087901235 -0.052942704 0.07076935 -0.046717513 -0.04040914 -0.10203433 -0.048696175
0.08973555 0.17439935 -0.17592539 -0.05122313 -0.09953148 -0.17359234 0.068821855 -0.046833552
0.123032756 0.12719458 -0.018855413 -0.12099812 0.096249394 -0.10701356 0.02548422 0.095961794
0.014406398 -0.04357069 0.14278607 -0.24658713 -0.19243148 0.12622541 -0.008882222 0.029233506
-0.01293686 0.07625945 -0.13910243 0.006768135 0.17586924 0.042858984 -0.0650824 -0.1239783
0.08282243 0.16143827 -0.04576361 -0.2024916 0.0029560677 -0.1315748 -0.06101637 0.07429579
-0.011216433 -0.084164746 -0.007163237 0.021556195 0.007112122 0.03966627 -0.14046142 -0.09099093
0.066788465 0.122987196 -0.030255701 0.014729508 -0.06119494 -0.10949516 0.04718922 0.026870808
0.12487416 -0.07779943 -0.13454214 -0.028218564 -0.060000367 0.12888238 -0.032655574 0.1326746
-0.06344637 -0.070926495 0.015855445 -0.0010774485 -0.045817 -0.031153115 0.09723412 -0.20765239
0.17407799 -0.027305368 -0.07270431 -0.04392899 -0.044225216 -0.03987179 -0.021171281 -0.11415833
0.0732095 -0.14114925 -0.03688853 -0.21588592 0.088929735 0.0426598 0.049531173 -0.12997505
-0.08571815 -0.019819412 0.09160607 -0.057458475 0.016252058 0.022820724 -0.007677407 0.054942857
0.055842925 0.074039154 -0.011996606 -0.029267551 0.0624302 0.028936151 0.03622553 0.068285905
-0.0074186036 0.061707597 0.08515061 -0.04149238 -0.10841338 0.16286209 0.06888937 0.009560395
-0.0328944 -0.024401778 0.035768818 -0.052572943 -0.019034931 -0.019034114 -0.008237852 -0.022953456
0.004128794 -0.018171221 0.054649748 -0.11450189 -0.059921566 0.0034246822 0.020253414 0.050516482
-0.14394973 -0.047747068 -0.13169266 0.086746626 -0.026760843 0.03076524 0.059573535 -0.04889352
-0.017472323 0.027070729 -0.016867366 0.002089118 0.091035426 0.1307175 0.09019714 -0.051171128
-0.022164613 0.019023672 0.0896568 -0.13698272 -0.10662194 0.08272353 0.047565673 0.01660917
0.0854194 -0.13314375 0.058201715 0.0362051 0.1588588 0.020566694 0.090542264 0.04107782
0.011596832 -0.052776422 0.044681907 0.010309329 -0.06908416 -0.08773224 0.052827444 -0.0021418754
00000000: 39d1 24be db7b 243e 61cd 19be 2214 2bbd
00000010: c8bc 273c 1152 383d 3e87 1abe 2b91 c0bc
00000020: 43b9 193e 5efd 7b3c 3a43 003e c25c c4bd
00000030: 9cc7 e43d b7ad 6b3b 8a51 113e 2699 de3d
00000040: 4579 863d cf0a f9bc f095 743d 6068 70bd
00000050: 7ae4 983d cccf 1f3b 58f1 0f3e 9904 1a3e
00000060: 4e67 0dbe 6724 87be 4b89 2a3d 34b8 d53d
00000070: 9c90 18be 537e f33d 25da 123e 837f 48be
00000080: 93c5 2dbd 69fd 93bd e626 973c 53de df3d
00000090: 5c31 dd3c 3b68 f63d 1d8d 17be 0660 4ebe
000000a0: e1ba a8bb b47f 8f3d f30a 133e 6c7c 0dbe
000000b0: 6675 1dbe 31d1 b5bb 0b2f f4bd 66d3 353e
000000c0: c8bd cb3b db9f 22bd 8764 34bd 22ec 713d
000000d0: 1bce 98bc d90f 39bd 202d 53bd a2cf 58bc
000000e0: 583e edbd de0c 11bd 3da9 963d 1f36 cabc
000000f0: e410 8f3d b208 503c 5437 d63c bce2 bdbc
00000100: f6ed e9bc 5027 083e 38fa 183e 44f9 0fbe
00000110: e8a4 c43d 9bd7 aabd 250c 033e 1762 043c
00000120: f8fc efbd 4c3b 043e c500 16bd 23a2 06be
00000130: e1cc 91bd e70f a8bd f162 47be f820 263d
00000140: 1018 593d 9005 b4bd 73da 58bd 85ef 903d
00000150: dd5a 3fbd 0e84 25bd 60f7 d0bd a475 47bd
00000160: 46c7 b73d be95 323e c925 34be 58cf 51bd
00000170: 29d7 cbbd 31c2 31be 79f2 8c3d 8ad4 3fbd
00000180: 99f8 fb3d 4c3f 023e ab76 9abc ddcd f7bd
00000190: 671e c53d ed29 dbbd 48c4 d03c 9e87 c43d
000001a0: d008 6c3c 2e77 32bd 8336 123e 5681 7cbe
000001b0: c20c 45be 3c41 013e bd86 11bc 1b7b ef3c
000001c0: 20f5 53bc ea2d 9c3d de70 0ebe 3bc7 dd3b
000001d0: 1117 343e e78c 2f3d ec49 85bd 56e8 fdbd
000001e0: ce9e a93d 1350 253e a072 3bbd f559 4fbe
000001f0: 96ba 413b 8bbb 06be 4dec 79bd 6428 983d
00000200: 21c5 37bc 915e acbd 96b9 eabb 9e96 b03c
00000210: ce0c e93b 1979 223d 1ed5 0fbe 7459 babd
00000220: 64c8 883d b6e0 fb3d ceda f7bc 0954 713c
00000230: 8ca7 7abd 003f e0bd 7c49 413d 2b20 dc3c
00000240: 06be ff3d 4f55 9fbd 6ac5 09be 9e2a e7bc
00000250: f2c2 75bd bef9 033e dac1 05bd dadb 073e
00000260: 2cf0 81bd e941 91bd 47e3 813c 2c39 8dba
00000270: 9baa 3bbd d134 ffbc af22 c73d d4a2 54be
00000280: 8041 323e 82af dfbc ffe5 94bd e2ee 33bd
00000290: 8025 35bd 9a50 23bd 656f adbc d8cb e9bd
000002a0: ddee 953d 6e89 10be 6d18 17bd 3311 5dbe
000002b0: cb20 b63d 0bbc 2e3d 33e1 4a3d 2e18 05be
000002c0: ff8c afbd 525c a2bc f79b bb3d 9459 6bbd
000002d0: 0923 853c 87f2 ba3c c292 fbbb c30b 613d
000002e0: 8dbb 643d d7a1 973d 6a8d 44bc 81c2 efbc
000002f0: cfb6 7f3d 820b ed3c 3961 143d 7bd9 8b3d
00000300: c217 f3bb 1bc1 7c3d 7163 ae3d eaf3 29bd
00000310: d607 debd 52c5 263e df15 8d3d 34a3 1c3c
00000320: 47bc 06bd 3de6 c7bc 5382 123d ba56 57bd
00000330: 25ef 9bbc 6eed 9bbc 0ef8 06bc e308 bcbc
00000340: d64a 873b d0db 94bc 6ad8 5f3d f87f eabd
00000350: 5170 75bd a270 603b 7dea a53c 5fea 4e3d
00000360: 8f67 13be 6e92 43bd 71da 06be 37a8 b13d
00000370: 8e39 dbbc 6207 fc3c 6103 743d 9244 48bd
00000380: 1e22 8fbc 6fc3 dd3c 6e2d 8abc 95e9 083b
00000390: c870 ba3d cfda 053e 47b9 b83d d198 51bd
000003a0: 9092 b5bc 88d7 9b3c fc9d b73d 3345 0cbe
000003b0: 9b5c dabd f46a a93d 39d4 423d f40f 883c
000003c0: 5ef0 ae3d d656 08be ec64 6e3d cd4b 143d
000003d0: e2ab 223e 7c7b a83c 396e b93d 3741 283d
000003e0: a400 3e3c 172c 58bd 6004 373d 76e8 283c
000003f0: ff7b 8dbd f6ac b3bd 9761 583d b55e 0cbb

layers.block_2.layer.0.bias f4 [128]
-0.021731516 0.058608845 -0.00080786744 0.07428639 0.03405899 0.028630363 -0.0006980881 0.043204222
-0.04475111 -0.03056394 -0.010946157 -0.059353545 0.01178252 -0.07205169 0.032446142 -0.03387702
0.008748866 0.05740264 -0.0769628 0.025491405 -0.053907186 0.034088284 0.011193431 -0.022620585
0.048060816 -0.07038818 0.027433712 0.09317995 0.027144348 0.037440993 0.042117093 0.05473277
0.025849214 0.07993487 0.0699527 0.034371182 0.0888677 -0.09919442 0.00616763 0.07651741
-0.0775392 0.017954772 -0.01643423 0.06761647 0.08877651 -0.05512305 0.016268877 -0.054442227
0.08385119 0.010142701 0.09672517 0.007149288 -0.10543907 -0.03692426 -0.030430337 0.06356179
-0.007963313 0.056211326 -0.079575546 0.036392875 -0.04186678 0.035341974 -0.061810352 -0.03073477
0.0735036 -0.021040916 0.054884918 -0.094442554 -0.046177067 0.046229113 0.08651637 0.07048583
-0.11537907 -0.06431565 0.00010334371 0.03299097 0.04458205 -0.023290928 0.09925083 -0.083407894
-0.07849235 -0.047457732 0.07452864 0.03421037 -0.061950352 -0.045923676 -0.12423868 -0.0864809
0.09609509 -0.042489097 0.09987354 0.024459198 -0.07514221 0.09098674 0.01754613 -0.010045829
0.07895992 0.09948378 0.06953682 -0.06170503 -0.039925337 -0.0622968 -0.021344371 0.01907299
0.007809414 0.0385793 -0.06876433 0.037459802 -0.04070843 0.03671317 -0.05762637 -0.0020585763
0.03033657 -0.033472355 -0.0063834162 0.006286463 0.043050393 0.02091281 -0.0040001334 0.058874615
0.05139198 0.0139832655 -0.06451166 0.034041192 0.0651055 -0.06552268 0.0050028274 -0.009470115
00000000: 4b06 b2bc d40f 703d 11c7 53ba 7623 983d
00000010: 7181 0b3d 398a ea3c e6ff 36ba e9f6 303d
00000020: f14c 37bd 3a61 fabc 8357 33bc b41c 73bd
00000030: 790b 413c d68f 93bd 3fe6 043d a1c2 0abd
00000040: 6757 0f3c 081f 6b3d ac9e 9dbd 5ad3 d03c
00000050: c8cd 5cbd 28a0 0b3d a764 373c ce4e b9bc
00000060: 6bdb 443d ae27 90bd aabc e03c 21d5 be3d
00000070: d35d de3c ba5b 193d f982 2c3d 782f 603d
00000080: bbc1 d33c e5b4 a33d 5c43 8f3d ccc8 0c3d
00000090: 4500 b63d 7226 cbbd d519 ca3b 29b5 9c3d
000000a0: dfcc 9ebd e315 933c 14a1 86bc 817a 8a3d
000000b0: 75d0 b53d b5c8 61bd 4f46 853c d0fe 5ebd
000000c0: 2cba ab3d 922d 263c d917 c63d 9344 ea3b
000000d0: 70f0 d7bd e53d 17bd 0b49 f9bc af2c 823d
000000e0: 8e78 02bc d93d 663d 81f8 a2bd b210 153d
000000f0: 807c 2bbd bfc2 103d da2c 7dbd 7cc7 fbbc
00000100: 0e89 963d 005e acbc 02cf 603d 196b c1bd
00000110: 2a24 3dbd bd5a 3d3d 7f2f b13d e05a 903d
00000120: dd4b ecbd ecb7 83bd 3bba d838 8a21 073d
00000130: ab9b 363d 9ecc bebc 0544 cb3d c2d1 aabd
00000140: 99c0 a0bd 0a63 42bd 79a2 983d 2c20 0c3d
00000150: a7bf 7dbd 771a 3cbd d970 febd e61c b1bd
00000160: 81cd c43d 0c09 2ebd 808a cc3d a85e c83c
00000170: 29e4 99bd 4257 ba3d e7bc 8f3c 4397 24bc
00000180: bdb5 a13d 27be cb3d 5269 8e3d 6abe 7cbd
00000190: c088 23bd ee2a 7fbd 64da aebc f63e 9c3c
000001a0: 1de6 ff3b 5405 1e3d 50d4 8cbd 736f 193d
000001b0: e2bd 26bd 8d60 163d a109 6cbd 2ee9 06bb
000001c0: 6684 f83c 4f1a 09bd fa2b d1bb acfe cd3b
000001d0: 9c55 303d 5751 ab3c 8d13 83bb 8226 713d
000001e0: 6680 523d 111a 653c b01e 84bd c76e 0b3d
000001f0: 0856 853d c130 86bd c2ee a33b 8b28 1bbc

layers.block_3.layer.0.weight f4 [128, 128]
-0.0068915137 0.022547722 0.04644983 0.011076197 -0.011582214 0.115895815 -0.041159853 0.123355255
-0.06829977 -0.0884762 -0.0013952476 0.026716301 -0.006876681 -0.06472974 -0.011874068 0.061729804
-0.08369179 0.08953101 0.033639308 -0.07371983 0.07906853 -0.10550398 -0.26002458 -0.027207166
0.06931699 0.10050947 -0.07209906 -0.3300603 0.0014367908 -0.05125925 -0.05154246 -0.025515351
-0.0037321781 -0.073894985 0.010974034 0.08828381 -0.15787724 0.009948427 -0.09116004 0.062998585
0.055834133 -0.01829636 0.069869585 0.07689496 -0.1151716 -0.0379195 0.048011318 0.06247218
0.057924535 0.009912783 -0.052687626 -0.106336236 -0.027905824 0.051050555 -0.028248342 -0.05946922
-0.008593204 -0.026497634 0.02211875 0.1327119 -0.08582338 0.12890235 0.010412207 0.03144026
-0.07387472 -0.0009283152 0.015868004 -0.3024727 0.13692781 -0.005494104 -0.12574671 -0.042016063
-0.05933436 -0.08826605 0.030102273 -0.109436505 -0.14666738 0.0477192 -0.4273421 0.0019723054
0.10125376 0.0067464267 -0.01891616 -0.14728068 -0.00899105 -0.01958018 0.023522856 0.079824544
0.07456262 -0.039234392 0.049282227 -0.0651362 0.11675384 -0.030891247 0.04484618 0.12866142
0.15465695 -0.1105843 0.08933916 0.043707006 -0.03232837 -0.08461159 0.07417295 0.10652424
0.08747135 0.04269583 -0.101779975 0.00867727 -0.09397134 0.04385463 0.020780586 -0.18133108
-0.022793759 0.04542239 -0.080940984 0.18843156 -0.13162223 -0.030397529 -0.23108433 0.03380969
0.030511089 0.15698355 -0.0333326 0.11481472 -0.051694095 -0.040247925 -0.05098578 0.0060713054
-0.10698873 -0.057793647 -0.032195795 -0.08715963 -0.061484516 0.061046414 -0.06780153 -0.025810707
-0.0014616525 0.017774152 0.06751923 0.09213297 -0.10472632 0.0090997955 0.050361283 -0.037994444
0.031216068 0.024821289 -0.024890846 0.040864304 -0.0046148617 -0.054676533 0.15423027 -0.026065312
0.056262914 -0.0654511 0.086543106 0.07583529 -0.07550545 -0.1460799 -0.020306794 0.038242884
0.012572034 0.00392764 -0.047377445 -0.026265042 -0.005097732 0.04090034 -0.008122734 0.055845782
-0.128959 -0.0075065587 -0.11565014 0.039382342 -0.12579961 0.042459033 0.012057112 -0.0027470817
-0.03921771 0.044877455 -0.01671378 0.036643755 -0.016849954 -0.061268236 -0.05836643 -0.093831934
0.11144669 -0.03893426 0.05903866 0.013307774 0.102909155 -0.08511708 -0.04749705 0.025573473
-0.011334012 0.09945624 0.11711812 0.053020407 -0.06525422 0.010193586 0.038637687 0.036724154
0.021264708 -0.08903457 0.08353686 -0.025388768 0.06500365 -0.09178558 -0.0056442907 0.106470704
0.016858563 0.055833425 0.014697065 0.07760369 -0.030646067 -0.024163978 0.02043003 0.014082201
-0.09448629 -0.06854907 -0.0760513 0.044481993 0.059160784 -0.08480657 -0.091284975 0.02900725
-0.10262222 0.029797124 0.02556089 -0.017764194 0.0899993 0.034953006 0.016994007 0.074344374
0.05776943 -0.0004899897 -0.0052676047 0.0172166 0.09480573 0.056241028 -0.046058126 0.19140463
0.10560089 -0.05108565 0.0799708 -0.070570596 -0.04257468 -0.008348316 0.02167387 0.06644273
-0.13120425 -0.0342395 -0.057510003 -0.04302848 -0.034377426 0.09094343 -0.09123872 -0.036312643
00000000: 35d2 e1bb 00b6 b83c 2d42 3e3d f078 353c
00000010: 54c3 3dbc c95a ed3d 3c97 28bd aea1 fc3d
00000020: c0e0 8bbd 0333 b5bd bee0 b6ba 25dc da3c
00000030: c855 e1bb 0791 84bd 738b 42bc 64d8 7c3d
00000040: 9a66 abbd 095c b73d 5fc9 093d 6cfa 96bd
00000050: aeee a13d 7812 d8bd f121 85be 90e1 debc
00000060: 11f6 8d3d e9d7 cd3d aca8 93bd aafd a8be
00000070: b352 bc3a 38f5 51bd 301e 53bd 9205 d1bc
00000080: 8f97 74bb 4156 97bd 6fcc 333c 24ce b43d
00000090: 92aa 21be bafe 223c 1db2 babd 6705 813d
000000a0: 55b2 643d 3fe2 95bc c917 8f3d 1b7b 9d3d
000000b0: 16df ebbd 7a51 1bbd 84a7 443d d4e2 7f3d
000000c0: 4742 6d3d 3a69 223c fbce 57bd d0c6 d9bd
000000d0: c19a e4bc 631a 513d 1169 e7bc ff95 73bd
000000e0: 83ca 0cbc 9111 d9bc 6132 b53c a1e5 073e
000000f0: 2bc4 afbd fafe 033e f697 2a3c 81c7 003d
00000100: a14b 97bd 2e5a 73ba 9efd 813c b4dd 9abe
00000110: ce36 0c3e e307 b4bb bfc3 00be 0919 2cbd
00000120: 9608 73bd d5c4 b4bd 0b99 f63c 3f20 e0bd
00000130: f92f 16be 3575 433d 95cc dabe cb41 013b
00000140: 225e cf3d 2111 dd3b 10f6 9abc bfd0 16be
00000150: 324f 13bc 9d66 a0bc 01b3 c03c 0d7b a33d
00000160: 49b4 983d 3eb4 20bd 29dc 493d 2166 85bd
00000170: a31c ef3d a40f fdbc a1b0 373d d2bf 033e
00000180: 645e 1e3e 057a e2bd 73f7 b63d 1e06 333d
00000190: c16a 04bd d748 adbd fde7 973d 6129 da3d
000001a0: 2e24 b33d d3e1 2e3d 0572 d0bd 1c2b 0e3c
000001b0: 0c74 c0bd eaa0 333d 0c3c aa3c dbae 39be
000001c0: fab9 babc d40c 3a3d 63c4 a5bd 34f4 403e
000001d0: fac7 06be 3d04 f9bc 5fa1 6cbe 087c 0a3d
000001e0: 64f2 f93c 4cc0 203e c487 08bd fb23 eb3d
000001f0: 30bd 53bd 02db 24bd 77d6 50bd cdf1 c63b
00000200: e81c dbbd 08b9 6cbd bddf 03bd c080 b2bd
00000210: 30d7 7bbd ce0b 7a3d 87db 8abd fa70 d3bc
00000220: eb94 bfba 199b 913c 8647 8a3d 36b0 bc3d
00000230: c17a d6bd 4f17 153c a247 4e3d 10a0 1bbd
00000240: d7b8 ff3c 0456 cb3c e3e7 cbbc 5461 273d
00000250: 4438 97bb 80f4 5fbd 8aee 1d3e ec86 d5bc
00000260: f173 663d 3a0b 86bd 833d b13d 884f 9b3d
00000270: 9aa2 9abd f895 15be 6f5a a6bc 92a4 1c3d
00000280: effa 4d3c 6fb3 803b da0e 42bd c929 d7bc
00000290: e00a a7bb 1d87 273d 3715 05bc 8cbe 643d
000002a0: d40d 04be 94f9 f5bb fbd9 ecbd 614f 213d
000002b0: 9dd1 00be 86e9 2d3d 318b 453c 6208 34bb
000002c0: c0a2 20bd 6cd1 373d 56eb 88bc c317 163d
000002d0: ea08 8abc 67f4 7abd a311 6fbd f52a c0bd
000002e0: 2a3e e43d 8879 1fbd 86d2 713d da08 5a3c
000002f0: 09c2 d23d dd51 aebd 448c 42bd 767f d13c
00000300: 4bb2 39bc b7af cb3d a0db ef3d ed2b 593d
00000310: 01a4 85bd 0003 273c 8d42 1e3d 116c 163d
00000320: 5333 ae3c c257 b6bd 6015 ab3d 1bfc cfbc
00000330: a220 853d 14fa bbbd bef3 b8bb 500d da3d
00000340: f81a 8a3c 97b1 643d f5cb 703c afee 9e3d
00000350: 760d fbbc 89f3 c5bc e15c a73c 08b9 663c
00000360: 0782 c1bd 7463 8cbd c9c0 9bbd c032 363d
00000370: 9452 723d 11af adbd 9ef3 babd 9da0 ed3c
00000380: 992b d2bd 1919 f43c 1265 d13c 3786 91bc
00000390: 8e51 b83d e22a 0f3d 0437 8b3c dd41 983d
000003a0: a39f 6c3d a772 00ba df9b acbb d409 8d3c
000003b0: 8229 c23d fe5c 663d 72a7 3cbd 93ff 433e
000003c0: 4845 d83d 303f 51bd bbc7 a33d 5187 90bd
000003d0: ca62 2ebd 60c7 08bc 668d b13c 2013 883d
000003e0: 685a 06be b83e 0cbd 9c8f 6bbd a23e 30bd
000003f0: 58cf 0cbd 8d40 ba3d 5edb babd 91bc 14bd

layers.block_3.layer.0.bias f4 [128]
0.0037556947 -4.686282e-05 -0.059002526 -0.042224564 0.050067022 -0.023535576 -0.084943265 -0.08254478
-0.01988191 0.051246237 -0.036162034 0.018542305 -0.08855749 -0.016551508 -0.0121844495 -0.07472994
0.035206307 -0.025060274 0.090788096 0.07532882 -0.027113508 -0.027284073 0.06721091 -0.035005737
0.015313004 0.026917145 -0.012599065 -0.030505914 0.0533911 0.03269869 -0.010313689 0.08727164
0.056736138 -0.03844225 0.062030047 -0.09683036 -0.07077134 0.07450578 0.05073687 0.041101888
-0.00039163753 -0.07941492 -0.017564325 0.011691151 -0.021861272 0.0003271264 0.0090507325 0.04536017
0.023234809 -0.007361525 -0.008533634 -0.030195087 0.03484192 -0.031718742 0.053210303 -0.04317371
-0.031499356 -0.076296404 0.0917595 -0.09395969 -0.03916419 -0.04537022 -0.019455468 -0.012744832
0.063294746 0.0029991444 0.040958673 0.075021304 -0.043606322 -0.09369237 -0.048763838 -0.061389074
0.07987904 0.03612946 0.0643712 -0.012552756 -0.07543269 -0.06317429 0.014765606 0.08009823
0.089702554 0.077312976 0.09113381 -0.05682776 0.032198407 -0.017650755 0.012370883 -0.0751732
0.05593225 0.06372126 -0.016461479 0.06326795 0.04308803 -0.009274068 -0.0701375 -0.027925631
-0.013133414 -0.019677069 -0.09942509 0.07967158 -0.052576996 -0.06308862 0.0556625 0.034183517
0.016560977 0.006857395 -0.062010475 0.02091083 -0.020694938 -0.006073387 0.009484829 0.07771445
0.06751326 0.07990818 -0.070869036 -0.09821127 -0.0052394485 0.0077778497 -0.030528918 0.011543659
0.038748585 -0.014512855 -0.028485695 0.049448714 -0.023400249 -0.050657053 0.065791495 -0.061526667
00000000: 1a22 763b 928e 44b8 a2ac 71bd aaf3 2cbd
00000010: 1413 4d3d aecd c0bc bcf6 adbd 3d0d a9bd
00000020: 63df a2bc 93e7 513d a41e 14bd 08e6 973c
00000030: a15d b5bd 0797 87bc 49a1 47bc 030c 99bd
00000040: 7d34 103d 344b cdbc 1cef b93d ff45 9a3d
00000050: 261d debc d982 dfbc e0a5 893d 2d62 0fbd
00000060: 65e3 7a3c 5881 dc3c 4f6c 4ebc 8ae7 f9bc
00000070: a0b0 5a3d 10ef 053d bffa 28bc 79bb b23d
00000080: 2764 683d 9f75 1dbd 3813 7e3d ff4e c6bd
00000090: 90f0 90bd 7d96 983d 77d1 4f3d 745a 283d
000000a0: b354 cdb9 4aa4 a2bd 0fe3 8fbc 3e8c 3f3c
000000b0: 6916 b3bc 2a82 ab39 8649 143c 96cb 393d
000000c0: ed56 be3c f338 f1bb a8d0 0bbc b05b f7bc
000000d0: 67b6 0e3d 83eb 01bd 0cf3 593d ebd6 30bd
000000e0: 7805 01bd 4a41 9cbd 68ec bb3d f06d c0bd
000000f0: a16a 20bd 20d6 39bd 1361 9fbc b3cf 50bc
00000100: ada0 813d 4b8d 443b 48c4 273d c5a4 993d
00000110: 8b9c 32bd c9e1 bfbd 97bc 47bd 1c73 7bbd
00000120: 9f97 a33d 7cfc 133d 0cd5 833d 13aa 4dbc
00000130: 747c 9abd 8661 81bd 71eb 713c 8a0a a43d
00000140: f9b5 b73d 4456 9e3d 5da4 ba3d 3ac4 68bd
00000150: 7ae2 033d 5198 90bc 3eaf 4a3c 68f4 99bd
00000160: 3719 653d 4b80 823d 39da 86bc a192 813d
00000170: 137d 303d 43f2 17bc 40a4 8fbd 4bc4 e4bc
00000180: 882d 57bc ce31 a1bc 629f cbbd da2a a33d
00000190: fa5a 57bd 9b34 81bd 5dfe 633d 0404 0c3d
000001a0: e3aa 873c 00b4 e03b b2fe 7dbd 304d ab3c
000001b0: 6e88 a9bc 4303 c7bb 4266 1b3c c128 9f3d
000001c0: 6444 8a3d e6a6 a33d c923 91bd fe22 c9bd
000001d0: aeaf abbb 55dd fe3b c817 fabc 9d21 3d3c
000001e0: d6b6 1e3d 53c7 6dbc d55a e9bc bc8a 4a3d
000001f0: e1b1 bfbc c57d 4fbd b1bd 863d 6303 7cbd

layers.output.weight f4 [2, 128]
0.45162866 -0.057460796 -0.09802823 -0.18430436 -0.3555072 -0.066819824 -0.089445606 -0.18865846
-0.1413778 -0.17793722 0.63777155 0.06682627 0.10501973 0.5882572 0.10824548 0.14367135
-0.017762957 0.10840199 -0.93685997 -0.54081523 0.031879958 -0.147448 -0.5141146 0.11685065
-0.11508992 0.68037057 -0.17430629 -0.0702205 0.21043915 0.14561056 -0.18128382 -0.14917772
0.8325846 -0.057985343 0.3474909 0.4441421 0.47510782 0.11224835 0.033202723 0.06615102
0.69722366 0.45084673 -0.121127434 -0.29253614 0.59217143 -0.13094494 0.15612637 0.07826707
-0.005344054 0.4883338 -0.03320049 -0.6715568 -0.03185183 -0.24410355 0.08145134 -0.057692695
-0.341166 0.10804424 0.080127895 -0.14905497 -0.08509568 0.6763044 -0.13558272 -0.10876103
-0.70454824 -0.10963453 -0.032250643 -0.098467186 0.07509246 -0.13534558 -0.13436228 0.24521004
0.13906504 0.006832291 -0.034379117 0.17189582 0.13781662 -0.21210268 0.03829567 0.16410168
-0.07353996 0.31141657 0.03523596 0.68683344 -0.6064974 0.03459134 0.16643366 -0.030305391
0.23591904 0.25518608 -0.086335756 0.061849218 -0.030627705 0.032602027 -0.4918397 0.45026863
0.44617236 0.16198227 0.27007642 0.19734769 0.105656214 0.2875716 0.05665349 -0.33214146
0.13219105 0.021986203 0.05190017 -0.021963572 -0.48123854 -0.1669518 0.27961206 0.037046283
-0.21035483 -0.25486168 -0.32318795 0.006730183 -0.46934474 -0.08973269 -0.04796698 -0.80586684
-0.07917146 -0.64509195 -0.24888837 0.74744403 -0.5221145 -0.18428925 -0.03726925 0.031889863
0.5440097 0.23224275 -0.18033922 0.12469263 0.5481046 -0.2451587 -0.054073844 -0.03782404
-0.0061240443 -0.021351283 -0.3354344 0.1587776 0.24843009 -0.4211877 0.23474203 -0.36885467
0.35347807 0.08866948 0.31681246 0.4589761 -0.18887503 -0.14418413 -0.06733352 -0.57751566
0.33472186 0.008582607 0.0008563765 0.00030752085 0.12888363 0.28384182 0.7481583 -0.19646214
-0.24474965 0.1897718 -0.20252824 -0.4776155 0.3631239 0.12384548 -0.27957848 -0.09624509
-0.18341577 -0.36523822 -0.323385 -0.4092463 0.20606323 0.05940612 0.122259766 0.13884726
0.08403051 0.61638856 0.21458001 0.6768551 -0.30967483 -0.06532788 0.08744718 -0.023236794
0.26768622 0.0521972 -0.19178718 -0.047761668 -0.18985273 -0.21734668 -0.005012093 -0.22387376
0.12820277 0.06071617 0.2229607 0.20725927 0.13914672 -0.09031433 -0.18360974 -0.3110614
0.31705576 0.059625816 -0.21422973 -0.26834527 0.036532126 0.2805821 0.030419042 0.076503694
-0.37295362 -0.06458421 0.09112407 -0.5087156 0.39011255 0.16157414 0.1917186 0.06190412
-0.5206256 0.021075115 -0.004882649 0.24575609 -0.104623914 0.21489201 0.23683776 -0.6196515
-0.3843276 0.13235947 -0.42261443 -0.05072316 0.0791038 -0.11360103 0.08059096 0.22328086
-0.20504588 0.13146378 0.1338855 -0.18161637 0.7290743 0.15451191 -0.14106989 0.10402195
-0.0033333525 -0.016912637 -0.27998102 -0.20441447 0.07504615 -0.16348334 0.17465441 0.4021598
0.07688805 0.45109376 -0.16557486 0.06744363 0.65459406 0.43946514 -0.16420147 0.18102205
00000000: df3b e73e 035c 6bbd 06c3 c8bd 48ba 3cbe
00000010: 0a05 b6be d5d8 88bd 422f b7bd af2f 41be
00000020: 58c5 10be 2d35 36be ff44 233f 36dc 883d
00000030: 9614 d73d 0698 163f ceaf dd3d 951e 133e
00000040: 9f83 91bc dd01 de3d 0ed6 6fbf de72 0abf
00000050: 8f94 023d 9cfc 16be 049d 03bf 654f ef3d
00000060: 44b4 ebbd c42c 2e3f 597d 32be c4cf 8fbd
00000070: 5c7d 573e ef1a 153e 77a2 39be 0bc2 18be
00000080: 4424 553f 0a82 6dbd 54ea b13e 9866 e33e
00000090: 5541 f33e 77e2 e53d 94ff 073d 307a 873d
000000a0: 407d 323f 62d5 e63e a911 f8bd 4cc7 95be
000000b0: 8c98 173f 6e16 06be 97df 1f3e 7c4a a03d
000000c0: 2d1d afbb e306 fa3e 3dfd 07bd 25eb 2bbf
000000d0: 1177 02bd 48f6 79be f6cf a63d 2d4f 6cbd
000000e0: 4fad aebe 4c46 dd3d 181a a43d dea1 18be
000000f0: a546 aebd 4922 2d3f 32d6 0abe 1abe debd
00000100: 465d 34bf 1288 e0bd 4019 04bd 2aa9 c9bd
00000110: 13ca 993d 0898 0abe 4496 09be 5718 7b3e
00000120: 1167 0e3e 69e1 df3b 1ed1 0cbd 7505 303e
00000130: cd1f 0d3e 7231 59be ecdb 1c3d 450a 283e
00000140: 1e9c 96bd fe71 9f3e 9553 103d 51d4 2f3f
00000150: 6a43 1bbf a6af 0d3d 966d 2a3e 0343 f8bc
00000160: c394 713e c0a7 823e cdd0 b0bd 9b55 7d3d
00000170: f4e6 fabc b489 053d 6ad2 fbbe 9c89 e63e
00000180: b470 e43e aede 253e 7547 8a3e 8315 4a3e
00000190: 4962 d83d 963c 933e 7d0d 683d 720e aabe
000001a0: 175d 073e 691c b43c 4695 543d f3ec b3bc
000001b0: e664 f6be 6af5 2abe 5029 8f3e d8bd 173d
000001c0: 4267 57be 3b7d 82be e478 a5be de88 dc3b
000001d0: f44d f0be c6c5 b7bd 0679 44bd 4a4d 4ebf
000001e0: a524 a2bd bf24 25bf 98dc 7ebe 7e58 3f3f
000001f0: 4ca9 05bf 52b6 3cbe a4a7 18bd f29e 023d
00000200: 3844 0b3f 0bd1 6d3e d8aa 38be d95e ff3d
00000210: 9550 0c3f e20a 7bbe 897c 5dbd 61ed 1abd
00000220: 35ac c8bb e3e8 aebc 0fbe abbe 9896 223e
00000230: 7564 7e3e eaa5 d7be 3760 703e 85da bcbe
00000240: 14fb b43e 5898 b53d 3e35 a23e eafe ea3e
00000250: 7568 41be 01a5 13be 28e6 89bd 11d8 13bf
00000260: aa60 ab3e 109e 0c3c 747e 603a c03a a139
00000270: 12fa 033e b753 913e 4d87 3f3f 5f2d 49be
00000280: a79f 7abe 8a53 423e 9063 4fbe 058a f4be
00000290: 60eb b93e b3a2 fd3d e924 8fbe 251c c5bd
000002a0: 58d1 3bbe 8100 bbbe b892 a5be bb88 d1be
000002b0: 3d02 533e d553 733d 5463 fa3d fa2d 0e3e
000002c0: 3018 ac3d a4cb 1d3f ddba 5b3e 6046 2d3f
000002d0: b38d 9ebe a0ca 85bd 8217 b33d 175b bebc
000002e0: 2b0e 893e bbcc 553d dc63 44be bda1 43bd
000002f0: c168 42be 2190 5ebe 7c3c a4bb 2a3f 65be
00000300: 9647 033e 85b1 783d cf4f 643e c63b 543e
00000310: 7a7c 0e3e b8f6 b8bd 3104 3cbe 7143 9fbe
00000320: 2255 a23e 333a 743d 0a5f 5bbe 8d64 89be
00000330: b6a2 153d 75a8 8f3e 5b31 f93c f8ad 9c3d
00000340: c7f3 bebe ba44 84bd 429f ba3d 303b 02bf
00000350: d5bc c73e b173 253e e151 443e 2d8f 7d3d
00000360: b847 05bf b8a5 ac3c a1fe 9fbb 7ca7 7b3e
00000370: 1045 d6bd a70c 5c3e 9985 723e 7ba1 1ebf
00000380: 96c6 c4be 3e89 073e eb60 d8be 17c3 4fbd
00000390: 2c01 a23d a8a7 e8bd e00c a53d bda3 643e
000003a0: 8cf7 51be 719e 063e 4819 093e a4f9 39be
000003b0: 9da4 3a3f 5f38 1e3e a074 10be 7609 d53d
000003c0: 6074 5abb 5f8c 8abc ac59 8fbe 0752 51be
000003d0: ccb1 993d 2d68 27be 9bd8 323e e4e7 cd3e
000003e0: 7b77 9d3d c3f5 e63e 758c 29be e31f 8a3d
000003f0: 7a93 273f 9301 e13e 6e24 28be d85d 393e

layers.output.bias f4 [2]
0.1532344 0.033489585
00000000: 7be9 1c3e 602c 093d
