results/VANILLA/Vanilla420/vanilla5k/model.pth (torch, 205093 bytes, 10 tensors)

layers.block_0.layer.0.weight f4 [128, 2]
000000 f2 64 1b bf eb ed dd 3e 05 4d 45 3f 44 4c 84 3e
       -0.60700905 0.4334558 0.7707065 0.25839436
000010 f8 c0 a9 3e 56 e6 84 be ba 0b 10 3f 01 78 21 3f
       0.33155036 -0.25956982 0.56267893 0.63073736
000020 e9 c7 8a bf 1c e6 c2 be 70 0e 7e bf d9 e8 cb be
       -1.0842258 -0.38066185 -0.9924078 -0.39826086
000030 cc 0f f6 3e 27 94 ec be e2 62 91 bf 4c 48 3e bd
       0.48058927 -0.4620678 -1.1358302 -0.046455666
000040 f6 e8 89 bd 7a 38 b9 be 0e 1e d9 3e fd 03 e6 be
       -0.06733887 -0.361759 0.42405742 -0.44924918
000050 75 c7 6a bf cd 5b 81 3e 71 69 7a 3d d2 34 29 bf
       -0.917106 0.2526535 0.061135713 -0.6609622
000060 a0 65 c5 be 1c de f4 3c 83 94 29 bf bf d9 16 3e
       -0.38554096 0.029891066 -0.66242236 0.14731501
000070 d7 79 83 3f 85 e0 f8 3d 13 07 19 bf 26 a1 28 3f
       1.0271558 0.12152199 -0.5977642 0.65870893
000080 38 04 b2 3e 4d 62 9a 3c fc 8f 82 3f a4 f7 6f be
       0.34768844 0.018845702 1.020019 -0.23434311
000090 d6 96 11 3f e0 ff a7 be 06 c3 26 bf bb f7 6b 3e
       0.5687078 -0.32812405 -0.6514133 0.2304372
0000a0 2a 8f 59 bf 41 d7 1f be c5 31 72 bf 00 59 01 3f
       -0.84984076 -0.15609457 -0.9460719 0.5052643
0000b0 52 99 a2 3f 2f ec b8 be fc 8a 27 bf 89 d6 31 bf
       1.270304 -0.36117694 -0.6544645 -0.6946798
0000c0 6c e4 15 bc 4e 35 f0 be 05 92 02 bf 80 4c 26 bf
       -0.009148698 -0.46915668 -0.5100406 -0.6496048
0000d0 f4 85 66 3f ab 81 a1 3c 44 89 2f bf c6 16 ed 3e
       0.90048146 0.01971515 -0.68568826 0.46306437
0000e0 fd b3 32 3f ff a2 f2 be 7e 8f 8e be 83 00 d0 3e
       0.6980589 -0.4738998 -0.2784385 0.4062539
0000f0 34 df 2d bf 17 76 05 bf d8 e7 8c bf 1f 55 63 3e
       -0.67918706 -0.52133316 -1.1008253 0.2220044
000100 8e c7 4d 3f 7c e1 f1 be cc 28 71 3f 12 fd d7 be
       0.8038262 -0.47242343 0.94202876 -0.42185265
000110 1f f8 78 bf c1 8b 0a 3f e6 f3 5b 3f 78 92 b6 3e
       -0.972536 0.541195 0.85919034 0.35658622
000120 d0 0e 8c bf a2 0c 8d 3e 37 8e 3d bf 72 46 f6 be
       -1.094202 0.275487 -0.7404513 -0.4810062
000130 e9 d5 96 be 7c 21 d1 3d 01 18 81 bf 57 1e 8e 3e
       -0.29460075 0.10211465 -1.008545 0.27757522
000140 dd ed 1c 3e 3d cb a0 be 67 92 85 3d be 07 4e bf
       0.15325113 -0.31405059 0.06522065 -0.80480564
000150 d9 cb cb be e7 a6 cf 3e 5a 01 5a 3f c6 fd 80 3e
       -0.3980396 0.40557024 0.8515831 0.25193614
000160 cc d8 2d 3f c8 10 ab 3c e3 0f 10 bf 52 86 a3 3e
       0.6790893 0.020882025 -0.5627424 0.31938416
000170 b6 7c 91 3f 1b a1 32 be 6f 48 5a bf d2 64 27 bf
       1.1366184 -0.1744427 -0.85266775 -0.65388215
000180 43 4f 25 bf b2 e2 a2 3d 6a 1a 5f bf d3 16 a5 be
       -0.6457407 0.07953395 -0.8714968 -0.32243976
000190 8c a7 73 3f 97 8c 80 b9 5b 76 e1 3e e0 37 5f 3e
       0.9517753 -0.0002451881 0.4403561 0.21798658
0001a0 fd b8 aa be 74 f8 87 3c 38 7e bb be 40 43 cd 3e
       -0.3334426 0.016597964 -0.36619735 0.4009037
0001b0 a4 c7 73 bf 72 e8 9b 3e 1c e1 1c 3f bc c2 52 3e
       -0.952265 0.3045078 0.6128099 0.20582098
0001c0 67 59 2c 3f b9 be 95 3e 2b ed 4d 3f b3 2c 41 bd
       0.6732392 0.29247072 0.80440015 -0.04716177
0001d0 88 75 5d 3f 96 1f 82 3d 29 b3 35 3f bb 1b 90 bd
       0.86507463 0.06353681 0.709765 -0.07036539
0001e0 2f 9f f2 3d fa 06 40 bf a3 49 64 bf 44 d2 d9 be
       0.11846768 -0.75010645 -0.8917486 -0.42543232
0001f0 40 37 b0 be ac c5 80 be 39 f4 bd 3c db d7 33 bf
       -0.34417152 -0.25150812 0.023187743 -0.70251244
000200 7d 13 0c bf 4b 56 cc 3e cc 96 bd 3e 1d 50 49 bf
       -0.54717237 0.39909586 0.3702911 -0.7863787
000210 58 85 37 bf 32 70 fe 3c ef 14 3e 3f f7 4e bf be
       -0.7168784 0.031059358 0.7425069 -0.37364933
000220 e5 2e 5e bf e6 24 e1 3e d5 51 e8 be d1 86 3e bf
       -0.86790305 0.43973464 -0.45374933 -0.74424464
000230 c5 fd 03 3e 7e c0 a5 3e 13 70 9a 3d d6 c8 4b bf
       0.12889774 0.32373422 0.07540908 -0.79603326
000240 3f db 68 3f 1e ad db 3e e8 c6 69 bf 65 ff 23 3e
       0.90959543 0.42905515 -0.9131913 0.16015394
000250 cf e3 60 bf df e2 36 3f 4b 6f b2 3f 8d 04 16 3d
       -0.8784761 0.7143993 1.3940214 0.036625434
000260 bd f2 33 bf 49 aa ff be 91 c3 aa 3e 55 ce 10 bd
       -0.70292264 -0.49934605 0.3335233 -0.035353024
000270 15 70 6f bf 0e 89 08 3f 94 7d a0 3e 96 62 da be
       -0.935304 0.5333413 0.31345809 -0.4265334
000280 a9 2d 8e bf 55 10 f8 be 5b 30 90 bd 74 b8 1a 3f
       -1.1107684 -0.4844996 -0.07040473 0.60437703
000290 0b d3 87 bf db a4 08 bf 55 0e 3b 3f f9 22 de be
       -1.061128 -0.5337655 0.73068744 -0.43386057
0002a0 20 f7 d6 be 74 99 0f 3f 51 ea 80 3f 3e 97 86 be
       -0.41985416 0.56093526 1.0071508 -0.26287264
0002b0 6b 26 48 bf 1b 9a aa be a6 57 a2 3e 33 65 a4 be
       -0.7818362 -0.33320698 0.31707495 -0.3210846
0002c0 72 36 d1 be d6 a1 32 bf fa 72 67 bf df 3a d0 3d
       -0.4086185 -0.6977819 -0.90409815 0.10167479
0002d0 a3 56 d3 3e 9f bc 43 be ad c0 53 bf 7d de d7 3d
       0.41277036 -0.19114922 -0.82715875 0.10540483
0002e0 81 72 74 3f 83 7e 38 3f 07 6f 8b 3f 19 a4 16 3e
       0.9548722 0.7206804 1.0893258 0.14711036
0002f0 c7 d0 0c bf 08 6d 58 3e 75 17 3b bf 68 b6 1a bf
       -0.5500607 0.21135342 -0.7308267 -0.6043458
000300 dc bf 20 3f 29 b8 fd be dd cf 8d bf f1 dd 8b be
       0.62792754 -0.49554566 -1.107906 -0.27317765
000310 80 59 10 3f 0b 9d 2b bf 06 ae 3a bf 48 31 9f 3e
       0.56386566 -0.67036504 -0.7292179 0.31092286
000320 1c 9f 43 3f 11 5d 24 3f 60 f7 e1 3d 9d 77 fc 3e
       0.76414657 0.6420451 0.11033511 0.49310008
000330 a6 01 18 bf ab ca c7 be 18 6d 5c bf 92 a9 dc be
       -0.59377515 -0.3902181 -0.86103964 -0.43098122
000340 6d 5d 6d bf cb a1 10 3f e2 e3 bc 3e 24 6f 0c bf
       -0.9272068 0.56496876 0.3689261 -0.5485709
000350 ca f9 54 3f 94 a8 2a be 4a 88 10 bf e7 69 29 3f
       0.8319365 -0.1666587 -0.5645796 0.6617722
000360 ef 8c 56 bf 26 72 81 3e 26 da 05 3f a4 e0 e9 bb
       -0.838088 0.252824 0.52285993 -0.007137375
000370 aa d7 83 be 6a e5 14 3f 4d 6d 26 bf 6f 25 14 be
       -0.25750476 0.5816256 -0.6501053 -0.14467405
000380 bf 11 52 bf 90 75 29 bf 24 8f 20 bf c0 93 00 3f
       -0.8205833 -0.6619501 -0.62718415 0.5022545
000390 ad b3 28 bf 41 b5 01 3f 6f 9f 5a bf 3b c0 c9 be
       -0.65899163 0.50667197 -0.85399526 -0.39404473
0003a0 53 ab 6b 3f ed 63 95 3e c0 35 22 3f 30 8f 0d 3f
       0.92058295 0.291778 0.63363266 0.5529661
0003b0 65 90 fe 3e d6 d6 47 3f 80 af 05 bf b4 87 14 bf
       0.4971954 0.7806219 -0.52220917 -0.58019567
0003c0 99 c3 52 3f 66 31 12 3f 54 40 a3 3e 84 eb b8 be
       0.8232971 0.57106626 0.31885016 -0.36117184
0003d0 8e 7f 00 bf d3 77 8c bb 9c f9 59 3f 6e 21 23 3f
       -0.50194633 -0.004286745 0.851465 0.63722885
0003e0 0b 4a de 3e 56 10 01 3f 5f dc 08 3f 5b ef 50 3f
       0.43415865 0.5041555 0.5346126 0.8161523
0003f0 0d 9a a6 be 34 27 3e 3f ab d8 4d bf eb 44 c0 3e
       -0.32539406 0.7427857 -0.80408734 0.3755258

layers.block_0.layer.0.bias f4 [128]
000000 b6 7d 29 3f 51 b6 c7 be 3d f7 a4 be 32 58 73 be
       0.66207445 -0.39006284 -0.32219878 -0.23764113
000010 29 a5 c5 3e 93 5a 3b 3e 66 78 e3 3e 80 c7 bc 3d
       0.3860257 0.1829627 0.44427794 0.09217739
000020 bd 58 84 be e0 c9 4f 3e 89 77 3f be 4b a5 07 bf
       -0.25848952 0.20291853 -0.18697943 -0.5298659
000030 5c 6e e2 be 9c 4c 25 3f e6 aa 88 be a6 19 26 be
       -0.44224823 0.6457002 -0.26692885 -0.16220722
000040 73 95 3d 3f bd c5 5c 3e 33 e1 7b 3e 22 e0 21 3f
       0.74056166 0.21559806 0.24597625 0.63232625
000050 41 1c 36 be 80 22 ac be 04 bc 34 3e a6 f6 f2 3e
       -0.17784216 -0.3362007 0.17649847 0.47453803
000060 63 be 25 3f 99 10 0e 3f f1 b3 37 bc fa 48 24 3f
       0.6474363 0.55494076 -0.011212335 0.64173853
000070 5a 36 f1 be 22 75 e8 3c dd 4b b5 3e 9a 59 cf be
       -0.4711178 0.028376166 0.35409442 -0.40498048
000080 0e 46 0b 3f 14 c9 7b 3e 9b 33 f4 be b4 2b 26 bf
       0.5440377 0.24588424 -0.47695622 -0.64910436
000090 5e 3e 3f be 01 43 29 3f 76 b5 e1 3e 02 65 ba be
       -0.18676135 0.66117865 0.44083756 -0.36405188
0000a0 4f 0e a1 be b1 ab f9 be 33 b0 bd be 15 1e 7d 3e
       -0.3145623 -0.48763803 -0.37048492 0.24718507
0000b0 9e 82 bb 3e 5d 51 dc be 64 02 93 3d 2d ea cf 3e
       0.3662309 -0.43030825 0.0717819 0.4060835
0000c0 c0 f8 e3 be 41 5f 30 3e 7c fd a9 3e f6 d0 8e 3e
       -0.4452572 0.17223836 0.33201206 0.278938
0000d0 ce 3f 14 3f c8 a1 09 be bd 91 e0 be 1d b4 fa be
       0.5790986 -0.13440621 -0.4386119 -0.4896554
0000e0 cd f8 aa 3e fd 62 ad bd 5f 12 ac be 2f 8d 18 3f
       0.33392945 -0.08466146 -0.33607766 0.5959043
0000f0 fa 90 99 be d5 6d ce 3e 7a bb 0a bf 9b bf 94 be
       -0.2999342 0.4031817 -0.54192317 -0.29052433
000100 21 7f e6 be 55 de 73 be d3 35 33 3e 55 56 e7 3e
       -0.45018867 -0.23815282 0.17501001 0.45183054
000110 49 2b e1 be 0c 97 07 be 3a f0 b8 3e c7 47 2a bf
       -0.43978336 -0.13241214 0.36120778 -0.66515774
000120 6e cf e5 be 94 24 6a 3d fa c2 36 bf 43 53 7e bc
       -0.4488482 0.05716379 -0.7139126 -0.015522781
000130 c9 f1 10 3e de bf 2d 3f ac dc 90 be 03 3b 61 3e
       0.14154734 0.6787089 -0.2829336 0.21995167
000140 a1 7e 3a 3e 50 de 50 3e 6c 63 04 3f ca b1 50 3e
       0.18212368 0.20397305 0.51714206 0.20380321
000150 66 a1 09 bf 44 7b 87 3e 8d 19 1e 3f 13 b7 9b 3d
       -0.537619 0.26461232 0.6175774 0.07603278
000160 92 ee 23 3f d5 c9 63 be 4e fa 82 be 44 91 c2 be
       0.64035904 -0.22244962 -0.25581592 -0.38001454
000170 51 8d 3b bf 36 86 f4 bc cd 40 7a be 2b a0 1e 3f
       -0.73262507 -0.029849153 -0.24438782 0.61963147
000180 43 8a 0a be ea 35 7b 3e b2 7d 22 3f 42 23 55 3e
       -0.13529305 0.24532285 0.63473046 0.20814231
000190 76 f9 27 bf 5e d4 4f 3e 0c 60 ba 3e 25 53 a2 3e
       -0.6561502 0.20295855 0.36401403 0.3170406
0001a0 3d 65 0a bf 6a 43 10 3f 43 91 7b 3d 87 be 15 3f
       -0.5406073 0.56352866 0.06141783 0.58493847
0001b0 80 26 5a be 38 14 66 3e 28 04 0c bc 6f 28 b5 be
       -0.21303749 0.2246865 -0.008545913 -0.3538241
0001c0 dd fd f8 3e fa eb bf be a7 88 80 be aa 96 a4 3e
       0.48631182 -0.37484723 -0.25104257 0.32146198
0001d0 62 ba 8a be b7 0b 3e bd 94 8e ca 3e 9c 5d a9 bd
       -0.27095324 -0.04639789 0.39561903 -0.08269808
0001e0 39 95 84 be 74 3a e1 3d 1c d2 02 bf 13 7f 60 be
       -0.25895098 0.10997477 -0.5110185 -0.21923475
0001f0 99 20 e3 3e a3 36 32 bf 87 07 39 3f cb c6 08 bf
       0.44360808 -0.6961462 0.7227711 -0.53428334

layers.block_1.layer.0.weight f4 [128, 128]
000000 f6 a9 9f 3d c2 03 4e bd fa e4 d3 bd 40 39 8d bd
       0.07796089 -0.050296552 -0.10346408 -0.06895685
000010 1f a3 9d bc e8 d1 d9 3d d3 d7 7f bd 18 75 eb 3d
       -0.019242821 0.106357396 -0.062461685 0.11496943
000020 5c da a2 bd f1 53 0b bd c2 50 84 3d 53 37 31 bd
       -0.07951805 -0.0340156 0.06460716 -0.043265652
000030 b7 75 4d 3d c1 9c f5 3c 63 ff 98 bd 88 73 b5 bb
       0.05016109 0.029981973 -0.07470586 -0.005537454
000040 db 4b b6 bc d4 f4 82 bd ac b6 aa bd 94 0e a4 3d
       -0.022252968 -0.063943535 -0.08335623 0.08010593
000050 42 4e d8 3c 22 9f 97 3d cc e0 cc 3c 18 dc d1 3d
       0.026404504 0.07403399 0.025009535 0.10247058
000060 19 92 b6 3d ab a0 35 3d c1 e1 69 3c ad 60 7f 3d
       0.08914585 0.044342678 0.014275015 0.062348057
000070 b1 56 cc bd 30 f9 4c 3d 25 14 9f 3c 28 94 b5 3d
       -0.099774726 0.05004233 0.019418785 0.08866149
000080 e1 5f 88 bd 05 bd b5 bd 5f 1a 32 bc eb 22 b9 bd
       -0.066589125 -0.08873943 -0.010870545 -0.09039863
000090 47 e7 ac 3d 5f c9 36 3d a4 d2 9c 3d 65 d1 81 3d
       0.0844255 0.044625636 0.07657364 0.06338767
0000a0 a5 5f ca 3c b2 22 00 bd 26 3f 86 3d 1f 63 39 bd
       0.02470381 -0.031283088 0.06555013 -0.045260545
0000b0 dc 65 66 3d 91 5b a1 bd f2 9b bd bd 15 cb f3 bc
       0.056249484 -0.07878793 -0.0925826 -0.029759923
0000c0 1c 4d a8 bc a8 e9 99 3d 80 10 f9 bc b0 a4 03 3c
       -0.020544581 0.075152695 -0.030403376 0.00803487
0000d0 c2 e2 fd 3d 6b 13 a5 3d a0 b3 a6 3c ec 32 a6 bd
       0.12396766 0.08060344 0.020349324 -0.08115181
0000e0 ab f6 02 3d 30 43 f3 bd ba 9f a6 bd 0c f4 19 3d
       0.031973522 -0.118780494 -0.08135934 0.037586257
0000f0 c2 d2 81 3c 47 4d 1c 3d 84 aa 0e bd 23 b4 63 3d
       0.015847567 0.038159635 -0.034830585 0.055591714
000100 e8 bd 71 bd 78 2b d0 bd 29 fe f1 3d e8 84 46 bc
       -0.059019 -0.10164541 0.11816055 -0.012116648
000110 1b 77 47 3d ec 03 7c bd 7b 7b 86 3c dd cf e3 bc
       0.048697572 -0.061527178 0.016416302 -0.027809078
000120 5f 10 d2 bc 44 a1 02 3e 9c c8 2a 3d 2c 91 db bd
       -0.025642572 0.1275683 0.041695222 -0.10721049
000130 53 6a 1f bd a3 83 04 bd 9a 22 68 bd 48 d8 89 3d
       -0.038919758 -0.0323521 -0.056673624 0.067307055
000140 c1 5a 77 3c c5 43 65 3d 14 91 dd 3d f3 a9 4e 3d
       0.015097321 0.055972833 0.10818687 0.050455045
000150 c0 f0 18 3d f7 d5 c1 bd 9c c0 de 3d 76 17 c0 bd
       0.037338972 -0.09464639 0.10876581 -0.09379475
000160 22 3f 0a 3e 69 f6 08 bd ee a0 5a bd de 75 8a bd
       0.13500646 -0.03343812 -0.05337613 -0.06760763
000170 da f2 b6 bd 17 dd 03 3d 57 1b 3f bd 12 8d a6 3d
       -0.08933039 0.03219327 -0.046656933 0.08132376
000180 68 34 6f 3b b0 52 f3 3d 18 47 0a 3d 97 bb 6c 3d
       0.0036499742 0.11881006 0.033759207 0.057796087
000190 06 4d ad 3c 10 f0 a6 bd c4 34 28 3c a7 54 34 bb
       0.021154892 -0.08151257 0.010266487 -0.0027516277
0001a0 00 10 fd 3c 06 79 62 bd 26 cc b3 bd c4 76 6d 3c
       0.030891418 -0.0552912 -0.087791726 0.014493648
0001b0 fc 9c 08 bd db 86 09 bd 7d be 77 bd bf 5f 82 bd
       -0.033352837 -0.033575874 -0.0604844 -0.06365918
0001c0 c4 ef a0 3d e2 cb 87 3c 22 54 2a bd 5d e4 f0 3c
       0.07858232 0.016576711 -0.04158414 0.029405767
0001d0 00 44 ff bd 87 80 05 bd 34 1b 9c 3c f6 c0 bd 3d
       -0.12464142 -0.032593276 0.01905594 0.0926532
0001e0 b8 eb 5e 3d 66 81 8f bd f6 05 ce 3c 7a cb 15 bd
       0.054424018 -0.07007103 0.025149327 -0.036571003
0001f0 94 e3 02 3d a9 85 47 bb 0c 23 88 3d 7c c3 5e 3b
       0.031955317 -0.0030444658 0.0664731 0.003399103
000200 e8 67 51 3d a4 35 0b 3c ab cb ce 3c 1b c0 82 3d
       0.051124483 0.008496676 0.0252436 0.063842975
000210 f0 14 0f 3e 4d a3 03 3d 6c bf 01 3e 5a e2 d0 bc
       0.13972831 0.032138158 0.12670678 -0.025498558
000220 dc 26 ad bc 03 1c bb 3d 24 a4 0c be a4 f4 a7 bd
       -0.021136694 0.09136202 -0.1373449 -0.08200958
000230 eb 0b 94 bc 18 8e d7 3d ec 18 26 3c f5 c6 4e 3d
       -0.01807209 0.10525149 0.010137778 0.05048271
000240 a6 7c 02 3e 52 f4 12 bd 3a 24 97 bb 4c 62 83 3d
       0.12742862 -0.035877533 -0.004612473 0.06415233
000250 8d 6f c9 bd 9a 49 5c 3c 28 24 ad 3d cb 1a d4 3d
       -0.0983573 0.013445282 0.08454162 0.10356673
000260 9c c7 03 3e 7d e5 86 3d 0c 1c 28 3c 2f 75 03 bd
       0.12869114 0.0658674 0.010260593 -0.032094177
000270 7a 37 4c bd a5 09 4a 3d 12 eb d4 3c 93 24 83 bd
       -0.049857594 0.049325604 0.025990997 -0.0640346
000280 3c b8 f9 3d d3 96 b0 3d 6b ec bd 3c 3c 5d b1 bd
       0.12193343 0.086225174 0.023184022 -0.08660361
000290 c0 a1 97 3c b5 ca d2 3c b7 11 a2 bc 54 9c 94 bd
       0.018509746 0.025731424 -0.019783838 -0.0725638
0002a0 f7 33 77 bd 23 88 74 bb 65 74 02 be 38 a1 dd 3d
       -0.060352292 -0.003731259 -0.12739713 0.10821766
0002b0 4b fa 16 3d 20 11 dc bd d7 6f 19 bd 91 c7 cf 3c
       0.03685979 -0.10745454 -0.037460174 0.025363715
0002c0 30 7a fb bd db 34 92 3c eb eb ce 3d 05 79 6b 3d
       -0.12279165 0.01784747 0.101035915 0.05748846
0002d0 6e 1d 93 3c 2e 4e 78 bd 17 ec 90 bd 86 1b 3d 3d
       0.01795837 -0.060621433 -0.070762806 0.046168827
0002e0 76 8d 24 3d 2f eb 01 3d 26 f9 17 bd 3d 73 02 3e
       0.04017397 0.03171843 -0.03710284 0.12739272
0002f0 8c bb e9 bd e1 56 08 3e 27 6c e0 bc 41 1e 9a 3c
       -0.11412725 0.13314392 -0.027395321 0.018813254
000300 68 ef b6 bd a8 b7 c9 bd b8 61 cf 3d de eb 09 3e
       -0.08932382 -0.09849483 0.1012606 0.13468882
000310 ed 02 cd bd 74 e5 0e bd 96 93 3e 3d 75 cd c3 3c
       -0.10010324 -0.034886792 0.046527468 0.02390168
000320 51 4e 60 bc 77 e5 4d bc e3 0e bb bd be dc 2b bd
       -0.013690547 -0.012566916 -0.09133699 -0.041958563
000330 f9 c4 ff bc ec 39 1a 3c 42 bb 35 bd e5 0f 9c 3d
       -0.031221854 0.009413224 -0.044368036 0.07620219
000340 48 5d ae 3d 0b 4a f3 3d 38 40 00 3e 35 72 f5 bc
       0.08513886 0.11879357 0.12524498 -0.029961685
000350 32 fd 07 be 6f ef b5 3d c1 d8 87 3d 8c a5 69 3d
       -0.1328018 0.08883559 0.066331394 0.057042643
000360 06 5b cf 3d dd 61 a9 bd 98 d8 97 3c 0e b8 e5 bd
       0.10124783 -0.08270619 0.018535897 -0.11216746
000370 2b eb e0 bd 21 92 20 3d 62 9e a7 bd 70 86 89 3d
       -0.10982355 0.03920186 -0.08184506 0.06715095
000380 60 f0 a5 3c c6 f2 b0 3d 98 24 ca 3d 3d 3b ad 3d
       0.020256221 0.08640055 0.09870261 0.084585644
000390 e3 29 4c bd df c3 80 3d ec 59 c5 3d f2 81 03 3e
       -0.049844634 0.062873594 0.09636292 0.12842539
0003a0 a7 88 9e 3c a2 10 0b 3e 80 2a 81 3d 43 95 23 3d
       0.01935227 0.13580564 0.06306934 0.03993727
0003b0 c2 80 11 bd 06 a3 71 3d 03 24 6a bd de 0f fb bd
       -0.035523184 0.058993362 -0.05716325 -0.12258886
0003c0 5e 8a 0c 3e 9b 91 1c bd 30 a7 e3 3b 84 e1 42 3d
       0.13724658 -0.038224798 0.0069474205 0.04757835
0003d0 f7 10 59 3b d7 bf a4 3d a8 8f 45 3d c0 e6 c0 bd
       0.0033121684 0.08044403 0.048232704 -0.09419012
0003e0 6c af 88 3d bd af c3 3d c8 8c 0a bd 8f 41 16 bc
       0.06674084 0.09555004 -0.033825666 -0.009170904
0003f0 d7 5c 26 3d 40 e1 50 3c 2b 01 47 bd de 96 4a bc
       0.040615883 0.012749016 -0.0485851 -0.012365071

layers.block_1.layer.0.bias f4 [128]
000000 b8 99 c2 3d 56 56 5f bb af 76 d2 bd 3f b2 8e 3d
       0.09501976 -0.003407856 -0.10276543 0.069675915
000010 ac 60 d8 3c ed d6 2b bd c0 e3 b4 3d e3 c0 14 bd
       0.026413284 -0.041953016 0.08832502 -0.036316764
000020 d6 06 9d bd 4e a5 72 bd 36 34 61 3c 3c c4 f5 3c
       -0.076673195 -0.059239678 0.013745358 0.030000798
000030 9c 0c a1 3d ea 44 ac bd e8 51 4a bd a3 9a 5c bd
       0.07863733 -0.08411582 -0.049394518 -0.05385841
000040 dd 02 b5 bd d9 b8 10 bd b2 9d a5 3a 23 08 43 bd
       -0.08838437 -0.035332534 0.0012635498 -0.04761518
000050 12 95 fa ba 03 54 a1 bd 3f b7 58 3b e4 94 63 3d
       -0.0019117913 -0.07877352 0.0033068208 0.055561915
000060 e4 50 0c be cc 58 4b 3d 85 aa 37 3c bb 69 dd bc
       -0.13702732 0.04964523 0.011210089 -0.027027955
000070 39 30 04 be 7a 8e 7a 3d 41 0e 08 3b ea e8 ec 39
       -0.1290902 0.061171032 0.002076045 0.00045186962
000080 a1 36 de 3d 42 26 57 3d 5f 65 b5 3b 48 ad 87 bc
       0.108502634 0.05252672 0.005535766 -0.01656212
000090 23 b5 86 3c 3d 3c 4d ba 7b b5 8b bd 30 2b 55 bc
       0.016443795 -0.00078291056 -0.06821724 -0.013010785
0000a0 91 fa 77 bd 7c 49 ae 3c b6 5d f4 3c 12 c8 8a 3d
       -0.060541693 0.021275274 0.029829841 0.06776442
0000b0 d6 e7 98 3d ad 33 c2 3b 53 91 50 3c bd 61 c2 3d
       0.07466094 0.0059265704 0.0127299605 0.09491298
0000c0 90 92 6a 3d 9c 51 3a bd c2 82 c4 3b 52 4e f7 3c
       0.05726868 -0.045487985 0.005997033 0.030188713
0000d0 ec f4 32 3b 3e 0c 7b 3d 3f 28 d3 3d 57 c6 76 3d
       0.002730663 0.061290972 0.10310411 0.060247745
0000e0 19 dd a5 3d de 5b 59 3d 85 8e c6 bd e8 cd c1 3c
       0.08098812 0.053066127 -0.09695152 0.023657754
0000f0 59 19 0d bc ee 12 8e 3d 43 e1 53 3d 77 18 8b 3c
       -0.008612 0.06937204 0.0517285 0.01697944
000100 32 48 7b bc 12 42 47 bd e9 98 43 3d 47 98 ef 3c
       -0.015337037 -0.048646994 0.04775325 0.029247416
000110 b9 16 ad bd 82 8b 69 bd f2 b3 ed 3c 4f df 95 3c
       -0.084516 -0.05701781 0.029016469 0.018294958
000120 4c 8f f3 3c 1d 76 b2 bc 56 63 5a 3c d8 17 fe bd
       0.029731415 -0.021784836 0.013329348 -0.124068916
000130 70 77 bd bd 3e 88 80 bd 30 93 a4 3d 9f e5 34 3d
       -0.092512965 -0.06275986 0.08035886 0.044164296
000140 b0 a8 8c 3d af a5 34 3d 70 ef 30 bd 10 e6 8a bd
       0.06868112 0.04410332 -0.043197095 -0.06782162
000150 cb 36 15 3d 5c 01 46 3c 35 09 9a bd 24 07 e6 3a
       0.036429208 0.012085285 -0.07521287 0.0017549735
000160 49 50 d5 bd ee 37 c4 bc 97 71 ae bc ac 8e b6 bc
       -0.10415704 -0.02395245 -0.021294398 -0.022284828
000170 fd 32 83 bd 76 c4 9b 3d a5 72 7d 3b 9e 27 46 bd
       -0.064062096 0.07605831 0.003867307 -0.048377626
000180 22 ff 73 bd 49 46 59 bd 39 39 78 bc 80 a0 9d 3d
       -0.059569485 -0.053045545 -0.015150362 0.076966286
000190 52 5c 94 bb 6a 9c 87 bd 0d ea 3d 3d de 8e 61 bd
       -0.004527607 -0.066216305 0.046365786 -0.05506789
0001a0 4e 22 92 bb db 63 8f bd 5b 0b a7 3d 45 ef ea bd
       -0.004459656 -0.07001468 0.08156463 -0.11471418
0001b0 ac 16 3c 3d 6f 36 25 3d 74 e8 ba 3d 24 d6 43 bd
       0.04592006 0.040335115 0.09126368 -0.047811642
0001c0 15 95 96 bd ff 31 75 3d e5 fe 5d 3d f6 5e 5b bd
       -0.07352654 0.059862133 0.054198164 -0.05355736
0001d0 d8 31 54 bc a2 e6 a4 bd d1 f9 cd 3d 81 45 5a 3d
       -0.012951337 -0.08051802 0.10057414 0.05328894
0001e0 35 21 2d 3d 8b c0 8b bc 56 52 8c 3d 25 7d 9e bd
       0.042267997 -0.017059585 0.06851642 -0.07738713
0001f0 eb 29 9a 3d 55 73 08 bd 88 68 a2 bd 8b c3 9a 3d
       0.075275265 -0.033313114 -0.07930094 0.07556828

layers.block_2.layer.0.weight f4 [128, 128]
000000 c4 3c ef bb 0b 99 b0 bc 15 50 40 bd c6 16 a0 bd
       -0.007300945 -0.021557352 -0.046951372 -0.07816844
000010 8d 56 88 bc cb 20 26 bd 05 8a a5 3d d3 eb 92 bd
       -0.016642833 -0.040558618 0.08082966 -0.07173886
000020 db 45 ac bd 51 8c e1 3d 84 96 db bd 79 0c 43 bc
       -0.084117614 0.11013091 -0.10722068 -0.011904829
000030 0f 11 11 bd dd ce 17 3e d7 39 79 bd 4a 64 03 3d
       -0.03541666 0.14825006 -0.060846176 0.032078065
000040 9b f3 c2 3b 58 ae de bc c4 1e a8 3c 4b 83 a3 3d
       0.00594945 -0.027182743 0.020522483 0.079840265
000050 81 b3 e1 3c 58 6a 97 3d 11 45 9b 3d 80 2a 99 bd
       0.027551414 0.0739333 0.07581533 -0.07478809
000060 d7 03 81 3d 1b 69 d3 bd db 13 3f 3d d3 81 d4 bc
       0.062995605 -0.10322782 0.046649795 -0.025940811
000070 83 81 e0 3d 80 7f d8 bd ed 8c 94 bd 5f 54 d7 3d
       0.109622024 -0.10571194 -0.07253442 0.105141394
000080 0a 2f dc bb f3 12 ae 3d 9b f5 b5 bd cb 74 d1 bc
       -0.0067194747 0.08499708 -0.08884736 -0.025568387
000090 bb 4a 56 bd 5c 5c 2e bc 00 f2 94 3d cd 00 5e 3d
       -0.052317362 -0.010642137 0.0727272 0.054199982
0000a0 10 05 c3 3c f3 51 85 3d b0 d0 19 bd 76 cc 17 3e
       0.023806125 0.06509771 -0.037552536 0.1482409
0000b0 a1 e3 90 3d 4f e0 5b bd 16 a7 35 bd 10 96 5f 3d
       0.07074667 -0.053680714 -0.0443488 0.05458647
0000c0 7c e2 42 bc 62 b8 7a bc ff 9b 9a 3c 17 8f f2 3d
       -0.011894818 -0.015302749 0.018873213 0.118436985
0000d0 ba 10 bf bd 43 7f 8e bd 82 64 b5 bd c7 32 9e bd
       -0.09329362 -0.06957867 -0.08857061 -0.07724529
0000e0 58 f8 12 3e 8d f3 37 3d 19 f4 80 3d 4c 14 fd 3d
       0.14352548 0.044910002 0.06296558 0.12357387
0000f0 c1 91 17 3e 23 e0 30 bd 7e 3c 3f 3c 6b bc ae 3d
       0.14801694 -0.043182503 0.011672137 0.085320316
000100 ec 9b a5 3c ad 4c 4a bd 87 d0 d2 bd 4c 0b 92 3c
       0.02021595 -0.04938953 -0.1029368 0.017827652
000110 49 0d 13 bb de 86 83 bd ca 62 8e 3d 6b cb d7 bb
       -0.0022438338 -0.06422208 0.06952436 -0.0065855286
000120 5d d0 b5 3d a7 71 1c 3d 51 f7 51 3d 21 66 74 3d
       0.08877633 0.038194325 0.05126125 0.05966771
000130 ec 63 e8 3c 48 1f 51 3d 81 6b b7 bb 3a ee 08 bd
       0.028367959 0.051055223 -0.0055975323 -0.033430316
000140 a6 67 d3 3c 23 21 68 3d 53 59 2a bd bf 12 e6 3c
       0.02580626 0.056672227 -0.041589092 0.02808511
000150 50 db 59 3d 93 7e f2 3c bc ac 02 bb 42 ef 66 bd
       0.05318767 0.02960137 -0.0019939383 -0.056380518
000160 27 58 bc 3c 1b 0a 00 be ed 36 8b bd 59 db be bd
       0.022991253 -0.12503855 -0.06797586 -0.09319181
000170 96 13 c7 3d 31 c4 4b 3c fd a1 36 bd b5 e5 3a bd
       0.097205326 0.012436912 -0.044588078 -0.045629222
000180 27 38 b7 bd bd 45 7d bd 43 21 92 bd 73 ff ff bc
       -0.08946257 -0.061834086 -0.071352504 -0.031249737
000190 28 26 b4 3d 89 2e b8 3c 98 35 92 bd 6b 95 78 bc
       0.0879634 0.022483127 -0.071391284 -0.015172343
0001a0 bb 87 dc bc e6 ec f1 bc 4a 12 80 bd 0d ce b6 3d
       -0.02692019 -0.029531907 -0.06253488 0.0892602
0001b0 4d e5 92 3b e8 7e 8f bd d3 f0 00 be d9 a0 89 bb
       0.004482901 -0.07006627 -0.12591867 -0.0042000827
0001c0 bf fe ef bc 12 37 b9 bc 04 d5 c0 3d e5 ae be 3d
       -0.029296277 -0.022609267 0.094156295 0.09310702
0001d0 f8 f9 15 3d e8 aa 07 be fb 44 9d bd 92 7e 19 bd
       0.036615342 -0.1324879 -0.076791726 -0.037474222
0001e0 e2 7a c5 ba 26 8e ae 3a a2 5c 7a 3d 55 91 bc bc
       -0.0015066529 0.001331751 0.061123498 -0.023018518
0001f0 ab 65 27 3d 1d 15 53 bd 70 f0 f6 3d 6b 38 a3 3d
       0.040868443 -0.051533807 0.120575786 0.07969745
000200 f5 bf 78 bd db de 9a bd 94 14 69 3d b2 6e 8c 3d
       -0.06072994 -0.075620376 0.05690439 0.06857051
000210 89 0c 23 3d fa f4 3f 3e 89 df 13 bd f8 e1 fe bd
       0.039806876 0.18745795 -0.03610185 -0.12445444
000220 7c ee 89 bd 12 a2 d9 3d f3 12 46 be d9 9a bf bd
       -0.067349404 0.106266156 -0.19343166 -0.09355707
000230 43 31 8e be aa 62 ba 3d 0a 2d 1c be d2 5f 1b be
       -0.2777196 0.0910085 -0.15251556 -0.15173271
000240 17 e9 ed bc 9c 48 89 3d 4f cf 12 3d 1f eb a1 3d
       -0.02904181 0.06703302 0.035842236 0.07906174
000250 21 2c ed 3c 3f 71 28 be 60 90 e3 bd ec 77 b1 3c
       0.028951706 -0.1644945 -0.11111522 0.021663629
000260 4e b8 34 3e 85 1d c6 3c ec d2 1c be 24 ea c1 3d
       0.17648432 0.024183998 -0.15314835 0.09468487
000270 94 2a 53 bc b3 62 ea bd 0a 15 3f be 77 e2 04 3e
       -0.012888569 -0.11444607 -0.1866037 0.12977014
000280 76 41 91 3d 1c 1d bf 3d 22 e6 27 bd d7 22 c9 3d
       0.07092564 0.09331724 -0.040990956 0.09821098
000290 e8 17 0f be 1a c4 93 3d c0 b4 8b bd cd c7 bd bd
       -0.13973963 0.07215138 -0.06821585 -0.092666246
0002a0 fe b4 ed 3c 10 ab b1 3d 46 ce 60 be fc 4f 0c 3e
       0.029016968 0.08675206 -0.21953687 0.13702387
0002b0 11 cb e9 bd 9c d3 cf bd ae 33 d1 3d 5c 57 e3 3c
       -0.11415685 -0.10147783 0.10214935 0.027751617
0002c0 15 88 4a be 61 1d f5 bd 8e e8 ac 3e 0a 7b 84 be
       -0.19778474 -0.11968494 0.33771175 -0.2587512
0002d0 cb a5 74 be 64 f9 74 be 79 f0 2d be a8 5e 71 bd
       -0.2389137 -0.2392326 -0.16986264 -0.05892816
0002e0 05 6f 62 3e 97 af 41 be 3d d4 d9 bd bb b2 46 3e
       0.22112663 -0.18914638 -0.10636184 0.19404118
0002f0 17 0a 8a 3e 74 3f cf 3b a3 0f 8b 3d 2c 49 7b 3c
       0.26960823 0.006324703 0.06790092 0.01533727
000300 50 bd 19 3e 54 7c 5b 3d c2 31 55 3d c5 f8 72 be
       0.15013623 0.053585365 0.052049406 -0.2372771
000310 be 12 67 3d e5 a3 c9 bd 6f a9 95 bc d6 ba 90 be
       0.05641436 -0.098457135 -0.018269269 -0.28267545
000320 6f 0e 25 3e 2e 8c f1 3b 42 f3 00 bd be 10 43 3e
       0.16118787 0.007371447 -0.03148199 0.19049355
000330 ea a8 8d bd ef 4e c4 3d b8 6c d7 bc c4 33 d1 3d
       -0.069169834 0.09585368 -0.026296958 0.10214952
000340 07 6a 02 be e7 46 55 3d 45 a4 14 be 1c 25 4a bd
       -0.12735759 0.05206957 -0.14515789 -0.049351797
000350 6b 4d ca bc fd b5 8b 3d 60 ad 27 be 8a 9d 2c bc
       -0.024695119 0.06821821 -0.16374731 -0.010535607
000360 cf c6 2e 3e b7 47 83 be 1e 66 04 3d c4 cd 10 be
       0.17068027 -0.25640652 0.03232395 -0.14140993
000370 9f c5 10 3e fe 9a 63 bd 8f 7c 8b be d0 73 02 be
       0.14137886 -0.055567734 -0.27243468 -0.12739491
000380 a8 c0 e5 3d 4a fe ed 3d 05 4b eb bd d3 f7 8c bd
       0.11218387 0.116207674 -0.11488918 -0.06883206
000390 4a 09 49 3e 12 39 bc bd 7b f1 1d be b7 57 01 be
       0.1963245 -0.09190573 -0.15424149 -0.12631117
0003a0 43 f8 5a bd 74 e3 df 3d 69 27 34 3c d6 d4 45 3e
       -0.053459417 0.10932055 0.010995724 0.19319472
0003b0 4e fc 82 bd 70 02 e8 3d 11 bb 80 be 7e 38 26 bc
       -0.063957796 0.1132859 -0.2514272 -0.010145305
0003c0 4d 1a 8d 3e 48 c3 dc bd 33 e1 b0 3d 6b 49 17 3e
       0.27559128 -0.107794344 0.08636703 0.147741
0003d0 ac 86 09 3e 73 71 8b be f5 53 95 3c 2c 5b c0 3d
       0.1343028 -0.27234992 0.01822851 0.0939239
0003e0 00 73 19 be 35 35 b1 be bb d6 7a bd 4b 53 23 be
       -0.14985275 -0.34610906 -0.06123994 -0.15949742
0003f0 5e cb 86 be 66 9a b4 bd 80 e1 bf 3d 1d f2 21 3d
       -0.26327032 -0.08818512 0.093691826 0.039537538

layers.block_2.layer.0.bias f4 [128]
000000 46 c6 86 bd 78 a2 f2 bc dc b6 0d 3d 08 bb 5c 3c
       -0.065807864 -0.029618487 0.034598216 0.013472326
000010 ba 1b ae 3d 9b 57 be 3c 88 ba 41 bd 18 1f 36 bd
       0.08501382 0.023235133 -0.04729703 -0.044463247
000020 98 f4 09 bc 14 23 fd 3c 6d 10 89 bd 11 02 48 bd
       -0.008420132 0.030900516 -0.06692586 -0.048830096
000030 30 eb 65 bd 2d 9d db 3c eb ce 7e bd 61 43 c4 bc
       -0.056132495 0.026808346 -0.06220905 -0.02395791
000040 fc 28 02 bd 95 cc 90 bc d4 fa 6c bd b6 47 78 3d
       -0.031777367 -0.017675677 -0.057856396 0.060615264
000050 39 04 36 bc 9e 19 86 3d c0 95 89 3c 8b 5b 1c 3d
       -0.011109405 0.06547855 0.01679504 0.03817324
000060 e3 3c b7 bd fb 3b a3 bb 3e eb be bb e0 5e 8a 3d
       -0.0894716 -0.0049815155 -0.005826383 0.06756377
000070 96 79 cc 3d c8 17 7b bd 51 99 86 3d 50 63 2e bd
       0.09984128 -0.061301976 0.065722115 -0.04257518
000080 ba a8 e5 bc 10 7e 55 3d 05 98 65 3c 50 16 c9 3c
       -0.028034557 0.052122176 0.014013295 0.024546772
000090 c5 1b 43 3d ea 1d d9 3c 3a 1b 8a bd ea 44 ea 39
       0.047633905 0.026503522 -0.06743474 0.00044683303
0000a0 fc 0e c1 3d 8e 5b c2 3d fd b1 56 bd 70 6d 60 bd
       0.09426686 0.09490119 -0.052415837 -0.054791868
0000b0 cc e0 80 bd 8c e5 92 bd 1a d8 23 bd 08 f4 17 3d
       -0.062928766 -0.07172689 -0.040001012 0.03709796
0000c0 48 ca a4 3d f9 5d b4 bd 5f 6c 2f bd 79 ff 3a bd
       0.080463946 -0.08806986 -0.04282796 -0.045653794
0000d0 b9 8d 9c bd 27 4c e6 bb 9d b8 7f bd 5b b5 c5 3c
       -0.07644219 -0.007028121 -0.06243192 0.024134329
0000e0 42 ba 29 bc 8b 3d 84 3d 34 d6 ef bb c2 07 a2 bd
       -0.010359349 0.06457051 -0.007319236 -0.07911636
0000f0 56 8b a1 3d e2 36 58 3d 3c dc 65 3d 43 35 36 bd
       0.07887904 0.052786715 0.056118235 -0.044484388
000100 64 6f 09 bc 55 e8 8a bd 08 56 82 bd 61 ce 7a 3d
       -0.008388374 -0.06782595 -0.063640654 0.061231975
000110 d3 28 9c bd 6b 01 97 3d 8b 73 33 3d e3 e3 62 bb
       -0.07624974 0.07373317 0.043811362 -0.0034620694
000120 f6 da 26 3c 38 ce 9b bd c9 99 6b 3c 41 64 0d bd
       0.01018404 -0.076076925 0.014379927 -0.034519438
000130 b1 c0 f1 3c 30 50 8f bd a7 82 2d 3d ef ca fc 3b
       0.029510828 -0.069977164 0.042360928 0.0077146213
000140 f1 87 1e bc 2a a6 9c bd 4e 85 56 3d f1 46 b9 3d
       -0.009675966 -0.07648881 0.052373223 0.09046734
000150 99 6c 78 bd ad 87 c4 bd dc ef bf bd 5a 78 6d bd
       -0.06065044 -0.095961906 -0.093719214 -0.057976104
000160 6a 97 d5 bc 86 67 40 bd ab c7 90 3d ae 1e b5 bb
       -0.026073176 -0.046973728 0.07069334 -0.005527339
000170 92 fd 58 bd 8b 77 b1 3d 30 bf 89 bd 7d fc 24 3d
       -0.0529762 0.08665379 -0.06725919 0.040279854
000180 d3 9d 3b bd 7f 74 76 bd 8b e2 04 3d 23 42 95 3c
       -0.04580481 -0.060169693 0.03244261 0.018220013
000190 45 4b 98 bd f7 cd 20 bc 4c 56 a5 3d c7 bd 31 3d
       -0.074362315 -0.009814731 0.080731004 0.043393876
0001a0 03 f0 33 3d 21 e5 e7 bd 98 39 f7 bc f5 9c 4c bd
       0.043930065 -0.11323 -0.03017883 -0.049954373
0001b0 8c 7a a5 bd 27 99 f0 39 8b e3 86 3b 24 95 a4 3b
       -0.080800146 0.00045890475 0.0041164807 0.0050226618
0001c0 0a 94 25 bc a2 a1 5c bd b6 05 9a bc b9 76 6c 3d
       -0.010106096 -0.053865083 -0.018801551 0.05773041
0001d0 ed 5e ec ba ac c7 11 bd 56 61 2f 3d d2 74 b5 3b
       -0.0018033661 -0.035590813 0.042817436 0.0055376077
0001e0 39 78 7b bd 04 25 83 3d 2f 8a a4 bd 5e cf 31 bd
       -0.06139395 0.064035445 -0.08034169 -0.04341065
0001f0 22 7d f6 3c 7f 72 97 3d ac 90 5c bd 40 66 45 bd
       0.030088965 0.07394885 -0.053848907 -0.048193216

layers.block_3.layer.0.weight f4 [128, 128]
000000 b8 8e 20 bd be 30 cb 3c c4 55 93 3d 9d 51 e6 ba
       -0.039198607 0.024803516 0.07194093 -0.001757193
000010 b9 2b 38 3d 5b f8 23 bc a3 f7 01 be 74 65 81 3d
       0.044963572 -0.010007943 -0.12692122 0.06318179
000020 69 6d 0c 3d 2b cb 16 bc 0f 80 2d 3d eb 44 2c be
       0.03428403 -0.009203712 0.042358454 -0.16823165
000030 b5 07 b8 bb 1f a0 00 bd b4 f3 f8 3d 1c c3 49 bc
       -0.005616153 -0.031402703 0.12155858 -0.012314584
000040 03 83 37 be 59 47 0d be 37 33 47 bd 84 34 50 3d
       -0.17921071 -0.13796748 -0.048632827 0.050831333
000050 7b 75 6d bc 67 69 9c bd aa bb 56 3c ac 1c 03 3e
       -0.014493342 -0.076372914 0.013106266 0.12803906
000060 23 81 d1 3c df c9 e8 bd c2 44 01 3d bf 05 06 3d
       0.025574272 -0.11366629 0.031559713 0.032720324
000070 f1 e0 c8 bd 29 45 69 3d 30 cb fa 3d f8 32 f9 bd
       -0.09808529 0.056950722 0.12245786 -0.12167925
000080 10 8f 31 bd 78 88 e8 3d 11 d0 14 3e 57 d4 02 3d
       -0.043349326 0.11354154 0.14532496 0.031940784
000090 26 04 a1 3d c5 ce 11 bc 85 db a4 bc 79 e0 69 3d
       0.078621194 -0.008899395 -0.020124206 0.05709884
0000a0 f1 ff a3 bb 81 86 a2 3c a7 0e d0 bd 25 ac 44 3c
       -0.005004876 0.019839527 -0.10159045 0.012003933
0000b0 a5 b7 8c 3d d3 d3 ec 3d f1 3d 12 bd 01 db ab bc
       0.06870965 0.1156384 -0.035703603 -0.020978453
0000c0 b3 bc 01 3d 5f a1 09 3c 17 f0 a6 3c ed a1 b0 bc
       0.0316741 0.00840029 0.020378156 -0.021561587
0000d0 79 67 90 bd 92 00 ad 3d a2 19 82 bd a5 45 f7 bb
       -0.07050986 0.084473744 -0.06352545 -0.007546144
0000e0 c9 9c be 3d 0b 66 4a 3d a6 d9 08 bb 51 13 96 3c
       0.09307248 0.049413722 -0.0020881682 0.018319758
0000f0 16 94 88 bd be 27 8c 3b 82 c6 f5 bd f1 cd c3 bd
       -0.0666887 0.0042771986 -0.12000753 -0.095607646
000100 2d 52 85 bc b4 89 fb bc 7f 36 bd bd 43 a2 7b 3d
       -0.016274536 -0.03070531 -0.0923891 0.06143404
000110 1a 13 32 bd 3b 5b 8a 3b 61 71 1b 3d 20 c3 94 3b
       -0.043475248 0.0042223013 0.037949923 0.0045398623
000120 79 80 58 bd c2 f4 97 bc 5a 4d 66 bc b3 d4 1a 3e
       -0.052856896 -0.018549327 -0.014056528 0.15120201
000130 29 75 12 3e 94 7e d7 3d da fe af bd 87 9e 87 3d
       0.14302506 0.1052219 -0.08593531 0.066220336
000140 14 70 2a 3e 40 8a 56 3d 36 6a a3 3d e5 49 e1 3c
       0.16644317 0.05237794 0.079792425 0.027501056
000150 d1 43 87 3c 54 4b 4d bc 88 d1 93 3d 47 39 c5 bc
       0.01651183 -0.012530167 0.07217699 -0.024075164
000160 86 ce ee 3d 2d 4d 4d bc 6e 87 02 bb a6 96 2d bb
       0.11660485 -0.012530607 -0.0019917148 -0.0026487499
000170 cc e2 b9 3d 4c 81 dc 3d cd d1 96 3d 13 53 8f 3d
       0.09076461 0.10766849 0.07364235 0.06998267
000180 5b f9 aa 3d b6 eb 00 3d 2e 7c 14 3d 70 06 79 bd
       0.08348342 0.03147479 0.03625124 -0.060797155
000190 6a 35 31 bc b4 81 9b 3c 1e ff 6c 3c fa b6 fb bd
       -0.010815958 0.018982746 0.014465122 -0.122907594
0001a0 23 82 23 3d 2a af b6 bc f1 58 f9 bd f9 31 7e bd
       0.03991903 -0.022300322 -0.12175167 -0.062059376
0001b0 17 cd ad bd 11 6a 3e 3e db 2f c2 bd 8c 31 f4 bd
       -0.084863834 0.18595149 -0.09481784 -0.11923513
0001c0 15 f4 bf bd 2f 42 c2 3d ac 19 1d bd 5e 79 a4 bd
       -0.09372727 0.0948528 -0.03835456 -0.080309615
0001d0 17 5a f5 3d c9 28 9a 3d f9 88 ce 3d 94 9f 2a bd
       0.11980074 0.075273104 0.10084719 -0.04165609
0001e0 13 53 c6 bd b1 6e a0 3c b5 a0 f6 bc 80 80 35 bc
       -0.09683814 0.019584032 -0.030105928 -0.011078
0001f0 93 1e ff bd 58 f4 65 bd 6e e8 39 bc 8f 30 09 3d
       -0.124570034 -0.056141227 -0.011346919 0.033493575
000200 25 7c f5 bc 95 01 af be 34 28 8b 3e 85 1a 93 bd
       -0.029966423 -0.34180894 0.2717911 -0.071827926
000210 81 0a 01 3e 26 73 d9 bd 65 60 a0 3d 00 6a 57 3e
       0.12601663 -0.10617666 0.07830886 0.2103653
000220 65 4c 93 3d 4c 24 2e 3e 25 66 14 be 14 49 62 3d
       0.071923055 0.17006034 -0.1449209 0.055245474
000230 33 de a1 3c 2d 07 75 3d 0b 5e 1c 3e ca 27 37 3e
       0.019759273 0.059821296 0.1527025 0.17886272
000240 3d b3 a4 3d da 3b 9b bd 15 6c a4 3c 56 b4 43 bd
       0.080419995 -0.07579775 0.020071069 -0.047779404
000250 34 9d 99 bb 18 9e 58 bd 56 2c ee 3d 37 a8 09 bc
       -0.0046879295 -0.052885145 0.1162955 -0.008401922
000260 cb 58 0c bd 2d 10 ae 3c ab ff b0 3d b2 ce ce 3b
       -0.034264367 0.021247948 0.08642515 0.006311261
000270 39 8c 54 3d 88 f1 0a 3e 46 90 c2 bd b0 14 4b 3e
       0.05189154 0.135687 -0.09500174 0.1983211
000280 79 4d 3d 3e cc 1c 33 3c 3b 93 a0 3c 21 6e 42 3e
       0.18486585 0.010932159 0.019601455 0.18987323
000290 dc c9 52 bd 22 dd 29 3e da 07 11 bd f3 b3 29 be
       -0.05146204 0.16588262 -0.03540788 -0.16572551
0002a0 81 10 95 bd 44 bf 57 3d 50 02 11 3d 91 18 07 bd
       -0.072785385 0.05267264 0.035402596 -0.032982413
0002b0 17 b8 a5 3c 86 e3 a2 3c 17 6a e5 bd 25 17 21 be
       0.020229382 0.019883882 -0.11201876 -0.15731485
0002c0 72 e0 84 3d 47 e7 cd bd 1b 5c 5d bd ae d8 a2 bd
       0.06488122 -0.10053878 -0.054042917 -0.079514846
0002d0 50 d0 76 bc cd 38 e9 bd b5 96 b0 3d d9 26 c5 bd
       -0.015064314 -0.11387787 0.08622495 -0.0962655
0002e0 ed c5 49 3e 08 88 10 bd 15 e0 19 3e e7 de 8d be
       0.19704409 -0.03528598 0.15026887 -0.27709123
0002f0 cc 48 b0 bc 59 ed ce bd 57 8a 18 be 9d e2 e2 3c
       -0.021519087 -0.10103864 -0.14896522 0.027695948
000300 e5 cc 39 be 36 ca 87 bd a0 39 fe bc 4d 11 c4 bd
       -0.18144567 -0.066303656 -0.031033337 -0.09573612
000310 05 b2 87 bd 05 62 14 bd 89 2d 8c 3e ec 5c 68 bd
       -0.066257514 -0.03622629 0.2737849 -0.056729242
000320 ac 87 f3 bc d1 80 fd bd b2 1c 26 3e 86 17 38 be
       -0.02972778 -0.123780854 0.16221884 -0.17977723
000330 07 c8 a6 3d 5a 1c f5 bc fd 7f 0e be 8b 01 52 3d
       0.08143621 -0.029920746 -0.13916011 0.051271003
000340 1c 73 ce bd 12 cb d3 3c 0a 63 ee 3c 7a ab 81 3a
       -0.10080549 0.025853667 0.02909996 0.0009893023
000350 8c 91 63 3d 2d 2a 2a 3d a8 ec 4d bc 73 65 2a 3e
       0.055558726 0.04154413 -0.01256863 0.16640262
000360 ae f5 b5 3d ea 52 26 bc a2 c4 07 3d 61 e9 b0 3e
       0.0888475 -0.010151604 0.033146508 0.34553054
000370 3f ff 3e 3c 3f 57 c8 bc 56 34 1b 3e 30 92 1c be
       0.011657535 -0.024455665 0.15156683 -0.15290141
000380 74 67 59 be a9 e5 15 be bf 1f 2e bc ea 58 b4 3d
       -0.2123087 -0.1463839 -0.010627686 0.088060215
000390 76 78 06 bd 00 0c 43 3d cb d1 d1 3c 03 01 80 3e
       -0.032829724 0.047618866 0.025612732 0.25000772
0003a0 d5 79 14 3e d2 8b dd bd c2 68 9f 3d 90 dc 58 bd
       0.144996 -0.10817684 0.07783653 -0.05294472
0003b0 3c c0 01 be 2d 80 4f bd 9a 22 4e bb 5d bc 91 3d
       -0.12670988 -0.050659347 -0.003145373 0.071160056
0003c0 17 2f 78 be 28 ca a0 39 61 8a 1a 3e 97 78 e6 3d
       -0.24236713 0.00030668196 0.1509185 0.112534694
0003d0 c0 b1 cd bc 80 dc ab bd 54 3f 89 be 5d 6d 6e bc
       -0.025109172 -0.083916664 -0.26806128 -0.014552441
0003e0 d0 4a 34 3e 0f 76 5c bc 1e 62 1c 3e 13 9e 83 3d
       0.17606664 -0.013455882 0.15271804 0.06426635
0003f0 f3 ed 14 3d 53 20 2c bc 30 0b 75 3d ed 84 a8 bb
       0.03635974 -0.010505754 0.059825122 -0.005142799

layers.block_3.layer.0.bias f4 [128]
000000 e0 a8 a6 3d 61 f1 d8 3d 8c 76 e1 bc 48 45 1c 3d
       0.08137679 0.105929144 -0.027522348 0.03815201
000010 d4 16 c7 3d 1e df 9a bd f9 b1 91 bd ca d7 e2 bc
       0.09721151 -0.075620875 -0.07114024 -0.027690787
000020 70 f9 c1 ba 46 e1 a7 bc 62 41 93 bc 60 ad 6c 3c
       -0.001479907 -0.020493161 -0.017975513 0.014445633
000030 c1 0d af bd 45 44 20 3d a4 42 90 3c f5 24 9a bd
       -0.08547545 0.039127607 0.017609902 -0.0752658
000040 1b 4a 08 3b da f4 b4 3d 10 27 04 3d 7f d7 93 bd
       0.0020796123 0.08835764 0.032263815 -0.07218837
000050 c2 c5 5f 3d 13 ce ef 3c e6 55 55 bc 1c 18 29 bc
       0.054631956 0.029273069 -0.013020968 -0.0103206895
000060 6a f0 91 3c 8d bd ae bd be b9 ac 3d ad 93 4f 3d
       0.017814834 -0.08532248 0.08433865 0.050677944
000070 db dc ac bd fe b5 7b 3d 5e 65 6d 3d c5 70 af 3b
       -0.08440562 0.06145286 0.057958 0.0053540193
000080 93 5a ce 3d ae b7 52 3d cd 8a 09 bd 4f 05 b2 bb
       0.100758694 0.0514447 -0.033579636 -0.0054327617
000090 89 d3 a6 3d ef 8a 0f 3d 3c 1e ae 3d b0 ec 60 3d
       0.08145816 0.035044607 0.085018605 0.054913223
0000a0 4b 4c a8 bd 77 d4 19 3d 06 4a ee bc 63 91 96 3d
       -0.08217677 0.037556138 -0.029088032 0.07351949
0000b0 cf 64 af 3d 36 76 fa b9 9a 66 40 3d 0d 60 91 bd
       0.085641496 -0.0004777179 0.04697285 -0.07098398
0000c0 dd f2 f2 bc ab ff f4 bc 47 6f b9 3d f2 41 fa bc
       -0.029656822 -0.029907068 0.090544276 -0.030549023
0000d0 64 25 0e 3c cc 77 05 be e3 5b 2d 3d 79 12 6e bc
       0.008675907 -0.1303398 0.042323958 -0.014530771
0000e0 71 9a 2d bb b7 22 98 bd 1d 91 c1 3b 2e ee b8 bd
       -0.002648976 -0.07428496 0.0059071914 -0.09029804
0000f0 3b 71 87 3d 42 a9 83 3c 14 fc 81 3c 5e c0 9f 3c
       0.06613394 0.01607192 0.01586727 0.019500908
000100 de 91 20 3d b4 75 87 3c 73 e5 cb 3c 2c 75 96 3d
       0.03920161 0.016535617 0.024889683 0.073465675
000110 d3 c0 96 3a 15 3c 01 bd 72 09 17 bd 19 b0 56 3d
       0.0011501558 -0.03155144 -0.036874242 0.052414034
000120 17 22 9a 3c 6c 2a 06 bd 04 16 11 3d 57 24 ab 3c
       0.018815083 -0.0327553 0.035421386 0.020891352
000130 bc eb e4 bd 38 11 ac 3d 6e a4 cb 3d 8e 6b 10 bc
       -0.11177775 0.08401722 0.09943472 -0.008814706
000140 71 8f 8c 3d fc 3f 8d 3d c9 08 c7 3b 10 94 a3 3c
       0.06863297 0.0689697 0.0060740453 0.019968063
000150 6d 4d 7b bd 29 c8 f3 bb 95 00 8b 3d 11 74 f7 bc
       -0.061353136 -0.0074396324 0.067872204 -0.030206712
000160 56 79 18 bd 25 cb 38 bd 62 27 59 3c 3e 4a f4 3c
       -0.03722509 -0.04511561 0.0132540185 0.029820558
000170 e1 34 ce 3c 28 a6 a1 bc 79 d4 11 3d c5 56 a0 3c
       0.025171699 -0.01973255 0.03560302 0.019572625
000180 2c ae c7 bc d6 4f 81 3b 27 9e a3 bd 17 68 22 bd
       -0.024375044 0.0039462848 -0.079891495 -0.03965005
000190 41 53 8c bd 6c d1 25 bd 6b c4 8e 3d 9e c9 74 3c
       -0.06851817 -0.040482923 0.069710575 0.014940647
0001a0 70 56 de bc 57 9e 8f bd cb 59 1a bd b2 34 d3 3d
       -0.027140826 -0.07012623 -0.03768329 0.10312785
0001b0 45 e4 81 bd f0 6e c8 bc 88 3e c0 bc 98 55 24 3e
       -0.06342367 -0.024466962 -0.023467317 0.16048276
0001c0 06 da 91 bb 0d 0a e4 3c df 9a 31 bb dc 5d 91 bb
       -0.0044510392 0.027836824 -0.0027100367 -0.0044362377
0001d0 4f 9a 8f 3d 16 aa 06 be f5 30 18 bd a5 c4 47 bc
       0.07011854 -0.1315082 -0.037156064 -0.01219288
0001e0 4f 5a 7e bc b9 ba 09 bc 8d 24 2b 3a 2e 0b 5e bd
       -0.015524461 -0.008406335 0.0006528579 -0.05420988
0001f0 24 42 2d bc aa df bf b9 b9 8d f2 bc 0d 28 fb bc
       -0.010574851 -0.00036597002 -0.029608594 -0.030658746

layers.output.weight f4 [2, 128]
000000 b7 82 cb 3d b3 e8 4d 3d 42 d7 fe bd 48 d2 3a be
       0.09937041 0.050270747 -0.12443401 -0.18244278
000010 14 4f 2d 3e 10 bf 10 3e 6b 3f 68 3d 73 97 30 3e
       0.16924697 0.14135385 0.056701105 0.17245273
000020 09 3b 03 3e 10 25 a5 bd 58 7a 94 bc 19 bb 6e bd
       0.12815489 -0.0806371 -0.018124744 -0.0582839
000030 7c 4c 21 3e ba b9 50 3d 3f 8a 33 3d ad f8 c7 bd
       0.15751833 0.050958373 0.043833014 -0.09764228
000040 a0 94 22 3e e8 b5 36 3d 33 bd 1f 3e 3c a9 0f 3e
       0.15877008 0.044607073 0.15599518 0.14029402
000050 4c b5 38 3f ae 27 03 be 4b 7c 45 be 34 17 2d bd
       0.7215164 -0.12808105 -0.19285695 -0.042258456
000060 0b 6d 13 be 8d fe 5e be 13 51 80 3e 8f d9 1e 3e
       -0.14397065 -0.21776791 0.25061855 0.1551268
000070 f1 89 1b be 73 be b2 3d f5 44 08 be 68 17 15 3f
       -0.15189339 0.087277316 -0.13307555 0.5823884
000080 80 8b 9f bd c7 5d ca bd 93 e4 aa 3e 55 f2 2d be
       -0.077902794 -0.09881168 0.33377513 -0.16986974
000090 d3 21 4b be 8f 86 a7 3d af 3c 87 3e 74 2a 28 be
       -0.19837122 0.08179962 0.26413485 -0.16422445
0000a0 b6 0d 34 3e 3c 4c ba bd d3 eb b0 3d 79 4f 62 bd
       0.17583355 -0.09096572 0.0863873 -0.055251572
0000b0 b3 77 59 be ba d0 1e ba a0 fc b2 bd bc 7d 43 3e
       -0.21237068 -0.00060583244 -0.08739591 0.19090933
0000c0 e3 29 8f 3d 9b bf 19 3e 0e e1 0e 3f c3 7b 7f be
       0.06990411 0.15014498 0.55812156 -0.24949555
0000d0 b7 47 e4 bd 1d d2 37 be d2 49 93 3d 31 c1 0b 3e
       -0.11146491 -0.17951246 0.071918145 0.13647915
0000e0 e4 23 7d be 76 43 6f bc 49 46 09 3e e5 18 35 bc
       -0.24720722 -0.014603486 0.13405718 -0.011053299
0000f0 4d 8a db 3d 68 e5 05 3f c5 89 7e 3e ca 1d 06 3e
       0.10719738 0.5230317 0.24857242 0.13097301
000100 d3 6b 5a 3e 6e b2 4c 3e d3 20 17 3d 4f c1 a2 bc
       0.21330194 0.1998994 0.036896538 -0.019867567
000110 2d 75 63 3e 4f 20 35 3e e2 18 a7 bd 06 91 8b be
       0.22212668 0.17688106 -0.08159043 -0.27259082
000120 a2 a0 16 3e cd bb 4d 3e 15 8e 2a 3d 9c 69 d3 3e
       0.14709714 0.20091172 0.041639406 0.4129151
000130 39 43 4a be f3 ef 8a 3d ae a6 8a bd d3 ed 8b 3b
       -0.19752206 0.06784048 -0.06770073 0.004270294
000140 50 3f 00 bc 07 30 68 be 2b 87 e9 be 50 b0 03 be
       -0.007827595 -0.22674571 -0.45610937 -0.12860227
000150 31 90 2d 3e 4f ec 6f be e3 c3 17 3d bd 53 24 3e
       0.16949536 -0.23429988 0.037052047 0.16047569
000160 27 66 d8 be 77 c7 0d bf 7b 20 5b 3e 7c 38 54 be
       -0.42265436 -0.55382484 0.21399109 -0.20724672
000170 ad d1 a2 3d 5e 17 89 3e 74 fa 47 bb 33 c3 68 be
       0.07950149 0.2677564 -0.0030514272 -0.22730713
000180 be aa d2 3d 42 e8 12 3e 73 25 30 3c 0b aa 9f 3d
       0.10286473 0.14346412 0.010751116 0.07796105
000190 9d 79 18 bd c9 c2 e8 3e 62 f6 cc bd 7b b3 b8 bd
       -0.037225354 0.4546111 -0.10007931 -0.09018608
0001a0 bd 92 3f be ee 8c 8c bc d6 80 1e 3d 25 77 4a be
       -0.1870832 -0.017157044 0.038697086 -0.19772013
0001b0 4e fe a7 3e 94 3d 83 be 56 75 d3 bc 32 c4 f9 be
       0.32811207 -0.25632918 -0.025812786 -0.48782498
0001c0 49 a9 13 3f 18 f4 bc 3e f0 35 d9 be 99 f6 04 3f
       0.57680184 0.3690498 -0.42423964 0.5193878
0001d0 d2 76 66 3e 4b 09 ec 3c c1 d6 bd 3d 93 a9 4a be
       0.22506264 0.028813025 0.09269477 -0.1979125
0001e0 6f 8c f0 bd eb f9 33 bf 42 18 06 3c 18 24 32 3c
       -0.117455356 -0.7030322 0.008184494 0.010872863
0001f0 03 0f ff bd b7 4c ee bd d9 1f 00 be 03 e7 2e be
       -0.12454035 -0.11635726 -0.12512149 -0.17080311
000200 b0 2c a1 bd dd 0c 65 3e 31 65 96 3d 85 e4 40 3f
       -0.078698516 0.22368188 0.073435195 0.75348693
000210 8f f9 71 bd 18 99 f8 be b6 7a 92 bd b6 da ae bd
       -0.05907589 -0.485543 -0.071523115 -0.085378096
000220 44 78 15 bd df c3 98 3c 3f b3 92 be 67 96 be 3c
       -0.036491647 0.018648086 -0.2865238 0.023265077
000230 bb 9b 99 be 90 a9 8f be 21 17 37 3e 1a 0c 41 be
       -0.30001625 -0.28059053 0.17879917 -0.18852273
000240 75 6a 75 bd 95 c7 fb be 95 e6 98 3d 08 3c 7b be
       -0.05991598 -0.49175707 0.07465855 -0.24534619
000250 eb bc c5 be 2c 0f 5e bd 1e f0 ce 3d 0d c0 2b be
       -0.38620695 -0.054213688 0.101043925 -0.1677248
000260 f5 80 5b 3b 6f ab 0e be 4d fb f7 be 9f 5e eb 3d
       0.0033493612 -0.13932584 -0.48433915 0.11492657
000270 89 ed 88 3e ef 6f 53 3e b9 1e c3 3d ef 12 da be
       0.26743725 0.20648168 0.09527344 -0.4259257
000280 0e 84 4f be 33 67 25 be 57 7b 3b be 69 37 47 be
       -0.20265219 -0.16152649 -0.18308769 -0.19454731
000290 e1 eb e9 bd f0 35 56 bd 4d 65 8f 3d b4 17 04 3f
       -0.114219435 -0.052297533 0.070017435 0.5159867
0002a0 ef d4 b6 3d 19 24 8a 3e cb 94 e2 3d 63 06 57 3e
       0.089273326 0.26980665 0.11063536 0.2099853
0002b0 fc 52 bc 3e 8e 8b e4 3d 88 c9 2a 3f 06 ff f4 be
       0.36782062 0.111594304 0.6671376 -0.47850817
0002c0 98 8e 43 3f a7 36 f2 bd bb 07 25 bf a3 c3 db 3e
       0.76389456 -0.1182683 -0.6446492 0.42922696
0002d0 f3 b5 52 be 12 89 34 3e 49 09 3f bd cb 5e ae bc
       -0.2057722 0.17630413 -0.046639714 -0.021285435
0002e0 ac 51 84 bd a5 5f b1 bd 2f c2 59 bc 8e 9c 59 3e
       -0.0646089 -0.08660821 -0.013290926 0.21251127
0002f0 aa 95 63 be ca 6e 98 bc 70 43 12 3e 5f 59 4b 3e
       -0.22225061 -0.018607516 0.14283538 0.19858311
000300 d2 a9 34 bf 82 b6 a5 bc ea f3 d4 3d 79 8b 62 3c
       -0.70571625 -0.020228628 0.103980854 0.013827198
000310 83 7f cd be ac b8 c6 3d 0f db 6a 3d 8a 00 2b 3e
       -0.40136346 0.09703192 0.057337817 0.16699424
000320 71 20 39 be 4b 7e 1f be de c7 35 3e b2 49 8a be
       -0.18078782 -0.1557552 0.17752025 -0.2700935
000330 33 58 89 3d 5f 8d 31 be cf bb 2c be 35 96 a5 be
       0.06706276 -0.17339085 -0.16868518 -0.3234116
000340 2c 16 36 be 25 7c 2a be 3c bd 2f 3d 55 41 fa 3e
       -0.17781895 -0.1664892 0.042905077 0.4887797
000350 3e 3b d4 bd e8 94 1b 3f 8e e3 e0 3d 41 94 e5 be
       -0.10362862 0.6077409 0.109809026 -0.4483967
000360 de 93 22 bd 3a 8c 27 3f 37 75 23 bf e3 ab eb 3c
       -0.0396918 0.65448344 -0.6385073 0.028768485
000370 9e 47 1e 3e f8 2e 87 be 35 f1 a3 bd 6f 81 47 be
       0.15457007 -0.26403022 -0.08004991 -0.19482969
000380 98 95 91 3d a7 83 b9 3c 0f 8f 1e 3e 0c 4f 87 3c
       0.07108611 0.022645785 0.1548426 0.016517185
000390 9a 47 08 be c4 30 4e be c0 82 2c be 9c 74 a5 3e
       -0.13308564 -0.2013579 -0.16846752 0.32315528
0003a0 06 2e 93 3d 54 45 42 3f 72 08 2e 3e fe a9 81 bd
       0.07186513 0.75887036 0.16995409 -0.063312516
0003b0 a5 8f 09 3e 52 c2 bd 3e 91 30 c8 3d f4 80 01 3e
       0.13433702 0.37062317 0.09774888 0.12646848
0003c0 ec 10 7e bc 5b 0e a9 be 42 5e 31 bc 94 c4 08 be
       -0.015506964 -0.33018765 -0.0108256955 -0.13356239
0003d0 ed 4c 11 be c4 25 d3 be 81 5a 0b bf 43 1a 9b bd
       -0.14189501 -0.4123975 -0.54434973 -0.075733684
0003e0 1b ac bd bd 02 a9 81 ba 59 aa 64 bd d7 e7 5c be
       -0.09261342 -0.0009892287 -0.05582652 -0.21572815
0003f0 38 1d 37 be d3 5f ce 3b 9f ab 14 be 67 44 2a be
       -0.1788224 0.006298044 -0.14518593 -0.16627656

layers.output.bias f4 [2]
000000 dd 36 c4 3d 86 4b d1 3a
       0.09580777 0.0015967942
