results/SMOTE5K/smote0/smote0.45/model.pth (torch, 205093 bytes, 10 tensors)

layers.block_0.layer.0.weight f4 [128, 2]
0	0xbf996228	-1.198308
1	0xbdbf44fe	-0.09339331
2	0x3f3d46ac	0.7393596
3	0x3f3275f0	0.6971121
4	0x3f34ab63	0.70574015
5	0x3e2a2a01	0.16617586
6	0x3f1947c8	0.59875154
7	0x3d808cc4	0.06276849
8	0x3f09923a	0.5373875
9	0xbd0429d7	-0.032266464
10	0x3ede4363	0.43410787
11	0xbf226c41	-0.6344643
12	0xbebdf2f1	-0.37099412
13	0xbe597c1e	-0.21238753
14	0x3f5c06fc	0.8594816
15	0x3e890e35	0.26768652
16	0xbf17a0fe	-0.5923003
17	0x3f06eedf	0.5270824
18	0xbe4e454b	-0.2014362
19	0x3f062bcb	0.5241057
20	0xbf7c22ea	-0.98490775
21	0x3ee2dd00	0.44309235
22	0x3f7672e2	0.9626905
23	0x3d8a4b5e	0.067526564
24	0x3f3bea89	0.7340475
25	0xbe89d082	-0.2691689
26	0x3c1e88e9	0.009676197
27	0xbe14a871	-0.1451738
28	0x3f7f897e	0.9981917
29	0xbf0d62b5	-0.5522874
30	0x3ed3a9fd	0.41340628
31	0x3eea227f	0.45729443
32	0xbf69dbd3	-0.9135105
33	0xbe6fe293	-0.23426275
34	0x3f4e3eca	0.8056456
35	0x3c6387b0	0.013887331
36	0x3f65036c	0.89458346
37	0x3e5bc26f	0.2146089
38	0x3f890c2f	1.0706843
39	0xbecf2343	-0.4045659
40	0x3f49afbe	0.78783786
41	0x3f114c7f	0.5675735
42	0xbf7c54d4	-0.9856694
43	0x3bfc6e6a	0.007703592
44	0xbf77727f	-0.9665908
45	0xbeac7304	-0.336815
46	0x3f47885d	0.7794245
47	0xbf167e51	-0.58786494
48	0xbf24f95d	-0.64443
49	0xbefd39b9	-0.494581
50	0x3f645803	0.89196795
51	0xbe3bd777	-0.18343912
52	0x3e5d9334	0.21638185
53	0xbeef4d27	-0.4673855
54	0x3cd506b6	0.026004177
55	0xbf02eabd	-0.5113943
56	0xbf70a999	-0.94008785
57	0xbe586e08	-0.21135724
58	0xbebd5dfa	-0.3698576
59	0xbf33bbb9	-0.7020832
60	0x3f0fbf34	0.5615113
61	0x3e827293	0.25478038
62	0x3f029932	0.5101501
63	0x3e321d0a	0.1739389
64	0xbf820db6	-1.0160434
65	0x3e620158	0.22070825
66	0xbe5d7d14	-0.21629745
67	0xbf42fa54	-0.7616322
68	0x3f22f3dc	0.6365335
69	0xbdd92cbf	-0.10604238
70	0x3ead3ba9	0.3383458
71	0x3ef172b9	0.4715784
72	0xbf80d887	-1.0066079
73	0x3f19bed2	0.60056794
74	0x3e6590ab	0.22418468
75	0x3f440b35	0.765796
76	0x3f8aea83	1.0852817
77	0xbf1baba1	-0.6080876
78	0xbea48076	-0.32129258
79	0xbd178f41	-0.037001852
80	0xbf63ff5d	-0.8906153
81	0x3ca4f8e6	0.020138215
82	0xbe22d008	-0.1589967
83	0x3ea6ab19	0.32552412
84	0x3f32d85d	0.69861394
85	0x3e155e7e	0.14586827
86	0xbebf8637	-0.37407085
87	0x3f3c0149	0.7343946
88	0xbf31a563	-0.69392985
89	0xbf043712	-0.5164653
90	0x3e9f6b42	0.3113652
91	0x3f180536	0.5938295
92	0x3f4e6ce3	0.806349
93	0xbed79ce7	-0.42111894
94	0xbf4357ca	-0.7630583
95	0xbc768f7d	-0.015048859
96	0x3ed13ffa	0.40869123
97	0xbec11c30	-0.37716818
98	0x3f4ae3f9	0.7925411
99	0x3f2472f6	0.64237916
100	0xbe939283	-0.28822717
101	0xbf11476e	-0.5674962
102	0x3f78f218	0.97244406
103	0x3eb4ae07	0.35289022
104	0xbf3622fa	-0.7114712
105	0x3e06cdf9	0.1316451
106	0x3d8ebc91	0.0696956
107	0xbecc216a	-0.39869243
108	0xbf1de3dc	-0.6167581
109	0xbefdca46	-0.49568385
110	0xbf06c906	-0.5265049
111	0xbea7ae4a	-0.3275016
112	0x3f88af0a	1.0678418
113	0x3e87a80d	0.264954
114	0x3e75f6ae	0.24019882
115	0xbebd6bff	-0.36996457
116	0xbf06ba54	-0.52628064
117	0xbf0b0f53	-0.5432026
118	0x3f871ff2	1.0556624
119	0x3e8fbe3a	0.2807482
120	0x3ebff7d2	0.3749376
121	0xbf170f36	-0.59007585
122	0xbea8cf59	-0.32970694
123	0x3f488d07	0.7834019
124	0xbe845f76	-0.2585408
125	0xbf34f29c	-0.7068269
126	0xbd927737	-0.07151645
127	0x3f2df41f	0.67950624
128	0x3fadf695	1.3590876
129	0x3eb5cdc0	0.35508537
130	0x3f577e18	0.8417678
131	0x3d6e9612	0.058248587
132	0x3f54e1b6	0.8315691
133	0x3e305aad	0.1722209
134	0x3f3909d2	0.7228061
135	0xbf0ebfe3	-0.55761546
136	0xbe937af1	-0.28804734
137	0xbe175b14	-0.14780837
138	0xbdf0dd88	-0.11761004
139	0xbe9f73e0	-0.31143093
140	0xbe831cfe	-0.25608057
141	0x3f48eb9b	0.78484505
142	0x3f30bf53	0.6904194
143	0xbded8b02	-0.11598779
144	0xbe099da9	-0.13439049
145	0x3f433c73	0.76264113
146	0xbf04f029	-0.51928955
147	0xbec3e725	-0.38262287
148	0xbebc637b	-0.36794648
149	0x3eae7bd4	0.34078848
150	0xbf29109b	-0.6604096
151	0x3ea26db3	0.3172432
152	0x3f56ed67	0.83956
153	0x3f0724d7	0.5279059
154	0xbe1e956c	-0.15486687
155	0xbf3a60a2	-0.728037
156	0x3f1ed572	0.6204444
157	0x3f1a7da0	0.6034794
158	0x3ec98128	0.3935635
159	0x3ec17030	0.37780905
160	0xbebd5e76	-0.3698613
161	0x3e30eda0	0.17278147
162	0x3f4ba034	0.79541326
163	0x3e622a25	0.2208639
164	0xbf65c1cf	-0.89748853
165	0x3ed3bf44	0.41356862
166	0xbf5a6cf8	-0.85322523
167	0x3e520b7e	0.20512196
168	0x3f67d828	0.90564203
169	0xbe13cc7d	-0.14433475
170	0x3e7f3e71	0.24926163
171	0x3edd57ce	0.43231052
172	0xbf316db3	-0.6930801
173	0x3ef706f1	0.48247483
174	0x3f46d5eb	0.7767016
175	0xbea93469	-0.33047798
176	0x3f868745	1.0510031
177	0xbf1c4677	-0.6104502
178	0x3e2ed58d	0.1707365
179	0x3f2b3782	0.66881573
180	0xbf34025f	-0.7031612
181	0xbf2e7a7f	-0.68155664
182	0xbf40a7bc	-0.7525594
183	0x3f3b4660	0.7315426
184	0xbeaa78c9	-0.33295277
185	0x3eabeaf7	0.335777
186	0xbf01cb80	-0.5070114
187	0x3abaceee	0.0014252344
188	0x3f638e4f	0.8888902
189	0x3e9aa475	0.30203596
190	0xbd83cfba	-0.06436105
191	0xbeac6e93	-0.3367811
192	0xbf660a68	-0.8985963
193	0x3eaebb58	0.34127307
194	0xbf21a1b0	-0.6313734
195	0xbdf6f5cc	-0.12058601
196	0x3f6219b9	0.883205
197	0xbef3d1c5	-0.4762098
198	0xbf1084c2	-0.5645257
199	0xbf30a76d	-0.6900547
200	0xbf67fb94	-0.9061825
201	0x3deee571	0.11664856
202	0x3f8a97d0	1.082758
203	0x3eef20f8	0.4670484
204	0xbf6393b5	-0.8889726
205	0x3f4407c1	0.7657433
206	0xbf9204a8	-1.1407671
207	0x3f24452a	0.64168036
208	0x3f39e779	0.72618824
209	0x3d21e016	0.039520346
210	0xbf65b9c6	-0.8973659
211	0xbebd8ad3	-0.37019977
212	0x3e8e06dd	0.2773961
213	0xbf31c64a	-0.6944319
214	0x3f28a6fe	0.6587981
215	0x3e9e0dfa	0.30870038
216	0x3f6e24b6	0.93024766
217	0xbf2d116a	-0.67604697
218	0x3f30d26d	0.69071084
219	0x3ed839b4	0.42231524
220	0x3ecca54f	0.3996987
221	0x3ea03d5a	0.31296808
222	0xbebecd70	-0.3726611
223	0xbefd9edb	-0.4953526
224	0x3f2cea61	0.67545134
225	0xbecca598	-0.39970088
226	0xbe40fa9c	-0.188456
227	0xbf19c886	-0.600716
228	0xbebc9619	-0.36833265
229	0xbead44a7	-0.3384144
230	0x3eebbe4d	0.46043625
231	0x3ebf0bbb	0.37313637
232	0x3f534a52	0.8253528
233	0x3e6e2721	0.23257114
234	0xbbee0d96	-0.007264803
235	0x3f4e0981	0.8048325
236	0x3b373c5e	0.0027959566
237	0x3f177eab	0.59177655
238	0xbee5e3cd	-0.4490036
239	0x3e895d3e	0.2682895
240	0xbf50287b	-0.8131177
241	0xbe284a38	-0.16434562
242	0x3dea3bdc	0.114371985
243	0x3f2c73d6	0.6736425
244	0xbf80fffe	-1.0078123
245	0x3f0869c9	0.53286415
246	0x3f4c2898	0.7974944
247	0x3e60a414	0.21937591
248	0xbe93a185	-0.28834167
249	0xbed61589	-0.41813305
250	0x3f7e15bd	0.9925192
251	0x3f27df35	0.6557496
252	0x3f21f829	0.6326929
253	0x3f23fc2f	0.64056677
254	0xbe75c2f7	-0.24000154
255	0x3f2d6220	0.6772785

layers.block_0.layer.0.bias f4 [128]
0	0x3e907397	0.28213188
1	0xbee1f5bb	-0.4413279
2	0x3e21325b	0.15741865
3	0x3f1c65af	0.61092657
4	0xbef15545	-0.47135368
5	0x3ef42a36	0.47688454
6	0xbf197fa2	-0.5996038
7	0xbe1978c7	-0.14987479
8	0xbc1da5d7	-0.009622059
9	0xbef89d1c	-0.48557365
10	0xbe9a96d6	-0.30193204
11	0xbe5babb5	-0.2145222
12	0xbe96ee52	-0.294787
13	0xbf243cdb	-0.6415536
14	0x3ef41f6e	0.4768023
15	0x3f260690	0.64853764
16	0x3e207084	0.15667921
17	0x3ee892d0	0.4542451
18	0xbf1c976b	-0.61168545
19	0x3ea14adf	0.31502435
20	0x3f00c1b6	0.5029558
21	0xbe4a700a	-0.19769302
22	0xbe0ba59e	-0.13637397
23	0x3e9420f6	0.28931397
24	0x3f0d9c8b	0.5531699
25	0xbe696930	-0.22794032
26	0x3f0dc7ad	0.55382806
27	0xbef0b56c	-0.47013414
28	0x3e30a2b3	0.17249565
29	0x3f269a63	0.65079325
30	0xbee1272c	-0.43975198
31	0x3e84c9d4	0.25935233
32	0x3dd17a26	0.10228376
33	0xbec98e3a	-0.39366323
34	0xbd96091e	-0.07325958
35	0xbf0e79ee	-0.556548
36	0xbf0d52a1	-0.55204207
37	0x3ee82924	0.45343888
38	0x3f0f1521	0.55891615
39	0xbf0e7c6f	-0.5565862
40	0x3f0ce87c	0.55042243
41	0x3eb90c7f	0.36142346
42	0xbe4fc307	-0.20289241
43	0x3e53de69	0.20690311
44	0xbd04295f	-0.032266017
45	0x3eb7dc83	0.35910425
46	0x3ee1a974	0.44074595
47	0x3f2189c0	0.63100815
48	0x3e6b8758	0.23000848
49	0xbf19cdc1	-0.6007958
50	0xbf09aa82	-0.537758
51	0xbef4999a	-0.4777344
52	0xbedc9dc5	-0.4308912
53	0xbf3cc1a7	-0.7373299
54	0x3eee71f7	0.46571323
55	0xbc89dfd8	-0.01683037
56	0xbe671655	-0.22567113
57	0xbe3a5b1c	-0.18198818
58	0x3e887c33	0.26657256
59	0xbf07deac	-0.53074145
60	0x3eb52df5	0.35386625
61	0x3efdb28b	0.4955028
62	0x3d1cf7f8	0.03832242
63	0x3e588367	0.21143876
64	0xbecf4f0c	-0.40489995
65	0xbf16c20f	-0.5888986
66	0xbdac9d4d	-0.0842844
67	0xbf04ddcd	-0.5190094
68	0xbea5af0c	-0.32360113
69	0xbe80f50d	-0.2518696
70	0x3ec3402f	0.38134906
71	0x3e57723c	0.2103967
72	0x3ea157b2	0.3151222
73	0xbe2b335e	-0.16718814
74	0x3e9bc6a8	0.30425
75	0xbf003ca0	-0.50092506
76	0xbf14f675	-0.58188564
77	0xbf18fdcc	-0.59762263
78	0xbee7ea0e	-0.45295757
79	0x3f228da9	0.63497406
80	0xbed995e9	-0.42497185
81	0x3e9083fe	0.28225702
82	0xbee70056	-0.45117444
83	0xbf0ed9b6	-0.5580095
84	0x3d308863	0.04309882
85	0x3edeeb7d	0.43539038
86	0xbf2cdef7	-0.6752772
87	0x3d441523	0.04787172
88	0x3f08fe20	0.53512764
89	0x3edaf191	0.42762426
90	0x3f339fb0	0.7016554
91	0xbf26d7dc	-0.65173125
92	0xbf2ad8e6	-0.6673721
93	0x3eee683d	0.46563902
94	0xbf1a5cba	-0.6029774
95	0x3edd8c37	0.43271038
96	0xbe8d16f0	-0.27556562
97	0xbe7d6931	-0.24747159
98	0x3e972372	0.2951923
99	0x3f16a680	0.5884781
100	0x3e93a53b	0.28836998
101	0xbf07fb40	-0.5311775
102	0xbf335639	-0.7005344
103	0xbf1db146	-0.6159862
104	0xbf14edd3	-0.5817539
105	0xbe27e216	-0.16394839
106	0x3f0c9228	0.54910517
107	0xbc81b4b4	-0.015833236
108	0x3f11a272	0.56888497
109	0xbd72156b	-0.059102457
110	0x3ee5e9b1	0.44904855
111	0xbf0dccb5	-0.55390483
112	0x3e52a816	0.20571932
113	0x3e8bbb58	0.2729137
114	0x3f17f3bf	0.593563
115	0x3ee659a5	0.44990268
116	0xbe07f197	-0.13275753
117	0x3ef69ba2	0.48165613
118	0x3f1d4363	0.6143095
119	0x3ee3f9c8	0.44526505
120	0x3f1da4d3	0.61579627
121	0x3dbdd2cf	0.09268724
122	0xbef4208a	-0.47681075
123	0xbe5e5d16	-0.21715197
124	0x3f15b672	0.58481514
125	0xbf2d5edd	-0.67722875
126	0xbe3ca182	-0.18420985
127	0xbf28ada3	-0.6588995

layers.block_1.layer.0.weight f4 [128, 128]
0	0x3e2f568b	0.17122857
1	0xbcebefa0	-0.028800786
2	0xbe08303a	-0.13299647
3	0xbd6202ac	-0.05517833
4	0xbdd620ef	-0.104555
5	0xbc934854	-0.017978825
6	0x3d96a362	0.073553815
7	0xbe3a7c77	-0.18211542
8	0x3dd455d4	0.10367933
9	0x3d986504	0.07441142
10	0x3e308ecf	0.17241977
11	0xbd97ce4b	-0.07412394
12	0xbdb5d45f	-0.08878397
13	0x3d8f3b5f	0.06993746
14	0xbe2513a3	-0.16120772
15	0xbdc1e1c0	-0.094668865
16	0x3e676824	0.2259832
17	0x3cc7a916	0.024372619
18	0xbe0b6159	-0.13611354
19	0xbd42898e	-0.047494464
20	0xbd7663bc	-0.060153708
21	0x3e07229b	0.13196795
22	0x3e0c7cb1	0.13719441
23	0xbd2414ee	-0.040059023
24	0x3e19c1d4	0.15015346
25	0xbd4d5fd3	-0.050140213
26	0xbcc6ad43	-0.02425254
27	0xbd68a6a2	-0.05679954
28	0x3de2fc76	0.11083309
29	0x3de584bc	0.11206958
30	0xbdd1a114	-0.10235801
31	0x3d20d126	0.03926196
32	0x3df48da7	0.119410805
33	0x3d17efc2	0.037093885
34	0xbd3b48b8	-0.045723647
35	0x3b0dc64d	0.002163309
36	0x3de60081	0.11230565
37	0xbbf0e890	-0.0073519424
38	0xbccaaa3e	-0.02473938
39	0x3d680df8	0.056653947
40	0xbcb8ef94	-0.022575177
41	0x3c446f4a	0.011989424
42	0xbdaf29d3	-0.08552899
43	0x3db36a6b	0.08760532
44	0x3dd36fa9	0.10324032
45	0x3d86a2a8	0.06573993
46	0xbdd23f5b	-0.1026599
47	0x3d5ab3aa	0.053393997
48	0xbd88c0a6	-0.0667737
49	0xbcf38baa	-0.029729683
50	0xbda48a21	-0.080341585
51	0xbdb363e3	-0.08759286
52	0x3e033950	0.12814832
53	0x3d9021c2	0.07037689
54	0x3cb580f7	0.022156222
55	0x3da94572	0.08265199
56	0xbe0e0598	-0.13869321
57	0xbd48a8f5	-0.048989255
58	0x3e4bea49	0.19913591
59	0xbdcd3077	-0.100190096
60	0xbd654e31	-0.055982772
61	0x3de9e298	0.114201725
62	0x3aaf07ab	0.0013353726
63	0x3d382231	0.044954482
64	0xbe168a46	-0.14701185
65	0xbdd42ecc	-0.10360488
66	0xbe32b1e1	-0.17450668
67	0x3c6938b6	0.014234712
68	0x3d9cdd6e	0.07659422
69	0xbbcb2d22	-0.0062004486
70	0xbd3cae16	-0.04606446
71	0xbe00255c	-0.12514251
72	0x3dab4636	0.08363001
73	0x3e0e0205	0.13867958
74	0x3d943d93	0.07238307
75	0x3dd659e0	0.10466361
76	0xbe00a158	-0.12561548
77	0x3d69a96d	0.057046343
78	0xbd8d6801	-0.06904603
79	0x3d34cca7	0.044140484
80	0x3dea1625	0.11430005
81	0xbdcbfab9	-0.09959931
82	0x3dba3a91	0.09093202
83	0x3e0245e5	0.12721975
84	0xbdfcdda3	-0.12346961
85	0xbd0dc734	-0.034613803
86	0xbc44c48a	-0.012009749
87	0xbc9fb9f5	-0.01949785
88	0xbd449c59	-0.048000667
89	0xbd6f4eea	-0.058424868
90	0x3de836a0	0.11338544
91	0x3c16d77f	0.009206652
92	0xbd50fca3	-0.051022183
93	0x3e07ee0c	0.13274401
94	0xbd012dbe	-0.031537764
95	0xbd6d5d2f	-0.057950195
96	0x3cf1732e	0.029473867
97	0x3d7af456	0.061268173
98	0xbddd4ecf	-0.10806047
99	0x3ca41aca	0.020032305
100	0x3e1665b5	0.14687236
101	0xbcc8c17d	-0.024506325
102	0x3dd63e18	0.10461062
103	0xbc87261c	-0.016497664
104	0xbd90c698	-0.07069129
105	0x3c2b0478	0.010438077
106	0xbd81e27a	-0.06342025
107	0xbdba6c1f	-0.09102654
108	0xbcaecd47	-0.021338118
109	0xbe29ffdb	-0.16601507
110	0xbd6fe2b7	-0.05856582
111	0x3d6a504d	0.057205487
112	0xbda560cc	-0.08075103
113	0x3dfdc38b	0.123908125
114	0xbd55feb7	-0.052244868
115	0xbdd770b2	-0.10519542
116	0xbe3444e8	-0.1760441
117	0x3daf8f43	0.08572247
118	0xbc98f8ff	-0.018673418
119	0x3d7513c3	0.0598333
120	0xbc7dbf6b	-0.015487532
121	0xbcad627c	-0.021165125
122	0xbc9a4a44	-0.01883424
123	0xbdf86738	-0.121290624
124	0x3d108e18	0.03529176
125	0xbce2ce5f	-0.027686296
126	0xbe098a6f	-0.13431714
127	0x3ca0d65b	0.019633463
128	0x3d416762	0.047217734
129	0xbda7e26a	-0.08197482
130	0x3ac7ce72	0.0015244021
131	0x3cbd1a84	0.023083933
132	0xbcd09b5d	-0.025464708
133	0xbd4ceb4c	-0.050029084
134	0xbd9780de	-0.07397626
135	0x3dac4c0c	0.08412942
136	0xbce23b2c	-0.027616106
137	0xbd528042	-0.051391847
138	0xbdab6f8d	-0.08370886
139	0xbd03e4b4	-0.03220053
140	0x3d9c0612	0.07618345
141	0x3c540680	0.012941003
142	0x3d70ebcd	0.058818627
143	0x3d8f35fa	0.06992717
144	0xbda20e98	-0.0791294
145	0x3d2d14b1	0.04225606
146	0xbd1feba9	-0.039043102
147	0x3cf01c2e	0.029310312
148	0xbce1d1b6	-0.027565818
149	0xbdac6c36	-0.08419077
150	0xbdaf209d	-0.08551142
151	0x3e0541ae	0.13013336
152	0xbcb6e4d3	-0.022325909
153	0x3c55142e	0.0130052995
154	0xbb59d5b2	-0.0033238945
155	0x3d261692	0.04054887
156	0xbdce1238	-0.10062069
157	0xbda9abbc	-0.08284709
158	0x3ca6020e	0.020264652
159	0xbcd95967	-0.026531888
160	0xbcd0c6ce	-0.025485422
161	0x3c6060de	0.01369497
162	0x3be51503	0.00699103
163	0x3dabce90	0.08389008
164	0xbdc9f55d	-0.098612525
165	0x3ca5d2fa	0.020242203
166	0x3de5df8a	0.11224277
167	0x3cbe9013	0.02326206
168	0x3a6ea5bc	0.0009103676
169	0xbd510fd6	-0.051040493
170	0x3cd4b782	0.02596641
171	0xbd6a8d0c	-0.05726342
172	0x3d33f247	0.043932226
173	0xbdb4af0d	-0.08822451
174	0x3da67ae6	0.0812891
175	0x3d7f3647	0.062307622
176	0xbcfe5078	-0.03104423
177	0x3afb7f55	0.0019187728
178	0x3d7c7728	0.061637074
179	0xbd7edf0f	-0.062224444
180	0xbdbf315d	-0.09335587
181	0x3d8a0934	0.067400366
182	0xbd7a5591	-0.06111676
183	0x3cb91e4d	0.022597456
184	0x3e1809d3	0.14847498
185	0xbce5e08c	-0.028061174
186	0x3d62656a	0.055272497
187	0x3d8a6b1f	0.06758713
188	0x3da2753f	0.07932519
189	0x3cf86b40	0.030324578
190	0x3de1be16	0.11022584
191	0xbd433ae4	-0.047663584
192	0x3d38d693	0.04512651
193	0xbca90e4b	-0.020636698
194	0x3e2a8b62	0.16654733
195	0x3d32c72e	0.043646984
196	0x3d8e1e5b	0.069393836
197	0xbaace887	-0.0013191857
198	0xbcc8a515	-0.02449278
199	0xbd847198	-0.06466979
200	0xbd2bf617	-0.041982736
201	0x3d14ac99	0.036297414
202	0xbd0992cc	-0.033587262
203	0xbdc16867	-0.09443741
204	0x3d897284	0.06711295
205	0x3dc57810	0.09642041
206	0xbd67b06a	-0.056564726
207	0xbd49ec1f	-0.04929745
208	0xbd023aa9	-0.031794224
209	0xbd2f7f28	-0.042845875
210	0x3d2ba3df	0.041904327
211	0x3be6b509	0.007040624
212	0x3df086ad	0.11744437
213	0xbb5cbf73	-0.0033683449
214	0xbd955b5b	-0.07292815
215	0x3db60cac	0.08889136
216	0xbd3fc94c	-0.04682283
217	0xbb9425ea	-0.0045211213
218	0xbd6dc294	-0.058046892
219	0x3cb49655	0.02204434
220	0x3d91bab8	0.07115692
221	0x3d75f042	0.06004358
222	0xbd987c96	-0.07445638
223	0x3d9e35cd	0.077251054
224	0x3d2b91b9	0.04188702
225	0xbd729e89	-0.059233222
226	0x3df430df	0.11923384
227	0x3ce86db2	0.02837262
228	0x3d23bf7f	0.039977547
229	0x3d9d4259	0.076786704
230	0x3d542705	0.051795024
231	0xbd2accd7	-0.041699257
232	0xbd105e93	-0.035246443
233	0xbb42ebe5	-0.0029742655
234	0x3d86685a	0.06562872
235	0x3cf0bc58	0.029386684
236	0x3d31914f	0.043351468
237	0x3d585807	0.052818324
238	0xbd2496f9	-0.04018304
239	0xbd494098	-0.049133867
240	0x3dec10e9	0.11526663
241	0x3d12fb4b	0.035884183
242	0x3d1afdd7	0.037839737
243	0xbd6ed8b2	-0.058312126
244	0x3d09e9b5	0.033670146
245	0xbd7a4fea	-0.06111137
246	0xbcc39190	-0.02387312
247	0x3d275bce	0.040859036
248	0xbc5362e3	-0.012901994
249	0xbda1faa5	-0.07909135
250	0xbc87980d	-0.016551996
251	0xbc319b22	-0.010840209
252	0xbc90ab1f	-0.017659722
253	0x3d9a4b8c	0.07533941
254	0x3d4a09ea	0.04932586
255	0x3ce8173d	0.028331393

layers.block_1.layer.0.bias f4 [128]
0	0x3c838be1	0.01605791
1	0x3db92fcc	0.0904232
2	0xbdce555a	-0.10074873
3	0x3d9f0596	0.07764737
4	0xbdd68137	-0.104738645
5	0xbc9cba06	-0.019131672
6	0x3c3f58d1	0.01167889
7	0x3d97f7f7	0.074203424
8	0xbd2234b8	-0.039601058
9	0x3c81e00f	0.01585391
10	0xbd3f9279	-0.046770547
11	0x3d070af9	0.03296945
12	0xbd481c1f	-0.048854943
13	0xbd99a931	-0.07502974
14	0x3d8b55ee	0.06803499
15	0xbd4a47fd	-0.04938506
16	0x3e081c16	0.13291964
17	0x3d60ad97	0.05485305
18	0xba9391ff	-0.001125872
19	0xbdb66d3e	-0.08907555
20	0xbdaf4c22	-0.08559443
21	0xbcb01375	-0.021493653
22	0x3bf6ce02	0.0075318823
23	0x3cd59372	0.026071284
24	0xbd9ebba6	-0.07750635
25	0x3d512644	0.051061884
26	0xbd146446	-0.03622844
27	0xbd82ab9d	-0.06380389
28	0x3da95e16	0.082698986
29	0x3b9ed1da	0.0048467936
30	0xbdb02898	-0.08601493
31	0x3d49a93c	0.04923366
32	0xbdd7ffab	-0.10546812
33	0xbd5b6c63	-0.053570163
34	0x3d1a5fc1	0.037688974
35	0xbc25e4b4	-0.010125328
36	0xbcf2510a	-0.029579658
37	0x3d75bccd	0.059994508
38	0xbd969346	-0.07352309
39	0xbcb38092	-0.021911893
40	0xbc8c67bf	-0.017139314
41	0x3dab3334	0.083593756
42	0x3c352b5c	0.011057701
43	0x3d0a8cba	0.033825614
44	0x3cc9d36c	0.024636947
45	0xbcc89883	-0.024486786
46	0xbbb60c3b	-0.005555657
47	0xbd92b84c	-0.07164058
48	0xbd1a6df4	-0.037702516
49	0x3d3b203f	0.04568505
50	0xbd7f3233	-0.062303733
51	0xbdc354ac	-0.09537634
52	0x3dad857b	0.08472725
53	0x3d16acea	0.036785997
54	0xbcad1d43	-0.021132117
55	0x3d1c5ff7	0.038177457
56	0x3c95e0f8	0.01829575
57	0x3d0f01d3	0.03491385
58	0x3d45e8d9	0.048317764
59	0x3c96db11	0.018415006
60	0xbda6d4fc	-0.08146092
61	0xbd34053d	-0.043950308
62	0x3d3dccd1	0.046337906
63	0x3cbd7632	0.023127649
64	0x3d821527	0.06351691
65	0xbcc60a08	-0.024174705
66	0xbd9af8b5	-0.07566968
67	0x3da92caf	0.08260476
68	0x3d81471e	0.06312393
69	0xbd3fa500	-0.046788216
70	0xbd9e7e0e	-0.07738887
71	0x3cd7a255	0.026322523
72	0x3cb85aac	0.022504173
73	0xbd6da7b1	-0.05802125
74	0x3c8fbdfe	0.01754665
75	0x3dac45f5	0.08411781
76	0x3d5aef03	0.053450596
77	0xbd82af85	-0.06381134
78	0xbd8a660b	-0.067577444
79	0x3da7f513	0.08201041
80	0x3b4cd65a	0.0031255693
81	0xbd06c4eb	-0.03290264
82	0xbcd0f86d	-0.025509084
83	0xbd89d4b6	-0.067300245
84	0xbd17743b	-0.03697608
85	0x3d3e9fd9	0.04653916
86	0x3d76a15e	0.060212485
87	0xbd75ca80	-0.060007572
88	0x3d3a650a	0.045506515
89	0x3dbff402	0.09372713
90	0x3cc4cf9c	0.024024777
91	0x3d29edab	0.041486423
92	0xbd4a1a9c	-0.049341783
93	0x3d7dc2a3	0.0619532
94	0x3db19eb0	0.08672845
95	0x3d853494	0.06504169
96	0x3d2040da	0.039124347
97	0x3da2fb29	0.07958061
98	0xbd6c4f8e	-0.057693057
99	0x3d6d4951	0.057931248
100	0x3d8d3d8e	0.06896506
101	0x3dc46bb3	0.095908545
102	0x3c850775	0.016238907
103	0x3d6b60bd	0.057465304
104	0x3d61333f	0.054980513
105	0xbda15339	-0.078772016
106	0xbd811a97	-0.063039
107	0x3d939983	0.072070144
108	0x393bc04a	0.00017905343
109	0x3d34e17c	0.04416035
110	0xbd875dea	-0.066097096
111	0x3cee6951	0.029102953
112	0x3d01447b	0.03155945
113	0x3c098b7b	0.008395071
114	0x3c809c6b	0.015699586
115	0xbd6a1ba5	-0.05715527
116	0x3c9f264e	0.019427445
117	0xbd2bff86	-0.041991733
118	0xbb8155a7	-0.003946978
119	0x3ccf0091	0.025268825
120	0x3d956c27	0.07296019
121	0xbdae7d45	-0.08519987
122	0xbcccdcda	-0.025007654
123	0x3c8cb670	0.017176837
124	0x3c7a09d6	0.015261134
125	0xbc4849a1	-0.012224586
126	0x3d961f6a	0.073302105
127	0x3d65cbfe	0.056102745

layers.block_2.layer.0.weight f4 [128, 128]
0	0xbde4e15f	-0.111757986
1	0x3da7a6de	0.08186124
2	0x3cd3126a	0.025765616
3	0x3dcd158a	0.10013874
4	0x3df8beae	0.12145744
5	0x3ba363b0	0.004986249
6	0xbda80575	-0.08204166
7	0xbd8bb205	-0.06821064
8	0x3eaa0fce	0.33215183
9	0x3d90a4df	0.07062697
10	0x3de8b0e9	0.11361868
11	0xbd59a962	-0.05314005
12	0xbc0bf49b	-0.008542205
13	0xbea6778f	-0.3251309
14	0xbd58ae55	-0.05290063
15	0x3e094dcc	0.13408583
16	0xbd5b7e45	-0.053587217
17	0xbd3df251	-0.04637367
18	0xbc4a9ceb	-0.012366514
19	0x3d9ec2fc	0.07752034
20	0x3ddd3cb9	0.108025976
21	0x3d3b82f9	0.045779202
22	0xbd51f7e9	-0.051261816
23	0xbd84455e	-0.06458543
24	0x3e01b680	0.12667274
25	0xbdb75978	-0.08952612
26	0xbcd065e3	-0.025439208
27	0x3dc1438c	0.09436712
28	0xbe6b250f	-0.22963355
29	0xbdb353ac	-0.087561935
30	0xbca68715	-0.020328084
31	0xbe6a9419	-0.22908057
32	0x3d71d23b	0.059038382
33	0x3d6b533c	0.057452425
34	0xbd265623	-0.04060949
35	0xbd8eb7ec	-0.06968674
36	0xbd8aa4fb	-0.06769749
37	0xbe1383af	-0.14405702
38	0xbd064b07	-0.032786395
39	0x3e376cc9	0.17912592
40	0x3e0482e7	0.1294056
41	0x3cb66d5d	0.022268945
42	0x3d9a7b2c	0.075430244
43	0x3c87785e	0.016536888
44	0xbd94dc31	-0.07268561
45	0x3dea8b98	0.11452407
46	0xbe34cbe4	-0.17655903
47	0xbcdaaf30	-0.026694864
48	0xbd32c703	-0.043646824
49	0xbe07e172	-0.13269594
50	0xbdfe68c8	-0.12422329
51	0x3d49691a	0.0491725
52	0x3d2bf089	0.04197744
53	0xbcac1fd5	-0.021011272
54	0xbb3e7147	-0.0029059218
55	0xbd25090d	-0.040291835
56	0x3dd1ed60	0.10250354
57	0xbc3a8138	-0.011383347
58	0xbd18d5e4	-0.037313357
59	0xbd02db21	-0.03194726
60	0x3e2d1032	0.1690071
61	0xbcc5a373	-0.02412579
62	0xbe84c3fa	-0.25930768
63	0x3d82e406	0.06391148
64	0xbe07b349	-0.13251986
65	0xbe387dcc	-0.18016738
66	0x3d9148a2	0.07093932
67	0x3d8943ca	0.06702383
68	0xbe3b253c	-0.18275923
69	0xbdcd0274	-0.100102335
70	0x3db6d704	0.0892773
71	0x3cf5ab10	0.029988796
72	0x3cfc061b	0.03076463
73	0xbe58935c	-0.21149963
74	0xbd556241	-0.052095655
75	0xbcbd74c4	-0.023126967
76	0x3d6bce21	0.057569627
77	0xbe1c436f	-0.15260099
78	0xbdb89747	-0.09013229
79	0xbd0d3270	-0.03447193
80	0x3d23fa83	0.04003383
81	0x3dfc07d5	0.12306181
82	0x3d150d59	0.036389682
83	0x3d1230f5	0.03569122
84	0x3e4cba9a	0.19993058
85	0x3e35734f	0.17719768
86	0xbe131eb7	-0.14367186
87	0xbdb8d822	-0.09025599
88	0xbd322996	-0.04349669
89	0xbda696a5	-0.08134202
90	0x3d705cef	0.05868238
91	0x3e237460	0.15962362
92	0xbd85cd60	-0.06533313
93	0xbe186378	-0.14881694
94	0xbc42eae3	-0.011896822
95	0x3d2db460	0.042408347
96	0xbda8d6bc	-0.08244082
97	0xbca56362	-0.020188991
98	0xbe087bda	-0.13328496
99	0x3cf667f3	0.030078864
100	0xbd35c47f	-0.044376846
101	0x3ddacec6	0.1068397
102	0x3da92c10	0.082603574
103	0x3d74dd6a	0.05978147
104	0x3d332617	0.043737497
105	0xbdcaf7e8	-0.099105656
106	0x3e3d4bbb	0.1848592
107	0x3c90d05e	0.017677482
108	0xbe348397	-0.17628323
109	0x3e2a14a7	0.1660944
110	0xbe230604	-0.15920264
111	0xbe2865ee	-0.16445133
112	0xbd600891	-0.05469567
113	0xbc2efc3b	-0.010680254
114	0xbdda898f	-0.106707685
115	0xba45262f	-0.00075206434
116	0xbe281291	-0.16413333
117	0x3ccee405	0.025255213
118	0xbc25a285	-0.010109548
119	0xbe056455	-0.13026555
120	0x3c9f0bab	0.019414743
121	0x3d470776	0.0485911
122	0x3d10b1a4	0.03532566
123	0x3d8d02a9	0.06885273
124	0xbde245bd	-0.11048458
125	0x3e03044a	0.12794605
126	0xbe814f7a	-0.25255948
127	0xbd38efcc	-0.045150563
128	0xbdb3d468	-0.08780748
129	0x3c891a09	0.016736047
130	0xbdb1abf4	-0.086753756
131	0x3e232d62	0.15935281
132	0x3caec8b5	0.021335939
133	0xbb972559	-0.0046126065
134	0x3d325571	0.043538515
135	0x3d9aadf9	0.07552714
136	0x3e17c822	0.14822438
137	0xbcd14123	-0.025543755
138	0x3dcd8ac7	0.10036235
139	0x3d2d2dd2	0.042280026
140	0xbd2e0568	-0.042485625
141	0xbdee6141	-0.116396435
142	0x3da62812	0.081131116
143	0x3d85fe26	0.065426156
144	0xbcf67240	-0.030083776
145	0x3bd41a2d	0.006472847
146	0xbd55739a	-0.0521122
147	0x3ce86284	0.028367288
148	0x3b12546b	0.002232815
149	0x3c7cb3cb	0.015423725
150	0xbd809d08	-0.06279951
151	0xbc32366e	-0.010877235
152	0x3d5037f3	0.050834607
153	0xbd896d0e	-0.06710254
154	0xbda3936c	-0.07987103
155	0x3dbf4de3	0.093410276
156	0x3d068fcc	0.03285198
157	0xbb9ec277	-0.0048449594
158	0xbd818106	-0.063234374
159	0xbde19218	-0.11014193
160	0xbdf30520	-0.11866212
161	0x3c24de06	0.0100627
162	0xbccf8cfd	-0.025335783
163	0xbad2d2d0	-0.0016084556
164	0xbcf93ed2	-0.030425463
165	0xbd7258b8	-0.05916664
166	0xbd747005	-0.059677143
167	0x3dcaf56b	0.09910091
168	0x3dc7f175	0.09762851
169	0x3db3da0f	0.08781826
170	0x3c82dbde	0.015973981
171	0xbc120fce	-0.008914901
172	0xbce9242c	-0.02845963
173	0x3da69aad	0.08134971
174	0xbbd35971	-0.006449871
175	0xbceba3a6	-0.028764557
176	0xbdcd8232	-0.100345984
177	0xbdb4ae0a	-0.08822258
178	0x3c0bb6b6	0.008527448
179	0x3cae65b2	0.021288726
180	0xbd917731	-0.07102812
181	0x3d466d5e	0.048444144
182	0xbcf6ea88	-0.03014113
183	0xbcea783b	-0.028621783
184	0x3d862d09	0.065515585
185	0xbdf78f1d	-0.120878436
186	0xbd2ef733	-0.042716216
187	0xbbfcbd53	-0.007712999
188	0xbd7f4b54	-0.062327698
189	0x3bc43f55	0.005988995
190	0xbdd7e77a	-0.105421975
191	0x3d790fc7	0.060806062
192	0xbdb5bc23	-0.08873775
193	0xbdfa9073	-0.12234583
194	0xbe4e73a6	-0.20161304
195	0xbb3a431c	-0.0028421348
196	0xbd8b70f2	-0.06808652
197	0xbd80aae7	-0.06282597
198	0x3d911dff	0.070857994
199	0x3ce6a5ce	0.028155234
200	0x3e041282	0.12897685
201	0xbbefd790	-0.007319398
202	0xbd995de1	-0.07488609
203	0xbd73dd5c	-0.059537277
204	0x3d1f43b9	0.038882945
205	0xbdd1676d	-0.10224805
206	0xbd45667e	-0.048193447
207	0x3c23290f	0.00995852
208	0x3da87ab1	0.082265265
209	0x3de7dce8	0.113214314
210	0xbdb1ac15	-0.086754
211	0x3db1bf02	0.0867901
212	0x3c8529d1	0.016255291
213	0x3d8e82d1	0.06958545
214	0xbd0e3829	-0.034721527
215	0xbc36d4b6	-0.011159113
216	0x3d9d74e4	0.07688311
217	0xbae53692	-0.0017487577
218	0x3d96b0d7	0.07357948
219	0x3b16a71f	0.0022987796
220	0xbca5323e	-0.020165559
221	0xbb0bcc29	-0.0021331406
222	0xbb23273f	-0.0024895219
223	0xbd963012	-0.073333874
224	0xbdc48365	-0.09595374
225	0x3de7f1e6	0.11325435
226	0xbbd86809	-0.006604199
227	0x3e0f0d6d	0.13969965
228	0xbddde11a	-0.1083395
229	0xbd8a4b31	-0.06752623
230	0xbd973518	-0.07383174
231	0xbd916da8	-0.071009934
232	0x3da3aedf	0.079923384
233	0xbcdcf70d	-0.026973272
234	0x3b75091c	0.0037389463
235	0xbda576ae	-0.08079277
236	0x3ccba130	0.024857134
237	0xbcc30b96	-0.023809236
238	0x3c870e4a	0.016486306
239	0xbda167eb	-0.07881149
240	0xbe45479c	-0.19265598
241	0x3d5d518b	0.054032844
242	0xbd937330	-0.07199705
243	0xbd25b0dd	-0.040451873
244	0x3ceacce5	0.028662154
245	0xbd68d158	-0.05684027
246	0x3defcedf	0.117093794
247	0xbd79787c	-0.06090592
248	0xbe054a58	-0.13016641
249	0x3d0b1dec	0.033964083
250	0x3e10d600	0.14144135
251	0x3d6ee027	0.058319237
252	0xbc900d0b	-0.017584344
253	0xbd28bf69	-0.041198168
254	0x3df8701e	0.1213076
255	0x3cf5a03f	0.029983638

layers.block_2.layer.0.bias f4 [128]
0	0xbcf7bb37	-0.030240638
1	0x3bbadb1d	0.00570239
2	0x3da75e10	0.08172238
3	0x3d069edb	0.03286634
4	0x3d114a81	0.035471443
5	0x3c1f9a20	0.009741336
6	0xbd5a520b	-0.0533009
7	0xbd9120ec	-0.070863575
8	0x3d7351dc	0.05940424
9	0x3d91288c	0.07087812
10	0x3cc5d4db	0.024149349
11	0x3cd2e578	0.025744185
12	0x3d266988	0.040627986
13	0x3c5a8f7b	0.0133398725
14	0x3cdeec19	0.02721219
15	0xbc3cbb4f	-0.011519267
16	0x3cb3555f	0.021891294
17	0x3b212b45	0.002459244
18	0x3d6862cf	0.056734856
19	0x3b58c1d1	0.0033074508
20	0xbd948b33	-0.07253113
21	0xbd55bea1	-0.05218375
22	0xbc799290	-0.015232697
23	0xbd34bc1c	-0.044124708
24	0x3d0dfd0f	0.034665164
25	0xbbf811c3	-0.0075704767
26	0xbd47fc7f	-0.048824783
27	0x3dd43787	0.103621535
28	0xbd5e55f5	-0.054281194
29	0xbce4438a	-0.027864236
30	0x3d65bd68	0.056088835
31	0xbd7edf42	-0.062224634
32	0xbdec0051	-0.11523498
33	0x3dcfc9fe	0.10145949
34	0x3d4f8dc1	0.050672296
35	0xbd1fb4ad	-0.038990665
36	0x3bc5cda3	0.0060364767
37	0xbdafa39c	-0.08576128
38	0x3ceb8005	0.028747568
39	0x3d41c5ad	0.04730766
40	0x3d614c73	0.05500455
41	0x3b019289	0.001977118
42	0x3d987421	0.07444025
43	0x3ca8024f	0.020508913
44	0xbd5bdfcf	-0.053680237
45	0xbdaf6782	-0.085646644
46	0xba4a57ce	-0.00077187724
47	0x3d24fda0	0.04028094
48	0xbb232334	-0.002489281
49	0xbc8b5e9e	-0.01701289
50	0xbbd3fa44	-0.006469043
51	0x3c3daec1	0.011577309
52	0x3cfed580	0.031107664
53	0xbdb75eb2	-0.089536086
54	0x3c922790	0.01784113
55	0x3d73f3a4	0.059558526
56	0x3cd9b242	0.026574258
57	0xbd95adb0	-0.07308519
58	0x3d6755fa	0.056478478
59	0xbda88a89	-0.082295485
60	0x3d5b6f0d	0.053572703
61	0xbcfc4fe4	-0.030799814
62	0xbd41784c	-0.047233865
63	0x3daf70a0	0.085664034
64	0x3d4bcee5	0.049757857
65	0xbd388d78	-0.04505679
66	0xbd372ae8	-0.044718653
67	0xbd91c4c7	-0.071176104
68	0xbd84e704	-0.06489375
69	0x3d8e5aee	0.06950937
70	0x3b316a4a	0.002707141
71	0xbd9b6e99	-0.07589454
72	0x3d4db3f1	0.050220434
73	0xbb81ab22	-0.003957168
74	0x3d1d9abf	0.038477656
75	0x3d278c94	0.04090555
76	0xbc6c6a0c	-0.01442958
77	0xbd918fb4	-0.07107487
78	0x3d6edf81	0.05831862
79	0xbd95d35f	-0.073157065
80	0xbdc64ef1	-0.09683026
81	0xbda73260	-0.08163905
82	0xbd5065b9	-0.05087826
83	0x3cc46cee	0.023977723
84	0xbc635230	-0.0138745755
85	0x3ca3a160	0.01997441
86	0xbd10cb90	-0.035350382
87	0x3d9cd47b	0.07657715
88	0x3d4f2475	0.050571878
89	0x3d81125e	0.063023314
90	0xbd5081ba	-0.050904967
91	0xbda79181	-0.081820495
92	0xbd41d10f	-0.047318514
93	0x3d9195d7	0.07108658
94	0x3d1a41cc	0.037660405
95	0xbb79e3d6	-0.0038130186
96	0x3dea1ef7	0.11431687
97	0xbd245340	-0.040118456
98	0xbcf2a5c6	-0.029620063
99	0x3d46a3dd	0.048496116
100	0xbd63b7d5	-0.055595238
101	0x3d2da816	0.042396627
102	0x3d6a986d	0.05727427
103	0xbc823097	-0.01589231
104	0xbd32d184	-0.04365684
105	0x3ba32278	0.004978474
106	0xbd24860b	-0.040166896
107	0x3da91deb	0.082576595
108	0x3d64e666	0.055883788
109	0xbc718e44	-0.014743391
110	0xbcbdfb96	-0.023191255
111	0xb7be1591	-2.2659808e-05
112	0xbd4d92b5	-0.05018874
113	0x3cf71ba9	0.030164557
114	0xbd0e9418	-0.034809202
115	0xbda46b3e	-0.08028267
116	0xbde8e36c	-0.11371502
117	0x3d9b01e9	0.07568724
118	0xbce6130d	-0.028085256
119	0x3d8cfc4d	0.0688406
120	0x3d2bc2e7	0.04193392
121	0xbd400924	-0.046883717
122	0x3d9f810b	0.07788285
123	0xbd801f43	-0.06255963
124	0xbbb211d0	-0.0054342523
125	0x3d4a8683	0.049444687
126	0xbc5f95db	-0.013646568
127	0x3d6804dc	0.05664526

layers.block_3.layer.0.weight f4 [128, 128]
0	0x3df5b574	0.119975
1	0x3e9d9441	0.3077717
2	0xbd978b10	-0.07399571
3	0x3e1600f8	0.14648807
4	0x3ca7590d	0.020428205
5	0xbd7979bf	-0.06090712
6	0x3cbb1d7c	0.022841208
7	0xbdb4032c	-0.087896675
8	0x3d111354	0.035418823
9	0xbe0eaa22	-0.13932088
10	0x3c1aeee1	0.009456367
11	0xbd976bca	-0.07393606
12	0x3e2592e8	0.16169322
13	0x3d9758c2	0.07389976
14	0xbd5590d2	-0.052140065
15	0xbd96200e	-0.07330333
16	0xbd3ee9c6	-0.046609662
17	0x3d678aad	0.056528736
18	0xbd4dee02	-0.05027581
19	0xbd0bb301	-0.03410626
20	0x3cb79522	0.02240998
21	0x3d493f52	0.049132653
22	0x3b8c082a	0.004273434
23	0xbd71d625	-0.059042115
24	0x3d486b3e	0.0489304
25	0x3e03ddbe	0.12877557
26	0x3da9a02b	0.08282503
27	0x3c0509cf	0.008120014
28	0x3e0324ab	0.12806956
29	0x3d1d7209	0.03843883
30	0x3ba92498	0.005161833
31	0x3d2ea360	0.042636275
32	0xbe2358be	-0.15951821
33	0x3dddc0d8	0.10827798
34	0xbc99f0e5	-0.018791625
35	0xbdbc4185	-0.09192184
36	0xbe05e232	-0.13074568
37	0xbcfa0f55	-0.030524889
38	0xbd05a8d1	-0.0326317
39	0xbe73dc13	-0.2381442
40	0xbd5cf22b	-0.053941887
41	0x3a9bea1a	0.0011895329
42	0xbdb529d7	-0.08845871
43	0x3e06c322	0.13160375
44	0x3cc85950	0.02445665
45	0x3da83b47	0.08214431
46	0xbd82128f	-0.06351196
47	0xbd26ca0c	-0.04072003
48	0x3d6b0a4a	0.05738286
49	0x3c50ebe2	0.012751551
50	0x3e18c368	0.14918292
51	0x3db0b0bf	0.08627462
52	0xbdaa3232	-0.08310355
53	0xbdf07fb4	-0.117431074
54	0xbd346e49	-0.04405049
55	0x3c8c803b	0.017150989
56	0x3ba6cfa4	0.0050906707
57	0x3d74220c	0.059602782
58	0xbcbd8faf	-0.023139803
59	0x3d184b7e	0.03718137
60	0x3d184ce9	0.037182722
61	0x3cbe9eab	0.023269018
62	0x3bb8345d	0.0056214766
63	0x3cbe90fa	0.02326249
64	0xbdd0c6f7	-0.101941995
65	0x3e195f96	0.1497787
66	0xbe110408	-0.14161694
67	0x3a221f6c	0.0006184492
68	0xbc18018c	-0.009277713
69	0xbe360daa	-0.1777865
70	0x3d14e91f	0.036355134
71	0xbcf5c670	-0.030001849
72	0xbd89b978	-0.067248285
73	0x3dd7f06d	0.105439045
74	0x3bdf5070	0.006815009
75	0xbd1fa35d	-0.038974155
76	0xbc2f268d	-0.010690344
77	0x3e07c9b8	0.13260543
78	0xbd029ba5	-0.031886715
79	0xbd34e594	-0.044164255
80	0xbb7df669	-0.0038751608
81	0xbd8901e0	-0.06689811
82	0x3ddfb09c	0.109223574
83	0x3df2e8be	0.11860798
84	0x3e07cdc9	0.13262095
85	0x3d2ec6bb	0.042669993
86	0xbd968be5	-0.073509015
87	0x3da7d4e6	0.08194904
88	0xbd40cbf4	-0.047069505
89	0xbc9362b4	-0.017991401
90	0xbd0591cf	-0.032609757
91	0xbc74b9ab	-0.014936845
92	0xbd95ed8b	-0.07320698
93	0x3cfd2062	0.03089923
94	0x3d38fbd8	0.045162052
95	0xbcf4aba5	-0.029867003
96	0x3db5ca83	0.08876517
97	0x3cd7f30e	0.026361015
98	0x3e435751	0.19076277
99	0x3d034118	0.0320445
100	0xbbcfca27	-0.006341237
101	0x3d4cdc21	0.05001462
102	0xbd5a671f	-0.053321
103	0x3dbf358f	0.09336387
104	0xbb8eb664	-0.0043552388
105	0x3de27e6f	0.110592715
106	0x3d98c5b0	0.07459581
107	0xbd6867a2	-0.056739457
108	0x3d4c4e4c	0.049879357
109	0xbdac6aae	-0.08418785
110	0x3ce7d8cc	0.028301619
111	0xbd7c7887	-0.06163838
112	0x3d203f13	0.039122652
113	0x3d8d3b17	0.06896036
114	0x3e493a8b	0.19651239
115	0xbe95be41	-0.29246715
116	0xbe110a04	-0.14163977
117	0x3d88cf8c	0.066802114
118	0x3cf011e5	0.029305408
119	0x3c3f9c95	0.011695047
120	0xbbc114c7	-0.0058923694
121	0xbdac5389	-0.084143706
122	0xbc94dce2	-0.018171731
123	0xbe466896	-0.19375834
124	0x3dc4edd0	0.09615672
125	0x3e1ffd04	0.15623862
126	0xbe37fd90	-0.1796782
127	0x3d9bc2b7	0.07605498
128	0xbdb7c0c5	-0.08972315
129	0x3c05d6f8	0.008168928
130	0x3d6b455a	0.057439186
131	0xbd6aa6c5	-0.05728795
132	0x3c7ea3a7	0.015541947
133	0x3dddabe7	0.108238034
134	0xbd2a77b3	-0.04161806
135	0x3e14bd8a	0.14525428
136	0x3d767a80	0.06017542
137	0xbda48b7b	-0.08034416
138	0xbda485de	-0.08033346
139	0xbc6f4bb0	-0.014605448
140	0x3d9852c1	0.07437659
141	0x3dc2c144	0.09509519
142	0x3d072598	0.032994837
143	0xbc1410fb	-0.009037252
144	0x3cd2c2b9	0.025727617
145	0xbde45937	-0.11149829
146	0x3ce69578	0.028147444
147	0xbd0f687e	-0.03501176
148	0xbd7e50d9	-0.06208882
149	0x3bfe765a	0.0077655734
150	0xbdb4366a	-0.08799441
151	0xbaf9eb2e	-0.0019067281
152	0x3d04ee32	0.032453723
153	0x3b2bb736	0.0026201732
154	0x3d693f90	0.056945384
155	0xbc95dc64	-0.018293567
156	0xbd065abc	-0.032801375
157	0x3b638cfa	0.003472148
158	0xbcd2a7ff	-0.025714872
159	0x3cc55d5a	0.024092365
160	0xbd04ddb9	-0.032438014
161	0xbd92e92b	-0.071733795
162	0xbda0c11f	-0.07849335
163	0x3d898a14	0.067157894
164	0xbd3a26b0	-0.04544705
165	0xbd980731	-0.07423247
166	0xbd955fff	-0.072937004
167	0x3e030934	0.1279648
168	0xbe1c902b	-0.1528937
169	0xbd696afa	-0.056986786
170	0x3dd9bb14	0.106313854
171	0x3cf9a1d3	0.030472672
172	0x3c5df628	0.013547458
173	0xbdcd70e4	-0.10031298
174	0x3d7eddfa	0.062223412
175	0x3da5a519	0.080881305
176	0x3d506596	0.05087813
177	0xbb06e04a	-0.0020580464
178	0x3cbea31e	0.02327114
179	0x3d62d723	0.05538095
180	0xbd89a8cb	-0.06721648
181	0x3e1bd5f9	0.15218343
182	0xbe1dc8bf	-0.1540861
183	0x3d0c6026	0.03427138
184	0xbca167f9	-0.019702898
185	0xbd806322	-0.06268908
186	0xbd512818	-0.051063627
187	0x3db52a20	0.08845925
188	0x3d710d45	0.058850545
189	0xbde82306	-0.11334805
190	0x3b98370f	0.0046452354
191	0x3c9cf342	0.019158963
192	0x3ce3b070	0.027794093
193	0x3d100f2e	0.035170726
194	0x3d8f9d03	0.070123695
195	0xbd06afcd	-0.0328825
196	0x3dd32681	0.103100784
197	0x3e1fd925	0.15610178
198	0xbca0b4b1	-0.01961741
199	0x3d556f77	0.052108254
200	0x3d493743	0.049124967
201	0x3c9a1b5e	0.018811878
202	0x3cf6eebd	0.030143136
203	0xbc229e09	-0.009925374
204	0xbdbdb7b6	-0.09263556
205	0x3da191e4	0.078891546
206	0xbcc308d6	-0.023807924
207	0xbd8c2328	-0.06842643
208	0xbc77dbf7	-0.015128127
209	0x3d4b6c58	0.04966387
210	0x3e0e0b58	0.13871515
211	0x3d484af8	0.04889962
212	0x3d6d867e	0.05798959
213	0x3c81ae18	0.015830085
214	0xbd3647a2	-0.044501908
215	0xbda5589c	-0.080735415
216	0xbc893c4d	-0.016752386
217	0x3d8e4923	0.069475435
218	0xbae0d34e	-0.0017152817
219	0x3c5b2b65	0.013377045
220	0x3dd657b9	0.104659505
221	0xbd764cb0	-0.06013173
222	0xba2a0fa5	-0.00064873166
223	0x3ca59dd6	0.020216864
224	0x3b9cbceb	0.004783263
225	0xbddff9b5	-0.109363
226	0xbe0ce091	-0.1375754
227	0x3dbe1a92	0.09282412
228	0xbd6d8df0	-0.05799669
229	0x3baa85d6	0.005203943
230	0xbd71cbab	-0.059032124
231	0xbe126620	-0.1429677
232	0x3d3ab886	0.04558613
233	0x3d4347ac	0.047675774
234	0x3cbf01cd	0.023316288
235	0x3d121146	0.035661004
236	0x3d8aa0c3	0.06768944
237	0x3d9b5da2	0.075862184
238	0x3baa361f	0.00519444
239	0x3c8e240d	0.017351175
240	0xbdce70cd	-0.10080109
241	0xbc8aeef4	-0.016959645
242	0x3bb5f1b4	0.005552495
243	0xbdc50c25	-0.09621457
244	0xbd670fa3	-0.056411397
245	0x3c8140d9	0.015777992
246	0x3d96033c	0.07324836
247	0x3d04c256	0.032411896
248	0xbcb9a83c	-0.022663228
249	0x3d3d5ba8	0.04622999
250	0xbd704eef	-0.058669027
251	0x3db93de9	0.090450116
252	0x3d15f9c2	0.03661514
253	0xbe167d6f	-0.14696287
254	0xbdef183c	-0.11674544
255	0xbe244bb9	-0.16044511

layers.block_3.layer.0.bias f4 [128]
0	0x3ca071aa	0.01958545
1	0x3d1e342a	0.038623966
2	0xbcca05e3	-0.02466101
3	0xbd4b34aa	-0.04961077
4	0xbd288341	-0.0411408
5	0x3bc62b82	0.006047667
6	0x3d97fc40	0.0742116
7	0xbca37dcd	-0.019957447
8	0x3db330de	0.08749555
9	0x3a558999	0.0008145809
10	0xbc775ba1	-0.01509753
11	0x3d3c8c8d	0.046032477
12	0xbcffda1b	-0.03123193
13	0x3d64cb11	0.05585772
14	0xbd6d8436	-0.057987414
15	0xbd444115	-0.04791363
16	0xbd6ad201	-0.05732918
17	0xbd1b619f	-0.037934896
18	0x3c847e93	0.016173637
19	0xbcecb730	-0.028895944
20	0xbdb9af88	-0.09066683
21	0xbcf4c585	-0.02987934
22	0x3d71c15e	0.0590223
23	0xbd5d9b89	-0.054103408
24	0x3baf4d7f	0.0053498144
25	0xbdac88af	-0.08424508
26	0xbd91b6e3	-0.07114961
27	0xbd9d8f17	-0.07693308
28	0xbcf1e0c2	-0.029526118
29	0xbd3adf9c	-0.045623407
30	0xbc28af8c	-0.01029576
31	0x3d5bc1e5	0.05365171
32	0x3c8b26c2	0.016986255
33	0xbd3901cb	-0.045167726
34	0xbd4337cd	-0.047660638
35	0x3c9722c2	0.018449191
36	0x3dd1703a	0.10226484
37	0x3b249bb1	0.0025117213
38	0xbcb4bc21	-0.022062363
39	0xbd50aacd	-0.05094414
40	0x3d582e46	0.052778505
41	0x3d8c9dfb	0.0686607
42	0xbd0784e9	-0.033085737
43	0x3da3a3e8	0.07990247
44	0xbcebf3f9	-0.028802859
45	0xbd02f195	-0.03196867
46	0xbcdf7589	-0.027277725
47	0x3cd0e7f5	0.02550123
48	0x3d0e84d7	0.034794655
49	0xbc4b4d37	-0.012408546
50	0xbc136806	-0.008996969
51	0xbcda52c6	-0.026650798
52	0xbcfdd6d7	-0.030986233
53	0x3cee1d1e	0.029066619
54	0xbc01a0b5	-0.007911851
55	0xbd4208e8	-0.047371775
56	0x3c63ba01	0.013899327
57	0x3d8c430f	0.06848728
58	0x3be60254	0.0070193205
59	0x3cf2c80b	0.029636404
60	0xbd2d0ab9	-0.042246554
61	0xbd6fd059	-0.058548305
62	0x3dbe7f51	0.093016274
63	0x3c912eab	0.017722448
64	0x3da86c40	0.08223772
65	0xbd9f6cc6	-0.07784419
66	0x3cb49358	0.022042915
67	0xbd1804d3	-0.037113976
68	0x3d622a8e	0.055216365
69	0xbd8afbc3	-0.06786301
70	0x3d870f66	0.06594734
71	0xbc2a58c3	-0.010397139
72	0xbd6d2f6a	-0.057906546
73	0x3ce9d7a0	0.0285452
74	0x3d936197	0.07196348
75	0xbd4648f4	-0.048409417
76	0xbc1fa21a	-0.009743238
77	0x3dbfd05e	0.09365915
78	0xbc90cfbe	-0.017677184
79	0x3da3b348	0.079931796
80	0xbcd9e0cf	-0.026596455
81	0x3d4e0ef9	0.050307248
82	0xbd626634	-0.05527325
83	0xbbf7b834	-0.0075598005
84	0x3d3248e8	0.04352656
85	0x3acb6a1b	0.0015519293
86	0x3c22625c	0.009911146
87	0x3d36a69c	0.044592485
88	0xbd93ec09	-0.072227545
89	0x3d66dc3c	0.056362376
90	0xbd3d14b9	-0.04616234
91	0xbd2d2788	-0.042274028
92	0x3d11665c	0.035498008
93	0xbdada5a5	-0.0847886
94	0xbd464d7d	-0.048413742
95	0xbca70e79	-0.020392643
96	0x3c43ef56	0.011958918
97	0x3d870f40	0.065947056
98	0x3d883ea0	0.0665257
99	0x3d8757b4	0.06608525
100	0x3cd28ee3	0.0257029
101	0xbd24fdc2	-0.040281065
102	0xbd130f3b	-0.035903197
103	0x3d74a5a0	0.059728265
104	0xbcebe813	-0.028797185
105	0x3d9eb5d5	0.077495255
106	0xbd57ac86	-0.052654766
107	0xbd9c8cda	-0.07644053
108	0xbd720754	-0.05908902
109	0xbdf4258c	-0.11921224
110	0xbd7d87e3	-0.06189717
111	0x3d0b4aa7	0.03400674
112	0xbdd34d41	-0.103174694
113	0xbd280514	-0.041020468
114	0xbcde81c5	-0.027161488
115	0x3d15d908	0.03658393
116	0xbcaee663	-0.021350091
117	0x3d506250	0.050875008
118	0xbc94b7ba	-0.018154014
119	0x3d144988	0.036202937
120	0xbd3a2c02	-0.045452125
121	0x3d41a8e7	0.04728022
122	0x3db6082c	0.088882774
123	0xbcc1c211	-0.023652108
124	0xbd2e5ee0	-0.04257095
125	0x3d4385e5	0.047735114
126	0x3d562d1e	0.05228912
127	0x3bd01cac	0.006351074

layers.output.weight f4 [2, 128]
0	0xbcd3c63f	-0.025851367
1	0x3dc7b419	0.09751148
2	0x3e7a40fe	0.24438855
3	0x3db47042	0.08810474
4	0x3d34486b	0.044014376
5	0x3d63c64d	0.055609036
6	0xbecd9734	-0.4015442
7	0xbe2d553e	-0.16927049
8	0x3e91fcaf	0.28513095
9	0xbdbd0116	-0.09228723
10	0x3e6ce6dc	0.23134941
11	0x3e0ad810	0.13558984
12	0xbeb59aca	-0.35469657
13	0xbe0dff12	-0.13866833
14	0x3f52f6b7	0.82407707
15	0x3d02cd90	0.03193432
16	0x3edc8aca	0.43074638
17	0x3f5b7216	0.85720956
18	0x3f02ddc8	0.5111966
19	0xbe08659a	-0.13320008
20	0x3e006e2f	0.12542032
21	0xbd170270	-0.03686756
22	0xbd8be3fc	-0.06830594
23	0x3d4c25c3	0.0498407
24	0x3eb17b24	0.3466426
25	0x3e047d14	0.12938339
26	0x3ec2825f	0.3799009
27	0x3d9fc04d	0.0780035
28	0xbd0c68f8	-0.034279794
29	0x3d5ad4aa	0.05342547
30	0xbf2df6c5	-0.67954665
31	0xbd722ec0	-0.059126616
32	0xbe37c27b	-0.17945282
33	0x3d811629	0.06303055
34	0x3d543899	0.05181179
35	0xbdd62bec	-0.10457596
36	0xbf220924	-0.632952
37	0xbe2572da	-0.16157094
38	0xbdd02bf5	-0.10164634
39	0xbec38365	-0.38186184
40	0x3d940a91	0.07228578
41	0xbda57b88	-0.08080202
42	0x3d2a6ae4	0.041605845
43	0x3dbe59d2	0.092944756
44	0x3e5d9567	0.21639024
45	0x3e494a2f	0.19657205
46	0xbd7ae1d0	-0.061250508
47	0x3f0e4dfd	0.5558775
48	0x3e4312d8	0.19050157
49	0xbdeada91	-0.114674695
50	0xbf246db8	-0.6422992
51	0xbd156ea7	-0.03648248
52	0x3ed74dd1	0.42051557
53	0xbe010be1	-0.12602188
54	0xbe37a7bd	-0.17935081
55	0xbd5b5d9f	-0.05355608
56	0xbe3594a6	-0.17732486
57	0x3e153f3d	0.14574905
58	0x3d464314	0.048403814
59	0xbd8e4a5b	-0.06947776
60	0xbd3cacee	-0.046063356
61	0x3e78dd9e	0.2430329
62	0x3daaaca9	0.083337136
63	0xbe4207a1	-0.18948223
64	0xbcd4058b	-0.02588155
65	0xbdfce694	-0.12348667
66	0x3e86808b	0.26269946
67	0xbdad8bfd	-0.08473966
68	0xbf3c3d71	-0.7353125
69	0x3f37d36a	0.7180697
70	0x3c7233d6	0.014782866
71	0x3f074e45	0.52853805
72	0xbe818a46	-0.25300807
73	0xbe755d2c	-0.23961323
74	0x3eee7831	0.46576074
75	0xbd8851ce	-0.06656228
76	0x3f80c257	1.0059308
77	0x3e1a920a	0.15094772
78	0xbd9948d7	-0.07484596
79	0x3ce53950	0.02798143
80	0xbda7a832	-0.081863776
81	0xbf2fef49	-0.68724495
82	0xbe589cde	-0.2115359
83	0xbe21566f	-0.15755628
84	0x3eda6d7c	0.42661655
85	0xbc53bf42	-0.012924017
86	0xbe3655a2	-0.17806104
87	0x3e0588c6	0.13040456
88	0xbd9b8789	-0.07594211
89	0x3da08d70	0.07839477
90	0x3e22a51a	0.15883294
91	0x3dc4fd4a	0.096186236
92	0x3d4ed47a	0.050495602
93	0x3cc52b85	0.024068603
94	0xbe40e0a4	-0.18835694
95	0x3c9a320d	0.018822694
96	0xbda6f66c	-0.0815247
97	0x3e84c71e	0.25933164
98	0xbf2097bb	-0.6273152
99	0x3db8936d	0.09012494
100	0xbe7dd4d5	-0.2478822
101	0x3d978649	0.0739866
102	0x3f0a25bd	0.53963834
103	0x3d9c2c98	0.07625693
104	0xbe576e60	-0.21038198
105	0xbe3cbf6c	-0.18432397
106	0x3e0a1514	0.13484603
107	0xbf2815a8	-0.65658045
108	0xbf2f2087	-0.6840901
109	0x3e96eaf4	0.2947613
110	0xbf238f1b	-0.63890237
111	0xbdafa68b	-0.085766874
112	0xbd934e2c	-0.071926445
113	0xbe2ed186	-0.17072114
114	0x3d330315	0.04370411
115	0x3f381a33	0.71914977
116	0xbe03a953	-0.12857561
117	0x3efbe46b	0.49197707
118	0x3eb3cc28	0.35116696
119	0x3d18181d	0.03713237
120	0x3e11fbe8	0.14256251
121	0xbf0bae4b	-0.54562825
122	0xbf197ccb	-0.59956044
123	0x3e296d81	0.16545679
124	0x3e8af1fa	0.27137738
125	0xbdd53a9e	-0.10411571
126	0xbc931b4b	-0.01795735
127	0xbdc12fd5	-0.09432951
128	0x3dc8db1b	0.09807416
129	0x3e153b68	0.14573443
130	0x3e593c53	0.21214418
131	0x3d38dcd7	0.045132484
132	0x3e5c1da5	0.21495683
133	0xbee6cd3f	-0.45078465
134	0x3da0b551	0.07847083
135	0x3e8dc3b8	0.27688384
136	0x3e0a2fe1	0.13494827
137	0x3e3b6823	0.18301444
138	0xbe1a1cd1	-0.15050055
139	0x3e1b79f7	0.15183245
140	0x3e6ecf97	0.23321377
141	0x3ea90413	0.3301092
142	0xbd93f565	-0.0722454
143	0xbeabc9e8	-0.3355248
144	0xbe990985	-0.29890075
145	0xbe92cb21	-0.286706
146	0xbf39e4d8	-0.7261481
147	0xbe7fbf49	-0.24975313
148	0x3e3c98cb	0.18417661
149	0xbddc7e36	-0.1076626
150	0xbd0fbc6e	-0.03509181
151	0xbe3cc996	-0.18436274
152	0x3d1efea3	0.03881706
153	0x3e47f378	0.1952647
154	0xbf27207a	-0.6528393
155	0xbec27939	-0.3798311
156	0x3ec51e8c	0.38499868
157	0xbee49be1	-0.44650176
158	0x3e82c122	0.25537974
159	0xbe11c2e5	-0.14234503
160	0x3eadd474	0.3395115
161	0x3e69df82	0.22839168
162	0xbc89e7b6	-0.016834121
163	0xbe83bb95	-0.2572905
164	0x3e5f3fcf	0.21801685
165	0x3d574de2	0.05256451
166	0xbe172f6b	-0.14764182
167	0x3ee07dc5	0.43845955
168	0xbe917919	-0.28412703
169	0xbdfad961	-0.12248493
170	0x3e025af1	0.12730004
171	0x3dd3e6e7	0.103467755
172	0x3e7fd1f5	0.24982436
173	0x3d90f93b	0.07078787
174	0xbe13cfcb	-0.14434735
175	0x3da3f432	0.08005561
176	0xbe77633c	-0.24158949
177	0xbe484c67	-0.19560395
178	0x3f55a348	0.8345227
179	0xbe5fd222	-0.21857503
180	0xbdde56ea	-0.10856421
181	0x3ef1e680	0.4724617
182	0xbe1fd3de	-0.15608165
183	0x3e27275f	0.16323613
184	0x3f09f5b0	0.53890514
185	0x3e3908de	0.18069789
186	0x3e52d888	0.20590413
187	0x3e7857e8	0.24252284
188	0x3c71c35f	0.014756053
189	0x3da35f2e	0.079771385
190	0x3e27fa53	0.16404085
191	0xbe4793ac	-0.19489926
192	0x3dadbd35	0.08483354
193	0x3dda7477	0.10666745
194	0xbe6dce6b	-0.23223273
195	0xbda0136e	-0.07816206
196	0x3d3e202d	0.046417404
197	0xbdca2fc6	-0.09872393
198	0xbdb875d8	-0.09006852
199	0x3d97dfd3	0.07415738
200	0x3df91f9a	0.12164231
201	0x3f2da266	0.67825925
202	0xbdb18b99	-0.08669204
203	0x3e89a9b8	0.26887298
204	0xbe30b224	-0.17255455
205	0x3e56d5e1	0.20980026
206	0xbe134697	-0.14382397
207	0x3db1fd2f	0.08690869
208	0x3e7d03b6	0.24708447
209	0x3e4e3199	0.20136108
210	0xbe2a6837	-0.16641317
211	0xbd529b4e	-0.05141764
212	0x3dc0cc5d	0.09413979
213	0x3d0e600e	0.034759574
214	0x3e1d7bd5	0.1537927
215	0xbd60e8c0	-0.054909468
216	0xbe1c5bb2	-0.15269354
217	0xbeaa8170	-0.33301878
218	0x3eb74092	0.3579145
219	0xbe8e5942	-0.27802473
220	0xbe98cfb2	-0.2984596
221	0xbe731d48	-0.23741639
222	0x3dc30880	0.095231056
223	0xbeb0cc33	-0.34530792
224	0x3eaf0977	0.3418691
225	0xbeab02ce	-0.33400577
226	0xbe03d918	-0.12875783
227	0xba9f02cf	-0.0012131574
228	0x3eeff298	0.46864772
229	0x3be6da08	0.0070450343
230	0xbf23387a	-0.6375805
231	0xbd4094bb	-0.04701684
232	0x3ec4653a	0.3835848
233	0x3f218c84	0.63105035
234	0x3e11cb33	0.1423767
235	0x3f147977	0.5799784
236	0x3e9dac42	0.30795485
237	0xbe725506	-0.23665246
238	0xbe57be97	-0.21068798
239	0xbc5d33b3	-0.013501096
240	0x3dc14620	0.094372034
241	0xbdade92f	-0.08491742
242	0x3e2cc11b	0.16870539
243	0xbf217fb9	-0.63085514
244	0x3eb9464f	0.36186454
245	0x3e4236b4	0.1896618
246	0xbef4b33d	-0.47792998
247	0xbd53bf73	-0.051696252
248	0xbf062d48	-0.52412844
249	0x3edbc99e	0.4292726
250	0x3e619de2	0.22032884
251	0xbe33c9d0	-0.17557454
252	0xbd9adad1	-0.07561267
253	0xbe1dc757	-0.15408073
254	0xbabeabed	-0.0014547087
255	0xbe8e7123	-0.2782069

layers.output.bias f4 [2]
0	0x3e180231	0.14844586
1	0xbd6a33a9	-0.057178173
