results/SMOTE5K/smote25/smote0.35/model.pth (torch, 205093 bytes, 10 tensors)

layers.block_0.layer.0.weight f4 [128, 2]
000000 30 e0 60 3e 9c 9e f7 be 60 8f 6f bf ef 56 13 bd
       0.2196052 -0.48363197 -0.9357815 -0.03597158
000010 b4 f4 69 bf 62 c6 d6 3e 66 d0 58 3f 69 66 27 3f
       -0.9138901 0.4194823 0.8469299 0.6539064
000020 dd d2 b6 3e ae de bf 3e 0b 0a 7c bf 16 f9 a1 be
       0.3570775 0.3747458 -0.98452824 -0.3163535
000030 9b 90 50 3f ec 33 07 bf 7d b5 41 bf 85 12 c2 be
       0.8147065 -0.528136 -0.75667554 -0.37904754
000040 91 1d a7 3f 27 1c 7d 3e 15 b3 cd be dd 9f 92 3e
       1.3055898 0.2471777 -0.4017569 0.2863759
000050 83 ad 8b bf db ea c4 bd f5 32 4f bf 3e 0e a0 3e
       -1.0912327 -0.096151076 -0.8093713 0.31260866
000060 31 9b a4 bd 1a 03 75 bd 2b 8b 6c bf a5 18 2f be
       -0.08037413 -0.05981741 -0.92399853 -0.17099245
000070 5f 42 8f bf e3 5a e4 be 9f e0 7d 3f 51 f4 2e 3e
       -1.119213 -0.4460059 0.9917087 0.17085387
000080 3a de 39 3f e6 2d 82 bd c3 f2 33 3f bd c3 b0 bd
       0.72604716 -0.06356411 0.702923 -0.08631084
000090 b1 e1 3d bb 1b 50 04 bf 85 bd a2 3f cd 6d 1b bc
       -0.0028973634 -0.5168473 1.2714087 -0.009486628
0000a0 81 6d a0 3e b3 5a 3b bf ce 9b 73 be b7 5a 5d 3e
       0.31333545 -0.7318527 -0.23789904 0.21616636
0000b0 d0 48 87 3e c3 87 d6 be 02 fe ea be b8 33 b5 3e
       0.2642274 -0.41900453 -0.45896918 0.3539102
0000c0 b9 1c b4 be 78 0d d6 3e 9f d7 d8 3e b1 70 4d bf
       -0.35178164 0.4180715 0.42352006 -0.8025008
0000d0 c5 b6 ba 3e 67 d9 f0 3e 79 f6 ba be 9b 38 16 bf
       0.36467567 0.47040865 -0.3651617 -0.58680123
0000e0 0d aa 7d 3e 24 d3 40 3f d0 97 05 bd aa c4 09 3f
       0.247719 0.75322175 -0.032615483 0.5381571
0000f0 9f 76 43 3f 09 6b c8 3e 05 b5 a4 be e5 30 29 bf
       0.76352876 0.3914416 -0.32169357 -0.6609023
000100 9a 2c 93 3e 73 03 1d bf c9 06 5f bf a9 af c4 bd
       0.28744966 -0.6133339 -0.8711973 -0.09603817
000110 38 02 86 be f4 ba 1d 3f d2 25 57 bf 94 ac 5b 3e
       -0.26173568 0.6161339 -0.84042084 0.21452552
000120 ba 10 38 3d 4c 3d 0d bf 8a 02 67 3f 2f 0d 2f 3e
       0.044937827 -0.55171657 0.9023825 0.17094873
000130 35 34 2d bf 42 6a bf be 69 39 ef 3e 08 8f 00 be
       -0.67657787 -0.37385756 0.46723488 -0.12554562
000140 e4 7f 98 bf e4 02 08 3f 77 77 30 bf 10 21 29 3f
       -1.1914029 0.5312941 -0.6893229 0.66066074
000150 8c e3 2f bf 8c f3 90 3e 98 d2 97 3f ca 04 f0 be
       -0.68706584 0.28310812 1.1861143 -0.46878654
000160 7d 1a 19 3f 8e be d7 be e2 3c 16 bf 69 15 38 bf
       0.5980604 -0.4213757 -0.5868665 -0.7190767
000170 17 b7 a2 be 04 46 89 bd 9b 06 57 3f ad 05 ad be
       -0.3178031 -0.067028075 0.83994454 -0.33793393
000180 30 1d 48 3f f8 fa 18 3f 4f f7 64 3f 9b 35 20 bf
       0.78169537 0.5975795 0.8943986 -0.62581795
000190 6c 3c 6d bf 8f e3 cd be 19 a1 8b 3f 41 d7 0a 3f
       -0.9267032 -0.40212676 1.0908538 0.542347
0001a0 4a 9f 85 bf 9d d9 90 3d 11 39 0b be 14 f6 19 bf
       -1.0439236 0.070727564 -0.13595988 -0.6014111
0001b0 8d 13 78 3f ce 53 68 3d 3a 66 ad 3f e2 1e 8c 3c
       0.9690483 0.056720547 1.3546822 0.01710457
0001c0 7a 54 da be f6 c5 e6 bd 92 e1 4d bf 4a af 20 3e
       -0.42642576 -0.11268227 -0.8042232 0.15691867
0001d0 c4 7b d0 bf a5 2d 07 be bf 99 0c bf 15 a6 24 bf
       -1.628777 -0.13201006 -0.549221 -0.6431592
0001e0 5d 62 4e bf e6 aa 9f be e3 79 75 bf 32 8f 9b bd
       -0.8061884 -0.31185073 -0.9588911 -0.07595672
0001f0 6e 08 43 3f 52 33 e1 be 0f bd 88 bf 07 1b da 3e
       0.7618474 -0.43984467 -1.0682696 0.42598745
000200 d9 35 94 bf 5d 3a ce 3e bb f6 e8 3e ea cc 37 3f
       -1.1578933 0.40278903 0.4550074 0.7179705
000210 1b bd 5a 3f ad 32 d3 be 74 fb df be 11 06 fa bd
       0.854448 -0.412496 -0.4374653 -0.12208188
000220 6d 3e a0 bf d3 a6 8e 3d ab a8 7f 3f fe a9 20 be
       -1.2519051 0.06965413 0.9986674 -0.15689847
000230 f4 01 b5 be b4 2e d6 3e e1 11 1d 3f 8a e9 40 bf
       -0.35353053 0.41832507 0.61355406 -0.7535635
000240 bd bb 0c bf ae 94 d6 be 55 2b f2 be e7 75 68 3e
       -0.54973966 -0.4191031 -0.47298685 0.22701226
000250 bf 67 7f be 02 4d 35 3f 89 c9 72 3f 71 7c b2 3e
       -0.2494192 0.7082063 0.9483877 0.34860566
000260 8c b6 61 3f b9 71 a9 3e 86 58 82 3f 6f 1e df be
       0.8816917 0.33094576 1.0183265 -0.43577906
000270 c3 fa 89 bf 22 46 8e 3d d3 29 7e bf 81 e0 98 be
       -1.0779651 0.069469705 -0.9928257 -0.29858783
000280 8a 53 92 3e af e3 a0 3e 04 f0 6c 3f dc 5c df be
       0.2857936 0.3142371 0.92553735 -0.43625534
000290 eb 4e 10 3f bb 85 27 bf a4 dc d9 3d 0b 92 3e 3f
       0.5637042 -0.6543843 0.10637787 0.74441594
0002a0 86 0a 97 be f5 93 28 3e 06 01 28 3f 41 aa 9f 3e
       -0.29500216 0.16462691 0.6562656 0.3118458
0002b0 ff 69 8c bf 62 44 03 bf 87 b3 68 be 4b cb 3f bf
       -1.0969847 -0.5127622 -0.22724734 -0.74919575
0002c0 e9 78 8b be 73 3c 15 bf b6 0e 19 3f b7 d7 1f bf
       -0.27240685 -0.58295363 0.5978807 -0.6243853
0002d0 65 cd 95 be 95 a9 0a 3f 1b cf 77 bf b7 44 99 be
       -0.29258266 0.5416501 -0.9680039 -0.29935238
0002e0 e9 51 12 bf ba de fb be 5c a4 87 3f 91 94 0b bf
       -0.57156235 -0.49193364 1.0597034 -0.5452357
0002f0 39 e5 67 bf 12 08 77 be 2f 11 95 bf 1e 35 50 be
       -0.9058414 -0.24124172 -1.1645869 -0.20332763
000300 be 4b 73 3f 86 c2 f7 3e 1b 6d 65 3d 07 62 f4 bd
       0.9503745 0.48390597 0.056012254 -0.1193276
000310 fe e5 6e 3f 97 35 13 bf f6 d0 46 bf 51 93 13 bf
       0.9331969 -0.57503647 -0.776626 -0.5764666
000320 ff 52 3b 3f 45 da 17 3f c8 a0 05 bf 22 4e f2 3e
       0.73173517 0.5931743 -0.5219846 0.47325236
000330 49 c0 06 bf d2 9e b8 be ea 4c 7d bf df 95 07 bf
       -0.52637154 -0.3605867 -0.98945487 -0.5296306
000340 eb eb 57 3f a5 f1 4c bf e3 fb 22 bf b0 bb f3 be
       0.8434436 -0.8005622 -0.636656 -0.47604132
000350 85 2e 53 bf 2e 3f c6 be a9 32 a8 3c f1 5c f3 3e
       -0.8249286 -0.38720077 0.02053197 0.47531846
000360 84 59 62 3f 37 a3 d6 be 0c e2 ba 3c f4 af 9a 3e
       0.8841784 -0.41921398 0.022812866 0.30212367
000370 0b 03 71 3e 43 b7 93 3e 42 91 c1 be b4 61 30 3f
       0.23536317 0.28850755 -0.37806135 0.68899083
000380 de e2 83 3f c6 f2 e8 bc b8 0d 46 3f 2e 5c 94 bd
       1.0303609 -0.028436076 0.77364683 -0.072441444
000390 07 7d 10 bf 79 39 67 be 92 f1 43 3f 86 cc 01 bf
       -0.56440777 -0.22580518 0.7654048 -0.50702703
0003a0 26 09 b2 be c5 dd 2e 3f bd 91 92 3f 3d 74 6f be
       -0.34772605 0.68307143 1.1450726 -0.23384185
0003b0 a2 ed 5a 3f 3d cf 65 bb da a7 71 bf ea 59 f9 3e
       0.8551885 -0.003506615 -0.94396746 0.4870141
0003c0 85 d9 5e 3f eb b6 ed 3e df bc 9f bf 5b b5 1b bf
       0.8705066 0.46428618 -1.2479514 -0.608236
0003d0 e4 f6 37 3f c9 c3 d0 be bc 03 84 bf a1 07 fc 3e
       0.718611 -0.40774372 -1.031364 0.4922457
0003e0 cd f8 73 bf 9e 5b 25 3f 86 15 8a 3f 95 49 8a 3e
       -0.95301515 0.6459292 1.0787818 0.27009264
0003f0 69 ae 33 bf c9 ff c5 bd 8a 32 1e bf 18 63 65 3e
       -0.70188004 -0.09667928 -0.61795866 0.22401083

layers.block_0.layer.0.bias f4 [128]
000000 bd fc 5d be 7e 79 29 be 85 44 15 3e 68 84 17 bf
       -0.21678443 -0.16550252 0.1457692 -0.5918641
000010 38 ab aa be cf 13 bb 3e f8 c6 df 3e e4 72 2b 3f
       -0.33333755 0.3653855 0.4370649 0.66972184
000020 7e a0 50 be d9 bc 19 3f d3 b8 a2 3d 36 77 a4 3d
       -0.20373723 0.60053784 0.07945409 0.0803055
000030 bc ed c9 3e aa 37 a5 bc be 73 c7 3e bc a5 d0 be
       0.3943919 -0.020168144 0.38955492 -0.40751445
000040 81 10 0d 3f ec ba 12 3f c7 f0 09 be 35 55 cc bc
       0.5510331 0.5731647 -0.13470756 -0.024942974
000050 6b 6b 93 be d5 7a cf 3e 5d f0 30 bf e2 d2 40 bd
       -0.2879289 0.405234 -0.69116765 -0.047076114
000060 34 46 0f bf e4 5e 1d bf 5d 3c 4a be 8b 2a 36 3f
       -0.55966496 -0.61472917 -0.1974959 0.71158665
000070 b3 fa 97 bc 6f ae 30 3f ba 80 9e 3c b8 c4 6b be
       -0.01855216 0.69016165 0.019348491 -0.23024261
000080 8d ba d9 3e 03 a2 94 3e 45 8a f1 be 56 20 b0 be
       0.4252514 0.29029855 -0.47175804 -0.3439967
000090 09 ae 14 3f ea f2 1a bf 77 1a 06 3e 43 fe d5 be
       0.58078057 -0.6052691 0.13096033 -0.4179555
0000a0 3e 4e b5 be 63 04 43 bf 7a ed 86 be f5 90 0a 3f
       -0.35411257 -0.7617857 -0.26353055 0.54127437
0000b0 1a b1 f2 be b9 f2 da be 58 89 08 bf 35 ad 2d 3f
       -0.47400743 -0.42763308 -0.5333457 0.6784242
0000c0 a0 dc 27 bf 28 ae 9a 3e 3a 45 60 3e 4f 13 ff be
       -0.6557102 0.30210996 0.21901408 -0.4981942
0000d0 a0 1f e0 3d 74 bf 33 3f f3 48 75 3d 68 35 d0 bd
       0.10943532 0.7021401 0.059884023 -0.101664364
0000e0 c0 1e 86 be 9b ed 55 3e 76 c4 c2 3d dd 67 c7 3e
       -0.26195335 0.2089142 0.09510128 0.3894643
0000f0 9f cc 11 3a ca fc bb 3e 76 49 50 3e b6 42 b7 be
       0.0005561802 0.367163 0.20340523 -0.35793084
000100 26 de e9 be 5e 32 d1 3e 79 60 c0 3e f0 87 07 bf
       -0.45677298 0.4085874 0.37573603 -0.529418
000110 75 62 e2 bd ec 32 57 3e 6f f4 1a 3f 26 d4 a3 be
       -0.110539354 0.21015519 0.60529226 -0.31997794
000120 f7 af f0 be c1 d2 31 bf 4d ed 5d 3e 6e b3 6a be
       -0.4700925 -0.6946221 0.21672554 -0.2292001
000130 ea e6 d9 bc b0 7c 16 3f 64 45 91 be 90 37 5e 3e
       -0.026599366 0.5878401 -0.28373253 0.21700883
000140 7a 68 fa 3e b0 51 1f 3f 0c 99 99 3e 04 c4 2e 3f
       0.48907834 0.6223402 0.29999578 0.68267846
000150 f0 c5 e7 be 3f 98 78 be c8 4e eb 3e 49 c4 cb bd
       -0.45268202 -0.24276827 0.45958543 -0.09949548
000160 cd 45 53 3d b4 dd f7 be 07 ce 13 3f 5b 80 21 3f
       0.05158024 -0.48411334 0.5773625 0.6308648
000170 7a cd b8 3e bd 95 7f 3e dc 4d 21 3f 00 d5 1f 3e
       0.36094266 0.24959464 0.6300943 0.15608597
000180 9b 03 ba be 51 de 01 bf 28 84 b9 3e ee ce df be
       -0.36330876 -0.5072985 0.3623364 -0.43712562
000190 1d 09 8d be c1 e0 23 3f a1 4c 9d 3e 9a cc 2c 3f
       -0.27546015 0.6401482 0.30722526 0.674997
0001a0 3f 55 44 3f bf 74 97 3e 93 76 f9 bd 4e 68 9b 3e
       0.76692575 0.29581258 -0.12180819 0.30353016
0001b0 08 7e 26 3f 03 a6 1e 3f 65 d1 a7 3e 7d 59 a8 3e
       0.6503606 0.61972064 0.32776943 0.32880774
0001c0 04 67 3b be a3 f2 b2 3d 75 8c e6 3e 79 a8 e6 3e
       -0.18301016 0.087376855 0.45029035 0.4505041
0001d0 4d 79 9e bd 64 86 a0 3e de 95 8f bb e7 75 8e be
       -0.0773798 0.31352532 -0.004381879 -0.27824327
0001e0 4c 9f f4 3d 98 49 d7 3e f1 bd a3 3e 69 1f 0b bf
       0.11944446 0.42048335 0.3198085 -0.54344803
0001f0 d1 54 2f bf 12 01 4d be 2e a4 0c bf 26 31 ce 3e
       -0.68488795 -0.2001994 -0.5493802 0.40271872

layers.block_1.layer.0.weight f4 [128, 128]
000000 95 d2 82 3d 1a 86 40 be c1 7a f0 bd 5d 5e e7 3d
       0.063878216 -0.18801156 -0.117421634 0.11297295
000010 a4 56 93 3d f0 86 16 bd c4 44 92 bc b1 32 d8 bd
       0.0719426 -0.03674978 -0.017855056 -0.105565436
000020 80 a0 69 3e 55 96 1a bd b6 0b 6f be a1 6a 92 bd
       0.22815132 -0.037741024 -0.23344311 -0.07149244
000030 bd 88 56 3d 4f 44 88 be b3 35 42 be 4e 3a b1 3d
       0.052376498 -0.26614615 -0.18965797 0.08653699
000040 40 b5 0d bd e5 0d 29 bd a9 4f 23 bd 55 8a a5 3e
       -0.03459668 -0.041273016 -0.03987089 0.323321
000050 16 c4 fa 3c bf 0e a5 bd 30 25 83 bd 42 75 f7 3c
       0.03061108 -0.08059453 -0.06403577 0.03020728
000060 aa d3 27 3c 73 ab 81 3d 9e ea 5e 3d 08 66 c7 bd
       0.010243336 0.063315295 0.054422967 -0.09736258
000070 0f f3 1e 3e a2 a1 58 3d 41 94 a0 3d 4b 88 b5 bc
       0.15522407 0.05288852 0.07840777 -0.022159716
000080 88 78 6e bd 37 7b b6 bc 1d 37 3c 3d c5 a9 1b bd
       -0.058220416 -0.02227555 0.045950998 -0.0380037
000090 f0 b2 33 bd b0 5b a6 3d e6 26 7f be e9 64 be 3c
       -0.04387182 0.08122957 -0.24917182 0.023241477
0000a0 9d a7 d6 bd 85 e3 31 bd 76 d5 ef bb 60 97 2e 3d
       -0.104811884 -0.04342987 -0.0073191477 0.04262483
0000b0 b5 e1 f5 3d 65 fd 56 bd 82 cf 61 3c ae 70 cb 3d
       0.12005941 -0.05248775 0.013782384 0.09933601
0000c0 74 3f 48 3d e3 a5 78 3d 05 1f 4a be 45 bf fb 3c
       0.04888864 0.060705077 -0.19738396 0.030730853
0000d0 5c 9e 51 be 2d d5 3f bb 05 00 59 3e 6b 74 10 3e
       -0.20470566 -0.002927135 0.21191414 0.1410691
0000e0 c5 6f 0f 3c f0 a9 04 bd e5 77 a6 be 36 80 8d bd
       0.008754675 -0.032388628 -0.32513347 -0.0690922
0000f0 ed e4 65 be e0 cf 98 bc d1 35 db bc ac 3b a3 3b
       -0.2245061 -0.01865381 -0.02675906 0.0049814787
000100 23 3a dd bd da 72 02 3c 2e df 8d 3d 62 11 0b 3d
       -0.10802104 0.007961953 0.06927334 0.033952124
000110 32 f5 31 be a8 f4 54 3d 6a 19 58 bd ed 5a 91 3d
       -0.17378691 0.051991135 -0.05275861 0.07097421
000120 4d bd 69 3d 2c f1 e4 bc 53 7e c2 bd 7d 10 fa 3d
       0.057065297 -0.027947031 -0.09496751 0.12210176
000130 79 64 1d 3e d8 ae ab 3d 37 08 06 be bf b4 48 be
       0.15370359 0.08382958 -0.13089071 -0.19600199
000140 d5 10 8a bd ab 72 80 3d 62 e1 80 bd 90 72 90 3d
       -0.06741492 0.06271871 -0.06292988 0.07053101
000150 1e 99 8e 3d 04 b3 16 3d 89 56 4d be bf 08 ef bd
       0.069627985 0.036791816 -0.20052542 -0.1167159
000160 67 25 9e bd ea e1 cd bc 16 05 05 bc 72 c2 0a be
       -0.07721978 -0.025132138 -0.008118888 -0.13550738
000170 1b ce da bd cc 21 88 3c 57 39 45 bd 24 10 4b be
       -0.10683843 0.016617678 -0.048150387 -0.19830376
000180 52 2b b6 3d 23 cc df 3b 11 7b 03 3d 56 68 66 bb
       0.088949814 0.006829755 0.032099787 -0.0035157404
000190 20 fd 36 3e e9 46 4d bd be 3e b5 bc 5e 66 ba bd
       0.17869997 -0.050116453 -0.022124644 -0.09101556
0001a0 cf ae 7c 3c 37 17 05 be dd 28 1e be 1d f4 82 bb
       0.015422537 -0.12997137 -0.15445276 -0.0039963857
0001b0 03 42 39 3d e3 6a 04 3d e9 cb ef 3b d0 a8 5d bd
       0.04522897 0.032328498 0.007318009 -0.05411607
0001c0 bc 0a 29 3e f7 fd ca 3d 38 61 d5 bb 45 cd 6f bd
       0.16508001 0.09911721 -0.0065118335 -0.05854537
0001d0 f3 07 83 bd f3 1a 12 3a 78 4a 89 3e 99 f4 f5 bd
       -0.063980006 0.0005573474 0.26814628 -0.12009544
0001e0 1b b6 03 3e 2e 1f 14 be 2a a2 7d 3d db 0b 2a 3d
       0.12862436 -0.14465019 0.06192223 0.041515213
0001f0 29 2f b2 bd 0f 43 65 3e d6 b4 df bd 7f 48 37 3d
       -0.08700401 0.22388862 -0.109231636 0.044746872
000200 65 ca 8d bd 92 d6 e9 ba 26 ea 40 bd 53 12 8c be
       -0.06923369 -0.0017840436 -0.0470983 -0.2735773
000210 ee d6 f8 bd f8 c5 39 3e f9 5a 79 3e 2c 07 ad 3d
       -0.121503696 0.18141925 0.2435111 0.084486336
000220 33 78 62 be c3 cd 2a 3d 9b 46 21 3d e6 af 15 bd
       -0.22116165 0.041700136 0.039373975 -0.036544703
000230 75 23 15 3e 04 e2 2f 3e c5 c3 9d 3e 15 29 9e bc
       0.14564307 0.17176062 0.30813423 -0.019306699
000240 c4 82 1d 3d ad 95 e2 3c 21 ea af 3d 6b 96 12 bc
       0.038454786 0.027659262 0.085895784 -0.008946995
000250 e9 28 fe bc 3d f1 02 3d 73 e0 20 bd 2a cf 88 bd
       -0.031025367 0.031968344 -0.03927655 -0.066801384
000260 78 d5 62 be a4 75 a6 bd 68 5c 60 be 69 d8 0f 3e
       -0.22151744 -0.08127907 -0.2191025 0.14047398
000270 0b 94 bb bd 78 92 5d bc 83 c3 c5 bd 98 00 40 bc
       -0.09159096 -0.01352369 -0.096564315 -0.011718892
000280 28 c8 8b 3e 8a 49 00 3e a9 99 2b be fe 10 d7 bd
       0.27301145 0.12528053 -0.16757835 -0.10501288
000290 90 39 67 3e a8 7d a9 bd bc 55 a8 3e 85 6d 1c 3d
       0.22580552 -0.0827592 0.3287791 0.038190383
0002a0 46 aa 70 be 60 67 82 be e0 69 27 be bb 68 63 3e
       -0.23502454 -0.25469494 -0.16348982 0.2220792
0002b0 fb 9b 78 bc 9d b5 f6 bd 9a bb d5 bd 1f 45 cb 3d
       -0.015173907 -0.12046359 -0.10436173 0.09925293
0002c0 a0 0b 2f be ce 61 16 3e 9c 66 5d 3e 12 a0 50 be
       -0.17094278 0.14685747 0.21621174 -0.20373562
0002d0 5d 50 dd 3d 62 39 6d 3e 43 6b 98 bd 87 b8 05 3d
       0.10806344 0.23166421 -0.074423335 0.032646682
0002e0 7a 24 78 3d fa 08 54 bc 8f a0 4c 3d 8d 4e 39 3e
       0.06058166 -0.012941593 0.049957808 0.18096371
0002f0 df df 35 3e 05 39 32 bc 53 ca 2c 3e 1b 7d 66 be
       0.17761181 -0.010877852 0.16874056 -0.22508661
000300 9b 04 05 be cd de 15 bd 8a 20 20 3e 4c 3d 03 3d
       -0.12990038 -0.036589433 0.15637413 0.03204088
000310 4c db cf bc d9 99 34 3e be 9d e1 3d c0 cd 88 bd
       -0.025373124 0.17636813 0.11016415 -0.06679869
000320 b2 61 6f bd 7e 59 1a be e2 eb 43 3c fe 81 2d be
       -0.05844278 -0.15073201 0.011958094 -0.1694412
000330 92 df 86 bd c7 a0 d3 3d fc 0d 64 bd 0f a3 4e 3e
       -0.065856114 0.103334 -0.0556774 0.2017939
000340 d4 79 cb 3d 31 bb b0 3d 1f d6 63 3e 32 40 66 3d
       0.09935346 0.08629454 0.2224965 0.056213565
000350 2e 50 ed bd 8b a3 c6 bd af 09 44 3e 42 66 96 bd
       -0.11587559 -0.09699162 0.19144319 -0.07343723
000360 58 6f 10 3e 2c 6a 10 3d fd d2 f7 bc f2 d1 0e 3e
       0.14104974 0.035257503 -0.030251974 0.13947275
000370 78 e3 54 3e 4a c4 b6 3d 68 b4 0f 3e 52 e2 eb 3d
       0.20789897 0.08924158 0.14033663 0.115177765
000380 0e 0a 93 be 2c 50 04 bd 15 11 8b 3e 04 38 db bc
       -0.2871861 -0.03230302 0.2716147 -0.026760109
000390 61 1d 42 be a3 c9 fe 3d 8b 49 61 3e d9 46 e2 3d
       -0.1895652 0.12440803 0.2200071 0.11048669
0003a0 81 bb 97 3e 12 79 0b 3e 9b ca a1 3d 17 88 7b 3d
       0.29635242 0.13620403 0.07899972 0.061409082
0003b0 51 df 3c 3e 94 6a cb 3d 29 2a 80 bd 94 18 59 3c
       0.18444563 0.099324375 -0.062580414 0.013250489
0003c0 8f d5 83 bb 63 54 14 3e 24 0b 9d 3d 0d bc 93 3e
       -0.004023261 0.14485316 0.076681405 0.2885441
0003d0 21 64 94 bc 09 0a e3 3d 37 27 20 3e 0e 7e 5b be
       -0.018114151 0.110858984 0.1563996 -0.21434805
0003e0 6b 1b 97 bd 69 42 6d 3e 0b 45 48 3e 57 83 fe bd
       -0.073782764 0.23169865 0.19557588 -0.12427395
0003f0 ec 9d 0f be 65 94 7d be c9 b4 a2 bb 26 f0 fc 3c
       -0.14025086 -0.2476364 -0.004965399 0.03087623

layers.block_1.layer.0.bias f4 [128]
000000 36 56 61 bd 0d a1 be 3d 1e 7b 98 bc d9 8a 81 3d
       -0.055013858 0.09308062 -0.018613394 0.06325311
000010 d2 26 1e bd 0b 70 73 bd 16 b9 50 3c bd 5e a8 3c
       -0.03861124 -0.059433024 0.01273944 0.020552987
000020 96 1e 68 3c 1f d0 b1 bd 22 db 9a bd b9 b1 d4 bd
       0.0141674485 -0.08682274 -0.075613275 -0.103854604
000030 95 22 ed bc 9d df f6 3c 18 9d 26 bc d9 17 75 bc
       -0.028947154 0.030135924 -0.01016929 -0.014959299
000040 f2 63 62 3a da fe 70 bd 66 b6 1a bd ed 2c d3 3d
       0.0008636109 -0.058836795 -0.037771605 0.10311303
000050 c9 f5 5d bd 83 89 b3 3c fe 98 be 3d 2a 0a 83 bd
       -0.054189477 0.021916157 0.09306525 -0.06398423
000060 b0 ad c3 3d 44 19 90 3d e3 22 1a bd ff 44 7d 3b
       0.09554613 0.07036069 -0.037630927 0.0038645861
000070 ea 25 20 3d 16 28 3a 3d 54 b6 00 3c df 43 4f 3d
       0.039098658 0.045448385 0.00785597 0.050601836
000080 78 26 8a 3d 10 e1 5d bd 48 a4 1a bd 69 be 38 bd
       0.067456186 -0.054169714 -0.037754327 -0.045103464
000090 95 43 4b 3c 27 91 88 3c 3d 66 33 bd 6f 78 73 bc
       0.0124062495 0.016670777 -0.043798674 -0.014860257
0000a0 11 ef 2c bc f5 64 90 bd 02 2c 88 bd 89 45 0a 3d
       -0.010555045 -0.07050506 -0.06649019 0.03375772
0000b0 fb da 9a 3d f8 11 52 3d f3 d4 79 bc 70 27 8d 3d
       0.075612985 0.051286668 -0.015248525 0.06892288
0000c0 9e 7d 40 bd a7 0c 83 3d 7b 69 da bc 81 37 a8 bc
       -0.046994798 0.063988976 -0.026661625 -0.020534279
0000d0 26 45 45 bd 86 30 1d 3d 99 e1 03 3d 14 e6 ac 3c
       -0.04816165 0.038376354 0.03219757 0.021105804
0000e0 9d 38 d7 3c 01 00 95 bd 1a 18 23 3d 85 89 40 bd
       0.026272113 -0.07275391 0.039817907 -0.04700615
0000f0 7a 5f d8 bd e4 60 7b 3c 23 dc dc 3c ec 07 15 bd
       -0.10565086 0.015342925 0.026960438 -0.036384508
000100 dc 54 c5 bd 92 9d 7e bc ba c5 fa 3b fb bd 9a 3d
       -0.09635326 -0.015540497 0.0076529654 0.07555767
000110 8f bd 5c 3d 2d 72 df 3c 0e 25 8e bd e0 ad 25 3b
       0.053891715 0.027276123 -0.06940661 0.002528064
000120 d9 73 4f 3d f8 a4 79 bc 7d b2 2f 3b fe c8 16 3d
       0.05064759 -0.0152370855 0.0026809268 0.036812775
000130 f5 ad c2 bc a4 5d 51 bd f7 ea 27 3d 2f 57 0d 3d
       -0.02376459 -0.051114693 0.040995564 0.034506973
000140 04 10 6c bc 7a 38 f6 bc 98 b0 97 3d 44 3e f2 bc
       -0.014408115 -0.030056227 0.074067295 -0.029570706
000150 6d 4b ba 3d 94 a4 b0 bd 16 0f 69 bd 68 17 80 3d
       0.090964176 -0.08625141 -0.056899153 0.062544644
000160 32 c2 73 bc 65 ac ee 3c dc ed 36 3d 1d a1 a1 bc
       -0.014877843 0.029134938 0.044660434 -0.019730145
000170 40 5b 5c bd 42 4a 84 3d 06 61 a8 bd 47 60 da 3d
       -0.05379796 0.06459476 -0.08221631 0.10662895
000180 9b fc de bd 39 35 ec 3c 32 78 c1 bc a9 93 5a 3d
       -0.108880244 0.028833972 -0.023616884 0.053363476
000190 dd c4 97 3d c8 f7 a3 3d 3c e4 9c 3d eb 0a c6 bb
       0.074105956 0.08006245 0.0766072 -0.006043782
0001a0 be 17 5b bd 69 d3 2b bd 8c 5c da bc 8b 4d 82 3d
       -0.05348944 -0.041949663 -0.026655458 0.063624464
0001b0 40 19 5b bd e1 34 d0 bc 3e ee b9 3a 7b 2e 41 bc
       -0.053490877 -0.02541584 0.0014185382 -0.011790867
0001c0 d4 ec e8 3c 81 6e 83 bd 36 40 3e 3d 62 7b 16 3d
       0.028433241 -0.06417561 0.046447955 0.03673876
0001d0 00 98 ca bc eb 36 ca bc 34 d4 29 3d b7 ab d3 3c
       -0.024730682 -0.02468439 0.04146214 0.025838716
0001e0 f3 ca 3e bd 0f 6f a7 3d 22 30 9c bd 35 81 28 bd
       -0.046580266 0.081754796 -0.07626368 -0.041138846
0001f0 d2 d6 a1 3c 5e c6 80 bd f3 fe 26 bc ea 17 a4 bd
       0.019755755 -0.062878355 -0.010192621 -0.08012374

layers.block_2.layer.0.weight f4 [128, 128]
000000 5f 16 a0 3d 1e d2 3f be 52 67 17 3d 65 d7 80 bd
       0.07816767 -0.18732497 0.03696377 -0.06291083
000010 5d dd 64 3c 17 bc 82 3d e8 72 60 3d 5b 32 9c 3c
       0.013968793 0.063835315 0.054797083 0.01906698
000020 2e 2a 80 bd 16 95 61 bd 0a ac 01 3e fa ca 10 3d
       -0.06258045 -0.05507382 0.12663284 0.035349824
000030 16 da cb bd 01 f9 5b 3d 95 7b a0 bc 8f 7f ca 3d
       -0.09953706 0.053704266 -0.019590179 0.09887611
000040 cd 0b 1e 3d f5 f0 ad bd 47 d2 de 3d 0f 47 cb 3c
       0.038585473 -0.084932245 0.10879951 0.024814157
000050 6c 7b fb 3c f6 ee 2c bd 08 f6 ea 3c d4 a5 97 3c
       0.0306985 -0.04222008 0.02868177 0.01851169
000060 d6 fc d9 bd aa 78 4b be 55 34 1f be 2e c9 17 3d
       -0.10643928 -0.19870248 -0.15547307 0.037057094
000070 13 b1 a8 3c f0 f1 31 3e d9 9d f0 3c 60 46 61 3c
       0.020592248 0.17377448 0.029372143 0.013749689
000080 b8 98 0e be cf 28 8c bc 4b 9f 03 bd 6c 62 5b 3d
       -0.13925445 -0.017109303 -0.032134335 0.05356066
000090 46 52 55 3d 8a f6 83 bd 13 d0 9e bd ee 9b 7b bd
       0.052080415 -0.06443508 -0.07754531 -0.061428003
0000a0 51 43 df bc 57 26 38 bd 22 26 96 3d ce c0 12 bd
       -0.027253779 -0.04495844 0.07331492 -0.035828404
0000b0 bd bf d3 bb a2 63 15 3c c4 63 02 bd d3 05 71 bd
       -0.006462066 0.009117993 -0.031833425 -0.058843445
0000c0 17 3b 9d 3d 19 16 07 be ba c1 08 be ed a3 42 3d
       0.07677286 -0.13192023 -0.13355151 0.047519613
0000d0 b5 45 9e 3d 71 05 77 3d 7c 3e d1 3d d7 bc e2 bb
       0.07728139 0.060307924 0.10216996 -0.006919484
0000e0 60 b3 59 3c cd 8a f2 3c 9d 5e 3d 3c a8 bd ae 3d
       0.013287395 0.029607201 0.011558202 0.08532268
0000f0 91 b7 12 3e e3 86 90 3b d5 e0 59 bd 89 cc e2 3d
       0.14327838 0.004410611 -0.053192932 0.11074168
000100 ea dd 85 3c 3b 73 77 3e a7 4b fd bd a4 46 a2 3c
       0.016341168 0.2416505 -0.12367945 0.019809075
000110 68 4f 12 bd bf d2 9c bd ef a2 46 bd af 30 4f 3d
       -0.03572026 -0.07657384 -0.04849523 0.050583538
000120 6c 3a 1b 3e 98 8f 25 bd 3a 97 1b be 57 20 7b 3d
       0.15159005 -0.040420145 -0.15194407 0.06131014
000130 d8 c6 a0 3d 75 5e 99 bb d9 4c 77 3c cc cf 91 3d
       0.078504264 -0.0046804496 0.0150940055 0.07119712
000140 35 ae 0c bd d8 03 df bd 7b 0d 55 3a 83 7b 08 3e
       -0.034345824 -0.10889405 0.0008127314 0.13328366
000150 fa 6c 6b 3c 45 8b 48 3d d0 af 86 3d 24 a1 42 ba
       0.014369244 0.048960943 0.06576502 -0.00074245245
000160 3e 33 82 bd b8 4e 56 bd 37 d3 b0 3d 99 cb 41 3d
       -0.0635743 -0.052321166 0.08634036 0.047313306
000170 93 0c 41 bd d0 88 91 b7 85 60 9b 3d 25 3b 63 3d
       -0.047131132 -1.7349055e-05 0.07586769 0.055476326
000180 09 f9 14 be 84 1d 97 bc 75 63 e6 3b 35 52 2e be
       -0.14548124 -0.018446691 0.007030899 -0.17023547
000190 d7 3c 96 bd cf f8 59 3d d3 fc 5c bc b8 5a 98 bc
       -0.07335823 0.053215798 -0.013488012 -0.018597946
0001a0 b5 de 98 bd ab ed ba bd 4e 63 86 bd c1 b7 83 bd
       -0.07464353 -0.09127363 -0.065619096 -0.06431533
0001b0 50 94 ef 3d b3 0d e5 3d 9c 4c ce bd 92 00 e8 3d
       0.1169821 0.111842535 -0.10073206 0.11328234
0001c0 bc a0 e5 3c 64 f2 35 bc b1 22 67 bd a6 37 59 bc
       0.028030746 -0.011105154 -0.05642957 -0.0132578965
0001d0 f3 11 09 be f7 99 9c bc ef 9c 20 bd e1 3f 2b bc
       -0.13385753 -0.019116385 -0.039212164 -0.010452242
0001e0 61 24 66 3e d2 27 d1 bd 26 c5 c0 3d b9 e7 16 3e
       0.22474815 -0.10212673 0.09412603 0.14736833
0001f0 5c d6 35 3d 8f 66 64 ba c9 18 33 bd c4 cf 37 bd
       0.044393882 -0.0008712792 -0.04372481 -0.044875875
000200 17 8e 80 bd e2 a8 24 3e 7f 2c 2c 3e c8 03 64 3d
       -0.062771015 0.16080049 0.16813849 0.05566767
000210 b7 2e 51 3d ae 7f 79 bd 09 52 7e 3c 94 77 92 bd
       0.05106994 -0.06091278 0.015522488 -0.07151714
000220 9f 52 42 bd 10 97 86 bb f1 51 ef 3d 7d 98 73 bc
       -0.047442075 -0.0041073635 0.11685551 -0.014867899
000230 bc 50 10 3e 2d e9 88 bd 52 b2 bd 3c 04 6a 77 bd
       0.14093298 -0.066851 0.023156319 -0.06040384
000240 a8 e0 40 3d c3 30 f5 3d 4b 7a 1c bd bc d6 84 3d
       0.04708925 0.11972191 -0.038202565 0.0648627
000250 e9 f3 66 3c 5e b3 4e bb 57 4f 31 3b a1 d2 e8 3d
       0.014096239 -0.0031540017 0.0027055347 0.11368299
000260 08 9e 9d 3d 83 d5 f6 3d e4 80 d4 3c d2 2d dc bc
       0.07696158 0.12052443 0.025940366 -0.026877318
000270 e6 03 f7 bc a0 f3 46 bd b7 1e 9e 3d 99 56 ca 3c
       -0.030153226 -0.048572183 0.07720702 0.024699496
000280 d1 4f ee ba 66 82 c1 ba f0 8e 84 3d 6b 4e ab ba
       -0.0018181746 -0.0014763593 0.06472576 -0.0013069635
000290 6b bc 61 bd ef ba 9e bd 95 96 91 3d e9 97 ab 3d
       -0.05511133 -0.077504985 0.07108799 0.08378584
0002a0 eb de f2 bc 13 b6 e5 bb 9e d1 81 bc 40 23 0a bc
       -0.029647311 -0.0070102303 -0.015847024 -0.008431256
0002b0 9a cd b8 3c 6e 26 cd bc 13 5c e0 bd 01 08 e8 bc
       0.022558976 -0.025042739 -0.10955062 -0.028324129
0002c0 58 14 a5 3d e7 7a f1 3c c3 64 13 bc 1c a6 26 3d
       0.08060521 0.02947755 -0.008996191 0.040685758
0002d0 04 5e 87 3d 31 b0 32 3d 71 b2 87 3d c1 ca c7 bd
       0.06609729 0.04362506 0.06625832 -0.09755469
0002e0 6f 98 6c 3d 27 e7 d0 bc c3 fe 0e bc 84 cf 9b 3d
       0.05776256 -0.025500847 -0.008727732 0.0760794
0002f0 77 20 c6 bc 0f a6 42 3d e3 8f 27 3d 3f 52 50 3d
       -0.024185402 0.047521647 0.040908705 0.050859686
000300 6e 94 f7 bc 2e d9 8f bc d7 9b 3b 3d 06 64 c7 3d
       -0.030222144 -0.017559614 0.045802917 0.09735875
000310 6b a5 5d bd be f7 8b 3d 1c 62 dc 3c 68 4c a2 bd
       -0.054112833 0.068343624 0.026902251 -0.079247296
000320 a1 5b 4e 3d 99 4a 96 3d 3b 34 8d bc 7a 8a cd 3d
       0.050380353 0.07338447 -0.01723682 0.10036178
000330 2b da 85 bd 76 30 0d 3d 5b 55 6a bb 17 3b d9 3d
       -0.06535753 0.034470044 -0.0035756442 0.106069736
000340 ca 9d 8e bd 2a 8e a6 3a 31 8a ef bd 76 68 93 bd
       -0.069636896 0.0012707163 -0.1169628 -0.07197659
000350 bb c3 99 3b 0c 89 3b be 72 a3 aa 3d 05 a9 95 3d
       0.0046925223 -0.18313998 0.08331956 0.073076285
000360 8d c8 e1 3c a5 58 23 bd 67 78 fd 3c 5f 7e 1c 3e
       0.02756145 -0.03987946 0.030941201 0.15282582
000370 f3 57 dd 3c b6 74 89 3b 06 5b 0c 3b a3 ff 09 3e
       0.027019477 0.004194821 0.002141656 0.13476424
000380 91 b2 89 bc 5a a5 ad bd 6a 41 5f bd f8 e8 ab 3d
       -0.01680878 -0.08478804 -0.054505743 0.08394045
000390 c7 20 ef 3d 79 a9 c4 3c 55 9e d4 3c 45 11 d0 bc
       0.11676174 0.024006592 0.025954405 -0.02539886
0003a0 be 6c cf 3d 6f 20 ff bc cd ba ab bd 48 23 83 bd
       0.10128163 -0.031143395 -0.08385239 -0.06403214
0003b0 df f4 b1 bb 6e ef 5c 3d 91 8b ef bc 0b fe f9 3d
       -0.0054308022 0.053939275 -0.029241355 0.12206658
0003c0 7c 7d 8c 3d da 92 22 3d 47 c6 c3 3d 41 de 6b bc
       0.06859872 0.03969083 0.09559303 -0.014396251
0003d0 86 4d f4 3c 78 b1 59 bc 3f 64 38 3d 99 b6 e0 3d
       0.029822122 -0.013286941 0.045017477 0.10972328
0003e0 e6 dd 68 bd e6 17 e5 3d ff fb d7 bb c3 00 b4 bd
       -0.056852244 0.11186199 -0.0065913196 -0.08789208
0003f0 e6 fe 69 3d 94 e1 40 bd 05 53 2b 3d 11 33 71 3d
       0.057127856 -0.047090128 0.04182722 0.05888659

layers.block_2.layer.0.bias f4 [128]
000000 72 87 80 bd 7f 81 85 bc 31 44 a8 3c a6 0f a1 bc
       -0.06275834 -0.0162971 0.020540329 -0.019660782
000010 d7 1f 2c bc a0 8a 98 bd 5d ce b0 3d 7d 3a d0 3b
       -0.010505638 -0.074483156 0.08633111 0.0063546286
000020 e4 12 8d bc d5 2d 97 3c cb 34 d8 3c a4 f5 2e bc
       -0.017220922 0.018454472 0.026392361 -0.0106786825
000030 c0 71 fc 3c 21 ab d5 bd 92 73 ad bc 1d f9 13 bd
       0.030815959 -0.10433031 -0.021173272 -0.036126245
000040 40 42 60 3d 89 d3 ce 3c a5 ec 7b 3c 60 6e b3 bc
       0.05475068 0.025247352 0.015376245 -0.021903217
000050 d5 b5 e6 bc ce 2f 29 3d 51 60 d5 bd 95 ab 6f bd
       -0.028162876 0.041305356 -0.104187615 -0.058513243
000060 65 08 23 bd 8d b3 87 bd 17 6e ac 3d 22 10 f4 bb
       -0.039802928 -0.066260435 0.084194355 -0.0074482122
000070 3e 52 3f 3d 16 35 4f 3d be bc 54 3d 9a 88 48 3d
       0.04670929 0.050587736 0.05193781 0.0489584
000080 76 61 c1 bd be a2 4b bd 8b 5e fd 3c 83 88 5a bd
       -0.09442417 -0.04971575 0.03092887 -0.053352844
000090 9e 78 90 bd be 43 62 bd d9 9c c9 3d 57 ba 50 3c
       -0.07054256 -0.055240385 0.098443694 0.012739739
0000a0 4f 7a 7f 3d f6 4a 6d bd da 1c a7 3c 60 5d e5 bc
       0.062372502 -0.057932816 0.0203995 -0.027998626
0000b0 4f 05 b9 bd 10 c1 51 3d 54 dc 8d bd 1e 86 6c 3d
       -0.09034216 0.05120951 -0.0692679 0.05774509
0000c0 cc cd 72 3d c0 0f df bd cd b2 db bb 35 03 f8 ba
       0.059278294 -0.10891676 -0.0067046643 -0.0018921854
0000d0 d9 c5 ae bc 97 c6 0f bd 63 93 62 3c e4 9a 2a bc
       -0.021334575 -0.0351015 0.013829085 -0.010412905
0000e0 1d ee 02 3d 4c ec 48 3c 43 5a 6a bd bf 11 a0 bd
       0.031965364 0.012263369 -0.057214987 -0.07815885
0000f0 83 75 26 bd 91 b4 97 3c 06 89 b7 3c 04 bd 2a bc
       -0.04063941 0.018518718 0.022404205 -0.010421041
000100 be 68 f2 bc b5 3b 87 3d 0f a6 29 3d 53 c6 78 bd
       -0.02959096 0.06603185 0.04141813 -0.06073601
000110 d0 23 6b bd 58 ce 49 bb b1 fb 57 bd 40 1e 04 bd
       -0.0574072 -0.0030793156 -0.052730266 -0.03225541
000120 d0 fc ac bd de 02 fc bc 8c 1e 48 3d 18 4e 1e 3c
       -0.08446658 -0.030763086 0.048857257 0.009662174
000130 01 95 a7 bd d2 34 5f bb a8 6d 43 3d b5 63 84 bc
       -0.08182717 -0.0034058583 0.047712 -0.016160825
000140 df bb ee 3c f0 41 d8 bd de 29 ec 3b a4 78 8d 3d
       0.029142318 -0.105594516 0.0072071394 0.06907776
000150 5b 95 2b bd d3 97 91 3b 1b 78 52 bd ca 9b 75 bd
       -0.041890483 0.0044431477 -0.051384073 -0.059963025
000160 02 04 bc bc 27 64 e2 3d eb 54 8c 3c a0 00 03 be
       -0.02295113 0.11054259 0.017130336 -0.12793207
000170 80 aa 8f bc 93 78 73 bd 03 d7 0b 3c 1e 5c 29 bd
       -0.017537355 -0.05944116 0.0085351495 -0.041347615
000180 1f 1f 29 bd 8e df 8d 3d 48 39 00 bd 5f 94 66 3c
       -0.041289445 0.06927405 -0.031304628 0.01407346
000190 5f 4b 99 3d 99 81 65 bd 23 23 e0 3c 69 ed 85 3c
       0.07485079 -0.056031797 0.027360504 0.016348558
0001a0 1e c1 9e bc 63 f3 44 bc 03 34 58 3a df 66 be 3d
       -0.019379195 -0.012020919 0.00082474964 0.09296965
0001b0 77 69 3a 3d c2 72 8c bd 96 99 0e be 40 8e ce 3d
       0.045510735 -0.06857826 -0.13925776 0.10085726
0001c0 bf f8 62 3c c3 ae a1 3d 47 4d 82 3d 15 5a a2 bd
       0.013853251 0.07894661 0.06362396 -0.07927338
0001d0 d5 1a b8 bc 31 fa f9 bc f4 bf 8e 3d 94 36 95 3d
       -0.022473732 -0.030514808 0.06970206 0.072858006
0001e0 48 58 0c bc e4 3b e5 bc 53 15 94 bd 0d 05 6a 3d
       -0.00856597 -0.02798266 -0.0723063 0.057133723
0001f0 25 33 99 bd 76 3c 81 bd f3 0c 65 3d 09 44 a4 3a
       -0.07480458 -0.0631036 0.055920552 0.0012532483

layers.block_3.layer.0.weight f4 [128, 128]
000000 c7 25 2d be db ad e5 bd 42 f3 fa 3c e9 54 96 bd
       -0.16908942 -0.11214801 0.030633572 -0.07340414
000010 b9 77 d4 bd ad 04 53 3d b4 ec ea 3c 04 62 c2 3d
       -0.10374398 0.05151813 0.028677322 0.09491351
000020 6f 93 ad 3c 84 03 27 bb 17 16 34 3d 71 c2 2a bb
       0.021188466 -0.0025484273 0.04396638 -0.0026055838
000030 59 9c 62 3c 8f a1 13 bc 96 4e 4b 3e 20 3f d8 3d
       0.0138312215 -0.009010687 0.19854197 0.10558915
000040 d2 b8 2a 3e 08 fe a1 bd f3 2e 6e 3e 3d c4 8a 3d
       0.16672066 -0.07909781 0.23260097 0.06775711
000050 7d fa f0 3b e0 7d 01 3e ed 01 0c 3c 21 2c f6 bc
       0.0073540793 0.12645674 0.008545381 -0.03005034
000060 4d da 7b 3d f9 9b 3e bc ce e8 81 3c c7 5e df 3d
       0.061487485 -0.0116338665 0.01585808 0.10906749
000070 d7 0c cc bc 92 25 bb bd 20 5b 92 bd 0a 71 3f bc
       -0.024908466 -0.09138025 -0.07146287 -0.011684665
000080 3f 14 29 3d 1f 24 f1 3d 87 5c c1 3d f0 4f e9 bc
       0.041279074 0.11774468 0.09441476 -0.0284805
000090 25 bb f2 bd 0d 43 35 3d 6b 8f 73 3c 68 0d 83 bd
       -0.11852101 0.044253398 0.0148657365 -0.063990414
0000a0 5b a8 8d bd 20 78 14 bd 2c 31 f0 3d e0 31 80 3d
       -0.06916877 -0.036247373 0.11728129 0.06259513
0000b0 00 08 8f bd 11 e1 78 3d 22 92 64 3a 87 a7 ee bc
       -0.06983948 0.060761515 0.0008719285 -0.029132618
0000c0 ac 35 8c bd 00 a6 03 3e 42 39 3f 3d bd f8 9a bd
       -0.068461746 0.12856293 0.046685465 -0.07566974
0000d0 3d 6c 94 3d fd a4 30 be 44 45 af bd ad 53 5e bd
       0.07247207 -0.17250438 -0.08558133 -0.05427902
0000e0 45 71 09 3e 4f 77 6e bd 2e a4 7e bd bd dd 16 be
       0.13422115 -0.05821925 -0.062168293 -0.14733024
0000f0 71 4a 37 3d a0 8c e1 bd 09 97 ce bd 7e de 47 3e
       0.044748727 -0.1101315 -0.100874014 0.19518468
000100 85 ae 9a bd a6 ab 38 3d 44 a4 08 3d 0a a7 a6 3d
       -0.07552818 0.04508557 0.03335978 0.08137329
000110 71 b8 85 be 42 90 1c bd f0 3b 57 3d f9 29 44 3e
       -0.2611728 -0.038223512 0.052547395 0.19156636
000120 70 8c b0 3d 0a 68 28 3d ce 1a bd 3c 9d ce 08 be
       0.08620536 0.041114844 0.02308407 -0.13360067
000130 0b 74 5d bd 49 21 3d 3d 22 85 11 3d b8 2f 1b 3e
       -0.054065745 0.04617432 0.035527356 0.15154922
000140 44 8e 0a bd 5d 70 0d be 3b 27 28 bd 91 3d 7e 3d
       -0.03382708 -0.13812394 -0.041053038 0.062070433
000150 e2 5d 71 bb f7 49 e7 3b 0f 66 40 be a2 4b 89 bd
       -0.003682964 0.007058378 -0.18788932 -0.06703879
000160 87 59 17 3d 34 4f 36 3d 30 42 86 3d 26 7e 4f 3d
       0.036950614 0.044509128 0.06555593 0.050657414
000170 06 c4 a7 bc 59 ee a0 bd b2 20 d4 bc 8a d1 05 bd
       -0.020479213 -0.07857961 -0.025894497 -0.032670535
000180 14 f1 2f bd 1c 8e 3a bd 7e ff 26 be bc 9b 2f be
       -0.04295452 -0.045545682 -0.163084 -0.17149252
000190 0e 61 0c 3d 20 eb a4 be e9 b0 c5 bc 7d 4b ce bd
       0.034272246 -0.32210636 -0.024132209 -0.10072992
0001a0 83 98 36 be fc 39 b2 bd 43 ad 03 bd 5f 29 24 3d
       -0.17831616 -0.08702466 -0.032147657 0.040078517
0001b0 59 1c af 3d 71 20 26 3e 65 35 21 be b3 82 57 3d
       0.08550329 0.16223313 -0.15743025 0.05261488
0001c0 03 02 40 3c 23 74 8f 3d b5 7a 5e 3d bd ad 85 bd
       0.01171923 0.07004573 0.05431624 -0.065272786
0001d0 63 82 9f bd af 1a f1 3d 7b e6 7e 3d aa 64 ca bd
       -0.07788541 0.117726676 0.062231522 -0.098824814
0001e0 e0 cd 6e 3d bc e9 c2 3d 95 c3 11 be 83 57 39 3e
       0.058301806 0.095172375 -0.14234765 0.1809979
0001f0 c3 53 8c 3c 62 e2 c2 3d d4 c8 8c 3e e2 3a 15 3d
       0.017129784 0.09515835 0.2749697 0.03643311
000200 f1 c1 3f 3d 6a ca 31 3d 20 8a 7e bd fe f6 95 bd
       0.046815816 0.043405928 -0.062143445 -0.07322501
000210 cf ba fa bc 75 70 bd 3d 05 b1 15 3c 27 73 41 bc
       -0.030606655 0.09249965 0.009136443 -0.01180724
000220 95 55 8c 3d b0 93 e5 bd 4a a2 d1 bd b4 fc cb bd
       0.06852261 -0.1120981 -0.10236032 -0.09960309
000230 95 9e f9 bb 3c 45 55 3d 7f 7f 8c 3c 65 85 c9 3c
       -0.0076177814 0.05206798 0.017150639 0.02459974
000240 35 62 51 3d 36 84 19 bd 90 2b 0b 3e 93 27 e2 bd
       0.05111905 -0.0374796 0.13590837 -0.110427044
000250 77 f3 fc 3c 1f 43 b2 3c 9b c2 05 3d cd 72 08 be
       0.030877812 0.021760521 0.032656293 -0.13325043
000260 b6 2a 2d be 95 ba 8e bd 1e ee 69 3d bd c2 80 bd
       -0.16910824 -0.069691814 0.057111852 -0.062871434
000270 0d ca ed bd ea 6c 50 3d 25 05 a0 bd dd 4c 71 3c
       -0.11610804 0.05088512 -0.07813481 0.014727798
000280 d4 09 13 3d 94 6e af bd 4b 14 a4 bd 74 83 2e 3d
       0.035898045 -0.08566013 -0.08011683 0.042605832
000290 60 51 76 3d 27 55 c9 3d 4a 07 cf bd 28 1c db 3c
       0.0601362 0.09830695 -0.10108812 0.026746824
0002a0 cd 32 b2 bd 1c df 8b 3b 5a a9 2e 3d af cb 21 bd
       -0.08701096 0.00426854 0.042641975 -0.03950089
0002b0 c1 ce c1 ba 42 c4 c1 3c b8 c6 b1 3c 77 3c 10 3c
       -0.0014786349 0.023653153 0.021701202 0.008803478
0002c0 3a fc 86 3d f7 d9 0b bd be 05 b2 3d 81 c8 ba 3d
       0.06591077 -0.034143414 0.086925015 0.09120274
0002d0 47 4f 6c bd c0 0b d1 3c d1 cf 79 3b 6a 43 e1 3d
       -0.057692792 0.025518298 0.0038118253 0.10999186
0002e0 b2 8b 37 bd c8 56 18 3e 5d 77 91 bc d7 fd e5 bc
       -0.04481096 0.14876854 -0.017757112 -0.028075142
0002f0 be fd d0 3c f9 16 b3 bc d4 d6 06 bd 73 09 7e 3d
       0.025511619 -0.02186154 -0.03291972 0.06202073
000300 66 a0 92 bd 33 fe 95 bd 43 c7 c3 3b 02 f9 12 bc
       -0.071595 -0.07323875 0.0059746816 -0.008970501
000310 33 cd e6 bd 09 60 e1 3c e1 76 ae 3d 97 b9 4b 3d
       -0.112696074 0.027511613 0.08518768 0.04973754
000320 52 5d 57 bd 15 17 48 3d a1 80 9b 3d 47 1f 3f 3d
       -0.05257923 0.048850138 0.075928934 0.046660688
000330 1a 60 35 3d 93 a2 bf bc 73 75 98 3d 67 ef e2 3d
       0.044281103 -0.023392951 0.07444277 0.110808186
000340 93 00 ed bd df 5e 8c 3d 47 b9 15 3e 2e 82 20 3d
       -0.11572375 0.06854033 0.14621459 0.03918665
000350 70 19 89 3c a2 fc 28 3c 77 78 f9 3d 32 1d e0 3d
       0.016735762 0.010314139 0.1218118 0.109430686
000360 29 5d e3 bd 19 3d c7 bd 82 03 b0 bd 76 f8 74 3d
       -0.11101753 -0.0972845 -0.08594419 0.059807263
000370 48 85 3f 3b da c7 c0 bc 62 04 24 be 3a b8 91 bc
       0.002922373 -0.023532797 -0.16017297 -0.017788041
000380 36 9c 7a bd a7 6e ed bd ed ca 57 3e 4f a4 8b 3d
       -0.06118413 -0.11593371 0.21073504 0.06818449
000390 04 4a 48 3e 03 fa b0 bd 63 f2 67 3d 63 64 08 bc
       0.19559485 -0.08641436 0.056627642 -0.008324715
0003a0 c9 8e dc 3d 7a db 27 bc 10 cf d6 bd 9c 96 4d bd
       0.107694216 -0.010245198 -0.10488713 -0.05019246
0003b0 ae 81 03 3d ad c7 09 3e c6 39 e8 bd ac 75 c1 bd
       0.032106094 0.13455077 -0.113391444 -0.09446272
0003c0 c6 aa d1 bd cd db 61 bd 14 82 56 bd 4b 3d 86 3d
       -0.102376506 -0.05514126 -0.052370146 0.065546595
0003d0 e0 18 56 bd b0 4e 8f bd 19 66 0e 3d 5d 08 90 3d
       -0.052269816 -0.0699743 0.034765337 0.07032845
0003e0 06 de 03 be e1 0c 9a 3d c6 d7 18 3e 8c e2 25 bd
       -0.12877664 0.07521988 0.14926061 -0.040499255
0003f0 9d 4c 57 bd 9e 1f de bb d2 d6 94 3d 4a 06 b2 bd
       -0.0525633 -0.0067786714 0.07267536 -0.08692606

layers.block_3.layer.0.bias f4 [128]
000000 57 3b 0c bd d8 d1 4b bd 36 d8 a9 bb bf 14 97 3d
       -0.03423628 -0.04976067 -0.005183245 0.07377004
000010 d6 38 59 3d 15 17 f5 bc f5 1e 2a bd 59 43 39 bd
       0.05303272 -0.029918233 -0.04153343 -0.045230243
000020 15 68 dc bc 22 72 c3 bc ce 96 ba 3d a2 d4 3b bc
       -0.026905099 -0.023858134 0.09110795 -0.01146427
000030 50 1c 15 3c ec e1 a2 bd 53 39 23 be ab b0 17 bc
       0.0091009885 -0.079532474 -0.15939836 -0.0092584295
000040 fb bc 9d bd 43 53 5c bc 23 89 3b bc 99 28 6e 3b
       -0.07702061 -0.0134475855 -0.01144627 0.0036340116
000050 e7 fe 9c bd b0 a1 a0 bc d9 82 8e bd 59 a2 55 bd
       -0.07665806 -0.019608349 -0.06958551 -0.05215678
000060 4f f7 42 bd 76 49 29 bd c3 16 ac bd a2 f6 8d bd
       -0.047599133 -0.041329823 -0.08402779 -0.06931807
000070 d9 d4 88 bc f4 c6 9f bd 1c ef 49 3d 7d e2 ff 3c
       -0.016703056 -0.07801619 0.049300298 0.031235928
000080 b9 89 ac 3c 8e 8e 0c bd 5b f4 d3 bb c6 83 8a 3d
       0.021061765 -0.03431564 -0.0064683384 0.06763415
000090 47 74 d2 bc 0d cb 3c bd 0d e5 c5 3c 08 41 3d 3c
       -0.025690211 -0.04609208 0.024157071 0.011551149
0000a0 5a 21 a4 3d 0c 9e b0 3d 14 53 8c bc 78 5c 50 bd
       0.08014174 0.08623895 -0.017129458 -0.050869435
0000b0 9c 87 0a 3b 60 af 9f bb f8 9c 6e 3d fa 45 a3 3d
       0.0021137958 -0.0048732013 0.058255166 0.07972331
0000c0 76 af 09 bd fc 71 07 3c b4 00 aa bc ab b5 44 3d
       -0.0336146 0.008266922 -0.020752288 0.048024815
0000d0 f6 21 48 3b e1 c5 15 3c f8 4a af bd 09 62 bd 3c
       0.003053782 0.009141416 -0.08559221 0.023118036
0000e0 79 e9 2c bd 51 84 a0 bd 55 48 ef 3c 33 12 8e 3c
       -0.042214844 -0.07837737 0.029209295 0.017342662
0000f0 70 30 77 bd 6b ab 94 3d 8b a5 c8 bd 1f 0c 91 3d
       -0.060348928 0.07259258 -0.097972 0.0708239
000100 1f 1a f6 3d 35 7e 42 3c e5 b6 29 3d 6a 03 b1 bd
       0.12016701 0.01187091 0.041434187 -0.08643229
000110 bd 78 d5 3d 6a ac 8a 3d 28 84 73 bd ff 10 af bc
       0.104234196 0.067711666 -0.059452206 -0.021370409
000120 a7 45 4b bc a3 7a 2d bc b6 ce 42 3c d6 ee 31 3d
       -0.012406743 -0.010588321 0.011890104 0.043440662
000130 61 7b a0 3c 14 d4 c6 bd 39 7e 8f 3c 5f 86 fe bc
       0.019590082 -0.097084194 0.017516242 -0.031069933
000140 8f 22 7c 3d 75 67 2f bd 57 81 b7 3d 7c 65 5f bd
       0.061556395 -0.042823274 0.089602165 -0.054540142
000150 20 2e b8 bc 21 ca 82 bd 14 b7 d8 3c d0 b2 92 bc
       -0.022482932 -0.06386209 0.026454486 -0.01790753
000160 0a bd 68 3d ee 99 a1 bb f7 c0 1f 3d a8 60 bd bd
       0.056820907 -0.00493168 0.039002385 -0.09246951
000170 76 01 75 3d 49 52 01 bd 3d 3b a0 b9 70 1e 88 bd
       0.059815846 -0.031572614 -0.00030561714 -0.066464305
000180 02 56 3f bd 8c ef 2d 3d 53 29 3f ba b5 3c 36 bd
       -0.046712883 0.042464778 -0.00072922296 -0.04449149
000190 87 74 21 bd 39 87 84 bd a3 d2 72 bc 31 62 89 3c
       -0.03941777 -0.06471104 -0.0148207275 0.016770454
0001a0 72 ac 9f 3d e6 63 0d bd ed 2c 61 3d 44 dc 7c 3d
       0.07796563 -0.0345191 0.054974485 0.0617335
0001b0 fb ed f4 3c 0e 68 e7 3c 66 bd 7f 3d f5 ab 97 bd
       0.029898634 0.02824786 0.062436484 -0.07405845
0001c0 71 91 5d bd 36 4e 9b 3d 2f 22 0c bd 07 ad bc bd
       -0.05409378 0.07583277 -0.034212288 -0.0921269
0001d0 01 78 86 3b 79 75 38 3c 18 b1 97 bd 69 47 30 bd
       0.004103661 0.011258476 -0.07406825 -0.043036852
0001e0 c9 bd 91 bb c4 17 5c 3d d7 bf 10 3d 89 9f a5 bd
       -0.004447673 0.053733602 0.035339203 -0.080870695
0001f0 0b 07 fc bc cc 7f 0b bc aa d0 25 bd 56 71 6a 3d
       -0.030765077 -0.008514356 -0.0404822 0.05723699

layers.output.weight f4 [2, 128]
000000 18 b0 43 bf 8d 53 fd 3d ef 7f 3d be 22 6a 2a 3e
       -0.7644057 0.12369452 -0.18505834 0.16642049
000010 bc 90 89 3e d9 31 0a 3e 5f 8b fe bd fe 9e 24 3e
       0.26868236 0.13495578 -0.12428927 0.16076276
000020 8a 09 e0 3d 3b 06 59 3f 33 56 9f bd f4 95 bd 3e
       0.109393194 0.8477513 -0.07780113 0.37028468
000030 3c bc 2d be 83 60 fd be 93 28 40 3e 8f ac e7 3d
       -0.16966337 -0.49487695 0.18765478 0.1131221
000040 ac 87 a4 3e 65 85 66 bd 8e 49 cb bd 4a f0 29 3e
       0.3213476 -0.05627956 -0.09926139 0.16595569
000050 1e 19 24 3f 3e 66 fa bc c9 b7 7b 3e 58 8b 33 bd
       0.64100826 -0.030566331 0.24581827 -0.04383406
000060 62 ef 0a 3e 29 92 20 3e 0a 27 51 3e a3 b5 14 bc
       0.1356788 0.15680756 0.20425048 -0.009076509
000070 f4 29 f8 bd f4 51 85 be 9b 56 a3 3e 6a b7 0f 3e
       -0.12117377 -0.26039088 0.31902012 0.1403481
000080 27 40 0f be dc a2 5f be cb d2 a6 bc ac da 04 bf
       -0.13989316 -0.2183947 -0.020364186 -0.51896167
000090 a9 95 08 3f e6 d1 ad bc 59 a9 0b b9 6c b8 92 bd
       0.53353363 -0.021218251 -0.0001331916 -0.07164082
0000a0 4e 09 1d bf 7f 76 13 bf d9 2e 37 be 6d 21 ea bd
       -0.6134232 -0.57602686 -0.17888965 -0.11432157
0000b0 f4 f8 85 3e 51 57 ec 3c 6b d6 07 3f fa fd 27 3e
       0.261665 0.02885023 0.5306155 0.16405478
0000c0 63 99 54 3e 69 e6 f4 be a2 c7 3f 3e 44 70 62 3e
       0.20761637 -0.4783204 0.18728498 0.22113138
0000d0 da f0 56 bf 6c 9d a1 bd b4 20 54 be 39 eb 2c 3e
       -0.8396126 -0.07891354 -0.207156 0.16886605
0000e0 37 05 e1 bd 45 d8 35 3d e2 bd 15 3e 97 70 04 3e
       -0.10987323 0.044395704 0.14623216 0.12933575
0000f0 b9 85 d4 bd 31 6d 05 bd 0f 65 51 3f d2 0f 69 bd
       -0.10377068 -0.032574836 0.8179483 -0.056899853
000100 bb 8a 4a 3d 46 35 ef 3d 9a 7a 84 bc b9 10 0e 3e
       0.04944871 0.11680083 -0.016171742 0.13873567
000110 3b 14 13 3f c8 12 3f bd 08 1c d2 3d 96 8e 8d be
       0.57452744 -0.04664877 0.10259253 -0.27647847
000120 41 27 04 bd 63 63 46 bf eb e7 b9 be 0c 2e c1 3d
       -0.032263998 -0.774954 -0.36309752 0.09432611
000130 fa 9f 59 bf b2 8e 32 be 55 a6 00 3e 10 be e9 3e
       -0.8500973 -0.17437246 0.1256345 0.4565282
000140 c6 f6 a2 bc 72 e4 4e be 6d a5 2e 3e 33 f1 47 3e
       -0.019893061 -0.20204332 0.17055292 0.19525604
000150 96 f9 1e 3f 12 01 37 be d6 60 60 be ad 39 db bd
       0.6209959 -0.17871502 -0.2191194 -0.1070436
000160 c8 9a 93 bc ba ad 23 be 6d f9 b0 3e f2 fe d5 bd
       -0.018018141 -0.1598424 0.34565297 -0.104490176
000170 3e b9 ec 3e 43 b6 5c 3e 7a 5a 9e bd 72 10 57 bd
       0.4623508 0.21553902 -0.07732101 -0.052505918
000180 a4 1b 06 bf 57 7a 70 3e 15 19 64 bc 71 1b 37 be
       -0.52385926 0.23484169 -0.013921996 -0.17881562
000190 d2 1d c7 bd d5 b0 3c 3e 1c f8 2a bd 93 1d 2a 3e
       -0.09722485 0.18426831 -0.04174052 0.16612844
0001a0 94 c3 14 be 49 f2 8b 3d 55 cd 8c 3e 61 5e a9 3e
       -0.14527732 0.068333216 0.27500406 0.33079818
0001b0 73 9e 1c 3f fd 63 82 3d 91 16 77 3d 2d 23 26 bd
       0.61179274 0.063667275 0.060324255 -0.04056089
0001c0 ba 57 1c 3e 21 7e 36 3e 9c 94 c6 bd 46 fa 80 bd
       0.1526784 0.17821552 -0.09696314 -0.06297736
0001d0 b8 1c c8 bd 70 5c 80 bc fb 44 be 3d ce 03 44 be
       -0.09771103 -0.015669078 0.09290501 -0.19142076
0001e0 21 79 e4 3e 5b 0b 0a 3e e1 82 b6 bc d4 1e e7 3d
       0.44623664 0.13480894 -0.022279205 0.11285177
0001f0 04 a0 ee 3d 6d a3 e8 be a4 52 4f be f0 09 4e 3e
       0.11651614 -0.45437184 -0.20246369 0.20120978
000200 49 4f ff 3e 1d 54 2a 3d 21 a1 ad bd 8e 9d 04 3e
       0.49865177 0.041584123 -0.084779985 0.12950727
000210 b5 e3 c6 be d1 a5 c3 be 70 ef 16 be a4 ac db 3b
       -0.38845602 -0.38212445 -0.14739776 0.00670393
000220 cf ae 49 3c 04 ad e9 3d ef aa 9e 3d 66 e9 ab be
       0.012309744 0.11409953 0.07747447 -0.33576506
000230 74 0d 1d bd 49 09 19 3d fd 7e 52 be 01 22 89 3e
       -0.038342908 0.03736237 -0.20556255 0.26783755
000240 fe 31 be be 7d 3c 63 be 0c 9a d5 bd 09 88 91 bd
       -0.37147516 -0.22191043 -0.10429773 -0.07106025
000250 ef d5 ce bd 9a f8 8b be d7 a1 f5 be e0 57 5f 3e
       -0.10099398 -0.27338105 -0.47975037 0.21810865
000260 c2 58 6f 3e de 79 f2 bc 95 c5 15 3e 8f 6b 10 be
       0.23373702 -0.029599126 0.14626153 -0.1410353
000270 7e a5 34 3d e7 f3 8a 3d ef 46 9d be e3 7a eb be
       0.04410314 0.06784802 -0.3071818 -0.45992193
000280 11 82 d6 3b a8 e3 7c 3d a3 80 4d be 64 d8 0d be
       0.006546267 0.061740547 -0.20068602 -0.13852078
000290 04 62 1b bf c9 24 dc 3d 78 56 ef be c0 7c 8a bc
       -0.60696435 0.10749204 -0.46745658 -0.016905189
0002a0 1e 85 08 3e a9 a3 a3 b9 03 79 a1 3e b8 56 4b be
       0.1333203 -0.0003121172 0.31537637 -0.198573
0002b0 51 77 dc 3e eb d5 2b be cd 41 b7 be 0e d1 a5 bd
       0.4305978 -0.16780822 -0.3579239 -0.08096515
0002c0 55 9a bd be 4d 67 dd 3d 29 64 ef 3d 18 f7 1f be
       -0.37031808 0.10810719 0.11689026 -0.15621603
0002d0 40 38 19 3f bc f3 f4 bd c2 0d f6 3d 0b 78 e2 be
       0.59851456 -0.11960551 0.12014343 -0.4423221
0002e0 14 72 00 bf 90 d3 4a 3e d2 89 1a bf 74 94 b6 3d
       -0.5017407 0.19807267 -0.6036655 0.08915034
0002f0 87 6a 97 3d 31 54 7b 3e a2 cb 36 be 9c e5 8f bc
       0.07393365 0.24543835 -0.17851117 -0.017565541
000300 f5 e9 10 3e e7 94 14 3e 65 6f 11 bd 6f 8d 4f 3e
       0.14151748 0.14509927 -0.035506625 0.20268796
000310 3f a5 b1 be 86 c3 3b be a3 36 ae be 34 d3 bc 3e
       -0.34696385 -0.18336305 -0.3402606 0.36879885
000320 1f 4b a3 3e 02 04 f9 bd 4a d8 03 3f 61 12 48 3e
       0.3189325 -0.121589676 0.51501906 0.19538261
000330 6f 85 d3 3e 75 33 6c 3e 30 ae 5b bd b5 d9 16 bf
       0.4131274 0.23066504 -0.053632915 -0.58925945
000340 9b 1e a6 be 31 96 11 bd ca b8 9f 3d 6b 4c 44 3e
       -0.32445225 -0.035543624 0.077989176 0.19169776
000350 af bf 21 bf 63 78 3c 3d 0e 9a 09 3e ee 5b 0b 3d
       -0.6318311 0.046013247 0.13437673 0.034023218
000360 b7 58 1b 3e bd 02 bc bd 39 a7 23 bf 7d 9a b8 3e
       0.15170561 -0.0918021 -0.63927037 0.36055365
000370 22 ed 36 be e6 a6 ee 3d e9 6c d8 bd c3 35 26 be
       -0.17863896 0.11652927 -0.10567648 -0.16231446
000380 4c 35 33 3e 82 81 de 3b 6b c4 cb 3d 9a e4 6b 3d
       0.175008 0.006790341 0.09949573 0.05759106
000390 00 d5 2f 3f 48 ed c6 3d 21 0a 6a 3e 62 de 10 3e
       0.6868439 0.097132266 0.22855426 0.14147332
0003a0 4d 7e a3 3e 40 de 50 be 39 5d b2 be 08 50 a8 be
       0.31932297 -0.20397282 -0.34836748 -0.3287356
0003b0 c0 83 4b 3e 36 19 a2 3d 6c 1b 6d 3e bd 43 36 be
       0.19874477 0.07914965 0.23154992 -0.17799278
0003c0 05 a4 d0 be 76 cd a3 3d 14 ec b4 bd 9d 07 78 be
       -0.40750137 0.07998173 -0.08834091 -0.24221654
0003d0 73 4f 4d bf 0e e7 95 3e 78 7e 8c 3e 12 91 01 3e
       -0.80199355 0.29277843 0.27440238 0.12652996
0003e0 91 d6 95 3e 0a 5b b8 3b 7e 9f ff 3e 9d 94 21 bd
       0.29265264 0.005626087 0.4992637 -0.03944837
0003f0 79 b0 07 3e 1a b2 4e be d1 71 57 3e fe d1 c8 bd
       0.13250913 -0.20185128 0.21039511 -0.09805678

layers.output.bias f4 [2]
000000 e7 79 30 3e 08 4d 71 b9
       0.17234002 -0.00023012247
