results/VANILLA/Vanilla0/vanilla40k/model.pth (torch, 205093 bytes, 10 tensors)

layers.block_0.layer.0.weight f4 [128, 2]
-1.3605253 0.2875658 0.4470055 0.15509948 -0.14958376 0.3173767 -0.24959329 0.80914307
-1.2525405 0.25223905 -0.4638205 -0.41675103 0.99821734 0.44689724 -1.2121696 0.66740626
-0.8131579 0.2661749 -0.8748694 0.06759207 0.19082019 0.07782004 -0.6170159 -0.75423104
0.3672834 0.24610308 -0.107093066 -0.6639591 0.87623703 0.33201715 -0.65829104 0.6927257
0.6204005 0.71816367 0.8645066 -0.24511829 0.3592962 -0.5194155 -0.4896766 0.5098524
-0.1591755 -0.3600204 -0.7785537 0.4484239 1.0305294 -0.46128595 0.87835854 -0.3797085
-0.6359309 0.19802703 0.82634705 0.3242909 0.5319189 0.5471821 0.86273545 0.102189854
-0.3534435 -0.36161214 -0.504696 -0.62544453 0.6716981 -0.15389997 1.1658528 -0.50896555
-0.5573618 0.55351615 0.6797507 0.39296073 -0.83147216 -0.7229759 0.8198857 -0.19996825
0.75251544 -0.49504492 -0.72193956 -0.4680451 -1.0547527 -0.65240544 -0.6934609 -0.55251724
1.0791528 0.50132346 -0.6830033 -0.44915956 0.43252644 0.056445904 -1.0334152 -0.03617387
0.78293735 0.105961904 -0.42859885 0.44688138 -0.80999905 0.050003465 -0.8668623 -0.06974994
0.8201518 0.10387465 -0.27791557 -0.42860547 1.2271354 -0.12469053 -0.75559926 0.22295813
-0.62706774 0.6506952 0.22558436 -0.8210983 0.64117736 0.09107323 0.76908326 0.5279689
1.0212836 -0.48237035 1.1542528 0.042187244 -0.36096027 0.29648748 0.38221428 -0.47543085
0.44322467 -0.8087747 -0.81057715 -0.67331636 -1.1629611 0.4300286 0.5179428 0.6788139
0.811077 -0.4246506 0.99993855 0.58064544 -0.43113247 0.7327769 0.5156615 0.6816335
0.7466576 0.7589836 1.0120531 0.25746056 -0.06578338 0.7702888 -0.27290016 0.35375327
-0.3502492 -0.08318911 1.3482499 0.5102362 1.0284724 0.1450289 0.45495373 0.60397494
-0.6553618 -0.58505636 -1.2272199 -0.5610887 0.6466594 -0.7386107 1.0057476 0.1362523
-0.5358216 -0.6218692 -0.33332273 0.6902508 -0.21024777 0.36282235 0.3737445 -0.66252273
-0.48145545 -0.48558873 -0.7680651 -0.2400253 -1.2202722 -0.118503064 1.1667528 -0.19931766
-0.1371616 -0.47054496 -0.4177448 0.34573168 -1.0773649 0.23271507 0.51310146 0.762105
-1.0338206 -0.7354754 0.3339056 -0.36410362 -0.6704545 0.20206279 -1.0559802 -0.11496106
-0.26783943 0.38579974 -0.21780649 -0.7132215 -0.9368105 0.37359872 0.6074929 -0.22645731
0.9335297 -0.48116037 -0.7611248 0.37233767 1.0079552 -0.18126151 -0.5401323 -0.6082509
1.0677917 0.051593613 -0.31701443 0.47748443 -0.19504175 0.765489 0.9632855 -0.55084217
0.376068 -0.09100666 -0.18590696 0.46185136 1.0444914 -0.48472837 -0.9737213 -0.17160335
0.82415986 0.6096809 0.92259365 -0.11476173 -0.5888385 -0.27322274 1.0963005 -0.07709907
-0.33174613 -0.52608943 -0.17413606 -0.52264065 0.79687303 0.47303304 -0.40209985 -0.20312944
-1.144253 0.25911492 -0.5287389 -0.58620054 -0.74113625 -0.26412955 -0.8447133 0.38463998
1.1913773 0.6719465 -0.8963119 -0.276581 -0.13771546 0.6209961 -0.29514924 0.6490527
00000000: b125 aebf d33b 933e e8dd e43e 66d2 1e3e
00000010: 7c2c 19be 337f a23e 6295 7fbe 0024 4f3f
00000020: 3f53 a0bf 7a25 813e e179 edbe 6460 d5be
00000030: 2c8b 7f3f b7cf e43e 6028 9bbf 23db 2a3f
00000040: 1e2b 50bf 1448 883e 71f7 5fbf b66d 8a3d
00000050: 5e66 433e 1d60 9f3d c1f4 1dbf 4915 41bf
00000060: 920c bc3e 7202 7c3e 9c53 dbbd 39f9 29bf
00000070: 1251 603f 27fe a93e c385 28bf 7956 313f
00000080: 91d2 1e3f 93d9 373f 4e50 5d3f 4a00 7bbe
00000090: acf5 b73e 6af8 04bf e4b6 fabe b085 023f
000000a0: e7fe 22be 9854 b8be 4c4f 47bf d197 e53e
000000b0: 63e8 833f ac2d ecbe 1bdc 603f 2769 c2be
000000c0: 5ecc 22bf 99c7 4a3e 7b8b 533f 7509 a63e
000000d0: d62b 083f 2014 0c3f 3bdc 5c3f ea48 d13d
000000e0: 8cf6 b4be 3a25 b9be c233 01bf 221d 20bf
000000f0: 68f4 2b3f f497 1dbe aa3a 953f 914b 02bf
00000100: 43af 0ebf 3cb3 0d3f 2404 2e3f 2632 c93e
00000110: 5cdb 54bf f314 39bf 07e4 513f 7ac4 4cbe
00000120: daa4 403f 8776 fdbe 08d1 38bf 9ba3 efbe
00000130: 2302 87bf 0b04 27bf a786 31bf c571 0dbf
00000140: ae21 8a3f bc56 003f 4ed9 2ebf 3ef8 e5be
00000150: 1b74 dd3e d233 673d f346 84bf 0d2b 14bd
00000160: 956e 483f 8e02 d93d 4f71 dbbe a3cd e43e
00000170: 195c 4fbf 6fd0 4c3d b0ea 5dbf 0ed9 8ebd
00000180: 78f5 513f 3cbc d43d f34a 8ebe 2d72 dbbe
00000190: c612 9d3f c05d ffbd f46e 41bf 234f 643e
000001a0: 8387 20bf f693 263f 96ff 663e 8033 52bf
000001b0: 3324 243f 9a84 ba3d a4e2 443f f828 073f
000001c0: 6cb9 823f 3ff9 f6be 8ebe 933f 88cc 2c3d
000001d0: c9cf b8be 35cd 973e 97b1 c33e ac6b f3be
000001e0: 58ee e23e dc0b 4fbf fc81 4fbf 765e 2cbf
000001f0: e9db 94bf b52c dc3e e697 043f bfc6 2d3f
00000200: bea2 4f3f ce6b d9be f9fb 7f3f 2ea5 143f
00000210: 65bd dcbe 4497 3b3f 6402 043f 887f 2e3f
00000220: f424 3f3f c04c 423f f58a 813f dfd1 833e
00000230: 70b9 86bd a631 453f 92b9 8bbe 261f b53e
00000240: dd53 b3be 0d5f aabd 7493 ac3f d79e 023f
00000250: fca4 833f 7582 143e b2ef e83e 1a9e 1a3f
00000260: cac5 27bf 41c6 15bf 8b15 9dbf 82a3 0fbf
00000270: 788b 253f 9715 3dbf 56bc 803f b985 0b3e
00000280: 9b2b 09bf d232 1fbf 47a9 aabe 47b4 303f
00000290: 314b 57be dac3 b93e 705b bf3e 179b 29bf
000002a0: 5481 f6be 169f f8be ea9f 44bf 31c9 75be
000002b0: e131 9cbf bcb1 f2bd 2858 953f ee19 4cbe
000002c0: 1774 0cbe 45eb f0be a5e2 d5be be03 b13e
000002d0: 18e7 89bf dc4c 6e3e 9e5a 033f 5019 433f
000002e0: 3c54 84bf 1e48 3cbf adf5 aa3e ca6b babe
000002f0: e8a2 2bbf 8ce9 4e3e 5c2a 87bf b470 ebbd
00000300: 4022 89be 8b87 c53e aa08 5fbe af95 36bf
00000310: d0d2 6fbf 5548 bf3e a884 1b3f 6de4 67be
00000320: cdfb 6e3f a75a f6be 13d9 42bf 0ba3 be3e
00000330: ad04 813f 9e9c 39be 1c46 0abf 55b6 1bbf
00000340: 66ad 883f d353 533d b74f a2be d778 f43e
00000350: 06b9 47be 16f7 433f e199 763f fe03 0dbf
00000360: fc8b c03e b361 babd 655e 3ebe c877 ec3e
00000370: e5b1 853f 512e f8be cd45 79bf cab8 2fbe
00000380: 24fc 523f 0c14 1c3f 192f 6c3f 3308 ebbd
00000390: 1fbe 16bf dae3 8bbe 9353 8c3f 1ee6 9dbd
000003a0: a1da a9be ccad 06bf b950 32be c7cb 05bf
000003b0: dfff 4b3f 6331 f23e 08e0 cdbe 2a01 50be
000003c0: e276 92bf b6aa 843e 6f5b 07bf 3d11 16bf
000003d0: 1bbb 3dbf fd3b 87be 213f 58bf 88ef c43e
000003e0: 0d7f 983f b004 2c3f b274 65bf 069c 8dbe
000003f0: 4805 0dbe 9af9 1e3f cd1d 97be 5128 263f

layers.block_0.layer.0.bias f4 [128]
-0.2807043 -0.39759508 0.70238066 0.33317417 -0.19791768 -0.08543465 -0.56938696 -0.71399814
-0.23110004 -0.46216375 -0.36071876 0.76764303 -0.3877718 -0.60675836 0.1966608 -0.48631957
-0.49258414 0.00443832 0.050831195 -0.017176596 0.5831863 -0.030746125 0.19191293 0.6210462
-0.3457128 -0.40819272 -0.4533749 -0.13016738 0.26265213 -0.39694718 -0.5850185 0.5303467
-0.4887911 -0.5872848 0.78814286 0.48391575 0.56335825 0.5297957 0.5951901 0.2008409
-0.14472134 -0.663611 0.2652838 0.21939291 -0.00077495107 0.09466928 -0.3739695 -0.08087955
-0.6047402 -0.42130688 0.09916286 -0.36806875 -0.66186297 -0.23555127 0.11717804 -0.3338597
0.6451653 0.05717136 0.15463859 -0.30664626 -0.24161455 0.6995183 -0.3476962 -0.71710974
-0.287492 -0.17523673 0.6274712 0.6001452 -0.7342785 -0.6284172 0.38094717 -0.6266088
0.3507249 -0.5623749 -0.3045713 -0.6358752 -0.34986684 0.62678015 -0.6346763 -0.1764175
0.54596466 -0.09513644 0.7191046 0.35561252 -0.013330292 -0.16849981 0.06322109 0.43220538
-0.4950393 -0.566403 -0.56068146 0.50588775 0.7642441 -0.32411313 -0.18033108 0.13569592
-0.42070544 0.5774179 0.06780153 -0.46295652 0.23464052 0.43727863 0.22602071 -0.475574
-0.14921719 0.010629683 -0.76553786 0.51239425 -0.05665061 0.5352001 0.22300343 0.19919421
-0.57627386 -0.30776215 0.6875057 0.1353196 0.009717873 -0.27137378 -0.00052487705 -0.081804566
-0.23796478 -0.28843755 0.44416872 -0.58601004 -0.63427055 -0.06082768 0.3388852 -0.54649466
00000000: 79b8 8fbe 9591 cbbe 38cf 333f ce95 aa3e
00000010: efaa 4abe 5df8 aebd 58c3 11bf 95c8 36bf
00000020: 7da5 6cbe baa0 ecbe 21b0 b8be 4184 443f
00000030: 068a c6be 8454 1bbf 7361 493e e1fe f8be
00000040: fd33 fcbe 546f 913b 5f34 503d efb5 8cbc
00000050: b34b 153f 4cdf fbbc d384 443e e2fc 1e3f
00000060: 4501 b1be a3fe d0be c120 e8be 994a 05be
00000070: 577a 863e a93c cbbe c6c3 15bf cdc4 073f
00000080: d442 fabe 4c58 16bf bbc3 493f cec3 f73e
00000090: 3f38 103f b1a0 073f 615e 183f 3da9 4d3e
000000a0: d531 14be 69e2 29bf 47d3 873e 89a8 603e
000000b0: 1626 4bba f8e1 c13d ee78 bfbe 2da4 a5bd
000000c0: 41d0 1abf 89b5 d7be e615 cb3d 8273 bcbe
000000d0: da6f 29bf 5a34 71be 0afb ef3d a9ef aabe
000000e0: 8e29 253f 842c 6a3d 9459 1e3e bd00 9dbe
000000f0: ce69 77be a213 333f 3c05 b2be 8194 37bf
00000100: 2732 93be 4271 33be f4a1 203f 1ea3 193f
00000110: adf9 3bbf f3df 20bf 820b c33e 6f69 20bf
00000120: 3792 b33e cdf7 0fbf c5f0 9bbe b8c8 22bf
00000130: bf21 b3be aa74 203f 257a 22bf caa6 34be
00000140: 57c4 0b3f e5d6 c2bd 3d17 383f d812 b63e
00000150: 4c67 5abc 378b 2cbe 0f7a 813d 064a dd3e
00000160: cb75 fdbe c9ff 10bf d288 0fbf dc81 013f
00000170: 80a5 433f 28f2 a5be b6a8 38be dff3 0a3e
00000180: b466 d7be a9d1 133f 87db 8a3d a308 edbe
00000190: 9b45 703e fce2 df3e f971 673e 6f7e f3be
000001a0: 64cc 18be 1f28 2e3c 4afa 43bf 452c 033f
000001b0: 780a 68bd e002 093f 035b 643e 91f9 4b3e
000001c0: af86 13bf 0093 9dbe 6000 303f 3991 0a3e
000001d0: b737 1f3c 81f1 8abe e797 09ba 2789 a7bd
000001e0: 0aad 73be 16ae 93be 156a e33e c104 16bf
000001f0: 8e5f 22bf 7226 79bd 5c82 ad3e 13e7 0bbf

layers.block_1.layer.0.weight f4 [128, 128]
0.047387615 0.02126915 -0.061159935 -0.0071731457 -0.0040112576 -0.12676127 -0.025596976 0.005725174
0.07489186 0.012724235 0.060056824 0.027240602 -0.051195472 -0.100555025 0.040813476 0.10984036
0.061634578 -0.017905958 -0.09769166 0.07364965 -0.019117946 -0.013800232 -0.049450662 0.0155952
-0.00046606403 -0.09684357 0.0352704 -0.0031870299 -0.017715113 0.05028963 -0.071419016 -0.026598662
0.044672687 -0.080487676 -0.022258215 0.0785044 0.017879723 -0.081936084 -0.08947985 -0.11745566
0.01101349 -0.036302317 0.109809674 -0.016034568 0.043372706 -0.0378719 0.0025365497 0.031338517
-0.05426575 -0.080664575 0.10889661 -0.052877676 -0.029314017 -0.040716223 0.10224497 0.091863215
-0.04044943 0.007938625 -0.0072699995 0.04605844 0.024861638 0.018642148 0.072728135 0.0004038367
-0.01815289 0.14060962 -0.03696737 -0.05155697 -0.057455026 -0.07823848 -0.06715533 0.06170567
0.08784008 -0.001138886 -0.0051802597 -0.07122479 0.047858767 0.0063491617 0.03544991 -0.08240458
0.0011126874 -0.0049938853 0.07757898 -0.076608874 -0.10070982 -0.052135628 -0.15304463 0.07562198
0.03192984 0.071345665 -0.0063069533 -0.034344185 0.053196236 0.036556423 -0.005581523 -0.0065323617
0.06538244 -0.020775095 0.07757606 0.0035721145 -0.09215978 -0.019193016 -0.031137586 -0.05666544
-0.091111325 -0.009378734 -0.07257218 0.012217986 -0.037600175 -0.021603288 -0.11907016 0.0490015
-0.036049955 -0.09504204 -0.034834776 -0.04318651 -0.029595893 0.036949378 0.014328311 0.0013774937
0.0635232 -0.06546228 0.013893173 0.028966147 0.02942719 -0.102276824 0.053195726 0.050199926
0.10601507 0.06480022 -0.012708386 -0.0017604169 0.1503696 0.07266664 0.007304175 -0.050782826
0.11444058 -0.046993643 -0.081725255 -0.023848139 -0.07414188 0.017945388 0.00015390255 0.023467412
0.030903542 -0.07247273 -0.022807734 0.055361256 0.010345006 0.048106242 0.017306928 -0.10425922
0.09258082 -0.046847787 0.07533725 -0.104349814 -0.019434357 -0.027178233 -0.03281155 -0.064502984
0.05144009 0.019442072 0.05465041 -0.004011862 -0.08751368 -0.06865617 -0.026423862 0.07293345
-0.014995173 0.101295024 -0.08018119 -0.032444846 -0.17343567 0.07744427 0.079998836 0.12510131
0.018245379 0.09198031 -0.06475082 0.0136395395 0.109856136 0.04863548 -0.12677564 -0.119002126
-0.062047374 -0.12494055 0.08615272 0.0053905044 0.077740595 0.056359265 0.08729851 0.036455054
0.002831222 -0.09852633 0.016522786 0.0010156082 -0.013347031 0.04787158 -0.09009264 -0.013343502
0.048493702 -0.08246288 -0.024926824 0.01922947 0.011724188 -0.04920375 -0.025964767 -0.021558065
0.0030225182 0.06695148 0.004982031 -0.036566272 0.0760839 0.106064394 0.13452995 0.0032201386
0.08209364 0.0031490065 0.007923537 -0.046861436 -0.010130185 0.011064445 0.10775922 0.14712171
-0.013939804 -0.08583192 0.08448716 -0.03830093 -0.02425696 -0.04544082 -0.03230003 0.0015820275
0.004829815 -0.03901332 0.019435218 0.019212183 -0.07677961 0.06586549 0.032834407 0.09232637
0.024651485 0.012883116 0.068258055 -0.13235378 0.10420485 -0.023780825 -0.14613912 0.004984055
0.07913488 0.018697983 -0.07747586 -0.02483516 0.040664714 0.008586263 0.06897069 -0.027975745
00000000: 8419 423d a43c ae3c d782 7abd b50c ebbb
00000010: de70 83bb b5cd 01be c0b0 d1bc 3e9a bb3b
00000020: e760 993d 4f79 503c 25fe 753d af27 df3c
00000030: 58b2 51bd cbef cdbd 082c 273d fcf3 e03d
00000040: 8a74 7c3d 84af 92bc 9112 c8bd a1d5 963d
00000050: 3d9d 9cbc 5e1a 62bc c78c 4abd 0283 7f3c
00000060: 0e5a f4b9 ec55 c6bd b277 103d 7ddd 50bb
00000070: 491f 91bc 80fc 4d3d 2244 92bd 70e5 d9bc
00000080: b5fa 363d b9d6 a4bd dc56 b6bc eac6 a03d
00000090: 7f78 923c 1bce a7bd 3641 b7bd 988c f0bd
000000a0: ed71 343c bdb1 14bd e5e3 e03d ed5a 83bc
000000b0: 94a7 313d 911f 1bbd 3e3c 263b d15c 003d
000000c0: c345 5ebd 7833 a5bd 3005 df3d 4396 58bd
000000d0: f323 f0bc 0ec6 26bd d065 d13d c822 bc3d
000000e0: 4dae 25bd 0211 023c 2d39 eebb c6a7 3c3d
000000f0: a2aa cb3c 6bb7 983c 7df2 943d 0bba d339
00000100: 5fb5 94bc f8fb 0f3e 196b 17bd 672d 53bd
00000110: f655 6bbd 7f3b a0bd bc88 89bd 16bf 7c3d
00000120: 80e5 b33d ac46 95ba 2bbf a9bb 4dde 91bd
00000130: 8e07 443d a10c d03b ed33 113d bcc3 a8bd
00000140: 98d7 913a bfa3 a3bb bae1 9e3d 1de5 9cbd
00000150: f340 cebd 2b8c 55bd bbb7 1cbe b2df 9a3d
00000160: ddc8 023d ad1d 923d 8faa cebb 7dac 0cbd
00000170: 4ce4 593d 30bc 153d 35e5 b6bb 6c0d d6bb
00000180: 3be7 853d 8830 aabc 33e0 9e3d 231a 6a3b
00000190: 44be bcbd ac3a 9dbc 4014 ffbc 051a 68bd
000001a0: 9398 babd 43a9 19bc b9a0 94bd f32d 483c
000001b0: a402 1abd 61f9 b0bc 0edb f3bd ccb5 483d
000001c0: 1ea9 13bd 67a5 c2bd e9ae 0ebd 57e4 30bd
000001d0: 1673 f2bc 3b58 173d 4bc1 6a3c 058d b43a
000001e0: 7418 823d 1611 86bd 31a0 633c 6a4a ed3c
000001f0: 4a11 f13c 8376 d1bd c3e3 593d 709e 4d3d
00000200: 6e1e d93d fab5 843d d636 50bc cabd e6ba
00000210: 7dfa 193e 3fd2 943d dc57 ef3b a701 50bd
00000220: d35f ea3d 687c 40bd 925f a7bd 2c5d c3bc
00000230: b3d7 97bd 3502 933c e760 2139 bb3e c03c
00000240: 6d29 fd3c 956c 94bd 49d7 babc 7cc2 623d
00000250: 1a7e 293c 0d0b 453d 42c7 8d3c dc85 d5bd
00000260: 039b bd3d 77e3 3fbd 6b4a 9a3d 5bb5 d5bd
00000270: cd34 9fbc e3a4 debc 6765 06bd 241a 84bd
00000280: d8b2 523d fb44 9f3c 1cd9 5f3d f075 83bb
00000290: 5f3a b3bd 9b9b 8cbd db76 d8bc 225e 953d
000002a0: 50ae 75bc c473 cf3d 0936 a4bd e3e4 04bd
000002b0: 1f99 31be 1a9b 9e3d 6ed6 a33d 8f1a 003e
000002c0: 5577 953c 2c60 bc3d 149c 84bd 6078 5f3c
000002d0: 41fc e03d ff35 473d 79d1 01be 63b7 f3bd
000002e0: 6325 7ebd d5e0 ffbd d670 b03d d4a2 b03b
000002f0: 7636 9f3d f9d8 663d 90c9 b23d e551 153d
00000300: 068c 393b 2cc8 c9bd cb5a 873c 281e 853a
00000310: 81ad 5abc fd14 443d 7d82 b8bd b49e 5abc
00000320: 55a1 463d 4ce2 a8bd 5733 ccbc 1f87 9d3c
00000330: cf16 403c df89 49bd 10b4 d4bc 8a9a b0bc
00000340: 7115 463b dc1d 893d 4e40 a33b 84c6 15bd
00000350: e0d1 9b3d 4a38 d93d 38c2 093e f608 533b
00000360: b620 a83d 905f 4e3b b9d1 013c c7f1 3fbd
00000370: 13f9 25bc a547 353c deb0 dc3d 13a7 163e
00000380: c763 64bc a5c8 afbd 9b07 ad3d 70e1 1cbd
00000390: 88b6 c6bc 2720 3abd 094d 04bd 095c cf3a
000003a0: 6d43 9e3b 6ecc 1fbd 9b36 9f3c de62 9d3c
000003b0: a13e 9dbd 7ce4 863d 5f7d 063d 9c15 bd3d
000003c0: e9f1 c93c b413 533c e1ca 8b3d c087 07be
000003d0: 5a69 d53d 01d0 c2bc 7ea5 15be 4951 a33b
000003e0: 7811 a23d 832c 993c aaab 9ebd 1b73 cbbc
000003f0: 0b90 263d 66ad 0c3c 8140 8d3d 642d e5bc

layers.block_1.layer.0.bias f4 [128]
0.100118324 -0.024205284 -0.018034266 0.10136917 0.051067807 -0.091063105 0.03933002 -0.04312731
-0.05668867 -0.07091238 -0.1098104 0.021516914 -0.013389039 0.007192211 0.062031116 -0.042009793
-0.011042454 0.0014348497 0.036358356 -0.050496798 -0.094789185 0.036463995 0.06487459 -0.089195214
-0.07088115 -0.004055854 0.014031432 -0.0337548 -0.07366727 0.06922316 0.07934111 -0.066581234
-0.020482343 -0.021626202 -0.012305189 -0.023774596 0.019747376 -0.06046121 0.028711015 0.02751401
-0.017768817 0.11795546 0.04262092 0.042348508 0.008484802 -0.09282821 -0.021392396 0.0058733053
-0.021300113 -0.059959166 -0.09055663 0.03999268 0.015385221 -0.008580473 -0.069603704 0.010362729
-0.032261495 0.029243836 -0.07401224 -0.08854303 -0.05357383 0.02638328 0.07425579 -0.011168192
0.06874926 -0.07193046 -0.06456382 -0.11710277 -0.0061967312 0.054398306 -0.04561886 -0.01146799
-0.072680764 0.08395601 0.046199042 0.054351285 -0.09946373 0.014755498 0.10791533 0.08591327
-0.054672994 -0.03058734 0.05161042 0.06744604 0.06413514 -0.014015963 0.07334796 -0.032022174
0.0011751712 -0.026306806 0.01940499 0.060429566 0.043639205 0.0053994437 -0.025051663 -0.07288906
-0.030673757 -0.057129543 -0.027716355 0.06245806 -0.036648493 -0.070418656 0.07287175 0.025795542
0.035166446 0.09995544 -0.020701317 -0.09057495 -0.07023039 0.07046205 0.057826277 0.04476387
-0.0033934996 -0.054991946 0.112875044 -0.07245018 0.06415677 -0.051723175 0.057015534 0.03969877
0.026378231 -0.10681608 0.02003463 0.04152598 0.08019743 0.0064515457 -0.056909297 0.038116362
00000000: d60a cd3d 294a c6bc 99bc 93bc a49a cf3d
00000010: 7a2c 513d 4b7f babd 8418 213d 43a6 30bd
00000020: 6132 68bd 833a 91bd 46e4 e0bd 3d44 b03c
00000030: b35d 5bbc a4ac eb3b 5714 7e3d 7612 2cbd
00000040: 69eb 34bc 9111 bc3a 80ec 143d bbd5 4ebd
00000050: d520 c2bd 455b 153d f8dc 843d fbab b6bd
00000060: 232a 91bd f8e6 84bb 17e4 653c 7942 0abd
00000070: dede 96bd dfc4 8d3d 987d a23d be5b 88bd
00000080: 96ca a7bc 6f29 b1bc b49b 49bc f1c2 c2bc
00000090: 40c5 a13c 2ca6 77bd 5d33 eb3c 1065 e13c
000000a0: e98f 91bc a292 f13d 4693 2e3d a175 2d3d
000000b0: d703 0b3c b71c bebd 1b3f afbc db74 c03b
000000c0: 937d aebc be97 75bd c175 b9bd 5dcf 233d
000000d0: 4b12 7c3c 1d95 0cbc 638c 8ebd 70c8 293c
000000e0: a124 04bd c590 ef3c bb93 97bd 0c56 b5bd
000000f0: 3b70 5bbd c021 d83c 6b13 983d cbfa 36bc
00000100: 69cc 8c3d 4750 93bd 093a 84bd 94d3 efbd
00000110: f30d cbbb c2d0 5e3d d7da 3abd 3de4 3bbc
00000120: a7d9 94bd 21f1 ab3d 353b 3d3d 749f 5e3d
00000130: a4b3 cbbd 0bc1 713c b602 dd3d 4cf3 af3d
00000140: caf0 5fbd 4d92 fabc 7365 533d 2621 8a3d
00000150: 4959 833d 36a3 65bc 7537 963d af29 03bd
00000160: 3408 9a3a 5f81 d7bc 37f7 9e3c fe84 773d
00000170: 06bf 323d d1ed b03b 2539 cdbc dc46 95bd
00000180: 8847 fbbc ab00 6abd 690d e3bc 06d4 7f3d
00000190: bb1c 16bd a837 90bd c93d 953d 2c51 d33c
000001a0: b10a 103d 70b5 cc3d cf95 a9bc 5c7f b9bd
000001b0: f3d4 8fbd 684e 903d 3fdb 6c3d 525a 373d
000001c0: 7a65 5ebb 3c3f 61bd 082b e73d c360 94bd
000001d0: a064 833d aedb 53bd 1f89 693d 2d9b 223d
000001e0: 2917 d83c 64c2 dabd aa1f a43c 2517 2a3d
000001f0: 8d3e a43d 7d67 d33b b919 69bd e71f 1c3d

layers.block_2.layer.0.weight f4 [128, 128]
0.057692304 -0.08168612 -0.07094085 -0.025663562 -0.0032959757 -0.016274549 0.114447616 0.11392649
0.10633801 0.012411793 -0.028141396 0.13224626 -0.0703489 -0.0638072 0.04818864 0.04595612
0.06520693 0.01465565 0.09250021 -0.0610306 0.0077675446 -0.101938 0.09479645 -0.026353009
-0.031125829 0.058218133 -0.15082903 0.0019750628 -0.042127904 0.07123688 0.106887154 0.063202046
0.03243628 0.0970275 -0.1034988 -0.042514727 -0.14701779 -0.0037280938 -0.054813784 -0.010162046
-0.0037010333 0.0095965965 0.028736351 0.022658344 -0.010168517 -0.080512196 -0.015867995 -0.024546286
0.03812506 0.006163347 0.018430253 -0.111242 0.094058 0.040724237 0.066862054 0.053251214
0.06183381 0.0890067 -0.10036963 -0.0056437533 0.030607345 -0.032636743 -0.015334342 -0.031235782
0.05554684 0.019310934 0.121577285 -0.045084335 0.029647553 0.1241701 0.062540166 -0.112191044
-0.0025546425 0.0036167672 -0.00010370952 -0.06480325 -0.08088577 0.051756352 0.02060271 0.03536006
0.05504321 -0.024681456 -0.11162691 -0.014986174 -0.045043677 -0.017057588 -0.054741822 0.10661133
-0.045908086 0.05251554 0.008620698 0.02888357 0.028492315 -0.017573573 0.035569806 -0.01885872
-0.0030136004 -0.09078985 0.012940912 -0.03426612 0.01828925 -0.099312015 -0.015306478 0.002029428
0.12717795 -0.09036303 -0.049528036 -0.07750084 -0.07348417 0.09767486 0.010729471 -0.041675135
-0.029027645 -0.088044435 -0.093786016 -0.020383088 0.06682523 0.017102942 -0.065311484 -0.01676048
-0.053116806 0.07424042 0.04463847 0.0032274618 -0.0063226474 0.101585455 0.018711997 0.07243978
-0.06433293 -0.022882035 0.110417575 -0.07255839 0.17107275 -0.12907399 0.054173797 0.069649085
0.01751192 -0.0903975 0.09663497 0.16641983 0.05734321 -0.023714812 -0.075457096 0.06850405
0.087893866 0.19194105 0.13806522 0.12311015 -0.09965373 -0.025448903 0.07817248 -0.08713061
0.08585692 -0.013508012 0.018009858 0.011246015 -0.031036451 0.08932112 -0.10429747 0.10745374
-0.21686864 0.083000064 -0.042834528 0.058947857 0.064164564 -0.020078694 -0.099260196 0.14526774
-0.00087869505 0.19874142 -0.11227849 0.052267686 -0.037883244 0.026144136 0.18209615 -0.13894662
-0.17011221 0.01406639 0.09541827 -0.031911545 0.059916724 0.058952354 -0.0026481543 0.020988584
0.16836499 -0.11707137 0.012634857 -0.07405265 0.10532801 -0.044063665 0.084508374 -0.00021040117
-0.013101536 -0.16838267 -0.028813727 -0.0942416 -0.041355908 0.0984919 0.030638289 -0.050571494
-0.1181574 0.0030061516 -0.14079872 -0.019815123 -0.13956182 0.14218761 0.05879066 -0.06573059
-0.074577466 -0.10541568 -0.09715344 0.19308023 0.012865471 -0.012529647 -0.060246125 -0.008407106
-0.10017992 -0.04903365 0.023439355 -0.19113795 0.08868688 0.078952216 -0.08900143 0.05294762
0.20857826 -2.0843914e-05 -0.13554731 0.003834181 -0.0047816024 -0.06180783 0.073182106 -0.07748326
0.10596078 0.031448986 0.061106604 0.08259492 -0.05014526 0.09349277 0.019343525 -0.0493102
-0.14938867 -0.12262967 -0.055962775 0.060055386 -0.18022846 0.0036825433 0.030581629 0.06634091
0.09450487 0.06552083 -0.01744386 0.102371074 0.019243319 0.0038621665 -0.046275847 -0.06805352
00000000: c44e 6c3d 0d4b a7bd 7049 91bd 643c d2bc
00000010: 4c01 58bb 3452 85bc 8363 ea3d 4b52 e93d
00000020: bec7 d93d d55a 4b3c c988 e6bc 906b 073e
00000030: 1613 90bd 59ad 82bd 7461 453d 7c3c 3c3d
00000040: 368b 853d 401e 703c c070 bd3d 39fb 79bd
00000050: e386 fe3b dfc4 d0bd a424 c23d 44e2 d7bc
00000060: 98fb febc 2376 6e3d ed72 1abe 0e70 013b
00000070: 4f8e 2cbd a4e4 913d a7e7 da3d 1370 813d
00000080: e8db 043d 5bb6 c63d 2ef7 d3bd ec23 2ebd
00000090: d58b 16be 0953 74bb 6b84 60bd b67e 26bc
000000a0: 098d 72bb 0b3b 1d3c 7f68 eb3c fe9d b93c
000000b0: da99 26bc 94e3 a4bd 99fd 81bc 4b15 c9bc
000000c0: 0629 1c3d e7f5 c93b 0bfb 963c d8d2 e3bd
000000d0: 7ba1 c03d 75ce 263d f9ee 883d f21d 5a3d
000000e0: 7345 7d3d 2549 b63d 988e cdbd 3cef b8bb
000000f0: 41bc fa3c 1bae 05bd e43c 7bbc 2fe2 ffbc
00000100: 1585 633d f731 9e3c 83fd f83d 5aaa 38bd
00000110: 6ddf f23c e54c fe3d 0f15 803d 6bc4 e5bd
00000120: ca6b 27bb 4907 6d3b a07e d9b8 91b7 84bd
00000130: 70a7 a5bd 78fe 533d 04c7 a83c b6d5 103d
00000140: fd74 613d c430 cabc a69c e4bd 9288 75bc
00000150: b87f 38bd 5bbc 8bbc f638 60bd 0a57 da3d
00000160: 1e0a 3cbd 891a 573d d43d 0d3c 3d9d ec3c
00000170: b768 e93c 74f6 8fbc a5b1 113d 9a7d 9abc
00000180: d37f 45bb 07f0 b9bd 1e06 543c a25a 0cbd
00000190: 56d3 953c 1964 cbbd 06c8 7abc 2700 053b
000001a0: f03a 023e 4110 b9bd e9dd 4abd c3b8 9ebd
000001b0: de7e 96bd c209 c83d aaca 2f3c 8cb3 2abd
000001c0: 62cb edbc a450 b4bd e212 c0bd 6ffa a6bc
000001d0: abdb 883d 781b 8c3c 07c2 85bd 464d 89bc
000001e0: 0291 59bd 5c0b 983d d4d6 363d d383 533b
000001f0: 362e cfbb 090c d03d e749 993c 4f5b 943d
00000200: fcc0 83bd 1b73 bbbc 9c22 e23d 7e99 94bd
00000210: b22d 2f3e f92b 04be 58e5 5d3d 2ea4 8e3d
00000220: 2875 8f3c 5322 b9bd 8ee8 c53d f669 2a3e
00000230: b7e0 6a3d 9145 c2bc 4089 9abd da4b 8c3d
00000240: b301 b43d 328c 443e f860 0d3e 2d21 fc3d
00000250: 4117 ccbd 387a d0bc e518 a03d 8971 b2bd
00000260: c1d5 af3d b550 5dbc 6989 933c 3541 383c
00000270: 2840 febc feed b63d e999 d5bd b510 dc3d
00000280: d012 5ebe f0fb a93d 4273 2fbd 4f73 713d
00000290: b668 833d 137c a4bc ee48 cbbd 11c1 143e
000002a0: 3a58 66ba df82 4b3e 44f2 e5bd a416 563d
000002b0: 762b 1bbd 3a2c d63c 6a77 3a3e 0648 0ebe
000002c0: e531 2ebe b776 663c a76a c33d aeb5 02bd
000002d0: 3d6b 753d 0678 713d a88c 2dbb 40f0 ab3c
000002e0: df67 2c3e 1dc3 efbd 6e02 4f3c eaa8 97bd
000002f0: 36b6 d73d 1a7c 34bd ba12 ad3d 229f 5cb9
00000300: d3a7 56bc 826c 2cbe c40a ecbc bd01 c1bd
00000310: d064 29bd 1fb6 c93d 26fd fa3c 0e24 4fbd
00000320: 82fc f1bd db02 453b 8a2d 10be 5353 a2bc
00000330: 4be9 0ebe a199 113e 7ace 703d c29d 86bd
00000340: 12bc 98bd 2de4 d7bd 62f8 c6bd d3b6 453e
00000350: b2c9 523c 2649 4dbc a4c4 76bd f5bd 09bc
00000360: 212b cdbd 82d7 48bd e403 c03c abb9 43be
00000370: 78a1 b53d b3b1 a13d 6246 b6bd 9bdf 583d
00000380: 8a95 553e f7d9 aeb7 eacc 0abe e246 7b3b
00000390: fdae 9cbb 352a 7dbd 80e0 953d 8baf 9ebd
000003a0: f701 d93d a7d0 003d eb4a 7a3d 8727 a93d
000003b0: 1e65 4dbd 2379 bf3d 5076 9e3c 7ef9 49bd
000003c0: 58f9 18be 4425 fbbd 3939 65bd a3fc 753d
000003d0: cf8d 38be d356 713b 5386 fa3c bedd 873d
000003e0: c58b c13d c92f 863d 6de6 8ebc eda7 d13d
000003f0: 2aa4 9d3c 671c 7d3b be8b 3dbd a55f 8bbd

layers.block_2.layer.0.bias f4 [128]
-0.035277948 0.06869222 0.04642512 -0.019994576 0.006732896 -0.04816976 0.05802839 0.053809553
-0.0082810195 -0.021548739 -0.032597214 -0.0256093 -0.04305173 0.028294552 0.061306722 0.042987086
-0.03769093 -0.024832865 -0.06843741 0.0009645025 -0.010944135 0.036152963 0.0028205393 0.04059925
-0.0076164035 0.060221374 0.006054063 -0.00813079 -0.058420036 0.010055274 -0.026836775 0.00869823
0.10307757 -0.035404034 0.012272266 -0.04973602 -0.037471883 0.06945 -0.10530189 0.07456788
-0.063141875 0.058541816 0.041756947 0.0016204168 -0.08781554 -0.07955335 -0.039155442 0.07549991
-0.0026713633 -0.07781797 0.054883055 0.027363278 -0.02746124 0.06571555 -0.085551344 0.013509832
0.017190065 -0.05144239 0.033042725 0.06857496 -0.09566504 0.01082664 -0.060484603 0.047609046
0.050493322 -0.043515906 0.05254918 0.074399486 -0.057414487 0.044030633 -0.03989248 -0.04618911
-0.025895167 0.018408533 -0.11831142 -0.08304235 -0.052328803 -0.016890315 0.076806545 -0.012179795
0.09651162 -0.057923086 -0.03663836 0.038065072 -0.03006705 0.038379636 -0.02389348 0.020528022
0.081931956 0.036611877 -0.019463995 0.06946848 -0.079055816 0.06669303 0.050288804 -0.08813873
0.03549707 0.07836456 -0.10773424 0.040187024 0.0038453923 0.04883979 -0.0422547 0.041769207
-0.080588 0.048966832 -0.03684781 -0.086417094 -0.03073733 0.0900963 -0.058502816 -0.02378641
0.0690474 0.018315356 -0.01393124 0.029055417 -0.027846754 0.036569335 0.0062929243 0.06358468
-0.02738993 -0.049272 -0.0033997907 0.049104813 -0.035734646 -0.005307633 -0.022666454 0.0543791
00000000: 9c7f 10bd 82ae 8c3d 4428 3e3d aacb a3bc
00000010: a09f dc3b a74d 45bd 2daf 6d3d 6867 5c3d
00000020: 1dad 07bc fb86 b0bc a884 05bd 98ca d1bc
00000030: 0357 30bd fac9 e73c c21c 7b3d 3a13 303d
00000040: ce61 1abd 4b6e cbbc ea28 8cbd abd6 7c3a
00000050: 074f 33bc 2115 143d ccd8 383b 664b 263d
00000060: 0693 f9bb b0aa 763d 2961 c63b 0137 05bc
00000070: d949 6fbd e0be 243c ccd8 dbbc 0583 0e3c
00000080: 551a d33d d203 11bd 9d11 493c ffb7 4bbd
00000090: 1e7c 19bd cd3b 8e3d 84a8 d7bd 0bb7 983d
000000a0: 8750 81bd 8bc9 6f3d 5509 2b3d 2a64 d43a
000000b0: a2d8 b3bd deec a2bd 7561 20bd b29f 9a3d
000000c0: 0a12 2fbb 075f 9fbd 0ecd 603d f428 e03c
000000d0: 65f6 e0bc e095 863d 8b35 afbd 5858 5d3c
000000e0: 2ed2 8c3c 41b5 52bd cf57 073d 0771 8c3d
000000f0: 08ec c3bd 3862 313c b4be 77bd b401 433d
00000100: 16d2 4e3d bc3d 32bd cf3d 573d c25e 983d
00000110: 742b 6bbd 7759 343d 4c66 23bd cb30 3dbd
00000120: 1a22 d4bc 7ecd 963c 424d f2bd 1c12 aabd
00000130: ba56 56bd 8f5d 8abc c04c 9d3d c38d 47bc
00000140: e2a7 c53d c240 6dbd 1b12 16bd 1fea 1b3d
00000150: 2d4f f6bc f733 1d3d 42bc c3bc 622a a83c
00000160: f1cb a73d 56f6 153d f572 9fbc 7e45 8e3d
00000170: 04e8 a1bd 5b96 883d a2fb 4d3d 1482 b4bd
00000180: 6065 113d 997d a03d c5a3 dcbd 269b 243d
00000190: fa02 7c3b 3b0c 483d 4413 2dbd 3016 2b3d
000001a0: 520b a5bd 7291 483d bbed 16bd 72fb b0bd
000001b0: dacc fbbc 6984 b83d a6a0 6fbd b8db c2bc
000001c0: b968 8d3d 160a 963c db3f 64bc a005 ee3c
000001d0: e01e e4bc bac9 153d e034 ce3b af38 823d
000001e0: d960 e0bc 70d1 49bd 06cf 5ebb 2122 493d
000001f0: 7e5e 12bd a7eb adbb 00af b9bc 9fbc 5e3d

layers.block_3.layer.0.weight f4 [128, 128]
0.0025992629 -0.01476991 -0.024920972 0.030075144 -0.027428579 -0.046645135 -0.084977776 0.0078051277
0.045534194 -0.0013228253 -0.0008784128 -0.08343042 -0.012220711 0.24440736 -0.08442668 0.035282053
-0.06667559 -0.021317717 0.060409646 -0.00084630784 0.07381241 -0.09495612 0.047703486 0.19347835
0.054511387 -0.0842985 -0.081972346 -0.015116697 0.016147565 0.04809827 -0.07490991 -0.07683656
-0.041275296 -0.08369445 0.041306708 0.1410375 0.04876563 -0.14721046 0.19747391 0.03142478
-0.056245524 -0.010083324 0.05774557 0.04378403 0.09207699 -0.115595244 -0.12241857 -0.07703975
0.14908683 -0.029369833 0.09434151 0.030409543 -0.006679455 -0.08089744 -0.08659229 0.01971661
0.0536835 -0.0012163378 -0.0398656 -0.017167727 -0.08224429 -0.0026613064 0.05262984 0.030381093
0.012250127 -0.045812037 0.015916321 0.08560992 0.06562677 0.124275 0.14133161 -0.014256591
-0.04529591 0.07381344 -0.049232226 -0.031301953 0.01809179 0.07027998 -0.00876908 -0.038214456
0.01995429 0.06573081 -0.034144465 0.048368044 -0.09960169 -0.027022773 0.060266986 -0.0757332
-0.040795095 -0.094064765 -0.099042766 0.020935701 0.11132857 -0.11792359 0.09762419 -0.08382323
0.09249739 -0.04661028 0.02539703 0.11735449 0.051801395 -0.07121151 -0.06745459 -0.09823482
-0.15137261 0.036473505 0.17479782 -0.12815216 -0.026834453 -0.0020947608 -0.016969701 0.089960195
0.08474383 -0.018782483 -0.08636059 0.02375625 0.0199452 -0.014922979 -0.26298606 0.060941137
-0.058165267 -0.042592146 0.0043373033 -0.0023975826 -0.068762325 -0.04096716 0.104627736 0.050456114
-0.0024672654 -0.04412307 -0.12880631 0.008367899 0.03700561 -0.08382722 -0.09254052 0.08900541
-0.021428168 -0.09752846 -0.08037018 -0.027938332 0.083648056 -0.02155654 0.054396164 -0.028505025
0.1105941 -0.034002744 0.025763469 0.1013541 0.17077324 0.08109845 -0.025663467 -0.016307563
0.07467447 -0.013852281 -0.040509716 -0.021802861 -0.06893116 0.054640353 0.027352141 0.012892423
-0.04283163 -0.07785227 -0.03834384 -0.1251484 -0.027258927 0.11356927 -0.09019056 -0.10567643
0.03975396 -0.12688607 -0.012831724 -0.07545666 0.13963811 -0.03622388 0.0014404359 0.01108321
-0.05292351 0.12771472 -0.00904454 0.068329036 0.1364627 0.114214174 -0.045761418 0.09555767
0.018338552 0.070655756 0.0057874075 -0.06668612 -0.00070061535 0.014822572 0.08150124 0.016297603
0.01637104 0.07018973 -0.019424785 0.024145141 0.08433776 0.07611507 0.0060384287 -0.03552469
0.029427374 0.09833652 0.12121471 -0.051021986 -0.01642395 0.025044456 -0.05932183 0.042935383
-0.071609706 0.02121101 -0.017495327 -0.031628385 0.057505634 0.084384814 0.08417465 0.077403404
-0.030626573 -0.022623269 0.061567694 -0.05860421 0.08913678 -0.047292322 0.12637234 0.020640641
0.053521153 -0.064572185 0.08661673 0.08292295 -0.027081797 0.0382097 -0.05358015 -0.028990045
0.07087574 0.069145374 -0.13689739 -0.098317325 -0.004647521 -0.073976815 0.008299842 -0.011311245
0.0069815656 0.11229536 0.07679902 -0.039429475 0.06274201 -0.03464698 -0.053294916 -0.0027389813
0.01637475 -0.06800583 0.052796338 0.10070337 -0.022414118 0.00910012 0.087486364 0.003010031
00000000: 6558 2a3b 7efd 71bc 1127 ccbc 2660 f63c
00000010: e6b1 e0bc f80e 3fbd d408 aebd 28c2 ff3b
00000020: 1082 3a3d a762 adba 4945 66ba 91dd aabd
00000030: 6139 48bc ec45 7a3e e5e7 acbd ea83 103d
00000040: 368d 88bd 7ea2 aebc 1b70 773d c2da 5dba
00000050: f62a 973d 5b78 c2bd bb64 433d 301f 463e
00000060: 5547 5f3d b1a4 acbd 1ee1 a7bd 06ac 77bc
00000070: e647 843c b102 453d 5e6a 99bd 7d5c 9dbd
00000080: 4910 29bd ff67 abbd 3931 293d 226c 103e
00000090: 78be 473d 57be 16be 9a36 4a3e 45b7 003d
000000a0: b561 66bd 8734 25bc 9e86 6c3d e256 333d
000000b0: dc92 bc3d 33bd ecbd 96b6 fabd 04c7 9dbd
000000c0: 38aa 183e 0199 f0bc 1f36 c13d 6f1d f93c
000000d0: 54df dabb 8fad a5bd 4c57 b1bd ba84 a13c
000000e0: 3be3 5b3d 866d 9fba 1d4a 23bd 55a3 8cbc
000000f0: b26f a8bd 5069 2ebb 6392 573d c5e1 f83c
00000100: c2b4 483c 67a5 3bbd f262 823c 4154 af3d
00000110: 5467 863d e483 fe3d 3cb9 103e 7a94 69bc
00000120: 3488 39bd 802b 973d bba7 49bd 7a36 00bd
00000130: 3c35 943c f3ee 8f3d 30ac 0fbc c386 1cbd
00000140: 2e77 a33c e09d 863d 11db 0bbd 921d 463d
00000150: f9fb cbbd dd5e ddbc 84da 763d 021a 9bbd
00000160: c218 27bd 07a5 c0bd efd6 cabd 5981 ab3c
00000170: 3c00 e43d ec81 f1bd 31ef c73d 83ab abbd
00000180: 466f bd3d 6cea 3ebd 6f0d d03c 8d57 f03d
00000190: b32d 543d 57d7 91bd a225 8abd 562f c9bd
000001a0: 6c01 1bbe 3e65 153d 33fe 323e 523a 03be
000001b0: edd3 dbbc 4148 09bb 0b04 8bbc 0d3d b83d
000001c0: 2c8e ad3d b9dd 99bc d2dd b0bd 789c c23c
000001d0: 1e64 a33c 837f 74bc 1ca6 86be 6a9d 793d
000001e0: b43e 6ebd 1a75 2ebd f01f 8e3b c320 1dbb
000001f0: 43d3 8cbd 2ecd 27bd 1147 d63d 12ab 4e3d
00000200: d8b1 21bb 64ba 34bd cde5 03be 8319 093c
00000210: 3293 173d 9bad abbd e285 bdbd 7848 b63d
00000220: 208a afbc 00bd c7bd 1f99 a4bd eede e4bc
00000230: ac4f ab3d 5797 b0bc 83ce 5e3d 5f83 e9bc
00000240: 297f e23d 7646 0bbd e90d d33c bd92 cf3d
00000250: 2edf 2e3e f216 a63d 313c d2bc 7097 85bc
00000260: eeee 983d adf4 62bc 84ed 25bd ea9b b2bc
00000270: c82b 8dbd 90ce 5f3d 9911 e03c be3a 533c
00000280: 3870 2fbd 0371 9fbd 6e0e 1dbd e726 00be
00000290: 1d4e dfbc 0197 e83d d4b5 b8bd e26c d8bd
000002a0: 0cd5 223d 6cee 01be 273c 52bc 0589 9abd
000002b0: 4bfd 0e3e 7e5f 14bd 02cd bc3a 5a96 353c
000002c0: 53c6 58bd a6c7 023e 8d2f 14bc 18f0 8b3d
000002d0: e1bc 0b3e 1fe9 e93d 5370 3bbd bdb3 c33d
000002e0: bb3a 963c f7b3 903d 4ba4 bd3b bc92 88bd
000002f0: 80a9 37ba 5fda 723c 1fea a63d 8d82 853c
00000300: 8f1c 863c a2bf 8f3d ba20 9fbc 08cc c53c
00000310: 47b9 ac3d 38e2 9b3d 03de c53b 5682 11bd
00000320: ad11 f13c a864 c93d 6b3f f83d 6efc 50bd
00000330: 858b 86bc 082a cd3c 72fb 72bd 03dd 2f3d
00000340: 1ca8 92bd b6c2 ad3c 5c52 8fbc c48c 01bd
00000350: 078b 6b3d f2d1 ac3d c263 ac3d ad85 9e3d
00000360: 94e4 fabc 6f54 b9bc 682e 7c3d f80a 70bd
00000370: 588d b63d 98b5 41bd c067 013e 9016 a93c
00000380: ff38 5b3d 6c3e 84bd 1d64 b13d 82d3 a93d
00000390: a5da ddbc c681 1c3d dc76 5bbd 887c edbc
000003a0: 4d27 913d 179c 8d3d d42e 0cbe 985a c9bd
000003b0: 3b4a 98bb 2881 97bd 0ffc 073c cd52 39bc
000003c0: 9ec5 e43b 1cfb e53d ce48 9d3d cd80 21bd
000003d0: e27e 803d fee9 0dbd c54b 5abd 7b80 33bb
000003e0: 5724 863c a446 8bbd f940 583d 923d ce3d
000003f0: d09d b7bc ab18 153c 0d2c b33d f143 453b

layers.block_3.layer.0.bias f4 [128]
-0.05879445 -0.08578458 0.024253117 -0.06366056 -0.09617819 -0.011770724 0.011265859 0.03175422
-0.07198407 -0.07361028 -0.06816006 -0.055772755 -0.055941377 -0.08126931 0.064172134 0.06568136
-0.04606565 -0.023353588 -0.07965496 0.029339343 0.04859038 0.084343955 -0.03057418 -0.0012869823
0.027812995 0.024736946 0.03369051 -0.061269417 0.026716424 -0.071946874 0.03323037 0.057242323
0.0238287 -0.05302761 0.049022526 -0.07037697 0.062904656 0.09969973 -0.018056456 -0.0033259492
-0.07732455 -0.012134209 -0.0052485117 -0.042181775 0.0748081 0.03140863 0.00909391 0.06559597
0.027384587 -0.08020298 0.028565606 -0.0056403643 0.070396475 -0.09853406 0.043109033 -0.054200925
-0.07566043 0.09244175 0.09448269 0.031193152 0.028114391 -0.08253188 0.0037802705 -0.061864942
-0.002077148 -0.074676685 0.033363055 0.028240215 -0.014674285 -0.006086502 -0.0060060844 0.03041411
-0.02758488 -0.04526493 -0.010864474 -0.02454695 0.0030849464 0.052088186 -0.0026735154 0.024646668
-0.09217693 -0.0068232864 -0.0090175355 -0.07017695 -0.03858681 0.02928794 0.02339231 0.07320353
-0.00135711 -0.044717822 -0.050643887 0.049096305 0.039532114 -0.03830313 -0.0115195075 -0.0066601285
-0.042127907 -0.00856573 0.08053937 0.057114005 -0.014601038 -0.012395745 0.053923134 0.033270795
-0.07705778 0.03133937 -0.053104263 -0.07619543 -0.06518003 -0.06487234 -0.062374867 -0.086043365
0.0007247667 0.0033410029 0.05978751 -0.0473346 -0.008462614 0.053577922 -0.07507482 0.043808095
0.09539911 -0.058358748 0.010858491 0.092507884 -0.055959944 0.06449825 0.008257368 -0.028641863
00000000: 73d2 70bd d3af afbd 79ae c63c 7860 82bd
00000010: 12f9 c4bd ffd9 40bc 7094 383c b710 023d
00000020: 626c 93bd fdc0 96bd 8097 8bbd f971 64bd
00000030: c922 65bd 8670 a6bd ae6c 833d f383 863d
00000040: 56af 3cbd 0650 bfbc 2422 a3bd 1059 f03c
00000050: b506 473d 86bc ac3d b476 fabc f6af a8ba
00000060: 14d8 e33c 23a5 ca3c 0fff 093d a4f5 7abd
00000070: 67dc da3c e258 93bd 921c 083d ed76 6a3d
00000080: 6834 c33c 7b33 59bd d8cb 483d cd21 90bd
00000090: 28d4 803d 5f2f cc3d 22eb 93bc 2bf8 59bb
000000a0: 555c 9ebd 90ce 46bc b5fb abbb ccc6 2cbd
000000b0: fd34 993d 56a6 003d a0fe 143c 2e57 863d
000000c0: a455 e03c 7641 a4bd 6b02 ea3c ced2 b8bb
000000d0: 072c 903d 3acc c9bd 1993 303d ca01 5ebd
000000e0: dbf3 9abd 1a52 bd3d 2480 c13d c888 ff3c
000000f0: 2750 e63c 7906 a9bd 6abe 773b 1866 7dbd
00000100: c320 08bb 17f0 98bd b3a7 083d 0658 e73c
00000110: 6a6c 70bc 4871 c7bb b0ce c4bb 0327 f93c
00000120: b0f9 e1bc b867 39bd e800 32bc af16 c9bc
00000130: d02c 4a3b 6c5a 553d 2536 2fbb cfe7 c93c
00000140: 42c7 bcbd e095 dfbb 49be 13bc efb8 8fbd
00000150: 340d 1ebd 43ed ef3c 3ba1 bf3c bbeb 953d
00000160: 0ee1 b1ba 092a 37bd f76f 4fbd 3519 493d
00000170: 6dec 213d bee3 1cbd 51bc 3cbc 353d dabb
00000180: 508e 2cbd 4757 0cbc d3f1 a43d 60f0 693d
00000190: 3139 6fbc 8617 4bbc 81de 5c3d f546 083d
000001a0: 78d0 9dbd b65d 003d db83 59bd 590c 9cbd
000001b0: 1c7d 85bd cadb 84bd ca7c 7fbd 8137 b0bd
000001c0: 45fe 3d3a baf4 5a3b c0e3 743d ede1 41bd
000001d0: c7a6 0abc 8674 5b3d d4c0 99bd 1e70 333d
000001e0: 9c60 c33d 9509 6fbd d0e7 313c c674 bd3d
000001f0: 4136 65bd a917 843d e949 073c 57a2 eabc

layers.output.weight f4 [2, 128]
0.5910768 -0.1117726 -0.37830913 -0.08096985 -0.038312826 0.60215753 -0.13455296 -0.29373232
-0.12287295 0.72721404 0.07856676 -0.724094 0.37126526 -0.0698127 0.08243017 0.06966479
0.105474785 -0.23812449 -0.1255821 -0.19650325 -0.6749087 0.20849971 0.16852988 0.19823378
0.19715667 0.030819539 0.062071897 -0.119342946 0.14760545 0.910996 -0.597573 0.07431613
0.693443 -0.057691872 0.8290856 0.99286133 -0.9265661 0.21470498 -0.12289528 0.07469191
0.8002297 -0.16303915 -0.45328856 0.3576841 -0.64602494 -0.039133675 0.09551226 1.3700863
-0.1272474 -0.35925886 0.17137244 0.053542465 -0.311399 0.089037046 0.036363248 -0.48820537
0.73467255 -0.045354158 0.021987371 0.7324274 -0.039142482 -0.16528694 -0.29722252 0.09847336
-0.24607046 -0.34022298 -0.06158057 -0.6433936 4.3902164e-05 -0.03734534 0.08021079 0.15131399
0.06634676 -0.047201104 -0.11385273 0.07213292 -1.0010527 -0.0796135 0.85509306 0.049161218
0.23706739 -0.26563686 0.36143133 0.048049983 -0.0771981 -0.11767019 -0.0060236277 -0.12191928
1.0152532 -0.11481068 0.056421593 0.1312597 -0.69497275 0.32627374 0.010701822 -0.76379204
-0.2026861 -0.116302215 -0.028888753 -0.950039 -0.13015752 0.32485574 -0.49745405 -0.16773841
0.33342886 0.106474414 -0.15818012 -0.59069294 0.13356376 0.18173416 0.090474404 -0.099867694
0.23262826 -0.036919974 0.035606015 0.5775812 0.38525373 0.19932996 0.51051956 -0.27916092
-0.17609482 -0.27537245 -0.15186714 -0.06697852 -0.20455402 0.79771966 0.16235599 -0.73787266
-0.12890199 -0.12192873 0.38949347 -0.14812301 0.041823823 -0.2477892 0.11055527 0.8817343
-0.177874 -0.5049413 -0.087001115 0.73574835 -0.2698686 0.4277995 -0.31234816 -0.022295939
-0.3960584 0.20071802 -0.13836926 -0.12263982 0.19184685 0.08358968 0.025247274 -0.26661253
0.053649127 0.2501927 -0.13682394 0.14682417 -0.27814075 0.04382795 -0.09979643 0.14841838
0.08444456 0.19910373 -0.53560275 -0.27402514 -0.010069139 -0.044148874 0.021695828 0.16866745
-0.29204088 -0.04510088 0.08324205 0.048424218 0.36532864 0.16006427 0.11608425 -0.0396189
-0.049287636 -0.13702343 -0.022762302 -0.28659847 -0.6474613 0.26499563 0.21789438 -0.35311115
-0.7299524 0.28675875 -0.2489021 -0.52964664 -0.12252147 -0.098877795 0.1148069 0.17139164
0.27409405 0.22036068 -0.2717764 -0.63659185 0.14249107 -0.21399415 0.24746661 0.04781508
0.14531364 0.060137022 -0.051006414 0.021640142 -0.475624 -0.14914548 -0.53433007 -0.0553464
-0.19607429 0.41490644 0.047884934 0.31771484 -0.27433816 -0.19241042 -0.22307384 -0.08295047
-0.6705025 -0.20655707 -0.17125067 -0.018171635 0.74543804 -0.6790327 0.40931302 0.48295495
-0.73388165 -0.14443386 0.006234007 0.00938685 0.17865367 0.06042687 0.46287107 0.25494567
-0.20330569 0.21816514 -0.20153566 -0.26161382 0.21728861 0.34022132 -0.31192076 -0.16730863
-0.35684413 -0.22401017 0.3105487 -0.176659 -0.37827802 0.13634223 -0.3419493 -0.22921647
0.47780553 0.008322049 0.33626118 -0.043817014 -0.025056697 0.41187185 -0.32784358 0.4272141
00000000: cf50 173f 08e9 e4bd bcb1 c1be 85d3 a5bd
00000010: e9ed 1cbd ff26 1a3f 40c8 09be 1564 96be
00000020: d0a4 fbbd b32a 3a3f 9ce7 a03d 395e 39bf
00000030: 7b16 be3e f6f9 8ebd 26d1 a83d 6aac 8e3d
00000040: 2a03 d83d e8d6 73be 9898 00be 2638 49be
00000050: d1c6 2cbf f380 553e 1993 2c3e ccfd 4a3e
00000060: 70e3 493e 4279 fc3c 1a3f 7e3d 136a f4bd
00000070: e225 173e 0937 693f 8bfa 18bf 0e33 983d
00000080: 7b85 313f 504e 6cbd f43e 543f 292c 7e3f
00000090: 7033 6dbf 9fdb 5b3e 85b0 fbbd 12f8 983d
000000a0: dbdb 4c3f bcf3 26be 7015 e8be 5f22 b73e
000000b0: e461 25bf a24a 20bd ef9b c33d fd5e af3f
000000c0: 244d 02be c7f0 b7be 427c 2f3e 584f 5b3d
000000d0: b16f 9fbe 0e59 b63d a1f1 143d 0ef6 f9be
000000e0: 8013 3c3f 48c5 39bd dc1e b43c 5d80 3b3f
000000f0: de53 20bd fb40 29be 8d2d 98be 67ac c93d
00000100: e5f9 7bbe b531 aebe e83b 7cbd 71b5 24bf
00000110: 9723 3838 6df7 18bd 8e45 a43d 0ef2 1a3e
00000120: cfe0 873d f255 41bd 9f2b e9bd 6dba 933d
00000130: 7f22 80bf 670c a3bd 61e7 5a3f 465d 493d
00000140: cbc1 723e 8e01 88be 870d b93e 0fd0 443d
00000150: 0a1a 9ebd 12fd f0bd da61 c5bb d1b0 f9bd
00000160: d1f3 813f dd21 ebbd 541a 673d f168 063e
00000170: bce9 31bf 5a0d a73e b256 2f3c e087 43bf
00000180: f28c 4fbe db2f eebd 1ba8 ecbc c235 73bf
00000190: 0348 05be 7e53 a63e 4cb2 febe 9ec3 2bbe
000001a0: 30b7 aa3e 420f da3d f8f9 21be a737 17bf
000001b0: f0c4 083e 8518 3a3e a54a b93d 6f87 ccbd
000001c0: 1a36 6e3e 6639 17bd 9dd7 113d 5ddc 133f
000001d0: fa3f c53e 271d 4c3e 69b1 023f 2eee 8ebe
000001e0: 3352 34be 9efd 8cbe 0f83 1bbe 092c 89bd
000001f0: 9c76 51be 5b37 4c3f a640 263e 39e5 3cbf
00000200: e2fe 03be c5b5 f9bd b06b c73e 8fad 17be
00000210: 754f 2b3d 74bc 7dbe cd6a e23d 57b9 613f
00000220: 9a24 36be d543 01bf a42d b2bd 015a 3c3f
00000230: 382c 8abe 8908 db3e 19ec 9fbe f9a5 b6bc
00000240: 2bc8 cabe 0689 4d3e acb0 0dbe 962a fbbd
00000250: 8073 443e 1131 ab3d 5fd3 ce3c 7081 88be
00000260: 30bf 5b3d 4219 803e 931b 0cbe 1359 163e
00000270: 7768 8ebe f084 333d 1262 ccbd fdfa 173e
00000280: 45f1 ac3d d9e1 4b3e 431d 09bf 064d 8cbe
00000290: 08f9 24bc 73d5 34bd 73bb b13c 29b7 2c3e
000002a0: 6286 95be b3bb 38bd cf7a aa3d 7958 463d
000002b0: 5b0c bb3e e3e7 233e 94bd ed3d 6d47 22bd
000002c0: d5e1 49bd df4f 0cbe 0278 babc 09bd 92be
000002d0: 06c0 25bf 82ad 873e b41f 5f3e fcca b4be
000002e0: 29de 3abf 0bd2 923e 31e0 7ebe ec96 07bf
000002f0: 89ec fabd 7180 cabd e11f eb3d 4a81 2f3e
00000300: 0e56 8c3e 3ba6 613e 4726 8bbe aff7 22bf
00000310: 2ee9 113e 4821 5bbe e367 7d3e bfd9 433d
00000320: 19cd 143e 3d52 763d 1aec 50bd ab46 b13c
00000330: fd84 f3be 98b9 18be dbc9 08bf e8b2 62bd
00000340: b3c7 48be 9e6e d43e fe22 443d 85ab a23e
00000350: 0d76 8cbe 3d07 45be 786d 64be f0e1 a9bd
00000360: 0da6 2bbf b283 53be 565c 2fbe aedc 94bc
00000370: 07d5 3e3f 16d5 2dbf 7a91 d13e df45 f73e
00000380: abdf 3bbf 78e6 13be a446 cc3b 4dcb 193c
00000390: fdf0 363e 2a82 773d 70fd ec3e 3d88 823e
000003a0: 5e2f 50be af66 5f3e 5d5f 4ebe 3ff2 85be
000003b0: e880 5e3e 7d31 ae3e 14b4 9fbe f452 2bbe
000003c0: 46b4 b6be ec62 65be 3d00 9f3e 19e6 34be
000003d0: a8ad c1be 4c9d 0b3e fb13 afbe b9b7 6abe
000003e0: eda2 f43e 3459 083c 6d2a ac3e 7879 33bd
000003f0: b443 cdbc dee0 d23e 1ddb a7be cebb da3e

layers.output.bias f4 [2]
0.18308862 0.012848163
00000000: 957b 3b3e 1a81 523c
