results/SMOTE20K/smote420/smote0.35/model.pth (torch, 205093 bytes, 10 tensors)

layers.block_0.layer.0.weight f4 [128, 2]
00000000: 156d 153e 0fb9 423f 6bb8 0b3f 9f10 2e3f
00000010: ba4a a93e a415 42bf 2a74 a7be 1bfc 02bf
00000020: 12f9 c2bf 0399 a43e 834b 81bf 18fb 3fbf
00000030: 3d3e a53e 8581 25be de3d bb3e 98d3 1e3f
00000040: 26f7 56bf d2bc 28bf 57cb 81bf f20f 823e
00000050: d88c 6e3f e565 2fbe 4c50 bcbe 48f8 4bbf
00000060: 9396 653f 827d e4be d84d fdbe a869 27bf
00000070: 0d90 1f3f 79ae c6be e69a 1e3f 43aa 053f
00000080: 62d9 aebe 858b 08bf 9404 2c3f 300a d73e
00000090: cac4 763f 9ca2 abbe 752c ec3d 1e07 0b3f
000000a0: 3608 683f 6649 81bd 5943 e4be 88a5 ed3e
000000b0: e2d2 99bf 7835 823e 89ff 433f abc0 9a3e
000000c0: 520c 8b3f 1712 123f ccb8 343f 76c1 53bd
000000d0: 12c4 1bbe 7470 4e3f c196 e8be 6e5c 07bf
000000e0: db47 263f 651d 19be 6b96 373f c3ef e23e
000000f0: 91b8 3f3f 7eac 0dbe abe2 7cbe bfca fc3e
00000100: 3a47 25bf b705 033d 240b c43e d8e4 b9be
00000110: 35d5 babc d729 1a3f c687 c33c 70a5 bf3e
00000120: 1176 5f3f 3500 8ebe 80f3 5f3f e7ba 933e
00000130: e09a a23f b40c 003c 7ef1 233f e445 e53e
00000140: ba2d 31bf e9df ffbd b8e2 9d3f 3c7b b63d
00000150: c485 3d3f cd1a 84be fb74 73bf 719f dc3e
00000160: 405a 6abf a568 8fbe b10c f0bc 1771 eabe
00000170: 1771 72bf d56f 8ebd a319 55bd 3680 99bc
00000180: 7ca0 4ebf 3ffc ef3e 8535 ecbe 47e8 033f
00000190: d95c f4be 9f60 11bf 37b5 21bf d9a4 e03d
000001a0: 0688 313f e87b e8be b179 8abe 3f1e 0ebf
000001b0: 1029 403f 029e 8a3e 4c18 9f3f 8a9e abbe
000001c0: 2a99 fbbe 19b9 32bf 2278 893f cbc8 833e
000001d0: b13f 04bf 9e99 49bf aa30 f33c ec37 34bf
000001e0: d333 633e b745 cebe f4c4 f2bd b30c 2fbf
000001f0: 80a0 2cbf efac 51bc 9c33 5b3f 47bb e43e
00000200: b4a3 bebe 1158 183f f7b4 62be 76da 423f
00000210: 12aa 033f 49d7 343f 94e0 7e3f fd52 e73e
00000220: c13e 1ebe 0ee0 47bf 183c 3cbf d4fc d1bd
00000230: 3d32 d5be bc4a 1a3f af56 e43e c9f6 cfbe
00000240: 462a 4dbf c1f4 dfbe 10ad 3e3e 45aa 4cbf
00000250: 9da9 47bf aeb2 09bf 06ff bf3e ec40 e93d
00000260: c1ce 423f f79a 183e fee0 883c 9516 273f
00000270: fe5d 463f ff16 043f 4a19 3e3f ff82 09bf
00000280: 1d96 ab3e 60b9 babd 9125 313f e45a 0c3b
00000290: 4bf2 bf3e 0433 803e 3b00 01bf 8b84 373f
000002a0: f1c4 5b3f 2210 f4be a7e7 433f 263b e73c
000002b0: e29a 2abf 14b9 fbbe 9f59 873f 68ef 81bd
000002c0: f7ad 85bf 9ef1 2fbf aa78 80bc ba4a db3e
000002d0: 3722 ad3f 5926 b6be d2f2 27bf c8da f1bd
000002e0: c4a7 a33f bbc8 11be d3ee bf3e a94e 38bf
000002f0: c6cd 483e 1d0f 193f e622 1cbf eae9 fc3e
00000300: b6f8 8cbf 4eb3 fc3e af35 37bf 4db6 0bbc
00000310: 0ae6 aebf e9c1 263d c9f9 86bf dafb cdbe
00000320: ca87 a3bf 1526 68be 87f4 9fbd 70f1 00bf
00000330: 7a7f 06bf bc88 d03e 1146 5fbf 380d 12bf
00000340: a4f9 783f 1a60 cf3e 80f4 bf3e 6f6e 093f
00000350: 5219 5e3f 7247 d13e f29f 65bf a3d4 f13e
00000360: 4c2c 453f 031f 933d 98d4 6c3f c2a1 2d3e
00000370: 0fe8 f6be 34ee e6be a723 64be 2bd8 233f
00000380: 8aa8 423f 6d96 e0be 1fcb 28bf 6aaa 183f
00000390: d371 3a3f 5238 77be 49c3 383f a2fd 0abe
000003a0: b208 383f c7d4 103f 0591 c6be 0938 58bd
000003b0: 9a01 18bf 5a2c be3e 5580 8dbf c1de 0d3e
000003c0: 05e4 61bf 40e5 e7bd bbc6 353f 3b1d 2b3d
000003d0: 7873 aabe bdb5 6bbe a650 373f 8cff 3fbe
000003e0: 687f aebe 4b0a 2abf 5dc8 28bf 6082 da3e
000003f0: b637 9dbf 1a7a d6be d34d 623f df50 06bf
0.14592393 0.76063627 0.54578274 0.6799411 0.33064824 -0.7581427 -0.32705814 -0.5116593
-1.523226 0.3214799 -1.0101169 -0.74992514 0.32274047 -0.16162689 0.36570638 0.62041616
-0.8397087 -0.65913117 -1.0140179 0.2540279 0.9318366 -0.17128713 -0.36780012 -0.7967572
0.89682883 -0.44627005 -0.49473453 -0.65395594 0.6232918 -0.38804987 0.61955106 0.52212924
-0.34150225 -0.5333789 0.67194486 0.4199996 0.96394026 -0.335225 0.11531917 0.54307735
0.9063753 -0.06312828 -0.44582632 0.46415353 -1.2017481 0.25431418 0.7656179 0.3022512
1.0863135 0.5705885 0.7059448 -0.05169817 -0.15211514 0.8064034 -0.45427516 -0.5287541
0.6495339 -0.1495262 0.71713895 0.4432355 0.74891 -0.13835332 -0.24695842 0.49373433
-0.6456181 0.031987872 0.3828975 -0.36307406 -0.022806743 0.6022009 0.023868453 0.37430906
0.8728953 -0.27734533 0.87480927 0.28853533 1.2703514 0.007815529 0.6404036 0.44779885
-0.692104 -0.12493879 1.2334814 0.08910224 0.74032235 -0.25801697 -0.95100373 0.43090394
-0.9154396 -0.28009525 -0.029302927 -0.45789406 -0.9470381 -0.06954924 -0.052026402 -0.018737894
-0.8071363 0.46872136 -0.46134582 0.515263 -0.47727087 -0.5678806 -0.63167137 0.10968942
0.6934818 -0.45407033 -0.27045968 -0.555149 0.75062656 0.27073675 1.242929 -0.33519393
-0.49140292 -0.69813687 1.0739787 0.2573913 -0.51659685 -0.78750026 0.02968629 -0.7039783
0.22187738 -0.40287563 -0.11853972 -0.6837875 -0.67432404 -0.012797578 0.85625625 0.4467413
-0.3723427 0.5950938 -0.22139345 0.76114595 0.5143138 0.70641 0.9956143 0.45180503
-0.15453626 -0.78076255 -0.73529196 -0.10253301 -0.4163989 0.60270286 0.44597384 -0.4061797
-0.8014263 -0.4374142 0.18620706 -0.7994731 -0.77993184 -0.5378827 0.37499255 0.11389336
0.7609673 0.14902864 0.016708847 0.6526883 0.7748717 0.5159759 0.7425734 -0.5371551
0.33512965 -0.09117389 0.69197947 0.002141648 0.37489542 0.25038922 -0.50390977 0.7168662
0.85847384 -0.47668558 0.7652535 0.028226446 -0.6664258 -0.4916464 1.0574225 -0.06344491
-1.0443715 -0.68728054 -0.015682537 0.4283045 1.3526067 -0.35576132 -0.6560489 -0.11809307
1.2785573 -0.14236729 0.37486896 -0.71995026 0.19609746 0.59788686 -0.6099075 0.49397212
-1.10134 0.4935555 -0.7156629 -0.008527351 -1.3663952 0.04071227 -1.0544978 -0.4023121
-1.2775815 -0.22670777 -0.07810312 -0.50368404 -0.52538264 0.4072932 -0.8721629 -0.5705142
0.9725592 0.40503007 0.37491226 0.53684133 0.86757386 0.4087482 -0.8969718 0.4723254
0.77020717 0.071836494 0.9251189 0.16956237 -0.48223922 -0.4510361 -0.22279225 0.6400172
0.7603842 -0.43864766 -0.6593494 0.5963503 0.7282993 -0.24142578 0.7217298 -0.13573316
0.7188827 0.5657467 -0.38782516 -0.052787814 -0.59377444 0.37143213 -1.1054789 0.13854505
-0.88238555 -0.11323023 0.71006364 0.041775923 -0.3329122 -0.23018546 0.71607435 -0.18749827
-0.34081578 -0.66421956 -0.6593073 0.42677593 -1.2282627 -0.4189003 0.884 -0.5246715

layers.block_0.layer.0.bias f4 [128]
00000000: 657c b33e 44a6 103f 0436 3b3f efc5 373f
00000010: fba8 88be bc15 343f 6f45 d53e a07b 21be
00000020: 291c 2a3f 12bb 5ebe 44bf 0e3f cea6 27bf
00000030: 36d7 26bb c4ef 943e 99ca 2abf 6dc1 10bf
00000040: 8baa eabe 3ec3 953e 069a 9d3e 0113 9b3e
00000050: 9ec9 82be a855 afbd 53aa 52be e7a1 0abf
00000060: 57e7 fcbe 0468 14be 4470 0a3f c141 dc3e
00000070: 15ec 1dbf 2bdb c2be c347 9abe 166f 4bbc
00000080: 1f71 1a3f c8b0 b2b9 e191 babd f711 183f
00000090: a5a8 8f3b 9e61 50be b787 513e bb05 d63e
000000a0: 776b 96be 7862 933b 1c29 053e a2c6 5dbe
000000b0: 6469 fb3e e5f4 3d3f d080 5ebc 638b 363f
000000c0: 1f94 fabe 53b9 e43e 9a88 8ebe 550c c6be
000000d0: 27c8 2a3f a89e a5be 876e 31be 04e6 963e
000000e0: 274a 233f 106e 78be 46a5 0abf f849 01bf
000000f0: f665 3a3f e971 f43d 1ec9 483e 43d2 85be
00000100: 6218 71be 2679 d23e 9050 1a3f a79c 1bbf
00000110: ea48 4dbe f578 a2be c4c4 30bf d89c c13e
00000120: 4f7d 633e d695 c5be b56c e43e 0683 343f
00000130: 6af9 49be 8d9f 273f d605 08bf b08b bc3e
00000140: 4eb5 ee3e b9c6 9bbe a147 d2be 633b ccbe
00000150: 9f03 e63e 3951 bd3e 2890 023f af61 113e
00000160: a2bc 383f ed5e 47be 4885 b43e 97f1 84be
00000170: 0373 f23d aa78 2b3f 46cd 263f b8bc eebe
00000180: ad70 f7be 6fb2 cd3e 8adc 2cbc 908a fd3e
00000190: 91ae 1f3e 0946 273f 9c9f 51be f139 353f
000001a0: 41c5 b5be 8f8f 603d b10e bfbe d422 dbbe
000001b0: bc82 283d d0a5 a0be e6fd 013f 44c1 f63e
000001c0: 5465 a43e d67e 0bbf cd89 0c3f f153 103e
000001d0: afc3 113f d811 23bf 2df6 0fbf a964 49be
000001e0: f85f 423e a56a 0d3f de10 1fbe 86d5 583c
000001f0: c6f7 453e 12ee 4fbe 53a0 683e 556a ff3e
0.35055843 0.565037 0.73129296 0.717864 -0.26691422 0.70345664 0.41654536 -0.15769815
0.6644922 -0.21751049 0.557606 -0.654889 -0.0025457866 0.29089177 -0.6671539 -0.56545144
-0.4583324 0.2925052 0.30781573 0.30287936 -0.25544447 -0.085612595 -0.20572786 -0.54153293
-0.49395248 -0.14492804 0.54077554 0.43018916 -0.6168836 -0.38057837 -0.30132875 -0.012416622
0.6032886 -0.00034082518 -0.091098554 0.5940241 0.0043841177 -0.20349738 0.20461927 0.41801247
-0.29378864 0.0044978224 0.13003963 -0.21657804 0.49103844 0.74201804 -0.013580516 0.7130644
-0.48941132 0.4467264 -0.27838594 -0.38681284 0.6671166 -0.32347608 -0.17327319 0.29472363
0.6378502 -0.24260736 -0.5415844 -0.5050349 0.7281183 0.11935789 0.1960797 -0.2613698
-0.23544458 0.41108054 0.6027918 -0.6078591 -0.20047346 -0.31732908 -0.6905024 0.37814975
0.2221577 -0.38590878 0.44614187 0.70512426 -0.1972405 0.6547783 -0.53133905 0.36825323
0.466227 -0.3042505 -0.41070274 -0.39889058 0.44924638 0.3697603 0.51001215 0.1419742
0.7216283 -0.19469805 0.35257936 -0.25965568 0.11838343 0.66980994 0.6515697 -0.46628356
-0.48328152 0.40175197 -0.0105506275 0.49519777 0.15593936 0.6534124 -0.20471042 0.70791537
-0.35502055 0.05482441 -0.37315896 -0.4280001 0.041140303 -0.31376505 0.50778043 0.48194325
0.32108557 -0.5449041 0.5489777 0.14094521 0.56939214 -0.636991 -0.5623501 -0.19667305
0.18981922 0.5524085 -0.15533778 0.013234502 0.193328 -0.2030566 0.22717409 0.49885812

layers.block_1.layer.0.weight f4 [128, 128]
00000000: dce5 583d aa5c 863d 60af 39bd 1b60 30bd
00000010: 5dab 31be 1613 ebbd 84e0 29bc ea68 3fbc
00000020: dd01 94bd 1cf3 9ebd 5acc 7d3d 1bb8 9bbd
00000030: 4967 803d 0efc c8bd 57b6 9d3c 1da5 0d3d
00000040: 451e d7bc 0117 883d 06ae 9e3d 2cfb 2e3d
00000050: 27e5 563c feb6 7bbd 08fc d8bd a2dd 9a3d
00000060: 97da f13d c381 1e3e e56d 4cbd d538 e9bd
00000070: f486 ae3c d56c 0e3e 4ce6 173d 29ef 633c
00000080: 7748 3abd bd5d 4ebb 3f14 e7bd 6e45 6f3c
00000090: aad2 103e 297f e83d a690 e83d 2d16 f1bc
000000a0: a517 c2bd 1b66 193e f6cc 213e 90fc c3bd
000000b0: d6dc 9fbd 4069 813d b3a1 97bd af3b 0c3d
000000c0: b9d6 dabc 3544 55bc 1b63 c8bd f55f 18be
000000d0: 3c43 da3d b335 5e3d 7353 3e3e 67c4 103d
000000e0: d3b7 f0bd 8863 143e 55db 71bc 8f38 be3d
000000f0: e821 41bd c95a 823d 03e9 33bd 7d8a 183e
00000100: dd82 dcbd 5c26 7d3c b9e3 44bb c8cb 863d
00000110: 9181 033d 084a 82bc bd36 74bd 6514 b43c
00000120: afcb 2dbd a84e 9c3d 561b b5bd 1963 793d
00000130: 31f9 e93c 0c6b 533c 2726 5fbc 3afc 0a3e
00000140: 5f44 f83a 7023 0e3d 20fb e33c 21ed bcbc
00000150: cec1 0d3e a086 293a ad39 963c 3b5a 3e3e
00000160: a0d2 9bbd 3f84 ac3c d34c d33d abff 04be
00000170: b4cb cb3d 7405 07bd 27d4 453a c04d 89bd
00000180: 758f 57bd 6e54 24bd 5e9b 32be 7a73 da3b
00000190: 0c5e c1bd 6ac6 493d 3dad a6bd 642d 113c
000001a0: b6d8 8b3c 9eaf 403b f615 f43d 43e7 86bc
000001b0: 5ff3 f13d 8c12 283e 3ea0 48bd 421b 123d
000001c0: f86d 173e b916 f4bc 4005 5f3d d074 0e3e
000001d0: edff a13d 585f d7bc 18c1 5abd eef3 43be
000001e0: 544f 29be 9cfe c13d 88bf d0bd f091 1c3e
000001f0: e04d 82bb cdf3 a5bd 7f8c 1abe 8f5e 073e
00000200: c4c7 9b3d 84ae f73c d1bf 1f3e f338 a33d
00000210: c471 f73a 36ae 1f3e 06ac dbbc c152 52bd
00000220: 924a dd3d 135d 823d 5033 5f3d 0baf 37bc
00000230: ad5a 9dbc 2cbe 263e fd2b b0bd a05a 38be
00000240: be56 84bd 4e1c edbd 0d3b a0bd aae2 82bc
00000250: 91e9 96bd 3d4c 303d 2dc7 af3d 6dab e8bd
00000260: 218a d3bd ad54 79bd f928 073d 4f8e e33d
00000270: 5046 99bd fa50 93bd d599 3fbd 7ce0 59bd
00000280: 97da 5e3d 5933 a5bd 0009 5abd 0a84 373c
00000290: 746a eabb 9ae4 54be 4f60 09be 6f60 40bd
000002a0: c701 8b3c cab7 15be 69dc 7c3d 0b41 adbd
000002b0: 6c79 733d 7a25 bc3d debb bf3d eac4 503b
000002c0: 721e 52bd 2743 923d 5d9f 393d 9730 b1bc
000002d0: b591 5c3d c341 293d 7ef6 0bbe 84f8 2cbd
000002e0: f41c ec3d 1dde f4bd b8e5 1f3d 46bd b6bc
000002f0: 6b0a 7b3c 1132 6f3d d156 e9bb 2a11 87bd
00000300: da04 c2bc 9e95 cc3d 0900 843d 8d48 edbd
00000310: 4aee ae3d ffc0 ca3d 5c78 ccbd 26b0 783c
00000320: 6256 4d3d 5837 b6bc 203f b53d 3545 a2bd
00000330: cf2b 24be ea00 993d 3f05 21be f249 223d
00000340: c7dd cc3a ff0f cbbd b3e0 97bd a093 d9bd
00000350: 66d8 943d f81e 0dbd fb61 533d 8acf e3bd
00000360: 7e50 233e 0a3d 9bbc ba36 4c3d ce6b 2f3d
00000370: 7d6a eebc cfba f63d 4071 9d3d d0e9 73bd
00000380: ea8c 853d 23cd 7e3d 8352 f53d 4c9f 3a3d
00000390: 7886 2f3e 456f bc3d c49b 16bd 151a ce3d
000003a0: c60e d7bd 9b27 edbd baea 2cbd 37a7 f03c
000003b0: 5028 22be 46fc 93bd ff5a 3b3e b63c 853d
000003c0: a0ab 6abd d966 fabd bd88 193c 0201 b1bd
000003d0: 6727 4abd 2605 103c 4c3a fa3a f86e 763d
000003e0: f932 123e 6162 8bbd 9c88 913b 29ab 07bd
000003f0: bad8 093e b3f5 963c 36d1 3e3e ecf5 063d
0.052953586 0.06560643 -0.045333266 -0.043060403 -0.17350526 -0.1147825 -0.01036847 -0.011682728
-0.07226918 -0.07761213 0.061962463 -0.07603475 0.062697 -0.098137006 0.019251985 0.034581292
-0.02625955 0.06645013 0.07748036 0.042720005 0.013116158 -0.06145381 -0.10594946 0.07561804
0.11809271 0.15479188 -0.04990949 -0.11387793 0.021304585 0.13908704 0.037084863 0.013912001
-0.045479264 -0.0031488978 -0.112831585 0.014603956 0.14142862 0.11352379 0.113557145 -0.02942952
-0.09477166 0.14980356 0.15800843 -0.09569657 -0.07805793 0.06318903 -0.074038886 0.034236606
-0.026713716 -0.01301675 -0.09784528 -0.14880355 0.10657355 0.05425043 0.18586521 0.035343554
-0.11753812 0.14491093 -0.0147617655 0.092881314 -0.047151476 0.06364972 -0.04392339 0.14896579
-0.10767148 0.01545104 -0.003004296 0.06581837 0.032105986 -0.015904441 -0.059622515 0.021982381
-0.042430576 0.0763219 -0.088431045 0.060885523 0.028561207 0.01290394 -0.013619936 0.1357278
0.0018941275 0.034701765 0.027829707 -0.02306229 0.13843462 0.0006466899 0.018338049 0.18589108
-0.07608533 0.021059154 0.103173874 -0.12988155 0.09950963 -0.032964185 0.0007546567 -0.06704283
-0.052627046 -0.04011958 -0.1744208 0.006666598 -0.09441766 0.049261488 -0.08138511 0.00886092
0.01707111 0.002940155 0.11918251 -0.016467696 0.118139975 0.16413325 -0.048980944 0.035670526
0.14788043 -0.029795991 0.054448366 0.13911748 0.07910142 -0.02629058 -0.053406805 -0.1913602
-0.16534168 0.09472391 -0.10192782 0.15290046 -0.0039765686 -0.08103142 -0.15092658 0.13219665
0.07606462 0.030234583 0.15600516 0.079698466 0.0018878509 0.155938 -0.026815426 -0.05134845
0.10805239 0.06365409 0.054492295 -0.011211167 -0.019208277 0.16283482 -0.0860214 -0.1800332
-0.06461857 -0.11577664 -0.07823763 -0.015977222 -0.07368768 0.043041456 0.08582912 -0.11360822
-0.103290804 -0.06087177 0.03299806 0.111111276 -0.07484114 -0.071931794 -0.046777565 -0.0531926
0.054407682 -0.080664344 -0.05323124 0.011200914 -0.0071538035 -0.2079033 -0.13415645 -0.046966966
0.016968621 -0.14620891 0.061733637 -0.084596716 0.05944197 0.091868356 0.09362005 0.0031855651
-0.051298566 0.071417145 0.045317996 -0.021629615 0.053849895 0.04132248 -0.13668248 -0.04222919
0.1152896 -0.11956427 0.039037436 -0.02230705 0.015322308 0.058397356 -0.007120945 -0.06595071
-0.023683954 0.09989475 0.06445319 -0.115861036 0.08541544 0.09900092 -0.09983894 0.015178716
0.05013121 -0.022243187 0.08849931 -0.079233564 -0.16032337 0.074708775 -0.15724657 0.0396213
0.001563006 -0.099151604 -0.07415905 -0.1062386 0.07267837 -0.034453362 0.051607113 -0.11123569
0.15948674 -0.018950004 0.04985688 0.04282742 -0.029103512 0.1204735 0.07687616 -0.059549153
0.06521018 0.062207352 0.119786285 0.045562074 0.1714114 0.092009105 -0.036769643 0.100635685
-0.10500865 -0.1157982 -0.04221604 0.02937661 -0.1583569 -0.07225852 0.18296431 0.0650572
-0.05729258 -0.12226648 0.00937098 -0.0864277 -0.049353983 0.00879029 0.001909086 0.06016442
0.14277257 -0.06805874 0.004441334 -0.033122215 0.13461581 0.018427705 0.18634495 0.032949373

layers.block_1.layer.0.bias f4 [128]
00000000: e541 8abd 8890 e3b9 5149 e03b fab7 15bd
00000010: 460a 4fbd 2a0f a23d 348f b63c fbc5 bb3a
00000020: c212 883d 74b8 023c 8aa9 173d 7861 353d
00000030: 1bdf c5bc 4b7b 02bc c63c 8f3b 828f 663d
00000040: 0e94 9d3d 7847 00bd 852f 73bd ddaf e93c
00000050: a6e9 94bc 6d04 9cbd 0583 343d dde8 90bc
00000060: 8d36 2dbd b503 973c 3ba7 9a3b a663 b73b
00000070: c972 b73a 2ec7 36bc a268 f7bb becf 95bc
00000080: cd7d 82bd f785 933b b56a a9bd 1de0 c1bc
00000090: 10a3 f4bb 0b19 cc3c 21b5 833d 6a46 64bd
000000a0: daa1 86bd 9124 283d f271 433a 04cf 973d
000000b0: bb85 bcbc b2fc cabc cba7 7f3d 4a5a 6cbd
000000c0: 8579 9d3c c2f0 2ebc d885 6fbc bc27 723c
000000d0: c46a 2ebd df6f dd3d 7d7b 3fbc a28f 3dbd
000000e0: 942c 763d f3e9 54bd 9f81 80bd 5574 ca3d
000000f0: db39 733d ac98 09bc 13af a9bd fdf7 813c
00000100: 331e 46bd 4f82 37bd 94c9 243c 99a1 d0bd
00000110: 0832 4dbd 29e2 5d3d eed5 15bd 6c0e 60bd
00000120: 8775 54bc e4c4 eb3a 8849 4dbd fdaf 8bbc
00000130: 7b31 95bd f10e dbbc 2304 03bd ce74 2e3d
00000140: 8095 4dbd 47ae a73b b9cf 4f3d 7adb 80bd
00000150: 3e56 713d 8b58 243d 2d28 093d ed83 743c
00000160: f2e6 a63c daef fabc 1d27 aa3d ac8c e33c
00000170: 5f81 1cbd cc20 a0bc 2022 833d e3c6 3b3d
00000180: 8fdf 9fbd 4561 a2bd c9f8 aebd c569 99bd
00000190: d1bb d0bc cdfc fabb d7cc baba 143b ad3d
000001a0: 2e8f eb3c b613 c73d 2de0 6c3d f13b bcbc
000001b0: 0908 a03b e8b9 903d a733 a23d c487 b93c
000001c0: 8dad 4fbd 557c 8dbd f50f 24bd fa8b 52bd
000001d0: 0ef4 15bd 67e2 9abd 9f81 39bd 9391 453d
000001e0: df27 603c b034 6fbd 914c 323b bf45 783d
000001f0: 20ff 323c 6e43 d0bd d43a bd3c 24f2 ce3c
-0.0675085 -0.00043404498 0.0068446775 -0.036552407 -0.050546907 0.079130486 0.022285081 0.001432597
0.06644203 0.007978547 0.03702692 0.044282407 -0.024154237 -0.007963966 0.0043712584 0.056289203
0.07694255 -0.031318158 -0.05937149 0.028526241 -0.018177819 -0.07618032 0.044070262 -0.017689163
-0.04228835 0.018434385 0.0047196425 0.005596596 0.0013996001 -0.011155887 -0.007550315 -0.018287536
-0.06371651 0.004502054 -0.08272306 -0.023666436 -0.0074657276 0.024914285 0.06431032 -0.055731215
-0.065738395 0.041050497 0.0007455639 0.07412532 -0.023012986 -0.024778698 0.06241588 -0.057703294
0.019222984 -0.010677518 -0.014619313 0.014779981 -0.04258229 0.10812353 -0.011687157 -0.046279557
0.060101107 -0.051980924 -0.06274723 0.0988547 0.059381347 -0.008398216 -0.08285346 0.01586532
-0.048368644 -0.044802006 0.010057826 -0.10187072 -0.05009654 0.05417076 -0.036580972 -0.054701254
-0.012967474 0.0017987755 -0.050118953 -0.017051691 -0.07284828 -0.026740523 -0.031986367 0.042591862
-0.050191402 0.005117211 0.05073521 -0.06291862 0.058920138 0.040123504 0.03348558 0.014924032
0.020373795 -0.030631948 0.083082415 0.027777039 -0.038209315 -0.019546889 0.06402993 0.04584397
-0.07806312 -0.07928709 -0.08543546 -0.07490877 -0.025480183 -0.0076595307 -0.0014251721 0.08458534
0.028754797 0.097205564 0.05783098 -0.022977801 0.0048837704 0.07066709 0.07920008 0.022647746
-0.05070262 -0.0690848 -0.04005428 -0.051403023 -0.0366097 -0.07562714 -0.045289632 0.048234534
0.013681381 -0.058399856 0.0027206282 0.06061339 0.010925084 -0.10169111 0.02309934 0.025261946

layers.block_2.layer.0.weight f4 [128, 128]
00000000: b396 a93d 49ab 03be 3473 95bd 9b2a 583d
00000010: 40d5 fa3d 2110 69bc 2928 1e3d c38d 3fbe
00000020: 3621 afbc 8b6f 99bd 6254 9d3d e571 bcbc
00000030: 47bc da3d 550f f1bd 9213 4fbd 4d06 b8bd
00000040: a440 01bd 3e37 4e3d 3f95 7cbd 360f e53d
00000050: 4227 9c3d 5045 c03a d40e debd a699 7bbd
00000060: d034 143d 969f 1cbe 07fa 873c 5099 f63c
00000070: 74fa 8f3d 7a69 8d3b 8156 0e3d 299b a0bd
00000080: 6fec a13d 5cf4 1abd 07ce adbc fdce ccbd
00000090: 5bc8 843b fdbf 113d 7b07 963d f467 d9bd
000000a0: acba a03c 6797 bcbd fe7f f53c 8733 a2bb
000000b0: 7f7b eebb 8aab fbbc 130e 46bc f164 bf3a
000000c0: ab93 883d 544d b5bd 9f58 853d dca4 3fbc
000000d0: 6ac0 87bd 4466 c33b 3b50 163c 600c 80bd
000000e0: dd5c d23b 231e d63c 1742 09bd a3f1 a6bd
000000f0: ee42 d43b 033c 833d ff50 e03d 18c0 3c3d
00000100: 3727 953d a16a 803c 953c 8d3d 9197 85bd
00000110: 62cf 3b3d 8fea 153d e087 e7bb 8bc9 083b
00000120: 071f f2bd 39a6 4d3d 4a36 db3c 1188 b23d
00000130: d143 44bd 270e 2fbd 1765 833d 2e21 a9bb
00000140: cd2e adbd b4f1 afb9 38ac 33bd 27bd 94bc
00000150: db58 fdbd dc21 56bd 43ed d43d 8f99 113d
00000160: 0b49 763c e682 30be e106 20bd a25c 7dbd
00000170: 8a77 b23d 84b9 833d 8fef df3d dffd 38bc
00000180: 360e d23d 64d5 69bd 0ff3 9fbc 6fd8 4abc
00000190: 825e 003d a95f d23d 2777 dfbd 12a0 1f3d
000001a0: 5b46 acbb 1854 ec3d 3e91 cd3d a766 2d3d
000001b0: 9beb 0f3e 15ee f4bc ecca 19be 7690 ef3c
000001c0: a9a1 893d 393b 283d 7b5b 963c cc9e 9e3d
000001d0: 38e2 4a3d 774c 033d bfc6 9ebd c605 2e3d
000001e0: a842 3dbd 29aa 0fbc 3f53 22bc 6be9 d8bd
000001f0: e86f 7f3d 0cec 1cbc aea1 863d 1152 61bd
00000200: 8b99 33bc 6e00 fa3c b4fe e2bc d9b3 4dbb
00000210: 70ba ac3d 1474 a2bd 10e4 7dbd 3e8c dc3a
00000220: 5b13 bd3c 7134 3abd cf7e 24bd 0278 b2bd
00000230: 9be8 213d 4c3b fabc 46d9 9bbd 8f24 00bc
00000240: c74e 8ebd 6218 86bb 2f9b e03d 8c13 ff3c
00000250: b3ec 91bd b0cb 4ebd 3548 f1bc b76b 843d
00000260: fcd4 4f3d 0143 8bbc e053 9b3d 59a9 8b3d
00000270: d0cb 3bbc 2a30 8fbd 586c 9dbd 9b27 a13d
00000280: a245 df3c ad69 4f3d 1005 5bbc 8df1 cebc
00000290: 286b c13c 524f 313c ea05 9c3d 44bb cfbc
000002a0: d7fa 39bd 727d 333d 45da 6fbd 4b54 be3d
000002b0: 9420 46ba 0bf9 1bbd 9c63 8c3c 1cd4 47bc
000002c0: 3035 37bd 3157 0e3d 20df 283d 049d 293c
000002d0: 171c fcbc 6d02 82bd ff4e a93d cc56 803d
000002e0: 9f28 2e3c 1eb2 85bd 6529 523d 607d 9e3d
000002f0: 8fd8 16bd 9211 96bd f4a1 3e3d beca 87bd
00000300: 8d9e adbc e239 ecbb 6337 123d 7d48 00bd
00000310: 84d7 813d ea4b a63d a552 47bd 2dc5 83bd
00000320: f63c 0c3c 91b8 953c de0f d63a fb58 803d
00000330: cfe4 b63d 8124 093d 43eb fd3c cac8 6ebd
00000340: f589 8dbc ab07 f2bc 41e8 c5bd 3e03 3d3c
00000350: 6c2c 87bd a998 a63c 1ab0 333d 54b6 a5bd
00000360: 8061 0a3d a01d 803c 35c9 71bd 333e f63c
00000370: 62ea 4b3b ea92 c03d efcf 263d 9bf4 8a3c
00000380: 5c34 15bc d3ae 733d ca02 fcbc 4707 c9bd
00000390: 4c1e 54bd f408 aabd 8b28 80bc f373 2ebd
000003a0: 9ac6 9f3d 5a8e 8a3c 3e33 7abc 3258 b7bc
000003b0: ee80 983d 1476 0cbd 9542 97bd 7b6e 95bd
000003c0: 97de afbd bf0e 963d 4487 5abc be97 89bd
000003d0: 4dfd 573d e368 d6b9 a088 26bd 9f22 b3bb
000003e0: e8de e2bc 0b8d 803d bc96 a53c 1d3e 77bd
000003f0: f3cb 81bd 0812 513d 6e56 b03d 8f23 9abc
0.08280697 -0.12858309 -0.07297364 0.052775007 0.122477055 -0.014225037 0.03861252 -0.18706422
-0.02137814 -0.07491978 0.0768211 -0.023003528 0.10680442 -0.117705025 -0.050555773 -0.08985577
-0.031555787 0.05034565 -0.06166577 0.11184542 0.07624675 0.0014669094 -0.10842672 -0.061425827
0.03618318 -0.15295252 0.016598715 0.030102402 0.07030192 0.0043155523 0.034750465 -0.078420945
0.07906424 -0.037830696 -0.021216406 -0.100004174 0.0040522045 0.035583485 0.073256455 -0.106155306
0.019620262 -0.09208565 0.029968258 -0.00494999 -0.0072779055 -0.030721445 -0.0120883165 0.0014602226
0.066687904 -0.0885264 0.06511044 -0.01169702 -0.06628497 0.0059631187 0.009174402 -0.0625236
0.0064197616 0.026137417 -0.033510294 -0.08151557 0.006477705 0.06407931 0.10952949 0.046081632
0.0728287 0.015675845 0.06896321 -0.065230496 0.045852073 0.036600646 -0.007065758 0.0020872082
-0.11822324 0.05020735 0.026759285 0.08717359 -0.047916237 -0.042738106 0.06415766 -0.005161426
-0.08456192 -0.00033558684 -0.043865412 -0.018156601 -0.123704635 -0.052278385 0.103968166 0.035546836
0.015032063 -0.17237434 -0.03906906 -0.06185592 0.087142065 0.06431869 0.10934364 -0.011290996
0.10256617 -0.05708827 -0.019525079 -0.012380703 0.03134013 0.10272152 -0.109113984 0.038971014
-0.0052574105 0.11539477 0.100374684 0.042334225 0.1405472 -0.029898683 -0.15018815 0.029243689
0.06720287 0.041072104 0.018354168 0.07745132 0.049532145 0.032055344 -0.077527516 0.042485975
-0.046206146 -0.008768597 -0.009907543 -0.10591396 0.06236258 -0.009577762 0.06573807 -0.055009905
-0.0109619 0.030517783 -0.027709343 -0.0031387715 0.08433998 -0.079322964 -0.061985075 0.0016826463
0.023080518 -0.04546017 -0.040159997 -0.08714296 0.03952847 -0.030545853 -0.07609801 -0.007821216
-0.06948619 -0.004092262 0.10967099 0.03113725 -0.07125225 -0.05048722 -0.029453376 0.064658575
0.050740227 -0.016999723 0.07584357 0.0681941 -0.011462167 -0.069916084 -0.076866806 0.07868882
0.027254883 0.05063789 -0.013367906 -0.025261665 0.023610666 0.010822134 0.076183155 -0.02535785
-0.045405235 0.043820806 -0.058557767 0.09293421 -0.0007557955 -0.038079303 0.017137341 -0.012196567
-0.044728458 0.03475112 0.041228414 0.010352377 -0.030775113 -0.06348119 0.082670204 0.06266555
0.010629802 -0.06528114 0.05130901 0.07738757 -0.03682762 -0.0732757 0.04654117 -0.06630467
-0.021193767 -0.0072090486 0.035697352 -0.03131913 0.063399345 0.08119948 -0.0486628 -0.06434093
0.008559456 0.018276485 0.0016331633 0.06266972 0.089303605 0.03348208 0.03099597 -0.058296956
-0.017277697 -0.029544672 -0.096634395 0.0115364175 -0.0660027 0.020336466 0.043869115 -0.08091417
0.03378439 0.015639126 -0.059029777 0.030058956 0.0031115045 0.09403022 0.040725645 0.01696234
-0.009106722 0.059492897 -0.030763049 -0.09815841 -0.051786706 -0.08302489 -0.015644332 -0.042591047
0.07801552 0.016913582 -0.015271006 -0.022380922 0.074464664 -0.034292296 -0.073857464 -0.07296463
-0.085873775 0.07327031 -0.013337914 -0.06718396 0.0527318 -0.00040895407 -0.04065764 -0.0054667736
-0.02769418 0.06276902 0.020213477 -0.06036197 -0.06337728 0.051042587 0.08610235 -0.018815784

layers.block_2.layer.0.bias f4 [128]
00000000: af28 9e3c 8088 bcbd 56a6 e0bc 27ef 3dbd
00000010: 0fc9 c8bd bec0 1cbd 8d06 bc3d cd12 8bbd
00000020: 2cba b73d ec01 a63c 43f6 93bd a591 81bd
00000030: 4933 febc 35d8 8bbc 936a 92bd 9c15 3cbb
00000040: 7339 94bd faba 9fbb 61ca be3d b1bd 463d
00000050: 0653 823d b611 e6bc 94f1 67bd 3f8d 583d
00000060: 254d a73c 3940 a23d fe73 0f3d 0641 afbd
00000070: 98a8 15bd 7f60 07bd f935 57bd 258f 88bd
00000080: 4544 8f3c 7c0f 873d ff63 a43d 460e 0a3d
00000090: 08e6 6b3d 6404 5d3c 5eec 8abb 3382 98bd
000000a0: 2c3e 3dbd 8da2 1fbc 1868 c73b 4f7d a2bc
000000b0: fd1b 99bd cf1f cf3c 86a5 553c 3eed 8abc
000000c0: 8d37 88bc 7b78 5d3d 4c78 2fbd 36d7 1ebd
000000d0: 4f55 1ebd 3344 523d 10c1 acbd 1c27 75bd
000000e0: 2c60 afbd a01e 273d b27d 833b 3d0d 14bc
000000f0: e7e0 863d 5d92 eebb 6dba 2ebd c87d 90bd
00000100: 9ea2 dc3d e908 95bc ebcb 203d 35d4 a1bd
00000110: c62c 10bd 413e 913d f67a 753c 5a91 303c
00000120: d1c7 903d fff3 563d b22c 1a3d 8a81 a53c
00000130: 38e8 14ba 1e1a 49bc 73ec 6d3d 60a5 26bc
00000140: 79ad d63d a150 65bd de05 eabb 290e 1f3d
00000150: 52ef d23c 066b b33d 8640 a0bc c1ca cbbc
00000160: 4207 56bd 14e4 9fbd b0e2 ad3c b9a1 65bd
00000170: bb66 c6bd 488c 7f3c 70dc a63b 773a db3d
00000180: f17f 663c 11f1 f53c ffbc 8cbd c3ae 073d
00000190: f996 a3bd b694 f53c 913a 27bc 3abf 233d
000001a0: 1933 b33c 57fc 743b 252b ae3b f3d6 cc3d
000001b0: fdcb 133d 9b55 593c c051 61bd 9ba6 57bd
000001c0: 2e44 adbd 9adf 9cbd 5c5f d83c 0be2 4b3d
000001d0: 2cb8 b8bc c283 63bd f5b1 673d 56b8 bb3c
000001e0: 46dc e13c 2a3d c1bd 2fb4 69bb b646 a4bc
000001f0: b1a5 ba3c 7958 f1bc c072 a53d 3933 5c3d
0.019306509 -0.09205723 -0.027423065 -0.04637065 -0.09803974 -0.03826975 0.09180937 -0.06790695
0.08971056 0.020264588 -0.07224705 -0.063266076 -0.031030314 -0.017070869 -0.07149234 -0.0028699404
-0.0723752 -0.0048745843 0.093159445 0.048520748 0.06363492 -0.028084617 -0.05662687 0.052869078
0.020422528 0.07922406 0.03502273 -0.08557324 -0.036537737 -0.03305101 -0.052541707 -0.06667928
0.017488608 0.0659475 0.08026885 0.03370502 0.05759242 0.013489816 -0.004239603 -0.074467085
-0.04620187 -0.009743345 0.006085407 -0.019835142 -0.074760415 0.025283722 0.013039952 -0.016958829
-0.016628051 0.054069977 -0.042839333 -0.03877946 -0.038655575 0.05133457 -0.08435261 -0.05985175
-0.08563265 0.04080069 0.004012787 -0.009036359 0.065858655 -0.0072806315 -0.04265826 -0.07055241
0.10773204 -0.018192725 0.03925697 -0.079018034 -0.03519895 0.07091952 0.014982929 0.010776842
0.07069362 0.052478787 0.03764028 0.02020337 -0.0005680355 -0.012274293 0.058086824 -0.010171264
0.10482306 -0.055985097 -0.0071418127 0.038831864 0.025748882 0.087606475 -0.019562017 -0.024876954
-0.052253015 -0.07807174 0.021226257 -0.056062434 -0.09687563 0.0155974105 0.005092196 0.10704511
0.01406859 0.030022176 -0.06871986 0.03312565 -0.0798778 0.029978137 -0.010206834 0.03997729
0.021874951 0.0037381852 0.005315202 0.10001936 0.03608321 0.013265039 -0.055009604 -0.05264912
-0.0846027 -0.07659836 0.026412658 0.04977612 -0.022548757 -0.055545576 0.056566197 0.022915047
0.027570855 -0.09435494 -0.0035660376 -0.020053249 0.022784086 -0.029461132 0.080785275 0.053759787

layers.block_3.layer.0.weight f4 [128, 128]
00000000: b653 bc3d fc6f 12bd 249d b33b 7c38 afbc
00000010: 210e a03d 9de4 cbbd cf8b aabd 0a0a 42bd
00000020: 1745 b33c 346b 023e 9d5d 1e3d 9994 2fbd
00000030: 37c7 8a3c 4570 5e3d 3d79 533d a9b2 4dbd
00000040: a614 7c3b 1de9 d0bb ba39 5dbc aba9 31bd
00000050: bbf8 3c3d 3ec6 843d e9a4 09be 8f93 80bd
00000060: 214d d4bd b61f 6d3d 8d6b 8b3c 1875 a13c
00000070: 4db7 f63d 564a 01bd 8f79 53bd 61bb cabd
00000080: c4d5 42bd 085f 863c dc34 babc 72cd 31be
00000090: 894e a7bd f3af e93b 3a9c 073e be58 d3bc
000000a0: 03b2 73bd 97f6 8bbd c798 b53a 3a97 d9bd
000000b0: d2e2 22be 282f bfbc 3cdd 8b3d 74d6 8d3d
000000c0: aac4 92bc 4cc0 c8bd aa24 663c b7f4 393d
000000d0: 192c 78bd 9aeb da3c be33 733d 8812 ce3c
000000e0: 206f f03c 4768 293b a7a3 f33c 5c88 083e
000000f0: 2069 b93d 8aba 3f3d 1e61 f23b 36d5 5bbd
00000100: be29 86bd 5d83 56bd c74d 84bd 4446 223c
00000110: 0d63 f13b d114 2239 4284 39bd b5fd 733d
00000120: 41f0 af3d 91a9 d83d 8a55 edbb 6318 183d
00000130: 31a2 bd3d f061 5c3c de5b 68bc 2819 3dbd
00000140: aea1 983d 9406 ca39 f04b 8e3e 466d d23d
00000150: ad1f 27bd e91c d3b9 ae0e cc3b f574 23be
00000160: 6dfc ad39 6a7a 2e3d b87c 2a3e d285 88bc
00000170: faf8 9e3d 0a54 84bc 4318 093e bd71 953d
00000180: a125 d4bc 086f 07be 249f 8dbd 37c2 59be
00000190: 0df6 85bc 7c3a 16be cace 9f3d c8aa 2ebe
000001a0: 7283 e7bd c375 8b3d 3798 0f3c 97ff 553c
000001b0: ec8a 74bd 5ee2 6c3c 5f4f 8a3d c98a ca3d
000001c0: 5b0b 39bc 0fb1 8e3d 3564 963d 4ff8 2cbd
000001d0: 073b d63c 9dc0 753d 173c d3bc b87d 163c
000001e0: aebf e93c b959 1dbe aee3 9d3c 6f5a 4c3d
000001f0: f5b3 883d f288 1b3d aba7 93bd 015e fbbc
00000200: 52f4 50bd 12d4 a63d 123b 47bd 8f55 663d
00000210: fb51 c13c bc6b 4a3d 656c afbc 8014 683d
00000220: c3ed c4bb d114 a1bd 1d18 34bd 5cb6 76bd
00000230: e470 d7bd 53e6 7a3d 9672 ffbd b54b 2d3e
00000240: 5479 b03d 7dd7 213d 8a85 2e3e d920 6f3e
00000250: 826f 7d3c a985 01be 5b7e d0bd d15f 34bc
00000260: 0907 c63c 7412 833d d9d0 073d da96 6ebd
00000270: b828 a93d a4a1 ccbc 3f8f 853d 346f 91bc
00000280: ba5a d3bd 1bc2 b13d bf57 393d 2530 d73c
00000290: 219d 5dbd e3a0 eb3d e094 24be e5c3 77bc
000002a0: 007a 88bd 503b 9f3d 7460 c4bc 8c85 873e
000002b0: 73ec b13d eac0 0a3d 2549 80bb 0dbe 313d
000002c0: 1126 d93c 387f 523d c467 a5bc 3196 b33d
000002d0: 05f0 babd 0de1 983c cd7f 74bd a3c8 833c
000002e0: e246 533c 8260 cbbd 7bc2 9b3d 75eb 55bd
000002f0: 7313 d5bd 70e9 adbd 21fc fc3a 90f8 9c3d
00000300: 224f 9e3d 2407 fbbd 565d ffbb 5220 87bd
00000310: c0fb 00bd 9e4f 0e3e 8b95 fd3d 67d5 98ba
00000320: ca97 bb3d bb92 f53c 1501 363d 7ac4 4a3d
00000330: b267 a5bc fe51 1a3c e445 833d 353e 78bd
00000340: 926c 1abd 982b f4bc eb17 74bd d3f0 9e3d
00000350: 8ee3 63bd dd4c 1bbd 19d1 89bc 8c83 9e3d
00000360: 180f d5bb b80d 76bc a1d6 233d 0a22 8a3c
00000370: bd2b 7ebd 1708 67bd 74fa 4abd fdc3 80bd
00000380: 0594 06be 8ba0 9abd 0e49 083d 854a 11bd
00000390: 526a 4a3d bfd7 dc3d 385b 50bd 11ca 8a3c
000003a0: d523 a43d 342a 23be d9e6 4b3d ddfc 9d3d
000003b0: 95ef 3e3d 8ac2 84bd 51e5 3b3d 5a0b 34bd
000003c0: 94b3 c33d b030 37bd a0a7 f9b9 7c2a db3c
000003d0: e640 52be 1f16 b8bc 2ab7 59bd 6e49 bebc
000003e0: 84ba 6c3d 49a2 e53c 4d54 653e fc66 c8bd
000003f0: fed9 48be a66d 853d 400f 9c3d bc47 aabc
0.09195654 -0.035751328 0.005481379 -0.021389239 0.07815195 -0.09955714 -0.083274476 -0.047372855
0.02188353 0.12736207 0.038663495 -0.042866323 0.016940696 0.054306287 0.051629294 -0.05021921
0.0038464456 -0.0063754455 -0.013502533 -0.0433747 0.046135645 0.06483124 -0.13441814 -0.062781446
-0.10366274 0.05789157 0.017019058 0.019709155 0.120466806 -0.031565033 -0.0516296 -0.09899021
-0.047567144 0.016402736 -0.022730283 -0.17363527 -0.08169276 0.0071315705 0.1324319 -0.025799152
-0.059495937 -0.06834143 0.0013854735 -0.10624547 -0.15906838 -0.023337916 0.068293065 0.06925669
-0.017916042 -0.09802303 0.014046827 0.045399394 -0.06058893 0.026723672 0.059375517 0.02515532
0.029349864 0.0025849508 0.029741121 0.13333267 0.09053254 0.046808757 0.007396831 -0.05367013
-0.065509304 -0.05237137 -0.06460147 0.009904448 0.007366544 0.00015457279 -0.045292147 0.059568126
0.08590747 0.10579217 -0.007242863 0.037132632 0.09259451 0.0134510845 -0.014182059 -0.04616657
0.07452713 0.00038533343 0.2779231 0.102747485 -0.040801693 -0.00040266596 0.006227336 -0.15962584
0.00033185203 0.042597212 0.16649139 -0.016665373 0.07762332 -0.016153354 0.13388161 0.072970845
-0.02589685 -0.13225949 -0.06915119 -0.21265493 -0.016352678 -0.14670748 0.07803114 -0.17057335
-0.11304368 0.06809571 0.008764318 0.013061426 -0.0597028 0.014458267 0.0675342 0.098897524
-0.011294211 0.06967365 0.07343332 -0.042228993 0.026151193 0.059998143 -0.025785489 0.009185247
0.028533783 -0.15366258 0.019273605 0.04989093 0.06674949 0.037972398 -0.072097145 -0.030684473
-0.051014252 0.08145918 -0.04864032 0.05623394 0.023598662 0.04941915 -0.021413991 0.056660175
-0.0060097887 -0.078652985 -0.04396831 -0.060232505 -0.10519579 0.06125481 -0.124730274 0.16923411
0.086168915 0.039512146 0.17043129 0.23352374 0.01546848 -0.12648644 -0.101803504 -0.011009173
0.024173276 0.06400004 0.033158157 -0.058249332 0.082597196 -0.02497942 0.06521463 -0.017753221
-0.10320039 0.08679601 0.045249697 0.026268074 -0.054104928 0.11505296 -0.16072416 -0.0151223885
-0.06663895 0.07774985 -0.023971774 0.26469076 0.08687677 0.033875383 -0.0039149695 0.043394137
0.02650741 0.051390857 -0.02019108 0.08768881 -0.09127811 0.018662 -0.059692193 0.016086882
0.012895318 -0.09930517 0.076054536 -0.052226502 -0.104041 -0.0849179 0.0019301214 0.07664597
0.07729937 -0.12257221 -0.007793109 -0.065979615 -0.031490088 0.13897559 0.12382039 -0.0011660279
0.09159811 0.029977193 0.044434626 0.04950378 -0.020191047 0.0094189625 0.06409815 -0.0606062
-0.037701197 -0.029805943 -0.059593122 0.07760777 -0.055636935 -0.0379151 -0.016823338 0.07739934
-0.0065020435 -0.015017919 0.039999608 0.016861934 -0.06205343 -0.0564042 -0.049555257 -0.06287382
-0.13142402 -0.075501524 0.033272795 -0.035471458 0.0494178 0.10783338 -0.050868243 0.016942056
0.08014647 -0.15934068 0.0497807 0.077142455 0.046615202 -0.06482418 0.04587299 -0.04395614
0.09555736 -0.044724166 -0.0004761787 0.026753657 -0.2053257 -0.022471486 -0.053153194 -0.023228373
0.057795063 0.028031485 0.2239544 -0.09785268 -0.19614407 0.065150544 0.07620096 -0.020786159

layers.block_3.layer.0.bias f4 [128]
00000000: 6511 b23b 0d7a 953d a39a 793d cd42 0abd
00000010: 9591 723d d65a cabc c387 433d 8a7b 81bd
00000020: d83e 1b38 f2f9 e43c dedd e13c f25b 983d
00000030: 5221 7cbd cd08 2e3d 74a9 2bbc 2388 72bd
00000040: ca06 9bbb 0191 bbbc 3849 f93b 8a17 aa3d
00000050: 65e4 50bd 35df 6b3d adfd 4bbd a1d7 b53d
00000060: d741 293c 982b c7bd 2332 e73d d2a3 6b3d
00000070: a07e 423d 6151 e63d b1ee 203d 4279 81bd
00000080: 829b 503d 5959 6cbd 7f7a 51bd a918 483d
00000090: 3f56 e13d cd7d 9abd 61e5 393d 737a 21bc
000000a0: 6ac9 883b 4482 24bd 972f ee3c c1c1 1cbd
000000b0: 59eb 5c3d 1624 6bbd 6b3c 6c3d 2f86 88bc
000000c0: d923 d73c 6044 1b3d dfe9 a13d 5da9 53bd
000000d0: 4a2f 2a3d 5b20 293a fefd 533d e40d e23c
000000e0: 4827 a63d 172c b43d fd80 e7bc d249 7c3d
000000f0: 7c87 85bc ebdd dc3c 91a7 babc 998c 843d
00000100: da2c 883d 52d7 6dbc 723a 713c 83f4 f73b
00000110: 91ce 20bc 1f21 803d 4f99 17bd 9dc3 ebbd
00000120: 4ea6 1dbd 337a e1bc c9cf 973d 29bd 33b9
00000130: 07b3 55bd d6de 383c b345 22bd dff8 d33c
00000140: 816a 213d e948 053c c405 9e3d dcce b3bc
00000150: 4a38 3a3d a827 6fbc b0dc 03bd e431 64bc
00000160: 1760 983d 52de 183d a046 803d 914b 5ebd
00000170: ff8a 853c 46c8 53bd 7a53 803d d475 69bc
00000180: da68 00be 9401 a13c b725 10bb d3fa 2e3d
00000190: a141 e23b 9ad8 7d3d d195 803d 9d74 10bd
000001a0: 9ca6 a3bb fe01 2dbc c807 fe3c 191c 9d3c
000001b0: c8b7 363d 80d3 913c 666c 44bd 0145 3dbd
000001c0: f777 77bc b8aa 163c bf09 1b3d c2c8 64bd
000001d0: c4a8 b1bd 479d 76bd 307a 1c3d eccf 79bd
000001e0: 9eb5 8dbc 7739 093d 5af8 b8bc 0f52 233c
000001f0: e141 08bd 0a96 c7bc c5f1 5dbd 5c49 023d
0.0054342025 0.0729867 0.06093849 -0.033755112 0.05922087 -0.024701517 0.047736894 -0.06322391
3.7013408e-05 0.027951214 0.027571615 0.07439412 -0.061555214 0.04248886 -0.0104774125 -0.05921186
-0.004731034 -0.022896292 0.0076076053 0.08305271 -0.050999064 0.057585914 -0.04980247 0.088790186
0.010330639 -0.09725112 0.1128886 0.057529278 0.04748404 0.112459905 0.039290134 -0.06321956
0.050929554 -0.057702396 -0.051142212 0.048851643 0.11002778 -0.07543526 0.04538477 -0.009855854
0.004174401 -0.040163293 0.029075427 -0.038270716 0.053935383 -0.05740746 0.057674807 -0.016665546
0.02626221 0.037907004 0.079059355 -0.05167519 0.041549005 0.000645166 0.051755898 0.027594514
0.08112961 0.08797472 -0.028259749 0.061593838 -0.016299956 0.026961287 -0.02278498 0.064721294
0.0664918 -0.014516668 0.014723407 0.00756699 -0.009814874 0.06256317 -0.03701144 -0.1151192
-0.03848868 -0.02752409 0.07412679 -0.00017141238 -0.052172687 0.011283597 -0.03961725 0.025875507
0.03940821 0.008135059 0.077159435 -0.021949224 0.045463838 -0.014596857 -0.032192886 -0.0139279105
0.07440203 0.037321396 0.06263471 -0.054271284 0.01630163 -0.051704668 0.06265922 -0.014249284
-0.12539998 0.019654073 -0.0021995136 0.042719673 0.006904796 0.061974145 0.06278575 -0.03526746
-0.0049942266 -0.010559557 0.03100957 0.019178437 0.04460886 0.017801046 -0.04795494 -0.046208385
-0.015104285 0.009195976 0.03785109 -0.05585552 -0.086747676 -0.060208585 0.038202465 -0.060989305
-0.017298516 0.03350207 -0.02257936 0.009968295 -0.033265952 -0.024363536 -0.054185648 0.031808242

layers.output.weight f4 [2, 128]
00000000: 0971 08bf 71c0 4a3e 04c1 80be 5c2c 67bf
00000010: d5fb 86bf d27a ea3e 1e77 1cbe b802 e23d
00000020: 5c8a 273d 294f 3f3e 8e1a 023d 2767 a5bd
00000030: 1e7a 523f 5179 393f 07ba b7be f52d 24bd
00000040: 9b86 1c3d e877 a9bd 2df1 2cbe 49ad 373c
00000050: 932e 3abf 9f2f 0e3e cfeb 223e edde 0f3f
00000060: 513d 8d3e 81c7 5bbe d685 e73d a017 433f
00000070: 0a27 083f 6d6a c43e 3343 de3b 1b07 d93d
00000080: ce27 27be 7104 f0bd ca44 ffbd 0acd 47be
00000090: b0c6 fe3d 39df 76be 4d0c 6bbd 1bd5 b6bc
000000a0: 3415 07bf afbc 64bf a373 dd3c 2e76 88be
000000b0: 58ad aaba 99e0 a6bc 9a1c bcbe 36c4 933f
000000c0: 8713 393e a2c7 0b3f fa3a 053e 45c3 01bd
000000d0: 5d28 4bbe b5c9 523f 36b5 1b3f 0591 5fbf
000000e0: af8b 14bf c41f bc3d b089 80bf 4a96 08be
000000f0: d35c 3a3e f9d1 0ebd 1859 2f3e 3ab2 d53e
00000100: 51d8 d1bd 80db d43c af61 1b3f 8a9b f43c
00000110: 7a67 68be dd43 893d 9683 4a3f efad 0d3e
00000120: 2b3a 773d d81b a5bd 3c24 163e ab5c 0cbe
00000130: 05c5 833d 5548 a73d ca7c b5bd 7bc3 6e3e
00000140: b0fd a03d bbe8 583a 35b8 5abd d689 5d3e
00000150: 0ea9 0f3e ad77 13be 0135 533f 56a7 9d3d
00000160: d052 e3bc 277e 16bf 251d 44be 5349 3b3e
00000170: 25c5 4f3e c573 35bd 01ed 0cbe 5d54 f63d
00000180: c5c3 303f 3ffd 01bc 27ac 39bf 0df8 53be
00000190: baa3 6cbf 6bd8 1bbf 00b5 823e 0fc9 603e
000001a0: bdd7 453e f770 16bd bb7d 0ebe 3bc0 20be
000001b0: e977 16bd e656 863f 6206 febd 16fe b43e
000001c0: 3739 d43d fe9d 9ebd a193 773d 4d7a df3e
000001d0: e4f2 9a3e 82a7 103e 9fd1 05be dab6 523e
000001e0: c56f b63e 3760 b33d 7c29 ae3e 1b1f 80bf
000001f0: cc8a 8dbe ebff 1abe eb87 ad3e 1d6e 69bd
00000200: 37a0 333c c7a6 78be 6745 d8bd a897 e93d
00000210: fd33 fb3e 3873 d9be 7bce 39be 7aa4 36bc
00000220: a6e7 3abe 21b2 a03d 26ea a53d 2847 c73e
00000230: 80a1 ec3c 6d4d 06bf dac6 263f dc1f 0a3d
00000240: 03ac b8be a60d 6d3e 21bb 9fbd fc6e 6d3e
00000250: 96cf 663e ace0 78bc 67af 5fbd 8c3b c0bd
00000260: 0fbf da3d c436 1a3e 3004 893e dbfe b8be
00000270: 19b4 3fbf 5c57 6cbc fb4a 823c fc17 57be
00000280: 1cdc 33bd 863d e13d 2153 23be d920 e1bd
00000290: b707 a33d 6e2f 23bd 77d4 4bbe ec8c 143e
000002a0: d41b 04be a4c2 93be 9358 8fbd e47c 1e3f
000002b0: 9379 b3bd 7116 25be 25c4 59be 50cb 1cbe
000002c0: 7884 d33d 7ecf fabe eacb 803b deb2 3fbe
000002d0: 8c6a 4c3e 3237 6bbe 43d6 94bd d0af 4e3d
000002e0: 179a 5c3f ba15 c03d 94ba 4c3f 947a 333f
000002f0: d79a c63e a14c 87be 75f5 a13d 2f21 96be
00000300: 3001 b8bd 23ef d93d c164 c9be 701b 643e
00000310: d821 a7be 2826 843e bfc2 1b3f c8cc b7be
00000320: 3470 9dbb 51f7 9e3d 0618 18bd 7675 4dbe
00000330: 19d9 843e 666a 97be 0f8c 06be f98c 87be
00000340: 0941 193d 34e2 0cbe 1a64 5e3e 5a74 073e
00000350: 99d4 b53d 5204 10be b1b3 febe b177 1ebe
00000360: 6c21 063e 95b6 193f b221 e1be a62d 3e3e
00000370: b7b3 a9be c2b6 b93e b07b bf3e 735c 883d
00000380: 35c5 19bf 70ab 83be e47e d33c 18da e93e
00000390: 39e8 a73e 5f0a 313e 593a f63d 5ed1 69be
000003a0: 4889 093f 9ccd 213d 0f4b a63e 6792 d3bd
000003b0: e183 97be 5dac 02bf 688b 073b 778c ecbe
000003c0: 8105 893e 9570 eebc 7f9c 7cbe 093b d5be
000003d0: a865 0bbf 0f57 883d f668 713c 9e26 233e
000003e0: 77d1 12bf 22fe b03c 7fc2 e2be 2170 383e
000003f0: c203 0e3e 72ec ba3e e5f1 ccbe dc6f 1e3e
-0.5329748 0.19799973 -0.2514726 -0.9030206 -1.0545603 0.4579683 -0.15279815 0.11035675
0.040903434 0.18682541 0.031763606 -0.080763154 0.82217586 0.7245074 -0.35884115 -0.04008289
0.038214307 -0.082748234 -0.16888876 0.011210748 -0.72727317 0.13885354 0.15910266 0.5619953
0.27585843 -0.21462823 0.11304824 0.76207924 0.5318457 0.38362446 0.006782913 0.105970584
-0.16323778 -0.11719597 -0.12464292 -0.1951181 0.124402404 -0.2410859 -0.057384778 -0.022318413
-0.5276673 -0.8935041 0.027032679 -0.26652664 -0.0013021631 -0.020370768 -0.3674057 1.1544254
0.18073855 0.5460149 0.13010779 -0.031680364 -0.19839616 0.8233903 0.6082338 -0.8733066
-0.5802564 0.09185746 -1.0042019 -0.1333858 0.18199472 -0.034868214 0.1712383 0.4173754
-0.10246337 0.025983572 0.6069593 0.029859323 -0.22695723 0.06702397 0.79107034 0.13835882
0.060358208 -0.080619514 0.1466226 -0.13707225 0.06434063 0.08168093 -0.08861692 0.23316757
0.07860887 0.00082744256 -0.05339833 0.21634611 0.14029333 -0.14401121 0.8250275 0.076979324
-0.027749449 -0.58786243 -0.19151743 0.1828969 0.20290048 -0.04429986 -0.13762285 0.1202781
0.6904872 -0.007933914 -0.7252831 -0.20700093 -0.92437327 -0.608771 0.25528717 0.21951698
0.19320579 -0.036728825 -0.1391515 -0.1569833 -0.03673545 1.0495269 -0.12403561 0.35350102
0.10362475 -0.07744978 0.060443524 0.43647996 0.30263436 0.14126399 -0.13068245 0.20577565
0.35632148 0.08758586 0.34016025 -1.0009493 -0.27644956 -0.15136687 0.3389276 -0.056989778
0.010963491 -0.2428237 -0.105601124 0.11405879 0.490631 -0.42470717 -0.18145172 -0.011147613
-0.1825243 0.078464754 0.08101301 0.38921475 0.028885603 -0.5246189 0.65147173 0.03372179
-0.36068735 0.23149738 -0.07799364 0.23186868 0.22540125 -0.015190285 -0.054610636 -0.09386358
0.10680973 0.15059954 0.26761007 -0.3613194 -0.7488418 -0.014425125 0.015904894 -0.21005243
-0.043911085 0.10998063 -0.1594968 -0.10992593 0.07960456 -0.039840154 -0.19905268 0.14506882
-0.1290124 -0.28859437 -0.06999316 0.6190932 -0.08763423 -0.16121842 -0.2126623 -0.15311933
0.10328001 -0.4898643 0.0039305585 -0.18720576 0.1996252 -0.22970274 -0.0726743 0.050460637
0.8617262 0.09379144 0.79972196 0.70108914 0.38790008 -0.2642565 0.07908145 -0.29322192
-0.089846015 0.10641315 -0.39334682 0.22276092 -0.32643008 0.2581036 0.60844034 -0.35898423
-0.0048046354 0.077620156 -0.037132286 -0.20064339 0.25946882 -0.29573363 -0.13139366 -0.2647474
0.037415538 -0.13758165 0.21717873 0.13227978 0.088784404 -0.14064148 -0.4974647 -0.15475346
0.13098687 0.60044223 -0.4397102 0.18572101 -0.33144924 0.36272246 0.37399054 0.06658258
-0.6006654 -0.25716734 0.025817342 0.45674205 0.3279436 0.17289113 0.12022848 -0.22833773
0.537251 0.039502725 0.3247914 -0.103306584 -0.29592803 -0.51044255 0.0020682458 -0.46200916
0.26762012 -0.029106418 -0.24669074 -0.41646603 -0.5445199 0.0665723 0.014734497 0.159327
-0.5735087 0.021605555 -0.44289014 0.18011524 0.13868621 0.36508518 -0.400283 0.15472358

layers.output.bias f4 [2]
00000000: 7b45 3c3e 699d 7a3d
0.1838588 0.061185274
