results/VANILLA/Vanilla999/vanilla40k/model.pth (torch, 205093 bytes, 10 tensors)

layers.block_0.layer.0.weight f4 [128, 2]
000000 f7 e6 0c 3f b1 36 22 3e 28 75 3f bf 9a 67 a2 bc
       0.55039924 0.15841176 -0.7478814 -0.019824792
000010 26 e3 04 bf a4 9a 16 be 07 e1 77 bf 42 e4 a6 be
       -0.519091 -0.14707428 -0.9682774 -0.32596022
000020 ca b4 3b bf ce c5 d1 be 1a 98 e7 3e ab 26 a2 be
       -0.7332274 -0.40971226 0.45233232 -0.31670126
000030 b2 8c e5 3e 8d d2 a7 be 5f ab 64 3f aa ec 11 bf
       0.44833905 -0.32777825 0.8932399 -0.57001746
000040 e5 09 98 bf a2 c2 8a bd d0 ca 85 bf ab 0f 97 bd
       -1.187802 -0.067754045 -1.0452518 -0.07376035
000050 26 ed 15 bf 44 fd fc 3e 7a 34 8c 3f 76 d8 2b 3f
       -0.58564985 0.49411976 1.0953515 0.6712717
000060 00 27 75 3e d3 f8 fc be 13 61 85 bf 76 fd ae be
       0.23940659 -0.49408588 -1.042025 -0.3417775
000070 94 24 53 3f 32 4f c7 be c9 13 4b bf ff 48 10 bf
       0.8247769 -0.3892761 -0.79327065 -0.56361383
000080 ef 79 0e bf e4 6b e4 be 57 f3 9b 3e e0 a3 99 3e
       -0.55654806 -0.44613564 0.3045909 0.3000784
000090 58 1b 4d bf e3 cd e1 3d 61 8d ad 3e 43 2d b0 bd
       -0.8011985 0.11025598 0.33896926 -0.08602383
0000a0 9d c3 9b bf 61 3f 82 3c 51 a2 2a bf 41 cc 83 3e
       -1.2169071 0.015899362 -0.66653925 0.2574177
0000b0 f1 4b 48 3f ba 25 51 be 03 9b 59 bf bc bb 03 bf
       0.7824088 -0.20424548 -0.85002154 -0.51458335
0000c0 83 db 53 bf ad 79 10 3f 36 18 57 bf f3 c9 e3 be
       -0.82756823 0.5643566 -0.8402132 -0.44490013
0000d0 6e e6 92 be f3 d8 9c be 07 1a 05 3f 42 99 12 bf
       -0.2869143 -0.3063427 0.5199284 -0.572651
0000e0 1c ec f0 3e d5 5c 23 bf 62 63 37 3e 69 64 32 be
       0.47055137 -0.63813525 0.17909005 -0.17421116
0000f0 f9 f1 54 bf 12 6b fc 3e ff 4e 8d 3f ec 6b 03 3d
       -0.8318172 0.49300438 1.1039733 0.032085344
000100 8c f3 70 3f 01 70 3d bf a9 31 47 3e 3a ab b6 3e
       0.94121623 -0.7399903 0.19452538 0.3567751
000110 0e 15 50 bf ed 36 af 3e 4b 44 29 bf 66 57 5c 3f
       -0.81282127 0.34221593 -0.6611983 0.8607086
000120 5d a7 05 bf 1d d8 ee 3e 88 d8 7e bf ca b3 03 bf
       -0.522085 0.46649256 -0.9954915 -0.5144621
000130 1a 54 a1 3e 2b 8b 2a bf f4 10 33 bf cc 72 da 3e
       0.31509477 -0.66618603 -0.69947743 0.42665708
000140 99 d8 a6 3f 88 36 56 bf fd 31 9d bd c3 b6 41 3e
       1.303485 -0.8367696 -0.0767555 0.18917374
000150 26 6b c1 3b 4b df 53 bf b8 b4 9c 3e 8d 7b 12 3f
       0.0059026657 -0.82762593 0.30606627 0.57219774
000160 c1 55 7d 3f 48 76 f5 3e b9 f6 16 3f 46 43 ae 3e
       0.98958975 0.47941804 0.5897022 0.340357
000170 a6 7e 87 3e 1c 4b 37 be 56 49 99 bd 17 ac 8c 3e
       0.26463813 -0.17899746 -0.07484691 0.27475044
000180 b1 5e 05 3f cf eb a7 3c 0a 96 52 3d 86 d7 3a 3f
       0.5209761 0.020498184 0.05141262 0.7298511
000190 09 49 61 3f 5d a1 5c be 31 a6 7a 3f 43 28 76 3e
       0.8800207 -0.2154593 0.9790984 0.24038796
0001a0 9f f4 05 bf d0 f2 b1 be 1f e9 14 be 35 f1 47 3f
       -0.5232639 -0.34755564 -0.14542054 0.7810243
0001b0 cd 0f 12 bf ba af 3d bf e3 1c 58 bf f1 c5 7a 3e
       -0.5705536 -0.7409626 -0.8441908 0.24489571
0001c0 34 cf 39 3f 91 5b 0c 3f 64 6b 12 bf b1 85 e4 3e
       0.7258179 0.5482722 -0.57195115 0.44633248
0001d0 48 f7 d6 be d3 f0 08 bf 88 c2 0d 3f 68 3c fb 3e
       -0.41985536 -0.5349247 0.55374956 0.49069524
0001e0 73 fd 87 bf 37 6a 0f bf 54 9a 13 bf 58 b8 48 3f
       -1.0624222 -0.56021446 -0.5765736 0.78406286
0001f0 ee 27 58 3f 13 c4 94 3e 30 ef f8 3e 62 b4 30 3f
       0.8443593 0.29055843 0.48619986 0.6902524
000200 af 77 8d 3f 8e a1 b3 be eb 8c 46 3f 17 28 db 3d
       1.105215 -0.35084194 0.77558774 0.10701006
000210 c3 b4 06 3f 3f df 21 3f 02 71 06 3f 20 15 9f 3e
       0.5261957 0.6323127 0.52516186 0.31070805
000220 29 32 3e bf 77 46 70 be eb db 61 bf 0c 1b 21 3f
       -0.7429529 -0.2346438 -0.88226193 0.62931895
000230 8e 4f e7 be 82 bf 1b 3f d7 6e 1f bf a0 75 42 be
       -0.45177883 0.6083909 -0.62278503 -0.18990183
000240 05 79 07 bf 23 18 02 bf 61 96 69 3f 59 8c 86 3e
       -0.52919036 -0.5081808 0.91245085 0.26278952
000250 34 d2 ff 3d dd f8 98 be e5 40 7f bf 2a 26 05 bf
       0.12491265 -0.29877368 -0.99708396 -0.5201136
000260 1c bb 29 bf 72 3e 45 3f 93 bb 6b bf 5d 0c 8a 3e
       -0.6630113 0.7704841 -0.9208309 0.26962557
000270 54 f1 79 bf 8a 52 17 bf 14 0e 4d 3f 3e 35 60 3d
       -0.9763386 -0.5911032 0.80099607 0.054738276
000280 61 21 35 bf 49 d3 8e bd dc e9 8f 3d bb 1d dc be
       -0.7075406 -0.06973893 0.07027027 -0.42991433
000290 1d 46 34 bf a8 14 e5 be 93 74 2e 3f 42 ca e2 be
       -0.70419484 -0.44742322 0.6814663 -0.44294935
0002a0 26 4d 22 bd 88 fb e6 be 60 4f 2e 3f 8b 76 88 3e
       -0.039624356 -0.45113778 0.68089867 0.2665294
0002b0 9d 22 eb be 64 52 ca 3e 52 71 5e 3f 5c 9d 05 3f
       -0.45924845 0.39515984 0.86891663 0.52193236
0002c0 4d a6 83 bf f9 fa ec be cb 84 63 3c a6 5e 00 be
       -1.0285126 -0.46285227 0.013886641 -0.12536106
0002d0 62 be 8f 3e 1f 01 20 3f a4 12 5e 3f 02 4b 95 be
       0.28074938 0.6250171 0.86747193 -0.2915879
0002e0 c9 16 98 3f 9a fb 88 be fa a2 87 bf 21 07 05 3e
       1.1881953 -0.26754457 -1.0596611 0.12991
0002f0 b1 40 77 3f 6b a9 e0 3d b5 bc 41 3f ff 0f 29 bc
       0.96583086 0.10969814 0.7567857 -0.010318755
000300 87 de 92 bf 7f ea e3 3e 1c 7a 1e 3f 33 48 f0 bd
       -1.147416 0.44514844 0.61905074 -0.11732521
000310 12 7e e7 3e bd e2 27 bf d6 fc 7c bf c4 16 fa be
       0.45213372 -0.6558035 -0.988233 -0.48845494
000320 f9 7a 20 3c 95 d5 db 3e 85 b9 39 bf 39 29 ba 3e
       0.009794944 0.42936388 -0.72548705 0.36359575
000330 4c e3 16 bf be 4b 22 bf 9e fd 76 bf 35 63 b1 bb
       -0.5894058 -0.63396823 -0.9648074 -0.0054134377
000340 68 08 6c 3f 7c 64 41 3f d8 56 72 bf 16 b7 e5 3e
       0.92200327 0.7554395 -0.94663763 0.44866246
000350 fe ca 72 3f c2 1f b7 3e 52 8c 23 bf 59 51 e9 be
       0.9484099 0.35766417 -0.63885987 -0.45569876
000360 e0 d4 b7 be 6e 51 34 3f 5b 04 8a 3e 03 b7 f3 3e
       -0.35904598 0.7043675 0.26956448 0.47600564
000370 bf b8 bb 3e b6 eb 07 3e 2d 64 1c 3f f4 25 d1 be
       0.36664388 0.1327351 0.61090356 -0.40849268
000380 f4 e2 f0 be af 49 a8 bd 43 02 53 bf 08 70 d9 3e
       -0.47048151 -0.08217179 -0.82425326 0.42468286
000390 52 04 01 3f a0 57 cc 3e 5c 96 c0 3e f1 bf 56 3e
       0.5039722 0.39910603 0.37614715 0.20971657
0003a0 7c e7 8e 3e 3a 6a 1c 3f 5a 0e 14 bf 62 fd 87 bd
       0.27910984 0.6109959 -0.578344 -0.06640126
0003b0 00 58 63 3f bd 04 da be 70 bb 61 bf 4b 08 37 3f
       0.8880615 -0.4258174 -0.8817663 0.7149703
0003c0 a3 bb 49 bf df 33 4a be 56 30 6f bf d9 2f 95 3e
       -0.78801936 -0.1974635 -0.9343313 0.29138067
0003d0 19 a8 30 bf 23 87 1e be 2e c4 32 3f 6b 02 b1 be
       -0.69006497 -0.15481238 0.69830596 -0.34572157
0003e0 b5 fa a2 3f cb b6 b6 3e df c4 53 3f 93 19 35 bf
       1.273276 0.35686335 0.82722276 -0.7074215
0003f0 96 a9 55 bf d1 c5 b6 bc 13 47 1d 3f 43 f8 dc 3e
       -0.8346189 -0.022311123 0.61436576 0.4315816

layers.block_0.layer.0.bias f4 [128]
000000 f6 b0 16 3f 71 81 d8 3e d7 81 9b be 72 9e 0f 3f
       0.5886377 0.42286256 -0.30372497 0.56101143
000010 09 22 4a be 52 03 51 be e4 97 f9 3e be 52 e2 3e
       -0.19739546 -0.20411423 0.48748696 0.44203752
000020 c6 45 69 3d fc 23 26 be 4f 01 2e 3f 10 53 34 bf
       0.056951307 -0.16224664 0.67970747 -0.70439243
000030 a6 d5 e2 bc 2c b9 36 3d f8 9d 1b 3e c8 1f 02 3f
       -0.027689766 0.044610187 0.15196979 0.50829744
000040 c9 05 20 bf 10 a0 d4 be 14 a1 31 be d1 6b 0b bf
       -0.6250883 -0.41528368 -0.17346603 -0.5446139
000050 2a 21 37 be 3d bc 04 be 0f 90 0c 3d df de 48 3e
       -0.17883745 -0.12962432 0.034317072 0.19616269
000060 da 55 d9 be bc b9 e0 3e 3c 88 b2 be 01 86 8e 3e
       -0.42448312 0.43891704 -0.34869564 0.27836612
000070 bf b7 81 3e 8e 3f 3d bf c0 dd cc be 31 67 0e 3e
       0.253355 -0.739251 -0.40012932 0.13906552
000080 db 2f 33 3f d9 32 d3 be a8 e4 b1 be 93 44 53 bf
       0.69994897 -0.4124973 -0.34744763 -0.8252651
000090 0a 52 c0 3e 9b eb d5 3e c2 0c 18 bf c7 39 5a be
       0.3756259 0.41781315 -0.59394467 -0.21311103
0000a0 6f f3 41 3f 5c 4c 0c 3f 78 00 ef be d5 d3 26 3f
       0.75762075 0.54804015 -0.46680045 0.6516698
0000b0 19 4f b9 be 4c 82 6f 3e 10 d7 2e bf 33 25 2d bf
       -0.3619316 0.23389548 -0.6829691 -0.67634887
0000c0 f8 0c b1 be 66 a8 db 3d 2b c0 98 3d 0e c6 a8 be
       -0.34580207 0.10725479 0.07458528 -0.32963604
0000d0 80 45 09 3f a3 74 fc 3d 72 c3 0d bf aa e9 ce 3c
       0.53621674 0.12326934 -0.5537635 0.025257904
0000e0 49 fe 97 bd 5a b7 d1 be 38 f8 0e 3f fa 22 15 3f
       -0.07421548 -0.409602 0.558475 0.58256495
0000f0 9c 9d ff 3e b1 22 24 bf fc e7 27 be ac 37 f4 be
       0.49924934 -0.64115435 -0.16397089 -0.47698724
000100 a6 76 bd 3e 98 55 0f 3f e6 66 c0 3d e2 da 8d 3e
       0.37004584 0.5598998 0.09394626 0.27706057
000110 dc 8e 65 3e 57 40 13 bf 7b 70 23 bf 17 95 fd be
       0.22417778 -0.5752005 -0.63843507 -0.4952781
000120 44 a7 11 bf f4 62 88 be fe 56 cd 3e 5e b8 f8 3e
       -0.5689585 -0.26637995 0.40105432 0.4857816
000130 70 ea 34 bf de 60 e2 be 89 ce 0a 3f f5 87 94 be
       -0.70670223 -0.4421453 0.542214 -0.29009977
000140 63 79 72 3e fd db 26 be 8d f4 d9 3e 60 b4 1b 3f
       0.23679118 -0.16294856 0.4256939 0.60822105
000150 e4 0e 3f be b4 51 bd 3e 2b 89 1b bf c4 e9 99 be
       -0.18658024 0.36976397 -0.60756177 -0.30061162
000160 55 86 fa 3e a7 17 3f bf 3b 49 bb be df 43 e5 3d
       0.48930612 -0.74645466 -0.36579308 0.11194586
000170 73 81 a5 3e 59 8c 2d be 51 a8 90 3e a7 37 9d 3e
       0.32325324 -0.1694807 0.28253415 0.30706522
000180 82 cd fb be f7 0a 4f 3c 0c 9a 71 be 3d a1 f1 3e
       -0.49180228 0.012636892 -0.2359392 0.47193328
000190 d1 af 95 3e bd 69 41 bd 73 f7 07 3f 4f 3b 06 bd
       0.292357 -0.04721998 0.5311195 -0.032771405
0001a0 bb 1b 37 bf 73 37 a3 be 9f c8 86 be bc 13 28 bf
       -0.7152669 -0.31878242 -0.26324937 -0.6565511
0001b0 45 a4 3e 3e b8 fb bd 3e 2c e8 27 bf 09 12 6e bc
       0.18617351 0.3710611 -0.6558864 -0.014530667
0001c0 b2 9c f8 be 72 e4 8b be b0 af c1 3e f7 5a 24 3f
       -0.4855705 -0.27322727 0.3782935 0.642013
0001d0 3f 87 bf 3e 32 f0 1f 3f e3 be 1b 3f 81 86 2e bf
       0.37407872 0.62475884 0.60838145 -0.68173987
0001e0 2e 1a 0b 3e cb a2 a5 be 51 89 0a 3e 15 32 c2 3e
       0.13584206 -0.32350764 0.13528945 0.37928835
0001f0 aa 14 a9 be d7 2b 2e 3f ee 22 e6 3e 24 cb 1e bf
       -0.33023578 0.68035644 0.44948524 -0.6202872

layers.block_1.layer.0.weight f4 [128, 128]
000000 64 f4 da bb 2b 1a 8c bb a4 d8 16 bc e1 a9 e1 3d
       -0.0066819657 -0.0042755804 -0.009206925 0.1101873
000010 a1 b0 fa 3d 7e 59 92 bd 2a ca 90 3d a6 49 de 3c
       0.122407205 -0.071459755 0.0706981 0.027134728
000020 54 c9 ce 3d 64 0a ed 3b d2 dd b1 3d 61 59 07 be
       0.10096994 0.0072339047 0.08684887 -0.13217689
000030 f8 cc 98 3c c7 e6 19 3e 9b 3f 20 bd 3d 4f fa bb
       0.018652424 0.15029441 -0.03912316 -0.0076388405
000040 a4 c6 b4 3d ed b9 8f bd c6 f7 7f 3d b5 ba 72 3c
       0.0882695 -0.070178844 0.062492155 0.014815022
000050 02 57 eb 3d ca c1 fd 3d 36 e3 ae 3c 38 61 11 3d
       0.11491205 0.12390478 0.021348577 0.035493106
000060 4e 34 92 bd 41 d9 cc 3c fe 62 8d bd 68 a7 92 bd
       -0.071388826 0.025005938 -0.06903647 -0.071608365
000070 ed ca 22 bc c8 2f 82 bd d2 2b 92 3d a8 0d a3 bd
       -0.009936077 -0.0635677 0.07137264 -0.07961589
000080 66 5f 93 3d be 4b 2f bc e7 86 28 3d 4a a4 d9 bc
       0.0719593 -0.010699211 0.041144278 -0.026567597
000090 a9 aa 56 3d 1f 56 54 3d 6b ef 9d bd 33 89 7d 3d
       0.052408848 0.051839944 -0.07711681 0.06189842
0000a0 e5 e6 85 bd 47 db 19 3d 72 63 17 3d 3b 26 e5 bb
       -0.0653818 0.037562635 0.036960073 -0.006993083
0000b0 d1 19 9a 3c 1e 93 e1 3c 3e c8 90 3d 95 ec a6 3c
       0.018811138 0.027535971 0.07069443 0.020376483
0000c0 03 b3 ff bc ef 22 a9 bd 77 9d 2a be 32 2f 16 be
       -0.03121329 -0.08258616 -0.1666163 -0.14666441
0000d0 27 46 d1 3d 07 89 62 3d bb 49 dd 3b 73 bd 2b bd
       0.102184586 0.05530646 0.006753174 -0.04192872
0000e0 de 4e 11 be 4b 5f 09 3d ba ad ac 3d 55 d6 90 3d
       -0.14190242 0.033538144 0.08431573 0.070721306
0000f0 a4 55 63 3c a1 31 b4 bd ee 48 1e be 8b 9a c7 bc
       0.013875399 -0.087985285 -0.15457508 -0.024365684
000100 3a f3 cd 3c 94 3a 05 bc 6a bd 0f be ab 04 bd bc
       0.025140394 -0.008131642 -0.140371 -0.023073515
000110 a7 d1 a3 3d 7d 21 9e 3d fd c1 69 bd 0d 0f dd 3d
       0.079989724 0.07721231 -0.057069767 0.10793886
000120 65 2e 34 3d f7 40 46 bd 2f ed 64 bd 88 1e 76 3d
       0.043989558 -0.0484018 -0.05589026 0.06008771
000130 eb c7 a8 bd fe 4a da 3c 09 c4 0a 3e 39 50 18 bc
       -0.08241256 0.026647087 0.13551344 -0.00929647
000140 a4 a7 aa 3d 63 99 98 bd d7 2d 00 3d b2 d8 2a 3d
       0.08332756 -0.07451131 0.031293716 0.041710563
000150 66 42 92 3d b8 1c c1 3b c3 2d 8d bd 70 bd ea 3c
       0.07141571 0.005893316 -0.06893494 0.028654784
000160 b1 a0 7e 3c 2d f4 ac 3d eb b3 a0 3c 86 e1 92 bd
       0.0155412415 0.0844501 0.019617042 -0.071719214
000170 4c 97 aa bc 8c e6 f4 bc c6 b7 ae bd f0 d3 8c bc
       -0.020824097 -0.02989509 -0.08531146 -0.017190903
000180 67 ef 44 bd 8a 11 b6 bd f3 e4 c6 bd 30 36 09 3e
       -0.048079874 -0.08890064 -0.09711637 0.13399577
000190 cf 77 2b 3d 90 e2 2d 3d 98 0d f9 3c 93 d3 82 3d
       0.041862305 0.042452395 0.03040199 0.06388011
0001a0 88 ec 03 bd 52 bc ab bc 82 91 cb bd 37 ac 81 bb
       -0.032207996 -0.020963822 -0.09939863 -0.003957297
0001b0 a8 db 8b bd cf ce 3b bc 8d f9 77 3d 63 f2 c9 bd
       -0.068290055 -0.011462881 0.060540725 -0.09860685
0001c0 21 ff 89 3c 78 b7 1d 3d a1 38 1f bb 5d c6 18 bd
       0.016845288 0.038505048 -0.0024295228 -0.03729855
0001d0 1f 96 63 bc 67 de be 3c f9 3e 88 bd af 21 3e 3d
       -0.013890772 0.02329941 -0.06652636 0.046418842
0001e0 0b ea a1 3d 3e d4 88 bc 92 cb 36 3d a0 6c 2a bd
       0.07905968 -0.016702767 0.044627734 -0.0416075
0001f0 e8 49 d7 bc 8e 55 4e bd 81 27 9e 3d bd c1 32 bd
       -0.026280358 -0.05037456 0.077223785 -0.043641794
000200 e5 b9 fc bb 52 7c b1 3d ef 9b bc bc b3 30 44 bd
       -0.00771259 0.0866629 -0.023023574 -0.047898006
000210 f1 c6 8c 3d 66 23 9f bc 09 da 98 bd ec 05 c1 3d
       0.068738826 -0.019426059 -0.07463462 0.09424958
000220 ed 22 84 ba 96 3a 83 bd ca f5 b9 bd 18 d7 fd 3c
       -0.001008121 -0.06407659 -0.09080084 0.030986354
000230 67 b0 08 3e 21 d0 4e 3d f0 58 5f 3d 46 c1 7c bd
       0.13348542 0.050491456 0.054528177 -0.061707757
000240 e3 06 2d 3d fe bf 71 bb 4c c6 5a 3b f7 f6 ac b8
       0.042242896 -0.0036888118 0.0033382354 -8.2476e-05
000250 05 e7 80 bd 0b 89 82 bd bb 04 41 3d 5f 0b b4 ba
       -0.062940635 -0.06373795 0.047123652 -0.0013736299
000260 1f 94 f9 bd 82 2d 02 3d 53 4d fa 3c 33 73 0a 3d
       -0.12186455 0.03178168 0.03055445 0.03380127
000270 72 ce cc 3d b3 c0 67 bd 31 b1 74 bd b5 4f 38 bd
       0.10000314 -0.056580257 -0.059739295 -0.04499789
000280 23 3c d1 3d 4a 44 0a bc 5d aa 61 bd 08 65 58 bd
       0.10216548 -0.008439133 -0.05509411 -0.052830726
000290 1e b1 71 bd 6d ab 9b 3d f5 31 bf 3d 2c 8d fb bd
       -0.059006803 0.07601056 0.093357004 -0.12282786
0002a0 1b d1 2c bd ab f5 7c bd a6 e1 be 3d 95 bc ad bd
       -0.042191606 -0.061757725 0.09320383 -0.08483235
0002b0 9d 9b 21 bd 01 1a 4e 3d f4 38 9e bd 97 10 9b 3d
       -0.039455045 0.050317768 -0.07725707 0.07571524
0002c0 8a 69 75 3d 0d 4d 00 be 3a 47 72 3d 08 51 2b bd
       0.059915103 -0.12529393 0.05914996 -0.041825324
0002d0 40 9d 5f bd 89 39 13 be 19 45 9d bd ca 78 eb bd
       -0.054593325 -0.14377417 -0.07679195 -0.11497648
0002e0 e6 73 04 bc c0 23 a8 bc 65 69 d0 3d de 4d ab bd
       -0.008084273 -0.02052486 0.101763524 -0.08364461
0002f0 c3 06 00 3d db 16 2c 3d 09 b3 1c bc 24 65 80 3b
       0.03125645 0.042013984 -0.00956417 0.003918307
000300 d2 7c a0 3d 27 88 ad 3d aa b2 3c bd 29 0f 85 3d
       0.078363076 0.084732346 -0.046068825 0.06497032
000310 63 63 75 3d 7f 2c ad bd dc 83 1b 3c 9a 99 68 bd
       0.059909236 -0.084557526 0.009491887 -0.05678711
000320 4a 3d 18 3d 26 8a 55 3d 68 db 8e 3d 17 6a 7e bd
       0.037167825 0.0521337 0.06975442 -0.062112894
000330 ad 7a 03 3d d2 98 8b bd 98 d8 cc bc e9 ee a3 3d
       0.032099415 -0.068162575 -0.025005624 0.08004553
000340 87 31 5f 3c 46 d5 aa 3d 80 f2 7d 3d e9 54 40 bc
       0.013622648 0.0834146 0.061998844 -0.011738994
000350 d7 e2 80 bc cf 96 43 bc 78 94 c1 bd 67 7b 0e bd
       -0.015733166 -0.011937811 -0.09452146 -0.034785654
000360 f4 ea f2 3c 3e b6 b4 3c 11 77 11 bd db 33 fb 3d
       0.02965305 0.022059556 -0.03551394 0.1226575
000370 13 4e 14 bd ae f3 f4 3c 1c a4 88 bd 1b d6 84 bd
       -0.03620727 0.029901352 -0.066719264 -0.0648615
000380 98 d1 bc 3c b7 4a 83 3d 91 16 5c 3b df e9 0d 3d
       0.02304916 0.06410735 0.0033582787 0.034646865
000390 17 4d 82 3d d1 49 31 be f3 da 5c 3d 68 c4 59 3d
       0.0636236 -0.17313315 0.053919744 0.053165823
0003a0 c7 54 49 bd 93 2f f8 bd e0 b5 50 bd 44 48 b0 3d
       -0.049153116 -0.12118449 -0.0509547 0.086075336
0003b0 c5 15 fc bc 74 71 b6 bd 5f 08 88 bd 5c 95 11 3e
       -0.0307721 -0.08908358 -0.06642222 0.14217132
0003c0 ca 61 82 bd dd 4b 2a be 2a 91 5d bd 41 8f 4c 3b
       -0.06366308 -0.16630502 -0.054093517 0.0031213316
0003d0 07 c7 2a bc b0 2a 6e bd 87 bd 2f bc e9 6c 4f 3d
       -0.010423428 -0.05814618 -0.010726339 0.050640974
0003e0 3b a6 c4 ba b3 d7 92 3d 97 58 d7 3d 90 82 3f bd
       -0.0015003154 0.071700476 0.10514944 -0.046755373
0003f0 d3 06 12 3d a2 1d f0 bc 4b b0 80 bd 3f 62 6a bd
       0.03565104 -0.029311005 -0.06283625 -0.0572226

layers.block_1.layer.0.bias f4 [128]
000000 49 1c 85 bd 00 95 19 bd 44 9e 9f bd b8 4e 1e bd
       -0.064995356 -0.037495613 -0.07793859 -0.03864929
000010 65 bd 7a bc d3 8d 94 bd be 24 08 be a2 92 21 bd
       -0.015303944 -0.07253613 -0.13295266 -0.03944648
000020 cf 70 a2 bc a5 73 3d 3d ff 29 8d 3d 24 29 a8 bd
       -0.019829182 0.046252865 0.06892776 -0.08210972
000030 38 df e9 bb 17 9e 30 3d 22 e6 8d 3c b1 3a 37 3d
       -0.0071372055 0.043119516 0.01732165 0.044733707
000040 02 a2 1a bd 44 81 87 bd f5 9d 94 3d 0b e3 96 bd
       -0.03775216 -0.06616452 0.072566904 -0.07367524
000050 34 f0 65 bc 88 e3 54 bd fc 4d 6d bd 25 16 0f 3d
       -0.01403432 -0.051974803 -0.0579357 0.034933228
000060 4a d3 31 3d 8f ef ba bc 23 88 13 bd 39 28 bd bd
       0.04341439 -0.022819309 -0.036018502 -0.092361875
000070 9b 92 5c bb 49 0d 1b bd 51 39 1f bd ce 2f d9 3c
       -0.003365672 -0.037854467 -0.03887302 0.026512053
000080 2e 9e 3a bb 9e ba 6b bd a1 be cb bc a9 14 a8 bd
       -0.002847563 -0.05755102 -0.024871172 -0.082070656
000090 1c c7 ad bb 23 5a 9f 3c 16 27 34 3d c5 cc 15 bd
       -0.0053032767 0.01945216 0.043982588 -0.036572237
0000a0 85 31 ad 3d 02 b4 96 bc a2 2d ce 3c fb f2 14 bc
       0.08456711 -0.018396381 0.025168244 -0.009091134
0000b0 cf 30 64 bd d1 5e 5d bd 5c ee 05 bc da 6e a6 bd
       -0.05571061 -0.054045502 -0.008174505 -0.08126612
0000c0 ca 55 b9 bd da 5a 89 3d c6 c9 f7 3b 40 bb 28 bb
       -0.09049566 0.06706782 0.007561895 -0.0025746375
0000d0 58 d6 9f 3d 03 cf f8 3c ea 28 06 bd 83 b6 1f 3c
       0.07804555 0.030372148 -0.032753862 0.009748104
0000e0 6f ec 3a bd b6 46 0e 3d 7d d1 b4 bb 7e e9 69 bd
       -0.045635637 0.034735404 -0.005518137 -0.05710744
0000f0 f3 6f a4 3d 25 b7 d7 3c ad 7f 13 3c fb fe 83 bb
       0.08029165 0.026332447 0.009002608 -0.004028199
000100 21 6b 9c 3d e6 b7 24 3d 00 96 1a bc e3 c6 05 be
       0.07637621 0.04021444 -0.009435177 -0.1306415
000110 84 0c a4 bd bf 41 52 bd 87 dd 59 bd 73 42 96 3c
       -0.080102 -0.05133223 -0.05318978 0.018342232
000120 e0 48 57 bc 92 c0 86 bd 6d 1d 2b 3d 27 4c b3 bd
       -0.013139933 -0.065796986 0.04177611 -0.08754759
000130 86 cd 29 bd 30 3f 80 bc fd 5f 8f 3d 9c 4a 02 bd
       -0.041455768 -0.01565513 0.0700073 -0.031809434
000140 71 76 b3 3d cf 92 cb bd 71 87 37 bc b6 81 51 bd
       0.08762825 -0.09940111 -0.011201725 -0.051149093
000150 b9 41 29 3c fc 0e 1f bd 16 bf c4 bc 9b 4d f2 bc
       0.010330611 -0.03883265 -0.024016898 -0.02957802
000160 71 9b d5 bc a1 27 ca bd 78 57 52 bd c6 82 46 3d
       -0.026075097 -0.0987084 -0.051352948 0.04846456
000170 4d 8d 8a 3c 78 7e ac bd 07 b5 a6 bd f8 af 12 3d
       0.01691308 -0.084225595 -0.08139997 0.035812348
000180 35 84 da 3c e7 77 fb 3c 1b 00 1b 3c ae c2 d5 3d
       0.02667437 0.030696822 0.009460474 0.10437523
000190 59 a4 9c 3c fb bf e4 bc 9e cf 9d bd 24 6b a6 3d
       0.019121336 -0.027923575 -0.077056155 0.08125904
0001a0 be f6 85 3d eb a6 20 3d 12 7a 53 3d 78 4b e6 3b
       0.06541203 0.039221685 0.051630087 0.0070280395
0001b0 3c 47 3f bd 76 e3 8e 3c 0a 40 96 bd 4a 8d d4 bd
       -0.046698794 0.017442446 -0.07336433 -0.10378511
0001c0 60 fc 19 3c 4d 5a 13 3e 94 11 5f 3d 4c da db bd
       0.00939855 0.14389916 0.054460123 -0.10734996
0001d0 7d f6 0d 3d 2b 77 b2 bd 12 96 d1 3d 6e 78 a3 bb
       0.034658898 -0.08714136 0.10233702 -0.0049887216
0001e0 f7 0b 02 bd ae 35 2f 3d b3 7d 3f 3d 7d 30 a8 ba
       -0.03174969 0.042775802 0.046750735 -0.0012831833
0001f0 df d9 a5 3d 34 18 81 bd 3b 6a fc 3d 72 4b 7d b9
       0.08098196 -0.063034445 0.12324949 -0.00024156066

layers.block_2.layer.0.weight f4 [128, 128]
000000 ab 3d 8b bd 29 ba 3e 3d f4 e9 9b bc 9f 66 17 bd
       -0.067988716 0.046564255 -0.019032456 -0.0369631
000010 2a ed 1e 3d 6b bf 99 bd 44 06 95 bd 95 29 41 3c
       0.038800396 -0.07507213 -0.07276586 0.011789699
000020 24 d1 55 3d 31 2e 0d 3b d9 96 68 3d a0 d4 79 bd
       0.052201405 0.0021542425 0.056784485 -0.06099379
000030 70 d6 0a bd 31 f7 98 bd c7 ab 8c bc 36 0d 90 3d
       -0.03389591 -0.07469023 -0.017171754 0.0703377
000040 2c 10 61 3d e4 bd 39 bd ce 85 c7 bc 22 02 d1 3c
       0.054947063 -0.04534711 -0.024355795 0.025513712
000050 3e fa 9e bb 13 bf 60 bd 39 f0 5a bd 89 2d a3 3d
       -0.0048516085 -0.054869723 -0.05345175 0.079676695
000060 0a a9 2d 3d 77 99 5e 3d 31 4a 20 bd 8a a5 c7 bb
       0.042397536 0.054345574 -0.039133254 -0.006092732
000070 29 a9 83 bd ac dd a5 3c d5 f7 c2 bd 95 1e 5e bd
       -0.06428749 0.020247303 -0.095199265 -0.054228384
000080 44 ba 93 bd aa fc 26 bd 07 dc 7a 3d ca a4 3d 3d
       -0.07213262 -0.040768303 0.06124499 0.046299733
000090 6b f3 d0 bc 04 6e 90 3d 4b 4f d2 bc 12 2c e7 3d
       -0.025506696 0.07052234 -0.025672575 0.112877026
0000a0 63 00 d1 3d d2 5a 47 bb 9e 33 b4 3c c4 f2 02 bc
       0.10205152 -0.0030419123 0.02199727 -0.00799245
0000b0 1c 50 e2 3c 0f c3 99 ba 25 52 c9 bd 2d 21 c8 bd
       0.02762609 -0.0011731106 -0.09830121 -0.09771953
0000c0 99 8d 11 3d 6b 82 dc 3c 40 78 85 bd c9 bb 93 bd
       0.03553543 0.026917657 -0.065170765 -0.072135516
0000d0 0a c3 13 bc 67 14 9e bd cc e0 82 bd a9 55 76 bd
       -0.009018669 -0.07718735 -0.06390533 -0.060140286
0000e0 d2 2f 2d 3d 6c 34 99 3d 39 e7 3c bd c9 10 c1 bd
       0.042281933 0.07480702 -0.04611895 -0.0942703
0000f0 35 a5 a3 3d e0 78 31 3d a0 41 f1 3c 5a 94 93 3d
       0.07990495 0.043328166 0.029450238 0.0720603
000100 a1 85 bc 3c 6e 47 8e 3d 81 55 c4 3d c5 52 a1 ba
       0.023012938 0.06947218 0.09586621 -0.0012307992
000110 75 68 0c 3d a4 d3 9a 3d 60 01 a8 3d 7b 86 80 bc
       0.034279305 0.075598985 0.08203387 -0.015689125
000120 52 d1 90 3d 30 d0 aa 3d 2b 60 88 bd 68 e6 a0 bb
       0.07071175 0.0834049 -0.066589676 -0.004910279
000130 19 87 1c 3d f8 91 87 3d 6e dc 80 3d 54 8b a1 3d
       0.038214777 0.06619638 0.062920436 0.07887903
000140 85 f9 e6 3c 3a e5 82 3c c9 1c b0 3d dc 7d 22 bd
       0.028195152 0.015978444 0.0859924 -0.03967081
000150 ab fb 1e bb 03 50 80 bd 41 d8 c1 3a 42 03 63 3d
       -0.0024258893 -0.06265261 0.001478918 0.05542303
000160 20 ac 93 3c e5 f8 31 3d df d9 33 3d 20 20 7e 3d
       0.018026412 0.043450255 0.04390895 0.062042356
000170 db cd c3 bc 4c 4d 69 3b 58 c4 62 3d d9 81 54 3c
       -0.02390187 0.003559905 0.05536303 0.012970411
000180 08 88 64 3d 07 2a 19 bd ba bc 5c bd d5 48 b9 bc
       0.055793792 -0.037393596 -0.05389092 -0.022617737
000190 2e e7 2d bd b5 d7 a0 3c f9 01 13 bd 63 11 8b bd
       -0.0424568 0.019634107 -0.035890553 -0.06790426
0001a0 65 10 a9 bb 14 76 d5 3c d9 5c f0 3c 8f 75 81 bc
       -0.005159425 0.02605728 0.029341148 -0.015803127
0001b0 54 7e 41 bc d1 06 b9 bc 2a 06 6e bd cc e2 f4 3c
       -0.011809904 -0.022586258 -0.058111347 0.029893301
0001c0 58 d3 c6 3d 02 5c 84 bd 50 c5 6a bb 5c 58 bf bc
       0.09708279 -0.064628616 -0.0035823174 -0.023357563
0001d0 eb d2 02 3d ac 03 82 bd c8 cd 3c bd fc ec 4b bd
       0.03193943 -0.063483566 -0.046094686 -0.049786553
0001e0 0b e0 ae 3c 5f f1 8c 3d 38 59 1a bd 03 34 b2 3c
       0.021347066 0.068819754 -0.037682742 0.021753317
0001f0 dd 83 87 bd 43 71 4c 3d 4f f8 98 bd ad 0b 09 3d
       -0.06616948 0.049912702 -0.07469236 0.0334584
000200 02 5a a6 bd 2c 2b 05 3d 20 8d 8d 3d 4a fa 99 bd
       -0.081226364 0.032511875 0.06911683 -0.07518442
000210 6d 25 8f bd f2 4d b6 3d 28 43 82 3e 0f 82 c8 3d
       -0.0698956 0.08901586 0.2544186 0.09790432
000220 17 ec 19 3d f0 0e 0c be 9f 81 c7 bd 41 61 0f 3e
       0.03757867 -0.13677573 -0.0974152 0.14001943
000230 0e c9 20 be 8e 0f 5e 3d f0 51 cc 3d a2 ba 81 3d
       -0.15701696 0.054214053 0.09976566 0.063344255
000240 d6 d8 6c 3d 1e d9 ce 3b 09 a9 25 bc 31 1a 01 3d
       0.05782398 0.0063125035 -0.010111102 0.03151912
000250 d1 48 db bd 85 bb ea 3d 36 31 a5 bc da 46 2f bc
       -0.10707248 0.11461548 -0.020165067 -0.010698045
000260 8e 08 18 be b3 25 33 3d 2d 39 74 3d 04 89 a5 3d
       -0.14847013 0.043737125 0.05962484 0.08082774
000270 f9 f6 b3 bc de de 4a 3e 71 3d a9 bc a3 c5 0c 3d
       -0.021968352 0.1981158 -0.02065918 0.03436817
000280 46 40 6c 3e 33 05 11 bd 68 a3 46 3d f3 e9 04 be
       0.23071393 -0.03540535 0.04849568 -0.1297987
000290 9a bf 89 bd 2a fa 80 bd e5 15 84 bc 11 1d 92 bd
       -0.06725998 -0.06297715 -0.016123721 -0.0713445
0002a0 ba a0 f5 3b 3f ef 42 3c b9 7e 2f be c5 dc 8a 3d
       0.0074959667 0.011897861 -0.17138185 0.0678039
0002b0 8c 6f 81 bd 2d 6f e5 bd c6 40 51 3c 48 f4 2b 3d
       -0.06320104 -0.11202846 0.012771791 0.04198101
0002c0 8c c9 6b bc e9 68 1b 3d f3 96 08 3d 8b c0 0c be
       -0.014391314 0.037941847 0.03334708 -0.13745324
0002d0 03 06 1b bd ee cc ed bd a8 29 b9 3d c4 33 11 3d
       -0.03784753 -0.11611353 0.090411484 0.03544976
0002e0 57 d0 be 3c c2 f2 bb 3d 86 6a 2c bb 83 57 7f 3b
       0.023292704 0.09177162 -0.002630861 0.0038962073
0002f0 a8 77 56 3e d4 75 2d 3e 49 43 9a bc 66 6e 01 be
       0.20944083 0.16939479 -0.018830912 -0.1263977
000300 9b 8a b4 bd 00 7c 18 bc ce 77 87 3d 8f 64 f6 3d
       -0.088154994 -0.009306908 0.06614648 0.12030899
000310 18 52 26 bd fd 9b 0d 3e b1 53 29 3e a4 0b 48 bd
       -0.040605634 0.13829036 0.16535832 -0.048839226
000320 ee c7 ae 3c 36 8a 15 3d 92 65 e5 3d 97 ed df b8
       0.021335568 0.03650876 0.112010136 -0.00010677723
000330 2f 11 c7 bc c1 c6 6f 3d 41 46 47 3e fb 83 a1 3c
       -0.024300186 0.058539156 0.19460393 0.019716254
000340 e5 93 fe 3d 52 9d d1 3c 70 b2 3e 3d 87 1a b4 3d
       0.124305524 0.025587711 0.04655689 0.08794122
000350 88 6f f7 bd 57 a0 7a 3d 36 00 cb bd a5 da 9c bb
       -0.1208182 0.06118807 -0.099121496 -0.0047868066
000360 02 f3 12 3c 38 ad bd 3d 2c c7 3e 3e eb 84 cb bd
       0.00896907 0.092615545 0.18630666 -0.099374615
000370 e4 81 4a bd 1d 7f 03 3d fd c3 19 bd 30 fe eb bd
       -0.04944028 0.032103647 -0.037540425 -0.11523092
000380 46 51 33 3e f0 1c d7 3d f7 c1 1d be 51 63 bd bd
       0.17511472 0.10503566 -0.15406023 -0.09247459
000390 ba aa a9 3d e8 1c 7d 3d 82 28 0c 3c 6b 62 f1 bd
       0.08284517 0.061795145 0.00855458 -0.1178635
0003a0 bd 00 53 bd d3 d3 3f bd 2b 31 73 3d 02 76 11 bb
       -0.051514376 -0.04683287 0.059373062 -0.0022195582
0003b0 62 d8 df 3d 14 ba d9 3d b1 51 7e 3d d0 4d dd 3d
       0.109299436 0.10631195 0.062089626 0.10805857
0003c0 e1 b5 b1 3b 11 ba 8a 3c bc 42 1a bd 5a e2 b6 3d
       0.005423293 0.016934427 -0.0376613 0.08929892
0003d0 e9 b7 e1 bd 08 d8 97 bc ec ba ce 3c 91 b8 4c 3d
       -0.11021406 -0.018535629 0.025235616 0.049980704
0003e0 f1 e8 95 3c 5f e0 d3 bd e4 15 5d 3d 80 3a 80 bd
       0.018299552 -0.1034553 0.053975955 -0.06261158
0003f0 b4 c0 0a 3e 4e 57 a9 3b e1 bf d4 ba 17 68 00 ba
       0.13550073 0.0051678782 -0.0016231501 -0.0004898323

layers.block_2.layer.0.bias f4 [128]
000000 b2 92 21 3d 77 7a db 3c d7 e6 7d bd 8d d1 9f 3d
       0.03944654 0.026791794 -0.061987724 0.078036405
000010 0f b4 bc bd 58 ea cc 3c f2 38 88 3a d9 9e c8 3c
       -0.09214031 0.025014088 0.0010392948 0.024489807
000020 a7 f8 c9 3d 15 88 3d 3c 5b 51 fe bc a7 7e f0 3c
       0.0986188 0.011568089 -0.031044653 0.029357268
000030 d7 e3 7c 3c 12 2c bf bd dc ee 78 3d 47 69 d2 3d
       0.015435181 -0.093345776 0.06077467 0.10273986
000040 20 2e 99 3d 07 a5 53 bd 27 f6 0a 3d 0c 43 79 3c
       0.07479501 -0.051671054 0.033926155 0.015213739
000050 4e 38 51 3d b6 d2 88 bd b6 1c df 3c 78 29 b1 3c
       0.051079087 -0.06680815 0.02723537 0.02162622
000060 41 30 30 3d b6 50 ed bc 30 b9 d7 bc fa e5 45 bd
       0.04301477 -0.02896915 -0.026333421 -0.048315026
000070 33 8c 05 bd 81 9f ac bd ff db a0 bd 34 39 4f bd
       -0.032604408 -0.084288605 -0.07854461 -0.050591663
000080 09 fc 84 bd cf 17 9a bc ed c6 7b bd 79 21 0a bd
       -0.064933844 -0.018810181 -0.061469007 -0.03372333
000090 d0 a7 41 bd 79 5e 8f bc 8e a3 bd 3c 02 62 98 3d
       -0.04727918 -0.017501103 0.023149278 0.074405685
0000a0 56 08 36 3c 59 62 3d bd ba 82 66 bb 94 95 80 3d
       0.011110386 -0.04623637 -0.0035173134 0.0627853
0000b0 fe cc 1d bd 66 01 2f 3d 20 00 8c bd 4a 6d 6d 3d
       -0.038525574 0.042725943 -0.06835961 0.057965554
0000c0 67 ae c2 3d a2 bc 4f bd df 6f 36 3d c2 b0 5d 3d
       0.09505921 -0.050717004 0.044540282 0.054123648
0000d0 b0 4d f2 bb 63 c1 33 3d 34 c5 0a bc 5f ee 51 3d
       -0.007394515 0.0438856 -0.008469868 0.05125272
0000e0 44 ba f4 3c 57 74 b5 3d c7 7c 81 bd e4 a8 70 bd
       0.029873975 0.08860081 -0.063226275 -0.058754817
0000f0 b1 55 7b 3c 73 88 36 3c 68 5b 8b bd 6f be 74 bd
       0.015340255 0.0111409305 -0.06804544 -0.059751924
000100 bd bb 79 bd c0 97 b3 bc 81 a0 80 3d ef ed 8c bc
       -0.060970057 -0.021922946 0.06280614 -0.0172033
000110 33 8a 9c 3d 71 d3 8d bd 43 ac 8f bd 18 e7 13 3d
       0.07643547 -0.06925095 -0.07015278 0.03610906
000120 7a 93 7c bd ae f4 68 3d 4d c9 71 bc a7 1a c8 3c
       -0.061664082 0.05687397 -0.0147574665 0.024426771
000130 2a 78 6c bd f7 d3 1e 3d 98 bb 13 bd 9e 28 11 bc
       -0.057731785 0.038776364 -0.036067575 -0.008859782
000140 31 6b 77 bd 91 76 1b bd 81 01 5f bd d6 3f 45 bd
       -0.06040496 -0.03795487 -0.054444794 -0.04815658
000150 75 b1 5f 3c 3a 34 79 bd e6 39 15 3d f6 7b 20 bd
       0.013653149 -0.060840823 0.03643217 -0.03918072
000160 0e a4 38 3d d7 19 6e 3d eb 92 8f 3d bc 46 1e bd
       0.04507833 0.05813011 0.07010444 -0.038641676
000170 3e 4d 7e 3b a7 07 8a 3c 5b 31 8f 3d 2f 7c 9e 3c
       0.0038803364 0.016849352 0.06991836 0.019346325
000180 b7 98 5d bd 83 db cf 3d 71 7d 6f bd 56 08 d2 bb
       -0.05410072 0.101492904 -0.05846924 -0.006409685
000190 53 0d cb 3c 21 4d 23 3d 5b af d6 3c 0b 1e 21 bc
       0.024786627 0.039868478 0.026206663 -0.009833823
0001a0 d1 3b 82 bc 3e f9 d2 3c 9e cf 9d bd f5 24 6b bd
       -0.015897663 0.025753614 -0.077056155 -0.05740829
0001b0 fa af 0d bd 78 e9 01 3c a4 99 83 bd 0c 9c 16 3d
       -0.034591652 0.007929198 -0.06425789 0.03676991
0001c0 db 47 7d 3d 3d d8 92 bc bc c0 8a bd c0 a6 df bc
       0.061836105 -0.017925376 -0.067750424 -0.027301192
0001d0 d0 ff 6e 3d cd 78 2f 3d 93 df 2e bd 3e da bf bc
       0.05834943 0.042839814 -0.042693686 -0.023419496
0001e0 89 8f 28 3c 14 11 74 bb 49 90 88 bd 15 ee 94 bd
       0.010288128 -0.0037241625 -0.06668145 -0.07271973
0001f0 ea 78 48 3d ff 9e 83 3d 41 66 86 bd 5c 3d 7e bd
       0.048943438 0.064268105 -0.06562472 -0.062070236

layers.block_3.layer.0.weight f4 [128, 128]
000000 07 e1 cd 3c 47 1f c3 3d 16 a1 65 3c a7 a7 55 bd
       0.025131715 0.0952745 0.014015457 -0.05216184
000010 e5 49 6d 3d f8 b1 39 3d 5e 04 8b bc 6a f0 24 3c
       0.0579318 0.04533574 -0.016969856 0.010067085
000020 95 a4 fc 3d 06 76 1b 3e 65 9d d7 3c 86 df 0c be
       0.12336079 0.15181741 0.026320169 -0.13757142
000030 8a 12 fb 3d 44 4b 1e bd 80 26 c9 bd 5d e5 9d 3c
       0.122593954 -0.038645998 -0.098217964 0.019274408
000040 9c 73 0a bd b6 b5 b3 bd ab 46 55 bd 88 c8 b3 bc
       -0.03380166 -0.08774893 -0.052069347 -0.021946207
000050 0a 6a 3c 3d 53 92 09 bd 04 0b cf 3c 76 33 28 bc
       0.045999564 -0.03358681 0.025273807 -0.0102661755
000060 e3 71 d2 3c c2 5d b8 3d 5e 1a 96 3d 45 6a 9b 3d
       0.025689071 0.09002258 0.07329248 0.07588629
000070 7e d7 9e bd b5 7e bf bd 36 89 c4 bd 5f 80 8f 3d
       -0.077559456 -0.09350339 -0.095964834 0.07006907
000080 e8 eb b0 bd 50 a7 42 bd 3e c5 68 3c 07 d4 22 3c
       -0.086387455 -0.047522843 0.014207182 0.009938247
000090 59 8b 06 3e 1d fa 88 3d 71 be d9 3d ec 55 7e 3d
       0.13139094 0.0668833 0.10632027 0.06209366
0000a0 82 4b 8d 3d 59 ac aa 3d 71 1c 9e 3b 04 77 3a bd
       0.068991676 0.08333654 0.004825168 -0.04552366
0000b0 ef 32 55 bd 2f dd 50 bd 67 0e 75 3d 02 e7 17 3e
       -0.052050527 -0.050992187 0.05982819 0.14834216
0000c0 7c c3 a2 3d 98 33 a7 bd 20 ce 80 3d aa d9 96 3c
       0.07947442 -0.081641376 0.06289315 0.018414337
0000d0 7a de ca bd de 73 b9 3d 94 f3 81 3d 45 17 9a bd
       -0.09905715 0.09055303 0.06345287 -0.075239696
0000e0 e1 70 29 bd 2d 6f 37 3d df e7 b6 3c 45 3b 91 bd
       -0.041367415 0.04478376 0.022327362 -0.07091383
0000f0 ba 8b 9e bd 9b ee 32 bd 99 52 82 bd 76 76 f7 3b
       -0.077414945 -0.043684583 -0.063634105 0.0075519634
000100 bc 16 2c 3d 17 63 7e bd 17 a2 b8 bd 94 9e fd 3c
       0.04201387 -0.06210622 -0.09015291 0.030959405
000110 21 fe 0f bd d9 31 54 3c c7 7b c4 3c 2f b6 67 bd
       -0.035154466 0.012951338 0.023984803 -0.05657023
000120 c4 95 ad bd 05 0f 9a bd e6 a9 d8 bc 90 67 12 bb
       -0.08475831 -0.07522396 -0.026448201 -0.002233956
000130 12 81 80 3d 55 57 5f 3b 99 e5 ce bc de c4 e2 3d
       0.06274618 0.0034079154 -0.025255965 0.11072706
000140 8f 56 15 bc 2c a3 e0 3c 41 4f 25 3d 40 51 c9 3d
       -0.009114875 0.027421556 0.040358786 0.0982995
000150 6a 26 1e 3d 5e 30 81 3b ac f3 2f 3c c9 13 1b bd
       0.038610853 0.0039425334 0.010739248 -0.037860665
000160 cf ff 13 bd 36 d1 e1 3d 68 c6 10 3d f5 ad 0b 3d
       -0.03613263 0.11026232 0.035345465 0.034101445
000170 1e 78 a9 bd a9 5e c0 3d 23 bb 00 3d e4 1d 5b bb
       -0.08274864 0.09393055 0.031428467 -0.0033434564
000180 31 23 c3 3c 9c ac 26 3e 8f bb 8e bd d6 e7 ab bd
       0.023820492 0.16276783 -0.06969368 -0.083938286
000190 88 61 4f bd c9 f8 68 bd 59 fd 3d be 88 c3 e7 3c
       -0.050630122 -0.056877885 -0.18553676 0.028291479
0001a0 87 44 da bc 2f 22 2d 3d 7c cc 28 3d ba 04 61 3d
       -0.026644005 0.04226893 0.041210636 0.05493615
0001b0 38 44 67 3d 69 85 26 bd 83 9c d9 bd 2e 1e e4 bc
       0.056461543 -0.040654574 -0.10625555 -0.027846422
0001c0 95 38 bd bd e2 2a 2b be 5b 46 62 bd 19 d2 4d 3d
       -0.09239308 -0.16715577 -0.055242877 0.050249193
0001d0 fe 3b db 3c 2a a5 86 3d b4 ad 43 3a 1c ea da bd
       0.026762005 0.06574471 0.00074645435 -0.10689184
0001e0 81 82 a3 bd 99 8d 3a bd 01 94 7f bd cf 2b bd 3c
       -0.07983876 -0.045545194 -0.062397007 0.023092179
0001f0 21 9b 9f bd 1b 33 0d bd c2 88 9b 3d fb bc f4 bd
       -0.0779326 -0.034472566 0.07594444 -0.11950108
000200 bb 25 98 bd 74 f9 9b 3c 80 68 9e 3d 62 66 c4 3d
       -0.074290715 0.019039847 0.077347755 0.095898405
000210 9c 68 12 be d8 10 d7 bc b9 c6 9e 3c 8d bc dc bd
       -0.14297718 -0.026253149 0.019381868 -0.10778151
000220 1d b6 41 bb 92 59 b8 bb 91 9e e4 bc aa 48 8f ba
       -0.002955801 -0.005625912 -0.027907642 -0.001093169
000230 ce 90 17 bd 44 39 7d 3d 72 c8 a7 bd 2e d1 0d be
       -0.03700333 0.06182219 -0.08192529 -0.13849327
000240 56 fb 05 be 6b 4a 92 bc eb 76 8a bd a6 09 9e 3d
       -0.13084158 -0.01785775 -0.06760963 0.07716684
000250 42 6e ef bd 29 b7 1e 3d 66 dc 2b 3c 28 df 3a 3d
       -0.11690952 0.038748894 0.010489559 0.045622975
000260 71 3d 2c 3d 4c e9 80 3d f5 d4 be 3c 17 e0 14 3d
       0.042050783 0.06294498 0.023294905 0.03634652
000270 83 f0 19 bd 4f 15 d9 bd e6 0b e0 bb d9 ce e1 3c
       -0.037582885 -0.105997674 -0.006837356 0.027564453
000280 6a c8 46 bd 5c d8 ef bd f1 e8 e9 3d 72 94 86 3d
       -0.048530973 -0.11711189 0.11421383 0.065712824
000290 68 0e 46 3d 44 7f ac 3d 45 f6 c4 3d a7 f7 b2 bc
       0.048353583 0.084227115 0.09617285 -0.021846605
0002a0 3d 43 18 3e 38 bd 03 bd a6 d0 25 3d b2 4b 68 3c
       0.148694 -0.032162875 0.040482186 0.014178203
0002b0 06 8f d6 3d d3 2c 11 3c a0 8b 16 bd 7a a6 b9 3d
       0.10476498 0.008860785 -0.03675425 0.09064956
0002c0 e2 86 92 bd c0 d7 49 3d 42 86 ba bd 6f 92 b1 bd
       -0.07154633 0.04927802 -0.09107639 -0.08670508
0002d0 33 72 40 3d e8 46 a5 bd b1 5b e5 3d f8 d1 b3 3d
       0.04698391 -0.08070165 0.111991294 0.08780283
0002e0 e3 28 29 bd be ce c6 3b ba 26 fd bd 28 6b 0d 3e
       -0.04129876 0.006067126 -0.12360902 0.13810408
0002f0 76 ae 00 bd f1 52 b1 bd a7 16 83 3d 07 b9 35 3d
       -0.03141638 -0.08658398 0.06400805 0.04436591
000300 93 02 d1 3c 2c 7e 17 be 45 91 af 3a f0 22 f1 3c
       0.025513923 -0.14794225 0.0013394734 0.029435605
000310 e4 cd 74 bd 6f cb 2e 3d 7e b2 b9 bd 0c 32 a6 bd
       -0.059766665 0.04267448 -0.09067248 -0.081150144
000320 6f fc 81 bd e2 6e e2 3d 58 09 ab 3c 8e 6e 66 3c
       -0.06346976 0.110563055 0.020878479 0.014064444
000330 e5 de b7 bd 38 bf ed 3d ec ed d0 bc 22 3d 17 be
       -0.08978061 0.11608738 -0.025504075 -0.14769414
000340 0f ba 15 3d 09 be 8f bc 79 96 72 bd 98 84 e3 bc
       0.036554392 -0.01754667 -0.059225533 -0.027773187
000350 17 3e b3 3c 3f 70 d2 3c c2 fe b1 bb 17 02 5d bc
       0.021880193 0.025688289 -0.005431981 -0.013489268
000360 4a 82 87 bd 3c 03 10 bd 5a f3 fb bd 4d 88 4a 3d
       -0.066166475 -0.035159335 -0.12302275 0.049446393
000370 41 50 d0 3d 72 41 60 bd eb 50 4c 3b 92 42 96 3c
       0.10171557 -0.054749914 0.003117616 0.01834229
000380 7d 7f fa bd e6 d9 f4 bd 37 6d 0c 3c 26 55 cb bd
       -0.12231348 -0.11955623 0.008570961 -0.0992835
000390 20 46 b3 bd a9 c7 ea bc 7e 9c 8b 3d 32 32 48 bd
       -0.0875361 -0.028659659 0.06816958 -0.048875995
0003a0 f6 c5 8a bb 2c 15 84 3d f7 7b 18 3b 56 7a 88 3d
       -0.0042350246 0.06449351 0.0023267248 0.06663959
0003b0 51 1d 0b 3e 99 8d 3d 3d 81 01 38 bc b8 62 42 bd
       0.13585402 0.046277616 -0.011230827 -0.047457427
0003c0 e5 0e 95 3d d3 84 9f bd 5a 76 19 3d 96 a9 d9 bd
       0.072782315 -0.07789006 0.037466384 -0.10628049
0003d0 a3 2c 9b bc da 05 0a bd ce b7 3d 3c 19 ed 25 3e
       -0.018942183 -0.033696987 0.011579467 0.16203727
0003e0 d1 81 f7 3c 79 83 87 bd c8 86 96 3d ee 3d 40 bd
       0.030213268 -0.06616873 0.07349926 -0.04693406
0003f0 77 bf 99 bd dc bf 90 bd b2 bb 49 3d 26 a2 2c 3c
       -0.07507222 -0.07067844 0.049251266 0.010536706

layers.block_3.layer.0.bias f4 [128]
000000 42 92 ab ba 8b 1a db bc da bd 93 bd 5d 51 26 3c
       -0.0013089853 -0.026746055 -0.07213946 0.010151234
000010 74 74 ee bc 56 38 84 bd 05 ba 36 3c 7a fa 15 bc
       -0.029108264 -0.06456058 0.011152749 -0.009153957
000020 3b 2f 05 bd a7 8d b4 bd 94 34 04 3d 21 f2 a9 bc
       -0.032515746 -0.088160805 0.032276705 -0.020745339
000030 7b 69 e9 bc 68 ac 92 bc 44 f4 53 3d c3 f0 24 bd
       -0.02849268 -0.017904475 0.05174662 -0.04026867
000040 2a 9c bc 39 d1 b9 81 bd 3d ac e6 bb f2 ac c8 bc
       0.00035974506 -0.0633427 -0.0070395754 -0.02449653
000050 f1 76 40 bd 64 d0 e4 bb 85 ce 79 bc 7d 3d cf bc
       -0.04698843 -0.00698285 -0.015246992 -0.025297875
000060 66 4a a9 3d a3 9e 9f bd f7 73 31 3d cf 38 43 3c
       0.082661435 -0.077939294 0.043323483 0.0119154
000070 7d 7e f6 bb 68 de dd 3b 47 49 91 3d 54 8d 76 3d
       -0.007522403 0.0067708977 0.07094055 0.060193375
000080 f2 de 87 bc 0f e0 80 3c a6 fb 2d bd cf d1 53 bc
       -0.0165858 0.01573184 -0.04247632 -0.01292844
000090 4d 24 19 3c 67 83 24 bd 46 1f a7 3c 06 f4 6b 3d
       0.009347034 -0.040164378 0.020400655 0.057605766
0000a0 c2 67 ef bc 1e 85 93 bd 2f ea 0d 3d 3b 01 4a bd
       -0.02922428 -0.072031245 0.034647163 -0.04931758
0000b0 4f 22 5e 3d 36 2e 4a 3d eb 52 ad 3c ed 5e 87 3d
       0.054231938 0.049360476 0.021157702 0.066099025
0000c0 58 f2 1d bd bf f1 1c bd 7a c4 ee 3c a0 2d 5b bd
       -0.038561195 -0.038316485 0.029146422 -0.05351031
0000d0 71 1b 23 3a ee 79 f6 3c 44 3b 54 bd 32 b9 2e 3b
       0.00062220456 0.030087437 -0.051814333 0.0026660678
0000e0 ac 6b 94 3d c6 13 8a bd 7e e0 ac 3c ad c3 14 3b
       0.07247099 -0.06742053 0.02110314 0.002269964
0000f0 06 4b 4f 3c 69 83 d9 3c cb 44 f7 bc eb a2 99 bd
       0.012652164 0.026551919 -0.03018417 -0.07501777
000100 b4 93 9d bd 3b d5 81 bc d1 6f 83 3d dc 3d 5f 3d
       -0.07694188 -0.015848747 0.06417812 0.054502353
000110 be e7 be 3d 88 92 2c 3d 30 b1 95 3d 64 e0 4c 3d
       0.09321545 0.04213193 0.073091865 0.050018683
000120 4e 11 a3 bd 91 db ce 3c 3f fc 7c bd e8 3d 71 bc
       -0.07962285 0.025251182 -0.061763998 -0.014724232
000130 d9 f7 34 3d fb ab 78 bb 41 65 d5 3c 93 83 85 bd
       0.04418168 -0.0037944305 0.026049258 -0.065192364
000140 74 99 c2 bc d4 5f 02 3c ed d5 0f bd 0a 3a fd 3c
       -0.023754813 0.0079574175 -0.035116125 0.030911464
000150 56 37 23 bd 33 9b b0 bd 85 47 61 bc 42 40 31 3d
       -0.039847694 -0.08623352 -0.013749962 0.04327417
000160 0f 61 1e 3d 4b de 9d 3d cf 72 4a 3d f1 42 a6 bd
       0.03866678 0.07708415 0.049425896 -0.08118237
000170 52 b0 51 bd 37 fd 82 3d 3c 2f be bb 87 f7 c9 bc
       -0.051193543 0.06395953 -0.0058039706 -0.024654163
000180 34 7f 96 3d f4 c7 44 3c 4d fb e3 3d d6 f8 dd 3d
       0.07348481 0.012010563 0.11131916 0.10838477
000190 be d9 ad bd c7 44 43 bd a6 d8 9e bd ef d0 bd bd
       -0.08488797 -0.047673013 -0.07756166 -0.092683665
0001a0 31 12 c7 bd 2f 39 15 3e fa 69 65 3d 47 91 9d bd
       -0.097202666 0.14572595 0.05600927 -0.07693725
0001b0 8d 90 bd bc 5d 12 b2 bd de 42 88 3d cc 66 74 3d
       -0.023140216 -0.08694909 0.06653379 0.059668347
0001c0 ea b4 6d bd 3c bc c1 3d 17 d8 45 bd e6 c6 9b bd
       -0.05803386 0.09459731 -0.048301782 -0.07606296
0001d0 ff 96 96 3d b2 a8 01 3d 78 62 1b 3d 17 ec 9e 3d
       0.07353019 0.03165502 0.037935704 0.07759874
0001e0 3f 0e b5 3c e2 9e 24 3a be 1c 68 bd 80 3f b7 bd
       0.02210152 0.0006279779 -0.056668036 -0.089476585
0001f0 53 25 0a bd 14 77 6b 3d b7 d0 9d bd da 77 ab 3d
       -0.033727 0.05748661 -0.07705825 0.08372469

layers.output.weight f4 [2, 128]
000000 bb 43 bf 3b a6 8b 8c be fb 18 3e be b1 59 2c bf
       0.0058369315 -0.27450293 -0.18564217 -0.6732436
000010 47 35 79 be d1 30 39 be bd ce 1f bd 33 74 44 3f
       -0.2433673 -0.18085028 -0.03901552 0.76739806
000020 63 0f eb 3d 12 a1 2b 3e c8 44 43 bf e7 c6 ec 3d
       0.11477544 0.16760662 -0.76276827 0.11561375
000030 0a c6 7c be d6 9c 04 3e 09 ec 1d be 07 20 1c 3d
       -0.24684921 0.12950453 -0.15422072 0.03811648
000040 f9 0f 52 bd c7 a4 23 be d8 58 ae be 84 dc 84 3e
       -0.051284764 -0.15980826 -0.34052157 0.2594949
000050 cd 87 23 3f 0b 97 ed 3d 10 c4 19 bb c8 f8 87 bd
       0.6387909 0.11601075 -0.002346281 -0.06639248
000060 49 dc 04 bd c8 c2 2a 3d 7b 4b 1d be 46 6f 5f bf
       -0.032436643 0.041689664 -0.15360825 -0.87279165
000070 18 b3 3f bf 81 bc 80 bf c3 34 04 3e d9 1c d3 3e
       -0.7488265 -1.0057527 0.12910752 0.41232947
000080 34 7b 87 3d cd ce 90 3f 39 9a ae be af 02 3c bf
       0.06615296 1.131311 -0.34102038 -0.73441595
000090 0a 31 1c be 39 8f 45 3f 87 28 48 3e 47 8a 8d be
       -0.15253082 0.77171665 0.1954671 -0.2764456
0000a0 df 6e 5b 3f 37 9e 55 3e bb 78 7e 3f b9 73 85 3d
       0.8571605 0.20861135 0.9940297 0.06516213
0000b0 5a 2e 1c 3e ac 31 81 be cd c2 f3 bd 0f f6 24 3e
       0.15252057 -0.2523321 -0.1190239 0.16109489
0000c0 ae c1 c3 3d 77 68 75 bd 32 f2 c1 bc e1 8d 92 bd
       0.09558426 -0.05991408 -0.023675058 -0.071559675
0000d0 85 32 8c 3c 60 8f 4c 3e 6b 20 aa 3e 56 8b 99 3c
       0.017113933 0.19976568 0.33227858 0.018743198
0000e0 80 e6 2c be cc d3 69 3f a7 b8 90 3f 93 d9 1e 3d
       -0.16884804 0.913388 1.1306351 0.038781714
0000f0 29 68 76 3e 5b 4a dd bd c9 98 8d 3d 52 b6 86 3e
       0.24063171 -0.10805198 0.06913907 0.26310974
000100 d9 31 d8 3c 25 37 8d be 5c e4 29 3e 1b 71 ab 3d
       0.026390957 -0.27581134 0.16591018 0.083711825
000110 4e ab ec be 8b d8 23 bf 4d 34 95 3e f7 58 b1 bd
       -0.46224445 -0.64002293 0.29141465 -0.08659547
000120 21 c9 46 3f e4 94 35 3c 82 39 58 bf d7 01 a2 be
       0.7765065 0.011082862 -0.8446275 -0.3164203
000130 9f dc 4b bf 38 45 79 3e 22 77 03 be d2 4b bd bd
       -0.79633516 0.24342811 -0.12838414 -0.09242977
000140 20 94 ed bc 58 2b 5c 3e dc ec 08 3d 87 2b 14 3f
       -0.029001296 0.2150091 0.03342901 0.5787892
000150 68 80 ab 3e 77 52 15 be 11 bd 6f be b8 91 2d 3e
       0.33496404 -0.14582239 -0.23411967 0.16950119
000160 7a 3d ce 3b 09 45 6a bc c7 45 2e be 1c c6 7b be
       0.0062939497 -0.014298686 -0.17018805 -0.24587291
000170 31 43 b2 3e 6a 0f 41 3d c6 58 0d be 58 40 8f 3f
       0.34816888 0.04713384 -0.13803396 1.1191511
000180 86 6b 46 3e 12 3f e2 3e ad b2 29 bf be 1a fd be
       0.19376954 0.44188744 -0.6628826 -0.49434465
000190 5d d5 21 be c2 4d 3e 3f fb 7b 01 3c 2b ce 46 3f
       -0.15804048 0.743374 0.007903094 0.7765834
0001a0 c3 96 61 bf b4 a7 2a be f8 00 a7 be 1b d7 4f be
       -0.8812067 -0.16665536 -0.32617927 -0.202969
0001b0 ad 06 34 3e b5 91 90 be 85 3f 4c 3e 85 bf 1d 3e
       0.17580672 -0.28236166 0.19946106 0.1540509
0001c0 3e 3f 5f 3c da 01 8c bd 60 65 92 be 03 94 16 be
       0.013625918 -0.06836291 -0.28592968 -0.147049
0001d0 87 89 5f be 9b 5f ee 3d 92 de 6f 3f 9a 21 48 bf
       -0.21829806 0.11639329 0.9369899 -0.7817627
0001e0 43 12 2f be 41 94 f9 3d 5a eb 59 bd 74 34 97 be
       -0.1709681 0.1218648 -0.053202964 -0.29532206
0001f0 66 20 a0 bb a8 5c 87 be 03 7b 01 3d 84 7a 5e 3e
       -0.0048866747 -0.2643788 0.031611454 0.21726424
000200 8b 8c e6 3d 92 d9 65 bd b5 86 50 be 77 23 ba 3e
       0.11257275 -0.056115694 -0.20363887 0.36355183
000210 67 55 24 be f4 e0 69 bd 71 25 b1 bc fc b6 1f be
       -0.16048203 -0.057099298 -0.021624299 -0.15597147
000220 e1 ab 8c be de 2d e6 be 29 15 6c 3e b3 20 a2 3d
       -0.27474883 -0.4495687 0.23054947 0.07916393
000230 07 a3 a3 bd ba 8f 64 3e 59 49 ec bd 60 13 b3 3e
       -0.079900794 0.22320452 -0.115374275 0.3497572
000240 4c 6b 02 be 01 96 ce bd b8 da 14 3e 86 e3 b7 be
       -0.12736243 -0.10087205 0.1453656 -0.35915774
000250 b7 d5 a7 be 4b 01 70 3d f7 67 21 be 2f 4f 9b 3e
       -0.3278024 0.058594983 -0.15762316 0.3033385
000260 55 18 14 be 1d 7e dc 3d 63 25 1c be 34 3f 82 be
       -0.14462407 0.10766242 -0.15248637 -0.25438845
000270 f1 56 02 be 39 c1 04 3f ba 5c 26 be b0 d7 17 be
       -0.12728478 0.51857334 -0.1624631 -0.14828372
000280 86 ac 8e 3d 0f 4b 5b 3c 5e 77 4e 3f 04 dd 80 bd
       0.069665 0.013384595 0.8065089 -0.062921554
000290 5a d8 92 be 2f f9 1b be c5 0a 72 be b1 93 8a bd
       -0.28680688 -0.15231775 -0.23636921 -0.06766451
0002a0 5b 4d 0f bd 7d 8f cc 3d 2d 9f ce 3e 60 83 24 bd
       -0.03498588 0.09988306 0.40355816 -0.04016435
0002b0 11 25 50 be b9 00 07 be fe ca be bd bc 2d 94 3d
       -0.2032664 -0.1318387 -0.093160614 0.07235286
0002c0 18 ab d0 3d 1c 43 19 bf 74 f2 84 3d b7 9c 94 bd
       0.101888835 -0.59868026 0.06491557 -0.072564535
0002d0 1a 98 05 3e ef 58 ab 3d 7c 18 99 be 9d 29 af 3d
       0.13046303 0.08366572 -0.29901493 0.08552859
0002e0 d8 81 61 be 4e 5b e9 be 69 8c 64 be d0 89 95 3e
       -0.22022188 -0.45577472 -0.22319187 0.29206705
0002f0 9e 4d 19 3e 8f bd 71 3d 08 41 08 3c 84 23 49 be
       0.14971015 0.059018668 0.008316286 -0.19642454
000300 53 0f 8d 3e ee e4 81 bd 28 b7 6d be 67 2d a2 3e
       0.27550754 -0.06342493 -0.232144 0.31675264
000310 56 17 0e bc c6 a3 86 be 91 d7 ea be 8e 2f 52 be
       -0.008672556 -0.26296824 -0.4586759 -0.20525953
000320 32 9c d1 be 66 46 5b be 22 b1 67 3e 6a a8 e7 3e
       -0.4093948 -0.21413574 0.22626165 0.45245677
000330 d9 c2 ea 3e 5e 12 2d 3e c9 c8 30 be 40 f7 03 be
       0.45851782 0.16901538 -0.17264093 -0.12887287
000340 fd e0 06 be 29 9b 04 3f b1 55 76 3b 6a 2d 5d bf
       -0.13171764 0.51799256 0.0037587697 -0.8639742
000350 58 0b 27 bf 68 cc 65 bd 1b 13 2f 3e e1 d0 e1 be
       -0.65251684 -0.05610314 0.17097132 -0.44104674
000360 7b 89 1c bc c7 5c fe 3c d0 1b 21 be 3d aa 0a be
       -0.009554262 0.031050099 -0.15733266 -0.13541503
000370 f6 ef a0 be b8 9f 03 3e b2 33 57 be e2 99 e4 be
       -0.31433076 0.12853897 -0.21015814 -0.44648653
000380 a9 36 85 be 05 a1 f5 be dd 7a 30 3f f6 92 11 3f
       -0.26018265 -0.4797441 0.68937474 0.5686487
000390 cd 5b 86 be d3 11 4b bf c4 3f a3 be b2 88 2f 3e
       -0.26241913 -0.7932407 -0.31884587 0.17141989
0003a0 29 90 41 bd cc 7d 56 3e 95 15 e3 be 48 87 6e 3f
       -0.047256622 0.20946425 -0.44352403 0.9317517
0003b0 f1 a8 b1 be 68 5f 86 3e 34 6b 3b 3e 9a 0d bc 3d
       -0.34699205 0.26244664 0.18302613 0.09182282
0003c0 11 86 67 3e 7e 50 37 be ad 52 be 3e 7a 4d 57 3e
       0.22609736 -0.17901799 0.37172452 0.21025649
0003d0 ff a2 bb bd e7 ec 07 bf ea 62 cc be fe 45 21 3f
       -0.091619484 -0.5309586 -0.39919215 0.62997425
0003e0 01 d4 9b bd 37 39 9f 3d 0b 67 9d 3e 9c cc 08 3d
       -0.07608796 0.07774585 0.30742678 0.033398256
0003f0 54 f6 ab 3e 70 fa 37 3e 3c 19 b4 3d 14 47 c2 3d
       0.3358637 0.17966628 0.087938756 0.09486213

layers.output.bias f4 [2]
000000 ac 42 2c 3e 66 85 2c bd
       0.16822308 -0.042119406
