results/VANILLA/Vanilla0/vanilla5k/model.pth (torch, 205093 bytes, 10 tensors)

layers.block_0.layer.0.weight f4 [128, 2]
00000000: 6111 9cbe f730 5a3e a324 503f 7ccd 83bd
00000010: 3adb 833f f9d4 b43e f11f 413f 0166 463f
00000020: b073 8cbf 8288 2a3f 4ada 22bf b603 083f
00000030: 9a52 063e 7a77 a63e b99d 6d3e 67c4 493f
00000040: 42d0 2dbf c6f1 1cbd 9f9f 78be ac4c a33e
00000050: b9fe 663f e574 3abf 6d11 c63e b230 ac3e
00000060: 7dd6 0fbf c5c3 94be 3683 f23e 9275 eb3e
00000070: dcb8 90be e79a 34bf d4b5 bf3e a7ed a2be
00000080: 15b9 5d3e 96db 133f 1dc0 5bbf f5d9 533e
00000090: c848 903e 55d8 c0be 5cff 583f 10c0 923e
000000a0: 68da 4dbf 96d3 013f 22d1 8bbe 6039 f2be
000000b0: 91d4 a9be 49cc 4d3f cf99 313f 715a 873e
000000c0: 6b78 933f 1398 643e 9e37 7d3f 0cbd 32bf
000000d0: c6b4 8d3f 571c 983d a36e a63d 9cb3 24bf
000000e0: 21e9 2cbe 6e8b 36bf dfc7 3fbe b0c3 c0bc
000000f0: 7fdc 72bf fe5e d83e 4f14 7c3f 13dd 8d3e
00000100: a749 ea3d 148c d23d 2315 4a3f 9465 f2be
00000110: ee19 3bbf b0b8 31bf 92d1 283f afc3 b63e
00000120: c662 8d3f ad5b 173f 391d 723f 89b7 0cbf
00000130: a7cf aa3d 8a0c 333f 3942 61be bda5 0cbf
00000140: a7fa 2a3f cd21 123f 25a6 7dbf 8a0b f3be
00000150: c53d 60bf dd99 60be aa82 263f 22de 9f3e
00000160: 0847 16bf eca0 03bf 9da6 ff3d 0cbc 253f
00000170: a370 d5be a75a 113f faa0 893c a325 fa3e
00000180: e11b 50bf b261 31bf 58da 21bf 4463 f2be
00000190: 6b6d 223f b1c6 f3be 72e6 923f 6605 26bf
000001a0: 528d 1c3f 5aa5 08bf dce6 9c3f 5af4 bebc
000001b0: 2b6c 51be 59cd 29bf 8c10 393f 8c87 7abc
000001c0: d9dd 303f 1568 cc3e faef 62bf 9f01 31be
000001d0: 0e54 51bf 76f8 a03e de86 cc3e 00a1 8f3e
000001e0: 5f47 6c3e e065 61bf 77ce 3f3e 6407 56bf
000001f0: 33b2 283f 2af2 6c3e 7523 e5bd 4aca 39bf
00000200: a85b f03b df80 e6be 34a5 28bf 0984 b0be
00000210: 6f4e 4abf 7884 553e 0716 1cbf a1c6 cb3e
00000220: 41bb 09bf c275 8b3e 548e 273f c33e 11bf
00000230: cf53 8dbf 711e d43e 788a 263f 6617 adbe
00000240: a3b4 ca3e eaaa 2cbf 49e9 cebd d5c0 5b3f
00000250: 4eff 8e3f 10c6 45bf 2fd1 c53e 4178 393f
00000260: 31fd 43bf 8c81 78bd 896f 2b3f fc03 263f
00000270: f2dc 55bf d1ea e83e 78d2 333f 8e07 9a3e
00000280: 5e59 8f3e e475 53bf 841a 7abf e465 cd3e
00000290: b63c 66bf 0188 203f 8f8e 1ebe 88f9 103f
000002a0: 05a7 6fbf a407 103f ffed 82bf d316 d4be
000002b0: 2b7f 5abe 8d5f 28bf 6a10 6e3e c828 583e
000002c0: 5d4c 76bf 6df7 d83c 3f77 edbe c7bc e73d
000002d0: 9a81 2fbf 68d6 2abf aa63 75bd 5ccd 04bf
000002e0: b199 5c3f fe7f 49be bdca 9c3e 2be1 2bbf
000002f0: 67bc 14be 46c2 083f e672 81bf 8e9e e9be
00000300: a582 80bf 2bbe 24bf c37d 833f 9bdc 0ebd
00000310: f4ac 56bf 09cf 12bf 1735 7c3f f7f6 b33e
00000320: 17b1 973e fd2f 3ebf 9694 0d3f 2a27 023e
00000330: 1e5f 2dbe 96f5 d3bb 5191 5dbf 4fee 8dbe
00000340: 5d30 8e3f a77d 70be 1960 afbe b4ac 06bf
00000350: 6052 06bf c4ce 113f cb27 623f 14c2 16bf
00000360: 6fc3 9dbf 5944 c03d 7a8b a8be d934 7e3e
00000370: 46cb 883f 5c21 023f 5129 863f f560 38be
00000380: 4250 72bf 703b 053f 828f f93e acae a73e
00000390: cfa9 08bf 07d5 8ebe db3b 3c3f f8df 69be
000003a0: 2ab9 933d b589 28bf 11aa 763f 8d88 ec3d
000003b0: f844 46bf 67d0 debe 33ac 26bf a4aa 35be
000003c0: 2dcd 593f a23e 07bf ea19 7c3f fc77 8cbe
000003d0: 3bae 40bf 63dd 02bf e4b0 8ebe 9d80 253f
000003e0: 9489 21bf 1197 063d e33e 843f 7fe6 06bf
000003f0: a181 2d3e bb1f 02bf eeed 853f f722 b93e
-0.3048201 0.21307741 0.81305903 -0.064356774 1.0301278 0.35318735 0.75439364 0.77499396
-1.0972805 0.66614544 -0.6361433 0.5313066 0.13117447 0.32513028 0.23204698 0.7881531
-0.678959 -0.03831651 -0.2427964 0.31894433 0.90232426 -0.72834617 0.3868517 0.33630902
-0.5618666 -0.2905561 0.4736573 0.45988137 -0.28266037 -0.7054886 0.3744341 -0.3182194
0.21652634 0.57756937 -0.85840017 0.20688613 0.28180528 -0.37665048 0.8476465 0.28662157
-0.80411386 0.5071348 -0.27307993 -0.473094 -0.33169988 0.8038984 0.6937532 0.2643619
1.1521124 0.22323637 0.9891299 -0.6981971 1.1070793 0.074272804 0.08126571 -0.6433656
-0.16885807 -0.713065 -0.18728589 -0.023530811 -0.948677 0.42259973 0.9846849 0.2770773
0.11439829 0.10280624 0.789385 -0.47343123 -0.7308644 -0.69422436 0.6594478 0.3569617
1.1045768 0.5912426 0.9457584 -0.5496755 0.08340388 0.6994101 -0.21997918 -0.54940397
0.66788715 0.57082826 -0.9908164 -0.4746974 -0.8759425 -0.21933694 0.6504313 0.3122416
-0.58702135 -0.5141742 0.12482951 0.6474006 -0.41687497 0.5677895 0.016800392 0.4885684
-0.8129254 -0.69289696 -0.6322379 -0.4734136 0.6344821 -0.47612527 1.1476576 -0.6485199
0.6115314 -0.53377306 1.2257953 -0.023309875 -0.20451419 -0.6632896 0.72290874 -0.015291106
0.6908851 0.39923158 -0.88647425 -0.17285775 -0.8176888 0.3143956 0.39946645 0.2805252
0.23074101 -0.88046074 0.18731104 -0.8360503 0.6589691 0.23139253 -0.111884035 -0.72574294
0.007335145 -0.45020196 -0.6587708 -0.34475735 -0.7902593 0.20851314 -0.6097111 0.3979998
-0.5380135 0.2723828 0.6545155 -0.5673639 -1.1041201 0.41429475 0.65055037 -0.33806914
0.3959094 -0.67448294 -0.10103089 0.85841113 1.1171663 -0.77255344 0.38636157 0.7244912
-0.76558214 -0.06067042 0.66967064 0.6484983 -0.8354026 0.4549165 0.70243025 0.3008389
0.2799787 -0.8260176 -0.9769671 0.401168 -0.8993639 0.62707525 -0.1548407 0.56630754
-0.93614227 0.5626166 -1.0228881 -0.41423663 -0.21337573 -0.657708 0.23248449 0.21109307
-0.9621027 0.02648517 -0.4638004 0.11315303 -0.6855713 -0.6673341 -0.0599095 -0.51875854
0.86172014 -0.19677731 0.30623427 -0.67140454 -0.14524995 0.5342144 -1.0113189 -0.4562878
-1.003987 -0.64352673 1.0272754 -0.034878355 -0.83857656 -0.5734716 0.9851851 0.35149357
0.29627296 -0.74291974 0.5530485 0.12710252 -0.16930816 -0.006468485 -0.8654986 -0.27720878
1.1108509 -0.23485433 -0.34253004 -0.52607274 -0.52469444 0.56956124 0.8834197 -0.5888989
-1.2325267 0.09388036 -0.32918912 0.24824847 1.0687034 0.5083215 1.0481359 -0.18005736
-0.94653714 0.5204382 0.487423 0.32750452 -0.5338411 -0.27896902 0.7352883 -0.22839344
0.072130516 -0.65835124 0.9635325 0.115494825 -0.7744899 -0.43518373 -0.65106505 -0.17740875
0.850787 -0.52829945 0.9847704 -0.2743529 -0.75265855 -0.5111906 -0.27869332 0.64649373
-0.6310055 0.032858912 1.0331692 -0.5269546 0.16943981 -0.50829667 1.0463235 0.3615949

layers.block_0.layer.0.bias f4 [128]
00000000: 100c 1a3f abd6 03be 6f2e f3bd 9a63 39bf
00000010: e5ae 14bf 8e84 29bf e682 b13e 50b4 75bd
00000020: 7e7d 74be bc4b f13e f49e 1d3f b3d7 1a3f
00000030: 1f0e b5bd 99e1 1cbd 2676 7abe d6ef 77bd
00000040: 6374 d7be 47ba 86be 1c6a 26bf 3e37 6c3c
00000050: 043c 8ebe d322 24bf e35b 9a3e d270 20bd
00000060: 5bca 1cbe e930 113f 1663 c4bd 59ce 0ebf
00000070: 96d0 21bf 9a49 233f f9c7 0a3d ee2e cbbe
00000080: a725 043f 0a20 00bf 03ce 043f 7770 ff3e
00000090: ae55 c9be 8eb6 c13e bb3d e2be 75c3 f1be
000000a0: 3a9d 513e 8e85 ff3d 6ae0 43bd bd1e 8ebe
000000b0: 2c78 463d 42bc 0ebf 4dfa 6dbe 2ba3 0a3f
000000c0: 55d0 2b3f fa9a 673e 7c91 d73e ef8c 743e
000000d0: ee55 ef3e 12e5 063d 6487 a73e ee05 393e
000000e0: 9810 123f af03 9d3e 0291 1ebf fb8d 2ebf
000000f0: 1427 c5be 9ed5 36be 9e72 11bf 9afe adbe
00000100: f5d0 2fbf bd55 103f 3148 ffbe f712 113f
00000110: 0071 b1be f3ff 353e e18f b7be 009d 173f
00000120: 2790 9e3e 99b6 ee3e 1277 3d3f 28ac 06bf
00000130: 7b56 b23e 6ab5 25bf 1347 42be 4627 1dbe
00000140: 21d8 91be 67da 12bf 40af 2cbf a2a4 04bf
00000150: 9a10 0ebf 2b83 993e af66 07be f65e 39be
00000160: 8eaa a9be 44b3 16bf ae84 3a3f cff7 fb3e
00000170: 1564 993e f191 a23d 6107 ab3e 87fd b83e
00000180: 3d3f 093f 4ef8 893e 5bfb b53e 57eb 72be
00000190: 7d22 8abe 7ebf 23bf d373 0c3f eea4 1f3f
000001a0: d3b3 573c 238f f4bc 571d fbbe c864 1e3f
000001b0: d3bc 8a3d b698 353e ddee e6be f7e0 e63d
000001c0: 1fa3 abbe 4c12 113f 474c b2be a7a6 893e
000001d0: a2e8 b6be 4c88 5fbe 7c02 1c3f c742 2b3f
000001e0: 834a 273f 0898 e23e 7b47 cfbe fd86 3fbd
000001f0: 572c 0f3f 1d83 713e 0cf5 083c 7ce0 96bd
0.60174656 -0.12874858 -0.11874091 -0.72417605 -0.5807937 -0.6621789 0.3467018 -0.059986413
-0.23875996 0.47128093 0.6157067 0.6048538 -0.08840584 -0.038301084 -0.24459133 -0.06053146
-0.42080984 -0.26313993 -0.6500566 0.014417468 -0.27780163 -0.6411564 0.3014823 -0.039170094
-0.15311567 0.56715256 -0.09589212 -0.5578361 -0.632089 0.6378418 0.033882115 -0.39684242
0.5161995 -0.5004889 0.5187685 0.4989049 -0.3932318 0.3783459 -0.44187722 -0.47219434
0.20470133 0.124766454 -0.04782144 -0.27757826 0.04845445 -0.5575601 -0.23240013 0.54155225
0.67114764 0.22617713 0.42103183 0.23881887 0.46745247 0.032933302 0.32720482 0.18068668
0.5705657 0.30666873 -0.61940014 -0.68185395 -0.38506377 -0.17854926 -0.56815517 -0.33983308
-0.6867822 0.56380826 -0.49859765 0.56669563 -0.34656525 0.17773418 -0.35851958 0.5922394
0.30969355 0.46623686 0.7400981 -0.5260644 0.34831604 -0.6472994 -0.18972425 -0.15347013
-0.28485206 -0.57364506 -0.6745491 -0.5181371 -0.5549408 0.29982886 -0.13222764 -0.18102631
-0.33137935 -0.5886729 0.72858703 0.492125 0.2995917 0.07937992 0.33404067 0.36130926
0.5361212 0.26947254 0.35543332 -0.23722588 -0.26979437 -0.6396407 0.54864234 0.6236104
0.013165432 -0.02985341 -0.49045822 0.6187253 0.067742966 0.17734036 -0.45104113 0.112733774
-0.3352289 0.56668544 -0.3482382 0.26884958 -0.3572436 -0.21829337 0.6094129 0.6689877
0.6534807 0.44256616 -0.40484223 -0.046759594 0.5592703 0.23585172 0.008359205 -0.07367036

layers.block_1.layer.0.weight f4 [128, 128]
00000000: 9d6f 70ba dc81 c63c 38a8 b53d 8818 38bd
00000010: 2982 a7bd c279 2bbd a17c 713c f47a 0e3b
00000020: 53ef 92bd ede4 723d 5782 e5bc 20e3 31bd
00000030: 6158 9e3c a3c9 253d 50a0 27bc 5a15 a7bc
00000040: f8df 16bd 1cac 20bd 0879 853d e3b6 ebbc
00000050: 26da c0bd 408a 0fbc a1a9 523d 50f6 2d3d
00000060: f5ca 893d ad90 c33d 1920 2cbd 2323 7b3d
00000070: 745c e33c 865e 443d bf30 8dbd 9f2c 91bd
00000080: ddc0 f63c 06c8 8dbc abf2 9d3d a9af 913d
00000090: 229f b8bd e1ad c73d 467e b0bd 8a60 acbd
000000a0: b74a 6fbd 2fe7 953d ef02 9a3c 89b8 643d
000000b0: f4c1 91bc 8456 8cbd 7c56 a3bd 7851 a6bd
000000c0: 71e8 453d 68ca d63a 1059 053d 4f74 323d
000000d0: a242 6bbd 2540 2fbd 3266 ffbc 9737 e43b
000000e0: 73a5 8e3d 4d4d 5c3d 3f68 12bd 7240 03bd
000000f0: 812f a3bc 4baa 80bd d3d5 84bd b8e9 ac3d
00000100: 3372 773d 0616 1b3d b9c2 7abd 5c0e 3cbd
00000110: 17eb de3c 1991 be3b 0ee6 f5bd 0661 8cbd
00000120: 44ef 013e 83dc 9a3c 4bff df3d 6cd7 573d
00000130: f9eb 133d fc04 84bd 7c54 4cbd 6e40 38bd
00000140: 93da 44bd f2bb 4fbd bb8c 323d 331d 6b3d
00000150: 30ca a0bd ddfa 11bd c99b eb3c 708d 47bc
00000160: 8139 083d 19a6 62bd b4f7 4d3d e93d 493d
00000170: 5658 ba3d f0d5 f33d ac53 3f3d 2e7f 5ebd
00000180: 3f94 0d3d a347 753d 72fb 373d e6ca 96bd
00000190: e040 aebc 693e 913d 88aa 90bd 82b9 403d
000001a0: 44b7 fb3d 061a 6a3d db65 fa3c 2fbe bc3d
000001b0: b753 273c 965d fa3b 8234 7f3d 96a7 b63d
000001c0: 09fe 61bd ce13 8a3d 1421 f23c cf24 d1bc
000001d0: d3d6 a23d 6d54 063c 02cb 79bd 0c38 ab3d
000001e0: 5364 863d e96d ad3d 2753 c03c b000 c4bd
000001f0: 8bf7 923d 29c2 c23c 4ee8 e73d ab2f 7a3d
00000200: e3c3 303d 602a 213e 2f4f 143e e0ed a43d
00000210: 8f41 ce3c 98f7 36bd 2349 1e3d d06a 673d
00000220: fc1d eabb 789a 48bd 5cf7 1c3d 794d 443d
00000230: 5912 a3bd 9d45 de3d 7d97 48bd e91a 0ebd
00000240: 47fa bd3d df03 d6bc 81bf 963d 18aa bc3d
00000250: 6e29 44be 0f71 f1bc a8a5 fdbd ded8 f73d
00000260: 810f 023e 56dd 013e 9932 563d deef 3c3d
00000270: 09c0 173d b3b1 aebd 36ec 5b3c 8841 513c
00000280: 7da6 a2b9 5169 fc3c ff88 0cbe 0e8f ff3d
00000290: a627 ed3d f7d4 3c3d b369 91bd 55d5 813c
000002a0: 7374 eb3d 0436 d9bd da68 0abe bdef ec3d
000002b0: 8b1b 16be 7d75 45bc 6bdf f6bd 0705 6f3d
000002c0: 304f 9c3c 4ac0 10be db3b 9b3d 4808 cb3d
000002d0: 3a1a a0bc 9df3 863e 3f88 0c3d a4bb 203e
000002e0: 20f4 a53d 2048 c7ba faa3 c4bd fb91 3ebd
000002f0: c02b d53d a18d ba3d a11e cd3d c666 7bbd
00000300: 6a04 83bc 085d 61bd 8ff1 1fbe 0f86 88bd
00000310: 5b8e 8cbd 2d4c d93d a903 2fbd 7862 be3d
00000320: 5d1b 5b3d f71b a8bd ce16 83bc e746 783d
00000330: 16d0 d5bd 6f2d 1abd e790 d0bc f959 443e
00000340: 4a7f 3abd be30 6bbd 05eb aabb 4c79 523d
00000350: cdbe 57bd c8f4 b3bc e70e 31bd 0d59 ee3d
00000360: 7b8d 0fbe 2c63 54bd 9ea6 cbbd 26d5 cabc
00000370: f2d7 ff3d 23f8 093e d181 8ebd a170 85bd
00000380: 0015 233c 5282 173e 4a41 ddbd 1138 483d
00000390: fd09 063d 85ce cfba 0592 833d 74f1 86bd
000003a0: 054b 9b3d a4d1 5d3c 1dcd 163d d5fa ef3b
000003b0: 5ba2 b6bc 1bf2 f93c 6240 803d d8db 613e
000003c0: 49c9 f0bd 8a61 083c dc65 b5bd 1e4a 113e
000003d0: ee48 00bd 9b5a 873c 522d 5fbc 3bce 36bd
000003e0: 7101 7a3c 883c 233e c43c a2bd aca3 fdbd
000003f0: 5a96 ecbc 349e ad3d 829a 9c3d 8c6e c23d
-0.0009171905 0.024231844 0.08869976 -0.04494527 -0.08179123 -0.041864164 0.0147391865 0.0021740766
-0.07174554 0.059300352 -0.028016252 -0.043429494 0.019329252 0.0404755 -0.010231093 -0.020395923
-0.036834687 -0.039226636 0.065172255 -0.02877373 -0.094166085 -0.008760989 0.051431302 0.04247123
0.06728164 0.09549079 -0.0420228 0.061312806 0.027754046 0.047941707 -0.06894063 -0.07088589
0.030121261 -0.017307293 0.07712301 0.07113583 -0.09014727 0.09749962 -0.08617835 -0.08416851
-0.058420863 0.073194854 0.018800227 0.05584005 -0.01779268 -0.06852439 -0.0797548 -0.08121008
0.048317377 0.0016387226 0.03255564 0.04356795 -0.057436593 -0.042785782 -0.03117666 0.0069646346
0.06965151 0.053784657 -0.035743948 -0.03204388 -0.019920113 -0.06282481 -0.06486096 0.08443016
0.060411643 0.0378628 -0.06122086 -0.04591213 0.027211709 0.005815637 -0.1200677 -0.06854443
0.12688929 0.018903976 0.10937365 0.052695677 0.036113713 -0.06446263 -0.049885258 -0.04498332
-0.04806001 -0.050716348 0.043591242 0.057400893 -0.07851064 -0.035639632 0.028760808 -0.012179717
0.033257965 -0.055334184 0.050285056 0.049131308 0.0909888 0.1190604 0.046710655 -0.054320507
0.034565207 0.05988277 0.04491753 -0.073629186 -0.02127117 0.07091982 -0.07063776 0.047051914
0.122908145 0.057153724 0.030566147 0.09215962 0.01021283 0.007640551 0.062305935 0.08918683
-0.055173907 0.06742059 0.029556789 -0.025530247 0.07951131 0.00819884 -0.06098462 0.083602995
0.06562104 0.08468229 0.02347715 -0.09570444 0.07176121 0.023774223 0.113236055 0.061080616
0.043155562 0.15738821 0.14483331 0.080531836 0.025177745 -0.044669718 0.038643967 0.05649835
-0.0071446877 -0.048975438 0.038321838 0.047925446 -0.07962484 0.108531214 -0.048972595 -0.034693632
0.09276252 -0.026124893 0.07360745 0.0921213 -0.19156429 -0.029472856 -0.12385112 0.12101911
0.12701227 0.12682089 0.052294347 0.046127193 0.037048373 -0.08529987 0.013423016 0.0127719715
-0.0003102309 0.030811938 -0.13724135 0.124784574 0.11579828 0.046101537 -0.07100239 0.015848795
0.1149682 -0.10606006 -0.1351656 0.11569164 -0.14658944 -0.012051937 -0.12054332 0.058354404
0.019080728 -0.14135852 0.07579776 0.09913689 -0.019543756 0.26357737 0.034309622 0.15696579
0.08103204 -0.001520399 -0.096015885 -0.046525937 0.10408735 0.09109045 0.100156076 -0.06137731
-0.015993316 -0.055020362 -0.15619491 -0.06666195 -0.0686309 0.106102325 -0.0427281 0.09296125
0.053492893 -0.08208459 -0.016002085 0.060614493 -0.1044008 -0.037640985 -0.02545972 0.19174947
-0.04553155 -0.05741953 -0.005216005 0.05138521 -0.052672196 -0.021967307 -0.043227103 0.11638079
-0.14018814 -0.05185239 -0.09943889 -0.02475984 0.1249236 0.13473563 -0.06958354 -0.06515623
0.009953737 0.14795807 -0.108034685 0.048881594 0.03272437 -0.0015854394 0.064243354 -0.06589022
0.07582668 0.013538752 0.036816705 0.0073236027 -0.022294214 0.030510953 0.0626228 0.2205652
-0.11757142 0.008324036 -0.08857319 0.1418843 -0.03131955 0.016522696 -0.013621645 -0.04463027
0.015259133 0.1594106 -0.079217464 -0.123847336 -0.028880287 0.084774405 0.076466575 0.094937414

layers.block_1.layer.0.bias f4 [128]
00000000: 171b 203d c7ce 753d c051 6e3d 1c6f a5bc
00000010: 599b 89bd f6fd 99bc 472b 593d 4e3f 86bd
00000020: a0cb e5bc 49b8 6f3d 17df 1f3d 6d39 69bd
00000030: cb8b 9fbd ebea c83d e8ca 25bd fe21 313d
00000040: 5806 24bd d844 6dbd e867 7ebc 16f8 7e3d
00000050: 9c6c 8abc 387c 133d 7f21 a6bd e6ec 6a3c
00000060: c918 8abd d46e 863c 49b2 f23c 4fcd 43bc
00000070: 8d84 be3d b532 fb3b 0f7e 1a3d c559 d0bd
00000080: f683 8d3d 1709 063e 6a52 86ba d220 58bd
00000090: 2fa8 3c3d 1e15 493d dd29 d93c 9206 233b
000000a0: 4991 9cbc 7cac 25bd d5a6 bfbc 0d26 c6bc
000000b0: 575b a13d c8f2 d4bc 2b93 9e3d e35e 813d
000000c0: 5d41 21bc 8af6 013e 7213 883d 9359 303d
000000d0: 2743 053d 6aaf c1ba bbe1 313d 4c36 2abd
000000e0: e968 973d 0589 d63c 9d51 3a3d a805 1ebd
000000f0: e802 f9bc e7e9 eabb d771 9fbd b281 373d
00000100: cc86 5b3b 3210 1e3e 517d 0dbd 6234 033e
00000110: 9c5c 873d 294b e03c 9d7c 353d c9f9 6fbd
00000120: c931 52bd 2ba1 233d c737 dcbd bb47 80bc
00000130: 0234 4b3c 51e7 d03c e993 30bd 3656 143d
00000140: 4ccb cbbd 5b78 79bd 2d9c f93b 92f6 adbc
00000150: 0f54 5f3e be0d 043b 29a4 d9bd 5476 a5bd
00000160: 68be 703d e27b 023d 1344 923d 620c e83c
00000170: 887f 16ba acc0 f2bb 5135 91bd 8cc5 1b3d
00000180: 7ba6 593d d506 c73d 4de7 e53d b1c4 923d
00000190: efe2 7e3d b3c2 f0bd 2880 cbbc 6083 2b3d
000001a0: d757 98bd d005 84bd f32b 2fbc 8cdb 803d
000001b0: 72dd 9bbb 5414 163c 82d1 63bd 3105 813c
000001c0: 01b5 4b3d 004e de3d a3db e9bd 75d1 023c
000001d0: 5c06 b83c 0eaf 2cbd 3494 f43d 2b4d b6bc
000001e0: f47e 603d 39fa 9cbd 6454 353d 0282 b43b
000001f0: 808d 603c 64ad 0d3d 5639 7bbd 5330 80bd
0.039088335 0.06001165 0.05818343 -0.020194583 -0.06719083 -0.018797856 0.053019788 -0.06555043
-0.028051198 0.058525357 0.039031114 -0.05693953 -0.07790335 0.09810432 -0.04047671 0.043245308
-0.040045112 -0.057926983 -0.015527703 0.062248312 -0.016897492 0.036007136 -0.081118576 0.014338708
-0.06743009 0.016410269 0.029626029 -0.011950805 0.09302626 0.007665957 0.037717875 -0.10173372
0.06909935 0.13089405 -0.001024795 -0.052765675 0.04605883 0.049092405 0.02650922 0.0024875742
-0.019112246 -0.040447697 -0.023394981 -0.024188066 0.0787875 -0.025994673 0.07742914 0.06316926
-0.009842244 0.12691703 0.06644334 0.043054175 0.032534745 -0.0014777009 0.043428164 -0.041555688
0.07393057 0.026188383 0.04548799 -0.038579613 -0.030396894 -0.0071689966 -0.07785385 0.04480142
0.0033497093 0.15435866 -0.03454334 0.12812951 0.06609461 0.02737959 0.044308294 -0.058587823
-0.05131701 0.039948624 -0.10752826 -0.015659204 0.012402536 0.025500925 -0.043109808 0.03621503
-0.09950885 -0.060905796 0.0076174946 -0.021235738 0.2180941 0.0020149793 -0.10627014 -0.0807921
0.058775336 0.031856425 0.071418904 0.028326217 -0.00057410495 -0.007408222 -0.070902474 0.038030192
0.053137284 0.097181 0.11225758 0.07166422 0.06222814 -0.11755886 -0.024841383 0.041873336
-0.07438629 -0.06446421 -0.010691631 0.06291875 -0.004756623 0.00916012 -0.055619724 0.015749546
0.049733166 0.10854721 -0.114188455 0.007984509 0.02246397 -0.042159133 0.1194233 -0.022253593
0.054808572 -0.07664914 0.044269934 0.005508662 0.013705611 0.034589186 -0.061333977 -0.06259217

layers.block_2.layer.0.weight f4 [128, 128]
00000000: 54a6 c7bd 51da afbd 8102 18bc 9a81 09bd
00000010: f4a5 d6bd eb4a 853c 6dac ccbd 7742 27bd
00000020: 12d4 9b3c b8df 803b f290 023e 0a1f 153e
00000030: 2ff1 26be e3ef de3d 098d d23c a05e 7c3d
00000040: 7e9c 963d 64e2 0bbd 6a6e eabd 8ae2 87bd
00000050: 7547 353d 4713 acbd cf45 64bd fce2 28bc
00000060: b6d1 1abb d7bf 35be c669 ef3d 8311 16be
00000070: bd0a 363d ed43 473e 7c05 e7bd 5d4b 83bd
00000080: 9fa9 113e 4fab 02be 461e 2a3c 3a02 fabd
00000090: 3acd 71bd d0be 31bd 24c3 d3bd af26 893d
000000a0: 438b b43d 7664 0b3e 5f21 71bd 2d7d 3ebd
000000b0: da68 32bd bd67 263e 142a d6bc 5bf7 aa3d
000000c0: c9e0 073d fa25 e1bb 2704 a63b 168a 9f3d
000000d0: 0da3 0dbe bccd 05be 00be 07bd f71f 0d3d
000000e0: 50af f73d 1bcf 053e 2086 003d 27d0 e9bc
000000f0: 57bc 6f3d 70a7 dbbc 6f0f 04bd 2ab7 6abc
00000100: d769 033d 5fe4 a13c 3946 10be c589 013e
00000110: 71da f9bd 42d9 47bd 4bcc 83bd 28c2 4ebc
00000120: 9c22 c0bd 163d 423e f0bc 0c3e 8e4d b73c
00000130: cd7b 013c 11d5 ebbd 5516 2fbc 6055 3f3d
00000140: 20a4 d23d b3f5 073e 2e7f f23c 9b96 b1bd
00000150: 7784 05be 0881 03be 970d 403c 41d2 aebd
00000160: c2d2 1d3d 8e5c 27be fc64 773d ce61 dd3d
00000170: eee8 3fbd 7ac8 11be b606 8bbd f51e 50bc
00000180: 8414 14be c6d3 e8bb 09ca 1a3e 995e a1bd
00000190: 9dc6 863c ea5b 1bbd 4e50 07bd b4f9 d73d
000001a0: 3b72 ffbd 9a75 2bbd 23c0 53bd 27ab 173e
000001b0: 6cef 3cbd b451 10bd b3e5 923d 01c8 0a3c
000001c0: 8071 bb3c 6e1d 0ebd 1bc8 15bd 677b 983d
000001d0: 02e1 6bbd b3e7 2b3d d552 b53c 75b7 9f3d
000001e0: 041a 02be 17f1 56be f5e8 6ebc 1479 e2bd
000001f0: 76ba b23c 8ca8 f53d e0dd d53d 61aa 22bd
00000200: a02a bcbd 1563 a4bd 3241 833d 4ead 2dbd
00000210: b998 563d c8de 37bd c376 d5bd b173 5dbd
00000220: befb 90bc 452b b3bd 0f34 9e3d 34b9 9bbd
00000230: 3ecd 9bbb 3e65 48bd ecd3 5dbc 09a6 0abc
00000240: 206b 343d b6c2 933d 8b24 17be 6e2e 1f3d
00000250: e9de 043d 2096 3dbe 8688 d3bd e7ba 76bc
00000260: b1fb 7f3d 3948 efbd 3a3b ca3d d186 94bd
00000270: 1429 a73b 9d63 fb3d b613 4dbd 407e 8abd
00000280: c15f 4a3d e2a0 cebd ffe7 913d 5ad7 1c3d
00000290: dd7d a73b ba15 e93c 0d2a 2dbd d7c2 95bc
000002a0: 0e94 153e ec5f fd3d 4282 efbd 4426 8dbd
000002b0: bdff 85bc 4f55 173e 6667 69bd f745 87bd
000002c0: c78b 463d fe59 c83c 518f 16bd 57bb 143d
000002d0: 831d cb3c 0dbd 0dbd 1a33 8c3b 2559 85bd
000002e0: c190 69bc 54e5 793c 0f79 41bd 76e6 c1bd
000002f0: 7beb cfbc 7f23 203d fc38 b93c ca41 0bbd
00000300: 7077 febc 60fd 2abb 12bd a0bd ecf1 9c3d
00000310: 205a 5bbd 53f0 bc3d 1124 e6bd c50d d8bc
00000320: d56f 923b 3255 083d 5c21 f63d 4e75 60bd
00000330: 25cb 9dbc 7d94 edbd f47d df3b e8df e63d
00000340: 796e 073d 4603 30bc 52c3 633d 183e a8bb
00000350: b061 a83c f2bf b9bc b1c2 46bd 870e 5cbd
00000360: 70fe c23d 122e dc3c abc5 b73d 90b3 9fbd
00000370: 1496 b1bc 78ed 9fbd f6db 89bd 04bb b33b
00000380: f003 8ebd ec34 86bd e8f5 bb3d 6363 083d
00000390: 78c0 c83d 09f2 8fbd 94f8 87bc a0fc 943d
000003a0: 1d74 9bbc b2eb 7c3d 4f24 9cbd bcd3 ce3d
000003b0: b3be 823c 32d4 c1bd 672b c53d de8d 80b9
000003c0: 7857 adbd d549 f33c 5859 863d d9e1 ec3c
000003d0: cb3b 5abd d1ca 45bb 6c61 ee3c dfad 13bd
000003e0: c088 22be ca77 4ebd 9e45 053c 41fb 9e3d
000003f0: 48b3 ac3d 797d 833d 6ee4 8e3b 9c58 813d
-0.097485214 -0.085865624 -0.009277941 -0.033570863 -0.10480872 0.016271075 -0.09993825 -0.04083487
0.019022021 0.0039329194 0.12750605 0.14562622 -0.16302942 0.108855985 0.025702016 0.06161368
0.07354067 -0.03415145 -0.11446841 -0.06635006 0.0442576 -0.08402114 -0.055730637 -0.010308024
-0.0023623533 -0.17748962 0.116900966 -0.14655118 0.044443835 0.19459505 -0.11280343 -0.06410859
0.14224862 -0.12760662 0.010383194 -0.12207456 -0.05903361 -0.043394864 -0.103399545 0.066968314
0.088156246 0.13612542 -0.058869716 -0.046506096 -0.043557025 0.1625051 -0.026143111 0.083479606
0.033173356 -0.0068709822 0.005066413 0.0779001 -0.1383173 -0.13066763 -0.033140182 0.034454312
0.12093985 0.13067286 0.03137791 -0.028541638 0.058529224 -0.026813239 -0.03224128 -0.014325896
0.03208336 0.019762216 -0.14089288 0.12650211 -0.121998675 -0.048791178 -0.0643545 -0.012619533
-0.09381601 0.18968615 0.13743949 0.022375848 0.007903052 -0.115152486 -0.010686477 0.04671228
0.102852106 0.1327732 0.02960166 -0.08671304 -0.13038813 -0.1284219 0.01172199 -0.085361965
0.038531072 -0.163439 0.06039904 0.108096704 -0.046853 -0.14236632 -0.067883894 -0.012702693
-0.14460951 -0.0071053235 0.15116133 -0.07879371 0.016452128 -0.037929453 -0.03303557 0.10545674
-0.124729596 -0.0418602 -0.051696908 0.14811383 -0.046126768 -0.03523417 0.07172718 0.008470536
0.02288127 -0.034696035 -0.03656779 0.07445412 -0.05758763 0.041969012 0.022134224 0.077986635
-0.12705237 -0.20990406 -0.0145819085 -0.1105825 0.021817427 0.119950384 0.1044271 -0.039713267
-0.091878176 -0.08026711 0.064089194 -0.042401604 0.05239174 -0.044890195 -0.104230426 -0.05406541
-0.017698165 -0.087484874 0.07724773 -0.07603684 -0.0047546914 -0.048924677 -0.013539296 -0.008462437
0.044047475 0.072148725 -0.14760034 0.03886264 0.032439146 -0.185143 -0.10328774 -0.015059209
0.06249589 -0.11683697 0.09874578 -0.07252277 0.0051013324 0.12274859 -0.050067626 -0.067623615
0.049407724 -0.1008928 0.07124328 0.038291313 0.0051114396 0.028452743 -0.04227643 -0.018281383
0.1460726 0.12371811 -0.116947666 -0.06892064 -0.016357297 0.14778636 -0.056983374 -0.066051416
0.048473146 0.024456974 -0.03675777 0.036311474 0.024794346 -0.03460412 0.0042785527 -0.065111436
-0.014255703 0.01525243 -0.04723459 -0.09467785 -0.02538084 0.03909635 0.02261018 -0.03399829
-0.031062812 -0.0026090965 -0.07848562 0.076633304 -0.053552747 0.09225526 -0.11237348 -0.026373753
0.004468898 0.033284374 0.120180815 -0.05479937 -0.019261906 -0.116005875 0.0068204347 0.112731755
0.03306434 -0.010742968 0.055606194 -0.0051343553 0.020554394 -0.022674534 -0.048525516 -0.05372479
0.09521186 0.026877437 0.08973249 -0.07797921 -0.021678008 -0.078089654 -0.06731407 0.0054849405
-0.06934345 -0.06553063 0.09177762 0.033297908 0.098023355 -0.070285864 -0.016598023 0.07274747
-0.018976266 0.061748214 -0.07624113 0.10098979 0.015960073 -0.09464301 0.09627419 -0.00024519762
-0.08463949 0.029698292 0.0656001 0.028916286 -0.05327968 -0.0030180702 0.029099189 -0.03605449
-0.15872478 -0.05040721 0.008134274 0.07762767 0.08432633 0.064204164 0.004360727 0.06315729

layers.block_2.layer.0.bias f4 [128]
00000000: 22b4 af3d 79fc 18bd 66c0 dd3d 4dd3 023e
00000010: d64f b9bc 4d77 903d 5931 be3d 68f6 88bd
00000020: 8ff4 33bd b64e 1abd d176 04bd 896d 1f3d
00000030: ae3b 943b b32f a3bd faa3 42bd 08a4 dd3c
00000040: 0e11 c2bb 4617 513d bfb3 5abd f2c5 30bd
00000050: 80dc 35bc a283 c8bd 934c 603d eb65 85bc
00000060: 8894 473d 44f7 7e3d aa9e 4a3d 3348 c4bc
00000070: 75cc bc3d 677e 823d f734 ae3d e2de a43d
00000080: 9a77 e83c b121 903d c8a7 6dbc 467c 7e3c
00000090: a9e7 27bc 1245 103d 5877 c03c 6c7b 273c
000000a0: b127 033d 3092 47bd a7b4 77bd 278b 46bd
000000b0: f547 673d a18e d1bb 65de 01bd ff87 81bd
000000c0: 83f1 4ebc 2010 a7bc 0343 793d a708 a63d
000000d0: 5a2d 0abb b840 31bd c4e1 b0bc d81f a03c
000000e0: dc31 833d 6bd2 013d 914f 483d cf16 5d3d
000000f0: 0460 63bc edb9 d93d 14fb 96bd af6d 173d
00000100: 82db 363d f162 15ba 3e20 c83c 6ac4 2cbd
00000110: eacb 943d 376d 943b 83f9 1a3d 1bc3 62bc
00000120: 5e77 d0bc d2cf 0abc 06b5 a23c 88d9 ae3d
00000130: ece2 1ebd f4c7 8c3c 585b 67bd 150e acbd
00000140: 213d bcbd 3872 b43d 4bb7 2bbd 8992 d13d
00000150: def6 1a3b 030f 07bb f6ed f4bc 77c9 96bd
00000160: e25f 793d 3498 a63d 2b83 a5bc 42be 133d
00000170: 536a 893c fda9 4fbd de16 c93c 0bf6 90bd
00000180: abd1 6c3c fd82 943d 460f b4bc a95a 923d
00000190: 1bc9 3e3d 08f2 87bd 7147 9ebd 920d 273c
000001a0: 601c 803d 490a 83bb c8cf 54bc 1dd3 f83c
000001b0: bb33 babd ee78 68bd 84d6 89bd adc4 3dbd
000001c0: 4372 70bd 1361 cbbd 7df4 91bd 36d5 5c3d
000001d0: 8a37 83bd a1f2 b63d bef6 2f3d f567 193d
000001e0: 59dd 5fbd 1720 223d 9259 0d3d 91d4 90bc
000001f0: 3a7b 113d 509b 77bd fba9 063d b96f 55bd
0.085792795 -0.03735015 0.10827713 0.12775917 -0.022621077 0.07054005 0.09286756 -0.06687623
-0.0439344 -0.03767272 -0.032339875 0.03892282 0.004523716 -0.07968082 -0.04751966 0.027055755
-0.0059224432 0.051047586 -0.053394075 -0.043157525 -0.011099935 -0.09790732 0.054760527 -0.01628395
0.048725635 0.06224753 0.04946772 -0.023960209 0.092186846 0.063717656 0.08506196 0.08050324
0.028377343 0.07037676 -0.014505334 0.015532559 -0.010248103 0.03522212 0.023494408 0.010222297
0.032020275 -0.0487234 -0.060475018 -0.04847255 0.056465108 -0.0063951765 -0.031706233 -0.06324767
-0.012630823 -0.020393431 0.060854923 0.08107119 -0.002108416 -0.04327461 -0.021592028 0.019546434
0.06405994 0.03169481 0.048904005 0.05397683 -0.013877872 0.10631166 -0.07372108 0.036969837
0.044642933 -0.00056986423 0.024429437 -0.042179503 0.07265456 0.004529621 0.03783561 -0.013840462
-0.025447544 -0.0084724 0.01986171 0.085375845 -0.03879063 0.017185189 -0.056483597 -0.084011234
-0.09191347 0.08810848 -0.04192285 0.102330275 0.002364568 -0.0020608313 -0.029898625 -0.07362645
0.060882457 0.08134499 -0.020204147 0.036070116 0.016774332 -0.050699223 0.024547037 -0.07078179
0.014454286 0.072515465 -0.02197994 0.07146198 0.046578508 -0.06637961 -0.0772847 0.0101961065
0.06255412 -0.003999029 -0.012988992 0.030374104 -0.09091898 -0.056755953 -0.06730369 -0.046330143
-0.05870272 -0.09930625 -0.071267106 0.05391427 -0.064070776 0.089329965 0.04295992 0.037452657
-0.054654453 0.039581385 0.03450925 -0.017679485 0.03551791 -0.060450852 0.03287695 -0.0521085

layers.block_3.layer.0.weight f4 [128, 128]
00000000: 3457 3a3e fe42 be3d 7ff5 f23c 5a0f 4a3e
00000010: 3028 52bd 2220 3bbd 0d77 fab9 09b7 eb3d
00000020: 54a7 c43d 637f afbb 8d8e c1bc 7cc8 293d
00000030: 23f7 8ebd 1f3a d4bd ed7f 68bd 07a4 563d
00000040: f9f5 6bbd 8167 23bd cc28 6fbe 4f46 29be
00000050: 4b65 cc3c 8867 34bd 4c8c 1dbe 67c2 1ebd
00000060: 9d58 11be 82ed c33d 3b9a 133d e201 ce3d
00000070: 890a 803d 0495 313d 0b59 a93d 6a97 6dbd
00000080: b730 86bd fbc9 fbbd f98f 0f3e c0c8 983d
00000090: 7689 a43c 65bb 993d 65fa 613d c134 99bd
000000a0: c056 b13b 282c 1ebd 5c2d 42bc 0dae 103e
000000b0: 82e0 3abd db4a a0bd 1251 f4bc 47b9 4d3d
000000c0: 8d90 d1bc 1793 763d a1cc 783c 3ac0 9bbd
000000d0: e902 c7bd 7e20 9f3d ce3b c33d 5f4c 91bb
000000e0: d01d b03d d52b 973d ad87 6e3d fe50 c8bd
000000f0: f171 95bd c427 a5bd b823 bc3d 0e96 ae3c
00000100: 2b4a a13b 99cb 1c3c b9be e63c b442 0bbd
00000110: d2f9 f9bd a8c1 ba3d 03ef 893d fc74 ecbd
00000120: 925b 65bc 1fe3 5fbd 24c2 21bd bea9 5c3d
00000130: cea9 22be 0859 aa3d cf0c 96bc 5287 51bd
00000140: d683 b4bc 3c61 893d a3f4 43bd 24e5 0b3e
00000150: 251d b0bd dac6 99bd 7064 a7bd 1892 53bd
00000160: 5d9c fa3c 09c3 a63d e38f f6bc 9768 cdbd
00000170: ef37 3bbd 587a 9abd 5937 773d 776f 10be
00000180: 6234 80bb 880c b33b ee32 52bc 8a77 023d
00000190: c39b 333a 2484 dabd 4fbe 453b ca76 933d
000001a0: 0df9 c9bc c8a2 e7bc da9c 1cbe b9c2 113d
000001b0: 4c66 973d 5f99 b0bd 86a9 19be 3aa4 bdbd
000001c0: 7363 12be 07f1 563d b634 1c3c c153 db3d
000001d0: bb24 9ebd 7864 13bd 5053 9a3d f2d5 03bd
000001e0: 76bd f73c 5b46 e3bd 83c3 fdbd 02d7 d73d
000001f0: 92ed cdbc b908 f9bc c82c 0c3c b746 893d
00000200: 0f04 2a3d 937f 8fbc f7b7 3e3c d98e 3bba
00000210: d0be 0d3e eeba 0bbe 4819 4cbe d1e5 19bd
00000220: 9dd8 4db9 eb87 753d 47a1 323d 50b3 303c
00000230: 3b23 4cbe 5350 153d abfd 723d d274 af3d
00000240: 8500 87bd fb33 95bd 3fb5 6f3d f7b0 023e
00000250: fb94 843d cb4f 01be ccb6 7cbd c691 8ebd
00000260: 4845 853d 0064 313d 28e0 1f3d bb82 96bd
00000270: da45 9a3d 5653 9bbd 0c05 75be e300 14bb
00000280: 40f3 283d 4889 cc3c 6286 80bd 7979 c8bd
00000290: a5c3 cebd 9a52 a53d dbee 18be 8597 34bc
000002a0: a2ff 47be 4afc e63d 3768 1f3d 6a15 983d
000002b0: 22c6 8dbb 0735 9e3e 043d c4bd 280e b43b
000002c0: f9ee 293d f10b 5ebd 8c8e 763d 226a 81bd
000002d0: 981e 4cbe 0f0d 063e d2f1 04be df1d e23d
000002e0: 26f6 de3d c22b fe3d 6ae8 313c 77d4 963e
000002f0: fb33 7abd 26a2 0bbd bd30 c2bd 433a 983d
00000300: 7bd8 ad3d 69f4 073e 2ca7 1f3e e105 ed3c
00000310: 8e67 00be b952 ec3d adae 23bd 6f78 74bc
00000320: 94a3 6a3d 91f8 813d b9c2 373d 5a78 023e
00000330: ea94 ba3b 9324 443e 758c 9ebd 5d6a febc
00000340: 6a0b a53c 36eb 3fbd f74f c7bd 05ca 7d3d
00000350: 6de3 0abd 5401 06be 889f 4a3d 228f 373e
00000360: e35d 7e3d 4f84 8fbd d840 f93d 7e36 563c
00000370: 6b50 323e 0b2b f33a ae6e 4a3e fcb0 f0bd
00000380: ef3a abbc 0963 d3bd 2397 983d d9d2 47bc
00000390: 029c 0a3c bffe 01be 444f a4bd 7832 973d
000003a0: b17c aabd 61a8 89bd 736c 873d d191 bf3d
000003b0: 5b1c a03d fe3d 01be d80f c13b 7d50 b4bd
000003c0: 4ddc 8e3d 1650 3c3d 54a1 f53d 451a 8cbd
000003d0: 1b19 1c3e b008 7a3c ffe2 69be 8b51 053d
000003e0: 126d aa3d 8f9c 81bd 6825 b83d f789 00be
000003f0: 9d96 933d 0d11 24bb 04e2 873d 9fe5 3bbd
0.18197328 0.092901215 0.029658077 0.19732419 -0.051307857 -0.04568494 -0.00047772416 0.115095206
0.09602228 -0.005355762 -0.023627544 0.041450962 -0.06980731 -0.10362648 -0.056762625 0.052402522
-0.057607625 -0.03989363 -0.23355407 -0.16530727 0.024950644 -0.044044048 -0.1538555 -0.038759615
-0.1419396 0.095667854 0.036035758 0.10058953 0.062520094 0.043355003 0.08268937 -0.058005728
-0.0655226 -0.12294384 0.14019765 0.07460165 0.020085078 0.07506446 0.055170435 -0.07480765
0.0054119527 -0.03861633 -0.011851635 0.14128895 -0.045624264 -0.078267775 -0.029823814 0.050225522
-0.025581622 0.06019887 0.015185506 -0.07605024 -0.09717352 0.07769869 0.09532891 -0.004434153
0.08599436 0.07381407 0.05823486 -0.09781073 -0.07297123 -0.08064225 0.091865 0.021311786
0.0049221716 0.009570026 0.028167116 -0.03399916 -0.122058526 0.09118968 0.06735041 -0.115457505
-0.013998883 -0.05465996 -0.039491788 0.053872816 -0.15885088 0.083177626 -0.018316654 -0.051154442
-0.02203552 0.06707999 -0.047840726 0.13661629 -0.08599309 -0.07508631 -0.08173454 -0.051652998
0.030592138 0.08142669 -0.030097907 -0.100297146 -0.04570764 -0.075428665 0.060355518 -0.1410502
-0.0039124945 0.0054641403 -0.012829525 0.031852283 0.00068515184 -0.10669735 0.0030173247 0.072003916
-0.02465489 -0.028275862 -0.15294209 0.035586093 0.073925585 -0.08623003 -0.15006074 -0.09259839
-0.1429575 0.052475955 0.009534052 0.10709334 -0.077218495 -0.035984486 0.07535422 -0.032186456
0.03024171 -0.110974036 -0.123908065 0.10539056 -0.025137696 -0.030399667 0.008555599 0.06702941
0.041507777 -0.017516887 0.01164054 -0.000715477 0.1384232 -0.13645527 -0.19931519 -0.037572686
-0.00019631018 0.059944075 0.043610837 0.010784939 -0.19935314 0.036453556 0.059323948 0.085672036
-0.06591896 -0.07285305 0.05852246 0.12762819 0.06473728 -0.12628095 -0.061697766 -0.06961398
0.06507355 0.043308258 0.03903213 -0.073491536 0.075328544 -0.075842544 -0.23927706 -0.0022583536
0.041247606 0.024967805 -0.062756315 -0.09788794 -0.1009591 0.080723956 -0.14934866 -0.011022453
-0.1953111 0.11278589 0.038917746 0.074259594 -0.004326598 0.30899832 -0.0958195 0.0054948516
0.041487668 -0.054210607 0.060194537 -0.06319071 -0.19933546 0.13090919 -0.12982872 0.11040854
0.10886793 0.1241069 0.0108586345 0.29458973 -0.06108473 -0.034090184 -0.09481952 0.074329875
0.08488556 0.13276829 0.15591115 0.028933467 -0.12539503 0.115392156 -0.039961506 -0.014921292
0.057284907 0.063462384 0.044863436 0.12741223 0.0056940215 0.19154577 -0.07741634 -0.031056577
0.020147044 -0.046855174 -0.09732049 0.06196024 -0.033908296 -0.13086444 0.049468547 0.17925695
0.062101256 -0.07007658 0.12170571 0.013074515 0.1741349 0.0018552257 0.19768783 -0.11752507
-0.020902125 -0.10321624 0.07450702 -0.012196266 0.008460047 -0.12694834 -0.08022931 0.07382673
-0.08324564 -0.06721569 0.06612482 0.09353984 0.078179084 -0.12621304 0.0058917813 -0.088044144
0.06975613 0.045974813 0.119936615 -0.06840948 0.15243952 0.01526086 -0.22840498 0.03254847
0.08321585 -0.06328689 0.0899151 -0.1255263 0.072064616 -0.0025034577 0.06634906 -0.04587328

layers.block_3.layer.0.bias f4 [128]
00000000: 1fdb 98bc 54c6 ab3d d873 fe3d e20c 423d
00000010: b506 823d 921c 5fbc d829 a53d a2ec c63d
00000020: 9e41 4bbd ecd6 2fbd 7ba9 933d 7988 94bc
00000030: fc6b 35bd 8135 37bc 7e49 e53c ffe4 243d
00000040: dbce a93d 19a8 f8bd ebd4 c53d 5687 90bc
00000050: b5b0 1d3c 2b80 42bc 5e8b 1dbd 0cce 7bbd
00000060: 8da0 013d 3a02 103d f822 81bd 103c cdbd
00000070: d675 743d 6169 993d 2d32 773d 2081 6abc
00000080: 9e92 6cbc a6f4 6dbd 9d8e 9f3d 8144 c6bd
00000090: 5287 08bc 1f59 6ebd 4d91 603c 6665 a13c
000000a0: c9da 6ebd 5e58 57bd a0fb f8bc a2f5 823d
000000b0: c3b9 873d 3a5e 0fbe 9f9d 7dbd 830d e43c
000000c0: c070 aa3c da90 b2bd a7be bbbc 9263 2abd
000000d0: ca6a 593d f2a7 83bd 9414 90bd e4c2 d43d
000000e0: c246 b73c 6d1a 6a3d 7419 573d 85aa 59bd
000000f0: 0ff0 333d 676c 90bd 4aa7 603d cd13 26bd
00000100: 6e2f c2bd 15ac 813d daca a73d 520c 703d
00000110: 3f58 79bc c57c a63c 2e72 af3d fb61 0f3d
00000120: e561 913c b2d1 933c 6308 59bc bd8f 9abc
00000130: 249c 493d fedf fcbc 2a6c abbd 22fc c4bc
00000140: 261e 8f3d ee79 dd3c 062c 2a3d 9a1a 14bc
00000150: 4f3c 32bc e51c a83d bf9b 7dbd 737a 983c
00000160: 7751 a0bd b067 9f3d d0a7 623c 6bc9 9f3c
00000170: 7af2 5dbd e484 9b3d 755a 8e3b c495 0a3c
00000180: d15e ab3c 58ee 74bd 7b66 fdbc 678f d2bd
00000190: 9051 c8bc c6f4 82bd 8e38 01bd 5030 403d
000001a0: 5c95 c93d f50e c4b8 9df6 0f3d c67b 89bc
000001b0: 5979 c93d 893b 9cbc 0c08 d33d 8ac0 40bd
000001c0: e073 88bd f1ef ab3d 8f54 a13c 0951 9bbc
000001d0: 93e1 813d e4e7 ac3c a9d4 90bc 5a2e 2d3d
000001e0: 4ef5 c9bc 9de1 c83d f309 9a3d b65e 243d
000001f0: 33be 47bc 8b66 5fbc 710b f43c c126 0dbd
-0.018659173 0.083874375 0.12424439 0.047375567 0.063489355 -0.013617652 0.08064622 0.09713103
-0.049623124 -0.042929575 0.0721006 -0.018131481 -0.044292435 -0.01118219 0.027989145 0.04025745
0.08291408 -0.12141437 0.096597515 -0.017642658 0.00962465 -0.011871378 -0.03846299 -0.0614758
0.031647254 0.035158373 -0.06305498 -0.10021222 0.05968269 0.074908026 0.060350586 -0.014313012
-0.014439253 -0.058094643 0.07790873 -0.09681035 -0.008333044 -0.05819046 0.013706517 0.01970167
-0.05831412 -0.052574508 -0.030393422 0.06394507 0.06627228 -0.14000788 -0.061917897 0.027838474
0.020805717 -0.087190345 -0.022918059 -0.041598864 0.053080358 -0.064285174 -0.07035175 0.10388735
0.022372607 0.057154108 0.05251451 -0.053141136 0.04393011 -0.07051926 0.05484704 -0.040546227
-0.09481703 0.0633165 0.08192988 0.0586055 -0.015218793 0.020323167 0.085667 0.03500555
0.017746875 0.018044326 -0.013246628 -0.018867368 0.049221173 -0.030868527 -0.0837024 -0.024046008
0.06988172 0.02703568 0.04154589 -0.009039545 -0.0108786365 0.08208636 -0.06191611 0.018613076
-0.07828038 0.07783449 0.013833955 0.019505223 -0.05418632 0.07593706 0.0043442794 0.0084585585
0.020919235 -0.059797615 -0.030932656 -0.10281258 -0.024452955 -0.06394343 -0.031548075 0.046921074
0.09842941 -9.348794e-05 0.035147298 -0.016782653 0.09837598 -0.019071357 0.10304269 -0.04705862
-0.066627264 0.083953746 0.019693641 -0.018959539 0.06341853 0.021106668 -0.01767953 0.042280532
-0.024653103 0.09808657 0.07521429 0.040129386 -0.012191343 -0.013635288 0.029790612 -0.034460787

layers.output.weight f4 [2, 128]
00000000: 40fe 6bbe d49f 00bf 32eb 4b3e 4c22 02bf
00000010: bcc0 023e 03ce afbd d86c ab3e 66a9 42be
00000020: 0770 1bbd e1cb 56bf b508 cabe 0263 3d3e
00000030: 50d6 8d3e a268 3f3d 1603 dabc dfad 07be
00000040: 0211 59bc 6271 c9be 8283 16bc 73e3 7ebd
00000050: 4985 b23d dc23 cfbe 81ac 413e 6b47 2f3e
00000060: a2ba 43be 5a7c 6cbd c6d0 bb3e 03c2 53be
00000070: d294 c83e 54c4 013e d0bc 18be 4035 1ebd
00000080: 3187 edbd 176e 6d3e a562 073e dab7 5cbc
00000090: 6972 923d e3cb f5bd 8a2b eabd a745 b0be
000000a0: 0639 d63e 4615 b93d 4f95 4a3e e90a 1e3e
000000b0: 2414 d73e 0447 733d 89d2 153e 0a90 d4bd
000000c0: 0086 21bd 4589 223f 9bd4 8a3e 3f81 083f
000000d0: 4101 59be 4eba bc3d cc63 483d 623c 1c3e
000000e0: 4b65 773e 59e2 013e e63a c73c ae27 e2bc
000000f0: 9f76 9c3d 157e 383f e1ec 77be 3f72 8cbc
00000100: 31de 253f ef79 53bd fe1f 2d3d e2b5 b83e
00000110: d2a3 1a3f ea7a b63d 2c0d 2b3d ae10 bbbd
00000120: f435 2c3e bc80 f03d 1326 943d 6595 483d
00000130: bf57 ce3e 74aa 8d3e 206d c03c bd78 80bd
00000140: 0077 083c 5875 a63d de4c 9bbe fda3 fe3d
00000150: fb9e 99bd 8c88 213e 68bb 043e ce5a cdbd
00000160: 3a8a 2d3e e9f6 56be 8d5d 903d 9af4 c3bc
00000170: a95d 013f f324 29be 61ec 68bc 7caa c03d
00000180: 57b6 1cbd 4dd3 31be 52b2 f9be 1cf6 fcbd
00000190: 1fbc a23d 5c66 cfbd 9560 313e 8607 fdbd
000001a0: ccdb 993e 4427 07be 7d74 f2bd 29ff 07be
000001b0: f265 103e 286d 6ebd 65ce 80be 20eb 0b3e
000001c0: 2582 1b3d 564a 313e 9e41 f7bd 5412 81bd
000001d0: 1608 11be 5b98 b3bc 24c2 52be e131 aabd
000001e0: b411 0c3e e086 92be 84e4 e1be 1bf0 633e
000001f0: 7ed4 ee3e 3fdb 603d e547 98be fba7 e23e
00000200: 7cc4 c43d 3a4f b03e baaa 76be 3c40 843d
00000210: abcc 303e 4b7d 57be 7c92 b8be 11b1 bf3e
00000220: 030e 8d3b 0fe6 a53e b5d8 c43e a184 6fbc
00000230: ed34 843d 7db3 ddbc 44a2 a3be 5658 1b3e
00000240: 5c34 223d f896 fbbc 8af0 bb3e 9443 45be
00000250: d4c0 b0be 755b c4bc 9a1a dfbd 15cd e13d
00000260: cf58 c03e 4bec 363e d4e7 cebe 28fc 023e
00000270: 9660 b1be 2181 573e 26e6 97bd d6a0 8e3e
00000280: 75ca 7ebe 2f2f 463d f81f e2bc 39d9 95be
00000290: c4fd 5d3d 787c 29be 7d39 a2bd a95e 8ebd
000002a0: 8e73 e2be 087a 1c3e 6937 423e a26b cfbe
000002b0: 34ad 99be 282c b5bd 161e 64bd 1d0b 853d
000002c0: 66a7 23be f9c7 c6bd 308f 05bf cc2e b7be
000002d0: becd fd3e 1fb4 e4be 38df 92be 0078 01be
000002e0: 4b67 55be e1e0 a6be 513b 8e3e 07b7 6c3e
000002f0: 4c5b 993e 28a9 5dbe fd6e e63e 4142 9fbe
00000300: a121 5f3e 6175 9d3e ce5e 403e b93b 7b3d
00000310: c1a6 9cbe 6ff0 cbbd b829 a8bd bd84 0ebd
00000320: 8d2e e6bd f854 bf3d d9d8 903e 631a 7e3e
00000330: 4b69 eabe fdd6 e5be c10c 923e 7230 32bd
00000340: dd90 55be 79bd ab3e f84a 8a3e b87b e9bd
00000350: 5369 f7bd 268c 75be 7b84 2e3e 44cb a4bd
00000360: b464 373d 628e 06bd c647 833e a13f febd
00000370: a648 4cbe b789 1d3d 0321 d7bd 1dd4 203e
00000380: 25c9 8cbe 0e8d 90bd 4b34 293f d22b dfbc
00000390: 31ff 343e b2cb 25be 2809 8dbd 11a6 783c
000003a0: eabe 203e 4886 d0bd 8a10 843d 247a 24bc
000003b0: 23a9 5ebc 7b70 6fbe 2707 c43e d90d 78be
000003c0: 0b73 ddbd 424c 563e eb79 c5bc f43b 1fbe
000003d0: 26e7 643e 867a 823d bee6 f13d 6016 a1be
000003e0: c9dc 7a3e 6978 bf3e 8ad5 943e 30e9 553e
000003f0: b8f5 9fbe 51d0 bdbe f3ff ce3d 2e85 89be
-0.23046207 -0.5024388 0.19913939 -0.5083358 0.12768835 -0.085842155 0.3348148 -0.19009933
-0.037948634 -0.83904845 -0.39459768 0.184948 0.2770257 0.046730645 -0.0266128 -0.1324992
-0.013248684 -0.39344317 -0.009186627 -0.06222863 0.087168284 -0.40457046 0.18913461 0.17117088
-0.19114164 -0.05773578 0.3668272 -0.20679478 0.3917604 0.1267255 -0.14915776 -0.038625002
-0.11598051 0.23186527 0.13221224 -0.013471568 0.07150728 -0.12001779 -0.11434086 -0.3442814
0.4184038 0.09037261 0.19783519 0.1543385 0.42007554 0.059393898 0.14631094 -0.10379036
-0.039434433 0.63490707 0.2711533 0.53322214 -0.21191885 0.09215222 0.0489233 0.15257409
0.24159734 0.12684001 0.024320077 -0.027606811 0.07639813 0.72067386 -0.24211456 -0.01714432
0.6479216 -0.051629957 0.04226684 0.36076266 0.6040622 0.08910163 0.04176061 -0.09134041
0.16817456 0.11743304 0.072338246 0.0489706 0.4030132 0.27669108 0.023489535 -0.06273029
0.008329153 0.0812785 -0.30332083 0.12433622 -0.07501026 0.15774745 0.12962115 -0.10027085
0.1694726 -0.20992626 0.070490934 -0.023920346 0.5053354 -0.16518001 -0.014216513 0.09407517
-0.03825983 -0.17365761 -0.4876886 -0.12351629 0.079460375 -0.101269454 0.17322 -0.123549506
0.30050504 -0.13198572 -0.118386246 -0.1328093 0.14101389 -0.05820957 -0.25157467 0.13663912
0.037965912 0.17313513 -0.12073062 -0.06302324 -0.14163241 -0.021923235 -0.20581871 -0.08310295
0.13678628 -0.28618526 -0.44119656 0.22259562 0.46646494 0.05489659 -0.2974235 0.44268784
0.09607789 0.34435445 -0.24088565 0.06457564 0.17265575 -0.21043889 -0.3604926 0.37439778
0.004304649 0.32402083 0.38446584 -0.014619024 0.06455407 -0.027063126 -0.31959736 0.15170416
0.039600715 -0.030711636 0.36706954 -0.1926406 -0.34522116 -0.023969391 -0.10893746 0.110254444
0.37567756 0.17863576 -0.40411246 0.12791502 -0.34644002 0.21045353 -0.07416944 0.27857083
-0.24881919 0.04838484 -0.027603135 -0.2926729 0.054197088 -0.16551387 -0.07921121 -0.06951649
-0.44228786 0.15280926 0.1896645 -0.40511805 -0.30014956 -0.08846313 -0.055692755 0.0649626
-0.15981826 -0.097061105 -0.5217161 -0.3577789 0.4957103 -0.4466867 -0.28685927 -0.12643433
-0.20840184 -0.32593444 0.2777963 0.23116694 0.29952466 -0.21646559 0.45006552 -0.31105235
0.21790172 0.30753615 0.18786165 0.061336253 -0.30595973 -0.099579684 -0.08211082 -0.034794558
-0.112393476 0.093423784 0.28290442 0.24814753 -0.45783457 -0.44890586 0.28525355 -0.043503232
-0.20856042 0.33542994 0.27010322 -0.114005506 -0.12080636 -0.23979244 0.17042725 -0.08046582
0.044773772 -0.03285063 0.25640696 -0.1241448 -0.19949588 0.038461413 -0.10504343 0.15705915
-0.2749721 -0.07058154 0.6609542 -0.027242575 0.17675473 -0.16190985 -0.06886512 0.015176312
0.15697828 -0.10181862 0.06448467 -0.010038886 -0.01359013 -0.23382752 0.38286707 -0.24224032
-0.10812958 0.20927528 -0.024105987 -0.15550214 0.22353801 0.06371026 0.11811589 -0.31462383
0.24498285 0.37396553 0.29069167 0.20889735 -0.31242156 -0.37072995 0.10107412 -0.2685942

layers.output.bias f4 [2]
00000000: 71c0 b53d 7e25 06be
0.08874596 -0.1310024
