results/SMOTE5K/smote0/smote0.35/model.pth (torch, 205093 bytes, 10 tensors)

layers.block_0.layer.0.weight f4 [128, 2]
-0.9296996 0.06709281 -0.55163014 0.2765465 1.0677575 0.7086418 0.8361062 -0.56354254
-0.75432205 -0.06704728 -0.8407273 0.5421079 -0.7169336 0.20690383 -0.5020206 -0.21815601
-0.7302095 0.41124916 -0.5325786 0.7843138 -0.06874424 0.3658335 -0.9346024 -0.66409117
0.11696914 0.45318118 0.5524044 -0.0530739 0.41449347 0.5173475 0.81023955 -0.20202638
0.26128986 -0.030480232 -0.14074971 0.62821573 -0.43442598 0.45501024 -0.9312148 -0.34400216
-0.9320179 -0.22319369 -0.02657857 0.8426392 -0.31998247 0.72275376 -0.7970347 0.40631315
-0.4730654 -0.5560339 -0.81609666 -0.23082721 -0.036862995 0.58311456 -1.1690959 -0.3653134
1.1508522 0.2547281 0.98683226 0.15730679 0.14830193 -0.40603533 0.15022133 -0.54403716
0.43944222 0.42956156 -0.42261156 0.008863665 0.24271974 -0.5018511 1.1319525 -0.35182655
-1.0895611 -0.07713226 1.284932 0.08642565 1.1834215 0.41249493 -0.653738 0.43840548
0.35379156 -0.6161038 0.8911678 0.09836655 0.7988461 0.21597491 0.7365921 0.5809598
0.8535393 -0.19277038 1.0724399 0.019505663 0.21476667 0.8449081 -1.1152303 -0.4755917
-0.541557 -0.13120538 -0.873304 -0.4930762 0.3703887 -0.69079834 -0.49806583 0.67099
0.70504874 0.6417637 0.85634226 0.693404 -0.39998558 -0.49910954 0.4980945 0.04650906
0.97724986 0.5542889 1.1773298 -0.36437267 -0.45605752 0.603084 -0.9748379 0.22931974
-0.586149 -0.3833574 0.7799707 0.40601262 0.75808793 -0.64714295 0.4600903 -0.3474791
0.3191446 0.2059324 0.5268127 0.32450625 1.1514393 -0.56084514 -0.43294564 -0.763185
1.0460742 0.5544316 -1.0496305 0.23705018 0.8552945 0.6763472 -0.71735173 0.49030146
-0.40044385 -0.39891043 0.30553246 -0.6696493 0.7097048 -0.1669579 -0.8980278 -0.19492853
-0.89810103 -0.34588385 0.8293036 -0.6840815 -1.0828896 -0.048084125 -0.8655459 -0.49481001
-1.0524423 0.046054464 -1.2660241 0.1962146 0.3266782 -0.7500452 0.6854989 0.5242125
-0.5820015 -0.13910364 -0.8049676 -0.5532794 -0.70714474 0.2990332 0.95346195 -0.44053012
-0.7712957 0.22568889 0.22232084 -0.13621461 1.0334036 -0.6137261 0.8251224 0.2362922
-1.5698141 -0.46575162 -0.8092314 0.17656471 0.99330825 -0.05580875 -0.8800915 -0.118113436
-0.7752786 -0.26259565 -0.09456748 0.7168045 0.92662835 0.07125306 -0.8594475 0.28595504
0.27954435 -0.8442799 -0.8460977 0.29273632 0.5478537 0.45526356 -0.7179383 0.06842817
-0.120877385 0.65642685 0.7825945 0.32879943 0.44324464 -0.7638763 -0.028923035 -0.27180377
-0.63100314 0.68785274 0.34390903 0.6685347 -0.47753367 0.52590483 0.37901446 0.22587404
-1.1101142 0.33790725 1.2291147 -0.294376 -0.3742724 -0.76876 1.0240775 -0.25196534
-0.67238086 0.36033738 0.25022838 0.6371402 1.0841695 -0.58902735 -0.19550835 -0.32367548
-0.6781649 0.41406414 -0.65936136 0.30119002 0.6486911 0.26982823 -0.89043105 0.306356
1.0332065 0.5396412 -0.9367626 -0.07861521 1.0462723 0.34081304 0.61257815 0.1865867
00000000: cb00 6ebf f567 893d a237 0dbf 8197 8d3e
00000010: 47ac 883f 8d69 353f 0e0b 563f 5344 10bf
00000020: 401b 41bf 1650 89bd e839 57bf 95c7 0a3f
00000030: f688 37bf 99de 533e 6c84 00bf 4a64 5fbe
00000040: 03ef 3abf 408f d23e 1257 08bf cac8 483f
00000050: c8c9 8cbd 874e bb3e 1a42 6fbf e101 2abf
00000060: 848d ef3d 5d07 e83e 606a 0d3f 0564 59bd
00000070: 7d38 d43e e370 043f dc6b 4f3f 01e0 4ebe
00000080: c9c7 853e aeb1 f9bc b120 10be bfd2 203f
00000090: 156d debe 1af7 e83e 1864 6ebf 0d21 b0be
000000a0: ba98 6ebf e38c 64be 4dbb d9bc 34b7 573f
000000b0: bed4 a3be 6406 393f 770a 4cbf 4708 d03e
000000c0: a135 f2be 3d58 0ebf b6eb 50bf f85d 6cbe
000000d0: a7fd 16bd ff46 153f efa4 95bf 5c0a bbbe
000000e0: 204f 933f b96b 823e 0aa1 7c3f 0815 213e
000000f0: 76dc 173e dde3 cfbe 9fd3 193e 0546 0bbf
00000100: 92fe e03e 7eef db3e 8b60 d8be e838 113c
00000110: 868b 783e 5079 00bf d2e3 903f 9c22 b4be
00000120: bd76 8bbf 85f7 9dbd a778 a43f eeff b03d
00000130: 5b7a 973f 8932 d33e 605b 27bf af76 e03e
00000140: 2b24 b53e fbb8 1dbf 9323 643f 6774 c93d
00000150: 2e81 4c3f 8728 5d3e 4d91 3c3f c8b9 143f
00000160: 8d81 5a3f 9965 45be b645 893f 57ca 9f3c
00000170: cbeb 5b3e e64b 583f debf 8ebf c180 f3be
00000180: 7ba3 0abf b45a 06be da90 5fbf 7c74 fcbe
00000190: 96a3 bd3e 29d8 30bf 7c02 ffbe 00c6 2b3f
000001a0: 137e 343f a04a 243f 3f39 5b3f ed82 313f
000001b0: e9ca ccbe 498b ffbe 3e06 ff3e 4980 3e3d
000001c0: 0c2d 7a3f e1e5 0d3f beb2 963f 0e8f babe
000001d0: 5f80 e9be b763 1a3f fa8e 79bf cbd2 6a3e
000001e0: dc0d 16bf 6c47 c4be 29ac 473f e3e0 cf3e
000001f0: 0d12 423f 29ab 25bf f590 eb3e c8e8 b1be
00000200: ec66 a33e f1df 523e 32dd 063f af25 a63e
00000210: 5d62 933f 8c93 0fbf 0dab ddbe 1860 43bf
00000220: c2e5 853f 3bef 0d3f 4b5a 86bf 48bd 723e
00000230: 95f4 5a3f 1725 2d3f 5da4 37bf cb08 fb3e
00000240: fa06 cdbe fd3d ccbe c06e 9c3e 236e 2bbf
00000250: 37af 353f 03f7 2abe 26e5 65bf 589b 47be
00000260: f3e9 65bf b017 b1be 3e4d 543f f71f 2fbf
00000270: 209c 8abf dcf3 44bd 6b94 5dbf bd57 fdbe
00000280: 6eb6 86bf 9ba3 3c3d 140d a2bf 7bec 483e
00000290: 5d42 a73e f602 40bf db7c 2f3f ca32 063f
000002a0: 0dfe 14bf 2f71 0ebe 5b12 4ebf b8a3 0dbf
000002b0: 7007 35bf e11a 993e 1516 743f 2a8d e1be
000002c0: a373 45bf fd1a 673e 13a8 633e d87b 0bbe
000002d0: 9246 843f 271d 1dbf 393b 533f 95f6 713e
000002e0: abef c8bf ff76 eebe ca29 4fbf 61cd 343e
000002f0: 7349 7e3f b797 64bd ad4d 61bf 75e5 f1bd
00000300: a978 46bf f072 86be 98ac c1bd 8080 373f
00000310: 8437 6d3f 20ed 913d c004 5cbf b368 923e
00000320: 7020 8f3e ba22 58bf dc99 58bf 89e1 953e
00000330: 2440 0c3f 4e18 e93e ceca 37bf 1224 8c3d
00000340: 908e f7bd 970b 283f 1d58 483f 6658 a83e
00000350: f6f0 e23e 668d 43bf 00f0 ecbc dd29 8bbe
00000360: 6c89 21bf 1e17 303f d814 b03e 1725 2b3f
00000370: 4b7f f4be b3a1 063f 2f0e c23e 864b 673e
00000380: 3918 8ebf 2e02 ad3e a153 9d3f 73b8 96be
00000390: a2a0 bfbe 75cd 44bf f914 833f 9a01 81be
000003a0: 2721 2cbf 247e b83e ef1d 803e 9f1b 233f
000003b0: 11c6 8a3f 7fca 16bf 5733 48be cbb8 a5be
000003c0: 379c 2dbf 3700 d43e e8cb 28bf 9435 9a3e
000003d0: 9f10 263f ed26 8a3e 4af3 63bf b2da 9c3e
000003e0: 1c40 843f ed25 0a3f accf 6fbf 0301 a1bd
000003f0: 40ec 853f 0c7f ae3e ecd1 1c3f 9510 3f3e

layers.block_0.layer.0.bias f4 [128]
0.42661765 0.06720142 -0.71831703 0.3566074 0.33758888 0.17536281 0.11324531 -0.39126194
0.4681059 0.33939192 0.4154719 0.2876254 0.40593633 -0.12147498 -0.4113613 -0.37261873
0.70902586 0.5190516 -0.36731952 0.17224361 -0.2598434 0.48322266 -0.5075089 0.43620282
-0.1295046 0.53038776 -0.5061522 0.16741912 -0.1052061 0.023181245 0.58792067 -0.3905982
0.535613 0.5476282 -0.5761618 0.3093078 0.049725257 -0.09078035 -0.44570616 0.71189785
0.2744638 -0.3549399 0.45563343 -0.5131368 0.57520586 -0.11234302 0.57919395 0.15344024
0.49179065 0.47718453 0.5515105 -0.57452196 -0.6963497 -0.6855875 0.04761301 0.40228736
-0.22335976 0.21521382 0.29872462 -0.27057338 0.0849391 -0.5384241 0.30943096 0.44244018
0.5705718 -0.043879967 0.41668686 -0.0807482 -0.4131118 -0.19383195 -0.72700745 0.5866021
-0.5375979 0.3631164 0.34614772 0.6761832 0.32192907 0.41677862 0.15327632 -0.252993
0.17610382 -0.22709146 0.058598757 -0.52683485 -0.054119784 0.7058497 -0.23045507 -0.098283134
0.2253749 0.22924733 0.6577379 -0.14501841 0.3211021 -0.40939116 0.27435684 0.13702656
-0.4977361 0.16012196 0.48328942 -0.10437175 -0.6640606 0.5049982 0.6536565 0.26654068
0.4152509 -0.18520139 0.5982051 -0.52101636 -0.77330047 0.5822548 -0.59749067 0.21202324
-0.50227183 0.2466172 -0.579867 0.071677655 -0.4396562 -0.11607153 0.44600782 -0.18062426
-0.43338022 -0.38057303 -0.10646142 -0.5438249 -0.5844143 0.08964567 -0.14009766 -0.5052699
00000000: a16d da3e e6a0 893d a0e3 37bf 3f95 b63e
00000010: 73d8 ac3e 4f92 333e 28ed e73d 7c53 c8be
00000020: 94ab ef3e c7c4 ad3e bcb8 d43e a343 933e
00000030: e3d6 cf3e e0c7 f8bd f39d d2be e2c7 bebe
00000040: b882 353f 91e0 043f 4e11 bcbe a160 303e
00000050: 320a 85be f668 f73e 1aec 01bf fa55 df3e
00000060: db9c 04be 7ec7 073f 3193 01bf eb6f 2b3e
00000070: 4c76 d7bd 98e6 bd3c f881 163f 7dfc c7be
00000080: ef1d 093f 5d31 0c3f 577f 13bf 985d 9e3e
00000090: b6ac 4b3d 0ceb b9bd 9933 e4be f03e 363f
000000a0: 8586 8c3e afba b5be c948 e93e ef5c 03bf
000000b0: b140 133f 1914 e6bd 0e46 143f 701f 1d3e
000000c0: fccb fb3e 8851 f43e cb2f 0d3f df13 13bf
000000d0: f943 32bf aa82 2fbf dc05 433d 9cf8 cd3e
000000e0: 6cb8 64be 0361 5c3e 6ff2 983e 9888 8abe
000000f0: 8df4 ad3d 29d6 09bf bc6d 9e3e 8587 e23e
00000100: fe10 123f 7bbb 33bd fb57 d53e 505f a5bd
00000110: 6483 d3be e27b 46be 291d 3abf 8e2b 163f
00000120: 04a0 09bf 65ea b93e 463a b13e 581a 2d3f
00000130: e3d3 a43e 0264 d53e 78f4 1c3e 4c88 81be
00000140: 8f54 343e aa8a 68be 4005 703d a6de 06bf
00000150: b5ac 5dbd 91b2 343f 6afc 6bbe ab48 c9bd
00000160: aec8 663e d0bf 6a3e 8361 283f b57f 14be
00000170: 7f67 a43e b89b d1be 8078 8c3e b150 0c3e
00000180: 44d7 febe 03f7 233e b671 f73e dbc0 d5bd
00000190: e0ff 29bf 9047 013f 0856 273f 0578 883e
000001a0: c49b d43e 6fa5 3dbe f823 193f 5461 05bf
000001b0: 05f7 45bf a70e 153f 26f5 18bf 9f1c 593e
000001c0: e394 00bf 3889 7c3e 2a72 14bf bccb 923d
000001d0: 9e1a e1be e9b6 edbd 235b e43e 91f5 38be
000001e0: 03e4 ddbe 78da c2be 7208 dabd 1c38 0bbf
000001f0: 2d9c 15bf 2698 b73d c375 0fbe 5e59 01bf

layers.block_1.layer.0.weight f4 [128, 128]
-0.046146177 -0.05321581 0.12492701 0.09059792 -0.123693824 -0.13122718 -0.09456322 -0.077064425
-0.009731629 0.018728351 0.045558084 -0.07890643 0.050900213 0.13270184 0.040443625 0.07390994
0.037470184 -0.07531422 0.08161155 -0.016755106 -0.07632872 -0.08124694 0.11088841 -0.04080357
-0.099919416 -0.083151214 -0.020055577 -0.040514063 0.08991586 0.123389535 0.023575148 0.12166018
-0.09338136 -0.105840534 0.11395413 -0.01342553 -0.11814147 0.047542162 -0.011219984 -0.0052248896
-0.020165665 0.11421093 -0.030888325 0.10480531 -0.05503477 -0.00038226598 -0.09034174 -0.09497894
-0.12667459 -0.019198023 -0.11727381 -0.023134949 0.040283002 0.14858149 -0.112613104 0.017736664
0.045072373 0.112166174 -0.0797013 -0.049321547 -0.0056955894 0.0926941 0.04442748 0.056278512
-0.013396307 0.00093718607 0.0026887993 -0.0034729098 0.004677501 0.007847834 0.1519141 -0.09541654
0.08583295 0.012332296 -0.055772845 -0.06123313 -0.07297403 -0.09229321 -0.02911164 -0.11584814
-0.052358665 -0.108526126 -0.014918268 0.049932897 -0.08562813 -0.13611785 -0.08882609 0.13094075
-0.038999848 0.05261583 0.022823576 0.077767536 -0.056766715 0.070445076 0.009090705 -0.12976132
0.030756539 -0.08076475 0.061009686 -0.12960424 0.10035015 -0.12626487 -0.050580468 -0.13346852
0.03838792 0.11252194 -0.029374655 -0.055490013 0.08047062 0.028814616 0.03915946 0.081023596
0.048174296 -0.038880475 0.059364166 0.085382946 -0.046453137 0.009614668 -0.035189103 0.030266529
0.06411772 0.040586535 0.12799275 -0.078715056 0.1470183 -0.0632211 -0.016222976 0.14380051
0.003937963 -0.088971056 0.08320347 0.0889429 -0.054487076 -0.14130706 -0.00064080843 -0.02004275
0.011805012 -0.055038232 0.019896993 -0.03386651 0.099682584 0.12938078 0.0805665 0.14178255
0.0040597348 0.0029786658 -0.083212025 -0.078847334 0.01444597 -0.036332063 -0.0021043024 0.01873125
0.021412443 -0.15695268 0.014961605 -0.023009656 0.037273698 0.11076173 0.06430082 -0.018930694
-0.035985354 -0.008715462 0.028681748 0.18477738 -0.14527148 0.1747703 0.10053871 -0.08813409
0.022274146 0.10469688 0.09052509 -0.014274055 0.061715115 0.07908061 0.02158199 0.008615046
-0.022833733 -0.047921374 0.05315648 -0.11697182 0.047429994 -0.011956827 -0.037484765 0.13568534
0.09634903 0.069303356 0.02860924 -0.064530246 -0.009948599 0.14545345 0.12243481 0.06748476
0.08187754 0.15037912 0.14211443 -0.09912682 0.049744863 -0.03452699 0.14360055 -0.07859832
-0.058785837 0.104076914 0.07067359 -0.08460255 -0.0715384 0.12323288 -0.15764824 -0.050552998
-0.16351943 -0.16871454 0.028492369 0.1548741 -0.14956069 -0.08080143 -0.053925585 0.041475434
-0.0671956 0.1129404 0.016118111 0.114007704 -0.022522897 -0.034854867 0.09555145 -0.18280387
-0.10879668 -0.055909716 0.051123187 -0.14348805 -0.042264618 -0.043947794 -0.036050074 -0.111824065
-0.110133305 0.03345825 0.020764664 0.033923022 -0.045346074 0.0979022 -0.018314395 0.019251794
-0.13855058 0.08744277 -0.10634015 0.17127194 -0.030198395 -0.072783075 0.11979737 0.010863773
-0.09107686 -0.098174475 0.117151156 -0.13892704 0.07596294 -0.15534234 0.017409593 0.16112806
00000000: c603 3dbd d2f8 59bd bbd9 ff3d 678b b93d
00000010: 3053 fdbd 6b60 06be 5daa c1bd f4d3 9dbd
00000020: 6971 1fbc 336c 993c 1d9b 3a3d b299 a1bd
00000030: be7c 503d fee2 073e 37a8 253d 185e 973d
00000040: 567a 193d 573e 9abd f523 a73d 0142 89bc
00000050: 3b52 9cbd cc64 a6bd 7619 e33d a521 27bd
00000060: 8da2 ccbd 2f4b aabd 984b a4bc 13f2 25bd
00000070: ce25 b83d a7b3 fc3d ab20 c13c f928 f93d
00000080: ba3e bfbd ecc2 d8bd c860 e93d c1f6 5bbc
00000090: 28f4 f1bd 92bb 423d 06d4 37bc 8d35 abbb
000000a0: 7732 a5bc 6ce7 e93d 8309 fdbc 2ba4 d63d
000000b0: 246c 61bd df6a c8b9 1705 b9bd 5284 c2bd
000000c0: fcb6 01be 2c45 9dbc 402d f0bd 8185 bdbc
000000d0: caff 243d bf25 183e b3a1 e6bd 7b4c 913c
000000e0: cf9d 383d 61b7 e53d 6f3a a3bd 6405 4abd
000000f0: 11a2 babb 68d6 bd3d 97f9 353d 4c84 663d
00000100: 2f7c 5bbc 7ead 753a 9136 303b c299 63bb
00000110: b945 993b 3494 003c 5f8f 1b3e bf69 c3bd
00000120: 30c9 af3d 660d 4a3c 1172 64bd 97cf 7abd
00000130: 6973 95bd 3904 bdbd 897b eebc ca41 edbd
00000140: 0a76 56bd f242 debd c06b 74bc 7086 4c3d
00000150: cd5d afbd 7a62 0bbe 74ea b5bd 5515 063e
00000160: 4ebe 1fbd b283 573d 82f8 ba3c 9644 9f3d
00000170: 3784 68bd 8245 903d 2ef1 143c 27e0 04be
00000180: 23f5 fb3c fd67 a5bd 4be5 793d f9b6 04be
00000190: 6184 cd3d 944b 01be 772d 4fbd f9ab 08be
000001a0: a73c 1d3d e771 e63d 1ea3 f0bc 7f49 63bd
000001b0: c8cd a43d a10c ec3c ac65 203d b3ef a53d
000001c0: 6952 453d 2241 1fbd d727 733d 41dd ae3d
000001d0: a545 3ebd d786 1d3c 7322 10bd 83f1 f73c
000001e0: 2750 833d 113e 263d 8810 033e 5c35 a1bd
000001f0: f78b 163e 107a 81bd 0ce6 84bc 7140 133e
00000200: 070a 813b 7536 b6bd 9566 aa3d b227 b63d
00000210: d72d 5fbd ccb2 10be edfb 27ba b130 a4bc
00000220: cf69 413c c56f 61bd 05ff a23c 9cb7 0abd
00000230: 6226 cc3d 657c 043e 0d00 a53d 722f 113e
00000240: 8607 853b b835 433b 116b aabd b67a a1bd
00000250: caae 6c3c eed0 14bd 56e8 09bb 4772 993c
00000260: 2669 af3c 34b8 20be 8521 753c bf7e bcbc
00000270: 4eac 183d 0cd7 e23d 26b0 833d 8b14 9bbc
00000280: 6165 13bd 4ccb 0ebc fcf5 ea3c 4836 3d3e
00000290: 0cc2 14be fcf6 323e 3de7 cd3d a57f b4bd
000002a0: 4578 b63c 516b d63d 3865 b93d badd 69bc
000002b0: fdc8 7c3d 04f5 a13d b7cc b03c 1f26 0d3c
000002c0: cf0d bbbc 3449 44bd 9cba 593d ec8e efbd
000002d0: f445 423d 91e6 43bc a089 19bd 19f1 0a3e
000002e0: a452 c53d ebee 8d3d ed5d ea3c 6f28 84bd
000002f0: 73ff 22bc c0f1 143e 1abf fa3d 7335 8a3d
00000300: 69af a73d fcfc 193e 7286 113e 0103 cbbd
00000310: 45c1 4b3d 2c6c 0dbd 060c 133e 28f8 a0bd
00000320: 6bc9 70bd 4726 d53d 51bd 903d 1a44 adbd
00000330: ba82 92bd 8561 fc3d 8a6e 21be a910 4fbd
00000340: a371 27be 81c3 2cbe d468 e93c 5197 1e3e
00000350: 7026 19be 387b a5bd 13e1 5cbd 25e2 293d
00000360: d99d 89bd 4c4d e73d 210a 843c df7c e93d
00000370: f081 b8bc fac3 0ebd 7bb0 c33d f030 3bbe
00000380: cbd0 debd 9601 65bd 8c66 513d 88ee 12be
00000390: aa1d 2dbd 9a02 34bd 3ea9 13bd 0404 e5bd
000003a0: 928d e1bd 850b 093d a81a aa3c def2 0a3d
000003b0: cebc 39bd f380 c83d 1208 96bc f0b5 9d3c
000003c0: 34e0 0dbe 3215 b33d ddc8 d9bd e961 2f3e
000003d0: a062 f7bc 4b0f 95bd 5358 f53d f7fd 313c
000003e0: 8186 babd b30f c9bd f2ec ef3d e442 0ebe
000003f0: 7592 9b3d 1012 1fbe 909e 8e3c c1fe 243e

layers.block_1.layer.0.bias f4 [128]
0.027064169 0.008214045 0.05045688 -0.026652994 -0.009958879 -0.04993334 0.04017997 -0.06433095
-0.039362088 0.053362876 0.0161291 0.038580805 -0.031932604 0.084893204 0.04126703 0.027962146
-0.048225082 -0.0613092 0.07306889 0.07201918 0.113559544 0.02712777 -0.06822691 0.0077321716
0.08761205 -0.03561768 -0.0025052747 -0.0062661543 0.020878663 0.0035004949 0.072175056 -0.012690243
0.0526662 -0.13837852 0.06210197 -0.079116605 -0.04519648 -0.0069249775 -0.009497619 0.03059549
0.0025096494 0.064780444 -0.1115837 -0.0033209126 0.05388231 0.026971353 0.012339751 0.051279772
0.05660697 -0.03448406 -0.013761172 -0.040416904 0.0674545 0.08188058 -0.09219217 0.012073443
-0.007020329 0.035371706 -0.024540275 -0.04073162 -0.08917471 0.015886366 0.04301243 0.07819844
-0.064394295 -0.0005731168 -0.060701113 0.042900547 0.057792705 0.02046804 0.019847885 0.0553115
-0.07862533 0.106652915 -0.021460151 -0.09195437 0.0004402884 0.056936596 -0.03262422 0.10633731
0.06467121 0.031324726 -0.07751799 0.011315602 -0.07741973 -0.065502845 0.09712096 -0.079346366
0.030770125 -0.07082618 0.054016337 0.058104 -0.023610445 0.0064945915 -0.047096517 0.011529452
0.060028754 -0.037115555 0.03866073 -0.060708363 0.037213836 -0.012121944 9.4775816e-05 0.014882703
-0.040766146 -0.029661799 0.055016503 0.07128332 -0.014135614 0.09825169 -0.029757125 0.027954955
-0.016046103 0.015777148 -0.045752615 0.09461948 0.04827291 0.04747296 -0.017138468 0.054188114
0.09091953 -0.027859306 -0.03337071 0.07958166 0.1001227 -0.039253686 -0.06024996 -0.07187086
00000000: adb5 dd3c 3494 063c e0ab 4e3d 6157 dabc
00000010: 912a 23bc e786 4cbd c193 243d f2bf 83bd
00000020: 243a 21bd 0893 5a3d 2d21 843c e806 1e3d
00000030: c3cb 02bd 7ddc ad3d 9e07 293d df10 e53c
00000040: aa87 45bd 5b1f 7bbd 24a5 953d cb7e 933d
00000050: e891 e83d 0f3b de3c 8dba 8bbd 285e fd3b
00000060: f26d b33d d8e3 11bd 892f 24bb 5054 cdbb
00000070: bb09 ab3c 8f68 653b 84d0 933d bdea 4fbc
00000080: 83b8 573d 19b3 0dbe a35e 7e3d e307 a2bd
00000090: f21f 39bd ecea e2bb e79b 1bbc 65a3 fa3c
000000a0: ee78 243b 9cab 843d ff85 e4bd aba3 59bb
000000b0: b2b3 5c3d 07f3 dc3c ab2c 4a3c bd0a 523d
000000c0: b6dc 673d 283f 0dbd 8a76 61bc 328c 25bd
000000d0: 9625 8a3d 01b1 a73d 40cf bcbd b1cf 453c
000000e0: ca0a e6bb ece1 103d b008 c9bc 33d6 26bd
000000f0: 3ba1 b6bd 2024 823c cd2d 303d 8126 a03d
00000100: 28e1 83bd 383d 16ba bba1 78bd 7cb8 2f3d
00000110: 0bb8 6c3d 97ac a73c 0898 a23c 508e 623d
00000120: 5106 a1bd d86c da3d 33cd afbc 9352 bcbd
00000130: 82d6 e639 5936 693d f9a0 05bd 60c7 d93d
00000140: 5772 843d 5b4e 003d c0c1 9ebd 1365 393c
00000150: 3c8e 9ebd 5b26 86bd 5be7 c63d 5980 a2bd
00000160: a111 fc3c 510d 91bd 3c40 5d3d 76fe 6d3d
00000170: b16a c1bc 95d0 d43b 47e8 40bd 07e6 3c3c
00000180: b6e0 753d 7b06 18bd b75a 1e3d 55a9 78bd
00000190: 896d 183d 1e9b 46bc 61c2 c638 95d6 733c
000001a0: 67fa 26bd 4dfd f2bc fc58 613d fdfc 913d
000001b0: 1099 67bc 2f38 c93d 37c5 f3bc ca01 e53c
000001c0: 1e73 83bc 143f 813c 1867 3bbd dcc7 c13d
000001d0: d1b9 453d 0273 423d f965 8cbc 5bf4 5d3d
000001e0: 0534 ba3d 3339 e4bc baaf 08bd b6fb a23d
000001f0: 210d cd3d 79c8 20bd a9c8 76bd 0831 93bd

layers.block_2.layer.0.weight f4 [128, 128]
-0.055871844 0.016997272 0.1517531 -0.09376919 -0.04058003 -0.010071307 0.0051964484 -0.052860018
0.10030882 -0.039729014 -0.008561532 -0.021377198 -0.07127794 0.06600018 -0.0375646 -0.16973354
-0.02347947 -0.0027450176 0.122878335 0.079714194 0.106077336 -0.06742166 0.011682549 -0.024672426
0.111265615 -0.05553876 0.022786738 0.10050631 0.0194176 -0.006275689 0.02556295 0.032721836
-0.040385373 0.011073176 0.078659035 0.12605269 -0.089291774 -0.08768727 0.026128467 -0.036964756
-0.015441122 0.121816106 0.03274182 -0.07824442 -0.019515121 0.11259725 -0.05605267 -0.058525775
0.0076298923 -0.13620302 -0.020165065 -0.08381888 -0.05630293 -0.105875365 -0.078702204 -0.124203764
-0.08758462 0.02969542 -0.05624676 -0.013191155 0.020979315 0.0776964 -0.04243397 -0.024116457
-0.020121817 0.035110176 -0.07384118 0.09659372 0.105372004 -0.030134289 -0.10402447 -0.050376963
-0.033787653 0.08914675 -0.14371762 0.106273815 0.015361574 0.10914415 -0.07125422 -0.040920287
-0.0070531573 0.0074378457 -0.003963911 0.014711125 -0.024976254 -0.12503335 0.036211684 -0.054168846
-0.07367406 0.02574634 0.07811303 0.009695729 0.0009703445 -0.0124017475 -0.051795136 -0.1009722
-0.0054791304 -0.072785616 -0.040457707 -0.09543347 -0.0054054013 0.100817025 -0.081686586 0.005189864
0.022917666 0.110882774 0.019868048 0.042678956 0.007851006 0.03839721 0.03793398 0.0420289
-0.104857676 0.040288027 0.079776585 -0.028754866 0.035349887 0.04183495 0.014873502 -0.0619945
0.074145444 -0.054540757 -0.05463672 0.08529909 0.019055018 -0.039071523 -0.0778243 -0.037124787
0.067231536 0.08333417 0.015902104 -0.1151845 0.021252891 0.055863332 0.12595989 -0.18849705
0.13358921 0.01836678 0.012687178 -0.013492019 0.12847997 0.1142151 0.08603002 0.121635966
0.052173838 -0.10162691 0.0648879 0.09453133 0.04597878 -0.09140811 0.058093965 0.014621006
-0.0476365 -0.087404415 0.013491589 -0.046551537 -0.07684943 -0.027971642 -0.08165789 -0.09741938
0.03540852 -0.07177439 0.06928328 0.0059492635 -0.040575 0.023400784 0.049647756 -0.101835966
-0.0024208112 0.07646944 -0.038261496 0.034435514 -0.041321885 0.03576204 0.041565523 0.11968387
0.18433443 0.033506934 0.13935569 -0.08325163 -0.06013263 0.06949494 -0.04472807 -0.05399181
-0.07246996 -0.03162523 0.0026160735 0.014056561 -0.08139213 0.03512722 0.13276243 0.08342507
-0.056702446 -0.062429324 -0.043983024 -0.08208123 -0.009564394 -0.056838598 0.007857079 0.0894558
-0.027859176 0.12744679 -0.027513014 0.08900877 0.12003382 0.058749337 -0.08445009 -0.03956027
0.1507799 -0.033292368 0.063127965 0.008166248 0.074246295 -0.074183196 0.02051347 0.039580677
-0.07215858 -0.055092026 -0.046001375 0.2609523 -0.104309164 0.07533728 0.0067713847 -0.020872429
-0.02965713 0.002319721 -0.08139217 -0.11793297 0.057537273 0.059394218 -0.0014724032 -0.024775704
0.0012772143 0.026751794 0.05328842 0.0759407 -0.22000168 0.08756413 -0.017088009 0.09194463
0.044979043 -0.0712514 0.046602946 0.092661984 -0.03127802 0.048855577 -0.005409077 -0.02696004
0.05098958 -0.03034217 0.079710305 0.059464768 0.049709763 -0.11784196 -0.15447898 0.00089560053
00000000: e0d9 64bd dd3d 8b3c 2a65 1b3e 100a c0bd
00000010: 3f37 26bd 2002 25bc f846 aa3b bf83 58bd
00000020: b66e cd3d e4ba 22bd ab45 0cbc 3c1f afbc
00000030: 2bfa 91bd 1a2b 873d 57dd 19bd a1ce 2dbe
00000040: 0458 c0bc c1e5 33bb a3a7 fb3d 3241 a33d
00000050: 133f d93d 5e14 8abd 2968 3f3c d41d cabc
00000060: 3adf e33d 9c7c 63bd 41ab ba3c 41d6 cd3d
00000070: a911 9f3c 4ca4 cdbb 6469 d13c 5507 063d
00000080: 226b 25bd 446c 353c fd17 a13d f513 013e
00000090: 9bde b6bd 6295 b3bd 5e0b d63c 5b68 17bd
000000a0: c3fc 7cbc b97a f93d 491c 063d 9c3e a0bd
000000b0: 2dde 9fbc 6399 e63d 7c97 65bd b9b8 6fbd
000000c0: 2d04 fa3b ce78 0bbe 3531 a5bc 3ca9 abbd
000000d0: e79d 66bd 2fd5 d8bd 9f2e a1bd 8b5e febd
000000e0: 915f b3bd cf43 f33c 0163 66bd b71f 58bc
000000f0: d0dc ab3c 4a1f 9f3d 3ecf 2dbd e08f c5bc
00000100: 82d6 a4bc b0cf 0f3d 0b3a 97bd eed2 c53d
00000110: 47cd d73d 2fdc f6bc c80a d5bd 1358 4ebd
00000120: ec64 0abd 9292 b63d b62a 13be 16a6 d93d
00000130: 1caf 7b3c f886 df3d bced 91bd 089c 27bd
00000140: 2c1e e7bb 2cb9 f33b b2e3 81bb ee06 713c
00000150: 009b ccbc be08 00be b452 143d 27e0 5dbd
00000160: 6de2 96bd fde9 d23c b9f9 9f3d d6da 1e3c
00000170: b85e 7e3a b330 4bbc 2327 54bd 83ca cebd
00000180: 478a b3bb a010 95bd fbb6 25bd a072 c3bd
00000190: cb1f b1bb 2879 ce3d 4c4b a7bd bc0f aa3b
000001a0: d4bd bb3c 8216 e33d 51c2 a23c 21d0 2e3d
000001b0: 82a1 003c 6546 1d3d a960 1b3d 7f26 2c3d
000001c0: 9fbf d6bd 0f05 253d e861 a33d 538f ebbc
000001d0: 0bcb 103d 205b 2b3d fdaf 733c f2ed 7dbd
000001e0: 91d9 973d 2166 5fbd c1ca 5fbd 4ab1 ae3d
000001f0: 4519 9c3c 7609 20bd 5962 9fbd 2910 18bd
00000200: b0b0 893d 1bab aa3d 2145 823c dae5 ebbd
00000210: 8b1a ae3c f3d0 643d a1fb 003e 5f05 41be
00000220: 9ccb 083e ee75 963c e2dd 4f3c a10d 5dbc
00000230: 4190 033e 9be9 e93d 8230 b03d 471c f93d
00000240: 3cb4 553d c521 d0bd f3e3 843d a499 c13d
00000250: 3f54 3c3d 2d34 bbbd f0f3 6d3d f28c 6f3c
00000260: 7e1e 43bd 1601 b3bd d30b 5d3c d3ac 3ebd
00000270: 3c63 9dbd c924 e5bc 403c a7bd d083 c7bd
00000280: 8608 113d 74fe 92bd 64e4 8d3d 0af2 c23b
00000290: f931 26bd 00b3 bf3c 725b 4b3d 608f d0bd
000002a0: 79a6 1ebb 029c 9c3d 16b8 1cbd 410c 0d3d
000002b0: 2341 29bd 387b 123d 9c40 2a3d d11c f53d
000002c0: 2ac2 3c3e 913e 093d 42b3 0e3e d57f aabd
000002d0: a24d 76bd 5d53 8e3d c834 37bd 8426 5dbd
000002e0: 216b 94bd 7589 01bd 6e72 2b3b 7d4d 663c
000002f0: ebb0 a6bd 8fe1 0f3d e0f2 073e c3da aa3d
00000300: d340 68bd e4b5 7fbd 8b27 34bd 341a a8bd
00000310: fab3 1cbc 97cf 68bd faba 003c 9a34 b73d
00000320: ed38 e4bc 6981 023e f962 e1bc 3b4a b63d
00000330: 4bd4 f53d 25a3 703d 2bf4 acbd f309 22bd
00000340: 0c66 1a3e 945d 08bd 3c49 813d bacb 053c
00000350: 710e 983d 5ced 97bd dd0b a83c 591f 223d
00000360: e1c7 93bd 2da8 61bd f06b 3cbd 8a9b 853e
00000370: 0ba0 d5bd 6f4a 9a3d 7ee2 dd3b a8fc aabc
00000380: 82f3 f2bc 7606 183b f0b0 a6bd d786 f1bd
00000390: 34ac 6b3d 5a47 733d a7fd c0ba 6bf6 cabc
000003a0: 3368 a73a 9426 db3c f544 5a3d cc86 9b3d
000003b0: 1f48 61be d354 b33d 27fc 8bbc 774d bc3d
000003c0: f23b 383d 41ec 91bd bbe2 3e3d 91c5 bd3d
000003d0: 621d 00bd c91c 483d a03e b1bb 4ddb dcbc
000003e0: 73da 503d 2490 f8bc 283f a33d 5491 733d
000003f0: 779c 4b3d 2057 f1bd bd2f 1ebe bcc6 6a3a

layers.block_2.layer.0.bias f4 [128]
-0.058774784 0.014362528 0.0015438086 0.06386953 -0.038225517 0.027685493 0.08963623 -0.009577056
-0.036432248 -0.08548074 -0.08301859 0.058127046 0.02915576 0.102516234 0.004184521 -0.100068755
-0.07508595 -0.032451097 -0.025586264 -0.07074374 0.080464296 -0.008802228 -0.06776364 -0.061743926
0.05348846 -0.018659785 0.046239704 0.07922206 0.08384432 -0.04507331 -0.06675595 0.054656573
-0.05831456 0.016727617 -0.03874939 0.004740006 -0.038896002 0.052660227 -0.012393334 -0.07439833
0.029899772 -0.05136992 0.00015490361 -0.016384035 0.071605995 0.018721672 0.058468584 0.050762735
-0.036871463 -0.050720204 0.025295576 0.06382582 0.054805644 0.1028273 -0.019857457 -0.06542628
0.09599303 -0.0469255 0.073175296 -0.07832686 0.056019742 0.06868035 -0.039711826 -0.06389777
-0.006779155 -0.0624344 -0.04916829 0.08759485 0.037813384 0.028998785 0.013614756 0.03111226
-0.067462936 -0.007733631 -0.0535269 -0.00010769317 0.012289934 0.0035065399 -0.047136534 -0.06433224
-0.08139616 0.03685152 -0.043307703 -0.040768366 0.007312079 0.008785277 0.059576385 0.014891981
0.03175039 0.017271888 0.016843487 -0.012315836 -0.019884031 0.11279709 -0.058992866 0.09346666
0.0064294124 0.05470514 0.074509114 -0.060153924 -0.07373608 -0.013003243 -0.050995685 0.02271642
-0.06330684 0.07436537 0.0027660881 0.06473423 0.07824948 0.015243607 -0.078173615 0.027976997
-0.0849662 -0.106529355 0.0043271324 0.07684036 0.06803963 -0.034040827 0.04429226 0.10383083
0.11331556 -0.072883606 0.037581913 0.009787015 0.025751853 0.07663362 -0.065611616 0.056627635
00000000: d4bd 70bd cf50 6b3c 9f59 ca3a 07ce 823d
00000010: 5c92 1cbd b0cc e23c 3393 b73d 16e9 1cbc
00000020: fb39 15bd 8710 afbd a705 aabd a016 6e3d
00000030: 0fd8 ee3c 08f4 d13d 4e1e 893b d9f0 ccbd
00000040: aac6 99bd 71eb 04bd 499a d1bc 18e2 90bd
00000050: 77ca a43d 3837 10bc aac7 8abd 33e7 7cbd
00000060: b716 5b3d 68dc 98bc d865 3d3d 2d3f a23d
00000070: 92b6 ab3d cb9e 38bd 58b7 88bd 92df 5f3d
00000080: 40db 6ebd 5b08 893c aeb7 1ebd 0d52 9b3b
00000090: 6a51 1fbd 40b2 573d 690d 4bbc 275e 98bd
000000a0: 5ef0 f43c 4469 52bd 9f6d 2239 d037 86bc
000000b0: 2aa6 923d 315e 993c c17c 6f3d 96ec 4f3d
000000c0: 8806 17bd fdbf 4fbd ab38 cf3c 1db7 823d
000000d0: e27b 603d 1f97 d23d 1bac a2bc 37fe 85bd
000000e0: fe97 c43d f434 40bd eedc 953d d569 a0bd
000000f0: f574 653d 49a8 8c3d dea8 22bd d6dc 82bd
00000100: ad23 debb 37bb 7fbd b064 49bd ee64 b33d
00000110: 35e2 1a3d dc8e ed3c 6d10 5f3c 23df fe3c
00000120: 022a 8abd 666a fdbb 063f 5bbd 55d9 e1b8
00000130: b85b 493c facd 653b 3d12 41bd 9fc0 83bd
00000140: 08b3 a6bd 9ff1 163d 6b63 31bd bbfc 26bd
00000150: 2a9a ef3b 1ff0 0f3c 5e06 743d 7ffd 733c
00000160: b20c 023d c67d 8d3c 5afb 893c 5cc8 49bc
00000170: d6e3 a2bc 2902 e73d 81a2 71bd 736b bf3d
00000180: d2ad d23b 7f12 603d 3c98 983d f663 76bd
00000190: f102 97bd 8e0b 55bc dae0 50bd c917 ba3c
000001a0: 04a7 81bd df4c 983d 4247 353b 6193 843d
000001b0: 4341 a03d 52c0 793c 7d19 a0bd 0430 e53c
000001c0: c202 aebd 102c dabd 9eca 8d3b 7b5e 9d3d
000001d0: 5d58 8b3d 656e 0bbd cd6b 353d 42a5 d43d
000001e0: fd11 e83d 0044 95bd 7eef 193d b759 203c
000001f0: 8df5 d23c 16f2 9c3d 625f 86bd 61f2 673d

layers.block_3.layer.0.weight f4 [128, 128]
0.09784096 0.0601443 -0.024980186 0.020561056 -0.03140287 -0.101401776 0.046941765 -0.09197871
0.10050312 -0.03160851 -0.08997634 -0.04424236 -0.007052619 -0.06504737 -0.10394747 -0.06970292
0.0015779933 -0.09573422 0.095631585 -0.0045545627 -0.03452886 0.0036778294 0.038544882 0.040536914
0.08080638 -0.026203673 -0.12007037 0.07430039 0.05893965 -0.035547603 0.071835324 -0.034028552
0.034561295 0.0071786465 0.08392799 0.023648992 0.0033276705 -0.01818334 0.09731678 0.0069069862
-0.10936802 -0.037711076 -0.031861927 -0.15719147 -0.007965892 -0.12820491 -0.0070547992 -0.03658789
-0.035355072 0.064850666 0.06834555 -0.012385271 0.034243643 0.036833107 -0.043251947 -0.10353172
-0.047452483 -0.043352563 -0.036844026 -0.08465166 0.0046073264 -0.08125766 -0.11483962 0.09419241
0.08836481 -0.08186913 -0.06366327 0.020768268 -0.12474546 -0.10077057 0.00714566 -0.10353531
-0.03692667 0.05622846 0.01704718 0.013601419 0.04235602 0.0046243444 -0.072515875 -0.008708924
0.059010483 -0.04294599 0.011631356 0.03221754 -0.027358895 -0.03940999 0.0283054 -0.061239142
-0.08163698 -0.054514766 0.08889577 0.11710138 0.052427582 -0.03006916 0.109048784 -0.01246723
-0.053659692 0.018799944 0.02760465 0.015469426 -0.029667092 0.046200093 0.06305416 -0.021618754
0.011162979 0.011690174 -0.00482766 -0.0070899245 -0.09969256 0.0072232517 -0.14156334 0.104102336
-0.0110556865 -0.0066087255 -0.06943544 0.032034248 0.13446882 -0.08232826 -0.05094174 0.10688816
0.03390732 0.08876092 0.0909464 0.056783646 -0.104748026 -0.10214893 0.0074096136 -0.072881095
0.14718315 0.02109823 0.013873826 0.07230568 -0.061059285 0.20425114 -0.069227934 -0.0888832
-0.14750832 0.045489714 0.018225733 0.09103483 0.06722724 0.065290555 -0.05189667 -0.022865705
0.040727913 -0.045987386 -0.023882942 -0.013248388 0.016593255 0.055178527 0.048839774 0.04490673
-0.00014042816 0.070682764 0.13588426 0.097740695 -0.016552335 0.016642338 -0.1480945 0.06562471
-0.07975401 0.040010273 -0.00049213576 0.013143676 0.04474134 -0.06849111 -0.10608838 0.09942771
-0.03276095 -0.007328932 -0.04154659 0.09750274 -0.037354182 0.18839507 0.17544557 0.021055669
-0.018296363 -0.0055360724 -0.012964532 0.0863118 0.0010375213 -0.0025012288 0.024361512 -0.045093622
0.0469623 -0.018502478 -0.03882927 0.058823075 -0.042576376 -0.0026347358 0.029515302 -0.0969988
0.08824391 -0.07993338 0.10493416 0.060984462 0.0844005 0.11162107 0.008924709 -0.005263616
0.093178496 -0.071698874 -0.0139419325 -0.0063479086 0.05798896 -0.02335267 0.049240924 -0.07439332
0.034319732 0.053216033 -0.08718714 0.07000317 -0.05621516 0.1122197 -0.09486173 -0.02369512
0.045907132 0.13776317 0.050901428 -0.12600404 -0.057464343 0.04904905 -0.1634382 0.041026745
-0.030860644 -0.0042884406 -0.08666874 -0.10264053 -0.04789667 0.03435896 0.048681058 -0.066824615
-0.0042211562 -0.10290278 0.086944416 0.0008360036 -0.04075398 0.115461655 -0.021012936 -0.11275606
-0.031303864 -0.028372427 -0.0039135404 0.029307751 -0.010908017 0.03948738 -0.0032218716 -0.12738037
-0.082045145 0.14507598 -0.12986788 -0.027619926 0.13697273 0.02217526 0.07405334 0.090452425
00000000: d760 c83d df59 763d 3fa3 ccbc a96f a83c
00000010: 4ca0 00bd bcab cfbd 0246 403d 555f bcbd
00000020: 94d4 cd3d ed77 01bd 8445 b8bd 7a37 35bd
00000030: a819 e7bb 8e37 85bd 69e2 d4bd 68c0 8ebd
00000040: abd4 ce3a 4e10 c4bd 7eda c33d 713e 95bb
00000050: 226e 0dbd bd07 713b 3de1 1d3d 090a 263d
00000060: d17d a53d 16a9 d6bc 74e7 f5bd ce2a 983d
00000070: b46a 713d 5d9a 11bd 661e 933d 8661 0bbd
00000080: 2590 0d3d da3a eb3b 70e2 ab3d 88bb c13c
00000090: 0c15 5a3b 3af5 94bc 054e c73d 0054 e23b
000000a0: 57fc dfbd ee76 1abd a781 02bd cdf6 20be
000000b0: 5f83 02bc 2648 03be f22b e7bb 2fdd 15bd
000000c0: 7bd0 10bd 6dd0 843d c0f8 8b3d 97eb 4abc
000000d0: 1043 0c3d 50de 163d f428 31bd 7008 d4bd
000000e0: 895d 42bd 7592 31bd c3e9 16bd d95d adbd
000000f0: 0ef9 963b 6b6a a6bd 0931 ebbd f3e7 c03d
00000100: 9cf8 b43d 01ab a7bd e361 82bd 3722 aa3c
00000110: 8c7a ffbd cd60 cebd 2426 ea3b 520a d4bd
00000120: 6c40 17bd d04f 663d 87a6 8b3c 7cd8 5e3c
00000130: 827d 2d3d d087 973b 3483 94bd e0af 0ebc
00000140: fab4 713d 22e8 2fbd 7191 3e3c 8af6 033d
00000150: c31f e0bc 5f6c 21bd bae0 e73c e5d5 7abd
00000160: 4a31 a7bd e04a 5fbd fc0e b63d d9d2 ef3d
00000170: 4ebe 563d 9953 f6bc f854 df3d 5a43 4cbc
00000180: 44ca 5bbd 5702 9a3c 2623 e23c 7a73 7d3c
00000190: 6708 f3bc 4f3c 3d3d 8a22 813d d019 b1bc
000001a0: ede4 363c 2588 3f3c 5931 9ebb 9952 e8bb
000001b0: 9d2b ccbd 07b1 ec3b fbf5 10be 9b33 d53d
000001c0: e922 35bc 028e d8bb 2b34 8ebd 5836 033d
000001d0: 32b2 093e b89b a8bd 49a8 50bd 2ee8 da3d
000001e0: 67e2 0a3d 49c8 b53d 1b42 ba3d f895 683d
000001f0: 2286 d6bd 7533 d1bd 58cc f23b af42 95bd
00000200: 2eb7 163e 32d6 ac3c 0b4f 633c 0015 943d
00000210: 4d19 7abd 3627 513e 60c7 8dbd 6508 b6bd
00000220: 6c0c 17be 6c53 3a3d 224e 953c 7870 ba3d
00000230: 6fae 893d 0eb7 853d 9a91 54bd dc50 bbbc
00000240: 50d2 263d 455d 3cbd 29a6 c3bc c40f 59bc
00000250: 94ee 873c e102 623d 370c 483d 1ff0 373d
00000260: e63f 13b9 20c2 903d 3e25 0b3e 462c c83d
00000270: c398 87bc 8355 883c 16a6 17be 3f66 863d
00000280: 1256 a3bd d0e1 233d ac02 01ba 9358 573c
00000290: b242 373d 1145 8cbd dd44 d9bd c1a0 cb3d
000002a0: 5930 06bd 8a27 f0bb c22c 2abd 84af c73d
000002b0: b300 19bd a3ea 403e 01a8 333e f07c ac3c
000002c0: 41e2 95bc f167 b5bb 3069 54bc 3ec4 b03d
000002d0: 70fd 873a a8eb 23bb cb91 c73c 17b4 38bd
000002e0: 8a5b 403d 8292 97bc 710b 1fbd 77f0 703d
000002f0: 9164 2ebd 88ab 2cbb 13ca f13c 4fa7 c6bd
00000300: 39b9 b43d 1db4 a3bd b9e7 d63d d8ca 793d
00000310: 2bda ac3d 9699 e43d f138 123c 697a acbb
00000320: 5ed4 be3d dcd6 92bd b46c 64bc 1e02 d0bb
00000330: d585 6d3d 194e bfbc dab0 493d 865b 98bd
00000340: d992 0c3d 0ef9 593d 2c8f b2bd d25d 8f3d
00000350: de41 66bd 71d3 e53d de46 c2bd 451c c2bc
00000360: 1e09 3c3d ca11 0d3e 047e 503d 3407 01be
00000370: bb5f 6bbd a8e7 483d 585c 27be a90b 283d
00000380: 76cf fcbc 0c86 8cbb 617f b1bd 3335 d2bd
00000390: 4c2f 44bd fbbb 0c3d ca65 473d 58db 88bd
000003a0: a051 8abb b1be d2bd ea0f b23d 4027 5b3a
000003b0: a5ed 26bd 2977 ec3d 5223 acbc a6ec e6bd
000003c0: 7b38 00bd 4b6d e8bc 283d 80bb cf16 f03c
000003d0: 8ab7 32bc 85bd 213d 0926 53bb 0070 02be
000003e0: 4907 a8bd cc8e 143e 16fc 04be 2f43 e2bc
000003f0: 9442 0c3e e4a8 b53c 47a9 973d 1f3f b93d

layers.block_3.layer.0.bias f4 [128]
0.074575655 -0.09636385 0.05860858 0.07684314 0.050905306 -0.0042492026 -0.0016835616 0.030372795
0.09700166 -0.06219689 -0.04022027 0.05513562 0.069960594 0.01649086 0.067747734 -0.049286123
0.09917502 -0.07365014 0.06481958 -0.04785799 -0.014631558 0.03645701 -0.032893308 0.06317726
-0.020089872 0.05188235 0.015917657 0.061542597 -0.058290087 -0.07504665 -0.07535268 0.06607219
-0.04219788 -0.054053694 -0.0649423 0.07781191 -0.04099699 -0.080372706 0.0019183832 -0.019104462
0.053894565 -0.086943805 0.03876299 0.052039187 -0.072616346 0.06160638 -0.02722257 0.0010886468
0.04468635 0.10929565 -0.096406214 0.078448355 -0.06347729 -0.034643102 -0.111549735 0.04334983
0.0023446954 -0.034829408 -0.08126939 -0.08255571 0.06469935 -0.0529706 -0.048178773 0.030948024
0.013385586 -0.019054849 -0.007848807 0.055675726 0.05939505 0.0631499 0.03176259 -0.04962373
0.013157532 0.052041333 -0.059710216 -0.06480999 -0.030405127 -0.042892206 0.007050661 0.0012983353
-0.06577639 0.06725926 -0.041325767 0.07731997 -0.016143857 0.08228529 0.050035 0.03189924
-0.0662392 0.05625816 -0.071326464 0.004946804 -0.061275326 -0.041789677 0.002884152 -0.09749736
0.040798645 -0.06471187 0.0432987 -0.010262379 0.005090858 0.04103768 0.014956322 -0.042046487
-0.06433824 0.0045483145 -0.0055934438 0.020578424 -0.0050417786 -0.07762341 0.076874234 -0.026625382
0.10017806 0.00273348 0.064618416 -0.023401797 -0.01670575 -0.030756112 -0.030833391 -0.059717644
-0.056888897 -0.0033767056 -0.05165131 -0.0017769459 0.072354615 -0.06701853 0.046466757 -0.031396274
00000000: 1fbb 983d 695a c5bd 8d0f 703d f05f 9d3d
00000010: 1582 503d e53c 8bbb f4aa dcba 5ed0 f83c
00000020: cea8 c63d 2bc2 7ebd 03be 24bd e3d5 613d
00000030: 8047 8f3d d717 873c 53bf 8a3d 3fe0 49bd
00000040: 461c cb3d e2d5 96bd 21c0 843d bd06 44bd
00000050: 34b9 6fbc f253 153d 22bb 06bd 1463 813d
00000060: 8493 a4bc 9682 543d bf65 823c 1714 7c3d
00000070: 96c1 6ebd 0fb2 99bd 8252 9abd db50 873d
00000080: afd7 2cbd 6867 5dbd 7800 85bd da5b 9f3d
00000090: 76ec 27bd 729a a4bd 4272 fb3a f680 9cbc
000000a0: 8cc0 5c3d 980f b2bd f1c5 1e3d 0b27 553d
000000b0: e1b7 94bd f956 7c3d de01 dfbc edb0 8e3a
000000c0: 0909 373d 66d6 df3d 9f70 c5bd 88a9 a03d
000000d0: 6200 82bd ede5 0dbd 3074 e4bd 978f 313d
000000e0: 76a9 193b 48a9 0ebd 9170 a6bd f812 a9bd
000000f0: 1881 843d b3f7 58bd 1b57 45bd b686 fd3c
00000100: 384f 5b3c ea18 9cbc 4898 00bc 3b0c 643d
00000110: 3948 733d bc54 813d 7d19 023d 4142 4bbd
00000120: b092 573c 4b29 553d b392 74bd 1abb 84bd
00000130: 2c14 f9bc bdaf 2fbd 3b09 e73b e72c aa3a
00000140: c6b5 86bd 39bf 893d 3545 29bd ef59 9e3d
00000150: 1f40 84bc 3185 a83d 80f1 4c3d c7a8 023d
00000160: 6ba8 87bd f56e 663d 9c13 92bd cd18 a23b
00000170: d6fb 7abd a72b 2bbd 0b04 3d3b b2ac c7bd
00000180: 7b1c 273d a887 84bd fa59 313d 8a23 28bc
00000190: 36d1 a63b 2017 283d 5c0b 753c f038 2cbd
000001a0: c4c3 83bd 070a 953b 3549 b7bb 1594 a83c
000001b0: 8135 a5bb 06f9 9ebd 3d70 9d3d 791d dabc
000001c0: 282a cd3d 2f24 333b a956 843d 20b5 bfbc
000001d0: 7fda 88bc 3ef4 fbbc 4f96 fcbc 7d9a 74bd
000001e0: 5504 69bd b84b 5dbb 5390 53bd 69e8 e8ba
000001f0: a82e 943d 0341 89bd ed53 3e3d 6199 00bd

layers.output.weight f4 [2, 128]
-0.08721294 0.2643025 -0.3867278 0.0015203867 0.03732934 0.014893666 0.16755468 -0.0009216659
-0.40286252 -0.18274651 0.33728275 0.15712278 -0.17852487 -0.7247715 -0.57530755 -0.022641387
-0.082203545 0.16356996 -0.3447925 0.171424 0.1414212 0.18628398 -0.057287715 0.0042785746
0.21709563 -0.65862733 0.10144467 -0.06590423 0.27943456 0.14447998 0.09058539 -0.37602192
-0.19870535 0.049980864 -0.026500382 0.06745193 0.11991748 0.13036545 -0.06429047 -0.056177318
-0.24577536 0.22115079 -0.82970804 0.40532118 0.15579236 0.09030303 -0.00493731 0.12020892
0.16287881 0.8190975 0.084158234 -0.0934056 0.028510772 0.15030718 0.14438641 0.13750279
0.50992984 0.12214999 -0.34108496 -0.07653367 -0.11681804 -0.0337911 -0.16550782 0.74411213
0.51402426 -0.5827951 0.22517765 -0.12971629 0.031733744 0.10647629 -0.27876538 0.13942946
-0.13942493 -0.048448935 0.033043772 0.108103715 -0.55866194 -0.110735245 -0.10689524 -0.43591118
-0.113881096 -0.7465099 0.001759359 0.726674 0.14370497 0.21146582 -0.14706081 0.18079582
-0.15157788 0.100382015 0.1499058 0.052983623 -0.53277713 0.1382192 0.16638856 0.2937508
-0.72286075 -0.08844529 -0.068484135 -0.05234958 0.40861645 0.19400263 -0.14647764 0.66888195
-0.57677156 0.14539106 -0.16387741 0.42214778 -0.16895111 0.13346466 0.07501105 -0.12525144
0.17437623 0.16658169 -0.039342824 -0.15149885 -0.0877106 -0.02743486 0.103238165 0.027290573
0.118132226 -0.5867414 0.15148391 0.005985443 -0.12695053 -0.47091648 -0.06284514 0.46906316
0.3835201 -0.38956028 -0.049002003 0.083097264 0.14070596 -0.1928522 -0.20642959 0.3185378
-0.45303926 -0.130597 -0.20619829 0.15144141 0.04218775 0.2128377 0.6097753 0.0066842167
-0.11480262 0.15211064 0.57429355 -0.2930568 0.047144044 0.01492885 -0.28088927 0.024956957
-0.43088937 0.2212829 0.07315002 -0.01667707 0.42007688 -0.0950544 -0.1507724 0.3053242
-0.12676722 -0.10329018 -0.2887951 -0.08746104 -0.12446565 0.06600097 -0.063628286 -0.008439645
0.5966147 -0.06258525 -0.083000556 -0.10683804 0.14315562 0.14572847 -0.17820187 0.19567719
0.032590933 -0.24045488 -0.2845756 0.0027215914 0.15044028 0.24832928 -0.12731905 0.034150857
-0.3318605 -0.5126963 -0.22383223 -0.009267446 -0.0025391313 0.51857364 0.17417921 -0.5102072
-0.3901537 -0.05192548 -6.872563e-05 -0.19565494 0.19937779 -0.13912322 0.18235517 -0.08249117
-0.22661144 -7.542641e-05 0.22052759 0.07001213 0.44157568 0.25290442 0.36081463 -0.57753325
0.48421705 0.5471511 -0.17277798 -0.4803154 0.10610254 -0.14612007 0.022853004 -0.20625092
-0.07926125 -0.22391306 -0.10471034 -0.14117868 0.3671451 0.07044028 0.15958087 -0.73649424
0.33767503 -0.102757946 -0.16271105 -0.3475708 -0.48757327 -0.12018252 -0.18188252 -0.37228948
0.33513913 0.17597081 -0.08992268 -0.5534163 -0.14434376 -0.29299235 -0.07867367 -0.16772535
0.05407137 0.014426849 -0.17788213 0.56035864 -0.118849635 -0.13595966 0.12086906 0.22374363
0.075849146 0.23192778 0.1541961 0.34100202 -0.09808408 0.10918492 -0.1442695 -0.26534602
00000000: b39c b2bd a852 873e 3001 c6be b647 c73a
00000010: a6e6 183d 9004 743c 7493 2b3e f49b 71ba
00000020: ff43 cebe e721 3bbe 53b0 ac3e cbe4 203e
00000030: 39cf 36be a08a 39bf 5b47 13bf 6e7a b9bc
00000040: 555a a8bd e27e 273e a488 b0be c689 2f3e
00000050: b8d0 103e 3ac1 3e3e 86a6 6abd 4933 8c3b
00000060: 514e 5e3e cd9b 28bf 39c2 cf3d ccf8 86bd
00000070: 0c12 8f3e 8ff2 133e d584 b93d f285 c0be
00000080: 6a79 4bbe bcb8 4c3d 5417 d9bc 3d24 8a3d
00000090: 4c97 f53d 857e 053e b9aa 83bd 301a 66bd
000000a0: 89ac 7bbe 5a75 623e bf67 54bf 4286 cf3e
000000b0: 0888 1f3e ccf0 b83d 28c9 a1bb 1830 f63d
000000c0: b4c9 263e 60b0 513f 275b ac3d 6f4b bfbd
000000d0: 6c8f e93c 20ea 193e 08da 133e 88cd 0c3e
000000e0: c38a 023f c629 fa3d b0a2 aebe afbd 9cbd
000000f0: 4c3e efbd 8968 0abd e27a 29be 227e 3e3f
00000100: 1897 033f 0f32 15bf f894 663e 59d4 04be
00000110: 3efb 013d 3e10 da3d 56ba 8ebe 99c6 0e3e
00000120: 69c5 0ebe 6472 46bd e858 073d 7b65 dd3d
00000130: 7804 0fbf 29c9 e2bd e4eb dabd c02f dfbe
00000140: 7e3a e9bd 461b 3fbf 4b9a e63a 4f07 3a3f
00000150: 6527 133e 7f8a 583e 1c97 16be 8a22 393e
00000160: 3b37 1bbe 1695 cd3d e880 193e 5b05 593d
00000170: 1564 08bf 5589 0d3e c361 2a3e 8166 963e
00000180: 670d 39bf ce22 b5bd 6941 8cbd 836c 56bd
00000190: 2d36 d13e a0a8 463e 3cfe 15be d93b 2b3f
000001a0: 4da7 13bf 65e1 143e 7bcf 27be c123 d83e
000001b0: 8501 2dbe f6aa 083e 659f 993d ea41 00be
000001c0: af8f 323e 6494 2a3e f125 21bd 8422 1bbe
000001d0: 9da1 b3bd 12bf e0bc 886e d33d 7b90 df3c
000001e0: 4fef f13d af34 16bf 991e 1b3e 8921 c43b
000001f0: 52ff 01be f71b f1be f4b4 80bd 0c29 f03e
00000200: bf5c c43e 7274 c7be 53b6 48bd e62e aa3d
00000210: 3915 103e 0c7b 45be 4762 53be 6317 a33e
00000220: c3f4 e7be 38bb 05be a525 53be 7513 1b3e
00000230: 10cd 2c3d 20f2 593e 3c1a 1c3f 4607 db3b
00000240: a31d ebbd e4c2 1b3e e704 133f 8a0b 96be
00000250: 1d1a 413d 2398 743c b8d0 8fbe 8872 cc3c
00000260: 889d dcbe fc97 623e adcf 953d 5a9e 88bc
00000270: 5114 d73e e2ab c2bd 1464 1abe 7453 9c3e
00000280: 44cf 01be cd89 d3bd f4dc 93be c61e b3bd
00000290: d9e7 febd 842b 873d 8c4f 82bd 7046 0abc
000002a0: bebb 183f b22c 80bd 32fc a9bd e7cd dabd
000002b0: 6397 123e d839 153e 8d7a 36be 9a5f 483e
000002c0: 127e 053d ce39 76be e5b3 91be ba5c 323b
000002d0: 040d 1a3e 084a 7e3e ed5f 02be c5e1 0b3d
000002e0: 9fe9 a9be 1140 03bf 4734 65be 7cd6 17bc
000002f0: 8e67 26bb 3ec1 043f 095c 323e f09c 02bf
00000300: 3ac2 c7be d0af 54bd cb20 90b8 c559 48be
00000310: b129 4c3e 5176 0ebe 50bb 3a3e 21f1 a8bd
00000320: d40c 68be 3f2e 9eb8 fcd1 613e 8562 8f3d
00000330: 3516 e23e b07c 813e b2bc b83e 38d9 13bf
00000340: 4ceb f73e 1812 0c3f b6ec 30be e6eb f5be
00000350: 4a4c d93d 80a0 15be 3936 bb3c 7133 53be
00000360: b953 a2bd 7749 65be 6072 d6bd 2591 10be
00000370: 71fa bb3e fe42 903d 2b69 233e e38a 3cbf
00000380: bee3 ac3e c272 d2bd ba9d 26be cdf4 b1be
00000390: 34a3 f9be 4122 f6bd 693f 3abe ba9c bebe
000003a0: 5b97 ab3e b131 343e 6229 b8bd b1ac 0dbf
000003b0: dace 13be 1803 96be a91f a1bd 32c0 2bbe
000003c0: f179 5d3d 975e 6c3c bc26 36be aa73 0f3f
000003d0: 7067 f3bd 0239 0bbe 338a f73d 0d1d 653e
000003e0: cc56 9b3d 7a7e 6d3e 95e5 1d3e d197 ae3e
000003f0: 4ee0 c8bd 589c df3d 62bb 13be 6fdb 87be

layers.output.bias f4 [2]
0.15966246 0.026499325
00000000: 8e7e 233e 1d15 d93c
