results/VANILLA/Vanilla0/vanilla20k/model.pth (torch, 205093 bytes, 10 tensors)

layers.block_0.layer.0.weight f4 [128, 2]
0.893165 0.25371504 -0.41521484 -0.4396903 -0.97139394 0.27406475 -0.14444523 -0.38965932
0.770609 0.26220402 -0.44782248 -0.41992077 0.45757473 -0.6932642 0.48560944 0.20994872
0.75729007 0.19837034 0.50054777 0.61315227 -0.87876654 -0.3708802 -0.12327991 -0.6401645
0.448376 -0.6317771 -0.39265242 0.41404006 -0.85180795 0.4700075 1.0856398 0.027980238
-0.8640523 0.5102761 -0.92713636 0.50859606 0.044268098 -0.09600927 -0.95549005 -0.34077924
-0.3747357 -0.64168656 -0.36151162 0.56468886 -0.8716681 -0.37384853 -1.0039144 -0.28186226
-0.76321846 0.06496988 0.32735848 -0.58366245 0.6622487 0.5403889 -0.88850343 -0.048130512
0.88892674 -0.3757533 0.97931284 -0.12023587 0.91499746 -0.62722796 -0.78353965 0.1614898
-0.7517814 -0.5592937 0.3849893 -0.5650526 -0.8002955 -0.36294916 -0.59085816 -0.13986221
-0.092613116 -0.24481452 -0.56523436 -0.6598488 -1.0355122 -0.17275931 1.0568454 0.078537986
0.9985274 -0.32307252 1.0803198 0.41276056 0.9533729 0.0009536788 -0.9910247 -0.60580206
0.18198863 0.16382883 0.5989787 0.48173305 -0.8805567 0.1813462 0.46239096 -0.15593071
0.815479 -0.47095641 -0.51768345 -0.40419587 0.83390045 -0.25067556 -0.46527705 -0.5644729
0.6982986 0.25277978 -0.8296826 0.18426266 0.9042375 0.43027228 0.7982415 0.5988396
1.0025753 -0.51898295 -0.5615309 0.5357423 -0.72085327 0.56001663 0.4201818 -0.11253362
0.44947156 -0.20968641 -0.43317217 -0.019388953 0.73658645 -0.43274444 -0.4156221 -0.5920985
1.1253182 0.18460743 -0.995588 0.4367806 -0.39532077 0.62713087 0.8494377 -0.68402416
-0.61111206 0.29362363 0.44435164 -0.12842354 -0.3100774 0.0769563 0.37739795 -0.15851356
-0.36715272 0.83652884 -0.58742356 -0.10582305 -0.9943215 0.42668122 -0.8841249 0.55404073
1.0867327 -0.19155642 -0.6922414 -0.23958339 0.5475013 0.3284453 0.01115376 0.2335276
0.68571746 0.25563434 -0.65558195 -0.12330555 -0.73612773 -0.5696103 -0.687034 -0.6445522
-0.6053262 -0.31291565 -0.93784064 -0.19175522 0.618518 -0.3906019 -0.8020834 0.49439514
-0.37223244 0.6600715 0.050752126 -0.7213084 0.8608235 0.0016159666 -0.85163254 -0.19773848
-0.714446 -0.5189526 -0.9900835 0.28674963 0.040456053 -0.5917558 -0.29692674 0.5296361
0.6954221 -0.27885148 -0.49724042 -0.6522211 0.3813422 -0.43217692 -1.1409979 -0.29057163
-0.3315661 -0.65335536 1.0415313 -0.32317713 0.6009799 -0.6825408 -1.0215163 -0.31356713
-0.5233172 0.19546974 0.81758714 -0.10337559 0.5341407 -0.21591662 -0.20425916 0.4792617
-0.2843736 0.11896249 0.982672 0.3198334 0.013812321 -0.5901731 0.07376023 -0.3765633
0.35165763 0.26997715 0.20836654 -0.67918724 0.9922796 -0.50505656 0.79355514 0.35356972
0.49506935 -0.36408043 -0.8566071 -0.25057623 0.5006569 -0.3751549 -0.6515704 -0.75330067
-0.673444 0.476293 0.492671 0.6371383 0.68007535 -0.4566595 -1.0685236 -0.48037502
0.46815857 0.42887497 0.7169339 -0.054057978 0.71285164 0.41564003 -0.5899698 0.1487083
00000000: 76a6 643f f0e6 813e 0a97 d4be 161f e1be
00000010: 46ad 78bf 3752 8c3e 73e9 13be 6d81 c7be
00000020: a246 453f 9b3f 863e fd48 e5be dbff d6be
00000030: 3c47 ea3e c379 31bf cda1 f83e ccfc 563e
00000040: c3dd 413f 9821 4b3e e623 003f 8cf7 1c3f
00000050: d8f6 60bf 02e4 bdbe 2d7a fcbd d2e1 23bf
00000060: 8a91 e53e 25bc 21bf bd09 c9be 0ffd d33e
00000070: 1610 5abf d3a4 f03e 3ff6 8a3f d036 e53c
00000080: 8832 5dbf 74a1 023f cf58 6dbf 5a33 023f
00000090: 7752 353d 82a0 c4bd ff9a 74bf 9e7a aebe
000000a0: 5cdd bfbe 9245 24bf 0d18 b9be 738f 103f
000000b0: a425 5fbf 1369 bfbe 4480 80bf 4050 90be
000000c0: 4962 43bf ee0e 853d 889b a73e e76a 15bf
000000d0: 2189 293f ed56 0a3f f674 63bf 8024 45bd
000000e0: b490 633f bd62 c0be 3fb4 7a3f 393e f6bd
000000f0: 463d 6a3f 0392 20bf 0e96 48bf 955d 253e
00000100: bf74 40bf df2d 0fbf 511d c53e 4aa7 10bf
00000110: 2ae0 4cbf 79d4 b9be 7b42 17bf 0a38 0fbe
00000120: f2ab bdbd a8b0 7abe 33b3 10bf daeb 28bf
00000130: aa8b 84bf d1e7 30be b646 873f 86d8 a03d
00000140: 7e9f 7f3f c369 a5be eb47 8a3f 5a55 d33e
00000150: 3f10 743f 4d00 7a3a cbb3 7dbf d815 1bbf
00000160: 3a5b 3a3e bfc2 273e ab56 193f b7a5 f63e
00000170: 2a6c 61bf d1b2 393e 82be ec3e 4dac 1fbe
00000180: 3bc3 503f 3321 f1be e786 04bf c3f2 cebe
00000190: 807a 553f 8c58 80be cb38 eebe 4c81 10bf
000001a0: b2c3 323f 5a6c 813e 1466 54bf 5aaf 3c3e
000001b0: 1c7c 673f a64c dc3e 8e59 4c3f 8d4d 193f
000001c0: 6354 803f 11dc 04bf 7dc0 0fbf 6826 093f
000001d0: d789 38bf 405d 0f3f 1222 d73e 0778 e6bd
000001e0: 2321 e63e 09b8 56be bec8 ddbe 95d5 9ebc
000001f0: ee90 3c3f ae90 ddbe 6bcc d4be c493 17bf
00000200: 6d0a 903f bb09 3d3e dbde 7ebf b5a1 df3e
00000210: 7c67 cabe a68b 203f c074 593f 351c 2fbf
00000220: d771 1cbf d655 963e 0f82 e33e 7681 03be
00000230: 77c2 9ebe 449b 9d3d 4e3a c13e 6151 22be
00000240: 71fb bbbe c126 563f 6461 16bf c1b9 d8bd
00000250: db8b 7ebf f675 da3e 0256 62bf 9dd5 0d3f
00000260: 0f1a 8b3f 5e27 44be bb36 31bf 5955 75be
00000270: 0c29 0c3f fb29 a83e 43be 363c dc21 6f3e
00000280: 2e8b 2f3f 81e2 823e 38d4 27bf 9f87 fcbd
00000290: de72 3cbf fbd1 11bf 76e1 2fbf 5f01 25bf
000002a0: a8f6 1abf 7b36 a0be 5316 70bf 7b5b 44be
000002b0: 3257 1e3f f9fc c7be 5655 4dbf 5c21 fd3e
000002c0: 4095 bebe 72fa 283f 76e1 4f3d aba7 38bf
000002d0: ee5e 5c3f d7ce d33a 9704 5abf f57b 4abe
000002e0: efe5 36bf 14da 04bf 1d76 7dbf d9d0 923e
000002f0: 3fb5 253d 4f7d 17bf c806 98be 3b96 073f
00000300: 2f07 323f 9fc5 8ebe 4c96 febe f6f7 26bf
00000310: 493f c33e 4b46 ddbe 380c 92bf cec5 94be
00000320: 08c3 a9be 4c42 27bf e650 853f 7977 a5be
00000330: d2d9 193f feba 2ebf 0cc1 82bf df8b a0be
00000340: 1ef8 05bf 3829 483e 644d 513f 95b6 d3bd
00000350: 72bd 083f 3f19 5dbe 5029 51be ca61 f53e
00000360: 6b99 91be 9ba2 f33d 6490 7b3f 34c1 a33e
00000370: 134d 623c 9615 17bf 9a0f 973d e8cc c0be
00000380: 780c b43e 723a 8a3e 0a5e 553e 37df 2dbf
00000390: 0906 7e3f 634b 01bf 6e26 4b3f 1707 b53e
000003a0: bb79 fd3e c068 babe 9a4a 5bbf 874b 80be
000003b0: 0d2b 003f 4e14 c0be 51cd 26bf 50d8 40bf
000003c0: d366 2cbf addc f33e 603f fc3e 7f1b 233f
000003d0: 6b19 2e3f 46cf e9be 62c5 88bf b7f3 f5be
000003e0: 7bb2 ef3e 8095 db3e fb88 373f e66b 5dbd
000003f0: 727d 363f c5ce d43e 4308 17bf fd46 183e

layers.block_0.layer.0.bias f4 [128]
-0.30904934 0.47464767 -0.4720813 -0.68901783 0.18453355 -0.5396408 0.51498747 0.06631822
-0.070548594 -0.47056165 0.58016646 0.3940438 0.5826543 0.43743736 -0.29923433 -0.31329364
-0.61966217 -0.47739887 0.60493577 0.22179015 0.6262436 0.45067692 0.38346413 0.3567893
0.6169819 -0.51803654 -0.26987246 -0.0846509 -0.020176165 0.12099246 0.5878005 0.09838851
0.65093756 0.38938147 0.42607874 -0.214856 -0.42655855 -0.5717893 0.053275827 0.08324213
0.3098514 -0.28205422 -0.10411082 0.62851727 0.4613907 0.51484996 -0.18117985 0.053657383
0.5677604 0.71863914 -0.2674121 0.29250136 -0.20255357 0.10503299 -0.62297475 -0.08888174
0.3055463 -0.43949622 -0.33549342 -0.26969004 0.033842567 -0.58860505 0.3012483 0.49309662
-0.12180387 -0.5693327 0.017643834 0.7285257 -0.10152994 -0.20098352 0.5810192 -0.3107422
0.6279668 -0.49224463 -0.4665619 -0.33012617 0.17952633 0.1366493 -0.16243489 -0.72482723
0.12902607 0.06173922 0.6664932 0.47048175 0.4154222 -0.26481238 0.6444227 -0.65225905
-0.14384736 -0.6533434 -0.30377427 -0.19172241 0.39086246 -0.37742934 -0.6828707 -0.68622965
0.15235606 0.19128983 -0.35384098 0.26186916 0.47671074 0.35765976 0.5530469 0.11865433
-0.43673515 0.30994377 -0.45718542 0.02610695 0.6756101 -0.23778269 -0.21822122 -0.30764997
0.35976934 -0.50440305 0.47283146 -0.47834858 0.34185827 0.49836117 -0.497554 0.6274412
-0.030711573 -0.3068731 0.3776241 0.44735667 -0.22746208 0.2765546 -0.644002 -0.41171908
00000000: b73b 9ebe 0505 f33e a4b4 f1be 7963 30bf
00000010: 5df6 3c3e e625 0abf 38d6 033f d9d1 873d
00000020: c87b 90bd 75ed f0be ca85 143f 1cc0 c93e
00000030: d528 153f caf7 df3e 3e35 99be 0668 a0be
00000040: 2ea2 1ebf a06d f4be 12dd 1a3f f51c 633e
00000050: 8051 203f 20bf e63e 6955 c43e 16ad b63e
00000060: 87f2 1d3f 0b9e 04bf b92c 8abe 735d adbd
00000070: 7c48 a5bc e5ca f73d 187a 163f ea7f c93d
00000080: d8a3 263f 025d c73e fe26 da3e 3603 5cbe
00000090: e265 dabe c960 12bf c137 5a3d da7a aa3d
000000a0: d8a4 9e3e 6969 90be 0e38 d5bd 82e6 203f
000000b0: 673b ec3e 35cd 033f 3687 39be d8c7 5b3d
000000c0: bf58 113f bcf8 373f 3dea 88be bdc2 953e
000000d0: 346a 4fbe 891b d73d 467b 1fbf a107 b6bd
000000e0: 9170 9c3e a605 e1be cbc5 abbe d014 8abe
000000f0: 819e 0a3d d2ae 16bf 383d 9a3e 2977 fc3e
00000100: 4f74 f9bd cabf 11bf cd89 903c a980 3a3f
00000110: eeee cfbd a0ce 4dbe adbd 143f 9a19 9fbe
00000120: 6fc2 203f 7d07 fcbe 34e1 eebe 4c06 a9be
00000130: c0d5 373e cbed 0b3e 5555 26be 478e 39bf
00000140: 691f 043e 44e2 7c3d 4c9f 2a3f fce2 f03e
00000150: 38b2 d43e 7d95 87be e3f8 243f 73fa 26bf
00000160: b94c 13be 8341 27bf 4d88 9bbe e152 44be
00000170: 201f c83e 6b3e c1be 9dd0 2ebf bfac 2fbf
00000180: 3a03 1c3e 7be1 433e a52a b5be b713 863e
00000190: 6e13 f43e 2e1f b73e 7b94 0d3f 0b01 f33d
000001a0: c09b dfbe f3b0 9e3e 3514 eabe 3ede d53c
000001b0: c9f4 2c3f 4e7d 73be 6275 5fbe 4c84 9dbe
000001c0: b033 b83e 8f20 01bf f716 f23e 1bea f4be
000001d0: 0c08 af3e 3229 ff3e 66bf febe fd9f 203f
000001e0: d696 fbbc 791e 9dbe f257 c13e ef0b e53e
000001f0: d2eb 68be 9198 8d3e 51dd 24bf d8cc d2be

layers.block_1.layer.0.weight f4 [128, 128]
-0.12082048 -0.06864296 0.101081826 0.013904506 -0.03000715 0.07650988 -0.00011315409 -0.07109403
-0.074515894 0.047245797 0.00015685447 0.033739556 -0.06185667 0.09936147 0.12973851 -0.11138862
0.10955495 -0.02986484 -0.004427952 0.07386693 -0.002168469 0.04986248 0.083953686 -0.013068466
-0.015272411 -0.027996229 -0.08359762 0.09667677 -0.05421085 -0.049942084 -0.08407322 0.08728434
0.00043101585 0.0559146 -0.020338526 0.014926703 -0.023214066 0.008571453 0.19204767 -0.09792527
-0.0034741582 -0.136807 -0.0026234884 -0.057857405 -0.024400804 0.0096427305 0.15910389 -0.15789941
-0.006951631 -0.08000743 -0.09546646 0.02889592 -0.039503966 0.075620465 -0.051239092 -0.13007896
-0.0066379546 -0.03581043 0.13613692 -0.0003298178 -0.027099041 -0.0022977842 -0.090239994 -0.07078911
-0.15463811 0.118397765 0.12023084 0.027964862 0.043726478 -0.08066217 -0.04784229 -0.06538294
-0.056713723 0.007810516 -0.027111454 0.07797331 -0.028398776 0.008409082 -0.044532385 0.014805156
-0.12132576 0.016522638 0.0032150652 0.092531025 -0.032622907 0.072098576 0.04261912 0.0017984771
0.13323607 0.08024246 0.02281139 -0.025313519 0.028015884 0.04245841 0.0017734595 -0.039877914
-0.03440218 -0.01975981 -0.07657506 0.1066692 0.01811274 -0.034363646 -0.11182952 0.1186805
0.012262798 -0.019045431 0.0056438935 0.08544496 -0.06971061 -0.12464943 -0.09264835 0.009358381
0.0378711 -0.095175765 -0.06791312 -0.056707915 0.0108726695 -0.027421396 -0.021927968 -0.06034004
0.03887805 0.018536745 -0.08914378 0.08171938 -0.0774668 -0.020880362 -0.004008563 0.01636173
0.022777714 -0.09035381 -0.17522043 -0.016237956 0.014823793 0.018504197 0.056086842 0.015302614
0.06036518 0.10852991 0.016363034 -0.013642332 0.118780546 0.0042470223 -0.1445213 0.091288105
0.00036941314 -0.06524351 0.052048847 -0.18889001 -0.056132197 -0.063037865 -0.12795813 -0.10818964
-0.057088755 0.058298465 0.07748601 -0.10006756 0.12691039 0.175108 0.097646736 -0.09940239
-0.00204809 0.1505012 -0.14517945 -0.02285191 0.06064443 0.006359518 -0.08109768 0.14126195
0.13130605 0.12661949 0.11970612 -0.15896344 0.008124189 0.08796463 -0.18884473 0.18817285
0.0071975063 -0.05659554 0.15408178 -0.0372738 0.08583088 -0.17587328 0.15265755 0.12499116
0.2287622 -0.14977223 -0.07256352 -0.0036603329 0.13640791 -0.069453195 0.2623496 -0.062471345
0.38770637 -0.030187422 -0.022636611 0.15449342 -0.15229502 0.08548075 0.0040165368 0.056242943
0.042167034 -0.093097 -0.07140549 -0.15266772 0.25419077 -0.24367337 0.06177171 -0.039011274
0.08615136 -0.29139206 -0.05086359 -0.06784496 0.03071193 -0.057027206 0.085337065 0.0031015887
-0.0396592 0.05543254 0.131685 -0.04309128 -0.057593923 -0.11206423 0.055623922 -0.011160962
0.24476562 -0.07732077 0.064640604 -0.06597505 -0.07161007 0.077460706 0.16706638 -0.2188693
-0.0035631515 0.16481566 -0.017763902 -0.13232851 -0.026542367 0.12913084 -0.05771409 0.09373976
0.061307117 -0.07438968 0.16060847 0.05290702 0.14651765 -0.065104276 0.09218774 -0.116464145
-0.05162592 0.053280536 0.18714045 -0.19492061 0.07571289 0.14545512 -0.024951657 -0.010778486
00000000: ba70 f7bd ae94 8cbd fd03 cf3d bacf 633c
00000010: 8ed1 f5bc 36b1 9c3d 244d edb8 bf99 91bd
00000020: ca9b 98bd cf84 413d 4d79 2439 7d32 0a3d
00000030: 6b5d 7dbd 077e cb3d 2cda 043e b81f e4bd
00000040: 585e e03d 1ca7 f4bc 5b18 91bb 8c47 973d
00000050: df1c 0ebb 9a3c 4c3d e9ef ab3d 1f1d 56bc
00000060: 2239 7abc 5958 e5bc 3b35 abbd 78fe c53d
00000070: 320c 5ebd 1290 4cbd 952e acbd 22c2 b23d
00000080: f8f9 e139 b506 653d fb9c a6bc 218f 743c
00000090: 6d2b bebc 486f 0c3c 25a8 443e 0b8d c8bd
000000a0: b4ae 63bb 2217 0cbe d5ee 2bbb e3fb 6cbd
000000b0: 32e4 c7bc 8bfc 1d3c 21ec 223e 62b0 21be
000000c0: 82ca e3bb efda a3bd eb83 c3bd 23b7 ec3c
000000d0: e9ce 21bd e7de 9a3d 15e0 51bd 6b33 05be
000000e0: 3383 d9bb f5ad 12bd 7a67 0b3e 65eb acb9
000000f0: cffe ddbc 6c96 16bb bfcf b8bd e2f9 90bd
00000100: 7459 1ebe 877a f23d 963b f63d 9116 e53c
00000110: 891a 333d 3532 a5bd 47f6 43bd 7ee7 85bd
00000120: a64c 68bd 5bef ff3b d718 debc 79b0 9f3d
00000130: 8da4 e8bc 3fc6 093c 9767 36bd 5391 723c
00000140: a479 f8bd 7c5a 873c d8b3 523b e880 bd3d
00000150: 999f 05bd 6ba8 933d 6391 2e3d e1ba eb3a
00000160: 096f 083e 2956 a43d f4de ba3c 4c5e cfbc
00000170: 9181 e53c dfe8 2d3d 6d73 e83a 0657 23bd
00000180: 4de9 0cbd 53df a1bc 63d3 9cbd 6275 da3d
00000190: 2b61 943c e5c0 0cbd e006 e5bd c30e f33d
000001a0: e7e9 483c 2a05 9cbc 69f0 b83b c4fd ae3d
000001b0: 70c4 8ebd 3348 ffbd 6bbe bdbd e553 193c
000001c0: ba1e 1b3d 83eb c2bd 0916 8bbd 8f46 68bd
000001d0: 4823 323c d6a2 e0bc 48a2 b3bc 1e27 77bd
000001e0: 973e 1f3d 5fda 973c 0491 b6bd 7e5c a73d
000001f0: eaa6 9ebd 4b0d abbc 435a 83bb 0909 863c
00000200: 5498 ba3c 6b0b b9bd fc6c 33be 7605 85bc
00000210: 7fdf 723c 1d96 973c 51bb 653d d1b7 7a3c
00000220: 7b41 773d ee44 de3d c50b 863c 1684 5fbc
00000230: 3743 f33d 9b2a 8b3b 64fd 13be 42f5 ba3d
00000240: cbad c139 649e 85bd 2c31 553d 626c 41be
00000250: e0ea 65bd ff19 81bd 7507 03be 8892 ddbd
00000260: e6d5 69bd 5fca 6e3d fcb0 9e3d 39f0 ccbd
00000270: ccf4 013e 834f 333e 03fb c73d 7b93 cbbd
00000280: 4039 06bb fd1c 1a3e eca9 14be ee33 bbbc
00000290: 4b66 783d 8163 d03b 8a16 a6bd f9a6 103e
000002a0: 1875 063e 8aa8 013e 7b28 f53d 50c7 22be
000002b0: 521b 053c cd26 b43d 8360 41be 62b0 403e
000002c0: 0fd9 eb3b bad0 67bd 9dc7 1d3e 69ac 18bd
000002d0: 1ac8 af3d 2018 34be 4352 1c3e 5efb ff3d
000002e0: a340 6a3e e45d 19be 2f9c 94bd 32e2 6fbb
000002f0: 84ae 0b3e 7a3d 8ebd b052 863e f4e1 7fbd
00000300: 7381 c63e 9d4b f7bc 6a70 b9bc 8633 1e3e
00000310: 3af3 1bbe 8810 af3d 279d 833b 005f 663d
00000320: 57b7 2c3d a4a9 bebd 0b3d 92bd ed54 1cbe
00000330: 4b25 823e 8385 79be 5504 7d3d 49ca 1fbd
00000340: 2070 b03d 5731 95be 5756 50bd 4cf2 8abd
00000350: 9697 fb3c 5c95 69bd 33c5 ae3d 0644 4b3b
00000360: af71 22bd 3b0d 633d 6fd8 063e 7b80 30bd
00000370: 9be7 6bbd ee81 e5bd e9d5 633d 78dc 36bc
00000380: d7a3 7a3e 5a5a 9ebd 4b62 843d ed1d 87bd
00000390: 4da8 92bd b8a3 9e3d 7313 2b3e 461f 60be
000003a0: c383 69bb 70c5 283e 9a85 91bc 2081 07be
000003b0: 616f d9bc e03a 043e 9c65 6cbd a2fa bf3d
000003c0: 2c1d 7b3d 9e59 98bd 8c76 243e 08b5 583d
000003d0: b908 163e 6455 85bd edcc bc3d c184 eebd
000003e0: b375 53bd b13c 5a3d bfa1 3f3e 4599 47be
000003f0: 5c0f 9b3d 30f2 143e 6b67 ccbc 3f98 30bc

layers.block_1.layer.0.bias f4 [128]
0.029854218 0.041840926 -0.012454021 0.07734454 0.082513146 0.025964804 0.055554204 -0.06866432
0.005502257 0.041781384 0.013399234 -0.031707313 -0.016378837 -0.08786654 0.06480544 -0.07174664
-0.05511718 0.06283295 0.047798205 -0.0537565 -0.021658357 0.012101832 -0.09158487 -0.051479213
-0.01343393 0.056080274 -0.08976997 0.008634834 0.041846644 0.07400302 0.061268307 0.0017986365
0.1313864 -0.054172747 -0.0063862326 0.009532888 -0.05800866 -0.07887398 0.0041158963 -0.08905773
-0.07459335 0.025999004 -0.099438876 -0.05132283 0.066333316 -0.04895115 0.1076138 0.052864198
0.07987627 0.09046948 0.03469521 0.084555626 0.0122095365 0.017825538 -0.009054561 -0.0164957
-0.061456807 0.0250956 -0.11804764 0.041576836 -0.018811641 0.061113186 0.12201585 0.09301424
0.014709508 0.05513034 -0.009451378 0.061577514 0.0067633903 0.044766244 -0.061802503 -0.028737668
-0.0046735993 -0.06962803 -0.076351725 -0.0027003526 0.07226612 -0.0016855479 0.077520356 0.07355817
0.019407125 0.08124325 0.09914272 0.025416594 -0.039797932 -0.09875234 0.06964305 0.016708056
-0.058526404 -0.11454705 0.07277327 -0.0015026204 0.006057448 -0.13495705 0.06001544 -0.031900227
0.0035350372 0.045244318 -0.04053842 0.0114246085 0.026563954 -0.14688112 -0.06074631 -0.07200802
0.1131218 0.080723196 0.050666794 0.027491022 0.0776175 -0.02497671 0.039696045 -0.026132176
0.052713223 0.03993386 -0.013500905 0.07191796 0.041011095 0.02834895 -0.05369121 -0.08040806
-0.07710865 -0.014601533 0.065736406 -0.060713015 -0.024340002 0.039861213 0.05610598 -0.07654717
00000000: d590 f43c 6461 2b3d f30b 4cbc d066 9e3d
00000010: a7fc a83d 24b4 d43c ce8c 633d e19f 8cbd
00000020: 474c b43b f522 2b3d 7688 5b3c 87df 01bd
00000030: e92c 86bc 5ff3 b3bd b7b8 843d e7ef 92bd
00000040: 8dc2 61bd 90ae 803d 0dc8 433d c72f 5cbd
00000050: de6c b1bc c346 463c d990 bbbd dedb 52bd
00000060: fd19 5cbc 6eb4 653d 51d9 b7bd 1e79 0d3c
00000070: 6367 2b3d e58e 973d 7af4 7a3d 3ac0 eb3a
00000080: 288a 063e 3ee4 5dbd 9a43 d1bb d52f 1c3c
00000090: 7d9a 6dbd ae88 a1bd a4de 863b e663 b6bd
000000a0: 66c4 98bd ddfb d43c 9ca6 cbbd e337 52bd
000000b0: c3d9 873d 0081 48bd a064 dc3d 2188 583d
000000c0: 2b96 a33d 1048 b93d 911c 0e3d 802b ad3d
000000d0: 820a 483c dd06 923c 9559 14bc fe21 87bc
000000e0: 22ba 7bbd 4a95 cd3c f6c2 f1bd 794c 2a3d
000000f0: df1a 9abc d251 7a3d 72e3 f93d 407e be3d
00000100: 2600 713c 5ad0 613d f4d9 1abc b438 7c3d
00000110: 6e9f dd3b cf5c 373d 9f24 7dbd 426b ebbc
00000120: fe24 99bb 2499 8ebd 4b5e 9cbd 66f8 30bb
00000130: 4200 943d 9aed dcba fec2 9e3d aaa5 963d
00000140: b1fb 9e3c dc62 a63d 570b cb3d 7636 d03c
00000150: 2803 23bd ab3e cabd 04a1 8e3d 55df 883c
00000160: 62b9 6fbd a597 eabd 270a 953d 93f3 c4ba
00000170: 8f7d c63b 2e32 0abe c0d2 753d d0a9 02bd
00000180: 15ac 673b 1b52 393d 9d0b 26bd 482e 3b3c
00000190: a69c d93c 0168 16be 1fd1 78bd f178 93bd
000001a0: 67ac e73d 3452 a53d fc87 4f3d da34 e13c
000001b0: edf5 9e3d f59b ccbc 5298 223d 2513 d6bc
000001c0: d2e9 573d b091 233d e632 5dbc b949 933d
000001d0: 40fb 273d 0f3c e83c 50eb 5bbd fbac a4bd
000001e0: 24eb 9dbd 453b 6fbc cfa0 863d 36ae 78bd
000001f0: af64 c7bc 8345 233d 62cf 653d c3c4 9cbd

layers.block_2.layer.0.weight f4 [128, 128]
-0.1582851 0.18326975 0.05685671 0.02023147 0.022539914 -0.0063932347 0.030615741 0.0024906083
0.0020581624 -0.105894506 -0.013665376 0.08324877 0.047081966 0.06381539 -0.057640824 0.09555313
0.026087351 0.04302117 -0.036843143 -0.019522006 0.1378186 -0.091514036 -0.18087979 0.11346257
0.07423931 0.106687285 0.014038732 -0.12842545 -0.02431032 -0.03184458 -0.078398004 0.005385692
-0.13451484 -0.12606952 0.004913962 -0.09517285 0.001982068 0.19102998 -0.105848305 -0.10815447
-0.0222553 0.041098595 0.113326535 -0.1144977 0.04696093 0.05085746 -0.050883368 -0.048897684
-0.049396005 0.0065732216 -0.19260876 0.19179986 0.06154651 -0.078143336 -0.14109996 -0.03494981
-0.081452414 -0.06086522 -0.16686463 0.19880477 0.05693834 -0.17624149 -0.027616536 0.015617074
-0.05194634 0.10234982 -0.12209807 -0.075424336 -0.0048106853 0.064951845 -0.020521171 -0.074084274
-0.13588089 0.12962762 -0.0012516595 0.09564646 -0.049149994 0.17366712 0.03015737 -0.007758333
0.014440872 -0.012226556 0.07867031 0.047668416 -0.03501111 0.00472332 -0.11269035 -0.07175965
0.06886805 0.030076535 0.09520464 0.006228428 -0.049285438 -0.1492217 0.02465771 0.067939505
-0.07649838 -0.17340074 0.117369585 -0.21907468 0.0129936915 0.06935952 -0.16913773 -0.0016289381
-0.161747 -0.14948326 -0.06298664 -0.027282426 -0.060993746 -0.08002387 -0.22866383 -0.113665804
0.0611444 0.076547176 0.12253511 0.1569256 -0.115611665 -0.024325907 -0.09715616 0.053021457
-0.14485042 0.059862096 -0.033631854 -0.09339108 0.082858145 0.00535304 -0.053321987 -0.20447332
0.09183003 -0.08560001 -0.00022159038 -0.16990237 0.06705356 -0.11001838 0.06042214 0.012750196
-0.10133794 0.060882088 0.019765295 -0.029425953 0.034464397 -0.04178831 0.13566627 -0.08026877
0.01362721 -0.023267293 0.1630257 0.117979415 0.01844368 0.09144739 0.16951945 -0.05261188
-0.12529564 -0.10059841 -0.027281 0.102976225 0.13841769 0.10284962 0.0899434 -0.20816849
0.17592268 -0.009390858 -0.20748979 0.00790339 0.038491376 -0.0781786 0.0967926 -0.0016232295
0.0027957144 -0.22239225 -0.18042232 0.099460654 -0.13160597 -0.08130672 0.1763171 0.10660682
0.07677607 0.12185176 0.040347945 -0.11922082 0.0003799699 0.087343425 0.08347649 0.2301956
0.08512662 0.05102854 0.14136675 -0.16464958 -0.081375964 0.021271331 0.03542785 0.122597985
0.065288074 -0.040773887 -0.023620026 0.09748577 0.19127832 0.070554614 0.14032406 0.06864259
0.18156609 -0.16073677 -0.113665335 -0.046467982 0.22082716 -0.102342635 -0.07177827 -0.121407375
-0.042901166 0.10709452 -0.019259633 -0.16889836 0.16067818 -0.018413829 0.05971969 0.05261745
-0.016336387 0.029680997 0.06591131 0.0066605574 0.1518404 0.09678174 -0.02655143 -0.14380814
-0.03658775 0.16170584 -0.14035757 0.10813104 0.11446244 -0.025360318 0.12127333 0.14819725
0.13863774 0.10063539 -0.11340839 0.21408592 -0.07049695 0.020301836 0.10889757 0.10164274
-0.11858652 -0.05863772 -0.17121358 -0.14354941 0.073249474 0.052123193 0.120492734 0.002031852
0.1378154 -0.107184224 -0.16359219 0.001912369 -0.02597996 -0.036603276 0.17610846 0.19919378
00000000: 7d15 22be 11ab 3b3e 95e2 683d 78bc a53c
00000010: a0a5 b83c 577e d1bb ddcd fa3c 7939 233b
00000020: 3ce2 063b 38df d8bd bee4 5fbc 557e aa3d
00000030: 05d9 403d a5b1 823d c918 6cbd 5cb1 c33d
00000040: 24b5 d53c f736 303d d6e8 16bd 9dec 9fbc
00000050: 5220 0d3e b66b bbbd 8d38 39be 105f e83d
00000060: c80a 983d dd7e da3d b602 663c f681 03be
00000070: 7026 c7bc 766f 02bd 228f a0bd 767a b03b
00000080: 42be 09be 5e18 01be 4d05 a13b fce9 c2bd
00000090: 95e5 013b 5d9d 433e ffc6 d8bd 1780 ddbd
000000a0: bf50 b6bc 0057 283d be17 e83d c57d eabd
000000b0: 1b5a 403d e94f 503d 146b 50bd f048 48bd
000000c0: 7753 4abd 2e64 d73b 3b3b 45be 2f67 443e
000000d0: 3118 7c3d 9d09 a0bd 827c 10be 8827 0fbd
000000e0: 86d0 a6bd cf4d 79bd 90de 2abe 7a93 4b3e
000000f0: 2d38 693d a678 34be 133c e2bc c2de 7f3c
00000100: afc5 54bd c89c d13d 8e0e fabd 1378 9abd
00000110: f4a2 9dbb 7905 853d 041c a8bc 7fb9 97bd
00000120: 5c24 0bbe 1abd 043e b90e a4ba 4be2 c33d
00000130: 8151 49bd cbd5 313e 970c f73c 9d39 febb
00000140: 6899 6c3c e551 48bc e61d a13d f53f 433d
00000150: cf67 0fbd 14c6 9a3b 33ca e6bd b9f6 92bd
00000160: b10a 8d3d 1163 f63c a6fa c23d d717 cc3b
00000170: 87df 49bd 93cd 18be f7fe c93c de23 8b3d
00000180: 2fab 9cbd f78f 31be 775f f03d 1d55 60be
00000190: 7ee3 543c 5d0c 8e3d 7132 2dbe 1882 d5ba
000001a0: 01a1 25be 2412 19be 24ff 80bd 657f dfbc
000001b0: 94d4 79bd 8ee3 a3bd da26 6abe 9ec9 e8bd
000001c0: 8d72 7a3d c4c4 9c3d b0f3 fa3d 1bb1 203e
000001d0: cfc5 ecbd 2047 c7bc cff9 c6bd 072d 593d
000001e0: ab53 14be f531 753d 8ec1 09bd d343 bfbd
000001f0: 88b1 a93d 8e68 af3b 2868 5abd 7461 51be
00000200: 6211 bc3d 0f4f afbd b75a 68b9 e3fa 2dbe
00000210: 6053 893d 5151 e1bd 357d 773d 33e6 503c
00000220: 448a cfbd 7f5f 793d d4ea a13c b20e f1bc
00000230: 8a2a 0d3d 382a 2bbd 19ec 0a3e f463 a4bd
00000240: a944 5f3c 0d9b bebc 36f0 263e 319f f13d
00000250: 3317 973c c548 bb3d 8296 2d3e 8e7f 57bd
00000260: 804d 00be 8a06 cebd 677c dfbc 33e5 d23d
00000270: 5ebd 0d3e d2a2 d23d 3f34 b83d 1f2a 55be
00000280: 1325 343e 1ddc 19bc 3478 54be 387d 013c
00000290: 22a9 1d3d 1a1c a0bd 333b c63d 8bc2 d4ba
000002a0: 4e38 373b cbba 63be a1c0 38be 07b2 cb3d
000002b0: b7c3 06be 2384 a6bd 788c 343e ad54 da3d
000002c0: c63c 9d3d 6a8d f93d e343 253d 0c2a f4bd
000002d0: b236 c739 1ce1 b23d b9f5 aa3d 65b8 6b3e
000002e0: de56 ae3d 4d03 513d 72c2 103e e699 28be
000002f0: 71a8 a6bd 3741 ae3c cb1c 113d a714 fb3d
00000300: c1b5 853d 8502 27bd c97e c1bc 9fa6 c73d
00000310: 77de 433e f07e 903d 1cb1 0f3e 7c94 8c3d
00000320: 76ec 393e 2e98 24be 5fc9 e8bd 3655 3ebd
00000330: 8420 623e 0499 d1bd 7c00 93bd 6ea4 f8bd
00000340: 22b9 2fbd 5f54 db3d 61c6 9dbc b1f3 2cbe
00000350: d288 243e 99d8 96bc a29c 743d 6585 573d
00000360: e3d3 85bc 9025 f33c 82fc 863d ce40 da3b
00000370: 0d7c 1b3e 8135 c63d 6282 d9bc 7142 13be
00000380: 09dd 15bd 3796 253e e5b9 0fbe cf73 dd3d
00000390: 496b ea3d 71c0 cfbc 275e f83d 05c1 173e
000003a0: 0df7 0d3e ed19 ce3d a842 e8bd 5739 5b3e
000003b0: b460 90bd 0950 a63c b005 df3d 122a d03d
000003c0: 7ddd f2bd 1b2e 70bd 9d52 2fbe 9efe 12be
000003d0: d203 963d 217f 553d e5c4 f63d d228 053b
000003e0: 7b1f 0d3e 6783 dbbd b684 27be 75a8 fa3a
000003f0: edd3 d4bc 51ed 15bd c755 343e 74f9 4b3e

layers.block_2.layer.0.bias f4 [128]
0.020906603 -0.021789378 -0.013066723 0.08452711 -0.09436455 0.008496695 0.026371956 -0.09913848
-0.06598668 -0.02589732 0.044574775 -0.011206215 -0.066970065 -0.0022842817 0.030130161 0.115691036
-0.07827758 0.05291214 -0.08947902 0.09458236 -0.05652032 -0.013039078 0.008260991 -0.049459852
-0.054472778 -0.08188047 -0.0644087 0.07543069 -0.08680722 -0.03651619 -0.07677143 -0.022344775
-0.100784115 0.050373066 0.056304406 -0.10862923 0.012061046 -0.0262104 0.061316967 -0.08196324
-0.014752333 -0.0052571786 -0.10082508 -0.052795254 -0.090024516 0.036882933 -0.014423277 0.10235356
-0.024551371 0.0069269505 0.100264296 -0.09528507 0.03479098 -0.062908486 -0.03586847 0.010901921
0.07816495 0.0758376 -0.04720928 -0.021159656 -0.05659208 0.021831466 -0.0668928 0.04714983
-0.017541125 0.025043257 -0.06775353 0.00672943 0.076018795 0.061367754 0.04631085 0.06989194
0.0155512905 -0.0628926 0.08342177 0.055749673 -0.08534269 -0.0025224932 0.0835036 -0.09009228
-0.07251524 0.03345095 0.08802607 -0.08193026 0.09169233 0.10975233 -0.041688662 0.06192395
-0.04537371 0.08217867 0.120576546 0.015534995 0.003259174 0.047970206 0.0018773085 -0.0021134643
-0.046843838 0.015634568 0.01694017 -0.040556077 0.02004199 0.08740572 -0.04610795 0.056593616
-0.06052308 -0.0362339 -0.0049258703 0.022604281 -0.07104093 0.0032041988 0.030531254 -0.05867
0.0060256366 0.05829819 -0.048925765 -0.028374767 0.02511465 0.08661024 -0.031148585 -0.036042266
-0.036066797 -0.019424476 0.08093074 -0.009457674 0.046017375 -0.036043625 -0.08441387 0.017647263
00000000: 5344 ab3c a37f b2bc cf15 56bc 8d1c ad3d
00000010: 3442 c1bd b935 0b3c 000a d83c 1e09 cbbd
00000020: 0624 87bd 9e26 d4bc 0a94 363d 469a 37bc
00000030: 9a27 89bd e3b3 15bb 87d3 f63c 6cef ec3d
00000040: ff4f a0bd 66ba 583d c740 b7bd 65b4 c13d
00000050: da81 67bd dba1 55bc 1c59 073c 6a96 4abd
00000060: d91e 5fbd f3b0 a7bd b5e8 83bd 687b 9a3d
00000070: fcc7 b1bd 0092 15bd 573a 9dbd 640c b7bc
00000080: e767 cebd fd53 4e3d 739f 663d 0079 debd
00000090: b29b 453c 31b7 d6bc 8027 7b3d 58dc a7bd
000000a0: c5b3 71bc 6944 acbb 617d cebd d63f 58bd
000000b0: c65e b8bd 8f12 173d 9c4f 6cbc be9e d13d
000000c0: f51f c9bc 79fb e23b 5e57 cd3d d224 c3bd
000000d0: fd80 0e3d 2ad6 80bd d1ea 12bd f99d 323c
000000e0: f214 a03d be50 9b3d 855e 41bd 0457 adbc
000000f0: 19cd 67bd e7d7 b23c 18ff 88bd 2e20 413d
00000100: 68b2 8fbc 8427 cd3c 5dc2 8abd 8d82 dc3b
00000110: beaf 9b3d c15c 7b3d 72b0 3d3d 8123 8f3d
00000120: d7ca 7e3c d6cd 80bd 08d9 aa3d c559 643d
00000130: 26c8 aebd 6a50 25bb ef03 ab3d 4d82 b8bd
00000140: df82 94bd dd03 093d 0347 b43d 0dcb a7bd
00000150: 30c9 bb3d d4c5 e03d bbc1 2abd f8a3 7d3d
00000160: c9d9 39bd 4a4d a83d d6f0 f63d 7e86 7e3c
00000170: de97 553b 687c 443d 0510 f63a 0c82 0abb
00000180: 53df 3fbd 1114 803c 1dc6 8a3c 211e 26bd
00000190: 192f a43c c501 b33d b1db 3cbd b5ce 673d
000001a0: 0de7 77bd ff69 14bd 3269 a1bb 9d2c b93c
000001b0: e87d 91bd 89fd 513b ae1c fa3c f44f 70bd
000001c0: b472 c53b 15ca 6e3d 6266 48bd 3372 e8bc
000001d0: 3dbd cd3c b660 b13d 512b ffbc 0ea1 13bd
000001e0: c7ba 13bd 1420 9fbc 04bf a53d 5cf4 1abc
000001f0: b77c 3c3d 7ba2 13bd 2ee1 acbd fe90 903c

layers.block_3.layer.0.weight f4 [128, 128]
0.09218826 -0.16265619 0.01646271 -0.021062993 -0.04333902 -0.07480127 -0.0048559415 0.080934405
-0.030134998 0.1419366 0.06589999 0.05827203 0.0089428015 -0.1413865 0.12855889 0.0095427325
0.0020335522 0.15700334 -0.07170166 0.031934485 0.025822558 -0.09173301 -0.02808197 -0.039267108
0.06840387 0.12260481 -0.046853557 -0.12231819 0.08353558 -0.16046192 -0.021950562 0.01121481
0.10686043 0.037986044 0.15083916 0.16002001 0.015098025 -0.08100985 0.015723972 -0.027738638
0.074470796 -0.035942987 0.089425325 -0.11993301 0.0022692166 -0.004270618 0.050573036 -0.0014201249
0.13839997 -0.03945172 -0.016600009 0.068540186 -0.02361962 0.061582718 -0.10178528 -0.18490773
-0.051344972 -0.06399964 0.035402622 -0.032542683 -0.01863442 0.115245886 -0.16122046 0.09833025
0.08282453 -0.047857463 0.15937372 0.12019404 -0.05096672 -0.00451234 0.024124587 -0.06059351
-0.06747237 0.14160427 -0.034308307 -0.02232221 0.06570651 -0.113718465 -0.008246619 -0.0036876588
0.0062827966 0.0048817014 -0.119283564 0.03509136 -0.06134663 -0.09936869 0.052305833 0.034754064
-0.046195332 -0.027412927 -0.10732358 0.014384451 0.068152 0.02749572 0.14938176 0.09865101
0.012403327 0.12576671 0.033244114 -0.09144057 -0.21634477 -0.00756887 -0.16567914 -0.032466933
0.10480568 0.095202744 -0.03669622 -0.08382312 0.066023596 -0.06329223 -0.114158265 0.004448423
0.10385159 0.026171086 -0.022085328 0.069596194 0.11320689 -0.1254935 -0.071757704 0.004119319
-0.06912146 0.044927593 -0.09663138 0.04775863 -0.1500377 0.033401046 0.09232667 -0.06425013
-0.06803487 0.15078166 0.053561855 -0.14074422 0.0200583 0.09936695 0.011466738 -0.027616456
0.11318272 -0.05939722 0.026322711 -0.06655398 0.07994535 0.0026654985 0.03445813 -0.038459457
0.03716361 0.045751575 0.10302117 0.012922957 0.010962975 -0.07259755 0.017486762 -0.004124897
0.0494346 0.016889751 -0.1041133 0.07515586 -0.065696664 -0.08292661 0.008677498 0.0944033
-0.012475858 0.096523374 -0.09558876 -0.06116197 0.037556224 0.051120624 0.044270594 -0.07955581
-0.052890062 0.015414045 0.036284957 0.007494462 -0.08586522 0.009001736 -0.07589104 -0.010016505
-0.049508054 -0.08963822 -0.012962371 -0.06252934 0.037792023 -0.01703443 -0.0068822387 0.05300489
0.073890306 0.08199509 0.06348647 -0.08268791 -0.08495033 -0.06081913 0.054725006 0.13058463
0.016557546 -0.059834484 -0.101715386 0.045481633 -0.050140455 -0.07001815 -0.011228193 0.044129044
0.07438896 -0.06788382 0.0062867254 -0.059056982 -0.08013011 -0.019762453 -0.021452183 0.06252643
0.029994924 0.11242523 -0.042601325 0.010758594 0.07650264 -0.0103779575 0.032152846 -0.071418375
0.06795246 0.097834095 0.006781073 0.052006334 0.048300397 0.04183939 -0.029860342 -0.08268696
-0.012116655 -0.0010841053 0.043606576 -0.034403015 -0.037279848 0.076330245 0.035320852 0.0018336556
-0.008843117 0.008171985 -0.03128283 0.1178394 0.0023733391 -0.020763105 0.13685973 0.048665557
0.069187656 0.009866742 -0.019119646 -0.030853368 0.0021318696 -0.029595604 0.035071194 0.001437941
0.11463855 0.12574655 -0.010342631 0.039040353 0.07732266 0.0017631483 -0.048143078 0.083550505
00000000: 33cd bc3d 588f 26be cedc 863c 4c8c acbc
00000010: 4284 31bd 6931 99bd 971e 9fbb f0c0 a53d
00000020: acdd f6bc d457 113e 93f6 863d a7ae 6e3d
00000030: d484 123c 9fc7 10be f1a4 033e 1f59 1c3c
00000040: 5845 053b 7cc5 203e 52d8 92bd bccd 023d
00000050: d489 d33c 84de bbbd 290c e6bc 8cd6 20bd
00000060: 5417 8c3d 3b18 fb3d 84e9 3fbd f681 fabd
00000070: b414 ab3d 2150 24be aad1 b3bc 53be 373c
00000080: a4d9 da3d 4197 1b3d 9575 1a3e 49dc 233e
00000090: b55d 773c 7ee8 a5bd 8fcf 803c 243c e3bc
000000a0: 2584 983d f438 13bd a024 b73d 709f f5bd
000000b0: 23b7 143b 8af0 8bbb ac25 4f3d 7c23 baba
000000c0: b9b8 0d3e 2098 21bd befc 87bc cc5e 8c3d
000000d0: ef7d c1bc 293e 7c3d cd74 d0bd 7458 3dbe
000000e0: 1b4f 52bd 3e12 83bd 5702 113d 7a4b 05bd
000000f0: 36a7 98bc 0906 ec3d fa16 25be 5f61 c93d
00000100: e89f a93d 3006 44bd dd32 233e 4b28 f63d
00000110: 7bc2 50bd 40dc 93bb eda0 c53c e630 78bd
00000120: f42e 8abd b600 113e de86 0cbd 11dd b6bc
00000130: 2291 863d 3ae5 e8bd d41c 07bc a6ac 71bb
00000140: ebdf cd3b aef6 9f3b f14a f4bd f5bb 0f3d
00000150: 9b46 7bbd d081 cbbd a43e 563d 475a 0e3d
00000160: 5137 3dbd 1391 e0bc 77cc dbbd c3ac 6b3c
00000170: 4793 8b3d b43e e13c 88f7 183e 8a09 ca3d
00000180: 5337 4b3c fdc8 003e fb2a 083d 3245 bbbd
00000190: 7c89 5dbe 4904 f8bb cba7 29be 0cfc 04bd
000001a0: 5ca4 d63d a8f9 c23d c74e 16bd 75ab abbd
000001b0: 6137 873d 5b9f 81bd cfcb e9bd 14c4 913b
000001c0: 24b0 d43d bf64 d63c 4aec b4bc 7388 8e3d
000001d0: 04d9 e73d 5e81 00be b4f5 92bd 5afb 863b
000001e0: 8d8f 8dbd ff05 383d ace6 c5bd 8e9e 433d
000001f0: 7ca3 19be 89cf 083d c415 bd3d 9295 83bd
00000200: de55 8bbd 8266 1a3e ad63 5b3d 411f 10be
00000210: 4e51 a43c e680 cb3d fcde 3b3c e83b e2bc
00000220: 58cc e73d 804a 73bd baa2 d73c 744d 88bd
00000230: 63ba a33d a5af 2e3b f823 0d3d aa87 1dbd
00000240: df38 183d 0166 3b3d c3fc d23d cfba 533c
00000250: 0d9e 333c 06ae 94bd 6640 8f3c 252a 87bb
00000260: ef7b 4a3d 605c 8a3c 5b39 d5bd 51eb 993d
00000270: f98b 86bd 6dd5 a9bd 112c 0e3c 8456 c13d
00000280: 8b67 4cbc 0cae c53d 0ac4 c3bd f984 7abd
00000290: 8ed4 193d dc63 513d 1555 353d 28ee a2bd
000002a0: 40a3 58bd 318b 7c3c 899f 143d 1b94 f53b
000002b0: 1bda afbd 047c 133c c36c 9bbd 441c 24bc
000002c0: f5c8 4abd 3e94 b7bd 2060 54bc 620f 80bd
000002d0: cfcb 1a3d ca8b 8bbc 6784 e1bb a81b 593d
000002e0: cd53 973d 0bed a73d 3205 823d 4758 a9bd
000002f0: 70fa adbd 7b1d 79bd 5427 603d fab7 053e
00000300: b1a3 873c 0115 75bd 2850 d0bd f34a 3a3d
00000310: 1460 4dbd ad65 8fbd 74f6 37bc a8c0 343d
00000320: 3d59 983d ac06 8bbd e000 ce3b bce5 71bd
00000330: 411b a4bd dee4 a1bc 7dbc afbc db0d 803d
00000340: eab7 f53c 333f e63d ba7e 2ebd d044 303c
00000350: 6bad 9c3d 4f08 2abc b4b2 033d cc43 92bd
00000360: a92a 8b3d 3e5d c83d c333 de3b 9804 553d
00000370: a3d6 453d c85f 2b3d ad9d f4bc c857 a9bd
00000380: ef84 46bc 8a18 8eba cf9c 323d 2dea 0cbd
00000390: c1b2 18bd 0853 9c3d 99ac 103d 4657 f03a
000003a0: b9e2 10bc cae3 053c 6d22 00bd c955 f13d
000003b0: 068a 1b3b 6317 aabc f524 0c3e 8955 473d
000003c0: 42b2 8d3d 1ea8 213c cea0 9cbc 34c0 fcbc
000003d0: d6b6 0b3b 7b72 f2bc d0a6 0f3d 4b79 bc3a
000003e0: 9ec7 ea3d b4c3 003e 2374 29bc c7e8 1f3d
000003f0: 585b 9e3d 7119 e73a ad31 45bd 871c ab3d

layers.block_3.layer.0.bias f4 [128]
-0.11270945 0.0011100267 0.06750492 -0.058071464 -0.05020786 0.022531258 0.02529579 -0.060677692
0.037413213 -0.0949636 0.035563536 -0.08027064 0.09130369 -0.056968246 -0.06562668 -0.08712348
-0.09534499 0.0119299 -0.08953946 -0.11954979 -0.06151563 0.048487656 -0.066925265 -0.029404525
0.058180172 -0.025494779 0.07638741 -0.09127347 -0.016492624 -0.065623134 0.054611586 -0.0143714165
0.048724826 0.08204893 0.043391682 0.08083643 0.040235773 0.042570725 -0.016317029 -0.035038847
0.024384702 0.015148685 -0.10796244 -0.08199905 0.027805893 -0.031341836 -0.060093503 -0.063628905
0.06041257 -0.027217891 0.07514487 0.07779342 -0.055452954 0.08754256 0.08691236 0.07340197
-0.018008241 0.04690345 0.00024073363 -0.037303235 0.01590149 -0.024681356 -0.08740951 0.05264299
0.010278676 0.09262804 -0.047908984 -0.0595284 -0.04920355 -0.0948068 0.020280197 0.03543059
0.018217131 -0.04535908 0.07406137 0.011799484 -0.05079957 0.010154257 0.080095515 0.0326889
0.072234325 -0.036400586 -0.084617704 -0.0015863621 0.04967466 -0.09616178 0.061756037 0.061726414
0.08462262 0.014648048 -0.043003075 -0.059661377 -0.005141006 -0.005451037 0.05156067 -0.019067863
0.009431187 -0.05173495 -0.049478035 0.03902929 0.00027583883 0.03995837 0.00013022534 0.08250237
0.0002905603 -0.03740504 0.059676617 0.0650663 -0.061924443 -0.06104839 0.049874365 0.003399141
0.06251612 -0.03635351 0.04208851 -0.013797258 -0.084854625 0.11002945 0.042732406 -0.11235368
0.006829362 -0.0070049996 0.003218877 -0.07393696 -0.048551377 0.034874696 -0.0064110183 -0.01690143
00000000: 36d4 e6bd 517e 913a 0540 8a3d 58dc 6dbd
00000010: c2a6 4dbd 7993 b83c 1e39 cf3c 2c89 78bd
00000020: 993e 193d 477c c2bd 12ab 113d ef64 a4bd
00000030: 6efd ba3d 8957 69bd 4867 86bd cc6d b2bd
00000040: 3c44 c3bd a175 433c 7760 b7bd 85d6 f4bd
00000050: d0f7 7bbd fe9a 463d 1d10 89bd c2e1 f0bc
00000060: 554e 6e3d 6dda d0bc 0171 9c3d 96ed babd
00000070: 8a1b 87bc 6c65 86bd 66b0 5f3d 1776 6bbc
00000080: af93 473d 4509 a83d 7abb 313d 928d a53d
00000090: 44ce 243d a45e 2e3d 4aab 85bc e584 0fbd
000000a0: 6dc2 c73c 3132 783c 691b ddbd 1eef a7bd
000000b0: 2fc9 e33c 4c60 00bd 9b24 76bd df4f 82bd
000000c0: 2c73 773d 0ef8 debc 8ee5 993d 2852 9f3d
000000d0: a322 63bd 8449 b33d 1bff b13d c653 963d
000000e0: 0586 93bc d51d 403d 716d 7c39 47cb 18bd
000000f0: d743 823c 8e30 cabc c203 b3bd 2da0 573d
00000100: e467 283c c5b3 bd3d 363c 44bd 0dd4 73bd
00000110: a989 49bd 112a c2bd a822 a63c ab1f 113d
00000120: 183c 953c 71ca 39bd 7dad 973d 9f52 413c
00000130: 3613 50bd 0a5e 263c 1e09 a43d cce4 053d
00000140: 97ef 933d c818 15bd 0c4c adbd 7bed cfba
00000150: a877 4b3d 78f0 c4bd e6f3 7c3d d6d4 7c3d
00000160: a04e ad3d 5efe 6f3c fe23 30bd 7d5f 74bd
00000170: e275 a8bb 9d9e b2bb 4831 533d 3534 9cbc
00000180: 4485 1a3c 07e8 53bd 7ba9 4abd 2ddd 1f3d
00000190: 769e 9039 63ab 233d 198d 0839 01f7 a83d
000001a0: 5856 9839 0736 19bd 786f 743d 7b41 853d
000001b0: 7ca4 7dbd e00d 7abd 1049 4c3d 1fc4 5e3b
000001c0: 7408 803d 6be7 14bd 0065 2c3d e50d 62bc
000001d0: 43c8 adbd 1f57 e13d 2d08 2f3d b019 e6bd
000001e0: d7c8 df3b 328a e5bb cbf3 523b 436c 97bd
000001f0: cfdd 46bd c5d8 0e3d 8513 d2bb de74 8abc

layers.output.weight f4 [2, 128]
-0.12597533 0.033741426 -0.87525153 -0.0032388186 -0.14869218 0.34906834 -0.050504055 -0.15734078
-0.43376613 0.81189185 0.3915095 -0.05502751 0.0057768463 -0.08622554 -0.06854393 -0.18232079
-0.038710143 0.6665939 -0.15363462 0.5641805 0.5617487 0.14028706 0.46560845 -0.5775196
0.0875795 -0.118778124 -0.009548272 0.112643026 0.022665191 -0.72072923 -0.50896597 -0.30421227
-0.5923713 0.2477644 0.25034016 0.16965243 0.044672288 0.025286915 -0.20745096 0.3804673
0.19125797 -0.33791226 -0.002814809 -0.054704476 -0.46772295 0.15744323 -0.1655066 -0.20233402
-0.07232363 -0.297197 -0.90869486 -0.76006836 -0.033780456 -0.13414958 -0.0662491 -0.097981736
0.04052816 0.30747223 0.21605349 -0.18845637 -0.6645566 0.013436645 0.91680217 -0.067228615
-0.1815995 0.06246458 0.25494772 -0.018496128 0.16283774 -0.11607317 0.6212873 0.7125457
0.11745855 0.122408606 -0.21373746 0.28475422 0.0649244 0.007135211 0.05529581 -0.16995336
0.046838768 -0.2398611 0.20147346 0.2753201 -1.0606121 0.3584193 0.19987623 0.17647307
-0.10676921 0.17440641 0.020708028 0.1768679 0.095859766 -0.19602923 0.73516095 -0.06500486
-1.2064381 0.30732748 0.06479144 -0.171913 0.29616752 0.81436217 -0.21454725 0.26796424
-0.14879331 -0.15837607 -0.1849704 0.020703347 0.74036306 0.5312076 0.940376 -0.41208506
-0.018451061 0.12518108 0.60349715 0.32923073 -0.32501203 0.13904516 -0.060446467 0.2635262
0.054516483 -0.48579842 0.7892687 0.28747702 -0.17465441 -0.0044864523 0.09807206 -0.18981439
-0.20604289 -0.21706651 -0.5976307 0.09674571 -0.29975432 -0.7872697 0.18238391 -0.32141653
0.050115455 -0.5212998 -0.6540422 -0.10401516 0.08615148 -0.22520754 -0.09395711 -0.19152333
0.116540894 -0.36726978 -0.19829594 -0.586051 -0.5159857 -0.17346393 -0.27520847 -0.4517578
0.083135836 0.12934804 0.19641972 0.051297463 0.24048063 0.23263116 -0.4557395 -0.23711458
0.71116763 -0.1902517 -0.22878143 0.004812065 -0.23937447 -1.2137651 -0.11061364 -0.20455489
-0.13486928 -0.084259406 -0.09753086 -0.29916552 -0.5336072 -0.31939653 -0.26935288 -0.038426485
-0.25601244 0.022801546 -0.07731826 0.11074143 -0.30977884 -0.032512907 0.13852644 -0.17533706
-0.14261936 -0.49757966 0.04559 0.019683171 0.6073779 -0.20597233 -0.0009995503 -0.21079914
-0.004139139 0.18346779 0.03350283 0.4433481 -0.1678845 0.037207417 -0.71768826 -0.4096498
-0.22652878 -0.13598564 -0.08439699 -0.15201369 0.073528096 -0.11252817 0.26658642 -0.19059338
0.28398183 0.16837387 0.296566 -0.13749637 0.21333383 -0.53459525 -0.17511408 0.029058587
-0.19005038 0.2683676 0.1662865 0.122735016 0.06447226 -0.049858544 0.5359751 0.12593512
0.18321726 -0.082687 0.27664968 0.0026459978 -0.023448817 -0.6030266 -0.096615925 0.17319532
-0.2195649 -0.25973526 -0.15472516 0.27471447 -0.14239179 -0.22973824 0.10409534 0.59912336
0.10856036 0.20125826 -0.50544876 -0.2415982 0.44036573 0.2741907 -0.029972317 -0.229486
-0.014741078 0.72771466 -0.966144 -0.07304704 -0.09491027 0.10043417 0.1435824 -0.15249535
00000000: adff 00be 7334 0a3d 7c10 60bf 5c42 54bb
00000010: c342 18be 16b9 b23e 57dd 4ebd f11d 21be
00000020: 9816 debe 25d8 4f3f ef73 c83e 8764 61bd
00000030: b34b bd3b 0497 b0bd c360 8cbd 4db2 3abe
00000040: 878e 1ebd e6a5 2a3f 6552 1dbe 226e 103f
00000050: c3ce 0f3f 69a7 0f3e 3b64 ee3e 53d8 13bf
00000060: e25c b33d f241 f3bd 5b70 1cbc 63b1 e63d
00000070: 5aac b93c b681 38bf 984b 02bf b6c1 9bbe
00000080: a5a5 17bf f3b5 7d3e 962c 803e 5eb9 2d3e
00000090: 4afa 363d 8126 cf3c 066e 54be 9ccc c23e
000000a0: 21d9 433e d602 adbe a978 38bb cd11 60bd
000000b0: 6279 efbe cc38 213e 907a 29be a630 4fbe
000000c0: 691e 94bd 352a 98be 3aa0 68bf d793 42bf
000000d0: 605d 0abd 825e 09be 9cad 87bd a6aa c8bd
000000e0: db00 263d 006d 9d3e 203d 5d3e b5fa 40be
000000f0: 6220 2abf 6025 5c3c 8cb3 6a3f 28af 89bd
00000100: 38f5 39be dcda 7f3d 8288 823e 3185 97bc
00000110: f0be 263e c5b7 edbd af0c 1f3f 6569 363f
00000120: 1c8e f03d 5db1 fa3d fedd 5abe 4ecb 913e
00000130: 15f7 843d 7dce e93b dc7d 623d 4108 2ebe
00000140: 02da 3f3d 269e 75be 0f4f 4e3e c2f6 8c3e
00000150: 23c2 87bf bc82 b73e 5bac 4c3e 5bb5 343e
00000160: d1a9 dabd 9897 323e e2a3 a93c dc1c 353e
00000170: 2052 c43d e3bb 48be 8233 3c3f 4521 85bd
00000180: 906c 9abf 075a 9d3e 60b1 843d f609 30be
00000190: 45a3 973e 0a7a 503f 46b2 5bbe 9c32 893e
000001a0: 465d 18be 562d 22be e168 3dbe 119a a93c
000001b0: 6f88 3d3f 39fd 073f 7bbc 703f d0fc d2be
000001c0: ae26 97bc 782f 003e ca7e 1a3f ee90 a83e
000001d0: fa67 a6be db61 0e3e b796 77bd e8ec 863e
000001e0: ad4c 5f3d 92ba f8be 830d 4a3f 3030 933e
000001f0: 9bd8 32be 1703 93bb 01da c83d b45e 42be
00000200: e8fc 52be af46 5ebe 53fe 18bf 9d22 c63d
00000210: 6679 99be 828a 49bf d9c2 3a3e b590 a4be
00000220: dd45 4d3d e773 05bf 4f6f 27bf e605 d5bd
00000230: 3070 b03d ce9c 66be 966c c0bd b11e 44be
00000240: feac ee3d c90a bcbe 170e 4bbe 7007 16bf
00000250: a417 04bf 87a0 31be 20e8 8cbe cc4c e7be
00000260: 1f43 aa3d d073 043e 4022 493e 4a1d 523d
00000270: 8e40 763e dd36 6e3e b056 e9be 2ace 72be
00000280: 150f 363f 57d1 42be ae45 6abe 87ae 9d3b
00000290: 951e 75be a85c 9bbf 6789 e2bd d676 51be
000002a0: 2c1b 0abe 3290 acbd 42be c7bd 392c 99be
000002b0: 7b9a 08bf f187 a3be 9fe8 89be 1765 1dbd
000002c0: 1014 83be 4fca ba3c 0959 9ebd 67cc e23d
000002d0: 559b 9ebe 412c 05bd e0d9 0d3e 8f8b 33be
000002e0: cf0a 12be c3c2 febe 94bc 3a3d 9a3e a13c
000002f0: 1e7d 1b3f 69ea 52be 5803 83ba bbdb 57be
00000300: 9da1 87bb fbde 3b3e 433a 093d 86fe e23e
00000310: eae9 2bbe ce66 183d 6bba 37bf 9ebd d1be
00000320: 29f7 67be d23f 0bbe 54d8 acbd 7aa9 1bbe
00000330: e695 963d 2b75 e6bd 047e 883e e92a 43be
00000340: 1166 913e 336a 2c3e 80d7 973e d9cb 0cbe
00000350: 2f74 5a3e 3cdb 08bf 1b51 33be 460c ee3c
00000360: 919c 42be 7a67 893e 0247 2a3e 7f5c fb3d
00000370: 080a 843d 7938 4cbd aa35 093f 23f5 003e
00000380: 4e9d 3b3e cd57 a9bd 07a5 8d3e 7a68 2d3b
00000390: bc17 c0bc f45f 1abf 92de c5bd 1d5a 313e
000003a0: 9fd5 60be 05fc 84be 4670 1ebe 60a7 8c3e
000003b0: 27cf 11be 8040 6bbe f02f d53d 2660 193f
000003c0: e554 de3d a516 4e3e 1765 01bf 8565 77be
000003d0: 9e77 e13e b962 8c3e 8188 f5bc 61fe 6abe
000003e0: 9084 71bc 824b 3a3f 3755 77bf b099 95bd
000003f0: 5160 c2bd 6eb0 cd3d 4407 133e be27 1cbe

layers.output.bias f4 [2]
0.2091046 0.027141206
00000000: 841f 563e 3c57 de3c
