results/SMOTE10K/smote999/smote0.15/model.pth (torch, 205093 bytes, 10 tensors)

layers.block_0.layer.0.weight f4 [128, 2]
0	0xbf1b5d3a	-0.6068913
1	0x3f18b991	0.5965815
2	0x3f002685	0.50058776
3	0xbe9730a8	-0.2952931
4	0xbeff4bbb	-0.49862465
5	0x3f07f071	0.5310126
6	0xbd0986e3	-0.033575904
7	0xbf505f5f	-0.81395525
8	0x3f798449	0.97467476
9	0x3e84370b	0.25823244
10	0x3f89ddb5	1.0770785
11	0x3ed6a27c	0.4192084
12	0x3f22ad3e	0.63545597
13	0xbea977c6	-0.33099192
14	0x3f1fc4c4	0.62409616
15	0x3ebe0731	0.37114862
16	0x3f3bdba1	0.73382
17	0x3e871ef1	0.26390794
18	0x3f0fdf44	0.5620005
19	0x3ef8546f	0.48501918
20	0x3eb2ed63	0.34946737
21	0x3f070828	0.5274682
22	0x3f3e017b	0.7422101
23	0xbe879b6f	-0.26485774
24	0x3f60a216	0.87747324
25	0xbecf3237	-0.40467998
26	0x3f839985	1.0281225
27	0xbef9b9f3	-0.4877468
28	0x3f488b2c	0.7833736
29	0xbe3054f6	-0.1721991
30	0x3c07aa59	0.00828036
31	0x3ef8c169	0.4858506
32	0x3e67583c	0.22592252
33	0x3f0e0b9f	0.5548648
34	0x3ef894b4	0.4855095
35	0x3f110dc2	0.5666162
36	0x3e87e43c	0.26541317
37	0xbf290a14	-0.66031003
38	0x3edced2b	0.43149695
39	0xbd1615d3	-0.036641907
40	0xbf432b0e	-0.7623757
41	0xbe7b6edf	-0.24554013
42	0xbea34287	-0.31886694
43	0xbf06b6b0	-0.5262251
44	0x3f0e59eb	0.55605954
45	0x3ea6d363	0.3258315
46	0xbf5989a8	-0.8497567
47	0xbdb297a8	-0.087203324
48	0xbf18f721	-0.5975209
49	0xbe795609	-0.24349226
50	0x3f798fbf	0.97484964
51	0xbed0d077	-0.40784046
52	0xbf06f768	-0.5272126
53	0xbebaa141	-0.36451152
54	0x3f3048da	0.6886116
55	0x3b0afd77	0.0021208206
56	0xbee5e394	-0.4490019
57	0xbe1c611e	-0.15271422
58	0xbf4d3eb9	-0.8017383
59	0x3eb37fa0	0.35058308
60	0x3f82356f	1.0172557
61	0xbef9794b	-0.48725352
62	0x3eb6d4ed	0.35709324
63	0x3e731aae	0.23740646
64	0xbf068749	-0.5255018
65	0xbf0a3ce4	-0.5399916
66	0x3f3e426b	0.74320096
67	0x3eb307f0	0.34966993
68	0x3f6d101e	0.9260272
69	0x3e46006e	0.19336101
70	0x3f60c8b1	0.8780623
71	0xbda18eb5	-0.07888547
72	0x3f8574ef	1.042631
73	0xbe64cb8e	-0.22343275
74	0xbf84cd54	-1.0375161
75	0x3f127805	0.57214385
76	0x3e99e550	0.30057764
77	0xbea59b70	-0.32345152
78	0x3ede6fb7	0.43444607
79	0xbd86b999	-0.06578369
80	0x3f90fdae	1.1327417
81	0x3e91ecc6	0.28500956
82	0xbe9f8eaa	-0.31163532
83	0xbeb821bc	-0.35963237
84	0x3f3f8f1d	0.7482775
85	0xbecb53b5	-0.397123
86	0x3f563f88	0.8369069
87	0x3ec93feb	0.39306578
88	0x3f0212ae	0.5080975
89	0x3e3f77a8	0.18697989
90	0xbe8d2628	-0.27568173
91	0x3f081843	0.5316202
92	0xbf173ec9	-0.5908018
93	0x3f2148f0	0.6300192
94	0x3f46703d	0.7751501
95	0x3ed256aa	0.41081744
96	0xbf7ae48b	-0.9800498
97	0xbe08ed8b	-0.13371865
98	0x3f1069ba	0.56411326
99	0x3f1542a9	0.5830484
100	0x3f1ad396	0.60479105
101	0xbf2cee8c	-0.67551494
102	0xbf45e502	-0.77302563
103	0x3e8ec849	0.2788718
104	0xbf807042	-1.0034258
105	0x3eab0a88	0.33406472
106	0x3f2f250e	0.68415916
107	0xbd2b3d51	-0.041806523
108	0xbf6d1b19	-0.9261947
109	0xbde71320	-0.11282945
110	0xbf799c4a	-0.97504103
111	0xbec7d585	-0.3903009
112	0xbf496b29	-0.7867914
113	0xbe30541b	-0.17219584
114	0x3d049dab	0.032376926
115	0xbf1951e9	-0.5989061
116	0x3f40a3ce	0.75249946
117	0x3f005acd	0.5013855
118	0xbe864c35	-0.26230016
119	0xbec97b16	-0.3935172
120	0xbf727338	-0.9470706
121	0x3e968a70	0.29402494
122	0x3f3089a7	0.6896004
123	0x3e9f6f87	0.31139776
124	0xbe7506a0	-0.23928308
125	0x3dea23cb	0.11432608
126	0xbf870ac4	-1.055016
127	0x3ea48e12	0.3213964
128	0xbf571425	-0.84015113
129	0x3e43e4b9	0.1913022
130	0xbf2e4b8e	-0.6808404
131	0xbf0d2441	-0.55133444
132	0x3f886623	1.065617
133	0xbe521e91	-0.20519473
134	0x3f917e17	1.1366605
135	0x3f0b7428	0.54474115
136	0x3f8a99fb	1.0828241
137	0xbe8d2092	-0.27563912
138	0x3f73d6f6	0.9524988
139	0xbf1c90a3	-0.611582
140	0x3dd5e927	0.10444861
141	0x3f3288ae	0.69739807
142	0xbf6cac78	-0.92450666
143	0x3ee6a659	0.45048788
144	0xbf427b03	-0.7596895
145	0xbec2ce15	-0.38047853
146	0x3eba9bf3	0.36447105
147	0xbf2f7b1a	-0.68547213
148	0x3f61856f	0.8809423
149	0x3f2384f7	0.63874763
150	0x3ee9b669	0.4564698
151	0x3e0a51a0	0.135077
152	0xbecf9ed4	-0.40550864
153	0xbf15d6a1	-0.5853062
154	0x3e434524	0.19069344
155	0x3e28e8da	0.16495076
156	0x3e230c53	0.1592267
157	0x3e92cc13	0.2867132
158	0x3f2066e9	0.6265703
159	0x3f110aca	0.5665709
160	0x3f62a094	0.8852627
161	0xbe32a20f	-0.17444633
162	0x3f8b38db	1.0876726
163	0xbee6534b	-0.44985422
164	0xbf23d1e0	-0.6399212
165	0xbf26c165	-0.65138847
166	0x3f786a50	0.9703722
167	0x3e3f284f	0.1866772
168	0xbf907539	-1.1285774
169	0x3e68f08b	0.2274801
170	0x3f9ce0e9	1.2256137
171	0xbef6d571	-0.48209718
172	0xbf83eebe	-1.0307233
173	0xbe9a3f00	-0.3012619
174	0xbf61fe69	-0.88278824
175	0x3e2cf965	0.16892011
176	0xbf3e2531	-0.742755
177	0xbe53853d	-0.20656295
178	0xbf8ad5d7	-1.0846509
179	0xbf24205e	-0.6411189
180	0x3ea37a35	0.31929174
181	0x3f199a83	0.6000139
182	0x3edfb343	0.43691453
183	0xbeb0027a	-0.3437689
184	0xbef874c8	-0.48526597
185	0x3f080bfb	0.5314328
186	0x3f81a612	1.0128806
187	0x3f09fa0a	0.53897154
188	0xbf773c3c	-0.96576285
189	0xbebedcdf	-0.37277886
190	0x3ed79cf1	0.42111924
191	0x3f3c7ee5	0.73631126
192	0x3f7346ee	0.95030105
193	0xbf0216ac	-0.50815845
194	0xbf963c75	-1.17372
195	0x3ef9ae13	0.4876562
196	0xbf57aeed	-0.8425129
197	0x3f29f580	0.6639023
198	0xbf7be4e5	-0.9839614
199	0x3f31cb9c	0.6945131
200	0xbf6a451d	-0.9151171
201	0xbecf393f	-0.40473363
202	0xbd85311b	-0.06503507
203	0x3f418012	0.75586045
204	0x3f191a9d	0.59806234
205	0x3ecd8a11	0.401444
206	0x3da7913e	0.081819996
207	0x3f27c47e	0.655342
208	0xbf42c987	-0.76088756
209	0xbf082b2c	-0.53190875
210	0x3ed0db5f	0.40792367
211	0x3d81797b	0.06321999
212	0xbf386da3	-0.7204229
213	0x3eb009aa	0.34382373
214	0xbf5e5677	-0.86850685
215	0x3f0800ef	0.53126425
216	0x3e073048	0.13202012
217	0x3e935065	0.28772274
218	0xbf423bb8	-0.75872374
219	0x3e5ad20a	0.21369186
220	0xbf88ba70	-1.0681896
221	0x3e10c431	0.14137341
222	0x3f91a3ad	1.1378075
223	0x3d4b14f5	0.049580533
224	0xbe9db401	-0.30801395
225	0xbefa5f00	-0.48900604
226	0x3ed5f955	0.41791788
227	0xbf38883c	-0.7208288
228	0xbde84da8	-0.11342937
229	0xbec4cc18	-0.3843696
230	0x3f81f8e3	1.0154079
231	0x3f1d76bf	0.6150932
232	0xbe8e2e87	-0.27769873
233	0x3f0d4497	0.55182785
234	0xbef3dd0e	-0.4762959
235	0xbf526080	-0.821785
236	0x3ed4a670	0.41533232
237	0x3ef54786	0.4790613
238	0xbf3d5a4d	-0.73965913
239	0xbf162f6a	-0.586661
240	0xbf85e6b6	-1.0461032
241	0x3ef11bc7	0.47091505
242	0xbf04ee16	-0.5192579
243	0x3e15fe12	0.14647701
244	0xbf1d3ec5	-0.61423904
245	0x3f0ba06b	0.54541653
246	0xbef0cf41	-0.47033122
247	0x3de22a7d	0.1104326
248	0xbba4622f	-0.005016587
249	0x3f25ad9e	0.64718044
250	0xbf8d1b5c	-1.1023974
251	0xbe2fbfac	-0.17162961
252	0x3f97153f	1.1803359
253	0x3f1812b0	0.59403515
254	0xbf24fb2c	-0.6444576
255	0xbe612b83	-0.21989255

layers.block_0.layer.0.bias f4 [128]
0	0x3f31b902	0.69422925
1	0xbf23d754	-0.6400044
2	0x3efeb67a	0.49748594
3	0xbeda4adf	-0.42635247
4	0xbe4ced9b	-0.20012514
5	0xbe6612bc	-0.22468084
6	0xbe68743a	-0.22700587
7	0xbecdf9e3	-0.4022971
8	0xbf1f5d63	-0.6225187
9	0x3b8edd0d	0.0043598474
10	0x3edcaf7a	0.43102628
11	0x3f1a0ecb	0.6017882
12	0x3ebfd3f7	0.37466404
13	0x3eaa277c	0.3323325
14	0xbe9f9e44	-0.31175435
15	0x3e16a185	0.14710052
16	0xbd8f8103	-0.07007029
17	0xbe2c768e	-0.168421
18	0x3cbae90f	0.02281621
19	0x3e5a814b	0.21338384
20	0x3ed2b4e1	0.41153625
21	0xbecdd754	-0.40203345
22	0x3ef61463	0.4806243
23	0x3f13ac4e	0.5768479
24	0x3ed53f2a	0.41649753
25	0x3e9dcefc	0.3082198
26	0x3d0624ab	0.032749813
27	0x3ea9d1ef	0.3316798
28	0x3e4d3361	0.20039131
29	0xbd559771	-0.05214638
30	0x3f0dd508	0.55403185
31	0x3ebbd5a6	0.36686438
32	0x3f002682	0.5005876
33	0x3e2ff90c	0.17184848
34	0xbe8faddf	-0.2806234
35	0x3e81f3a6	0.25381202
36	0x3e470702	0.19436267
37	0xbef23b51	-0.4731088
38	0xbee6f1ee	-0.45106453
39	0xbf3360af	-0.700694
40	0xbea26c00	-0.31723022
41	0xbf2333e9	-0.63751084
42	0x3e6795b2	0.22615698
43	0x3d35ec34	0.044414714
44	0x3ecd5656	0.40104932
45	0x3f29aa43	0.66275424
46	0xbecb63e6	-0.39724654
47	0xbf00094e	-0.500142
48	0x3dad6bc1	0.08467818
49	0x3ea7e41c	0.3279122
50	0x3e928b33	0.28621826
51	0xbe28a17a	-0.16467848
52	0xbe223e4a	-0.15844074
53	0xbf06cc46	-0.52655447
54	0xbe84d7d4	-0.25945914
55	0x3e97bd92	0.29636818
56	0x3ec8d411	0.39224294
57	0xbf0f17e3	-0.55895823
58	0x3e3a66a1	0.18203212
59	0xbe2548e4	-0.16141087
60	0xbe3068ad	-0.1722743
61	0xbe0ecc9f	-0.13945244
62	0x3f06725f	0.52518266
63	0xbebbceae	-0.36681122
64	0xbe1d7cb2	-0.15379599
65	0xbf018c5b	-0.5060479
66	0x3e143004	0.14471442
67	0xbf2248f8	-0.6339259
68	0x3e579b59	0.21055354
69	0x3f1de93d	0.6168402
70	0x3e8cf191	0.2752805
71	0xbeddfe9b	-0.4335831
72	0xbf08c1d9	-0.5342079
73	0xbf07ede0	-0.53097343
74	0xbf03766d	-0.5135258
75	0x3ec6d6fb	0.38835892
76	0x3d949288	0.07254511
77	0xbf38c977	-0.7218241
78	0xbf272e33	-0.6530487
79	0xbf0f5de6	-0.5600265
80	0xbeefd03a	-0.46838552
81	0x3f0a8a29	0.54117066
82	0x3eb70ea0	0.35753345
83	0xbe29fd71	-0.16600586
84	0x3b827492	0.0039811814
85	0x3ec6d161	0.38831618
86	0x3ec1ac50	0.37826777
87	0xbe957ec7	-0.29198286
88	0x3ea47ddf	0.32127282
89	0x3ef7e419	0.48416212
90	0x3f383333	0.71953124
91	0xbf1f824e	-0.62308204
92	0xbf212e85	-0.6296161
93	0xbf17a2b5	-0.59232646
94	0x3e813652	0.25236756
95	0xbf236fbb	-0.6384236
96	0x3efda668	0.4954102
97	0xbef39667	-0.47575685
98	0xbf1dc2d5	-0.61625415
99	0xbf328d05	-0.6974643
100	0x3ea6e402	0.3259583
101	0xbf22609d	-0.6342867
102	0xbf349805	-0.70544463
103	0xbf3ce3b9	-0.7378498
104	0x3e859418	0.2608955
105	0xbedd3063	-0.4320098
106	0x3f1f73ef	0.62286276
107	0xbf2aab64	-0.6666777
108	0xbf2854d9	-0.6575447
109	0xbefa59d8	-0.4889667
110	0xbe25a1e5	-0.16175039
111	0xbdc0e1a6	-0.09418039
112	0x3f29332e	0.6609372
113	0x3e34eea5	0.1766916
114	0xbef5a7f6	-0.47979707
115	0xbefecb09	-0.4976428
116	0xbf07c5b0	-0.5303602
117	0xbf356ffa	-0.7087399
118	0xbf2f1a56	-0.6839956
119	0x3eea5fca	0.45776206
120	0xbef2871e	-0.4736871
121	0x3f30035e	0.6875514
122	0xbefdaa85	-0.4954416
123	0x3ef20166	0.47266692
124	0xbe080fff	-0.13287352
125	0x3e4594e2	0.19295076
126	0xbf01df1a	-0.5073105
127	0x3d3a0111	0.045411173

layers.block_1.layer.0.weight f4 [128, 128]
0	0x3c113d22	0.008864673
1	0x3cb548c7	0.02212943
2	0xbb9e40ae	-0.0048294878
3	0x3ca1655a	0.019701649
4	0x3da52e63	0.08065488
5	0x3d0f7dec	0.035032198
6	0x3b995616	0.0046794517
7	0xbda92b5a	-0.08260222
8	0x3c97050e	0.018435027
9	0x3deacc89	0.11464793
10	0x3d6c1086	0.057632945
11	0xbcfd7e2f	-0.030943958
12	0xbdb0f8a4	-0.086411744
13	0xbd969907	-0.073534064
14	0xbd2f36dc	-0.042776927
15	0x39cad108	0.00038684183
16	0x3d4285d1	0.0474909
17	0x3d3c5ebb	0.04598878
18	0xbe1dd5fe	-0.15413663
19	0xbda8811d	-0.082277514
20	0x3dbe2053	0.09283509
21	0x3ce89f2e	0.028396215
22	0xbcbffefd	-0.023437018
23	0x3daf3f7f	0.08557033
24	0xbcbbd4b0	-0.022928566
25	0xbd002477	-0.031284776
26	0xbd55a324	-0.052157536
27	0x3d21a24a	0.03946141
28	0xbc2bb58d	-0.010480297
29	0x3db3713a	0.08761831
30	0x3d1b70ee	0.037949495
31	0x3cb7075b	0.022342375
32	0xbd6031fb	-0.054735165
33	0x3db01a97	0.085988216
34	0xbd09c16e	-0.033631735
35	0xbdbd3d46	-0.092402026
36	0x3c858b09	0.016301649
37	0x3db39c8c	0.08770093
38	0x3d82e8d8	0.06392068
39	0xbd458e62	-0.04823149
40	0xbd4b2cf5	-0.04960342
41	0xbd4fb247	-0.050707128
42	0xbd12dcb1	-0.035855
43	0x3c84c440	0.01620686
44	0x3d8b1ce1	0.067926176
45	0xbd41ef50	-0.047347367
46	0xbcfa91d4	-0.030587114
47	0x3d56cb2a	0.052439846
48	0xbd33c648	-0.043890268
49	0x3d213682	0.039358623
50	0xbdb02aaa	-0.086018875
51	0x3d6cba3b	0.05779479
52	0x3ddb8868	0.10719377
53	0xbcb34c48	-0.02188696
54	0xbdb9bdd1	-0.09069408
55	0xbc814d76	-0.015784007
56	0x3d996e79	0.07491774
57	0xbccc8933	-0.024967765
58	0xbce8861b	-0.028384259
59	0xbd9873a9	-0.074439354
60	0x3ddbc71a	0.10731335
61	0x3d8ef908	0.06981093
62	0x3cfb7739	0.030696498
63	0x3d943f4d	0.07238636
64	0x3dcfe32a	0.1015075
65	0xbcca6a71	-0.024708958
66	0xbdb15550	-0.0865885
67	0x3c1937e9	0.009351709
68	0xbcb6d662	-0.022319023
69	0x3b2883f9	0.0025713427
70	0x3c8c4440	0.017122388
71	0x3db8a7e8	0.090164006
72	0x3d595f6f	0.05306953
73	0x3c970116	0.018433135
74	0xbcd54c3a	-0.026037324
75	0x3d98d100	0.074617386
76	0xbe07178a	-0.13192573
77	0x3da425aa	0.08014996
78	0xbd8fa707	-0.0701428
79	0x3d97769e	0.07395671
80	0xbc2f146e	-0.010686023
81	0x3d0d3c1d	0.034481157
82	0xbd350c87	-0.0442014
83	0x3d48a1e9	0.048982535
84	0x3de82c06	0.11336522
85	0xbc18b035	-0.009319355
86	0x3d048f25	0.032363076
87	0xbcfdd2cf	-0.03098431
88	0x3d3b6c57	0.045757618
89	0xbd972dfb	-0.07381817
90	0x3da080ae	0.07837044
91	0x3d626810	0.055275023
92	0xbd4e4359	-0.050357196
93	0xbc4007d7	-0.011720619
94	0xbcdd50e2	-0.027016107
95	0x3aa31473	0.0012442007
96	0xbca9b83f	-0.020717738
97	0x3d9024b3	0.0703825
98	0xbab54ef3	-0.0013832733
99	0x3db3082a	0.087417915
100	0xbd2d1a0b	-0.042261165
101	0x3c28465b	0.01027068
102	0xbc65053c	-0.013978299
103	0xbc4d23fc	-0.012520786
104	0xbdc24a94	-0.09486881
105	0xbd48a697	-0.048986997
106	0xbd7f3fa1	-0.06231654
107	0xbc4dd459	-0.012562835
108	0xbd534da0	-0.0515877
109	0xbcfa2471	-0.030534955
110	0x3db80578	0.08985418
111	0xbd1049f0	-0.035226762
112	0x3a84a96c	0.0010121292
113	0xbdd0e5f9	-0.10200114
114	0xbdc12c5d	-0.0943229
115	0x3d3ae90d	0.04563241
116	0xbc767575	-0.015042652
117	0xbd94cec4	-0.07266
118	0xbcc3447a	-0.023836363
119	0xbda4e2ea	-0.08051093
120	0x3dbccd48	0.09218842
121	0x3d47b1c8	0.04875353
122	0x3d3a49f8	0.0454807
123	0xbd52008a	-0.051270045
124	0x3d4c56db	0.04988752
125	0x3cce1b6a	0.025159556
126	0x3d802436	0.06256907
127	0xbd46e01f	-0.048553582
128	0x3dca6b52	0.09883751
129	0xbd8a243e	-0.06745194
130	0x3d4ba9db	0.049722534
131	0xbde284a9	-0.11060459
132	0x3d8f6f31	0.0700363
133	0xbc6fbc0e	-0.014632238
134	0xbe005f27	-0.12536298
135	0xbbc6d90c	-0.0060683545
136	0xbd812d30	-0.06307447
137	0x3d0883aa	0.03332869
138	0x3cf4c711	0.029880079
139	0xbd1a7294	-0.037706926
140	0xbd47eccb	-0.048809808
141	0xbd033e3a	-0.032041766
142	0xbdadbfdd	-0.08483861
143	0x3d0816f5	0.03322502
144	0x3d7a856f	0.06116241
145	0x3d8b5a82	0.06804372
146	0xbe503933	-0.2033432
147	0x3c6ddcc1	0.014517964
148	0xbd6b888d	-0.05750327
149	0xbe08348b	-0.13301294
150	0xbd4b735e	-0.04967057
151	0x3dc8765f	0.097882025
152	0xbd61ec94	-0.05515726
153	0xbe095e47	-0.1341487
154	0xbdcd05ea	-0.10010894
155	0x3c75f9bb	0.015013154
156	0x3db1ab72	0.08675279
157	0x3e37e613	0.1795886
158	0x3d8a4778	0.06751913
159	0xbd3e8fb2	-0.046523757
160	0x3c994a93	0.018712318
161	0xbc1e364a	-0.009656498
162	0x3c92ca88	0.01791884
163	0xbb02bb79	-0.0019948168
164	0xbd03c536	-0.032170497
165	0x3c109f15	0.008826991
166	0xbc1a64b2	-0.009423422
167	0xbd032996	-0.03202208
168	0x3cd65f6d	0.02616855
169	0xbdc843ca	-0.09778555
170	0xbdc3f073	-0.095673464
171	0x3c28ed0e	0.0103104245
172	0x3d2ec550	0.04266864
173	0x3dfb29b4	0.122638136
174	0x3e15defc	0.14635843
175	0x3cf4d1ff	0.02988529
176	0xbd1ce9dc	-0.038308963
177	0x3d6f44f4	0.05841537
178	0xbd0e64d9	-0.034764145
179	0x3c7758bf	0.015096842
180	0x3db6bde2	0.08922936
181	0xbd62d002	-0.055374153
182	0x3cc75388	0.024331823
183	0xbde97b01	-0.11400414
184	0x3d2aa94f	0.04166537
185	0xbdb97cc1	-0.09056998
186	0x3dcac6fc	0.099012345
187	0xbe0ad715	-0.1355861
188	0x3db93b4d	0.09044514
189	0x3d48ae4c	0.048994347
190	0xbd8b867c	-0.0681276
191	0x3d09b56f	0.033620294
192	0x3c6b113b	0.01434737
193	0xbd885b98	-0.06658095
194	0xbdd1113f	-0.102083676
195	0xbd9719a7	-0.0737794
196	0xbdb9803e	-0.090576634
197	0xbd351451	-0.04420883
198	0x3e057c4a	0.13035694
199	0x3d0318c7	0.03200605
200	0xbd3f19d4	-0.04665549
201	0xbcf859a5	-0.030316183
202	0xbc005987	-0.007833845
203	0xbc96e9ed	-0.018422091
204	0xbe11f284	-0.14252669
205	0x3d392a14	0.045206144
206	0xbd88a7db	-0.06672641
207	0x3d993992	0.07481684
208	0x3c218acb	0.009859751
209	0xbcac7156	-0.021050137
210	0x3ca96afd	0.020680899
211	0xbd3bf12a	-0.04588429
212	0x3e204f04	0.15655142
213	0xbdb8d21e	-0.09024452
214	0xbd9f742d	-0.07785831
215	0xbd979826	-0.07402067
216	0xbd1a6562	-0.037694342
217	0xbdcf5ae9	-0.101247616
218	0x3caf6aec	0.021413289
219	0xbab76e87	-0.0013994732
220	0x3a58cac2	0.00082699594
221	0xbc61203c	-0.013740595
222	0xbdedef90	-0.116179585
223	0xbcd52b5e	-0.026021656
224	0x3d04f7e0	0.032462955
225	0xbd09edfd	-0.03367423
226	0xbd85d6e9	-0.065351315
227	0xbd3df4a2	-0.04637588
228	0xbc7a002e	-0.015258832
229	0x3dcb9a29	0.09941513
230	0xbd909645	-0.07059912
231	0x3bf9514e	0.007608569
232	0xbc3a8c52	-0.011385994
233	0xbd688834	-0.05677052
234	0x3d15bcf7	0.036557164
235	0xbb7c9f0b	-0.0038546945
236	0xbd0f9327	-0.035052445
237	0xbd3cb481	-0.04607058
238	0x3d92a19e	0.07159732
239	0x3d0c0ce2	0.034191974
240	0xbbbdc60f	-0.0057914327
241	0xbdf9b52a	-0.121927574
242	0xbdb16c53	-0.08663239
243	0x3d9f1bcb	0.07768973
244	0xbd3721ed	-0.04471009
245	0xbcdc5cd0	-0.026899725
246	0xbc392151	-0.011299447
247	0xbdc6e0c3	-0.09710839
248	0xbd806475	-0.06269161
249	0x3cd5d184	0.026100881
250	0x3dae1832	0.08500709
251	0x3ca0703f	0.019584773
252	0x3e38682f	0.18008493
253	0xbd6c6b4b	-0.05771951
254	0x3daf3f07	0.085569434
255	0x3c06ed5f	0.008235305

layers.block_1.layer.0.bias f4 [128]
0	0xbc0af50e	-0.008481277
1	0x3d1e93b0	0.038715065
2	0xbd2c9c98	-0.042141527
3	0xbbaf216b	-0.00534456
4	0xbd13fef2	-0.036131807
5	0xbd83bc15	-0.06432358
6	0xbc4fe856	-0.012689671
7	0x3c323295	0.0108763175
8	0xbd6e287f	-0.05814409
9	0xbca4d1ef	-0.020119635
10	0xbd89ec3c	-0.06734511
11	0x3d9bc5a8	0.07606059
12	0x3d5eaf95	0.054366667
13	0xbd957106	-0.07296948
14	0xbe0f797c	-0.14011186
15	0x3db81e54	0.0899016
16	0x3d917b95	0.071036495
17	0xbca30ec9	-0.019904511
18	0x3da544b2	0.08069743
19	0xbd8b5672	-0.068035975
20	0x3c2b49ba	0.0104545895
21	0xbd75104e	-0.059830002
22	0xbd7fe8df	-0.062477943
23	0xbd4f92bd	-0.05067705
24	0x3c950b9f	0.018194018
25	0xbd214fcd	-0.039382745
26	0xbd8b966c	-0.068158
27	0x3b06e947	0.0020585821
28	0xbce05f29	-0.027389126
29	0x3cd1eb84	0.025624998
30	0x3d5447e9	0.05182639
31	0x3c64418b	0.013931642
32	0xbd311222	-0.043230183
33	0xbdbc6a44	-0.09199956
34	0x3d06d983	0.03292228
35	0xbcb99a8d	-0.022656703
36	0xbcf1c367	-0.02951212
37	0xbd36275a	-0.044471122
38	0xbda4cdb5	-0.08047048
39	0xbdce4aac	-0.10072836
40	0x3d7e76a8	0.06212488
41	0xbc0609a5	-0.00818101
42	0x3d7e5f93	0.062102865
43	0xbdc09ca4	-0.09404877
44	0xbd6e00e7	-0.05810633
45	0x3d96e18c	0.073672384
46	0x3d1e0e35	0.038587768
47	0x3c5e6fe1	0.013576479
48	0x3cb34252	0.02188221
49	0x3d8907d8	0.06690949
50	0x3d915238	0.0709576
51	0xba90a70d	-0.0011036113
52	0xbdcfe4cb	-0.10151061
53	0xbd8776c2	-0.06614448
54	0xbd59bb7e	-0.053157322
55	0x3df4d37b	0.11954399
56	0x3d4bbd41	0.049741033
57	0x3d2d8993	0.04236753
58	0x3d7bdb54	0.061488464
59	0x3d90eeef	0.07076823
60	0x3d9db6dc	0.07700893
61	0xbd1b2461	-0.03787649
62	0x3d9fc21d	0.07800696
63	0xbc34fca1	-0.01104656
64	0x3cd28eb8	0.02570282
65	0x3ce8c161	0.028412523
66	0xbb348976	-0.0027547753
67	0xbd28dce2	-0.041226275
68	0xbdb3bc8a	-0.08776195
69	0x3da121ae	0.07867752
70	0xbc9f3f8a	-0.019439477
71	0x3d129350	0.03578502
72	0xbcf93735	-0.030421833
73	0x3cf2ab22	0.029622618
74	0x3d595f69	0.053069506
75	0xbdc8c4a9	-0.09803135
76	0xbdaa4aa4	-0.08315018
77	0x3c10819f	0.008819967
78	0xbc110511	-0.008851306
79	0x3d23ccbb	0.039990168
80	0xbca7efa6	-0.020500015
81	0xbc0390f5	-0.008030166
82	0x3d9f2ace	0.07771836
83	0xbdca2904	-0.09871104
84	0x3dbebba5	0.09313134
85	0x3c672646	0.014108246
86	0xbd985c7d	-0.07439516
87	0x3c3366e7	0.010949827
88	0xbcf49ab9	-0.029858934
89	0x3ac4675c	0.0014984417
90	0x3ce0f2fd	0.027459616
91	0xbd9f9371	-0.07791794
92	0x3c197fed	0.009368879
93	0xbd793aba	-0.06084702
94	0xbd601236	-0.054704867
95	0xbc3557c0	-0.0110682845
96	0xbd08f224	-0.03343405
97	0xbcb34c47	-0.021886958
98	0x3cb99707	0.022655023
99	0xbd934767	-0.07191353
100	0xbde30ae2	-0.1108606
101	0x3d85b68b	0.06528958
102	0x3d0142ec	0.031557962
103	0x3cb56475	0.022142628
104	0x3d6bc0b7	0.057556834
105	0x3d6b2f6c	0.057418272
106	0xbe05663c	-0.1302728
107	0xbddfb2ab	-0.1092275
108	0xbcbbc783	-0.022922283
109	0x3d061d0a	0.032742538
110	0x3d917bf2	0.07103719
111	0x3c074f53	0.008258658
112	0x3dfca6ed	0.12336526
113	0x3cdc0904	0.026859768
114	0x3bb85a36	0.0056259884
115	0x3b419221	0.0029536563
116	0x3d55628c	0.052095935
117	0x3dcd1578	0.100138605
118	0xbcc3bd37	-0.023893936
119	0x3cdda23f	0.027054904
120	0x3c861530	0.016367525
121	0x3d66fc71	0.05639309
122	0x3d035696	0.032064997
123	0x3dbbe1ee	0.09173952
124	0x3c988c2d	0.018621529
125	0x3d10c6e8	0.03534594
126	0xbcc37ad5	-0.023862282
127	0x3ac909f6	0.0015338052

layers.block_2.layer.0.weight f4 [128, 128]
0	0xbcc7100c	-0.024299644
1	0x3d23b9ec	0.03997223
2	0x3cf490d7	0.029854221
3	0x3d843a00	0.06456375
4	0x3d23f0d2	0.040024586
5	0x3d274eb2	0.040846534
6	0xbc9b4ba0	-0.01895696
7	0xbd0fd227	-0.035112526
8	0xbde67dbb	-0.1125445
9	0x3dce5c64	0.10076216
10	0x3d3982bf	0.045290705
11	0xbd9cc67e	-0.07655047
12	0xbbba45be	-0.0056845834
13	0x3c3f9dda	0.01169535
14	0x3c2346f2	0.009965645
15	0x3ba533c1	0.00504157
16	0x3d7a196d	0.061059404
17	0xbd9e6cc1	-0.07735587
18	0xbbf7ecf7	-0.00756609
19	0xbc8e9ed6	-0.017409723
20	0x3d42130d	0.04738145
21	0x3c39c399	0.011338138
22	0x3d29afc5	0.041427393
23	0x3ccbee45	0.02489389
24	0x3d3166e7	0.043311026
25	0x3d16238f	0.036655005
26	0xbde6d87e	-0.11271761
27	0x3d1715ec	0.03688614
28	0xbd3b9587	-0.045796897
29	0xbcc73109	-0.024315374
30	0x3c909af0	0.017652005
31	0xbc0fd307	-0.00877834
32	0xbd943e9c	-0.07238504
33	0xbd80e7dc	-0.06294224
34	0xbce4ccb9	-0.02792965
35	0xbd6b44bc	-0.057438597
36	0xbcb6db05	-0.022321234
37	0x3b99b2f9	0.0046905247
38	0xbcca66c6	-0.02470721
39	0xbd8b33bc	-0.06796977
40	0x3a7c83bc	0.0009632667
41	0x3d32cc76	0.04365202
42	0x3c06eba6	0.008234894
43	0x3d42dd62	0.04757441
44	0xbd2ec508	-0.042668372
45	0xbdbd6000	-0.09246826
46	0xbdb7c8d9	-0.089738555
47	0xbdbb1d60	-0.09136462
48	0xbd7bc947	-0.06147125
49	0x3cdaf57d	0.026728386
50	0xbd610d13	-0.05494411
51	0xbd8aa0f5	-0.06768981
52	0x3b952e2c	0.0045526233
53	0x3d64ac4f	0.05582839
54	0x3dad5998	0.08464354
55	0xbd201b41	-0.03908849
56	0xbd72cd04	-0.05927755
57	0x3d85ca15	0.06532685
58	0xbdaa0d58	-0.08303326
59	0x3db3c5b5	0.08777944
60	0xbbff72db	-0.0077956743
61	0x3cd71bcb	0.02625837
62	0x3d15d758	0.03658232
63	0x3dc42870	0.09578025
64	0x3d9ca8d8	0.07649392
65	0xbcb7ce14	-0.022437133
66	0x3dc6ab58	0.0970065
67	0xbc025b3d	-0.007956323
68	0x3d853b43	0.06505444
69	0xbd535e8f	-0.05160385
70	0x3d99eec9	0.07516248
71	0x3cb58956	0.022160213
72	0x3e061caf	0.1309688
73	0x3a9c4cee	0.0011924782
74	0x3d9ab18d	0.075533964
75	0x3dc0a69e	0.0940678
76	0xbcaa3fe1	-0.020782413
77	0xbdfd7902	-0.12376596
78	0xbd2046e8	-0.03913012
79	0xbd8370cf	-0.06418001
80	0xbd358077	-0.044311967
81	0x3d9c1370	0.07620895
82	0x3ca65113	0.020302331
83	0x3e1dc547	0.15407287
84	0xbd478679	-0.048712227
85	0xbd9bf513	-0.076151036
86	0xbbc52ab6	-0.0060170544
87	0xbd4087f3	-0.04700465
88	0xbddd811b	-0.108156405
89	0xbd21bf8e	-0.03948932
90	0x3cefd2cb	0.029275319
91	0xb7f1e2d3	-2.8835062e-05
92	0xbcbb1836	-0.022838693
93	0xbc05b959	-0.008161866
94	0x3d1d8b00	0.03846264
95	0xbcd9176c	-0.026500426
96	0x3d485720	0.048911214
97	0xbd8d0883	-0.06886389
98	0xbddf9e66	-0.10918884
99	0x3d86d3bb	0.06583353
100	0x3c016ddd	0.007899729
101	0x3d19ff47	0.037596967
102	0xbd2a98cc	-0.041649625
103	0x3d269cd3	0.040676903
104	0xbce00f5a	-0.02735107
105	0xbce946aa	-0.028476078
106	0x3d8d302e	0.06893955
107	0x3d854ed5	0.06509177
108	0xbda06214	-0.07831207
109	0xbddc69f6	-0.10762398
110	0x3d41fb2f	0.047358688
111	0x3c1fd492	0.009755271
112	0x3d1e524d	0.038652707
113	0xbd6f8d9d	-0.058484662
114	0xbdd8119f	-0.10550236
115	0x3dbbe84b	0.09175166
116	0x3cd0cbe4	0.025487848
117	0x3d8cd7cb	0.06877097
118	0x3da2e5cd	0.07953987
119	0xbd8b48a3	-0.06800964
120	0xbcf16f21	-0.029471936
121	0x3d7c5fdc	0.061614856
122	0x3c939e5f	0.018019853
123	0xbdf1fe40	-0.118160725
124	0x3cae595d	0.021282846
125	0x3caf1c0a	0.021375675
126	0x3e27df3a	0.16393748
127	0xbdd55c0f	-0.104179494
128	0x3e1ec680	0.15505409
129	0x3e137dbb	0.14403431
130	0xbbc2e07c	-0.005947171
131	0xbdbcea7d	-0.092244126
132	0x3baf585c	0.0053511094
133	0x3d8f7624	0.070049554
134	0xbdc405ef	-0.09571444
135	0x3d80adee	0.062831745
136	0x3c66d035	0.014087726
137	0xbde305a2	-0.11085059
138	0x3d916d7c	0.071009606
139	0xbd79a9c2	-0.06095291
140	0xbdb7bb29	-0.08971245
141	0xbe08dceb	-0.13365524
142	0xbd470d9f	-0.048596974
143	0xbd83ab13	-0.06429114
144	0x3c8f076d	0.017459596
145	0xbd3cb7c2	-0.046073683
146	0x3cf8e578	0.030382857
147	0xbd291ca0	-0.041287065
148	0xbd734313	-0.05939014
149	0xbd5be7f7	-0.053688016
150	0xbdc3e586	-0.095652625
151	0x3cb1f7b1	0.021724554
152	0xbd24b8ad	-0.040215183
153	0xbd95b60a	-0.07310112
154	0xbd83c137	-0.06433337
155	0x3dbb82cb	0.09155806
156	0xbd86c93e	-0.06581353
157	0xbdfd4884	-0.12367347
158	0x3d673218	0.056444257
159	0xbcc113c1	-0.02356899
160	0xbd2134ff	-0.03935718
161	0xbd85a12e	-0.06524883
162	0x3de3e250	0.1112715
163	0xbd9a1446	-0.07523398
164	0xbd0ca914	-0.034340933
165	0x3deab3ca	0.11460073
166	0xbd926d00	-0.07149696
167	0x3d24fe6f	0.04028171
168	0x3d2b296e	0.041787557
169	0xbdaf3d08	-0.08556563
170	0xbda1ee0a	-0.079067305
171	0x3aa7d3a0	0.0012804158
172	0x3d1ad705	0.037802715
173	0xbd8c39da	-0.06846972
174	0xbdd7686d	-0.105179645
175	0x3d0ff898	0.035149187
176	0xbde3536c	-0.11099896
177	0x3cd57e99	0.026061343
178	0x3d44db39	0.04806063
179	0x3dd4b33e	0.1038575
180	0x3d133d0d	0.035946894
181	0x3d3e6212	0.046480246
182	0xbcb09188	-0.02155377
183	0x3d82b717	0.06382578
184	0x3d2c0ec6	0.042006277
185	0xbd0bae65	-0.034101862
186	0x3c330c16	0.0109281745
187	0x3e052ca0	0.13005304
188	0x3c9b1f5a	0.018935848
189	0xbd34c2ef	-0.044131216
190	0x3e0d78f6	0.13815674
191	0xbc519ae0	-0.012793273
192	0xbb85a579	-0.004078564
193	0x3c7ab7ed	0.01530264
194	0xbc9a6e9b	-0.018851569
195	0xbd0237ad	-0.031791378
196	0x3d3f0e1a	0.046644308
197	0xbb62e4b1	-0.0034621174
198	0x3d1967ea	0.037452616
199	0xbd679a80	-0.056543827
200	0x3cda968e	0.026683118
201	0x3c1dd5e6	0.009633517
202	0x3d6777ee	0.05651086
203	0x3d892ef4	0.06698409
204	0x3aaf2a79	0.0013364098
205	0x3e04a67d	0.12954135
206	0xbc4f3a92	-0.012648242
207	0x3d989893	0.07450976
208	0xbd6b45b8	-0.057439536
209	0x3df4bfd5	0.119506516
210	0x3d61c3b3	0.055118274
211	0x3d97324a	0.07382639
212	0x3d743337	0.059619155
213	0x3ccd2a9d	0.025044734
214	0x3dc04385	0.09387878
215	0xbd35bb92	-0.044368334
216	0x3d06bd5d	0.032895435
217	0xbd528107	-0.05139258
218	0xbb283293	-0.002566491
219	0x3c3938e0	0.011305064
220	0xbd27b017	-0.040939417
221	0xbe087e4a	-0.13329425
222	0x3dd84abe	0.10561131
223	0xbe115d92	-0.1419585
224	0xbda17a31	-0.07884634
225	0x3c953d4e	0.018217709
226	0xbdb95cca	-0.09050901
227	0xbcfc4ed7	-0.030799313
228	0xbdee0769	-0.11622507
229	0xbddbd087	-0.10733133
230	0xbda9755a	-0.08274336
231	0x3d806cd0	0.06270754
232	0xbc0f449d	-0.008744386
233	0xbdafe3e7	-0.08588391
234	0xbd0f9de6	-0.035062693
235	0x3d496c10	0.049175322
236	0xbd2a51a6	-0.041581772
237	0xbd337544	-0.043813005
238	0xbc940a3c	-0.018071286
239	0x3d6a04bd	0.057133425
240	0x3d8cef87	0.06881624
241	0x3c78162f	0.015142008
242	0xbc758bef	-0.014986976
243	0x3d655e75	0.055998284
244	0x3dccf26f	0.10007178
245	0xbc3c5b4c	-0.011496376
246	0xbadb32d4	-0.0016723522
247	0xbd7d3e3f	-0.06182694
248	0x3c9efae5	0.019406745
249	0xbd021cee	-0.03176587
250	0xbcc75c5f	-0.024336038
251	0xbb14616e	-0.002264108
252	0x3dc275e3	0.09495141
253	0xbd893a1e	-0.06700538
254	0xbe07e91f	-0.13272522
255	0x3ca2bb07	0.019864572

layers.block_2.layer.0.bias f4 [128]
0	0xbbad4d68	-0.0052887686
1	0xbd26744e	-0.04063826
2	0x3d0e696e	0.034768514
3	0xbb2e9df1	-0.0026644433
4	0xbc73f72d	-0.014890474
5	0x3c3b75ee	0.011441691
6	0x3dfbb0d5	0.122895874
7	0xbca31ce4	-0.019911237
8	0xbd9b46fb	-0.07581898
9	0xbb15ba8d	-0.0022846789
10	0xbdace5f8	-0.084423006
11	0xbda51358	-0.0806033
12	0x3c8d8dc5	0.017279515
13	0x3d9806fe	0.07423209
14	0xbd8aacb5	-0.067712225
15	0x3cceb04b	0.025230547
16	0x3c1eb6f9	0.009687179
17	0x3c96b15a	0.018395115
18	0xbc4027d0	-0.011728242
19	0x3c3cc7b3	0.011522221
20	0xbcb723e1	-0.022355976
21	0xbc1bb3a6	-0.009503281
22	0x3d0f2d37	0.03495523
23	0x3dc2c39e	0.09509967
24	0x3d45ff0b	0.04833893
25	0xbc9f1802	-0.019420628
26	0x3d0c6917	0.03427991
27	0xbda3373c	-0.079695195
28	0xbbbd63fd	-0.005779742
29	0xbdf79479	-0.12088866
30	0xbc6fd3e1	-0.014637918
31	0xbd855a05	-0.065113105
32	0xb9eabefd	-0.00044774255
33	0x3d2f7cfe	0.04284381
34	0x3d6ae57b	0.057347756
35	0xbad2af30	-0.0016073938
36	0xbbeebb14	-0.007285485
37	0x3deb9962	0.11503865
38	0x3e2ad1f0	0.16681647
39	0x3d005cb9	0.031338427
40	0xbdda86da	-0.10670252
41	0x3d06d43b	0.032917242
42	0x3bd260e9	0.006420244
43	0x3d8d3438	0.068947256
44	0x3d983408	0.07431799
45	0xbd9d098a	-0.07667835
46	0x3ceb6bf9	0.028738009
47	0xbc5192a7	-0.012791312
48	0x3d288abb	0.04114793
49	0xbd5d335a	-0.05400405
50	0x3b83f505	0.0040270113
51	0xbd2bfddc	-0.041990146
52	0xbbd2e7bb	-0.006436316
53	0xbce10737	-0.02746926
54	0x3cb373ae	0.021905746
55	0xbcc83475	-0.024439076
56	0xbc574611	-0.013139264
57	0x3d90f0b2	0.07077159
58	0xb9f23f6a	-0.00046205084
59	0xbc387130	-0.011257455
60	0x3d33b140	0.04387021
61	0x3c134823	0.008989367
62	0xbcae31e6	-0.021264028
63	0x3d5fdf11	0.054656092
64	0xbd8c8998	-0.068621814
65	0xbda8c075	-0.08239833
66	0xbcf074bb	-0.029352536
67	0x3d958a17	0.07301729
68	0xbd8e7145	-0.06955198
69	0x3d7252d4	0.059161022
70	0x3dc3ee0b	0.095668875
71	0xbdcd9a00	-0.10039139
72	0xbd41314f	-0.047166165
73	0xbcb03d35	-0.02151356
74	0x3d8c321d	0.06845496
75	0xbb1b2946	-0.0023675724
76	0x3d51b2f4	0.051196054
77	0x3c74a974	0.014932979
78	0xbd5234e3	-0.051319968
79	0xbdad5bcd	-0.08464775
80	0x3d7b5be6	0.061366938
81	0xbccae1fa	-0.024765957
82	0x3d734cfc	0.05939959
83	0xbd02bfc1	-0.031921152
84	0x3d582be7	0.052776244
85	0x3d8902f9	0.0669002
86	0x3d977226	0.07394819
87	0xbd41c34a	-0.047305383
88	0xbd220b36	-0.039561473
89	0xbdb4b5eb	-0.088237606
90	0x3d9c55c5	0.07633547
91	0xbda727fc	-0.08161923
92	0xbb81e7df	-0.0039644088
93	0x3d513747	0.051078107
94	0x3c08c9e7	0.0083489185
95	0xbc34f002	-0.01104355
96	0x3d0eb67f	0.03484201
97	0x3d025aab	0.03182475
98	0x3db4d1cb	0.08829077
99	0xbd8ff21e	-0.07028602
100	0x3ce7a3f5	0.028276423
101	0xbb937549	-0.0045000655
102	0x3c885a53	0.016644632
103	0xbdb813cd	-0.08988152
104	0x3cd78506	0.026308548
105	0x3d5f0720	0.054450154
106	0xbc879a0e	-0.016552951
107	0x3d6e13e5	0.05812444
108	0xbbe83c93	-0.007087299
109	0xbdd91c6c	-0.10601124
110	0x3d8a1e1e	0.06744026
111	0x3d5b5f0d	0.053557444
112	0xbcf8c1c8	-0.03036584
113	0x3c65238c	0.013985526
114	0x3ddba2e1	0.10724426
115	0xbbbe5f29	-0.005809684
116	0x3e0009d2	0.12503746
117	0x3cb1b156	0.021691006
118	0x3bc9085c	0.0061350297
119	0x3dace00f	0.08441173
120	0x3df0c463	0.11756208
121	0xbd3df8dd	-0.046379913
122	0xbc20893f	-0.009798347
123	0x3d49c8ca	0.049263753
124	0x3d20b0ff	0.039231297
125	0xbb4698ff	-0.0030303595
126	0xbdeb03d7	-0.11475342
127	0xbd26e846	-0.040748857

layers.block_3.layer.0.weight f4 [128, 128]
0	0x3d855ae2	0.06511475
1	0x3dc76903	0.09736826
2	0xbe35d16e	-0.17755672
3	0x3d495ec3	0.049162637
4	0x3d55ba33	0.052179527
5	0x3d1c7f53	0.038207363
6	0x3d40d01e	0.047073476
7	0x3dc0a1ea	0.09405883
8	0x3d74d078	0.059769124
9	0x3dd7d596	0.10538785
10	0xbe05057c	-0.12990373
11	0x3d672c4c	0.05643873
12	0x3cd11436	0.025522333
13	0xbd024794	-0.031806543
14	0x3d60dc01	0.054897312
15	0xbd8dc8d1	-0.06923068
16	0x3d4081e0	0.04699886
17	0x3d1818f8	0.037133187
18	0xbcea025c	-0.028565578
19	0xbd8bc3b6	-0.06824438
20	0x3e07ca3d	0.13260742
21	0x3cd56662	0.026049796
22	0xbd569604	-0.05238916
23	0x3cf102ae	0.029420223
24	0x3d0c7ccb	0.0342987
25	0x3c0af821	0.00848201
26	0xbe1d3017	-0.15350376
27	0x3d3794d9	0.044819687
28	0xbd6d060a	-0.057867087
29	0xbddb2d43	-0.10701992
30	0xbd634305	-0.055483837
31	0xbdaedd76	-0.08538334
32	0xbd2a0d8d	-0.04151683
33	0xbd22d5eb	-0.03975479
34	0xbd814534	-0.063120276
35	0x3dd727d7	0.10505646
36	0xbda3ea42	-0.080036655
37	0xbd982a8a	-0.07429989
38	0xbd848e25	-0.064724244
39	0xbbe8c034	-0.0071029905
40	0xbcd24941	-0.025669696
41	0xbd1261c8	-0.035737783
42	0xbddd36fd	-0.10801504
43	0xbdb09676	-0.08622448
44	0x3d6a132f	0.0571472
45	0xbdacc6a0	-0.08436322
46	0x3c9c7256	0.019097488
47	0x3ce12b56	0.027486484
48	0xbc0dee16	-0.008662721
49	0x3da46278	0.08026594
50	0x3cb44f14	0.022010364
51	0xbc0230ee	-0.007946236
52	0x3dc96e75	0.09835521
53	0x3c81958d	0.015818382
54	0xbd8f587a	-0.069992974
55	0xbd8aa05f	-0.067688696
56	0xbdd995b3	-0.10624256
57	0x3d71b875	0.059013803
58	0x3d80cc4f	0.06288969
59	0xbd84c510	-0.06482899
60	0xbdee1421	-0.11624933
61	0x3d7ea967	0.062173273
62	0x3d8a432b	0.067510925
63	0x3de1798f	0.110095136
64	0xbd92ad4a	-0.071619585
65	0xbd9c0647	-0.07618385
66	0x3dcf32d2	0.10117115
67	0xbc97b726	-0.01851995
68	0xbd975c6b	-0.07390674
69	0x3da4b483	0.080422424
70	0x3c7e598e	0.015524281
71	0x3e0f4560	0.13991308
72	0x3cc7afb7	0.02437578
73	0xbc472ed5	-0.012157162
74	0xbdb9f062	-0.090790525
75	0xbdbd5848	-0.09245354
76	0xbd8729ce	-0.065997705
77	0xbdd02105	-0.10162548
78	0x3cdad506	0.026712906
79	0xbd759df3	-0.059965085
80	0x3d8683fa	0.06568141
81	0x3da89ca8	0.08233005
82	0x3d2412a8	0.040056854
83	0xbd9307d9	-0.07179231
84	0xbd05af5a	-0.03263793
85	0x3d0d1340	0.034442186
86	0xbcedcb3a	-0.02902757
87	0xbdba32d4	-0.09091726
88	0xbcda8c17	-0.026678128
89	0x3d58ec87	0.052959945
90	0xbb85fdf6	-0.0040891124
91	0xbc5b81b9	-0.0133976275
92	0xbe24926b	-0.16071479
93	0xbdbeccde	-0.09316419
94	0xbd3f8998	-0.04676208
95	0x3ca31147	0.0199057
96	0xbcf147f0	-0.029453248
97	0xbd79d173	-0.060990762
98	0x3dbbd64e	0.09171735
99	0xbd23be97	-0.039976683
100	0xbda62de7	-0.08114224
101	0xbcaeee1e	-0.021353777
102	0x3da31b92	0.07964243
103	0x3e1bf1a7	0.15228902
104	0xbcc998d2	-0.024609003
105	0x3d7f6f16	0.0623618
106	0xbc9cf928	-0.019161776
107	0xbdffe3f6	-0.12494652
108	0x3da7b367	0.08188515
109	0x3cea473b	0.028598418
110	0xbd9f56ac	-0.07780203
111	0xbd8a4554	-0.067515045
112	0x3d5cacfa	0.0538759
113	0x3d3f39ca	0.04668597
114	0x3d84b4b8	0.06479782
115	0x3c908f40	0.017646432
116	0x3cc53487	0.024072899
117	0xbd6ad035	-0.057327468
118	0x3d212194	0.039338663
119	0xbd8a6d59	-0.06759138
120	0xbcf4a0ae	-0.029861774
121	0xbd2d7c0f	-0.04235464
122	0x3d963482	0.07334234
123	0xbce730e2	-0.028221551
124	0x3d0a0b1a	0.033701994
125	0xbd9133dd	-0.0708997
126	0xbda4c91a	-0.080461696
127	0xbd257057	-0.04039034
128	0xbdc161f8	-0.09442514
129	0xbb672b20	-0.0035273507
130	0xbd1b2fae	-0.037887268
131	0xbd8e19bd	-0.06938503
132	0xbd47f990	-0.048821986
133	0x3c96c710	0.018405467
134	0x3c57328e	0.013134612
135	0x3ce73115	0.028221646
136	0x3d21da92	0.039515086
137	0x3e198415	0.14991792
138	0xbdae2c83	-0.08504584
139	0xbdc11a14	-0.09428802
140	0xbcbb4c2f	-0.022863476
141	0xbde63dcb	-0.11242255
142	0xbe4797a9	-0.19491448
143	0x3cc975b9	0.024592267
144	0xbbd36b1f	-0.006451979
145	0x3dc63dce	0.09679757
146	0xbc62229f	-0.0138022
147	0xbe0293bc	-0.12751669
148	0x3debcc7c	0.11513612
149	0x3daaee64	0.08346251
150	0xbb1e1618	-0.0024122056
151	0x3ddc1eca	0.1074806
152	0x3dbc3441	0.09189654
153	0xbc378cc0	-0.011202991
154	0xbd28807b	-0.041138154
155	0xba8f9276	-0.0010953683
156	0x3e03ddf0	0.12877631
157	0xbcdfacfb	-0.027304163
158	0xbc7de2cd	-0.015495968
159	0xbe04a094	-0.1295188
160	0xbdbf6228	-0.09344894
161	0xbbe4ecb7	-0.0069862264
162	0x3db1b5d5	0.0867726
163	0x3dc06ce0	0.09395766
164	0x3cc8d8b1	0.024517389
165	0xbe60cfa9	-0.21954216
166	0xbd2bb6a3	-0.041922223
167	0x3e23b5eb	0.15987365
168	0xbc8c8b39	-0.01715623
169	0xbe144c88	-0.1448232
170	0x3e120c3a	0.14262477
171	0xbe1a4a94	-0.15067512
172	0x3d2f427c	0.042788014
173	0x3c954b26	0.01822431
174	0x3dd517d8	0.104049385
175	0xbdd78064	-0.105225354
176	0x3d89a547	0.06720977
177	0x3e1af2a2	0.1513162
178	0x3d249a7f	0.0401864
179	0xbd6d77b2	-0.05797548
180	0x3dac3ec1	0.08410407
181	0xbd09bc54	-0.03362687
182	0xbc052b1b	-0.008127953
183	0x3cb1c13b	0.021698585
184	0x3c5926eb	0.013253908
185	0xbcab72c1	-0.020928742
186	0x3d56b2ee	0.052416734
187	0x3cd2059a	0.025637437
188	0xbd844e4c	-0.064602464
189	0x3da6bbc5	0.08141283
190	0x3d578a3c	0.052622065
191	0xbce881f0	-0.028382272
192	0xbd40596d	-0.046960283
193	0x3d46e00c	0.04855351
194	0x3db833cd	0.08994255
195	0x3d18e59a	0.03732834
196	0xbd39c786	-0.045356296
197	0x3db3bca3	0.08776214
198	0xbe0667ae	-0.13125488
199	0x3e0c6630	0.13710856
200	0xbda4e497	-0.080514126
201	0xbd8285d3	-0.06373181
202	0xbd880af1	-0.06642712
203	0x3ced5521	0.028971257
204	0x3c8da335	0.017289737
205	0xbd84894a	-0.06471498
206	0xbd21b93b	-0.03948329
207	0xbdc9982d	-0.09843478
208	0xbd8461ef	-0.06463992
209	0xbd812ce5	-0.06307391
210	0x3da594b1	0.08085001
211	0xbd760fd6	-0.060073696
212	0x3d20b2ac	0.039232895
213	0xbdccc201	-0.09997941
214	0x3b55caec	0.0032622172
215	0x3d82daa5	0.063893594
216	0xbdc6a25b	-0.096989356
217	0x3d36146a	0.044453062
218	0xbd9386ef	-0.07203471
219	0xbddc0d10	-0.10744679
220	0x3c65cdc0	0.014026105
221	0x3c4b08e8	0.01239226
222	0x3e0ab3a0	0.13545084
223	0x3d1af2b8	0.03782913
224	0xbdb7afdd	-0.0896909
225	0xbd0a2079	-0.033722375
226	0xbcb17a49	-0.021664755
227	0x3d7aaa79	0.06119773
228	0xbd5477d1	-0.05187208
229	0xbda177b3	-0.07884159
230	0x3cdda71a	0.02705722
231	0xbddf91bc	-0.109164685
232	0xbcf0b8a2	-0.029384915
233	0xbdac76d6	-0.08421104
234	0x3e596e1a	0.21233407
235	0xbe0cdddc	-0.13756508
236	0x3d85bd2d	0.06530223
237	0x3adbd73f	0.0016772522
238	0x3e3b5cd0	0.18297124
239	0x3d24f9f5	0.04027744
240	0xbd844e9e	-0.064603075
241	0xbc449613	-0.011998671
242	0x3dd1a119	0.10235805
243	0xbd3c4f00	-0.045973778
244	0x3d186c6c	0.037212774
245	0xbd544e1b	-0.0518323
246	0xbd8ca105	-0.068666495
247	0x3d7a8054	0.06115754
248	0x3cc0a8f2	0.02351806
249	0xbdaabd63	-0.08336904
250	0x3d43c862	0.04779852
251	0x3d23bae7	0.039973166
252	0xbced383a	-0.028957475
253	0xbbaadd1d	-0.005214347
254	0xbd0bf3e0	-0.034168124
255	0xbdc3bed2	-0.095578805

layers.block_3.layer.0.bias f4 [128]
0	0x3d86f7ab	0.06590208
1	0x3c7d90a0	0.015476376
2	0x3d14f957	0.0363706
3	0x3d357e40	0.044309855
4	0x3d64f21f	0.055894967
5	0xbd05cfcc	-0.032668874
6	0xbd6bf65d	-0.057607997
7	0xbd2369b0	-0.039895713
8	0x3d8d51bc	0.06900355
9	0x3d686a48	0.056741983
10	0xbd2605aa	-0.040532745
11	0xbd7310d9	-0.05934224
12	0x3dd1cfb9	0.10244698
13	0x3c939d0d	0.018019224
14	0xbd8ff04b	-0.07028254
15	0x3d990ac0	0.074727535
16	0xbcdeeab7	-0.02721153
17	0xbcbaf15a	-0.022820164
18	0xbab777d9	-0.0013997509
19	0x3ca7e181	0.02049327
20	0x3d823e20	0.06359506
21	0x3d204886	0.039131664
22	0x3c81aab9	0.015828477
23	0xbd1eee21	-0.038801316
24	0x3c830326	0.015992712
25	0xbd1a2fe9	-0.037643347
26	0xbd5a5a38	-0.053308696
27	0x3d5b6649	0.053564344
28	0x3d4eebe9	0.05051795
29	0x3d16550f	0.036702212
30	0x3dcd9a20	0.10039163
31	0x3dbfd075	0.09365932
32	0xbc67538e	-0.014119042
33	0x3d851a3a	0.06499143
34	0xb99a4514	-0.00029424636
35	0x3d016c8c	0.03159766
36	0xbbb0337b	-0.0053772307
37	0xbb361ddf	-0.00277888
38	0x3bf32784	0.007420482
39	0xbd37b102	-0.044846542
40	0x3d86034f	0.065436
41	0x3d84a76a	0.06477244
42	0xbcdfe951	-0.027332934
43	0xb9f55e6d	-0.00046800394
44	0xbda99b01	-0.08281518
45	0xbd0ae9e5	-0.033914465
46	0x3d7ca487	0.061680343
47	0xbd027e9b	-0.03185902
48	0xbd715606	-0.05891993
49	0xbce8343a	-0.028345216
50	0xba098e85	-0.00052473723
51	0x3db6fa43	0.089344524
52	0xbd816e6e	-0.06319891
53	0xbd39a53a	-0.045323588
54	0x3d21d6e4	0.039511576
55	0xbc060523	-0.008179936
56	0xbafafabc	-0.0019148211
57	0xbd948c6a	-0.07253344
58	0xbd3e4ffc	-0.046462998
59	0x3c2c8427	0.010529554
60	0xbc935914	-0.017986812
61	0x3c8d7038	0.017265424
62	0x3dae0f56	0.08499019
63	0x3da39dea	0.07989104
64	0x3d4ad9a4	0.049523965
65	0x3ddbde21	0.10735727
66	0xbb5555a3	-0.0032552264
67	0x3d4b1def	0.049589094
68	0x3d1ce299	0.038302038
69	0xbd3c5227	-0.045976784
70	0xbd51a953	-0.05118687
71	0xbd5f02b8	-0.054445952
72	0x3c45a01f	0.012062102
73	0x3ce52b90	0.027974874
74	0x3cefc2fb	0.029267779
75	0x3d89f9c3	0.067370914
76	0x3d9bef5f	0.07614016
77	0x3d1f56b7	0.038901057
78	0xbcd1e521	-0.025621952
79	0x3d17d08e	0.037064128
80	0x3d518adb	0.051157814
81	0x3d38e766	0.045142554
82	0x3d9cd389	0.07657535
83	0xbd9f1013	-0.07766738
84	0x3d8daf01	0.06918145
85	0xbc9fa41b	-0.019487431
86	0x3d8b4e80	0.06802082
87	0x3c1e87b0	0.009675905
88	0xbd94b8e2	-0.07261826
89	0x3caf317b	0.021385899
90	0x3cbf681a	0.02336507
91	0x3cc4fd76	0.02404664
92	0xbd5a0e47	-0.053236272
93	0xbd5b41c1	-0.053529505
94	0xbcfdda09	-0.030987756
95	0xbd80e116	-0.06292932
96	0xbca8c9f7	-0.020604117
97	0xbcdc0715	-0.026858846
98	0x3db3220e	0.0874673
99	0xbc4f8077	-0.012664906
100	0x3d97d914	0.07414451
101	0xbca88798	-0.020572469
102	0xbd2cf25b	-0.042223316
103	0xbcc02c6b	-0.02345868
104	0x3d219f07	0.0394583
105	0x3d8924d4	0.066964775
106	0x3d1e85b2	0.03870172
107	0x3d98b027	0.074554734
108	0xba205abe	-0.0006117037
109	0x3cb7df6c	0.022445403
110	0x3d2402a5	0.040041585
111	0xbd334bf0	-0.04377359
112	0xbc4e4498	-0.012589596
113	0x3b5d9ba8	0.0033814702
114	0x3db93e57	0.090450935
115	0xbcc702f5	-0.024293402
116	0xbd6d38fe	-0.05791568
117	0x3c8dd58d	0.017313743
118	0xbc53517c	-0.012897845
119	0x3d8f970b	0.07011231
120	0xbba46e85	-0.005018058
121	0x3d427045	0.04747035
122	0xbd5b4ecb	-0.05354194
123	0xbcc389ef	-0.023869483
124	0x3cab0ebb	0.020881047
125	0xbce24a22	-0.02762324
126	0xbc34f3ff	-0.011044501
127	0x3c29a807	0.010355002

layers.output.weight f4 [2, 128]
0	0x3d1ff01c	0.039047346
1	0xbf5066dd	-0.81406957
2	0xbceb1009	-0.02869417
3	0x3e415859	0.18881358
4	0xbf575699	-0.8411651
5	0x3f0f7eea	0.5605303
6	0x3e19edc5	0.15032108
7	0x3b4f214c	0.003160554
8	0xbdbc18f9	-0.09184451
9	0xbf184051	-0.5947314
10	0x3e904f95	0.28185716
11	0x3e03e43e	0.12880036
12	0x3f5e3385	0.8679736
13	0xbf2dac56	-0.6784109
14	0xbe02d50d	-0.12776585
15	0x3e1de83b	0.1542062
16	0xbed3e824	-0.41388047
17	0xbe6911e9	-0.22760738
18	0xbf37cecb	-0.71799916
19	0xbeddcdfd	-0.4332122
20	0xbe500a48	-0.20316422
21	0x3d128ff0	0.0357818
22	0x3e3c9341	0.18415548
23	0xbdabf0a7	-0.0839551
24	0x3d7ba749	0.061438832
25	0xbe396fbc	-0.1810903
26	0xbe37e9cb	-0.17960279
27	0xbdda819f	-0.106692545
28	0xbef92b79	-0.4866598
29	0xbf272428	-0.65289545
30	0xbba95165	-0.0051671737
31	0x3cf051bb	0.029335847
32	0x3e373776	0.1789225
33	0x3e21a873	0.15786915
34	0xbe67f8ea	-0.22653547
35	0xbccae5db	-0.024767807
36	0xbdec58d9	-0.11540384
37	0xbcbf68c4	-0.023365386
38	0x3ea26bb6	0.31722802
39	0x3f51a849	0.8189741
40	0xbdae785c	-0.085190505
41	0x3db63ee8	0.08898717
42	0x3e7dd223	0.24787192
43	0x3e3e9ed7	0.1861528
44	0x3efc6675	0.4929692
45	0xbc3f00bd	-0.011657891
46	0x3e983cff	0.29734036
47	0xbd5b82b2	-0.053591438
48	0xbf910f5c	-1.1332812
49	0x3f54aeab	0.8307902
50	0xbe4b6f1d	-0.19866605
51	0xbdbf15f5	-0.0933036
52	0xbeb5cabe	-0.35506243
53	0x3e00824d	0.12549706
54	0xbe6eab5f	-0.2330756
55	0xbd166a41	-0.036722425
56	0xbde4bbd3	-0.11168637
57	0x3b89c511	0.0042044003
58	0xbe463a1f	-0.19358109
59	0x3e85a38d	0.26101342
60	0x3eb4ef67	0.353389
61	0x3e0fedf6	0.14055619
62	0xbdd8cfd4	-0.10586515
63	0x3e342e4f	0.1759579
64	0x3d97ac81	0.074059494
65	0xbfa767f4	-1.3078599
66	0x3df1ad4f	0.11800634
67	0x3e61c7ba	0.22048846
68	0x3cdda05e	0.027054008
69	0x3e3c4416	0.18385348
70	0x3da711ae	0.08157669
71	0xbf4a7ba3	-0.79094905
72	0x3db3d1f9	0.087802835
73	0xbda97811	-0.08274854
74	0x3db7849b	0.08960839
75	0xbe1923a4	-0.14955002
76	0x3dc4d601	0.096111305
77	0x3e660024	0.22460991
78	0x3e7f3bc2	0.2492514
79	0x3d70c6d1	0.058783356
80	0xb8bdab22	-9.044098e-05
81	0xbf810d39	-1.008216
82	0xbf423c45	-0.75873214
83	0x3ef132db	0.47109112
84	0xbe00b46d	-0.12568827
85	0x3e26c29d	0.16285177
86	0x3d89b682	0.06724264
87	0xbd3b5041	-0.045730833
88	0xbe05bcbd	-0.13060279
89	0x3c4ead8d	0.01261462
90	0xbe06e0ed	-0.1317174
91	0x3d6daa7a	0.058023907
92	0x3ef8fd07	0.48630545
93	0xbf3ce1f6	-0.7378229
94	0xbb340b52	-0.0027472568
95	0x3d88965e	0.06669305
96	0x3cd1c55b	0.025606802
97	0x3d7481d1	0.059694115
98	0xbd6b62cc	-0.057467267
99	0x3dd9bca0	0.106316805
100	0x3f21a923	0.6314871
101	0x3e22a07c	0.15881532
102	0xbd1cb6f2	-0.038260408
103	0x3e1056be	0.1409559
104	0x3e3a9092	0.18219212
105	0x3f95fe6b	1.1718267
106	0x3e858f29	0.26085785
107	0x3d42ff5d	0.047606815
108	0xbde7ba44	-0.11314824
109	0xbd930247	-0.07178169
110	0x3d0cd55f	0.034383174
111	0xbf163440	-0.5867348
112	0x3e9a73fc	0.30166614
113	0x3e42bac5	0.1901656
114	0x3e0c025b	0.13672774
115	0xbb1f6a05	-0.0024324667
116	0xbcba8f51	-0.022773417
117	0x3da80d50	0.08205664
118	0x3f23afba	0.6394001
119	0xbd3046e2	-0.04303635
120	0x3db30ab0	0.08742273
121	0xbe3695ce	-0.17830583
122	0x3da9c6d7	0.08289879
123	0xbd06c7c1	-0.032905344
124	0x3dea9b85	0.11455444
125	0xbf1f01cb	-0.6211211
126	0x3d9dd8a7	0.07707339
127	0x3ccde99f	0.025135813
128	0x3e4e601f	0.20153855
129	0x3f0ad306	0.54228246
130	0x3dd381e7	0.10327511
131	0x3d8d849d	0.069100596
132	0x3f5cca57	0.86246246
133	0xbf47c49a	-0.78034365
134	0x3e3852c3	0.18000321
135	0x3e3ce6eb	0.18447463
136	0x3d6691b5	0.0562913
137	0x3d0c678b	0.034278434
138	0xbee4c884	-0.4468423
139	0x3d47459a	0.04865036
140	0xbd9cbb84	-0.07652953
141	0x3f480bfb	0.7814328
142	0xbdd30fa0	-0.103057146
143	0xbe3fe388	-0.1873914
144	0xbf143012	-0.5788585
145	0x3cdeceda	0.027198244
146	0x3e4c87b9	0.19973649
147	0x3dc6d548	0.09708649
148	0xbd38f21b	-0.045152765
149	0x3dde26ef	0.1084727
150	0x3e6f6f4b	0.23382299
151	0x3dde3db4	0.10851613
152	0x3dc08969	0.09401209
153	0xbdba8fb5	-0.09109441
154	0x3f08accb	0.5338866
155	0x3d299ad7	0.041407432
156	0x3f124805	0.57141143
157	0x3f371bef	0.71527
158	0x3e615ec0	0.220088
159	0xbcf065d3	-0.029345429
160	0x3c6d6d4a	0.014491389
161	0xbe1b3d98	-0.15160215
162	0xbc65fdff	-0.014037608
163	0xbdb7edc1	-0.08980895
164	0x3dc83871	0.0977639
165	0xbdbbc890	-0.09169114
166	0xbee7a49a	-0.4524277
167	0x3e101110	0.14069009
168	0xbe5341a0	-0.20630503
169	0xbd21dff5	-0.039520223
170	0xbd4ca824	-0.04996504
171	0xbee75c1c	-0.4518746
172	0xbe9fbbff	-0.31198117
173	0x3ecb5a57	0.3971736
174	0xbe362208	-0.1778642
175	0xbdc8a8a5	-0.097977914
176	0xbd9762f8	-0.07391924
177	0xbed76cca	-0.42075187
178	0x3c524a22	0.012835057
179	0xbe524e8a	-0.20537773
180	0x3ed04839	0.40680102
181	0x3d1f2131	0.038850013
182	0xbda72141	-0.081606396
183	0xbe8e5bc5	-0.2780439
184	0x3de298da	0.1106431
185	0x3e8b3b78	0.2719381
186	0xbdc67082	-0.09689428
187	0xbf167161	-0.5876675
188	0x3eec792b	0.46186194
189	0x3dabbecc	0.08386001
190	0x3e2be6f2	0.16787317
191	0xbdfe5df3	-0.12420263
192	0xbdde1973	-0.10844698
193	0xbebbb1d9	-0.36659124
194	0x3d09a2a6	0.03360238
195	0x3e061b7a	0.13096419
196	0x3e06d1d9	0.13165988
197	0x3d972e20	0.073818445
198	0xbd93603d	-0.0719609
199	0x3f591897	0.84803146
200	0xbd584d32	-0.052807994
201	0xbe1c7984	-0.1528073
202	0x3e2c6b31	0.16837765
203	0x3cf6e2eb	0.0301375
204	0x3e174ca6	0.14775333
205	0xbb9bed5a	-0.004758519
206	0xbec0aa1a	-0.37629777
207	0xbc345a49	-0.011007854
208	0xbd1304d7	-0.035893288
209	0x3f0ec69a	0.5577179
210	0xbe167ec6	-0.14696798
211	0xbf03d9a6	-0.5150398
212	0x3cb206ef	0.021731822
213	0xbe00fb7f	-0.12595938
214	0x3e3580b1	0.17724873
215	0xbe5b5c8d	-0.21422024
216	0xbdc500fb	-0.09619328
217	0x3e9d0b8f	0.3067288
218	0x3f1d8e67	0.61545414
219	0xbe6577b1	-0.2240894
220	0xbf260e48	-0.6486554
221	0x3ee70cb0	0.45126867
222	0x3e69c979	0.22830762
223	0x3de27334	0.110571295
224	0x3e570ab2	0.21000174
225	0xbe0383bd	-0.12843223
226	0xbc6fab2d	-0.014628214
227	0xbe863550	-0.2621255
228	0x3ea1a4a0	0.3157091
229	0x3dbde8ba	0.09272905
230	0x3e7821a5	0.24231584
231	0x3e8a74fa	0.2704237
232	0x3e4117cf	0.18856739
233	0xbea2127a	-0.31654721
234	0x3d95fc12	0.07323469
235	0xbe3e9b70	-0.18613982
236	0xbe869902	-0.2628861
237	0xbdd0e797	-0.10200422
238	0x3e42abb9	0.1901082
239	0xbf1507e1	-0.5821515
240	0xbd82b2b9	-0.06381745
241	0x3e38a4ad	0.18031569
242	0x3dfd766f	0.12376105
243	0x3e9944d6	0.2993533
244	0x3d9a0368	0.07520181
245	0x3dd0b669	0.10191042
246	0xbeb16dd0	-0.34654093
247	0x3d194e28	0.03742805
248	0x3df9d665	0.12199096
249	0x3f0c4dc9	0.5480619
250	0xbcb91bf6	-0.02259634
251	0x3d2e7aa4	0.042597428
252	0x3e19aec7	0.15008079
253	0x3f20b0ec	0.6276996
254	0xbeaaae4c	-0.33336103
255	0x3d8eb442	0.06967975

layers.output.bias f4 [2]
0	0x3e2e8c77	0.1704577
1	0xbdb6b574	-0.08921328
