results/SMOTE20K/smote420/smote0.45/model.pth (torch, 205093 bytes, 10 tensors)

layers.block_0.layer.0.weight f4 [128, 2]
00000000: 93dd b9be f62e 1fbe e596 663f 537b c33e
00000010: 4b01 38bf f88d ebbd 46cd 64be 0fa5 183f
00000020: 8ba0 13bf c503 213f 0148 b9be d488 253f
00000030: 711d 29be 4a43 cebe f8fa 20be 962b 193f
00000040: 96d0 6a3f 2438 9bbe 8d3e 3b3f e5bc b13e
00000050: 6ab5 2b3f 0dde a93e 5f4f 463f edd6 a5be
00000060: 3523 d23e b383 08bf 2d7f 5e3f afba cb3e
00000070: 172c 633f 0f0f 003e 44e0 7abf a2ba 8fbe
00000080: 9ec2 2bbf f838 643e 421e f1be 4d72 14bf
00000090: ca38 cfbe 5438 f53e ab45 bb3e c654 ffbe
000000a0: 0022 74bf 1473 ea3e 751c 34bf 2afd 96be
000000b0: 2e1c 2e3f 1812 2ebf 2990 3dbf 2019 f13e
000000c0: be82 46bf ece4 913e 9477 603f 65b6 393f
000000d0: 8f24 2c3f 23e0 0d3f 5e38 143e c1c0 083f
000000e0: febe c3bf 7f4c 3dbe 4554 d4be f274 21bf
000000f0: df74 23be ff12 acbe 5222 633e 4f41 373f
00000100: 4859 503d 4482 33bf a487 1d3f 00ec 4abe
00000110: fe9c 91bf 63bf d8bd 21ae fabd a491 d03e
00000120: f235 6abf 96e7 a8be 5694 84bf 1a0e fdbe
00000130: ab4c 1d3f 4036 043c 6e3a 8a3f 60b9 2d3e
00000140: ff1d 7fbf b868 ac3e f2b2 a5bd 5365 a43e
00000150: 5452 593f 9ca8 e8be 3fde 633e 59f2 f03e
00000160: b839 843f 3d26 043e af3b 6bbf 7c36 093f
00000170: ed5b 95bf 09e4 2bbe 04a9 423f 7070 163f
00000180: d29b e6be da4e 333f 9839 1ebf 426b f6be
00000190: 6dcf d83e 5730 a1be 4a41 6cbf 7761 f73c
000001a0: f199 973f d493 103e f0c8 81be ee65 00bf
000001b0: e733 363f 2312 6cbe 33c3 45be 8570 a9be
000001c0: 1a3d 303f 947a ffbe aee8 323f 448e a43e
000001d0: bb51 42bf 7870 2dbe 0ce2 653e bf6f 223f
000001e0: cf5c 323e fd2d 0bbf e236 0bbf e8d9 293e
000001f0: 5456 37bf 2752 20bf a998 98be a857 253f
00000200: 55b4 883f 4369 cbbe b08f 0d3f ca74 1b3c
00000210: a9c6 c43e 2847 3fbe e6c9 7bbf 9a49 c83e
00000220: 64d6 cb3e ce79 7a3d e468 7e3f 2bd0 203f
00000230: 983c 72bf 18ff 243c 738f 10bf 60c6 15be
00000240: f284 67bf 7925 1abe bba8 0d3f 7bea 97be
00000250: b3a2 3b3d e778 0a3f aea9 10bf 97c0 843e
00000260: 5aae 07bf 8601 0c3f a5e2 df3c e719 573f
00000270: 0b72 0abf 7f4f d3be d6d3 313f 2871 d6bd
00000280: 6714 eebd 8e44 47bf 60a7 693f 513c 223f
00000290: 3487 40bf 5188 26be b2fa 9f3f 1027 5a3e
000002a0: 4b16 3fbf 23c1 de3e ea0b 21bf 7bd1 9cbe
000002b0: a906 c3be a00e 093f a805 2e3f c112 1c3e
000002c0: 5132 dfbd b691 3c3f b13d 2d3f bd83 3bba
000002d0: 2361 48bd 0409 fc3e 47c5 803f 797d 113f
000002e0: fa30 0bbe 4c4d 363f acdb 7e3f 5de2 32be
000002f0: 500c 863e 678b 34bf 5e68 a53e e11e 77be
00000300: 399a 823f 3740 a2bb ec5f 3fbf 548b 443d
00000310: 4d3a 20bf 2ca8 c93e 1482 fbbe 872c e63e
00000320: 1da3 583e 2648 cd3e d67e 40bf 00a7 033f
00000330: cf47 993e 7c60 843d f573 993f 98c0 25bf
00000340: ab4a 58bf d267 c0be dfb1 303f ebac 6bbe
00000350: 035b f23e c129 6abe 4594 94bf ec7b 7bbe
00000360: 15fb debe fee7 f23e b30f 03bf 90d7 5abe
00000370: 2c67 bd3e dd05 0a3f 922e 8dbf 36a3 403e
00000380: 557a 48bf 090a f63e 8a49 833f 8ae9 ca3d
00000390: 9ef6 4e3f 5f1b e5be 6fda 613f 8e9f d6be
000003a0: 7a6f 45bf 0a94 a1be 65c7 06be 3c30 7fbe
000003b0: d723 f0be 37f6 bfbc 9a4d 82bf 1d9e 9a3e
000003c0: f209 14bf 3624 eebe 5f66 a53e 1ac0 3dbf
000003d0: 92d1 f9be 8f88 db3e e975 46bf f6de f13e
000003e0: 2bbb 393f b5f0 053f e810 a8bf 3baa cc3e
000003f0: b8ac 0a3f f2de 473f 1d22 1e3f 93a1 a53e
-0.3630186 -0.15545258 0.90073997 0.38180026 -0.7187697 -0.11501688 -0.2234393 0.5962686
-0.57666844 0.62896377 -0.36187747 0.6466191 -0.16515137 -0.40285712 -0.15720737 0.5983213
0.91724527 -0.3031627 0.7314232 0.34714428 0.6707369 0.33177224 0.7746486 -0.32390538
0.41042486 -0.5332596 0.86912805 0.39790866 0.8873915 0.12505744 -0.9799845 -0.28072077
-0.6709384 0.22287357 -0.47093397 -0.5798691 -0.40473014 0.47894537 0.3657659 -0.49869365
-0.9536438 0.45790923 -0.7035592 -0.29490024 0.6801175 -0.6799636 -0.74048096 0.4708948
-0.77543247 0.28494966 0.8768246 0.72543937 0.67243284 0.5542013 0.14474627 0.5341912
-1.5292661 -0.18486212 -0.41470543 -0.6306907 -0.15962552 -0.33608243 0.22181061 0.7158403
0.050866395 -0.70120645 0.61535096 -0.1981659 -1.1376035 -0.10583379 -0.12240244 0.40736115
-0.91488564 -0.32989186 -1.0357769 -0.4942482 0.6144511 0.008069575 1.0799081 0.16965246
-0.99655145 0.33673644 -0.08090772 0.32108554 0.8489125 -0.4544114 0.22252749 0.47059897
1.0330114 0.12905212 -0.91887945 0.5359876 -1.1668679 -0.16786207 0.7603915 0.58765316
-0.45040756 0.7004219 -0.6180663 -0.48128706 0.42345753 -0.31482193 -0.92287123 0.030197842
1.1843854 0.14118892 -0.25348616 -0.5015553 0.71172947 -0.23053794 -0.19312744 -0.33093658
0.68843234 -0.49898207 0.6988629 0.3213979 -0.7590596 -0.16937435 0.22449511 0.6345176
0.17418216 -0.5436705 -0.5438062 0.16587031 -0.716161 -0.62625355 -0.2980397 0.6458688
1.0680033 -0.39728746 0.55297375 0.009488294 0.38432816 -0.18679488 -0.9835495 0.39118654
0.39812005 0.06115132 0.993788 0.6281764 -0.9462371 0.010070585 -0.56468886 -0.14626455
-0.90437233 -0.15053357 0.5533559 -0.29671082 0.04580946 0.5409073 -0.5650891 0.25928184
-0.53000414 0.54689825 0.027329752 0.840239 -0.54080266 -0.41271588 0.6946386 -0.104708016
-0.11624985 -0.7783898 0.9127102 0.63373286 -0.75206304 -0.16262938 1.2498381 0.21303964
-0.7464339 0.43506727 -0.62908804 -0.3062857 -0.3809102 0.5353794 0.6797738 0.15241529
-0.10898269 0.7365984 0.6767226 -0.00071531144 -0.04892076 0.49225628 1.0060204 0.5683208
-0.13592902 0.71211696 0.9955394 -0.17469163 0.2618127 -0.7052521 0.32306188 -0.24132873
1.0203315 -0.0049515027 -0.7475574 0.047984436 -0.6258896 0.39386117 -0.4912268 0.44955847
0.21155973 0.40094107 -0.75193536 0.51426697 0.29937598 0.064637154 1.1988512 -0.64747
-0.84488934 -0.3757921 0.6902141 -0.23015182 0.4733506 -0.2286749 -1.1607748 -0.24558991
-0.43550935 0.4744262 -0.5119583 -0.21371293 0.36992776 0.53915197 -1.1029837 0.1881226
-0.78311664 0.4805453 1.0256817 0.09907825 0.8084506 -0.44747445 0.8822393 -0.41918606
-0.77123225 -0.31558257 -0.13162 -0.24920744 -0.46902344 -0.023432834 -1.0179932 0.30198756
-0.57827675 -0.46512002 0.32304665 -0.7412125 -0.48792702 0.42877623 -0.77523667 0.47240418
0.7255122 0.52320415 -1.3130159 0.39973626 0.541698 0.7807456 0.617708 0.32349834

layers.block_0.layer.0.bias f4 [128]
00000000: 6729 dfbe 4efe 57be 5eda bdbe e84d f33e
00000010: 0d22 bf3e 8b2d 2cbf 9c07 dd3e 3358 ffbe
00000020: 9342 6d3e f096 d73d f7c4 f8be c541 0f3f
00000030: bae2 8f3e e89d 1a3e 4f0b 863e a3b9 063e
00000040: fafb 3e3e 50ab 143e d290 1e3e 0f3b 383f
00000050: 3adb 96be 0346 2d3f 3f5b 313f f7eb a8be
00000060: f7e8 9c3d c0bf 4cbf 0728 05bf 4ef7 673e
00000070: bf05 133e 42ca a43e 5635 b3be a94a a43d
00000080: c976 8bbe af9d 043f 4c6e 553d 4740 c8be
00000090: 8160 cb3e 6245 113f 4535 93be 1ce2 c9be
000000a0: 8eee 91be 70e7 1a3e 0f6d e63e b1d2 c4be
000000b0: 232f e2bd 88b3 08bf 1400 f43d fb6b 21bf
000000c0: 3824 18bf ab7f 12be 7aab a8be 1dbf c23d
000000d0: c22e 2dbd 0956 22bf 1071 9a3e d9b4 353f
000000e0: d23a 133f 49e3 2abf 08a9 5cbe ab84 13bf
000000f0: 0f8a 80be f02b acbc 8492 2f3f 86bb 433e
00000100: 4b95 cc3e 015f 043f 5c31 b9be d0ce 9fbe
00000110: da40 96be cad7 1cbf 7113 4e3e 85e5 fdbe
00000120: 4268 8d3e 8719 4cbe 3e7a eb3e 7154 36be
00000130: 9a88 04be 9e6a 013f e9ba 8cbe ddb0 b2be
00000140: 8cf4 71be a854 39bf b3aa d53e 1507 1fbe
00000150: 4dc0 09bf 2c3f 1dbf 4e87 203f e625 6ebe
00000160: 2d08 083f 4615 a93d cac6 e2be ffe9 c1be
00000170: 9e27 9bbe f158 283e 060c adbe 6fa9 e73e
00000180: 6ae3 d4bc 57c1 ebbd c15f 15be dd51 353d
00000190: b30a 09bf ba19 33bf ade9 ac3e 6c08 1f3f
000001a0: e1aa 2d3e aa8b 38be 52dc adbe 7843 143e
000001b0: 8053 2abd a9f3 11be a10a 80be 50ac 66bb
000001c0: fefe 1b3e 9190 12be ff76 da3e 8593 943e
000001d0: c5aa aa3d 6dbd 61be ca93 d63e 39a8 d9be
000001e0: 37b9 b93d d60c ecbe 4a14 66be 0a22 d3be
000001f0: 92e4 84be 67e3 0bbf 2278 173f 296d 283d
-0.43586275 -0.21093103 -0.37080663 0.47520375 0.37330666 -0.67256993 0.43169868 -0.49871978
0.23169927 0.10526836 -0.48587772 0.5595973 0.28102666 0.15099299 0.26180503 0.13156752
0.18650809 0.14518476 0.15484932 0.71965116 -0.29464132 0.67684954 0.69279855 -0.32992527
0.07661622 -0.7998009 -0.520142 0.22652933 0.1435766 0.3218556 -0.3500163 0.08022053
-0.27239063 0.51803106 0.05210714 -0.3911154 0.39722064 0.56746495 -0.2875158 -0.3943032
-0.28502315 0.15127349 0.4500508 -0.38441995 -0.11044147 -0.5339894 0.119140774 -0.6305539
-0.59430265 -0.14306514 -0.32943326 0.09509108 -0.04228092 -0.6341253 0.30164385 0.70979077
0.5751163 -0.6675306 -0.21548855 -0.5762431 -0.2510533 -0.021017045 0.6858294 0.19114503
0.39957651 0.51707464 -0.3617047 -0.31212473 -0.29346353 -0.6126677 0.20124604 -0.49589172
0.27618605 -0.19931613 0.459917 -0.1780565 -0.12942734 0.5055331 -0.2748635 -0.3490056
-0.23628443 -0.723948 0.41731796 -0.15530045 -0.5380905 -0.6142452 0.6270646 -0.23256645
0.53137475 0.08256011 -0.4429229 -0.37873837 -0.30303663 0.16440178 -0.33798236 0.45246455
-0.025987346 -0.11511486 -0.14587308 0.044267524 -0.5353195 -0.6996113 0.3377203 0.62122226
0.16959716 -0.18022028 -0.33957154 0.14478862 -0.041583538 -0.14253105 -0.2500811 -0.003519792
0.1523399 -0.1431296 0.42668912 0.29018798 0.08333353 -0.22044916 0.4190963 -0.42511156
0.0906853 -0.46103543 -0.22468677 -0.41236907 -0.25955635 -0.54643863 0.59167683 0.04111973

layers.block_1.layer.0.weight f4 [128, 128]
00000000: 6439 59bd 8002 27be 738c 4b3d bb30 86bd
00000010: fd85 aabd e834 70bd a35e 473d 033c 1cbd
00000020: 5221 1abd 047f b0bc 0175 a7bd 15df b4bd
00000030: 2914 1bbd 5df4 4dbd e08f 9dbd bc42 0a3d
00000040: a593 063d 74eb a33d aa4f e73b 5005 0b3d
00000050: fb9e cebd f997 023c 0064 893d 27d7 cebc
00000060: bfb8 2bbd ad35 71bd 536e 8cbd 7a4f 85bd
00000070: fc93 893d 330a d43d d6b3 c43d 8fe1 0dbc
00000080: 43d2 923c b585 2bbc f94f a63d 940c e4bc
00000090: 8926 82bd bec5 24bd 90b5 55bd 55ea aa3d
000000a0: 7102 15bc 5c9d afbd 59b2 233c 225c 153d
000000b0: 5718 cabd eca8 393d 528a 853c d339 c4bd
000000c0: 53aa f33c 227e b33c a040 a23d 64a4 7b3d
000000d0: aa4f 41bd b876 cf3d fab6 a8bd b354 9cbd
000000e0: 5d6a b3bd 77da 32bd 1005 98ba c1df 52bd
000000f0: 3c38 993d 6125 203b 862b 45bd 2d52 94bd
00000100: f599 65bd 46ce dabc 0add bf3d c425 60bd
00000110: ca47 af3d 9739 8ebd 3178 08bd f85f 053d
00000120: 9091 893d b5a2 54bd 8fee ddbd 2eef 143c
00000130: 824b 50bd db0c fdbc 5983 e53d bb51 1ebd
00000140: 4d1f f83d 5575 9abc 21eb ff3c 69d1 fc3c
00000150: 8f87 ac3d 176d 943d 019d e53c b0eb 56ba
00000160: 6769 d8bd 072e 89bc 2f22 4a3d 4086 0bbd
00000170: 4c29 e3bd 755b 1b3d 766c af3d a7e3 6e3c
00000180: 69d6 ac3b 101e 093d d619 dfbd 7cc4 62bd
00000190: f445 0c3d 493a 5d3d c219 27bc 80ab 373d
000001a0: 2cb3 8a3d 6c32 8ebc 3cfc 55bc 8cd7 153e
000001b0: b704 26be 1c34 323d 1ebc 83bc 276d 8f3c
000001c0: 4a57 8c3c 248c 97bd 361b d1bc 7f44 613d
000001d0: 4cc3 9db9 1e34 8b3d aa0c a5bd c3c2 6fbd
000001e0: 1c4e ef3d 4812 62bd 8751 723d 98b0 81bd
000001f0: dcf2 04be a0c0 57bd 9581 233d db25 dfbc
00000200: c6b6 4e3c e3ee 4c3e 1d08 f6bd a306 343d
00000210: e697 82bc 2faf 753d 5337 89bd 90ed 94bd
00000220: af8b 573d e2d3 e73c aab9 643d a79c 883c
00000230: f65b c83d f9a9 e53d d54f 483b 1481 32be
00000240: 26c2 f13c f3e5 27be 060d 643d 4b56 593d
00000250: 09a8 14be 7a15 cbbd bdf2 c53d f9aa b9bd
00000260: a7cd 82bd 8d03 133d 7cf6 933d 027c 91bd
00000270: 8049 9fbd 1af1 88bd dfa8 5c3d 4791 43bc
00000280: 5f67 39bb 6e30 4ebd 4378 e8bd 6155 b9bc
00000290: dd90 b5bd 7958 88bd d86e 8e3d f70d 35bd
000002a0: 5ef0 18be 6af7 13bd 8e9e ec3d b2dd dbba
000002b0: a9b1 0f3e a746 0ebd d300 37be f1e1 2b3c
000002c0: dc06 f43b efd4 343d d462 a1bc 62cc fcbd
000002d0: d397 0e3e 0f0b d53c 1084 ac3d bbfa b73d
000002e0: 89ea 7cbd d172 dc3d 9cbd a0bd 2ecd ffbc
000002f0: 3781 273d 5017 50be 12cb 463c d3ac 203d
00000300: a688 aa3c 80f5 dabc 8699 74bd 1f47 02be
00000310: b93a 7a3c d1ac a03d 5f7f 0dbd ccbe b0bd
00000320: a66d 01be 1fbd 52bd 2374 bb3d 3972 52bd
00000330: fd29 94bc 32de c33d ef0d 343c ba16 6a3c
00000340: 9d22 3fbc 9ef2 e73d 1ba1 dfbd 8f58 823e
00000350: f24b cdbd dc14 a4bc 5752 93bc 8a38 613d
00000360: 1228 79bd 78f2 563b 68b5 8cbd 5f33 5b3d
00000370: af1d aebd 18e9 a03d 3a7b bdbc 1024 923b
00000380: a2c5 2e3e cec9 c7bb 5721 8ebc 048c 2bb8
00000390: af43 823d 3f63 1f3d 1a84 583d 4056 9e3d
000003a0: 6552 17be 0470 adbc 95c6 ab3d 0d95 81be
000003b0: 083a 4f3c b146 71bd 6b12 733d 3a56 09bd
000003c0: a696 3d3d 6673 193e 2a3c b43d 303c e13d
000003d0: e9b8 bdbd 06c2 b3bd 0472 a1bd 79db f63b
000003e0: 42d2 88bd 745a 553d d540 1bbc b185 9abd
000003f0: 8a16 203e c537 d6bd d6f9 a13d 5f78 db3d
-0.053033248 -0.16309547 0.04969449 -0.06552263 -0.083263375 -0.058644205 0.048674237 -0.03814317
-0.037629433 -0.02154494 -0.081766136 -0.08831612 -0.037861023 -0.05028187 -0.076934576 0.03375505
0.03285565 0.080038935 0.0070590572 0.033940613 -0.10088917 0.007970803 0.067085266 -0.025249077
-0.041924234 -0.05888908 -0.0685698 -0.065092996 0.06717679 0.10353508 0.096046135 -0.008659734
0.017922526 -0.01046889 0.08120722 -0.027838029 -0.06355006 -0.040227644 -0.052175105 0.083454765
-0.00909482 -0.08574936 0.009991252 0.036464818 -0.09867924 0.045327112 0.016301308 -0.095813416
0.029744303 0.02191073 0.079224825 0.061436072 -0.047195114 0.10130066 -0.08238025 -0.076333426
-0.087605216 -0.043665376 -0.0011598188 -0.05148292 0.07481429 0.0024436342 -0.04813721 -0.07242236
-0.056055028 -0.026709687 0.09368332 -0.054723516 0.085586146 -0.06944578 -0.03331775 0.032562226
0.06717217 -0.051912982 -0.10836517 0.009090228 -0.05085326 -0.030889919 0.11206693 -0.038652163
0.12115345 -0.018854776 0.031240048 0.030861573 0.08424293 0.0724737 0.028028967 -0.00081985723
-0.10566979 -0.01674558 0.049349006 -0.034063578 -0.11091861 0.037929017 0.08565609 0.014580644
0.005274583 0.033475935 -0.108936 -0.055363163 0.0342464 0.054010663 -0.010199012 0.04484129
0.067724556 -0.017358027 -0.013060626 0.14633006 -0.16212736 0.043506727 -0.016080912 0.017508103
0.017131466 -0.073997766 -0.02552567 0.054996964 -0.0003009088 0.0679705 -0.08059056 -0.05853535
0.1168482 -0.055193216 0.05915978 -0.06332511 -0.12983268 -0.052673936 0.0399185 -0.02723973
0.012616819 0.20013003 -0.12013266 0.04395164 -0.015941571 0.05998152 -0.067000054 -0.07271874
0.052623447 0.028299276 0.055841126 0.01667626 0.09783165 0.1121406 0.0030565162 -0.17432052
0.029511523 -0.16396312 0.055676483 0.05306081 -0.14517225 -0.09916206 0.09665439 -0.090658136
-0.06386881 0.03589206 0.072247475 -0.07103731 -0.07777691 -0.066866115 0.053871986 -0.011936492
-0.0028290374 -0.050339155 -0.11351063 -0.02262372 -0.08865521 -0.066575 0.069547355 -0.04420277
-0.14935443 -0.036124624 0.115536794 -0.0016774444 0.14032616 -0.034735348 -0.17871408 0.01049088
0.0074471068 0.04414838 -0.019700445 -0.123436704 0.13925104 0.02600625 0.084236264 0.0898337
-0.061747108 0.10764087 -0.07848665 -0.031225767 0.040894713 -0.20321393 0.012133377 0.039227318
0.020817112 -0.026728392 -0.059716724 -0.12722443 0.01527279 0.07845462 -0.0345453 -0.086301416
-0.12639484 -0.05144989 0.09153011 -0.051378462 -0.018086428 0.09563865 0.01098965 0.014287645
-0.011665967 0.113255724 -0.109194 0.2545819 -0.10024251 -0.020029478 -0.017983599 0.05498556
-0.06082923 0.0032798331 -0.06870538 0.05351579 -0.085017554 0.07856959 -0.023130048 0.0044598654
0.17067578 -0.006097055 -0.017349882 -4.0899977e-05 0.06360566 0.038913008 0.052860357 0.07731295
-0.14777525 -0.021171577 0.08387486 -0.2530903 0.012648113 -0.058905307 0.059343737 -0.033529498
0.046286248 0.14985427 0.08800538 0.10997808 -0.092637844 -0.087772414 -0.07883075 0.0075334874
-0.066807285 0.052088216 -0.009475906 -0.07545031 0.15633598 -0.10459856 0.079089805 0.10716318

layers.block_1.layer.0.bias f4 [128]
00000000: d4fd 603d 30af dcbc 446b 91bd f482 f13c
00000010: 7a9b 813c d2e1 f33b ee69 993d d2cd 9f3d
00000020: 4e43 233b 66dd 98bd 9a4b eeba a93c 543d
00000030: f28d 01bd 2301 a0bd 070a 10bd 9b85 cb3c
00000040: 9cdb 93bd 9f1c 13bd 9a60 f1bc 6bae 8dbc
00000050: 28e2 b7bd 2cfa 84bd 305b 4e3d 12d4 c03d
00000060: d6b3 83bb ee01 6c3d abd0 96bd 3401 e93d
00000070: db15 853b 6627 a5bc aa6f 57bd fae4 b7bd
00000080: dfd3 48bb 95bf b1bb f908 853b 4ba7 053b
00000090: 6283 aa3d b8f0 edbc 28f9 96bd 46a0 2bbd
000000a0: ef39 7dbc 93d8 c33d 0c5f c7bd a714 113c
000000b0: befe c8bd e83a 77bd c33e e4bb 44f7 9abb
000000c0: de10 5fbc 7999 d33c 06e0 54bd 17d0 41bb
000000d0: d773 763d 40a4 e8bb c07d 7b3d 480c 043d
000000e0: f66c 253c 3141 233d f64e 10be d0dd f9bc
000000f0: 3e56 a7bd 406e 2a3d 6239 03bd f369 bbbd
00000100: 426c e83c 8265 0c3d 25a5 98bd 47e2 8c3d
00000110: c4a5 9e3d 334e bcbc e868 b73d b4ec 1e3d
00000120: dc42 d03c 38ad 473c 2553 62bd c8db 90bb
00000130: 9d81 4cbd e179 873c 9586 86bd e93f 0dbc
00000140: 7754 a0bd 8ca1 833d 0db0 263e 77b3 0abd
00000150: 24b7 403b eca0 8abd f16d 9d3b c293 9e3d
00000160: c1bd 1bbd 4034 72bd 4eea a83c b590 613d
00000170: b2c3 263e b924 c6bc 1011 e43c 0205 10bd
00000180: 80e9 a43c 16f4 03bd 4234 7abd 6ee2 89bc
00000190: e3b6 d9bb a4e4 f6bd 3490 fd3c c6f2 3fbd
000001a0: fd3f 503d 8666 61bb ed64 293d 3263 b83d
000001b0: cb70 7bbd 63b8 81bd 1a30 fcbd a045 0e3d
000001c0: e554 f63b dd88 5b3d c5ff c4bd cadf fd3c
000001d0: e528 83bc 3ae6 f8bc b8b2 543d c442 2a3c
000001e0: 6d5c 283d 640c 643d 69f9 113d fc24 b3bc
000001f0: 1e37 3abd 2f2f 423d 8435 59bd 81ee d93a
0.05492957 -0.026939005 -0.071005374 0.029481389 0.015821207 0.0074426914 0.074909076 0.07802929
0.0024911943 -0.074641034 -0.001818049 0.051815663 -0.03162951 -0.07812717 -0.035165813 0.024843981
-0.072196215 -0.035915967 -0.029465009 -0.017295083 -0.08978683 -0.06493029 0.050379932 0.09415449
-0.004019241 0.057619028 -0.07364019 0.113771826 0.0040614433 -0.020160388 -0.052596726 -0.08979221
-0.0030643863 -0.0054244497 0.0040599075 0.0020393904 0.083258405 -0.029045448 -0.073717415 -0.041900896
-0.015455707 0.09562793 -0.09734926 0.008855022 -0.09814213 -0.06035891 -0.0069654896 -0.0047291834
-0.013614861 0.025830017 -0.051971458 -0.0029573494 0.060169067 -0.0070996583 0.06139922 0.032238275
0.010096779 0.039857093 -0.14092621 -0.030501276 -0.08170746 0.04160905 -0.032037146 -0.091510676
0.028371934 0.034276493 -0.07453374 0.068790965 0.07746461 -0.022986507 0.08955556 0.038799956
0.025422506 0.012187295 -0.055255074 -0.004420731 -0.049928296 0.016537609 -0.06568638 -0.008621194
-0.078286104 0.06427297 0.16278096 -0.033862557 0.0029406035 -0.06768975 0.004804366 0.07743026
-0.03802276 -0.05913186 0.020619538 0.055069644 0.1628559 -0.024187433 0.027840167 -0.035161026
0.020130873 -0.0322152 -0.061084993 -0.016831603 -0.0066441162 -0.120553285 0.03095255 -0.046862386
0.050842274 -0.0034393384 0.041356016 0.09003295 -0.061386865 -0.06333997 -0.12313862 0.03473437
0.0075174444 0.05359732 -0.09619097 0.0309905 -0.016010711 -0.030383218 0.051928252 0.010391895
0.04110377 0.05567588 0.035638247 -0.021868221 -0.04546272 0.04740828 -0.053029552 0.0016626866

layers.block_2.layer.0.weight f4 [128, 128]
00000000: 500d 833d 3de6 f03d f2c3 98bd 17a2 2ebc
00000010: 36e1 47bd 1623 a0bd 85c4 cebd 32a7 553c
00000020: a762 b1bc 7c61 e5bd 405a bd3d aed8 023d
00000030: 0874 d43d b088 bebd c43f bebc b983 2abb
00000040: b953 393d 0042 b63d b155 a43d 30b0 be3d
00000050: 59ed cb3d 3277 4c3c 0869 323e ec99 d639
00000060: 5f94 813c 09fd 2d3e f30b 10bc b705 8ebd
00000070: 65f8 2ebd 3fe2 623b 373d 0fbd b84a b33c
00000080: e27b 723c bd56 c7bc 83a5 e03d 8dc7 65bb
00000090: 8d4a 03bc 02d7 8c3c d939 88bd 9984 c8bd
000000a0: 6b6b a1bc 9736 2e3d b1d3 cabd 5264 083e
000000b0: b8c7 a53d 8365 d73d a9c5 073d 4dce 8dbd
000000c0: 3d45 e2bd f18f d53c 7a27 b43d b1a7 2e3e
000000d0: 2918 95bd 052e 3cbd 9a09 be3d ba97 8dbc
000000e0: 3a2f c8bd 9664 2ebe 93fb 39be c579 86bd
000000f0: 0c6d cc3c bd6c 21be 6c27 b83c ee6c 43bd
00000100: 3e07 d73b 9a3d 633d bb72 5d3d a0f8 2bbe
00000110: 6f83 8f3d c1e5 ee3d 408f a9bd 6019 693d
00000120: f2f2 5d3c eb94 15bd e825 a73d b77a f2bd
00000130: a808 393d e004 7b3d 2bcd d43d 5bc8 c1bd
00000140: c723 173e 91fa c1bc 39b7 19bd ffdc 8d3d
00000150: cb45 b2bb 26e5 843d 2a9e 47bd 7fc1 87bd
00000160: 901b 15be 3c9f b13d a92d 433d 571f 7cbd
00000170: fe55 87bc b04e 6abc da42 753d c78b 0ebe
00000180: e9cd ce3c c12f eb3d 384d 373e cafd 1dbd
00000190: c950 9bbd f6d6 f13b b374 99bc 0331 1dbd
000001a0: 7724 07bd c6d4 fc3d adf9 ab3a 6d61 ae3d
000001b0: 2e19 e5ba 4f9d c53d 547d 9ebd 2717 853d
000001c0: 96f7 03be 6140 783c 5fc7 823d 1f43 66bd
000001d0: a958 8d3b f235 d9bc 2e13 14bd ce12 15bd
000001e0: ca5d 333c 5984 f2bb a440 333c 4e8a 803e
000001f0: f11a cb3d 89fa 103d d125 8c3d 92a4 7dbd
00000200: de3a 77bd 912c 813d 50a9 b33d 4d84 363c
00000210: b6ed e33d 79a6 cebb 5ff9 06bd 488b b6bc
00000220: bdeb 31bd b1ca a1bc af6f 7bbd 87a4 d7bd
00000230: 95df 073e cd09 c3bd ca9e e23d 79cb 81bd
00000240: 95ee c93d 606e 2139 9bcc 5fbd dde6 78bd
00000250: e70b c03c 0d06 4ebd 6448 89bd 41cc 083d
00000260: ea92 8d3d 1496 29be a228 bbbd a7f3 343e
00000270: 01ff b53d 2264 2fbd 05b6 ecbc 2a29 21bd
00000280: 23b5 2fbc 5004 58bd cb60 d6bd 8312 dabd
00000290: 4bc9 6abd 4437 913d 80ca 2fbd be77 943c
000002a0: 3baa 793c 7624 c3bc ed1f 85bd 19d1 a5bc
000002b0: dde3 6fbe 9a9c df3a 901a cb3c 3802 683c
000002c0: 8864 91bc ce1c 933d 7658 e2bd bfca b2bd
000002d0: 3ce3 ad3d b6de c23c ebaf 56bd 9d6c 7abd
000002e0: 311c 8dbd 7b0d 0e3d cef9 443d 34c1 85bd
000002f0: b541 9cbd 48cf cf3c 2bb8 803d 6a30 8b3d
00000300: 198d 93bd a780 4d3d 095f d4bb 936a 733e
00000310: ccb1 c5bc 8073 0fbd 2cf1 b23d d892 ebbd
00000320: 5b22 5b3c 88d0 ae3d 8f69 0fbe 56c0 44bd
00000330: 259a 9abd 921e cfbd 290d dabd 4734 813d
00000340: 85d9 08be 0950 163c 4cf2 9a3d 1ce7 d0bd
00000350: ebac 833d d38e a13d 1dd3 86bd debe 983d
00000360: f90a 633d 26d0 653a 28fa 04be ea51 203e
00000370: a012 70bd f0b8 bdbd 6378 833d ce2b e03d
00000380: 0d1d cfbd edc8 bf3c b41c 15bd 5799 773d
00000390: c9e1 193d cecd a7bd 97cb 203d d076 a5bc
000003a0: 8092 b33d a0f4 383c e1c9 4cbc 8806 7abd
000003b0: 9870 0a3e 4422 58bd c39e 723d a6dd 62bd
000003c0: ca4a 5e3d 5b08 f13c 5612 82bd e54f 95bb
000003d0: 87a6 9a3d e7f6 51bd 508f dabc e329 39bd
000003e0: 042d 09be c5c4 3f3d e6f3 5ebd af42 6bbe
000003f0: 8f6b 98bd f32c 9b3d 37c1 0e3c dea0 8fbd
0.063990235 0.117626645 -0.074592486 -0.010658762 -0.048798762 -0.07819192 -0.10096077 0.013040351
-0.021653486 -0.11200234 0.092457294 0.031944923 0.10373694 -0.09303415 -0.023223765 -0.0026018454
0.04524586 0.08899307 0.08024157 0.09310949 0.0995738 0.01247959 0.17422879 0.00040931941
0.01581782 0.16991057 -0.008791911 -0.06934684 -0.042717356 0.0034619716 -0.03497049 0.021886215
0.014800044 -0.024333352 0.10969069 -0.0035061568 -0.00801338 0.017192367 -0.066516586 -0.09790916
-0.019704541 0.04253253 -0.09903658 0.13319519 0.08094734 0.10517409 0.033147488 -0.069241144
-0.110483624 0.026069613 0.08796592 0.17056157 -0.07279999 -0.045942325 0.09279175 -0.017284263
-0.09774633 -0.17030558 -0.18162374 -0.065661944 0.024954341 -0.15764137 0.022479735 -0.047711305
0.0065621426 0.05547867 0.054064494 -0.16794062 0.07007491 0.11664916 -0.08279276 0.056908965
0.013546692 -0.036518972 0.08161527 -0.11839812 0.04517427 0.061283946 0.10390695 -0.09462043
0.14759742 -0.02367905 -0.03752825 0.06926917 -0.005440449 0.06489019 -0.04873482 -0.06628703
-0.14561296 0.0867295 0.047650967 -0.061553326 -0.016520496 -0.014300987 0.059878208 -0.13920508
0.02524467 0.11483718 0.1790055 -0.03857211 -0.07583768 0.0073803617 -0.018732404 -0.03837682
-0.03299376 0.12345271 0.0013120674 0.08514676 -0.0017478818 0.09649145 -0.07738748 0.064985566
-0.12887415 0.015152068 0.06385683 -0.056216355 0.0043135476 -0.026514981 -0.036151104 -0.036394887
0.010947654 -0.007401031 0.0109407045 0.25105518 0.09917248 0.03539518 0.068431504 -0.061924525
-0.060358874 0.063073285 0.08772528 0.011139941 0.11129324 -0.006306466 -0.032952663 -0.022283211
-0.04343771 -0.019749971 -0.061385807 -0.10529428 0.13268884 -0.09523354 0.11065443 -0.063376375
0.09859959 0.00015395274 -0.054638486 -0.060767043 0.023443175 -0.05029874 -0.067032605 0.033397917
0.06912787 -0.16561157 -0.091386095 0.17671071 0.08886529 -0.042820103 -0.028895387 -0.039345898
-0.010724339 -0.052738488 -0.104676805 -0.10648062 -0.057320874 0.07090619 -0.04291773 0.018123504
0.01523834 -0.023821097 -0.0650023 -0.020241307 -0.23426767 0.0017060221 0.02479294 0.014160685
-0.017748132 0.071832284 -0.11052029 -0.08730077 0.08490607 0.023787837 -0.052413862 -0.061138738
-0.06890143 0.034680825 0.048089795 -0.06530991 -0.0762972 0.025367394 0.06285127 0.067963436
-0.072046466 0.05017152 -0.0064810556 0.23771124 -0.024132632 -0.03502226 0.08737406 -0.115026176
0.01337489 0.08535868 -0.14005111 -0.04803499 -0.07548932 -0.10113253 -0.10647041 0.06308799
-0.13364227 0.009174355 0.07565746 -0.102003306 0.06429466 0.0788857 -0.065832354 0.0745828
0.055430386 0.0008766673 -0.12986052 0.15656248 -0.058611512 -0.0926379 0.06419446 0.10945855
-0.10112963 0.023411239 -0.036404327 0.06044897 0.03756884 -0.08193551 0.03925666 -0.020198256
0.08768177 0.011288792 -0.012499304 -0.061041385 0.13519514 -0.052767053 0.05923344 -0.05538716
0.054270543 0.02942293 -0.063511536 -0.0045566433 0.07551294 -0.051260855 -0.026679665 -0.045205962
-0.13396078 0.046818513 -0.05443182 -0.22974657 -0.0744239 0.07576933 0.008713058 -0.07013105

layers.block_2.layer.0.bias f4 [128]
00000000: 9847 8bbd bd32 40bd f31d a43d 8102 9fbd
00000010: ff13 913b cd14 b53b e7ca 3e3d acfe 9c3d
00000020: b267 b6bc 464b 0a3d a776 25bd da54 ac3c
00000030: abe4 7ebd 904f 493d 9e54 fabc 3f46 e5bc
00000040: 81d5 323d 197f 9a3d f900 ad3d 22a8 a63c
00000050: fd8a 913c 8a5c 3d3d 4c19 cd3d 9212 0cbd
00000060: 9e3e b5bd 2803 ca3b 0d9f bdbb f75d 383d
00000070: a3bc a6bc 0a5c 74bd 38d7 b53d c7e5 493d
00000080: 169e 85bd 394f b0bd 9054 073e 5f8f f83c
00000090: 0bba c0bc 8380 a7bd 79a5 7c3c a7a8 b9bd
000000a0: b002 65bd c545 9cbd 8850 9c3d 83fe cabb
000000b0: 501d 273c c394 353b 8bfa 60bd c549 46bc
000000c0: fae8 17be 30df 8d3d 85de 3f3d 7056 773d
000000d0: b612 8ebd f81a cdbd 8fe3 b23c 8719 323c
000000e0: df5c b0bd 946d 26bc 53ce d83c ae18 fa3c
000000f0: 943f e8bc 1bf7 e33d e355 9ebd 4c38 c83c
00000100: f4dd 7f3c f48d 273d 628d 773c 866d dbbc
00000110: 9fb4 4c3d b80c b03d 9267 c7bd 599f e1bd
00000120: f2dd 1e3d dbec a83d 9ea2 b0bd 3b1b 50bd
00000130: 9d5b be3c dcf5 f7bb 7d53 173d 253d c63d
00000140: f1bb d2bd 2a64 f0bb d5d5 a03d 4dfe 283d
00000150: 1584 443b e8f6 703d b8f6 5cbc 9645 9fbb
00000160: 8d63 bbbd 3018 383d 6675 45bd 43ff 7cbd
00000170: d75e b5bd 5b10 88bd 7ca9 66bd 8132 893d
00000180: 5c71 2fbd fd5f 1e3d 7e9e 83bd 32a6 f13c
00000190: 0b07 87bd 93cc 78bd 2ff8 53bc 2396 3f3d
000001a0: 041c 02bd 1a33 45bd 4252 883d a2a6 0abd
000001b0: ac76 10bc 2855 7f3d c8d6 a1bd 4034 043d
000001c0: 338c 0f3d 7aaa 873c 36c9 61bd 6472 0abd
000001d0: a07a e73b c390 11bd 2c9a 9cbc 3283 31bd
000001e0: e991 8d3d c7f5 f9bc 6271 1ebd e16b c5b9
000001f0: c0df 873d dbf2 74bd c05a be3c 2eff 41bd
-0.06800765 -0.046923388 0.08013525 -0.077641495 0.0044274325 0.0055261613 0.04658022 0.07665762
-0.022266243 0.033763193 -0.04039636 0.021036554 -0.062229794 0.049148142 -0.030557927 -0.027987598
0.043660644 0.07543773 0.08447451 0.020343844 0.01776647 0.04623083 0.100145906 -0.034197398
-0.08849834 0.006164927 -0.0057867826 0.045011487 -0.02035362 -0.059658088 0.0887894 0.0492914
-0.06524293 -0.086088605 0.13215852 0.030341802 -0.023526212 -0.081788085 0.015420311 -0.09065371
-0.055910766 -0.07630495 0.076325476 -0.006194891 0.01019986 0.0027707077 -0.054926436 -0.012102549
-0.14834967 0.06927335 0.04684307 0.060385168 -0.069371626 -0.100149095 0.021837024 0.010870344
-0.08611464 -0.010157961 0.02646557 0.030529346 -0.028350629 0.11131116 -0.07731225 0.024440907
0.015616883 0.04090686 0.015109392 -0.026785623 0.04997694 0.08596176 -0.09736551 -0.11016721
0.038785882 0.082483016 -0.08624767 -0.05080722 0.023237044 -0.0075671505 0.036944855 0.09679631
-0.10289753 -0.0073361592 0.07853285 0.041258145 0.0029985954 0.05882922 -0.013486557 -0.00486059
-0.09149847 0.044944942 -0.048207663 -0.061766874 -0.0885598 -0.066437446 -0.056313977 0.06699086
-0.042832717 0.03866576 -0.06426714 0.029498193 -0.0659314 -0.060741972 -0.01293759 0.04677404
-0.031765 -0.048144437 0.066563144 -0.03385032 -0.008817356 0.06233707 -0.079022944 0.032276392
0.035045814 0.016560782 -0.05512353 -0.033800498 0.0070641786 -0.035538446 -0.019116484 -0.04333801
0.06912596 -0.030512704 -0.03868235 -0.00037655144 0.06634474 -0.059801918 0.023236632 -0.0473625

layers.block_3.layer.0.weight f4 [128, 128]
00000000: 4554 cbbd 0d81 c63d 64b3 2abd 4e28 39bd
00000010: 9d00 453d 353e 4e3c 1e8a 763d 8f3d f1bd
00000020: d5d9 85bd 6cee cbbd b744 a73a e25d f83c
00000030: 562c 15be 0f3d ab3d c38a c23d 8ce6 f9bb
00000040: 90d2 0ebd 69eb c83b e4e8 0d3e 2a4f 0ebd
00000050: 1f3a 583d 69c1 92bc 7f1c 70bc 483e f43a
00000060: 34fc 003e 43fa 733c ab4e 923d fb73 a13b
00000070: bd87 803b 38f4 8dbd fb95 89bd eb70 973d
00000080: 4ae0 bc3d 0d68 f4bd 0d88 1a3d bd45 453d
00000090: bac5 3dbd 3c65 eb3d 234e d23d b11d c2bd
000000a0: 370e 833d 8e05 9cbd d187 7d3d b94c 0f3e
000000b0: 1437 edbc 440f 70bd 9dee d83b 4df4 0ebc
000000c0: e204 b3bd d6d8 43bd 3540 723b 91e2 2fbc
000000d0: a63d 1cbd 6fea 453c 56e1 87bc 1cce 163e
000000e0: 7aab 84bc 4663 4b3c 4bd4 083d 4d42 91bc
000000f0: 8018 65bd aca0 163d 6ad8 fbbc 74c8 9d3d
00000100: d73f 043d 174c e23c 38a8 3f3c 1e35 2f3d
00000110: 9627 7bbd 6cdc 1e3d 7c77 1b3d 4e95 843d
00000120: 7333 9fba a18f 353d 9e78 c0bd bbd6 843d
00000130: cd7c 11be f8ac 0b3d 59a0 b5bd ac01 373e
00000140: 3108 54bd c1f8 ea3d 7a53 21bb b2b5 13bd
00000150: d3eb 84bc f497 c73d b0e0 5f3d 7a3f c6bd
00000160: 8b11 173e 7ce4 b73c 04fc 903d eece 88bd
00000170: 6491 46bd 2eea 053e 89b8 03be 6472 033d
00000180: 4b28 3fbe 8f32 45bd dc93 c2bd 5b57 8ebd
00000190: c2dc 893c eaee bd3c 99d0 f7bc 5101 003e
000001a0: 4d80 013e 1cac 273d d2ef d0bd c3ba cd3d
000001b0: 259e b5bb 116d dc3d 9640 ebbc af8c 573d
000001c0: 469c fa3d 753a f93d b705 923d 2b78 73bd
000001d0: b1c9 32bd a108 a9bd 382e f23d 1050 523d
000001e0: cb36 9fbd b1bd 1cbd cc9b 03bd 4d6e f0bc
000001f0: 339e c33d 05bd 303d b180 00bd 4513 2cbe
00000200: 0707 61be 6db2 653c f177 803d 0f32 31bd
00000210: 0197 343e b5a0 01bd 83c0 8fbc 57ff 8a3d
00000220: 4ab5 8b3d 4171 9e3d acbc 25ba 6e16 08bd
00000230: fbb4 1e3e 899d d33d e5b2 4c3b 5e2a b03c
00000240: b525 43ba b31f 573c 87fd 203c bde6 883c
00000250: 3c7c 493d 2953 65bd 4794 10bc 7cc2 9cbd
00000260: 42bc 933b de47 763c ac69 603c cd6b b2bd
00000270: 3828 f03d b339 4b3d 6ca6 3e3c 960f 04bc
00000280: e2d9 da3d 017c 813d 4c4f d2bd 0686 433e
00000290: 39af 9b3d a8c9 713c aa2d 483c 7ec1 903d
000002a0: 0e10 323e eac0 033e ef61 b8bc 77d9 e2bd
000002b0: ba87 053d bdcc 98bd d3d4 a93d 3d23 fbbd
000002c0: ab41 9b3d 97b0 de3d 6854 933c 58ff 4dbd
000002d0: 6c9c 943d 8538 28bd ddc1 b23d d86c 24be
000002e0: 7f80 e03c a528 45bd 1161 1b3a 94dc 263d
000002f0: 3348 9bbd 4566 5bbd 48d7 84bc 2d26 8f3d
00000300: b2e2 0fbd fd6c 833d c073 9d3d 490a 283d
00000310: 8490 4b3d 43be 993b 67b6 cbbd 2424 ca3d
00000320: cc18 f93c 8aab dc3d fffa 8cbc a22c 4e3d
00000330: a24d bb3d b64b 483e d0bf a43c aceb aabd
00000340: f62c c8bd b9c7 3bbe 49de 3cbc 9e42 013d
00000350: 8106 09be c088 56bd e4ac 72bd 30f8 0e3d
00000360: d560 a43c a140 03be 62ac 853c 8470 293d
00000370: 1d79 8ebd dcdd f73b 5f9a f93d 9f84 30bd
00000380: 16bf 473e 1641 0b3d d8d8 3dbd c02d d0bc
00000390: 6fa8 69bd fc4c af3d 3042 7d3d da3b f0bc
000003a0: b213 f0bd f494 873c 6261 893d 3bc6 c0bd
000003b0: 6f45 813d fb5c 383d 8c22 0abd 7cc5 99bd
000003c0: a9c7 80bd e6ff b5bd c266 8f3b b578 813d
000003d0: b6a7 733d d835 f63c 5337 983c 69d7 273e
000003e0: ace8 3a3d e496 8abc 3f6f 08bd 5693 123c
000003f0: a9b5 e5bd b43b 51bd cf0f 83bd 3f17 8f3d
-0.099281825 0.09692583 -0.041674986 -0.045204453 0.048096288 0.0125880735 0.060190313 -0.117793195
-0.06535689 -0.09957585 0.0012761567 0.030318204 -0.14567694 0.083612554 0.09499123 -0.0076263603
-0.034868777 0.0061315787 0.13858372 -0.034743465 0.052789804 -0.01791449 -0.0146552315 0.0018634284
0.12596208 0.01489121 0.07143911 0.004927156 0.0039224313 -0.06931347 -0.0671806 0.07394584
0.09222467 -0.119339086 0.037727404 0.04816221 -0.046331145 0.11493918 0.1026881 -0.094783194
0.06399196 -0.07618247 0.061897103 0.13994111 -0.028956927 -0.05860831 0.006620242 -0.008725238
-0.08741166 -0.047814213 0.003696454 -0.01073517 -0.03814473 0.012079819 -0.01658694 0.14727062
-0.016195048 0.012413805 0.033405583 -0.01773181 -0.05593157 0.036774322 -0.030742843 0.07704249
0.032287445 0.027624173 0.011697821 0.042775266 -0.06131705 0.03878443 0.037955746 0.0647379
-0.001214607 0.04432643 -0.09398006 0.06486269 -0.14207764 0.034100503 -0.088684745 0.17871732
-0.051765624 0.11473227 -0.0024616406 -0.03606195 -0.016225731 0.0974578 0.054657638 -0.09680076
0.14752786 0.022447817 0.07079318 -0.06680094 -0.0484785 0.13077614 -0.12863363 0.032091513
-0.18667714 -0.04814392 -0.09500858 -0.069502555 0.016828898 0.023185212 -0.030250834 0.12500502
0.12646599 0.04093562 -0.10201992 0.100453876 -0.005542534 0.1076299 -0.02871732 0.0526244
0.12236838 0.12169353 0.07129996 -0.059440773 -0.04364938 -0.08253599 0.11825222 0.051345885
-0.07774123 -0.03826684 -0.032131 -0.02934947 0.095516585 0.043149013 -0.03137273 -0.16804226
-0.21975337 0.014019591 0.06272877 -0.04326063 0.17635728 -0.031647403 -0.017547851 0.067869835
0.068216875 0.07736445 -0.0006322365 -0.033224516 0.15498726 0.10332782 0.003123456 0.021504577
-0.00074442785 0.013130116 0.009826071 0.016711587 0.049190745 -0.05598751 -0.008824415 -0.076542825
0.004508526 0.015031783 0.013697069 -0.087119676 0.11726421 0.049615573 0.011636358 -0.008060357
0.10686089 0.0632248 -0.10269031 0.19094095 0.076017804 0.014757551 0.012217918 0.07068156
0.17388937 0.1286656 -0.022507636 -0.110766344 0.032600142 -0.07460926 0.08292546 -0.122625805
0.075808845 0.108735256 0.017984584 -0.050292343 0.072563976 -0.041069526 0.08728383 -0.16057146
0.027405022 -0.048134465 0.0005927245 0.040737703 -0.0758213 -0.05356433 -0.016215935 0.06989703
-0.035128303 0.06417272 0.07688093 0.041025434 0.049698368 0.0046918704 -0.099469 0.098701745
0.030407332 0.10774906 -0.017209528 0.050335534 0.09145667 0.19560131 0.020110995 -0.08345732
-0.097742006 -0.18337907 -0.011527606 0.03155767 -0.13381387 -0.05237651 -0.059246913 0.03490466
0.020065704 -0.12817623 0.01631755 0.04136707 -0.06956694 0.0075642895 0.12187647 -0.043095227
0.19506487 0.033997618 -0.046349376 -0.02541244 -0.057045396 0.085596055 0.0618307 -0.029325414
-0.117225066 0.016550519 0.067080274 -0.094128095 0.063120715 0.045010548 -0.033724353 -0.0750837
-0.06288082 -0.088866994 0.0043762634 0.06321851 0.059486113 0.030054972 0.018581068 0.16390766
0.04563205 -0.016917653 -0.033309218 0.00894626 -0.112162896 -0.051082328 -0.063994996 0.06986856

layers.block_3.layer.0.bias f4 [128]
00000000: 8899 4cbd f687 a83d e4e7 893d 17c6 8a3d
00000010: 4f7d 65bd 9f0d d33c 5932 49bd 582c 843d
00000020: 4be4 bbbd f44a b1bc 454b bbbb 9c4c 40bd
00000030: 886b 313d bfb3 72bc 1ae0 db3d 9eaf 8e3d
00000040: 3077 50bd 56fc 973d b9ac 1ebd d70a 87bd
00000050: ff1d e1bc 0488 cabc 4d04 8a3d b90e 2dbd
00000060: cd9e f5bc cb28 c53c 4fbd e7bb c8a9 31bc
00000070: 89f5 1cbd 5e71 9c3c 6242 60bd 7205 a4bc
00000080: 1990 c53d 185c 88ba 2f94 973d 8c76 8cbd
00000090: 730a 6c3d 1e4f 413d ac0b 8a3d a631 fdbd
000000a0: cb22 ecbc 537f 963c 6d7c 9ebd 4ef3 cb3c
000000b0: 2b4b 4dbd 2619 36bd 531f 223d d105 18bc
000000c0: 8a02 83bb 4e23 263e 16a3 163c 7400 32bd
000000d0: c4c6 663d 4a29 52bc a4cf 323d 2e84 31bd
000000e0: d8da c03d 5f24 a8bd 7015 bfbd e2fd 44bd
000000f0: 0247 c2bd b369 9c3d d0fe cf3c 1a03 24bc
00000100: 6b65 3bbc 0548 a1bd 7bb4 5b3d 6ac3 cfbc
00000110: a9d5 93bc 1b3c 0a3d 034f 763d 4333 5e3d
00000120: a52b 2abd 4d70 93bd 2910 4d3c e436 9e3c
00000130: becd b7bd 8ccb 3ebb 15ac aabd 6146 00bd
00000140: 642e 033b 32a2 babd 71f8 633d 55a6 7a3d
00000150: 86d5 51bc fdb9 bfbd 3a5d 9e3d c2bb d3bd
00000160: 302b 3aba a540 2d3d 1d65 42bd f2b2 f53a
00000170: 9c1b cc3d a6d8 223c a6bf 71b9 d9f1 52bd
00000180: b3e8 8e3d dbaf e63d 670d 37bb e84b 57bd
00000190: 2a29 c7bd 706b 82bd 783b 213d 4934 10bd
000001a0: ba99 a1bc 8e67 20bb 9c16 90bd a791 bd3c
000001b0: f829 bc3d 7675 d23c f149 72bd dca1 0fbd
000001c0: 7619 2f3d 0411 91bd bae9 8e3d 41d2 d43d
000001d0: 6337 a8bd f12e 4c3d 4bb7 bd3d c796 a7bd
000001e0: 621c c33b d9a3 b7bc e438 553d 74ec b93d
000001f0: 1b1c bebd f1a7 14bd 8914 7b3d 0d2a 97bd
-0.049951106 0.082290575 0.06733683 0.06776064 -0.056027707 0.025763331 -0.04912028 0.064537704
-0.09174403 -0.021642186 -0.00571576 -0.04694806 0.04331544 -0.014813363 0.10736103 0.0696709
-0.050894916 0.07421176 -0.03873894 -0.065938644 -0.027480124 -0.02472306 0.067391016 -0.04225037
-0.029982949 0.024067303 -0.007072128 -0.010843702 -0.038320098 0.019097026 -0.054750808 -0.020022128
0.09646625 -0.0010403423 0.07401311 -0.068585485 0.057627153 0.047194593 0.067405075 -0.12362985
-0.028825184 0.01837126 -0.07738576 0.02489629 -0.050120514 -0.044457577 0.039580654 -0.0092787305
-0.0039981054 0.16224405 0.009194156 -0.043457463 0.0563419 -0.012827227 0.043655053 -0.043338947
0.09416741 -0.08210062 -0.09330261 -0.048093684 -0.094862 0.07637348 0.025390059 -0.010010505
-0.011437754 -0.07875065 0.053638916 -0.025361735 -0.018046217 0.033748727 0.060133945 0.054248106
-0.04154553 -0.07199154 0.01251606 0.019313283 -0.08974789 -0.0029113023 -0.08333603 -0.03131712
0.0020016665 -0.091129676 0.055656854 0.061193783 -0.012807256 -0.09361646 0.07732625 -0.10338546
-0.00071017724 0.042297978 -0.04745971 0.0018745346 0.099662036 0.009939348 -0.00023054946 -0.051500175
0.069779776 0.112640105 -0.0027931572 -0.052562624 -0.09724648 -0.06368148 0.039363354 -0.035206113
-0.019726623 -0.0024475786 -0.070355624 0.023140742 0.091876924 0.025690775 -0.059152547 -0.03506647
0.04274889 -0.070833236 0.069781736 0.10391665 -0.08213689 0.049849454 0.09263476 -0.08183055
0.005954311 -0.022416996 0.05205621 0.09078303 -0.092827044 -0.036292974 0.06129888 -0.073810674

layers.output.weight f4 [2, 128]
00000000: b713 88bd 7438 c5bd b464 2b3e a8e9 803e
00000010: 499d 09be fcdc 32bf d2b8 aabc 3bdb 3b3f
00000020: 4c5f 05be 31e4 a7bb 0b01 a93e aa32 bd3e
00000030: 323b 863e 8a0b 9c3e e79a 923d ef89 923e
00000040: 56c0 513d 2d34 52be dc81 a03e 7cbc 37bf
00000050: 102c 433d f4ec 793f d5d7 b1bc 911a 15be
00000060: 7519 553f 1432 753e 436f c6bd ab2c f03d
00000070: d4f9 f8be bbe8 f43d f512 acbd 7781 ad3e
00000080: c36c a23c 20f2 8fbe 81c7 b13e 16e3 53bd
00000090: f992 a6be 9375 94bd 0e66 45bf 76ac 823f
000000a0: f977 843e aed8 91be 86ae 343e 91b3 bfbe
000000b0: 813b 94be fcaf 54be 7ce5 6bbe 71f2 bc3d
000000c0: c011 463e 39f5 2a3f 8df9 be3d 8987 8bbe
000000d0: 73b4 8b3e 0427 bebd c362 753d dad2 a3be
000000e0: e5bf 0e3e 4618 19bf 4fbe 653d ec96 1b3f
000000f0: 263e ee3e 5766 cdbd 360a b5be 1a77 273d
00000100: 1301 13bf 87f1 ee3d 5d10 a3bd d744 df3c
00000110: 02d5 21bf 4455 00be 8cf4 07bf 98f3 07be
00000120: b3ea 723e f262 eb3e 918f b1bd efd9 d9be
00000130: 7aff da3d 5e6f 37bf 0690 51bf 2812 62bf
00000140: 7007 023c e972 8dbe 6db7 a3bb 8546 913d
00000150: 7342 1c3d db6b e3ba 6ad0 5abf 9d48 3a3e
00000160: e067 a93d f76d 1a3f 8d87 063d c7d1 23bd
00000170: a576 d5bd 6cda a9be 762a 98bc 3252 fb3d
00000180: b922 cd3b 4413 cd3d 005c 373e c686 27bc
00000190: 2a30 dc3c f64f 04bf 0cfd cbbd d305 87be
000001a0: 70ef 80bd e1d1 94bd 6412 62be 88ee 603f
000001b0: bf98 c83d 1a4f ec3d b40b a53e 4d7c 473e
000001c0: 5a56 3fbd 080a 883e 8125 9dbe e759 813e
000001d0: 5208 4bbe bd0b 153e a2a2 71bc fd05 2dbd
000001e0: a69d 20bf 80de 37be a884 5dbe f32b 0a3d
000001f0: 38cb 83be 77ad 0bbc 4b40 83bc 2f07 7bbe
00000200: 2d5f 053f 53d6 8abd a461 76bd 3785 96bd
00000210: 6ecb 8cbd 200f a93e 9ae2 59bd fac5 11bf
00000220: a3b8 49bd 79c3 3a3e 0873 f43d 51c1 2abf
00000230: 388e 63be 4821 58be 946f 833e 49f4 4ebe
00000240: 03fa bbbe e6d8 11be 8f92 7ebe 97a3 5dbd
00000250: 72b0 bcbe 2137 9a3c 1c60 fd3d cc69 bcbd
00000260: 949d 73be 6c32 09be 050f d5bd a3cb ce3d
00000270: 8baa 073f 32a7 37be 456c 80bd ebe5 89be
00000280: 81d6 043e 36f7 3a3f 790a 21be b153 4e3e
00000290: 887d a73e edf6 aabd 5c93 6c3e e2d2 be3e
000002a0: 4905 6fbe 0b6e 903e 0d4f 81bd e78e 1c3f
000002b0: 9e38 9c3e 1c5b 3abe 243b aebb c8bd c4bd
000002c0: 399b 47be 13f6 813e 8a20 fe3d 6232 8e3e
000002d0: 69fa 2b3d 8834 f1be 87c9 a33d ce97 af3d
000002e0: 9178 e63d a8a2 9f3e 0ac4 03be 87a7 8e3e
000002f0: 1f3a 18bf 262d 8dbd c797 a73e cb85 303d
00000300: 75a0 193f c286 a63c 78eb 273e e58e 9d3e
00000310: 684e 063f 9eca c43d 3a44 f73e 03f3 62bd
00000320: 901e b2be 3860 e1be f300 c23d b8e0 113e
00000330: 9fe8 0b3d d77a 433f eb6c 7f3d c1a3 fd3e
00000340: aedb 11bd 704e 403e 3eaf 8ebe 019c 803e
00000350: 13e5 6a3d a3de 80be 0f13 163f 769f c4be
00000360: 81d9 963e 8745 1cbe 24e7 60be 657c 46be
00000370: 4502 613e c80c 6f3e b8c5 80be 5c50 143e
00000380: 32b6 f0bd 0b16 113e fc98 513d bf69 8dbe
00000390: 52f1 9dbe 019f a93e 173e aebd 8d38 a33d
000003a0: c16a 243e edf0 8cbe 1777 2f3f cfa9 a93e
000003b0: 1118 0f3e 80fd 663e 7387 023c 3ae7 06bf
000003c0: bd6c 81bd cc9b 12be b501 0e3f cd91 1f3e
000003d0: 1df5 b13c d4db 123f 96d3 7b3e c2e0 873e
000003e0: 8dc6 913d 1a74 b1bd 8bbf 653e 9afc 6e3e
000003f0: b78b 0bbe 7d2f adbe ad8c 88bd c935 bc3d
-0.06644385 -0.09629908 0.16737634 0.25178266 -0.13438906 -0.69868445 -0.020840082 0.73381394
-0.13024634 -0.005123638 0.33008608 0.36952716 0.26217037 0.30477554 0.071584515 0.2862086
0.051208816 -0.20527716 0.31349075 -0.7177198 0.047649443 0.97627187 -0.021709362 -0.14560916
0.8324197 0.23944885 -0.0968919 0.1172727 -0.48628104 0.11958452 -0.08402053 0.33887836
0.019827252 -0.28114414 0.34722522 -0.051730238 -0.32534006 -0.07248988 -0.7710885 1.0208881
0.25872782 -0.28485626 0.176447 -0.37441686 -0.28951648 -0.20770258 -0.2303676 0.092259295
0.19342709 0.6678043 0.09324942 -0.27251843 0.2728611 -0.092847854 0.05990864 -0.31996804
0.1394039 -0.59802663 0.056089696 0.60777164 0.4653179 -0.100292854 -0.35359353 0.04088507
-0.57423514 0.116671614 -0.079621054 0.027254505 -0.6321565 -0.12532526 -0.53107524 -0.13276517
0.23722343 0.45973927 -0.08669961 -0.42549083 0.106932595 -0.7165431 -0.8186039 -0.88308954
0.007936344 -0.27626732 -0.0049962313 0.07093529 0.03814931 -0.0017350869 -0.85474265 0.18191762
0.08271766 0.60324043 0.032844115 -0.03999498 -0.1042302 -0.33174455 -0.018574934 0.12271537
0.006260243 0.1001344 0.17906189 -0.010225004 0.026878435 -0.5168451 -0.09960374 -0.2637163
-0.06295669 -0.07266594 -0.22077328 0.8786397 0.09794759 0.11538525 0.3223549 0.1948101
-0.04671321 0.26570153 -0.30692676 0.25263903 -0.19827393 0.14555259 -0.014748247 -0.04224204
-0.6274055 -0.17955971 -0.21632636 0.03373332 -0.2574098 -0.008525244 -0.016021868 -0.24514459
0.5209835 -0.0677916 -0.06015171 -0.073496275 -0.06874739 0.33019352 -0.05319462 -0.56942713
-0.04924835 0.1823863 0.11936003 -0.6670123 -0.22222221 -0.21106446 0.25671065 -0.20210375
-0.3671418 -0.14242896 -0.24860595 -0.05411109 -0.36853367 0.018825116 0.12371847 -0.09199867
-0.2379058 -0.1339814 -0.104032554 0.10097434 0.529946 -0.17934874 -0.06270651 -0.26933226
0.12972452 0.73033464 -0.15726651 0.20149113 0.3271296 -0.083478786 0.23103088 0.37270266
-0.2334186 0.28208956 -0.06313906 0.6115555 0.30511945 -0.18198818 -0.0053171087 -0.096065104
-0.19492806 0.25383052 0.1240855 0.27772814 0.041986857 -0.4711039 0.07997423 0.08573876
0.11253465 0.31178784 -0.12867752 0.27862188 -0.59463686 -0.06893377 0.32732984 0.043096345
0.60010463 0.02032793 0.16398418 0.30773082 0.5246339 0.09608959 0.4829424 -0.055407535
-0.34788942 -0.44018722 0.09472837 0.1424588 0.03415739 0.76359314 0.06235973 0.49538997
-0.035609894 0.18779922 -0.27868074 0.25119022 0.05734737 -0.25169858 0.5862283 -0.3840291
0.29462817 -0.15260898 -0.21963173 -0.1938339 0.21973522 0.2334472 -0.25150847 0.1448378
-0.11753501 0.14168565 0.051171288 -0.2761974 -0.30848175 0.33129123 -0.085079364 0.079697706
0.16056348 -0.27527562 0.6854109 0.33137366 0.13974024 0.2255764 0.007966864 -0.52696574
-0.06319568 -0.14317244 0.55471355 0.15582962 0.021723324 0.5736668 0.24592432 0.26538664
0.07117949 -0.08664723 0.22436349 0.23338547 -0.13627516 -0.33825293 -0.06667457 0.09189946

layers.output.bias f4 [2]
00000000: d76c 993e fd98 56bd
0.2996585 -0.052391995
