results/SMOTE10K/smote25/smote0.25/model.pth (torch, 205093 bytes, 10 tensors)

layers.block_0.layer.0.weight f4 [128, 2]
00000000: 1625 89bf 4455 41bf ba44 34bf e2d2 b23e
00000010: 62a3 84bf 9be6 80be 0864 84bf 9dc9 be3e
00000020: d4a7 25bf 9e83 573d cf2f 443f 0e93 c1bd
00000030: 1fac 5fbf 26a3 19be c6fc 223f b836 a83e
00000040: f969 963e 6c20 23bf 5911 7a3f b8df 8a3e
00000050: c62b 763f 6229 9f3e 003d febe 7ad8 cdbe
00000060: 3905 75bf e7ef 343d 7285 26be c415 133f
00000070: b3d7 f2be 5bbf 34be 3f05 123f ecf0 bb3e
00000080: b4e6 45be d9fc 4dbf c7dc 6a3f 7a6e 2ebe
00000090: 3abb 983f a27b 69bd 39ed 23bf 3942 dfbe
000000a0: 8154 843f 776c 0f3f f33a 1abf 3256 fe3e
000000b0: 9c1e 77be 2772 02bf 1393 213e f49a cebe
000000c0: a49f 95bf acb9 8d3e e5fa 5b3e 93de 15bf
000000d0: dc62 8dbf cb97 c93e 15da 703f 4037 46bf
000000e0: bc37 9d3f ce9c 99bd 4a80 32bd 1071 043f
000000f0: 3450 0e3f acdc 533d 86b8 e23e c265 a4be
00000100: 983d 73bf bf60 9b3e 0f82 80bf 02ac 82be
00000110: 325a 85bf b949 f4be 5f17 66bf 5e89 30bf
00000120: c333 173f 2e26 bbbe 7a37 c23e f42c 75be
00000130: f170 1b3e 1ab9 2abf 7c3c fcbe 9231 0a3e
00000140: b464 3dbf 9ca4 543e bbc9 27be 63b8 07bf
00000150: 8f4b b73e 5a5f 02bf 7294 073f bb7e 8e3e
00000160: 8b13 183e 2653 2bbf c537 0b3e 3839 2cbf
00000170: 3465 353f 4cff b7be 366c 1cbf ad36 b1be
00000180: 8721 373e a670 35bf a566 06bf d01d 0d3e
00000190: 7acc 463f 04fa a7be 338d 793f 8ea1 76be
000001a0: 3064 5bbf c262 a4be a96d 45be 5cde 1cbf
000001b0: 0595 66be 50b6 fabe 8b37 7c3f dc84 823e
000001c0: 79de 133f 05d9 f83e 1f91 8a3f c01a 35be
000001d0: 803a fe3e 1855 a7be 3ffe 93bf 68b8 163f
000001e0: 47bd 29bf 8edf 283f c13d 12bf c2c0 e03e
000001f0: 8fe0 7f3e 8686 39bf f033 92bf 2aa9 b6be
00000200: 3123 5e3f 3686 7bbe 0589 50bf 4e9d e13e
00000210: 3b84 94bf f1b7 97bd 132d 023f 797e 14bf
00000220: 283d 92bf 4c6a cf3c 19c6 8dbf b7ea 493e
00000230: de5c 84bf 01b4 8b3e d211 a0be 19cf f63e
00000240: 6a0b 973e b049 16bf 1718 673f b9de 12bf
00000250: 369c 22bf 2700 8d3e 1632 4f3e 08e8 debe
00000260: a7b0 973f c740 953e a327 853f f666 54be
00000270: 2006 6e3d e9c6 3bbf d32f 32bf 48a0 383f
00000280: 7c0e 1c3f 50d0 083e 87d4 45bf 85c6 1cbf
00000290: 3e81 ffbe d6ae 99be d943 143f 19d5 2d3f
000002a0: 2c32 aebc 10c3 39bf 8d67 7ebf 3b19 dc3e
000002b0: 73ec 9fbe d76a a2be b345 223f 5e89 ab3e
000002c0: ac51 49be 5e49 3d3f 1c73 8b3e f8db 3f3f
000002d0: 5e4c 913e 7353 c7be 66bc b33e dc7b 7e3e
000002e0: 8cf8 bc3e 8070 3b3f 69c3 03bf df7a ef3e
000002f0: 0d9a 88bf 56a6 8a3c d25a 75bf b821 01bf
00000300: 47de a43e 14ef ca3d 36da 783e 7a16 7f3e
00000310: d44d 6b3f c44f 27bf 184b 633f 3e3d 053f
00000320: 457d 82bf 96cc e03e a429 2abf 616f e1be
00000330: 3b93 983f 1613 11bf 405b 963f 8c1b cb3e
00000340: f066 59bc 4cf4 4dbf 6596 46bf 6b26 3c3e
00000350: 2bb6 38bd 611b 123f 03d4 153f bee4 ffbe
00000360: e742 80bf 4233 cebe c4f2 9dbf 6f43 b63e
00000370: 8641 143f 847c 233f 46d6 71bf ae28 d1bd
00000380: c980 3c3f 3f51 823e a5d2 a5be f4d4 813e
00000390: 53b8 44bf d930 8a3e 6ff6 0f3f 87c1 ddbd
000003a0: 4f3e 04bf d5ca e2be 767d d63e 1ad2 20bf
000003b0: 03e1 32bf 4440 a63e d5a2 8ebe 7a13 c0be
000003c0: 260d 3f3f 5428 823e c365 cb3d 2fef 3c3f
000003d0: ad2d 473f 4342 da3d 3b1e 5d3f 8842 7abe
000003e0: 3a3c d3bf 896f 993e 586d 3b3f 666e 95be
000003f0: d55c 473f 6f76 303e 5521 40bf 9092 393e
-1.0714443 -0.7552073 -0.7041737 0.34926516 -1.036236 -0.25175938 -1.0343027 0.37263194
-0.6470921 0.052615754 0.7663545 -0.094518766 -0.8737201 -0.15003642 0.6366695 0.32854247
0.29377726 -0.63721347 0.9768272 0.2712381 0.9616054 0.3108626 -0.49655914 -0.4020422
-0.95711094 0.0441741 -0.16261843 0.57455087 -0.4743019 -0.17651121 0.57039255 0.36707246
-0.19326288 -0.8046394 0.9174313 -0.17034331 1.1932137 -0.05700267 -0.6403385 -0.4360521
1.0338289 0.5602488 -0.602462 0.49675137 -0.2413277 -0.5095543 0.1577876 -0.40352595
-1.1689343 0.2768072 0.21482427 -0.58542746 -1.1045794 0.3937362 0.94082767 -0.77428055
1.2282634 -0.07500611 -0.043579377 0.5173502 0.5559113 0.05172412 0.44281405 -0.32108885
-0.9501586 0.3034725 -1.0039691 -0.25521857 -1.041815 -0.47712496 -0.8987941 -0.68959606
0.5906336 -0.36552566 0.3793295 -0.2394293 0.15179802 -0.6668869 -0.49264896 0.13495472
-0.73981786 0.20765918 -0.16385548 -0.53015727 0.35799834 -0.50926745 0.52960885 0.27831063
0.14851205 -0.6692375 0.13595493 -0.6727481 0.7085755 -0.35936964 -0.61102617 -0.34612027
0.17883883 -0.7087501 -0.52500373 0.13780904 0.77655756 -0.32807934 0.9748108 -0.24085066
-0.8569975 -0.32106596 -0.19280113 -0.61276793 -0.22517784 -0.48967218 0.9852225 0.2549199
0.5776134 0.48603073 1.0825537 -0.17685986 0.49654007 -0.3268211 -1.1561965 0.5887513
-0.6630444 0.6596612 -0.5712548 0.43897063 0.24988006 -0.7247089 -1.14221 -0.35675937
0.8677245 -0.24562916 -0.81459075 0.44065326 -1.1602854 -0.07408131 0.5085003 -0.5800548
-1.1424913 0.025319241 -1.107608 0.19718443 -1.0340841 0.2728577 -0.31263596 0.48204878
0.29500896 -0.5870619 0.90271133 -0.573711 -0.6351961 0.2753918 0.2023395 -0.435364
1.1850785 0.29150984 1.0402721 -0.20742401 0.05811131 -0.7335039 -0.69604224 0.7211957
0.609596 0.13360715 -0.77277416 -0.61240417 -0.4990329 -0.30016202 0.5791603 0.67903286
-0.021264158 -0.72563267 -0.99376756 0.42988 -0.31235084 -0.31722137 0.633876 0.3350324
-0.19660062 0.73940074 0.2723626 0.7494502 0.28378576 -0.38930854 0.35104674 0.24851936
0.36908376 0.73218536 -0.5147005 0.4677343 -1.0672013 0.016925018 -0.95841706 -0.50442076
0.32200834 0.09908882 0.24301991 0.24910918 0.9191563 -0.6535609 0.8878646 0.52046573
-1.0194479 0.43906087 -0.6646979 -0.44030288 1.1919931 -0.5666975 1.1746597 0.39669454
-0.013269171 -0.8045089 -0.77573234 0.1837403 -0.045095604 0.57073027 0.5852663 -0.49979204
-1.0020417 -0.40273482 -1.2339711 0.35598323 0.5791248 0.6386187 -0.9446758 -0.10212837
0.7363401 0.2545261 -0.32387272 0.25357783 -0.76843756 0.26990393 0.562354 -0.10827928
-0.51657575 -0.44295374 0.41892594 -0.6282059 -0.6987459 0.32470906 -0.27858606 -0.3751486
0.7462944 0.25421393 0.09931519 0.73802465 0.7780407 0.1065717 0.86374253 -0.24439442
-1.6502755 0.29967907 0.7321372 -0.2918579 0.77876025 0.17232679 -0.7505086 0.18122315

layers.block_0.layer.0.bias f4 [128]
00000000: 551f 2f3f 62b6 f7be 029a e73c 5091 adbe
00000010: 26d1 20bf e1a0 2cbf 3e46 ddbd dc58 af3e
00000020: 8887 9fbe 5f88 aabe 2c15 1abd 01ad 163f
00000030: 7973 c3bd d480 c33e 0b5f 383f 79cb 4d3b
00000040: 0787 07bf 3710 9e3d b107 9a3c 5fc9 12be
00000050: d643 1abf d968 1e3f 789b f6be 0c7d b43e
00000060: fe6a e1be 9bd6 253d e9db 0ebf 3c23 3c3f
00000070: 9279 cf3c 4f0d 9a3d ebe2 0d3f 8e8e 8bbd
00000080: 6b19 15bf 88c1 a23d 9266 303f f57d 403f
00000090: d5c8 07be c608 85be 2563 06bf 024c 1ebf
000000a0: 1b0d 033f 3be4 9cbe da88 04bf 9bbc c8bd
000000b0: d75b 25be 075d 063f f61e ddbe 7683 c63e
000000c0: 213a 1dbf 0713 d0be 2430 39be 1b7a 973e
000000d0: a283 8c3e 805b 2dbf fc98 843e f30d f43d
000000e0: 8e6e 36bf 6d38 933e 80b5 7abc 283f f8be
000000f0: d459 1fbf 46cd 133f 34a0 c3be d1f3 b13e
00000100: ac03 983e a105 a8be 0d27 c9bc b051 393f
00000110: 039d d4bd e6ee 24be bf36 5fbe 895c 91be
00000120: dd73 fbbe 7990 d93e 473a e13c 48b5 f2be
00000130: 9b82 83be 61b4 1d3e b29a d9be 827a 2abf
00000140: e6c3 b43e f5ce 2d3f 3dc2 173e d349 ac3e
00000150: c4df 2c3f 9ad0 66be c540 62be ea7d ffbe
00000160: 82d9 19bf 4dcd fe3e a9a2 07bf 9415 33bf
00000170: 8cef ffbe 0165 cebe c37c a8bd 0970 d43e
00000180: 67da 2cbf 4a56 11bf d6d2 3f3f 50de 5dbe
00000190: db07 4fbe 9d37 1cbf b6ba 0f3f 12c9 97be
000001a0: 8714 37bd ffe0 87bd c147 253f 9bfa 99bd
000001b0: 4075 b93e 3d9c 96be 8108 9bbe 50e0 c1bd
000001c0: 6eb0 a8be d531 303f 004a dcbe 5e04 213f
000001d0: 4fe9 86be 2996 a93d 3115 15bf 3dfc 7d3e
000001e0: f625 5cbe 5925 db3e 1cde ffbe 32e7 073f
000001f0: 93fd a7be d8ab 273f a245 0d3f 1289 1ebf
0.68407184 -0.48381335 0.028271679 -0.33899927 -0.62819135 -0.6743298 -0.10804413 0.34247482
-0.3115809 -0.33307168 -0.037617847 0.58857733 -0.09543509 0.38184226 0.72020024 0.0031401797
-0.5294041 0.077179365 0.018802496 -0.1433463 -0.6025976 0.61878735 -0.48165488 0.35251653
-0.4402694 0.040487867 -0.55804306 0.73491263 0.025326524 0.0752207 0.55424374 -0.068142995
-0.5824191 0.079470694 0.6890651 0.75192195 -0.13260205 -0.25983256 -0.5249503 -0.6183473
0.5119187 -0.30642876 -0.5177132 -0.09801599 -0.16148315 0.524857 -0.43187684 0.38772172
-0.6141682 -0.40639517 -0.1808477 0.29585347 0.27444178 -0.6771774 0.25897968 0.11916723
-0.71262443 0.28753987 -0.015302062 -0.48485684 -0.6224644 0.577351 -0.38208163 0.3475633
0.296903 -0.32816795 -0.024554754 0.7239027 -0.1038151 -0.16106758 -0.21798228 -0.2839091
-0.49111834 0.42493036 0.02749361 -0.47403932 -0.25685582 0.1540084 -0.42500836 -0.6659318
0.3530571 0.67893916 0.1482019 0.33650073 0.6752894 -0.22540513 -0.2209502 -0.49900752
-0.60097516 0.49766007 -0.52982575 -0.699548 -0.49987447 -0.40311435 -0.082269214 0.41491726
-0.67520756 -0.5677229 0.74931085 -0.21666837 -0.2021784 -0.6102236 0.56144273 -0.29645592
-0.04469731 -0.066347115 0.6456261 -0.07518502 0.36222267 -0.29416075 -0.30279925 -0.09466612
-0.32947105 0.6882604 -0.43025208 0.6289729 -0.26349875 0.08280594 -0.5823546 0.24803253
-0.21498856 0.42801932 -0.49974144 0.5308715 -0.3281065 0.6549659 0.55184376 -0.619279

layers.block_1.layer.0.weight f4 [128, 128]
00000000: 35f7 13bd 4187 dd3c bd0f 983d c937 81bc
00000010: 323e 7d3d 2f66 80bd 414a fbbc 1ece 383d
00000020: 1a75 bebd 6746 c8bd 364c 373d 01cc 3bbd
00000030: b94c 2e3c f34e 98bd ba21 833d 2a72 aebd
00000040: 563a 25bd 12a9 96bd 8b79 9ebd 2ac9 57bd
00000050: aebe b8bd 917e a73d 4254 843d 7e3d 28bc
00000060: d988 9f3a 1b39 c73c f23e 8bbd 82e8 893d
00000070: 056e 10bd 2f50 eb3c d27d 3bbc cbf0 033d
00000080: c459 9e3d 9180 0b3e 55be 883d e865 96bc
00000090: 1c39 bdbd 94a5 f6bc 6986 953d 038b 633d
000000a0: f2fd 26bd 8abd 453d 57bf bebd d15e cabd
000000b0: ad38 a33d b236 a1bb 06d7 b8bc 27da 713d
000000c0: 47d9 33bd 4991 813d c334 c9bd 9040 98bd
000000d0: f7e5 d63d 7ff3 33bc f79a 84bd 8cb3 ccbc
000000e0: b763 2bbc eb09 04bd 5271 d1bc abf6 cf3d
000000f0: fef8 223d ffa1 b8bc 109c f9bb 598d c83d
00000100: 4805 d8bc da33 9b3d fa82 143e e38a af3b
00000110: 413a aabc 8021 dc3d c53a 173e 8ee4 913d
00000120: 682b 49bd 306d 9abc 8036 fcbc 2bf7 2dbd
00000130: 1a58 d7bd 2037 3fbd 48f9 9dbc 7a45 a3bd
00000140: ebf8 a23c 2d22 533d b779 12bd 3ec3 99bb
00000150: 7f1b 8bbc 0a57 963d 13e9 993d 3174 a6ba
00000160: 1aed a4bc 3802 d2bc 5f8e bfbd f9f9 ba3c
00000170: b598 48bd d016 7e3d a52a a8bb 6a1e a4bc
00000180: d367 893c c4af 6abd b683 9c3d 46c1 d6bc
00000190: 02da 6c3d b105 a3bd e65d 243d 5b40 04be
000001a0: b0cf 3e3d ba2c 8a3d 3f7c 48bd b5f1 1cbd
000001b0: aa98 083e a76a b13d 09f2 bf3c 4e6d dc3d
000001c0: b83c 45bc 0a8c d43c 8f65 ad3d 3d83 613c
000001d0: dde2 a2bd c32a cabc 7034 51bd 048b 5b3c
000001e0: 33b2 bcbd 54fa 53bd 497b 173d f4bf 0fbd
000001f0: 9ef1 49bd 6d56 68bb 4bd1 423d 13ea a3bb
00000200: 26b0 52bd a570 823d 0499 f33b 7fd1 ad3d
00000210: e8df bfbd 6dcb 7a3d 8abe 4cbd 5e5a 253d
00000220: eb9e fa3c 7634 bd3d ecfc 873d 4188 063d
00000230: 4d13 45bd 4c34 ff3d 8a5d b43d 3465 a53d
00000240: 18ec 283d 0a8e 03bd 884a 203d 245a cabc
00000250: 5331 bb3d 331b b23d bf4b bbbd e0d8 cdbd
00000260: 2635 3f3d c14e 09be 42d4 66bd 0cc8 98bd
00000270: c415 03bd 3f36 de3c 2c7a 11bd 36ac 9fbd
00000280: c9fd 4ebd 8289 123c 3985 233d a713 b0bd
00000290: e9c5 98bc 9ace ccbd 71f6 3b3d f0d4 443d
000002a0: d3b8 f2bc fb0d 093c 4a72 d23b 6988 993d
000002b0: 0243 1fbe 4c38 b5bd 44e7 a1bd 2f6d eabc
000002c0: 94a0 c4bc dddd 3fbd 011a d73c 813c bfbc
000002d0: b64d 47bd 1d64 bebd 17d0 fbbc 0199 ca3d
000002e0: f299 96bd 0ef4 d63c 19a9 30bc 2713 33bb
000002f0: c792 32bd dbfc 8f3d d4a2 4abd 6019 293d
00000300: f348 b1bc 94c4 de3d 0ee6 2bbc 5c76 db3c
00000310: 7aab 2fbd e4d7 353d da99 81bd 0bed 303b
00000320: a239 b9bd e5d6 303d 97a2 c4bc 35f4 173d
00000330: 6d1c d53d 0ccc 963c bc98 fbbd bb4a 37bd
00000340: 3bc6 a3bc c8fc 2abd 78af 89bd c4ee cf3d
00000350: f76d cfbd 88fa 5c3d 3804 c0bd 202a 2a3d
00000360: cd8e d33d 034e ce3d 56ff d6bd 0c3e 5ebd
00000370: f825 7f3d 8558 9e3a d4de fd3c 85c9 e83c
00000380: 4347 503d 48fd 7cbd 1a89 a5bd 8029 5b3d
00000390: a788 9a3d 01ad a8bd 8d9a 2abd 5670 963d
000003a0: 13d3 b8bd 6ee2 4b3d 1ee4 d73d cc1a 9abd
000003b0: e6bc eabd 5a27 04bd 7630 333e 9ca3 593d
000003c0: a638 a23d 6fd9 8c3d 9e77 433d 823b 8ebd
000003d0: efe4 83bd 8957 febd 53f9 2ebd 2d17 8ebd
000003e0: 7664 d73c b8a5 9dbc c69a 9bbd 0d36 923b
000003f0: 08a8 123d 913e adbd aaa4 cd3d 48a5 acbd
-0.036124427 0.027042033 0.07424877 -0.01577367 0.061826892 -0.0626949 -0.030675055 0.045118444
-0.09299679 -0.09779053 0.044750415 -0.04584885 0.010638409 -0.07436933 0.06402917 -0.08517869
-0.040338837 -0.07356466 -0.07738026 -0.05268208 -0.09020744 0.081784375 0.064613834 -0.010268567
0.0012171521 0.024319222 -0.06799115 0.067338005 -0.035261173 0.028724758 -0.011443572 0.03221206
0.07731965 0.13623263 0.06676928 -0.01835914 -0.092394084 -0.03010825 0.07301027 0.055552494
-0.040769525 0.04827646 -0.09313839 -0.09881366 0.079697944 -0.0049198503 -0.022563469 0.059045937
-0.043908384 0.06326539 -0.098245166 -0.07434189 0.10493081 -0.010983347 -0.0647487 -0.024987958
-0.010460786 -0.03223602 -0.02556673 0.1015447 0.03978824 -0.022538183 -0.007617481 0.09792585
-0.026369706 0.07578249 0.14503089 0.0053571328 -0.02077973 0.10748577 0.14768513 0.071236715
-0.04911366 -0.018850893 -0.030787706 -0.042472046 -0.10514851 -0.04668343 -0.019283906 -0.07972236
0.019894084 0.051546264 -0.035760608 -0.004692464 -0.016980885 0.0734082 0.075151585 -0.0012699423
-0.02013259 -0.025635824 -0.09353327 0.022824274 -0.048973758 0.062033474 -0.0051320367 -0.020034034
0.01677314 -0.05729653 0.07642309 -0.026215207 0.057825096 -0.0796007 0.04012861 -0.12915175
0.046584785 0.06746812 -0.048946615 -0.038316447 0.13339487 0.086629204 0.023430841 0.10763036
-0.012038402 0.025945682 0.084666364 0.0137642 -0.07953427 -0.024678594 -0.0510754 0.013399843
-0.09213676 -0.051752403 0.03698281 -0.03509517 -0.04930269 -0.0035451904 0.04756288 -0.005002269
-0.05143752 0.063691415 0.0074340124 0.08487224 -0.093688786 0.06122916 -0.0499864 0.040369384
0.030593356 0.09238522 0.06640038 0.032844786 -0.04811411 0.12461147 0.08806904 0.080759436
0.04124078 -0.03211788 0.03913358 -0.024701186 0.09140267 0.08696594 -0.09145307 -0.10051131
0.046681546 -0.13408948 -0.05635477 -0.07460031 -0.03200318 0.027125476 -0.035516903 -0.077965185
-0.050534997 0.008943917 0.039921973 -0.085974984 -0.018649058 -0.100003436 0.04588932 0.048054636
-0.029629147 0.00836515 0.0064223157 0.07496721 -0.15552905 -0.088486284 -0.079054385 -0.028616516
-0.02400235 -0.046842445 0.026257517 -0.02334428 -0.048658095 -0.09296439 -0.030738873 0.098924644
-0.073535815 0.026239421 -0.0107825035 -0.0027324648 -0.04359701 0.0703065 -0.04947169 0.041283965
-0.02164123 0.10877338 -0.010491861 0.026789837 -0.042888142 0.044395342 -0.06328173 0.0026996757
-0.09044196 0.04317369 -0.02400331 0.03709813 0.104058124 0.018407844 -0.12284991 -0.044749003
-0.019991985 -0.041744977 -0.06722921 0.10152963 -0.10128396 0.053949863 -0.09375805 0.04154408
0.103299715 0.10073473 -0.1049792 -0.05425839 0.06229207 0.0012080824 0.030990042 0.028416405
0.05084921 -0.061764985 -0.08082791 0.053506374 0.075455956 -0.08236123 -0.041651297 0.07345645
-0.09024634 0.049776487 0.10541557 -0.07524642 -0.11461811 -0.03226409 0.17498955 0.053134546
0.07920961 0.0687741 0.047721498 -0.06944944 -0.0644015 -0.1241904 -0.042718243 -0.06938014
0.02629302 -0.01924406 -0.0759788 0.0044620098 0.03580478 -0.08459199 0.10041173 -0.084299624

layers.block_1.layer.0.bias f4 [128]
00000000: 97b4 173b e9e0 3e3d 1019 8f3c efd8 20bc
00000010: 4a50 813c 0af4 743d 99ac 963d 6af8 42bd
00000020: 671c bdbd 8c71 023c b53f b53a f40f 9dbc
00000030: 5224 2a3d 5b96 9d3d a2f2 21bd b9a8 bcbd
00000040: a9a2 4f3d 1771 8c3d e99c 6c3d 4ac2 de3c
00000050: f0ab 0b3d c7c1 c1bd 0c52 5e3d 5e18 ecbb
00000060: 179c c2bd 56d9 d3bd d93c ccbd 9034 2dbd
00000070: 2544 4abd 3849 3fbd 995c 0dbe 955d 363d
00000080: 0ec1 6bbd 04b3 33bd bd50 5fba 94d0 9b3d
00000090: 9e7b 873d 1f0f b5bd c045 823d 5d8b 8cbb
000000a0: 9371 9b3d 7075 113c 2689 b0bd 1a11 a23d
000000b0: d2bf b43b 07d0 2c3d 6896 0b3d 2915 933d
000000c0: e9c3 4d3d 3b5c e1bd d860 88bd 8b8e 62bd
000000d0: 8e99 20bd d78a 26bc 1d46 4c3d ccf6 7cbb
000000e0: dfd2 57bd f6ce 663c 93d9 00bc 21c7 b73d
000000f0: 1c41 273c 1bac a7bd b73a debc 4940 5c3d
00000100: a139 f93b f39b 9cbc 78af 3c3a d2bc ae3d
00000110: 313e 8c3d b584 2f3d 62df c83c 9d49 703d
00000120: f0e3 92bd bd9f 53bd e013 a1bc 0b1a 27bd
00000130: 7f9f b3bb 8778 963d e847 1cbd dcf6 2bbc
00000140: 4bd3 63bd 37e6 d7bb 6e86 a43b 4143 eebd
00000150: e3c1 2d3d 436d d5bd 8b40 213d d3a1 823d
00000160: f3bc 463d a169 88bd c86e bf3d 3ab4 26bd
00000170: 9e1f ad3d 4a63 9fbd 83bd b3bd 51e0 1ebd
00000180: 8a2a 593d 876f 233d 058d 19bd d8ff 93bd
00000190: 72a8 513d 9024 bf3d f9d9 003d 7a62 a7bc
000001a0: f7fb e3bd d2bf 97bb 9144 be3c 30a6 ca3d
000001b0: 07ce 883d 373b 323c ea6d 57bd f64f dc3c
000001c0: 9441 423d 53bf 993c 5c44 243b e9e8 b1bc
000001d0: 8189 b13d 87c7 7cbd 869d 2bbd 433b d8bd
000001e0: 7bc3 ae3d 8ff9 a23d 2822 d73a 2eda 98bd
000001f0: ec2e 72bd 3ba2 423c 17c0 a5bd 223c d33c
0.0023148411 0.04660121 0.017468005 -0.009817346 0.015785355 0.059803046 0.07357139 -0.047600187
-0.09233933 0.007961642 0.001382819 -0.019172646 0.041538544 0.07694694 -0.039538033 -0.09211869
0.050692234 0.06857508 0.05776683 0.027192254 0.03409952 -0.09460788 0.054277465 -0.007205053
-0.09502428 -0.10344188 -0.09972543 -0.042286456 -0.049381394 -0.046700686 -0.13804854 0.04452284
-0.05755716 -0.043871894 -0.0008518806 0.076081425 0.06615375 -0.08840775 0.0636096 -0.0042890743
0.07590022 0.008878097 -0.08619909 0.07913418 0.005516031 0.042190578 0.034078985 0.0718177
0.050235663 -0.1100392 -0.066590965 -0.05531172 -0.03920894 -0.010164938 0.049871553 -0.003859925
-0.052691337 0.014087429 -0.007864374 0.08973528 0.010208394 -0.081871234 -0.027127607 0.053772245
0.007605747 -0.019117331 0.0007197778 0.08532108 0.068477996 0.04285117 0.02452058 0.058663953
-0.07172382 -0.05166601 -0.019662797 -0.04079632 -0.00548166 0.073472075 -0.038154513 -0.010495868
-0.055621427 -0.006588723 0.005020908 -0.116339214 0.042421233 -0.10421231 0.039368194 0.06378522
0.04852004 -0.06660772 0.09347302 -0.04069922 0.08453296 -0.0778261 -0.08776381 -0.038788144
0.053019084 0.039901283 -0.037488002 -0.07226533 0.051186033 0.093331456 0.031457875 -0.0204327
-0.11132043 -0.004631021 0.023226054 0.09894979 0.066799216 0.010878376 -0.052595057 0.026893597
0.04742582 0.018767988 0.002506516 -0.021717506 0.08668805 -0.06171372 -0.041898273 -0.10558178
0.08533379 0.07957756 0.0016413378 -0.074634895 -0.05912678 0.011879499 -0.08093279 0.02578551

layers.block_2.layer.0.weight f4 [128, 128]
00000000: 3cee a43c 0160 a2bd 14e3 e8bc 64d9 08bd
00000010: b168 08bd 33a5 e8bc 52cd 55bd 54f9 ed3d
00000020: 5a41 9ebd 3935 583d bae2 c0bd d0e0 f73c
00000030: 87f8 e3bd 06c0 953d 1b30 c33b ee91 843d
00000040: d582 1d3e 907d 0fbd d938 213c 4a0a f03d
00000050: 02f9 31bd fe06 ae3c 6977 a6bd 68f1 ccbb
00000060: 60a9 a5bd dd3e 23bd 3897 6c3c ceb3 973d
00000070: 55d0 833d 5650 e13d 4dda 73bd 0b9c 803c
00000080: 1c61 f8bb e8ae 04be ac3c 18bd 210d 04bd
00000090: f997 833d bb69 35bd 154b a93d 4652 d6bc
000000a0: 4478 b9bc f46b f3bc 2d39 05bd df3d 143e
000000b0: cf9e 9f3c 4b7e c0bd af8d 3fbd 698b 5b3c
000000c0: 0b91 153e fa20 b83b d1de 9d3d b659 feb9
000000d0: 8859 ee3d 3683 a3bd b9aa b2bd 18cc d4bc
000000e0: a1a8 2f3d eef8 b039 9705 afbd 0e95 12be
000000f0: dc4a 5e3d 50ec 9b3d b440 503c 281b 52bd
00000100: b171 423d a755 e73b 7fe1 2cbd 1bc5 c0bd
00000110: d3af 0bbd 02fa 4cbd 8546 23be 4490 d4bd
00000120: 57e4 76bd d2d6 9a3d 9e46 833a 7fe6 333d
00000130: 05c3 39bd 381b edbc 9662 3d3d bb5e 333d
00000140: 6d69 213d 5c80 a63d 1f38 0e3e eab9 3e3d
00000150: de28 19be 52de 65bd 14b2 96bd 92d2 82bd
00000160: 4cd4 46bd 48bb 4a3d a0a5 c9bd 6e87 483d
00000170: 3700 703d 1bfc 013c 79b7 32bd dd8e 29bd
00000180: 6bf0 683d 0084 71ba 720c ab3d 2d8e 853d
00000190: 24af d1bc 2afc 82bc 488e 10be 7a9a 973d
000001a0: 7a0f 00bd a3e2 9f3d 86e7 aabc 50c0 7a3d
000001b0: d264 8b3d 131b bd3d 3aeb 553d 025b 9abd
000001c0: 2c35 ec3d 804f a43b 25dc d63b 45e4 36be
000001d0: 36c8 b9bd 01c8 d9bb 0e21 96bc 1a50 52bd
000001e0: 673b 7cbd 7fd2 8abd 3574 7a3b cff5 28bd
000001f0: db8d bebd edf8 6cbc c957 fdbd 5e40 0b3e
00000200: ef52 953d b566 0dbe 6df0 6bbd d88a 4137
00000210: 7a00 e63d 3611 963d 76cb a2bd f367 b6bd
00000220: 456a 1f3d f0d1 d93d 899e 4a3d 2af2 5dbc
00000230: 00c0 b3bc 5e4d 4f3d 2fdd 533d d004 c1bc
00000240: 1b60 963c 30db 05bd 06fd 0a3d 1d42 21bd
00000250: 4b59 a33c 56d6 7d3d 902c bbbb 3ea8 3abd
00000260: 5ce9 3abb d755 b0bd e477 8dbd 73b2 9d3d
00000270: b5ff 50bd 3ea5 393e a30b 99bb e565 0ebe
00000280: fc23 dabc 54f5 b13c d142 3b3d 6046 04be
00000290: 3257 ef3c 456d 0d3d 37ae 083e 4178 313a
000002a0: 7e61 c03d d908 febc 7e01 6fbb 06be c3bb
000002b0: e136 09be f590 febd ffd2 4f3d 4bbe 82bd
000002c0: 2e92 973d 11f6 0bbb 1c58 f9bc 310a fdbc
000002d0: 4517 42bd b708 96bd 2970 4bbd 7f7e 99bc
000002e0: 9189 19be 0a52 0fbd aed4 3bbc 6367 bfbc
000002f0: 2bad bebd 0290 28be 76fa 6e3b d32d d23d
00000300: 4c30 81bd 89d1 a23d 6bff e8bd 1299 56bc
00000310: 0e44 60bc 60d1 be3c 6625 9c3b 87dd 92bd
00000320: a833 db3d 0956 b0bd de22 a93d d4d3 21b9
00000330: daeb fe3b aef9 96bd 3b34 f33c 4620 583d
00000340: fa4c bebd 85bf 21bc 0dfc bebd bc24 993c
00000350: b291 d7bc 568e 31bd fdcb 333c c4a7 0bbe
00000360: 510b 903d cf41 0dbe 99a1 803c 89f5 873b
00000370: 16d1 55bc 3939 493d 1252 2b3e dcc5 c83b
00000380: 531b a5bb abff 9bbd eb60 d9bd fa07 debd
00000390: 2a51 cc3d 692c 51bd f9f1 7bbc 1c29 8237
000003a0: 6fb9 bdbd c227 8abd 6918 69ba edf1 30bd
000003b0: 5cb2 c3bd 4a86 e5ba 559f 48bd bbb8 f63c
000003c0: 3c05 933c 12f4 4b3d 2d61 56bc 215a ae3c
000003d0: 622c e33c 773f 863d 0d2d 4ebc c816 4fbd
000003e0: 9ec8 c8bd c869 d23d 73ef 8dbd 2837 853e
000003f0: f3f2 6abd 4127 45bc 7e04 e53d d790 dfbc
0.02013313 -0.079284675 -0.028428592 -0.033410445 -0.033302967 -0.028399086 -0.05219776 0.11619821
-0.077273086 0.052785132 -0.09418245 0.030258566 -0.11131387 0.07312016 0.0059566624 0.064731464
0.1538194 -0.035031855 0.009840214 0.117207125 -0.043450363 0.021243569 -0.081282444 -0.006254364
-0.08088946 -0.039854873 0.01444035 0.07407342 0.064362206 0.11001651 -0.05953436 0.015699407
-0.0075799357 -0.12957346 -0.037167236 -0.032239083 0.06425471 -0.044290286 0.08266274 -0.026162278
-0.022640355 -0.029714562 -0.03252523 0.14476727 0.019484906 -0.093990885 -0.04676598 0.013399937
0.14606111 0.0056191655 0.077085145 -0.00048513495 0.116381705 -0.07984011 -0.08723969 -0.025976226
0.042885426 0.00033754803 -0.08545988 -0.14314672 0.05427061 0.076134324 0.012710739 -0.05129543
0.047471706 0.007059771 -0.042207237 -0.09412595 -0.034103226 -0.050043114 -0.1594487 -0.10379079
-0.060276356 0.07560505 0.0010015552 0.04392099 -0.045352 -0.028943643 0.046236597 0.043791514
0.039407182 0.08129951 0.13888596 0.04656402 -0.14956996 -0.056120224 -0.073581845 -0.06387819
-0.048542306 0.04949501 -0.098460436 0.04895728 0.058593955 0.007933642 -0.043632004 -0.04139601
0.056869905 -0.000921309 0.08351983 0.065212585 -0.025596209 -0.015989382 -0.14116776 0.07402511
-0.03126476 0.078068994 -0.020862352 0.06121856 0.06806339 0.092336796 0.052226283 -0.075368896
0.11533579 0.00501436 0.006557005 -0.17860515 -0.0907139 -0.006646157 -0.018326309 -0.051345922
-0.061580088 -0.0677843 0.0038216237 -0.041250046 -0.093044005 -0.014463645 -0.12370259 0.13598773
0.07291209 -0.13808711 -0.057602335 1.15360235e-05 0.1123056 0.073275015 -0.07948963 -0.089065455
0.038919706 0.106357455 0.049467597 -0.013546506 -0.021942139 0.050610892 0.05172461 -0.023561865
0.018356374 -0.032679737 0.03393271 -0.03936969 0.01994004 0.061971985 -0.0057120994 -0.045570605
-0.002852044 -0.08610123 -0.06907633 0.07700052 -0.05102511 0.18129441 -0.0046705767 -0.13906057
-0.026628487 0.021723427 0.045718018 -0.12917471 0.029216383 0.034528036 0.13347708 0.00067699334
0.09393595 -0.031010078 -0.0036469395 -0.0059735803 -0.13399841 -0.12429992 0.05073833 -0.06383952
0.074009284 -0.0021356384 -0.030437522 -0.030888649 -0.047385473 -0.07325881 -0.04966751 -0.018737076
-0.14993884 -0.034990348 -0.011464281 -0.023364728 -0.09310373 -0.16461185 0.0036465204 0.102626465
-0.0630804 0.07950122 -0.11376842 -0.013098018 -0.0136881005 0.023293197 0.0047652004 -0.07171159
0.10703212 -0.0861016 0.082586035 -0.00015433069 0.0077795805 -0.07371841 0.029687991 0.052765153
-0.09292026 -0.009872322 -0.093254186 0.018694274 -0.02631459 -0.043348633 0.010973928 -0.13638216
0.070334084 -0.13794635 0.015702056 0.004149143 -0.013050338 0.049126837 0.16730526 0.0061271023
-0.0050386577 -0.07617124 -0.10614189 -0.10841365 0.09976418 -0.051067743 -0.015377515 1.551635e-05
-0.09263884 -0.067458645 -0.0008891882 -0.04319947 -0.09555504 -0.0017511335 -0.048980076 0.030117383
0.017946832 0.04979331 -0.013084692 0.021283211 0.027731124 0.06555074 -0.012583983 -0.050558835
-0.0980389 0.102740824 -0.06930437 0.26018643 -0.0573606 -0.012033285 0.111824974 -0.027290745

layers.block_2.layer.0.bias f4 [128]
00000000: 84a5 92bb 991a b0bd 8fa9 afbc 2371 8dba
00000010: 9280 90bd 36a3 9bbc 704c e5bb 52cd 11bc
00000020: a66b fb3c a68e c93c 3ae2 13bd fbf8 813d
00000030: 6420 91bc a1e5 cd3c a3e8 6c3d eb00 b1bc
00000040: aec6 6dbd 3a3b b7bc f7fb 3d3d 6b4c 9abd
00000050: a965 f23c 5075 533d bd10 933d 0348 9e3d
00000060: 4ff5 363c 2849 d23c acd2 0e3d 1e9d 50bd
00000070: afd9 a33d 4ba6 38bd 8572 7cbd 0506 f53c
00000080: 882e 923c 25c4 973c 1d53 2f3d 2d67 983d
00000090: bb87 82bd a116 89bd 88e4 18bd 1bfb 06bd
000000a0: 55e7 67bc 4e2d 93bc d77d c43d 1793 453d
000000b0: 1222 923c 59c6 893d b62b 59bc afae 7abd
000000c0: 30d3 18bd 736c c53d c14d 223d fc4e b7bd
000000d0: e9c3 593d 4e03 99bd 29c1 a1bd c027 98bd
000000e0: 889e 75bd ef2e 923d 77bd 603d 8cb0 f8bc
000000f0: 9751 76bd 6ad6 a9bd 836c ee3a b9a3 ebbc
00000100: 67e0 54bd 0044 b03d d4b8 06bd 17b4 3d3d
00000110: 7bd5 1bbc df69 4bbd 0a28 a8bc f35c 9bbd
00000120: 5904 8b3d 4abc a93c 172e f53c 61da a43d
00000130: 53a5 ac3d 0270 82bd 0dba 903d 3d38 a03d
00000140: 6efc 413d 9d9b 763c d5dd 433d 122e 7c3d
00000150: d578 ad3d 5d91 36ba 74e4 933d eaaf b73c
00000160: 1b21 5e3c 937f e83c 2606 59bd c879 8fbd
00000170: 6f47 3d3d 517f aa3d 4980 85bc 4099 263d
00000180: 0b82 5a3c cb15 8e3c 3b0e 86bd fe57 14bd
00000190: 92dd 4c3d 8914 163d 41db 483d 84be cdbc
000001a0: 617a cbbd 651d 96bd f53d ae3d 6f2c 21bc
000001b0: 33c0 903c 8952 80bc 9836 b33c 13e5 9fbd
000001c0: 4ed4 3abd 33a1 1e3c d533 f5bc 9fd1 943d
000001d0: 0450 a2bc d787 b73c e75f 78bc 1d7b 063d
000001e0: 490b 5fbd 13f8 aebd b30f 7ebd 4fc0 6cbd
000001f0: 6280 f4bc da7b b6bd 2341 3a3d cd0a 03bd
-0.0044752974 -0.08598823 -0.021443157 -0.0010791164 -0.07055773 -0.018998723 -0.0069976375 -0.00889905
0.03069098 0.024604153 -0.03610442 0.063463174 -0.01771564 0.02513391 0.057839047 -0.021606883
-0.058050804 -0.022367109 0.04638287 -0.07534107 0.029589491 0.05162555 0.07180927 0.07728579
0.011166885 0.02566965 0.03486888 -0.05093109 0.08000504 -0.045080464 -0.06163265 0.029910097
0.017844453 0.018526146 0.042803872 0.07441554 -0.06373545 -0.06693769 -0.03732732 -0.032954317
-0.014154275 -0.017965939 0.095943145 0.04823598 0.017838512 0.06727285 -0.01325505 -0.061201748
-0.03731078 0.09639826 0.039624933 -0.08950612 0.05316535 -0.074713334 -0.078981705 -0.07429457
-0.05996564 0.07137858 0.054868188 -0.030357622 -0.060136404 -0.08292849 0.0018190298 -0.028764592
-0.05197182 0.0860672 -0.03289111 0.046314325 -0.009511347 -0.049661513 -0.020526905 -0.07586088
0.067879386 0.020719666 0.029929204 0.08049465 0.084299706 -0.0636902 0.07066736 0.078232266
0.047359876 0.01505175 0.047818977 0.061567374 0.084703125 -0.000696441 0.07221308 0.02242275
0.013557698 0.028381145 -0.05298438 -0.0700565 0.046210703 0.08325065 -0.016296523 0.040673494
0.013336669 0.017344376 -0.06545683 -0.03621673 0.050015993 0.036640678 0.04903722 -0.025115259
-0.09935451 -0.07329825 0.08507911 -0.009837254 0.017669773 -0.015664356 0.021876618 -0.07807364
-0.045612626 0.009681988 -0.029931942 0.072665446 -0.019813545 0.02240364 -0.015159584 0.032832254
-0.05445412 -0.0854341 -0.06202669 -0.057800587 -0.029846374 -0.089103416 0.045472275 -0.031992722

layers.block_3.layer.0.weight f4 [128, 128]
00000000: 4da4 f3bd 46e4 1f3d 8e79 543d 1ed0 283d
00000010: 7314 703d 9e96 09be af31 abbc 5acd 33bd
00000020: f561 e13c ce2e 283d bb24 0d3e 72b0 0a3e
00000030: 3eda 97bd 83b7 babd 585a 37bb 91b2 d3bd
00000040: 22f0 66bd d33e adbd 7d68 bbbb ce6b ae3d
00000050: c7e9 133e 1b1b a8bc bef6 07be 67b8 ab3d
00000060: 14c9 b5bc 4faf c23c da94 fbbd 9b9b 823d
00000070: 5033 6a3d 618b 4f3d 030c 0d3d c45b c33d
00000080: 240c 33be 4b6b a6bd 2e29 8a3d 28c4 52bd
00000090: 88b6 bebd 5d38 8c3a e0bc f8bc 0803 c0bd
000000a0: 7845 973d 8580 90bd fefe 49bd 88d4 ab3d
000000b0: aff8 ef3d 2bb6 b7bd 87f6 bcbd ef7f 1d3e
000000c0: 3474 233d 21df 96bd 7ca9 81bd fc81 e8bd
000000d0: 3d4a 15bd 4d2c 4b3d 2abb 703d b654 c9bd
000000e0: fa52 a4bd 7ccb 733d dbf2 793d 6fe9 7a3d
000000f0: cbe9 013d 5884 41bc 1afd 073e e6eb c1bd
00000100: 01ff 313d 3fd1 a93c 689f 213c 2d6a 01bd
00000110: 8612 e6bc 3bff cebd a0fe 8ebd d65d be3d
00000120: 262e a93d 0d9c 56b9 0639 9fbb 226a 09be
00000130: 950c 013d 6071 62bd 7c9b c7bc 8f86 babd
00000140: 74a9 58bb 53e7 623d 8637 483d 57a1 70bd
00000150: 7c76 a33a 7204 85bd 5a72 f9bc d1e3 2e3d
00000160: 440a a33b 8643 41bd 4389 32bc 09af a2ba
00000170: 8ab3 b23c e782 263d ce5c 03bc 3e4f 163d
00000180: e85a 473d d676 9bbd b765 2c3c 6691 1a3e
00000190: abe8 f73a 51df 5abd 6f83 debb 81e9 0bbe
000001a0: b0bf ff3d 9afa 5d3d 55c7 06bc f65f 3bbd
000001b0: 061b 63bb bd2c cbbc f768 893d 1c87 b0bc
000001c0: d114 0dbe 493d c13d 9157 91bb dbdd 7c3c
000001d0: 1f0e e53d 98a4 6ebd bf26 1b3c 989a ab3d
000001e0: 0b4a 8b3d 9132 6bba a265 9c3c bf99 3c3d
000001f0: 96fa e5bd dbde b83d 129d 0cbe 1f34 143e
00000200: bef7 333c b23d 36bd 1fb7 863d 1eef 87bd
00000210: dc61 a93d bf2a 503d 2951 80bd cb72 693d
00000220: aa9c 10be 9d83 45bd b5fd bebd 2c1c 23be
00000230: 764a 59bd 4041 06bd 83b9 01be 5806 893c
00000240: 6f69 293d 6714 65bd 5ebf 4b3d 5eca d8bc
00000250: 7bbc f7bd cc63 673d e5f6 d7bd 5155 333b
00000260: 35af 243c 1219 02bd 0f00 293c 473d 563c
00000270: 5f3b b73d 1b9c 1e3c e224 61bd 1bab 313d
00000280: 42ed 843c 214c b0bd 43cc f2bd f213 56bd
00000290: 58da 883d 724d fe3c f75b a03c 91af c93d
000002a0: 810d d3bd 16f0 5a3d d14b b8bd 3853 4c3d
000002b0: e039 eb3d af5d 4ebd d787 5abd 9c7d 473e
000002c0: 3313 a63b 7595 f83d 1406 073d 4aaa c8bb
000002d0: 783b fdbc 123e a0bd f2b7 6bbd 3af8 1a3a
000002e0: f6c7 983d 7939 aa3d 8890 a13d deb6 dabc
000002f0: ad3e 923d 2754 80bb cd67 e73d b1eb 1abd
00000300: 064b ae3d 58c9 fcbd c818 98bd 3252 973d
00000310: 320b 99bc 9d99 0cbe 861c c23c 8ad9 bfbd
00000320: 2cf9 633c 0e0c 553c 11ae 16bd 8a37 d9bd
00000330: a249 a33b 1baa 363d 6a14 3bbd 4b39 b2bd
00000340: aee1 56bd 78bc a03b 39ff 4ebc c448 293c
00000350: 392a a9bd ed5a de3d 0ff8 07bd 3081 1c3e
00000360: 4042 7cbd 5d4b 183d 5593 b13d b197 a03c
00000370: 8933 bc3d 9e1a e73c b7d9 a3bd 9896 013b
00000380: 850c a7bd 9a98 86bc 6b2d 6a3d 2a67 e53b
00000390: 1fca d5bd 10bb fc3d 36be c4bb 2a67 edbc
000003a0: afc5 aa3c e717 b43d 6d8b 473d 6a13 3b3e
000003b0: 2cf3 753d 001a 1f3c 8be4 55be b126 04be
000003c0: 81a4 9bbd d743 873d b2f3 ddbd 6f20 493b
000003d0: bc65 58bd f971 6e3c 90dc 02be 4131 f03d
000003e0: 56d7 363c c9e1 7fbd b589 5e3d 6dfd 80bc
000003f0: e9b8 903b d254 883d 7107 65bd c154 f03d
-0.11896572 0.039036058 0.051873736 0.0412141 0.058613252 -0.13436362 -0.020897714 -0.04389701
0.02751253 0.04106026 0.13783543 0.13543871 -0.07414673 -0.09117033 -0.0027977433 -0.10336793
-0.056381352 -0.084592484 -0.005719243 0.08516656 0.14444648 -0.020520737 -0.13277718 0.08384781
-0.022190608 0.023765234 -0.122842506 0.06377336 0.05717784 0.05067003 0.034435283 0.09538987
-0.174851 -0.08125933 0.06746136 -0.0514566 -0.09312159 0.001069795 -0.0303635 -0.09375578
0.07386297 -0.07055763 -0.049315445 0.083901465 0.117173545 -0.08970293 -0.09226709 0.15380834
0.03990574 -0.07366777 -0.06331155 -0.113529176 -0.036447752 0.049602795 0.058772244 -0.098306105
-0.08023639 0.05952023 0.06102262 0.061257776 0.031717103 -0.011811338 0.13280144 -0.09468822
0.04345608 0.02072966 0.009864666 -0.031595398 -0.028085005 -0.10107275 -0.069821596 0.092952415
0.08260755 -0.00020466764 -0.0048590926 -0.13419393 0.03150614 -0.055283904 -0.024366133 -0.09107696
-0.0033059986 0.05539639 0.048881076 -0.058747616 0.0012471224 -0.064949885 -0.030450035 0.04269773
0.004975589 -0.047183536 -0.010896984 -0.0012411784 0.021814127 0.040652182 -0.008017732 0.036696665
0.04867068 -0.075910255 0.010522298 0.15094528 0.0018913945 -0.053435627 -0.0067905704 -0.13663293
0.12487733 0.05419407 -0.008226235 -0.045745812 -0.0034653558 -0.024801606 0.067094736 -0.0215488
-0.13777472 0.09435517 -0.0044354876 0.015433754 0.11184334 -0.058262438 0.009469687 0.08379096
0.06801232 -0.00089720736 0.019091431 0.04604506 -0.11229436 0.09026881 -0.13731793 0.14473008
0.010984359 -0.04449243 0.06577896 -0.06637405 0.08270618 0.050822016 -0.0626548 0.05699424
-0.14122263 -0.04822122 -0.093257345 -0.15928715 -0.053049527 -0.03277707 -0.12668423 0.016726658
0.041360315 -0.05592766 0.04974305 -0.026463684 -0.12096497 0.056491658 -0.10545138 0.0027364085
0.010051538 -0.03176219 0.010314955 0.013076133 0.08946871 0.009680773 -0.054966815 0.04337607
0.016226415 -0.086082704 -0.11855366 -0.052265115 0.06682271 0.031042788 0.019575102 0.0984794
-0.1030531 0.05345162 -0.08998836 0.04988405 0.11485648 -0.050382312 -0.053352203 0.1948151
0.0050682067 0.12137882 0.03296478 -0.0061238157 -0.030912146 -0.07824339 -0.05754847 0.00059116224
0.074600145 0.08311743 0.07888895 -0.026698526 0.07140861 -0.0039162817 0.11299095 -0.03782243
0.08510403 -0.12343091 -0.07426602 0.073887244 -0.018682096 -0.13730474 0.023695242 -0.09367664
0.013914388 0.013003362 -0.036787096 -0.10606296 0.004983143 0.04459582 -0.045673765 -0.08702334
-0.05246132 0.0049052797 -0.012634092 0.01033229 -0.082600065 0.108571865 -0.03319555 0.15283656
-0.06158662 0.037181247 0.086706795 0.019603582 0.09189517 0.028210934 -0.0800051 0.0019773599
-0.08156685 -0.016430188 0.05717222 0.0070008235 -0.10438942 0.12340367 -0.00600412 -0.028979857
0.020846216 0.087936215 0.04871695 0.18269125 0.06004636 0.009710789 -0.20887963 -0.12905385
-0.07599736 0.06604736 -0.10837497 0.0030689498 -0.052831396 0.01455354 -0.1277945 0.117281444
0.0111597385 -0.062471185 0.054330546 -0.015745843 0.0044165743 0.06656803 -0.0559153 0.117349155

layers.block_3.layer.0.bias f4 [128]
00000000: bdd3 703d 2540 a53d 41df 6b3d 1d22 353b
00000010: a90d 34bd 3cf5 1b3c ea5c 58bc 17cb 0ebc
00000020: 5db7 c3bd 209d 813c 925a 453d da9c 0fbc
00000030: f951 aabd 0837 cf3c e4c2 5bbd 090d 4abd
00000040: 86e3 853d 1621 653d 523b c1bd 3083 b5bd
00000050: 2f76 aa3b 31ed 9cbd 0938 ddbd 95e9 0dbd
00000060: 7679 67bd 0a1f be3d 2e4e fc3c f612 7c3c
00000070: cacd 9dbd cc68 dcbc 0c89 903d c7c7 17bd
00000080: e1b0 9c39 6f67 803d 0c13 ae3c 056e 84bd
00000090: 2db4 a53d d133 a43c 760b 51bc 9a5f 21bc
000000a0: 52e1 44bd 466b aebc 2fe4 a9bd 2560 91bd
000000b0: 6f1e 433d 50aa a93d 652a 9dbd 3de5 99bd
000000c0: 8a94 3cbc bfc9 0cbd bb9d 533d 43fe 2e3d
000000d0: 647d bf3c c8a4 003d 4db3 79bd 6016 db3d
000000e0: 7179 97bd 1070 bcbd 08e6 a13d 4ab0 e7bc
000000f0: a59a b93c 8a5f 663c 0763 c03c 58da 2cbd
00000100: e942 a13d 67cb 01bd 096d c63c 79a2 033c
00000110: e02f e4bd 6846 b2bd bf1a f73c 7ced 43bd
00000120: cb84 b6bd a725 7eba a447 b33d 30f4 83bc
00000130: a4ca 8abd 6773 7dbd ebda 743d b294 13bd
00000140: 3328 3f3d 713f b23d 1912 7bbd a5c6 9bbd
00000150: 517d 6a3d 99b7 a3bd 6e65 89bd cea6 c73b
00000160: 74db aabc 3bd4 a4bc 132a 3d3d 5991 2a3c
00000170: abeb 83bc deda 9fbd ee68 aebd dae9 2039
00000180: c8a8 01bc ef7f 423c e9f2 04bb f7bd 70bd
00000190: af64 7f3d fcef 04bd 736a 153d 6012 203d
000001a0: 4378 043d 1972 7a3d 2ebe a7bd 979c 87bd
000001b0: 89ce 02bc f1db 463d 8fba 5dbd 5086 893c
000001c0: c7ac 8abc b41e c3ba 98bf 81bd 8c58 79bc
000001d0: c0f5 0ebb c5e9 d73d e96f febd d234 5f3d
000001e0: dfa0 cabd af29 b2bc 2f90 e73b 7cd9 a63c
000001f0: 45e7 16bd 09b2 8e3d f39d 8d3c 2be5 53ba
0.05879568 0.08068875 0.05758596 0.0027638741 -0.04395834 0.009518918 -0.013205746 -0.008715413
-0.09556458 0.015821993 0.048182078 -0.008765424 -0.08316416 0.025294796 -0.05365266 -0.049328838
0.06537537 0.055939756 -0.094351426 -0.08862913 0.005202077 -0.07662428 -0.108017035 -0.03464659
-0.05651232 0.09283264 0.030798998 0.01538538 -0.07705267 -0.02690544 0.070573896 -0.037055757
0.00029886424 0.062697284 0.021249317 -0.06466297 0.080910064 0.02004424 -0.01275908 -0.009849453
-0.048066445 -0.021291386 -0.08295476 -0.07098416 0.047636446 0.08284438 -0.07674102 -0.07514427
-0.011510024 -0.034372088 0.051664095 0.04272295 0.02337522 0.031407148 -0.06096201 0.10697627
-0.0739621 -0.09201062 0.07905203 -0.028282303 0.022656748 0.014060864 0.02348472 -0.042200416
0.0787409 -0.03168812 0.024221914 0.008034342 -0.11141944 -0.08704835 0.03016412 -0.047833905
-0.08912047 -0.00096949417 0.08753899 -0.016107649 -0.06776932 -0.061877634 0.05977909 -0.03603048
0.046669196 0.08703507 -0.061296556 -0.07606248 0.057248417 -0.07994003 -0.06708799 0.0060928827
-0.020856597 -0.02012073 0.046182703 0.01041063 -0.016103586 -0.078054175 -0.085161075 0.00015345906
-0.007913776 0.011871322 -0.0020286387 -0.058774915 0.06235188 -0.03245543 0.03647847 0.039080024
0.032341253 0.06114397 -0.08190571 -0.06621664 -0.007983812 0.048549596 -0.054132994 0.016787678
-0.01692809 -0.001488647 -0.06335372 -0.015218865 -0.002181396 0.10542635 -0.12423689 0.054493733
-0.09893965 -0.021748392 0.0070667486 0.020367377 -0.03684165 0.06967551 0.01728723 -0.000808316

layers.output.weight f4 [2, 128]
00000000: 8d7c ebbd 46f0 fa3c 1432 15bf 48f1 bb3e
00000010: ddcd 5b3f df4a d5be 7859 573f bd97 1a3f
00000020: a621 7aba aa2b c7bd eda2 ff3d 8266 0fbe
00000030: bf6a b8bc 3482 1e3e 2b11 e63d f5b5 383e
00000040: f4cf 9fbe 85ec 6f3e d961 dd3e 4395 3ebf
00000050: 1f76 9a3d 29a0 c4bc 19dd eebd d8db d4bd
00000060: 34bd a7be 82c7 8a3d f364 733e 10fd 2b3f
00000070: 74be 973e 757c 33be 3cef a43e 410d 57bf
00000080: 5c34 c9be a355 e7bc 79fc 9e3d 94f0 bcbc
00000090: a31a ea3c a7e3 5a3e 6147 f23d 2def dabd
000000a0: 2199 1e3e 8a4a c7bd 28c0 e1be 60b6 acbd
000000b0: 29e0 613e 827f 2d3f c2cc 9dbc bd20 253f
000000c0: 4221 983e f51f cfbd cf53 4abf 2e6c e03d
000000d0: 2c90 d1bd 4a6a 2d3e 7d89 d13e 811f 713e
000000e0: 767c 853d ae9f 4fbf 7fbb 01bf 1ea1 643f
000000f0: 2580 223f 94fb 2c3e f35f 743c b3fd 553d
00000100: 335d cb3c bee0 a8be c77b 463f b1aa 443e
00000110: 87ce bdbe 95b6 02be b940 943e a9c7 d2be
00000120: adec 57bf e759 023f 6584 643e c277 923d
00000130: 85c9 33be 4b3d d83d ac26 183e 080c 46be
00000140: 6729 8cbe 273a bfbd 2227 0e3f 2528 9cbb
00000150: 187a 8c3d 1e17 c13e 2a1a e4bc 0391 41be
00000160: 9ce5 223f 8534 003e f5d6 28bf 06b3 3e3b
00000170: b91d db3e 8aa0 373f eedf db3c 542b 2ebf
00000180: a606 9c3e 006d 3a3e 40c2 b13d 5573 87bd
00000190: 46d3 cfbd 6cbd 3dbf bf09 493f 3f9a b03d
000001a0: 740a 8dbd 7b2a f8be 206f 533f 7f51 00be
000001b0: 1cd2 27be 842a 83be 999d 9f3e 4bc2 383e
000001c0: 5d0c 93bd 1a5c 8d3e 12f7 733e 85f8 f8bd
000001d0: 8f81 8dbd 2bbb db3d 0e25 3e3e 290c cfbd
000001e0: 4a0e c4bc d3b8 22be 2d7b 013e 3d2a 21be
000001f0: 8ea0 003e 6b9c f9bd 564b 0bbd 92a9 093e
00000200: bfd4 cb3d 1271 d4be a573 8d3e a8af 48bc
00000210: e5d6 253e 205a 683d 6648 f93d 16c7 84be
00000220: 2383 3bbe e6d0 603e 74f1 2e3d 8776 3a3e
00000230: c9cc 2ebe d970 723d 09dc 9fbb 8b45 4d3e
00000240: 0240 523e b2f2 68be d3e1 02bf e9e0 143e
00000250: ab4a 093e 4030 95be 2be4 d9bd f114 83be
00000260: d7b6 033d 30f9 7ebe 283b e9bd e0da edbe
00000270: 89a5 573e adfa b3bd a9c3 b6bc cfc6 f73e
00000280: 837c c33e a1b2 2ebe f39c 4c3e 1082 b2bd
00000290: ce45 703e 137e adbe d10b 793e fb25 e43c
000002a0: 0f78 ac3e 1753 c1bd cab3 ffbe 2fa3 42be
000002b0: 2b65 02bc ddd0 abbe 6d3a ae3e b86d e5be
000002c0: 0826 833c b874 013e 17b7 5a3b 0c2a 033d
000002d0: 9967 9b3e e85e cfba 9e78 3cbf 2e85 d33d
000002e0: d747 413e c6f4 2e3c c2ec 083f d733 923d
000002f0: c236 42bf 2363 263e 4b67 cb3e cb18 41bf
00000300: 7343 9a3e 030c 933d 670f 41bf 784e f53c
00000310: e3e8 5ebc 00c4 d63e c3d7 b83d 0a07 9c3f
00000320: ea79 8c3e 4f1c 0abf a2ac 7b3e e647 53bd
00000330: eba4 f23e 47c1 f83e 395f 473e 62cb 883e
00000340: 69c2 a83e 3c0a 76bd 11fa a4be ed62 253c
00000350: cfe9 eabd 6980 12bf e4d7 b83d d664 6cbe
00000360: 9a13 bc3e 0042 653e e715 bcbd 078e 903d
00000370: 8267 f6be d7a8 da3d e9ee 973e 0a1e 7d3f
00000380: 31ea abbe 425f fbbd 2af6 5abd 3686 f8bd
00000390: 341a 13be 01b8 e93d 5f8f 03bd 186a 2fbd
000003a0: 70c7 bf3a 5ce4 1e3e 312e 393c 4d74 0abe
000003b0: 3078 b5bd ddc8 893e aad9 f7be 8ef8 253e
000003c0: 93c5 0f3f c9d4 813e e564 f5be da57 21be
000003d0: 3791 97bd a954 fd3d afef 29be 9ac4 113e
000003e0: 0d42 23be 8abe 82be f7ef 743e 1ab5 3c3f
000003f0: 67f9 2d3b 43e1 65be f6e1 db3d 7e39 133f
-0.114983656 0.03063215 -0.5827954 0.3670752 0.85861 -0.41658685 0.84120893 0.60387784
-0.0009541757 -0.09725125 0.124822475 -0.14003947 -0.022511838 0.15479356 0.11233743 0.18038161
-0.31213343 0.23430069 0.43238714 -0.74446505 0.07542061 -0.024002152 -0.11663265 -0.10393494
-0.32761538 0.06776334 0.23768978 0.6718302 0.29637492 -0.17527945 0.3221377 -0.840046
-0.3929776 -0.028239077 0.07762999 -0.023063935 0.028577155 0.21375905 0.11830021 -0.106901504
0.15488102 -0.09731014 -0.44091916 -0.08433223 0.22058167 0.67772686 -0.019262675 0.6450308
0.29712874 -0.10113517 -0.7903413 0.10958134 -0.10232577 0.16935077 0.40925208 0.23547174
0.0651788 -0.81103027 -0.5067672 0.89308345 0.63476783 0.16892844 0.014915454 0.0522439
0.024824714 -0.32983965 0.7753262 0.19205739 -0.3707163 -0.12764962 0.2895563 -0.41167954
-0.84345514 0.5091843 0.2231613 0.07151748 -0.17557342 0.10558566 0.14858502 -0.19340527
-0.27375337 -0.093372636 0.5552846 -0.004765528 0.06859225 0.3771295 -0.027844507 -0.18902974
0.63631606 0.12520035 -0.65953 0.0029098406 0.42796114 0.7172934 0.026840176 -0.68034863
0.30473822 0.18205643 0.08679628 -0.06613795 -0.10147719 -0.7411716 0.78530496 0.0862317
-0.068867594 -0.4846991 0.8259144 -0.12531088 -0.16388744 -0.25618374 0.31174925 0.18042867
-0.071800925 0.2760933 0.23824719 -0.12156776 -0.06909477 0.10729059 0.18568823 -0.10109741
-0.023932595 -0.15890817 0.12644644 -0.15738769 0.12561247 -0.121880375 -0.034007393 0.13443592
0.099526875 -0.41492516 0.27627292 -0.012248911 0.16195257 0.056726575 0.12172012 -0.2593314
-0.18311743 0.21954688 0.042710736 0.18209277 -0.17070307 0.05918965 -0.004878525 0.2004606
0.2053223 -0.22748831 -0.5112583 0.14538921 0.1340739 -0.29138374 -0.10639223 -0.25601915
0.03215679 -0.24899745 -0.11388236 -0.4645605 0.2105924 -0.08788047 -0.022310095 0.48393866
0.38180932 -0.17060329 0.19981746 -0.08716214 0.23464128 -0.3388525 0.24320914 0.027850142
0.33685347 -0.09439676 -0.49941856 -0.19007562 -0.007958691 -0.33557788 0.3402895 -0.4481027
0.016009346 0.12642181 0.003337329 0.03202252 0.30352476 -0.0015821131 -0.7362155 0.103281364
0.18875061 0.010678476 0.53486264 0.07138794 -0.75864804 0.16248755 0.39727244 -0.75428456
0.30129585 0.071800254 -0.7541413 0.029944643 -0.013605329 0.4194641 0.09025528 1.2189648
0.27436763 -0.53949445 0.24577573 -0.05158224 0.47391447 0.4858496 0.19469918 0.2671767
0.32960823 -0.060068354 -0.32222036 0.0100943865 -0.11470377 -0.5722719 0.09025553 -0.23085341
0.36733705 0.22388458 -0.09183865 0.070583396 -0.48125845 0.10676735 0.2967446 0.9887396
-0.3357711 -0.12274028 -0.053457417 -0.12134974 -0.14365464 0.11412049 -0.03211915 -0.04282579
0.001463158 0.155168 0.011302517 -0.13520928 -0.088608146 0.2691106 -0.48408252 0.16208097
0.5616085 0.25357655 -0.4792854 -0.15756169 -0.074007444 0.12369663 -0.16595338 0.14235154
-0.15943165 -0.25535995 0.23919664 0.7371384 0.002654636 -0.22449212 0.10736458 0.575096

layers.output.bias f4 [2]
00000000: 6122 063e ca17 08bc
0.13099052 -0.008306453
