results/SMOTE10K/smote0/smote0.45/model.pth (torch, 205093 bytes, 10 tensors)

layers.block_0.layer.0.weight f4 [128, 2]
0	0x3e766b39	0.2406434
1	0xbe773d1d	-0.24144407
2	0x3f6092df	0.8772411
3	0xbe2c51d0	-0.16828084
4	0x3f7039b9	0.9383808
5	0x3ecaa373	0.39577827
6	0xbf3bd0e2	-0.73365605
7	0x3f1d6f46	0.61497915
8	0xbf60ca92	-0.878091
9	0x3e1ff107	0.15619288
10	0x3f62fb64	0.8866484
11	0x3f3863c6	0.7202724
12	0x3f7940c8	0.97364473
13	0xbe3474eb	-0.17622726
14	0xbe920c49	-0.28524998
15	0x3ee6b46e	0.45059532
16	0x3d95eb55	0.07320277
17	0x3f28f52e	0.65999115
18	0xbf5f41fc	-0.8721006
19	0x3e0a52f0	0.135082
20	0xbf50b15d	-0.81520635
21	0xbed2a0a7	-0.41138193
22	0xbefec567	-0.4975998
23	0x3f04a85a	0.51819384
24	0x3eecf98e	0.46284145
25	0x3f2b1fb9	0.6684528
26	0x3f0f2fde	0.55932415
27	0xbf12322e	-0.5710782
28	0x3f60028f	0.87503904
29	0x3ef9af60	0.48766613
30	0x3f9dc8b4	1.2326875
31	0xbeeca9ca	-0.4622329
32	0xbf76c7f4	-0.96398854
33	0xbed1b07b	-0.40954956
34	0xbf233954	-0.6375935
35	0xbf0467d6	-0.5172094
36	0xbf73e122	-0.952654
37	0xbdf18191	-0.11792291
38	0x3f6668ef	0.90003866
39	0xbd6dc5be	-0.05804991
40	0x3f1221bd	0.5708273
41	0xbf085c84	-0.5326617
42	0xbf6739a0	-0.90322304
43	0x3eda4ecb	0.4263824
44	0x3e94f01f	0.29089448
45	0x3ee93ed3	0.45555744
46	0xbf9d6416	-1.2296169
47	0x3ef0667c	0.4695319
48	0x3f8abb72	1.0838454
49	0x3ad640f7	0.0016346265
50	0xbf85a469	-1.0440799
51	0x3e570c40	0.21000767
52	0x3f6d3188	0.92653704
53	0x3e90e72c	0.2830137
54	0x3f77558a	0.966149
55	0xbef2c3f4	-0.47415125
56	0xbec9a1c6	-0.39381236
57	0x3efb636b	0.49099287
58	0x3f1a7a7f	0.60343164
59	0x3ea07f7e	0.3134727
60	0x3ed24663	0.41069326
61	0x3ec94622	0.3931132
62	0xbd0bd6f1	-0.03414053
63	0xbf301f56	-0.68797815
64	0xbf73e445	-0.95270187
65	0xbf06815f	-0.52541155
66	0xbe175264	-0.14777523
67	0xbf101540	-0.56282425
68	0x3f1486d9	0.5801826
69	0xbe3cf1eb	-0.1845166
70	0xbc187e53	-0.009307462
71	0x3ebfcc12	0.3746038
72	0xbf7d4eea	-0.9894854
73	0x3f3cd640	0.7376442
74	0xbf44173a	-0.7659794
75	0xbde473cd	-0.111549
76	0x3f7594a4	0.9592993
77	0x3f086a61	0.5328732
78	0xbf73b5a8	-0.9519906
79	0x3f168e77	0.58811134
80	0x3f666dc0	0.90011215
81	0xbf362ea9	-0.7116495
82	0xbe839de4	-0.25706398
83	0xbf37d609	-0.71810967
84	0x3f72ea6e	0.9488896
85	0x3dbffd93	0.09374537
86	0xbeae862e	-0.34086746
87	0x3e9d495d	0.30720034
88	0xbfa0404d	-1.2519623
89	0x3f19b223	0.6003744
90	0xbf9a61b3	-1.2061065
91	0x3ee370fb	0.44422135
92	0xbe81b4aa	-0.25333148
93	0xbec94468	-0.39310002
94	0xbd16f3ee	-0.036853723
95	0xbe047813	-0.1293643
96	0x3f2bc4b7	0.6709704
97	0x3f13c139	0.5771671
98	0x3f40f266	0.7536987
99	0x3de4ad0c	0.111658186
100	0x3f77f81f	0.9686298
101	0x3f02dc5e	0.51117504
102	0x3f1ddb45	0.61662704
103	0x3e8656bf	0.26238057
104	0xbf0e6def	-0.55636495
105	0x3d67f091	0.056625906
106	0x3ea3033c	0.31838405
107	0xbf3e4c73	-0.743354
108	0xbf0e3592	-0.5555049
109	0xbf37ef94	-0.7184994
110	0xbf31b808	-0.69421434
111	0x3ed76f91	0.42077306
112	0xbfa02edd	-1.2514302
113	0x3eec0ead	0.46104947
114	0x3f9ee6ca	1.2414181
115	0x3f0a28a2	0.5396825
116	0xbf6b8ab8	-0.92008543
117	0xbe09422d	-0.1340415
118	0xbf80cac8	-1.0061884
119	0x3ed49bf2	0.41525227
120	0x3e89a1ac	0.26881158
121	0x3f1df3d7	0.61700195
122	0xbf807dfa	-1.0038445
123	0x3f105d99	0.5639282
124	0xbf299810	-0.66247654
125	0xbdabedc4	-0.083949596
126	0xbe6f8110	-0.23389077
127	0xbd8fded7	-0.07024925
128	0x3ea16658	0.31523395
129	0x3e3323f6	0.17494187
130	0x3f67fc37	0.90619224
131	0x3e331884	0.1748982
132	0xbf1edc21	-0.6205464
133	0xbf30298e	-0.6881341
134	0x3de8bc32	0.113640204
135	0xbce7df82	-0.028304819
136	0x3e7a96a8	0.24471533
137	0x3f4dc532	0.8037902
138	0xbf89b026	-1.0756881
139	0xbee51472	-0.4474216
140	0x3ea90ab9	0.33015993
141	0x3eed6d5a	0.4637249
142	0x3f7e25e7	0.99276584
143	0x3e984b40	0.2974491
144	0xbf152bba	-0.58269846
145	0x3eb50cb3	0.3536125
146	0x3f682f6c	0.9069736
147	0x3f1b5c99	0.6068817
148	0xbea6a356	-0.3254649
149	0xbf2a3c52	-0.6649829
150	0xbc445b20	-0.0119846165
151	0x3f1515c4	0.58236337
152	0xbf3af3fb	-0.73028535
153	0x3ed83d1b	0.4223412
154	0xbdd065fa	-0.101757005
155	0xbe60444a	-0.2190105
156	0x3f084f63	0.53246135
157	0x3ef469c8	0.47736955
158	0x3f812250	1.0088596
159	0xbec03e6f	-0.37547633
160	0xbe9bc8f9	-0.30426767
161	0xbda7f812	-0.082016125
162	0x3f2a7f86	0.66600835
163	0xbe43245a	-0.19056836
164	0xbf36c648	-0.71396303
165	0xbe08f798	-0.133757
166	0x3f7518cd	0.9574097
167	0x3e8c7f45	0.2744085
168	0xbfb04a42	-1.3772662
169	0x3e23fc53	0.16014223
170	0x3f9d75cd	1.2301575
171	0x3e377939	0.17917337
172	0xbf708dd5	-0.9396642
173	0xbebc2774	-0.3674885
174	0xbf80a474	-1.0050187
175	0x3e85bc4b	0.2612022
176	0x3e9932a8	0.2992146
177	0xbf434932	-0.7628356
178	0xbf3cee7a	-0.73801386
179	0xbd1f3d32	-0.03887672
180	0x3f5c11ee	0.8596486
181	0x3f0a4091	0.5400477
182	0xbf307888	-0.68933916
183	0xbeadbffe	-0.3393554
184	0x3f678001	0.90429693
185	0x3e2ada5f	0.16684864
186	0x3f96f36b	1.1793035
187	0xbeeb41d1	-0.4594865
188	0x3fad1e89	1.3524944
189	0xbe33e23f	-0.17566775
190	0xbf0bd9aa	-0.54629004
191	0x3e2b7f87	0.16747867
192	0xbf971d39	-1.1805793
193	0xbe697120	-0.2279706
194	0x3f6724ca	0.9029051
195	0xbec6342c	-0.3871168
196	0xbf8fef78	-1.1244955
197	0x3e3e0112	0.18555096
198	0x3e8cf46f	0.27530238
199	0xbf0ee3b1	-0.5581618
200	0x3f820bc6	1.0159843
201	0x3f045847	0.516972
202	0x3f366e37	0.71261925
203	0xbeefc996	-0.46833485
204	0x3eafdf4a	0.34350044
205	0x3f479ecb	0.77976674
206	0xbf69cab0	-0.913249
207	0xbf18651c	-0.5952928
208	0x3f8205dc	1.0158038
209	0x3e735b16	0.23765215
210	0x3f1731cd	0.59060365
211	0xbf1f7233	-0.6228363
212	0x3f52caea	0.8234087
213	0xbf09989d	-0.53748494
214	0x3ea1398c	0.31489217
215	0x3f0c2a1e	0.54751766
216	0xbf3d236d	-0.7388218
217	0x3f4e8109	0.8066564
218	0xbf5a930a	-0.85380614
219	0x3ecd5de2	0.4011069
220	0xbf5aa192	-0.85402787
221	0x3e99dd0b	0.30051455
222	0x3d83e351	0.064398415
223	0x3f447615	0.7674268
224	0xbeceeda9	-0.40415695
225	0xbece9734	-0.40349734
226	0xbf027947	-0.50966305
227	0x3ecfceb3	0.40587386
228	0xbf0e8bfe	-0.5568236
229	0x3e51c9bf	0.20487116
230	0x3e1d9abe	0.1539106
231	0x3f3a2c8f	0.7272424
232	0xbf3ede04	-0.7455752
233	0xbd734fcd	-0.059402276
234	0x3e882bd3	0.26595935
235	0xbeca790f	-0.39545485
236	0xbf7daf10	-0.9909525
237	0xbe0bf816	-0.13668856
238	0x3f93ff98	1.1562376
239	0xbf00286d	-0.50061685
240	0x3da73104	0.08163646
241	0x3f21e46c	0.6323917
242	0x3f72cc98	0.94843435
243	0x3f058553	0.5215656
244	0xbf3ecbc3	-0.74529666
245	0x3e1790ad	0.14801283
246	0x3ed53fc2	0.41650206
247	0xbebdc979	-0.37067774
248	0x3f4c2002	0.7973634
249	0x3f452c8d	0.77021104
250	0xbfa0dfdd	-1.2568318
251	0xbef63bfb	-0.48092636
252	0xbe62a7da	-0.22134343
253	0xbf4a3e44	-0.7900126
254	0xbf3e05cb	-0.7422759
255	0xbf30f4ac	-0.6912334

layers.block_0.layer.0.bias f4 [128]
0	0xbf28d60a	-0.659516
1	0x3f1855c3	0.5950586
2	0xbbca1be9	-0.006167878
3	0xbe76c264	-0.24097592
4	0x3e40d066	0.18829498
5	0xbf1d570d	-0.61460954
6	0xbdccaf5b	-0.09994384
7	0x3e892e3b	0.26793084
8	0xbbd21b96	-0.00641198
9	0x3e1e4ab2	0.15458182
10	0x3eb94265	0.36183468
11	0x3ead1629	0.3380597
12	0x3f1f7ba7	0.62298054
13	0xbd1a984a	-0.03774289
14	0xbeaf5f34	-0.34252322
15	0x3ea5d513	0.32389125
16	0x3f25fcbb	0.6483876
17	0xbecdd23a	-0.40199453
18	0x3e467541	0.19380666
19	0x3f1722b8	0.5903735
20	0xbe36eff2	-0.1786497
21	0xbe9d94dd	-0.30777636
22	0xbedfece4	-0.4373542
23	0xbeb5a873	-0.3548008
24	0x3d397246	0.045274995
25	0xbdecc89e	-0.11561702
26	0xbf1ac694	-0.60459256
27	0x3ecbd847	0.39813444
28	0xbf1c4071	-0.6103583
29	0x3eec7da6	0.46189612
30	0xbed86937	-0.42267773
31	0xbf1ced08	-0.6129918
32	0x3f2a7c3f	0.66595834
33	0xbf0cfedc	-0.55076385
34	0xbe196779	-0.14980878
35	0x3e466f29	0.19378342
36	0xbf3924cd	-0.7232178
37	0xbe7dc5db	-0.24782507
38	0xbeeb8e8d	-0.46007195
39	0xbef94558	-0.48685718
40	0x3f31a8b6	0.6939806
41	0xbf3233f7	-0.6961054
42	0xbcdf3b0c	-0.027249835
43	0x3f091ab6	0.5355638
44	0xbf0bae45	-0.5456279
45	0xbf0eb727	-0.5574822
46	0xbf0d1891	-0.5511561
47	0xbf05ec7e	-0.52313983
48	0x3e8a482e	0.27008194
49	0xbe4775af	-0.19478486
50	0xbef48bcc	-0.47762907
51	0xbf2481b2	-0.642604
52	0xbd3cb0c0	-0.046067
53	0xbe2a75f2	-0.16646555
54	0x3f264b64	0.64958787
55	0x3e59c630	0.21267009
56	0xbeb06b41	-0.34456828
57	0xbf28f8e2	-0.66004765
58	0x3e98c511	0.2983785
59	0xbe8c6884	-0.2742349
60	0xbf1a6daf	-0.60323614
61	0xbee54845	-0.447817
62	0x3e6d1d1c	0.23155636
63	0xbf2fc96b	-0.68666714
64	0x3f2e274f	0.6802873
65	0xbf130241	-0.57425314
66	0x3f37a575	0.7173684
67	0x3e206276	0.1566256
68	0x3f38f1f1	0.72244173
69	0x3e4fa7c8	0.20278847
70	0xbe15ea79	-0.14640225
71	0xbf0500d1	-0.5195437
72	0xbed6a27e	-0.41920847
73	0xbf0941b2	-0.5361587
74	0xbea4e46d	-0.32205525
75	0x3f198aea	0.5997759
76	0xbeed8153	-0.4638773
77	0xbf254704	-0.64561486
78	0x3e92ce1d	0.28672877
79	0x3e8691cb	0.26283106
80	0xbeee35cd	-0.46525422
81	0x3e940f49	0.28917912
82	0xbea84088	-0.32861733
83	0xbee9240f	-0.45535323
84	0xbe123e2d	-0.1428153
85	0xbe8bbcf2	-0.2729259
86	0x3e91fefd	0.28514853
87	0xbf12ddd9	-0.5736976
88	0xbf1bc803	-0.6085207
89	0x3e7784bb	0.24171726
90	0xbeb16b9b	-0.3465241
91	0x3df38bc6	0.11891894
92	0xbe8f7431	-0.28018335
93	0x3ec7f619	0.39054945
94	0x3d92d652	0.071697846
95	0xbb8c060f	-0.004273183
96	0x3da90d49	0.08254487
97	0x3e7221e8	0.23645747
98	0xbdb38088	-0.0876475
99	0xbf2681f8	-0.65042067
100	0x3a3aad24	0.0007121137
101	0x3f1f9db6	0.6235002
102	0xbf2b464e	-0.6690415
103	0x3edb3543	0.42814073
104	0xbf09e272	-0.53861153
105	0xbda6e80e	-0.0814973
106	0x3ef9fd01	0.4882584
107	0xbda7f620	-0.082012415
108	0xbf37a1a6	-0.7173103
109	0xbea70b39	-0.3262575
110	0xbeeee41a	-0.46658403
111	0x3f163d37	0.58687156
112	0xbd40c152	-0.047059365
113	0x3f024cc8	0.5089841
114	0xbf27c745	-0.65538436
115	0xbf05adf5	-0.5221856
116	0xbf24cb2e	-0.6437253
117	0x3f37e0d5	0.7182744
118	0x3f0772c5	0.529095
119	0x3ec572df	0.38564202
120	0xbeea44c4	-0.4575559
121	0xbf118007	-0.5683598
122	0x3ba81b6d	0.0051302225
123	0xbeb7d3ef	-0.3590388
124	0xbf2498e5	-0.642958
125	0x3ed4f889	0.41595867
126	0xbee350fa	-0.44397718
127	0x3ef793b9	0.4835489

layers.block_1.layer.0.weight f4 [128, 128]
0	0xbddeec5a	-0.10884924
1	0xbdaa2e78	-0.083096445
2	0xbd2b0ca9	-0.04176012
3	0x3dd7dfed	0.10540757
4	0x3e1bf78a	0.15231147
5	0xbd2900af	-0.041260418
6	0xbd8dfc6f	-0.069329135
7	0x3cee3806	0.029079448
8	0xbd9a00a2	-0.07519652
9	0x3e38e6d5	0.18056805
10	0x3df37d6d	0.118891574
11	0x3d7b8711	0.061408106
12	0x3c8d5139	0.017250644
13	0xbc76e236	-0.015068581
14	0xbe7ee9b8	-0.24893844
15	0xbe49c9c2	-0.19705871
16	0x3d717de8	0.058957964
17	0x3dfa1e9d	0.1221287
18	0x3e57d5d0	0.21077657
19	0xbda1d46d	-0.07901845
20	0xbe11911d	-0.14215513
21	0x3e407f4a	0.18798557
22	0x3c647ecc	0.013946246
23	0x3e05f641	0.1308222
24	0xbeb287a2	-0.34869105
25	0x3e87bc76	0.26510972
26	0xbe047cde	-0.12938258
27	0xbd78828a	-0.060671367
28	0x3d6ed12b	0.058304947
29	0xbd907404	-0.07053378
30	0xbe2683b8	-0.16261184
31	0x3ba0308a	0.004888599
32	0x3dbbcc96	0.09169881
33	0x3cacbf2a	0.021087248
34	0xbe2762b9	-0.16346253
35	0xbcb751b4	-0.022377826
36	0x3df97240	0.121799946
37	0x3dd7b153	0.10531869
38	0xbe49939a	-0.19685212
39	0x3e339b45	0.175397
40	0xbdc9754b	-0.09836825
41	0xbda2dfe0	-0.07952857
42	0xbe9ae3c2	-0.3025189
43	0x3b029348	0.0019924212
44	0x3d400629	0.046880875
45	0x3e116ae7	0.14200936
46	0x3bf48eb0	0.0074632987
47	0x3a6d99af	0.0009063733
48	0xbd70d54a	-0.05879716
49	0xbd47346f	-0.04863399
50	0xbe141841	-0.14462377
51	0xba1f1fce	-0.0006070108
52	0x3e57dd11	0.21080424
53	0x3c978aa4	0.018498726
54	0x3e021bd6	0.12705931
55	0x3e0a7425	0.13520868
56	0x3e2c6fb4	0.16839486
57	0xbd7c79be	-0.06163954
58	0x3e552411	0.2081454
59	0x3e4e0593	0.20119314
60	0xbd7928cb	-0.06082992
61	0x3d1abd85	0.037778396
62	0x3d0011c1	0.03126693
63	0xbd90d4c7	-0.07071834
64	0xbd9e9235	-0.077427305
65	0xbdecd68f	-0.11564361
66	0x3e17e393	0.14832906
67	0x3ceb4cdc	0.028723173
68	0x3d998585	0.0749617
69	0x3e674d9f	0.22588204
70	0xbd9c23c6	-0.07624011
71	0xbe1c935b	-0.15290587
72	0x3d323d15	0.043515284
73	0xbe11d22e	-0.14240333
74	0x3d3b29ee	0.045694284
75	0xbcb835b4	-0.022486545
76	0x3d1e3a06	0.038629554
77	0x3d805db7	0.06267875
78	0xbc73121d	-0.0148358615
79	0xbdba416c	-0.090945095
80	0xbda227fd	-0.079177834
81	0xbd5c958e	-0.053853564
82	0x3d0e3a04	0.034723297
83	0xbe0c67c2	-0.13711455
84	0x3e4bdcb1	0.19908406
85	0xbe1e1da8	-0.15441
86	0x3e394a9b	0.18094866
87	0x3d2bd45c	0.04195057
88	0xbcf7f1ba	-0.030266631
89	0x3e12cf18	0.14336812
90	0xbe8086c2	-0.25102812
91	0x3e80511d	0.25061885
92	0xbe44023d	-0.19141479
93	0xbe53ed94	-0.20696098
94	0xbe98d101	-0.29846957
95	0x3e64a576	0.22328743
96	0x3ebb1810	0.36541796
97	0xbe5bd904	-0.21469504
98	0x3e9e3c11	0.30905202
99	0x3a016364	0.000493577
100	0xbdfe64af	-0.124215476
101	0xbd374f9d	-0.04475366
102	0xbd8ebdd5	-0.06969801
103	0x3e053686	0.1300908
104	0xbdbffaf0	-0.093740344
105	0x3b225a61	0.0024773108
106	0xbe21a0a4	-0.15783936
107	0xbb058515	-0.0020373513
108	0x3db8c330	0.09021604
109	0x3e5d9b81	0.21641351
110	0x3cee1264	0.029061504
111	0x3d0d7dcc	0.034543797
112	0x3d6f4aa1	0.05842078
113	0xbcab76ad	-0.020930612
114	0x3d9ff074	0.07809535
115	0xbe056fcb	-0.13030927
116	0xbc732529	-0.014840403
117	0x3c41da63	0.011831853
118	0x3dfd486e	0.123673305
119	0xbdb64073	-0.088990115
120	0xbd46ed87	-0.048566367
121	0xbdfa102e	-0.12210117
122	0x3e06aaed	0.1315114
123	0xbdb4829e	-0.08813976
124	0xbe47d89c	-0.19516224
125	0x3e225648	0.15853226
126	0x3ddfd126	0.10928564
127	0x3da91d62	0.082575575
128	0x3d069dc1	0.03286529
129	0xbd09bc3a	-0.033626772
130	0x3b606551	0.0034240077
131	0x3ce34aed	0.027745688
132	0x3de4c194	0.111697346
133	0xbd0865fb	-0.03330038
134	0xbde955d3	-0.11393323
135	0xbd8c014e	-0.06836186
136	0xbd9b39ed	-0.07579408
137	0x3d930286	0.07178216
138	0xbd2dd87c	-0.042442784
139	0x3cdd4030	0.027008146
140	0xbda69e4a	-0.0813566
141	0xbda9be20	-0.082882166
142	0xbd995007	-0.07485967
143	0xbdcae076	-0.09906094
144	0xbd6b80f0	-0.05749601
145	0xbd3a8496	-0.0455366
146	0x3d41ab94	0.04728277
147	0xbd460467	-0.048344042
148	0x3d592585	0.053014297
149	0x3e051cc9	0.12999262
150	0x3d82d52f	0.06388318
151	0x3e50f01d	0.20404096
152	0xbd494716	-0.04914006
153	0x3e5da0ca	0.21643367
154	0x3c101cbb	0.008795912
155	0xbded5bd8	-0.115897834
156	0x3e0dedac	0.13860196
157	0xbd957f2d	-0.072996475
158	0x3db8566b	0.09000858
159	0x3c845632	0.016154382
160	0x3d830c6f	0.06398856
161	0x3d5c1894	0.053734377
162	0x3abb3f54	0.0014285841
163	0xbd82f498	-0.06394309
164	0x3de000a5	0.10937623
165	0xbc33ae0e	-0.010966791
166	0xbd222c4e	-0.039593033
167	0x3c7b0dd2	0.015323119
168	0xbde44950	-0.11146796
169	0x3c5e48db	0.013567175
170	0xbe1ba345	-0.15199001
171	0xbda18c15	-0.07888047
172	0x3e32728c	0.17426509
173	0x3d8b916f	0.06814849
174	0x3d5e5e0c	0.05428891
175	0x3ca8e6f8	0.020617947
176	0xbdd8eef5	-0.105924524
177	0xbd85caa2	-0.0653279
178	0x3d0c6ebd	0.034285296
179	0x3d882813	0.066482686
180	0x3df8cbe2	0.121482626
181	0x3d7aaf3e	0.06120228
182	0xbddb39e3	-0.107044004
183	0x3cdda266	0.027054977
184	0x3db7e617	0.08979433
185	0xbcd87c88	-0.026426569
186	0x3dc8fdc8	0.0981403
187	0x3da14f12	0.078764096
188	0xbbc1794b	-0.005904352
189	0x3e3f3145	0.18671139
190	0x3bfd2fa5	0.007726627
191	0x3c7901a0	0.015198141
192	0xbb8963e3	-0.0041928156
193	0x3c5871e9	0.013210752
194	0x3aa8dac2	0.0012882578
195	0xbdd1b0d8	-0.102388084
196	0xbda76eb6	-0.08175413
197	0xbc886708	-0.016650692
198	0x3d5b2d74	0.053510144
199	0xbda614e7	-0.081094556
200	0x3e35ccb9	0.17753877
201	0xbd34eb78	-0.044169873
202	0xbd84d52e	-0.06485973
203	0xbdbdebd7	-0.092734985
204	0x3df99a00	0.12187576
205	0xbca356bd	-0.019938821
206	0xbdabb9f8	-0.0838508
207	0xbdca52cd	-0.09879074
208	0x3d833ba7	0.06407862
209	0xbdf5652b	-0.11982187
210	0x3ce6f8c1	0.028194787
211	0xbda0aa27	-0.07844954
212	0x3d2f25f0	0.04276079
213	0xbdada244	-0.08478215
214	0x3dca72a9	0.09885151
215	0x3d46e515	0.048558313
216	0x3dba035a	0.090826705
217	0xbba7299d	-0.0051013962
218	0x3cfdf3cf	0.031000046
219	0xbd2f63a8	-0.04281965
220	0xbdc8987b	-0.09794708
221	0xbe042b07	-0.12907039
222	0xbe74dea7	-0.2391306
223	0x3e299ced	0.16563769
224	0x3dc9ecbf	0.09859609
225	0xbe3c4c26	-0.18388423
226	0x3e4ba043	0.19885354
227	0xbd83e6f1	-0.06440533
228	0xbdee388f	-0.116318814
229	0xbe156f29	-0.14593185
230	0x3d0df480	0.034657
231	0x3d8a8363	0.06763341
232	0xbdb24fb3	-0.08706608
233	0xbd3fa57a	-0.04678867
234	0xbe4f8282	-0.20264629
235	0x3c715c0c	0.014731418
236	0x3b83ec95	0.0040260055
237	0x3e432067	0.1905533
238	0x3e09e60d	0.13466664
239	0x3d3d625f	0.046236392
240	0xbd1570c3	-0.03648449
241	0xbca15bc3	-0.019697076
242	0x3d52a6c4	0.05142857
243	0x3c8da6e9	0.017291503
244	0x3cb174a7	0.02166207
245	0xbd1df78c	-0.038566157
246	0xbd7267d9	-0.059181068
247	0xbdce357f	-0.10068797
248	0xbccf6db8	-0.025320873
249	0x3d75cbed	0.060008932
250	0x3e00dde9	0.12584652
251	0x3d709348	0.05873421
252	0xbd89277a	-0.06696983
253	0xbd4839e7	-0.048883345
254	0x3c87f545	0.016596446
255	0x3d3e7296	0.046495996

layers.block_1.layer.0.bias f4 [128]
0	0xbd1d7e2c	-0.038450405
1	0x3d2d7f95	0.042358
2	0x3d580b89	0.052745376
3	0x3c32b8f7	0.010908357
4	0xbc8c1df1	-0.01710412
5	0xbd8e7dfd	-0.06957624
6	0xbc6ad0d6	-0.014332017
7	0xbcf89f5a	-0.030349422
8	0xbdd39b09	-0.10332305
9	0xbcc2fd50	-0.02380243
10	0x3dbc0e19	0.091823764
11	0xbe10db03	-0.14146046
12	0xbd02bdd9	-0.031919334
13	0xbd99d16d	-0.07510648
14	0x3d425152	0.047440834
15	0xbd1a6cfd	-0.037701596
16	0xbb733198	-0.0037108418
17	0x3c4ffeb0	0.012695
18	0xbcbcabd9	-0.023031162
19	0xbd9ef319	-0.07761211
20	0x3d4c7951	0.049920384
21	0x3d8db05a	0.06918402
22	0xbd191b40	-0.037379503
23	0xbc1ea235	-0.009682228
24	0xbc55bfcd	-0.013046217
25	0x3c8defcf	0.017326264
26	0x3d27652d	0.040867973
27	0x3d714eda	0.05891309
28	0x3d523538	0.051320285
29	0x3d56a375	0.05240198
30	0xbdb42c97	-0.08797567
31	0x3dbb8ee4	0.091581136
32	0x3d8b1c8f	0.067925565
33	0xbdbdaf2f	-0.09261929
34	0xbdb65aa3	-0.08904006
35	0x3d874cfb	0.0660648
36	0xbd32eeea	-0.043684877
37	0x3d93e3af	0.072211616
38	0x3d1ed068	0.03877297
39	0x3c8ce4f8	0.017199025
40	0xb8d1c5d2	-0.000100027435
41	0x3c024e2f	0.007953211
42	0xbc39aeb0	-0.011333153
43	0x3b65e6d1	0.0035080204
44	0x3d7ae4b5	0.06125327
45	0xbdaf0414	-0.085457
46	0x3c9885ec	0.018618546
47	0x3cec358a	0.028834123
48	0x3d95b2f4	0.07309523
49	0xbc83e140	-0.016098619
50	0xbd7a5381	-0.06111479
51	0x3d9ee29c	0.07758066
52	0xbd5e204c	-0.05423002
53	0x3be0df41	0.0068625514
54	0xbd501a2f	-0.05080622
55	0x3d3b7676	0.04576727
56	0x3cf00e81	0.029303791
57	0x3ca33cb4	0.019926406
58	0xbceaf38c	-0.028680585
59	0xbcb59ab9	-0.022168504
60	0xbd5294c5	-0.05141141
61	0xbe007194	-0.12543327
62	0xbdb2f836	-0.08738749
63	0xbd7c4480	-0.061588764
64	0x3d83c844	0.06434682
65	0xbd6a3ae2	-0.05718506
66	0x3b935e6c	0.00449734
67	0xbd03f6b4	-0.032217696
68	0x3d7e1f45	0.06204154
69	0xbd7717a0	-0.060325265
70	0x3cdd46b6	0.027011257
71	0x3c09b99e	0.008406071
72	0xbdb50aa7	-0.088399224
73	0xbd181ab8	-0.037134856
74	0xbd78a7ac	-0.06070678
75	0x3d78b20a	0.060716666
76	0xbd69e6cc	-0.05710487
77	0xbcdef2d4	-0.027215399
78	0xbdb130f4	-0.08651915
79	0xbd46f6fd	-0.04857539
80	0x3d9b19bc	0.07573268
81	0xbd5e9a12	-0.05434615
82	0x3cac0c97	0.021002097
83	0xbb6d6557	-0.0036223733
84	0xbd6024bb	-0.05472253
85	0xbd55b3aa	-0.052173294
86	0xbc8da8f4	-0.017292477
87	0x3c8b9a4a	0.017041344
88	0xbd8ba0ff	-0.06817817
89	0x3bba224f	0.0056803594
90	0x3da7e525	0.08198003
91	0x3dd3254d	0.10309849
92	0xbcc1be88	-0.023650423
93	0x3c3656dd	0.011129108
94	0x3dd67612	0.10471739
95	0xbcd23290	-0.025658876
96	0xbc692a98	-0.014231347
97	0x3d2484d6	0.040165745
98	0x3d7d2030	0.061798275
99	0x3cf3cc9d	0.029760653
100	0xbda08d0e	-0.07839404
101	0xbd7876ab	-0.060660046
102	0xbd390867	-0.04517403
103	0x3c8a89ec	0.01691147
104	0xbcd3970f	-0.025828866
105	0x3da5071c	0.08057997
106	0x3d691277	0.056902375
107	0xbd864d65	-0.065577306
108	0xbd988ea4	-0.074490815
109	0x3d804be9	0.06264479
110	0x3d54b645	0.05193164
111	0x3e237d0d	0.15965672
112	0xbd9d20b3	-0.076722525
113	0xbd4ba238	-0.04971525
114	0xbd4f9e8f	-0.050688323
115	0xbde41796	-0.11137311
116	0xbcff7bd1	-0.03118697
117	0xbd711d3a	-0.058865763
118	0xbd69d8d2	-0.05709154
119	0xbd23fd19	-0.040036295
120	0x3d89ec42	0.06734516
121	0xbc888ce8	-0.016668752
122	0xbd2e6db5	-0.042585094
123	0x3d40d447	0.047077443
124	0x3c016141	0.007896722
125	0xbd394718	-0.045233816
126	0xbda4731c	-0.08029768
127	0x3d0547d6	0.03253921

layers.block_2.layer.0.weight f4 [128, 128]
0	0x3ba4878c	0.0050210413
1	0x3ca44121	0.020050587
2	0x3d9ea517	0.07746332
3	0xbc936916	-0.017994445
4	0xbd061330	-0.032733142
5	0xbd792616	-0.060827337
6	0xbd298613	-0.04138763
7	0xbc316d8c	-0.010829341
8	0x3cb36aed	0.021901572
9	0x3ccd7e19	0.025084542
10	0xbdd00ef9	-0.10159106
11	0x3d6fcb70	0.058543622
12	0xbcb19ca6	-0.021681141
13	0x3d411167	0.047135737
14	0xbd6c2afc	-0.05765818
15	0xbd83107e	-0.0639963
16	0x3c5a8843	0.013338151
17	0x3db6c732	0.08924712
18	0x3dc58bb4	0.09645787
19	0x3cd7885e	0.026310142
20	0x3d8cb2d8	0.06870049
21	0x3da88135	0.08227769
22	0x3d3272a2	0.043566354
23	0x3c77ffa4	0.015136633
24	0xbc87cc9c	-0.016577058
25	0xbd8618af	-0.06547677
26	0xbdb5286c	-0.088456005
27	0xbad5cbce	-0.0016311349
28	0x3dc3667e	0.09541033
29	0x3dbd7444	0.092506915
30	0xbdd4280e	-0.10359202
31	0xbd9dbc90	-0.07701981
32	0xbdc83679	-0.09776015
33	0xbd110bcf	-0.035411652
34	0x3c6781a1	0.014130027
35	0x3d0825fa	0.033239342
36	0x3d1384b5	0.03601523
37	0xbd86b672	-0.065777674
38	0x398f4899	0.00027329175
39	0xbd4edc71	-0.050503198
40	0xbd6960b9	-0.056977008
41	0x3cd2b331	0.02572021
42	0x3da192e0	0.07889342
43	0x3d94258b	0.07233723
44	0x3da6d4db	0.08146068
45	0x3d6a8789	0.057258163
46	0x3cab763c	0.020930402
47	0xbd133e40	-0.035948038
48	0x3d14cb47	0.036326673
49	0xbb879c16	-0.00413848
50	0x3d9c5315	0.07633034
51	0x3c10b29c	0.008831646
52	0xbcb7e098	-0.022445962
53	0xbb0e58d4	-0.0021720426
54	0xbb2b6ff2	-0.0026159254
55	0x3db5759e	0.08860324
56	0x3d9dd5a5	0.07706765
57	0xbcad6984	-0.021168478
58	0xbc2c59a2	-0.010519417
59	0x3da4035e	0.08008455
60	0xbd8f71a3	-0.07004096
61	0xbd2ef6fd	-0.042716015
62	0xbde3eb90	-0.11128914
63	0xbd6ad7c1	-0.057334665
64	0xbdcbfb37	-0.09960025
65	0xbb302604	-0.0026878128
66	0x3dcf03bb	0.101081334
67	0xbda60c02	-0.08107759
68	0xbcf7fb19	-0.0302711
69	0x3cf4ac54	0.029867329
70	0xbdd020c7	-0.10162502
71	0x3d3fd4f2	0.04683394
72	0xbd301226	-0.042986058
73	0xbd1e06ed	-0.038580824
74	0x3d8233b2	0.06357516
75	0x3b9eec94	0.0048499797
76	0xbde2fb11	-0.11083043
77	0xbd20eed1	-0.039290253
78	0x3d980286	0.07422356
79	0xbd024053	-0.031799626
80	0x3a670c29	0.00088137627
81	0x3d4ae10a	0.04953102
82	0xbd8cd116	-0.068758175
83	0xbd2ab6d4	-0.041678265
84	0xbcf36c67	-0.029714776
85	0x3d9413c1	0.0723033
86	0xbd15aae9	-0.036539946
87	0xbd0646eb	-0.032782476
88	0xbd85005e	-0.06494211
89	0xbd0a20a3	-0.03372253
90	0xbd2502b2	-0.040285774
91	0xbe30b89d	-0.17257924
92	0x3e064ddf	0.13115643
93	0xbc8f13cf	-0.0174655
94	0x3dab932d	0.08377681
95	0x3d7b01ad	0.061280895
96	0x3dbb4db4	0.0914568
97	0x3baf8262	0.005356119
98	0xbd9299c0	-0.07158232
99	0xbd7f9d73	-0.062406015
100	0xbd130e5b	-0.035902362
101	0xbce5979f	-0.0280264
102	0x3d2bbf2f	0.041930374
103	0xbd86250c	-0.06550035
104	0xbdace225	-0.08441571
105	0x3cbfc369	0.023408609
106	0x3d9baa44	0.07600835
107	0xbdaab480	-0.08335209
108	0x3ca318c1	0.019909265
109	0x3d9bfba0	0.07616353
110	0x3db61290	0.08890259
111	0x3b885eab	0.004161676
112	0x3da5c5a9	0.08094341
113	0x3dc1fa52	0.09471573
114	0xbdd9911e	-0.10623382
115	0x3daaf858	0.08348149
116	0xbda41b4a	-0.080130175
117	0xbde410ed	-0.11136041
118	0x3d147d1a	0.03625212
119	0x3dcf0c5c	0.10109779
120	0xbd86b573	-0.065775774
121	0xbd660c40	-0.056164026
122	0xbde3f893	-0.11131396
123	0x3d045f9e	0.03231775
124	0x3cb5bac5	0.022183785
125	0x3d261830	0.04055041
126	0xbd958483	-0.07300665
127	0x3c71dc62	0.014762016
128	0xbd852f64	-0.0650318
129	0xbd84bad3	-0.064809464
130	0x3db1b5fa	0.086772874
131	0x3d8753d0	0.06607783
132	0xbde1e3dd	-0.110297896
133	0xbd5ed90a	-0.054406203
134	0x3d3af6f3	0.045645665
135	0x3d71a8e1	0.058998946
136	0xbd3ee200	-0.04660225
137	0x3dc4aecf	0.096036546
138	0xbe2d6bf1	-0.16935708
139	0x3e1262f5	0.14295562
140	0xbe07f0de	-0.13275477
141	0xba80d87e	-0.0009830145
142	0xbd7d5004	-0.061843887
143	0xbd0dc849	-0.034614835
144	0x3cc1b80e	0.023647334
145	0x3e34f5a3	0.17671828
146	0xbd6a3c76	-0.057186566
147	0xbdf521b5	-0.1196932
148	0xbd56704e	-0.052353196
149	0x3dcdf1a1	0.10055853
150	0xbdb39677	-0.08768933
151	0x3ceba6f8	0.02876614
152	0xbdf1df38	-0.11810154
153	0xbde80ed1	-0.11330951
154	0x3d8c6199	0.06854553
155	0x3d5f9409	0.054584537
156	0x3dd0e1d9	0.10199327
157	0x3bf237ad	0.007391891
158	0x3d5a5903	0.053307544
159	0xbd1b8c33	-0.0379755
160	0xbe01d8ce	-0.1268036
161	0xbde12e95	-0.10995213
162	0x3dfa6f62	0.12228276
163	0xbe01b2f1	-0.12665917
164	0xbdf57258	-0.119847
165	0x3df0ec2f	0.117637984
166	0xbd0cae79	-0.034346078
167	0xbe3feb45	-0.18742092
168	0xbdf18f47	-0.11794906
169	0xbd3dee8d	-0.046370078
170	0xbcf13bc2	-0.02944744
171	0x3da7e45d	0.08197854
172	0x3d891d2b	0.066950165
173	0xbd5067c4	-0.05088021
174	0xbde8801c	-0.1135256
175	0xbd6f5c47	-0.058437612
176	0xbd91c56e	-0.07117735
177	0xbcd3db6f	-0.02586147
178	0x3ce2cd41	0.027685763
179	0xbd7d7381	-0.06187773
180	0xbdb8ebb4	-0.09029332
181	0xbd9ec909	-0.07753188
182	0x3df001fd	0.11719129
183	0x3c74815b	0.014923419
184	0x3e0cd367	0.13752519
185	0xbc63dc3d	-0.013907489
186	0x3cac1136	0.0210043
187	0x3d87d773	0.066328906
188	0xbe447f1a	-0.1918911
189	0x3d4ae62b	0.04953591
190	0x3e3acf2b	0.18243091
191	0x3d9f87c9	0.07789571
192	0x3d9f1cf8	0.07769197
193	0xbdc4e341	-0.09613658
194	0xbd291fe9	-0.041290198
195	0xbe16c869	-0.14724888
196	0xbd4eff88	-0.050536662
197	0x3c52612d	0.012840551
198	0xbde59743	-0.112104915
199	0x3ccc3498	0.024927422
200	0x3e0d50b9	0.13800324
201	0x3e012530	0.12611842
202	0x3d618a6f	0.05506366
203	0x3d5a5596	0.053304277
204	0xbe116bf9	-0.14201345
205	0xbe4360f9	-0.19079961
206	0x3cb40dcc	0.021979235
207	0xbc6342ba	-0.013870889
208	0xbd3bbc23	-0.045833718
209	0xbdbd6921	-0.092485674
210	0x3db0232e	0.0860046
211	0xbdfaf014	-0.122528225
212	0xbd8afa0d	-0.06785975
213	0xbb2ff884	-0.0026851008
214	0xbbe6fa03	-0.0070488467
215	0x3d12c95c	0.035836563
216	0x3d587d51	0.052853886
217	0x3d6a70c6	0.057236455
218	0xbbb0589a	-0.005381656
219	0xbdd38785	-0.10328583
220	0x3cfbd503	0.03074122
221	0x3db41590	0.08793175
222	0xbcd65efe	-0.026168343
223	0xbd83ee57	-0.06441944
224	0x3e08a8b7	0.1334561
225	0x3c886909	0.016651647
226	0x3cd3997a	0.02583002
227	0x3c063cab	0.008193175
228	0x3d06cc78	0.03290984
229	0x3e35532c	0.17707509
230	0xbdf1e083	-0.118104
231	0xbcb8694a	-0.022511143
232	0xbdd99e5b	-0.10625907
233	0xbc7a8734	-0.015291024
234	0xbdd81dfc	-0.10552594
235	0xbd757751	-0.059928242
236	0xbc099b08	-0.008398779
237	0x3d6f16fd	0.058371533
238	0xbd923e72	-0.07140817
239	0x3e178776	0.14797768
240	0xbd6da30c	-0.05801682
241	0x3e17ca71	0.14823319
242	0xbe2e65ac	-0.17030972
243	0x3e45cd67	0.19316636
244	0xbd1859d2	-0.037195034
245	0xbdc837e6	-0.09776287
246	0x3df8aa42	0.12141849
247	0x3d1d451d	0.03839599
248	0x3d476a21	0.048685197
249	0x3d1489bb	0.036264163
250	0xbd50a84f	-0.05094176
251	0xbe0dcb84	-0.13847166
252	0xbd6d354a	-0.05791215
253	0x3d3d2709	0.046179805
254	0xbd1d6d59	-0.03843436
255	0x3cc0983d	0.023510093

layers.block_2.layer.0.bias f4 [128]
0	0xbcbb43ab	-0.022859415
1	0x3db7162e	0.08939777
2	0xbd6049c2	-0.05475784
3	0x3d454f97	0.048171606
4	0x3d50f862	0.051018126
5	0x3d5a2db8	0.053266257
6	0xbce5fa11	-0.028073343
7	0x3bed0ad0	0.007233955
8	0xbda7b347	-0.08188491
9	0xbcbbebe6	-0.022939634
10	0x3aeff6c8	0.00183078
11	0xbd2d9eb4	-0.04238768
12	0x3d54cd4d	0.051953603
13	0x3d9a2415	0.07526413
14	0xbde46d25	-0.1115363
15	0x3d029943	0.031884443
16	0xbd70fa30	-0.058832347
17	0xbd9cbdf6	-0.0765342
18	0x3d52adbb	0.051435214
19	0xbda0d222	-0.0785258
20	0x3da0eeac	0.07858023
21	0xbd95e70b	-0.073194586
22	0x3c19e951	0.009394006
23	0x3d5c5a5a	0.053797103
24	0x3d3a62eb	0.04550449
25	0xbce6e686	-0.028186094
26	0xbdaa42f3	-0.08313551
27	0xbd91b841	-0.07115222
28	0xbc5e547d	-0.013569948
29	0x3d9007fa	0.070327714
30	0x3cb5ad4d	0.022177363
31	0x3e0d2623	0.13784079
32	0x3d9c6781	0.07636929
33	0x3dace8c4	0.08442834
34	0x3bd9d21e	0.0066473624
35	0x3d66269b	0.05618916
36	0x3d863623	0.065532945
37	0xbccdb25e	-0.025109466
38	0x3d8a1538	0.067423284
39	0x3db99c36	0.09062998
40	0x3dc2bafe	0.09508322
41	0xbd97b499	-0.07407493
42	0xbd5697d5	-0.052390892
43	0x3d28de1f	0.041227456
44	0xbc68ec71	-0.014216528
45	0xbca7500d	-0.020423913
46	0x3c2c592b	0.010519306
47	0x3ccdb95b	0.025112798
48	0xbd881a81	-0.0664568
49	0x3d20114e	0.039079003
50	0xbdae8cae	-0.08522926
51	0x3d7d04ef	0.061772283
52	0xbd562384	-0.052279964
53	0x3c40aeeb	0.011760454
54	0x3d110d5f	0.035413142
55	0xbd825999	-0.06364746
56	0xbd38f77a	-0.045157887
57	0x3d8641a7	0.06555491
58	0xbd3eca50	-0.04657966
59	0x3da28c19	0.07936878
60	0x3d01f7c6	0.031730436
61	0x3e0d0ec8	0.1377517
62	0x3d1dd448	0.038532525
63	0x3d292954	0.04129918
64	0xbc306924	-0.010767255
65	0x3b404fde	0.002934448
66	0x3bf81369	0.0075706732
67	0x3d1344d0	0.035954297
68	0x3db97bbd	0.09056804
69	0x3d3e6812	0.046485968
70	0xbd1a0428	-0.03760162
71	0x3c8805f3	0.0166044
72	0x3d13ecce	0.036114506
73	0xbd0bc895	-0.034126837
74	0xbb0ecfcf	-0.0021791344
75	0x3c82f0be	0.015983935
76	0x3bc15ffc	0.005901335
77	0xbc8d333e	-0.017236348
78	0x3c6b4a1c	0.014360931
79	0x3d12ca26	0.035837315
80	0x3c1c5158	0.009540878
81	0x3d81fe02	0.06347276
82	0xbe0b3f7a	-0.13598433
83	0xbd995022	-0.07485987
84	0x3c6f3459	0.014599883
85	0xbda5738a	-0.08078678
86	0x3d1544cb	0.03644256
87	0xbd38beeb	-0.04510395
88	0x3d680e27	0.05665412
89	0xbd514cd6	-0.051098667
90	0xbdbfe21e	-0.093693
91	0xbb6b3b1c	-0.0035893386
92	0x3ce40899	0.027836131
93	0xbcad16d7	-0.021129055
94	0xbd511d68	-0.051053435
95	0xbda75a32	-0.081715
96	0x3d795149	0.060868535
97	0xbd96c2a3	-0.07361343
98	0x3c1f3047	0.0097161
99	0xbdd1d750	-0.10246146
100	0x3bbba5fa	0.005726573
101	0xbc38428e	-0.011246337
102	0xbd08908f	-0.033340987
103	0xbd8da53a	-0.0691628
104	0x3d002f63	0.03129519
105	0x3d29be93	0.04144151
106	0x3da17e2a	0.07885392
107	0x3c462e72	0.012096034
108	0x3dd763b0	0.10517061
109	0x3dea3299	0.11435432
110	0xbdd78428	-0.10523254
111	0xbd55dd74	-0.052213147
112	0x3d145671	0.03621525
113	0xbd84a21e	-0.06476234
114	0xbd32d6cf	-0.04366189
115	0xbd47b5ec	-0.04875748
116	0x3ba66cbf	0.0050788815
117	0xbdb87dd0	-0.09008372
118	0xbd9c48dc	-0.07631084
119	0xbcd7f592	-0.026362214
120	0xbd20c930	-0.039254367
121	0xbd66109c	-0.056168184
122	0x3cb4237e	0.02198958
123	0xbd06bf7b	-0.032897454
124	0xbdda1a33	-0.10649528
125	0xbc5a62b0	-0.013329193
126	0xbd0164e8	-0.031590372
127	0xbb973030	-0.0046138987

layers.block_3.layer.0.weight f4 [128, 128]
0	0xbd9b3201	-0.07577897
1	0x3d66bd28	0.056332737
2	0xbda0dd3a	-0.078546956
3	0xbd2dd47e	-0.042438976
4	0xbe23fbb7	-0.1601399
5	0xbb74841d	-0.003731019
6	0x3c383350	0.011242703
7	0x3cbe1726	0.023204397
8	0x3d89936f	0.06717574
9	0xbdd05b9f	-0.10173725
10	0xbdd20b21	-0.10256029
11	0x3c98866b	0.018618783
12	0xbbdd4e07	-0.0067536863
13	0x3e076c10	0.13224816
14	0xbd287c66	-0.04113426
15	0xbe5f79c7	-0.21823798
16	0x3bb8ed25	0.005643504
17	0x3d06f479	0.03294799
18	0x392a9d5e	0.00016271087
19	0xbe448d9b	-0.19194643
20	0xbe4a83bb	-0.19776814
21	0x3cedae37	0.029013736
22	0x3d8d23d6	0.06891601
23	0xbd9d60a8	-0.07684451
24	0xbdead3a3	-0.11466148
25	0x3de9182e	0.11381565
26	0x3bce3370	0.006292753
27	0xbd23da20	-0.040002942
28	0xbcfe7c6a	-0.031065185
29	0xbc57f43d	-0.01318079
30	0xbdc6828a	-0.09692867
31	0x3daef0f7	0.08542054
32	0x3d5aad80	0.05338812
33	0x3cf7f115	0.030266324
34	0xbde05680	-0.109539986
35	0x3de48763	0.111586355
36	0xbdfbdbea	-0.12297805
37	0xbd47b0b2	-0.048752494
38	0xbd48e475	-0.049046
39	0xbc509813	-0.01273157
40	0xbd473de8	-0.048643023
41	0x3dd4297d	0.10359476
42	0xbdd2ba9a	-0.10289498
43	0xbe21a0c4	-0.15783983
44	0xbc21144b	-0.009831498
45	0x3d857933	0.065172575
46	0x3d8109c8	0.06300694
47	0xba9068f3	-0.0011017605
48	0x3d80cafb	0.062887155
49	0x3e3361ef	0.17517827
50	0x3e1c33c0	0.15254116
51	0x3dd5dc52	0.104424134
52	0x3d80aa19	0.062824436
53	0x3d2fc68e	0.042913966
54	0xbd16f47e	-0.03685426
55	0xbd8da422	-0.069160715
56	0x3bcefe06	0.006316903
57	0xba51a749	-0.0007997645
58	0x3e1f22fc	0.15540689
59	0x3d6bb4e6	0.057545565
60	0xbb5aa88c	-0.0033364622
61	0xbcaa4fb9	-0.020789968
62	0x3d2591df	0.040422317
63	0xbdae69d4	-0.08516279
64	0xbc36a02b	-0.011146585
65	0x3e267f2f	0.16259454
66	0x3dadc144	0.08484128
67	0x3d52cc77	0.051464524
68	0xbdec7929	-0.11546547
69	0x3dad64b5	0.08466474
70	0xbd8ba9c5	-0.0681949
71	0x3d2d2b3a	0.042277552
72	0x3d437114	0.04771526
73	0xbd4d8dd1	-0.050184075
74	0x3cd2e4ee	0.025743928
75	0xbd837243	-0.06418278
76	0x3a1cd0a0	0.0005982015
77	0xbe35151c	-0.17683834
78	0xbdbd8a7a	-0.09254928
79	0x3ddfbd95	0.10924832
80	0x3b4fb04c	0.0031690774
81	0xbcfe6c04	-0.031057365
82	0x3cb48866	0.022037696
83	0xbc965631	-0.018351646
84	0xbd931ea0	-0.07183576
85	0x3cf6f7a8	0.030147389
86	0x3bfb4220	0.007667795
87	0x3dbe443d	0.09290359
88	0x3cae9ea3	0.021315878
89	0xbbfc21b5	-0.007694448
90	0x3c939a58	0.018017933
91	0x3d8c13ce	0.06839715
92	0x3e7bc8e2	0.2458835
93	0x3cc176f3	0.02361629
94	0x3dc456ec	0.095868915
95	0x3d2c3f46	0.04205253
96	0xbe8383a7	-0.2568638
97	0x3c78d9d6	0.015188655
98	0xbcf77365	-0.030206392
99	0x3d5c09df	0.05372035
100	0x3e0254f0	0.12727714
101	0x3e729598	0.23689878
102	0x3d296871	0.04135937
103	0x3dcf4061	0.10119701
104	0xbca5b219	-0.020226525
105	0x3e13ec84	0.14445692
106	0xbcc7e40c	-0.024400733
107	0xbd4570a5	-0.04820313
108	0x3e214ce4	0.15751988
109	0x3de21b58	0.11040372
110	0xbd17cc51	-0.037060086
111	0x3cabf48d	0.020990634
112	0xbb96f433	-0.0046067475
113	0x3de70f0d	0.112821676
114	0xbd79d892	-0.060997553
115	0x3cf90e53	0.030402338
116	0x3cf2f7f4	0.029659249
117	0xbcc259f0	-0.023724526
118	0xbd576c0b	-0.052593272
119	0x3d21f4fa	0.03954027
120	0x3e4fb3ea	0.20283476
121	0x3db08595	0.08619229
122	0x3cb083dd	0.021547252
123	0xbdc242b5	-0.094853796
124	0xbd53981c	-0.051658735
125	0x3d1cce21	0.038282517
126	0x3df520ef	0.11969172
127	0x3c5ad87b	0.013357277
128	0xbd493cde	-0.049130313
129	0xbdeda602	-0.11603929
130	0xbc6e1e06	-0.014533525
131	0x3d84ed58	0.06490582
132	0xbcc34c40	-0.02384007
133	0x3de3c70f	0.11121952
134	0x3d6062d3	0.054781746
135	0xbd76e417	-0.060276117
136	0xbd8ddee0	-0.06927276
137	0xbd6b24eb	-0.057408255
138	0xbd02a885	-0.031898994
139	0x3b5dd408	0.0033848304
140	0x3d11cbf4	0.035594895
141	0xbdbdbd8e	-0.0926467
142	0xbd1951d2	-0.037431546
143	0x3d3ba07d	0.04580735
144	0x3cc46df8	0.023978218
145	0xbcc3aa59	-0.023884939
146	0xbb33a400	-0.0027410984
147	0x3d010aa5	0.031504292
148	0x3d6d8e61	0.05799711
149	0xbdb158b0	-0.08659494
150	0xbd1ab09f	-0.037766095
151	0x3c35d8f1	0.011099086
152	0x3d2df75b	0.042472225
153	0xbd25be49	-0.040464673
154	0xbd47fd38	-0.048825473
155	0xbdc23880	-0.09483433
156	0x3d006474	0.0313458
157	0x3d02a322	0.031893857
158	0xbcf11681	-0.029429676
159	0xbd42a174	-0.047517255
160	0x3e031702	0.12801746
161	0x3dbb6ea5	0.09151963
162	0x3cba97b0	0.022777408
163	0x3cc00466	0.023439597
164	0x3d04cf79	0.032424424
165	0x3d492023	0.049102914
166	0x3db14568	0.08655816
167	0x3d584f33	0.052809905
168	0x3d9a08f4	0.07521239
169	0xbda65eb1	-0.0812353
170	0xbd222875	-0.039589364
171	0x3d8bdfc7	0.068297915
172	0xbca9f2ee	-0.02074572
173	0x3d38f078	0.045151204
174	0xbdf25f5b	-0.11834594
175	0x3bdf64b4	0.0068174247
176	0xbbc4d0f8	-0.0060063563
177	0xbd7dcc20	-0.061962247
178	0xbcc5acc6	-0.024130236
179	0x3d49fd21	0.04931367
180	0xbd660b74	-0.056163266
181	0xbd7acdb8	-0.061231345
182	0x3d8e580d	0.06950388
183	0xbcf4b3fb	-0.029870978
184	0x3d465c4b	0.04842786
185	0x3cd4d8fb	0.02598237
186	0xbdd5a96f	-0.104327075
187	0xbdb4c281	-0.08826161
188	0x3d9ed120	0.07754731
189	0x3e15c5b4	0.14626199
190	0xbdabc3af	-0.08386933
191	0xbdd2a98c	-0.10286245
192	0xbdb1be7e	-0.086789116
193	0xbd9171aa	-0.07101758
194	0xbdc26f48	-0.094938815
195	0xbb88591f	-0.0041610147
196	0x3dee633f	0.116400234
197	0xbce129b6	-0.02748571
198	0x3ded981d	0.11601279
199	0xbd25f4ac	-0.04051654
200	0xbd7cd5d6	-0.061727367
201	0x3dc38df9	0.095485635
202	0x3d4826bd	0.04886507
203	0xbc8bc400	-0.017061234
204	0x3d46f62c	0.04857461
205	0xbd48a23f	-0.048982855
206	0x3dbb00de	0.09131025
207	0xbd81648e	-0.063180074
208	0x3d990f3b	0.07473608
209	0x3d69a344	0.057040468
210	0x3ce1d5a3	0.02756769
211	0x3d7ace91	0.061232153
212	0xbd473064	-0.048630133
213	0x3db69910	0.08915913
214	0x3db5ca33	0.08876457
215	0xbcf5f4a9	-0.03002389
216	0x3b98bbf7	0.004661079
217	0xbd03f6f3	-0.03221793
218	0xbd35552c	-0.04427068
219	0xbda2c6a3	-0.07948043
220	0xbd5fee91	-0.054670874
221	0x3d42c92b	0.04755513
222	0x3dcd6e12	0.1003076
223	0xbd6b6446	-0.057468675
224	0x3daf9892	0.08574022
225	0xbd2a9450	-0.041645348
226	0xbc2d0982	-0.010561349
227	0xbcfe3e80	-0.031035662
228	0x3db090ea	0.0862139
229	0xbd95130f	-0.07279026
230	0x3d7625bd	0.060094584
231	0xbd51a981	-0.051187042
232	0xbd2e4c01	-0.04255295
233	0x3d2ddfd8	0.042449802
234	0xbdbe49cc	-0.092914194
235	0x3cf9b4cd	0.03048172
236	0x3d3bca1a	0.045847036
237	0xbe04c08d	-0.12964077
238	0xbd3090f1	-0.043106977
239	0x3d30db6a	0.043178
240	0xbaa1f41c	-0.0012356075
241	0x3dde8839	0.10865826
242	0xbd95a70c	-0.07307252
243	0x3c26e3b3	0.010186124
244	0xbca055f5	-0.019572238
245	0xbe147e1a	-0.14501229
246	0x3df3dce2	0.119073644
247	0x3da3c55c	0.07996628
248	0x3bdf7cb9	0.006820288
249	0xbd8d2dc7	-0.06893497
250	0xbdb394c1	-0.08768607
251	0x3b86359e	0.004095747
252	0x3d0992c2	0.033587225
253	0x3e088717	0.13332783
254	0x3cf0b531	0.029383274
255	0x3d05d530	0.032674015

layers.block_3.layer.0.bias f4 [128]
0	0x3d6d9143	0.05799986
1	0xbc008354	-0.007843811
2	0xbd04882f	-0.032356437
3	0xbdb62ab9	-0.088948674
4	0x3d07541d	0.0330392
5	0xbd928289	-0.07153804
6	0xbd625e51	-0.05526573
7	0x3cceca26	0.025242876
8	0x3cc8915b	0.024483373
9	0x3d449e46	0.048002504
10	0x3d9bece4	0.07613543
11	0x3da6aea1	0.081387766
12	0x3d4fb45f	0.050709125
13	0xbca99af3	-0.020703768
14	0xbd1cf252	-0.038317032
15	0xbd879184	-0.06619552
16	0xbd3e96b0	-0.046530426
17	0x3ccf1d47	0.025282515
18	0x3ce59e77	0.028029663
19	0x3c24fbc7	0.010069794
20	0x3d92fa64	0.071766645
21	0x3d1b28b2	0.037880607
22	0xbd8593c7	-0.06522327
23	0xbd419c9b	-0.04726849
24	0xbdbe00f1	-0.09277523
25	0xbd9159ca	-0.07097204
26	0x3cc5e2fe	0.02415609
27	0xbd595288	-0.053057224
28	0x3d3c7ff7	0.046020474
29	0x3d1fcde7	0.039014723
30	0x3ca5ad93	0.020224368
31	0xbcd08c1c	-0.025457434
32	0x3ca601ab	0.020264467
33	0x3c44cf99	0.012012386
34	0xbda3ea99	-0.0800373
35	0xbcec0201	-0.02880955
36	0x3d937e27	0.07201796
37	0xbcb2a1e4	-0.021805711
38	0x3c72e1da	0.014824355
39	0xbc032011	-0.008003251
40	0x3cc732f1	0.024316283
41	0xbbec7758	-0.0072163753
42	0xbd96b2d3	-0.07358327
43	0xbc247a29	-0.010038891
44	0xbd18513b	-0.037186842
45	0x3cb6d808	0.022319809
46	0xbda4f8a5	-0.08055238
47	0xbd93ddf9	-0.07220072
48	0x3d4109a8	0.04712835
49	0xbd60d18a	-0.054887332
50	0xbc53d266	-0.012928581
51	0x3cfda697	0.030963225
52	0x3d915c82	0.070977226
53	0xbdb017f9	-0.085983224
54	0x3d8309c3	0.06398346
55	0xbd2e954c	-0.04262285
56	0x3dc8692c	0.09785685
57	0xbd9f6328	-0.077825844
58	0x3dd926e9	0.10603125
59	0x3d5dd577	0.054158654
60	0x3d0dd14c	0.03462343
61	0x3dc5f143	0.09665158
62	0x3d41b5b2	0.04729242
63	0x3bdfcdb5	0.006829942
64	0xbcfdfe7f	-0.031005142
65	0xbc1dadde	-0.009623973
66	0x3d1c1515	0.038106043
67	0x3bc67fa9	0.0060576987
68	0xbc903cac	-0.017607056
69	0xbd9feb9b	-0.0780861
70	0xbd4bcde7	-0.04975691
71	0x3d2df2c6	0.042467855
72	0x3d1aaa92	0.037760325
73	0x3b2804e9	0.0025637692
74	0x3c8eb7da	0.017421652
75	0x3d99bdf9	0.075069375
76	0xbd9f3cbe	-0.077752575
77	0xbd245260	-0.04011762
78	0xbca3cf2a	-0.019996244
79	0xbd23985c	-0.039940223
80	0xbccf085f	-0.025272546
81	0xbdad6c92	-0.08467974
82	0xbc1e3994	-0.009657282
83	0xbc6ec9f0	-0.014574513
84	0xbcdbdbfc	-0.026838295
85	0x3cd9ba4b	0.02657809
86	0x3c13f860	0.009031385
87	0xbcdbd0a6	-0.02683289
88	0xbd515e10	-0.051115096
89	0x3c9e8271	0.019349309
90	0x3d134fcb	0.03596477
91	0xbca03415	-0.019556085
92	0xbcaec465	-0.021333883
93	0xbd5cc5f0	-0.053899705
94	0x3c8fb8fb	0.01754426
95	0xbda93507	-0.08262067
96	0x3d3408e9	0.04395381
97	0xbbebb8f2	-0.007193678
98	0x3d510bd2	0.051036663
99	0x3d6fd295	0.058550436
100	0xbcc63c50	-0.024198681
101	0x3d97007f	0.073731415
102	0xbce5e0d3	-0.028061306
103	0xbc4be457	-0.012444577
104	0xbd5202fe	-0.051272385
105	0x3d9c5dab	0.07635053
106	0x3d9d00fd	0.07666204
107	0xbdc5eefd	-0.09664724
108	0x3b82417a	0.0039750906
109	0x3d82900e	0.063751325
110	0x3ca02e63	0.019553369
111	0x3c07b1e2	0.008282157
112	0xbd1b7baf	-0.03795975
113	0x3da3e297	0.08002203
114	0xbcf80a14	-0.030278243
115	0xbcec7e9d	-0.028868968
116	0x3d3df2a1	0.046373967
117	0xbdc060a5	-0.093934335
118	0xbd20c7b4	-0.03925295
119	0x3d7b6df0	0.06138414
120	0xbd96f47f	-0.07370853
121	0x3da0d0c7	0.07852321
122	0xbcdd3da6	-0.027006935
123	0x3d8af7d7	0.06785553
124	0x3d4d4cd3	0.050122093
125	0xbd0a6f0e	-0.033797316
126	0x3dc826a4	0.09772995
127	0xbd7929f0	-0.06083101

layers.output.weight f4 [2, 128]
0	0xbf042a2f	-0.5162687
1	0x3dbcb82d	0.09214816
2	0xbd177d0e	-0.036984496
3	0x3ea0d041	0.31408885
4	0xbda28766	-0.079359815
5	0x3db36072	0.0875863
6	0x3c4e9fa5	0.012611304
7	0xbe1e1856	-0.15438971
8	0xbe0b1565	-0.1358238
9	0x3dbba261	0.09161831
10	0xbe23599f	-0.15952156
11	0x3de949a3	0.11390998
12	0xbd9c8132	-0.076418296
13	0x3f5d1628	0.8636193
14	0x3de9e9ee	0.11421572
15	0xbf3d3f30	-0.7392454
16	0x3f31bfa5	0.6943305
17	0x3ef37d48	0.4755652
18	0x3e057238	0.13031852
19	0x3e9a0247	0.30079862
20	0xbb43674a	-0.0029816204
21	0xbe12accf	-0.14323734
22	0x3e6b3dc3	0.22972779
23	0x3e0e906a	0.13922277
24	0x3f209c5c	0.62738585
25	0x3de88efb	0.11355396
26	0xbda47302	-0.080297485
27	0xbe716cd8	-0.23576677
28	0x3dbb0c70	0.09133232
29	0xbe9123d5	-0.2834765
30	0xbe8c9146	-0.27454585
31	0x3e210863	0.15725856
32	0x3de75701	0.112958916
33	0x3e6e8ce8	0.23295939
34	0xbe79ea8a	-0.24405876
35	0xbe060851	-0.1308911
36	0x3e5b17b2	0.21395758
37	0x3de1fb9f	0.11034321
38	0x3e0b57f5	0.13607772
39	0xbd5d76bf	-0.054068323
40	0x3d115c12	0.035488196
41	0xbf0fe70c	-0.56211925
42	0x3db53c19	0.08849353
43	0xbf6d50b9	-0.927013
44	0x3f160dd9	0.5861488
45	0x3b491265	0.003068113
46	0x3f263be4	0.64935136
47	0xbe08b98d	-0.13352032
48	0x3e907e26	0.28221244
49	0x3e020dc5	0.12700565
50	0x3cbcac82	0.023031477
51	0x3e3c8343	0.18409447
52	0xbf27acc8	-0.6549802
53	0xbee3d770	-0.44500303
54	0x3e290ee4	0.16509587
55	0x3d99d2bd	0.07510898
56	0xbe98fa7e	-0.2987861
57	0x3e638c9d	0.22221608
58	0x3daf0320	0.08545518
59	0x3c4fb402	0.012677195
60	0x3e6861f6	0.22693619
61	0xbebb0334	-0.3652588
62	0x3e1c6159	0.1527151
63	0xbde1c15b	-0.11023208
64	0xbdc08735	-0.09400789
65	0xbf8f5bd0	-1.1199894
66	0xbf543346	-0.8289074
67	0x3f3bb021	0.73315626
68	0x3d57563c	0.052572474
69	0xbe47312e	-0.19452354
70	0xbdab1374	-0.0835332
71	0x3db5682b	0.08857759
72	0x3d2ab592	0.041677065
73	0xbe03365e	-0.12813708
74	0xbdd18cc7	-0.10231929
75	0xbe1daa01	-0.15396883
76	0xbe94775b	-0.2899731
77	0x3ebe0873	0.3711582
78	0x3f670426	0.90240705
79	0x3f2cb0b4	0.6745713
80	0x3f1572cc	0.5837829
81	0x3ed666d5	0.4187533
82	0xbf30d9c5	-0.6908229
83	0xbcdfcd00	-0.027319431
84	0xbd1e9f96	-0.03872641
85	0x3e6dab9c	0.23209995
86	0x3f1fcf4e	0.62425697
87	0x3e88b698	0.26701808
88	0x3deef26c	0.11667332
89	0xbe225570	-0.15852904
90	0xbc542fe6	-0.012950873
91	0xbf5d3671	-0.86411196
92	0x3e950ba0	0.29110432
93	0xbd86d8ee	-0.06584345
94	0x3e116fa6	0.14202747
95	0xbf713623	-0.9422323
96	0x3eb0c158	0.3452251
97	0xbe128455	-0.14308293
98	0xbf1b4bf1	-0.6066275
99	0xbe2b0ab4	-0.16703302
100	0xbedfabb8	-0.43685699
101	0xbee18a26	-0.4405071
102	0xbdb98d08	-0.09060103
103	0x3e378822	0.17923024
104	0xbc409272	-0.011753665
105	0xbf2327ff	-0.63732904
106	0x3dda5d47	0.106623225
107	0xbe693390	-0.22773576
108	0x3c18bdcf	0.009322598
109	0xbe85b379	-0.2611349
110	0xbe928c6a	-0.28622752
111	0xbdb4a1d2	-0.08819927
112	0x3ecb195a	0.3966778
113	0xbcbf3c5d	-0.023344213
114	0xbe4c6414	-0.19960052
115	0xbe625bf4	-0.2210539
116	0x3e1288e0	0.14310026
117	0xbdf36f9b	-0.118865214
118	0x3dfed13c	0.12442252
119	0xbe12051d	-0.14259763
120	0xbd92234b	-0.07135638
121	0xbe2a8a3d	-0.16654296
122	0x3e2c614f	0.16833995
123	0x3ebb2f1d	0.36559382
124	0xbdb1a7e0	-0.08674598
125	0x3d446025	0.047943253
126	0xbe45f8b5	-0.19333155
127	0x3e1d6eb4	0.15374261
128	0x3f380131	0.7187682
129	0x3c0a3b88	0.008437045
130	0xbdffef14	-0.124967724
131	0xbf46ee02	-0.7770692
132	0xbe90cdd2	-0.28282028
133	0x3e9472c7	0.28993818
134	0xbe69c3ba	-0.2282857
135	0x3eacfd96	0.3378722
136	0xbe5aca66	-0.21366271
137	0x3db97d4d	0.09057102
138	0xbe73a1d8	-0.23792207
139	0xbea8db77	-0.32979938
140	0x3ead1c84	0.33810818
141	0xbf4cdb25	-0.8002189
142	0xbe965068	-0.2935822
143	0x3e64a8d0	0.22330022
144	0x3c140c1e	0.009036092
145	0xbe9261ca	-0.28590232
146	0x3d8a5bdf	0.06755804
147	0xbe84c227	-0.25929376
148	0xbe999f89	-0.30004528
149	0xbc87b86d	-0.016567433
150	0xbcd205a7	-0.02563746
151	0x3e66f007	0.225525
152	0xbec80513	-0.3906637
153	0xbef4c1ee	-0.47804207
154	0x3e38cbe1	0.18046524
155	0x3ee5f32e	0.44912094
156	0x3d82bca6	0.06383638
157	0x3ea3efbf	0.3201885
158	0x3d587dc0	0.0528543
159	0xbeced57e	-0.40397257
160	0x3da0300a	0.07821663
161	0xbea3e2c2	-0.3200894
162	0xbecb8360	-0.3974867
163	0xbe2a9afc	-0.16660684
164	0xbe75dc55	-0.24009831
165	0x3ccdd42d	0.025125587
166	0xbe5c345b	-0.21504347
167	0xbe3e1745	-0.18563564
168	0x3ad4c83c	0.0016233991
169	0x3e6bf285	0.23041733
170	0xbe9cca1b	-0.30622944
171	0x3d4ccff5	0.05000301
172	0x3edd51f1	0.4322658
173	0x3dbaca55	0.09120623
174	0x3d91d0b7	0.07119887
175	0x3e7f2b3b	0.24918835
176	0xbec092ee	-0.37612098
177	0x3e5df238	0.2167443
178	0x3e6615d2	0.22469261
179	0xbe311e80	-0.17296791
180	0x3e427e66	0.1899353
181	0x3ed3a793	0.41338786
182	0x3d7b6179	0.061372254
183	0xbe07b264	-0.13251644
184	0x3e5f12ac	0.21784467
185	0x3e1709aa	0.1474978
186	0xbeb90367	-0.36135408
187	0xbd84fc14	-0.064933926
188	0x3efd7a18	0.49507213
189	0x3f0f579c	0.55993056
190	0x3e2ac56d	0.16676874
191	0x3d2307f1	0.039802495
192	0xbed5d439	-0.41763476
193	0x3e257d20	0.16161013
194	0xbd8f7d9c	-0.0700638
195	0xbe8cbc11	-0.27487233
196	0xbd83c46f	-0.06433951
197	0xbe0e8dbd	-0.13921256
198	0xbd673cc1	-0.056454424
199	0xbec0c097	-0.37646934
200	0x3e553bea	0.20823637
201	0xbe4a0a6f	-0.19730543
202	0x3eeac6c9	0.45854786
203	0x3e0afae8	0.13572276
204	0x3e201d69	0.15636219
205	0xbe34efe0	-0.1766963
206	0xbe3c5d52	-0.18394974
207	0xbecdfd4c	-0.40232313
208	0xbe87802a	-0.2646497
209	0xbf24a008	-0.6430669
210	0x3f05c907	0.5225987
211	0x3e410f37	0.1885346
212	0xbdefc310	-0.11707127
213	0x3e230531	0.15919949
214	0xbe0ebcef	-0.1393926
215	0xbcbe1724	-0.023204394
216	0x3e722e26	0.23650417
217	0x3cb3680a	0.021900196
218	0x3ec5534c	0.38540113
219	0x3f2d4165	0.6767791
220	0xbbf8299b	-0.007573319
221	0x3cfdb5d3	0.03097049
222	0x3dd12158	0.10211438
223	0x3e647e0d	0.2231371
224	0xbe9cd498	-0.30630946
225	0x3d0e2a6d	0.03470843
226	0x3f5d2849	0.86389595
227	0x3e9fc06d	0.31201497
228	0xbcb728cb	-0.022358319
229	0x3e7542d2	0.23951271
230	0x3d8d0cb8	0.068871915
231	0xbe0c6be2	-0.13713029
232	0x3e039c33	0.12852554
233	0x3e91553d	0.28385344
234	0xbebbbd60	-0.3666792
235	0xbe5d3a15	-0.21604188
236	0xbe70f6d4	-0.23531657
237	0xbe68a141	-0.22717763
238	0x3e98189f	0.29706284
239	0xbe23366f	-0.15938734
240	0x3f0b495c	0.5440881
241	0xbe87ddfc	-0.26536548
242	0xbf1ef41c	-0.6209123
243	0x3ebd66f8	0.3699262
244	0x3d8036b4	0.06260434
245	0xbc8cd858	-0.017193004
246	0x3dfff346	0.124975726
247	0xbdae3e24	-0.08507946
248	0xbe16c8a2	-0.14724973
249	0x3e7d96de	0.24764583
250	0x3d7b32f0	0.061327875
251	0x3e8e9322	0.27846628
252	0x3bbb27d3	0.0057115345
253	0xbe1bc562	-0.15212014
254	0x3f537c67	0.826117
255	0x3ded2530	0.115793586

layers.output.bias f4 [2]
0	0x3e73bdf9	0.23802938
1	0xbd4f2fdc	-0.05058275
