results/SMOTE20K/smote420/smote0.25/model.pth (torch, 205093 bytes, 10 tensors)

layers.block_0.layer.0.weight f4 [128, 2]
00000000: 096f 743f 1539 8dbe e9ba d2be 6224 1dbf
00000010: d4c3 23bf 00a3 dcbe 1a05 eb3c 860e 46bf
00000020: dbdc 9ebe 3da3 193f 89a2 eebe cca4 8c3e
00000030: 7a69 d1be 99c8 37bf a46a 90bf 06f0 123f
00000040: 066a 533f 35c1 12bf 5574 18bf 92ab 2b3e
00000050: bebc f0bd 42aa 12bf 0f3d 823e e6fa 35bf
00000060: 69f6 653f 7d44 123f 900f 363f 439a 843e
00000070: ad8a 193f d788 d43d ea0c 7bbf c9f6 263f
00000080: 6539 e83e 3c9f 51bf 2550 793f 961f 823b
00000090: 0087 3e3f 4c12 293f 3621 07bf bd03 f93e
000000a0: 1c04 27bf e3ef afbe 2ceb 2cbf db86 963e
000000b0: d2b9 cebe 561f 1d3f 2aed 6e3f 3f25 883e
000000c0: 404b 16bf 070d 8ebd 3b9c 583f a83f 3f3d
000000d0: f6e1 b4bd 7b66 a5be 147b ae3d ef44 23bf
000000e0: 52e3 23bf 8377 b6be fd7a 70bf d6fc 14bf
000000f0: 1954 96be b8f4 16bf 9432 01bf 30bb c6bd
00000100: 0148 1ebf d3c1 9f3e ae0d 3e3f 32f0 2ebd
00000110: dbc0 503f 20a6 ee3e 5003 8abf 9e6f 98bd
00000120: 5efb 66bf 83c2 d7be 3961 0abe 6b1f 46bf
00000130: 42d2 80bf 8807 0dbe a529 1cbf 0bc8 3b3e
00000140: aeac 39bf 0a7c 16bf 0924 86bf b841 213f
00000150: 99a0 823f d09f 013f b537 253f 4b91 133f
00000160: e373 773f 7de1 1f3d 794b 2a3e 6cd6 2dbf
00000170: a568 993f ac30 7a3e c138 a0be 9e96 293f
00000180: 7ccd 723f 3f42 5d3d 15bc e2be 14fa 0a3f
00000190: 75cd 44bf 1077 c1bd 8c95 833f 2319 d5be
000001a0: 9137 07bf 415a 1c3f 2ea1 66bf 408f 993e
000001b0: b791 a0bf 0404 973e 997b 1fbf fa9d b9ba
000001c0: 83ee 72be 8243 b9be 0127 3cbf f497 f23e
000001d0: ae4e 07bf c341 35bf fd02 73bf 2351 84be
000001e0: b9a0 9dbf f489 a73e 5a1b 48bf f79e a93e
000001f0: 55e5 82bf a6a2 143e c879 663f 0c6b 06be
00000200: ec52 0fbf e238 4e3e 70d0 4dbf 9605 953d
00000210: 9a20 f8be cd72 c73e 0e2f 65bf 1764 433e
00000220: cd6f 673f 59be 433e 028f 823f b83b b13e
00000230: a994 afbe e0e3 d23e bf15 673f 68d5 d83c
00000240: 4ea7 20be c1b2 313f 4473 763f aff5 2ebe
00000250: 175b f3be a9df 203f 844f 4b3f f705 bfbe
00000260: bbff 48bf d652 1bbe 17a6 55bf c5b8 bebe
00000270: afef c3be de72 c9be 42db 1bbf 2c8a 63bd
00000280: c3c1 40bf 281b f53d a0e2 5fbf 6f62 17bf
00000290: 7c77 3abf 9a2c 273f 860b 243f e3f4 f43e
000002a0: 375c a93e b854 5b3e 9593 b43e ac62 fdbe
000002b0: dd34 4c3f a3f7 b03e e2f2 a83f da27 81be
000002c0: 1bec 46bf aeba 17bf c6eb 0f3f 7329 d43e
000002d0: 2939 123f 85d2 0c3f 45b1 8abf 0b66 0f3f
000002e0: 2893 213f a396 bfbe d90e c53e 670e 41be
000002f0: 3764 67bf ce8b 1e3f 9bc1 1a3f db53 083f
00000300: 4ab1 343f 1464 1bbf fbdc 90bc 3ddd 073e
00000310: f330 f1be 150a fbbe 59f4 be3e a848 923e
00000320: a27f eabe 899a 1dbf d83b 4e3f 6f73 c0be
00000330: 1e42 973f 90a7 093e 3b73 2f3f 7c28 113f
00000340: 1f42 46bf c038 bdbd 14bf c33e 353b 343f
00000350: c4b2 96be 88b9 dabe f2ff 903f 907a e3be
00000360: 8e79 463f 79c9 7cbe d8b6 623e 202e c13d
00000370: 413a 0ebf fbc2 2fbf 6da8 dbbd 08ef 2ebf
00000380: 6a0e 653f 527e d63e e6a3 233f c43a d7be
00000390: 6a05 7e3f cc41 783e 21a4 14bf c5cf c63e
000003a0: c080 aabe 5d6d 02bf 5cbf fb3e 9ed6 0bbd
000003b0: 9dc7 9cbf 698c 0c3f 4da4 9a3f fe2b 1bbe
000003c0: 3cc9 b53f 2eac 09be a420 463f 164b cd3e
000003d0: b5dc e03e 1d51 2b3e 69a2 bebe 0ab3 8abe
000003e0: ca47 1a3e 1017 f9be 758c 663e 902e a4be
000003f0: 8d11 79bf 66fc 08bf ec3e 603f 4e42 8e3e
0.95481926 -0.27582613 -0.41158226 -0.6138364 -0.63970685 -0.4309311 0.028688956 -0.7736591
-0.31027874 0.60014707 -0.4660838 0.2746948 -0.40900785 -0.7179046 -1.1282544 0.57397497
0.82583654 -0.5732606 -0.5955251 0.16764668 -0.1175475 -0.5729104 0.2543721 -0.71085966
0.8982912 0.57135755 0.71117496 0.25898942 0.5997723 0.10377663 -0.9806658 0.65220314
0.4535629 -0.818836 0.97387916 0.0039710505 0.74424744 0.66043544 -0.5278505 0.48635665
-0.65240645 -0.34362707 -0.67546344 0.29399762 -0.40376145 0.6137594 0.93330634 0.26590917
-0.5870857 -0.069360785 0.8461339 0.046691567 -0.08832161 -0.3230475 0.08519569 -0.6377706
-0.6401874 -0.35638055 -0.93937665 -0.581983 -0.29361036 -0.5896716 -0.504678 -0.09703672
-0.6182862 0.31202564 0.74239624 -0.042709537 0.81544274 0.46611118 -1.0782261 -0.07443164
-0.90227306 -0.42140588 -0.1351365 -0.7739169 -1.0064166 -0.13772404 -0.61001045 0.18338029
-0.72529113 -0.5878302 -1.0479747 0.62990904 1.020526 0.5063448 0.6453813 0.57643574
0.96661204 0.0390334 0.16630353 -0.67905307 1.198506 0.2443263 -0.312933 0.6624545
0.94844794 0.054018255 -0.4428412 0.5428784 -0.76876 -0.094465375 1.0280013 -0.4162074
-0.5281916 0.61075217 -0.9008969 0.29992104 -1.2544469 0.2949525 -0.6229797 -0.001416146
-0.23723798 -0.36184317 -0.73497015 0.47381556 -0.5285443 -0.7080347 -0.94926435 -0.25843152
-1.2314674 0.32722437 -0.78166735 0.33129093 -1.0226237 0.1451517 0.90029573 -0.13126773
-0.55985904 0.20138887 -0.80396175 0.07276456 -0.48462373 0.38954774 -0.89524925 0.1908115
0.9040497 0.1911558 1.0199893 0.34615874 -0.34293106 0.4118948 0.90267557 0.026468948
-0.15688822 0.6941338 0.9626963 -0.17085908 -0.47530434 0.6284128 0.79418206 -0.37309238
-0.78515214 -0.15168318 -0.8345656 -0.37250343 -0.38268802 -0.3934545 -0.60881436 -0.055551693
-0.75295657 0.1196807 -0.8745518 -0.5913457 -0.7283857 0.6530243 0.64080083 0.47843084
0.33078167 0.21419036 0.35268846 -0.49489343 0.7976816 0.34563932 1.3199122 -0.25225717
-0.7770402 -0.59269226 0.56219137 0.41437873 0.5711847 0.5500873 -1.0835348 0.5601508
0.6311517 -0.37419614 0.3848789 -0.1885315 -0.9038729 0.61932075 0.6045167 0.53252953
0.7058302 -0.6069958 -0.017683497 0.1326799 -0.47107658 -0.4903113 0.37295797 0.28571057
-0.458005 -0.61563927 0.80560064 -0.3758807 1.1817052 0.13442826 0.685352 0.567024
-0.7744464 -0.0923934 0.3823172 0.7040284 -0.29433262 -0.42719674 1.1328108 -0.44429445
0.7752923 -0.2468623 0.22140062 0.09432626 -0.5555764 -0.6865689 -0.10725484 -0.6833348
0.8947512 0.4189325 0.63921964 -0.42037022 0.9922701 0.2424385 -0.5806294 0.3883039
-0.33301353 -0.50948125 0.49169433 -0.03414022 -1.2248417 0.5490175 1.2081391 -0.151535
1.4202037 -0.13444588 0.77393556 0.4009635 0.43918386 0.16730161 -0.37233284 -0.2708972
0.15066448 -0.48650408 0.22514518 -0.32066774 -0.97292405 -0.5351013 0.8759601 0.2778496

layers.block_0.layer.0.bias f4 [128]
00000000: b277 933e ea8b 1ebf d8cc e33e 7972 31be
00000010: 5506 02be a6f2 15bd 14e7 f4be 2183 e5be
00000020: ede7 1f3f 64f8 8e3e 6af6 89be 179c 7cbe
00000030: cb97 1abf 4b80 c23e bb31 ae3e d330 18bf
00000040: 7781 2cbf 6038 723e 23ee ddbe edb8 fe3d
00000050: 0d5d 18bf 1cb1 613e 5537 cebe 5a39 adbe
00000060: b329 8b3e 32c8 b03e eed4 e5be 7180 0e3f
00000070: 8f18 d6be 6fb2 923e 7061 213f 23f3 00bf
00000080: 4458 023f a853 203d d016 09bf de81 093e
00000090: ffb2 b23e e1f4 a83e f221 a9bd 3514 dcbe
000000a0: 436c 443f 7cdd 1bbf 29d7 24bf 188d 0d3f
000000b0: 8e1c d2bd f5cb ef3a 4d0b 8abe 1606 c93e
000000c0: ec0b 0e3e bec5 bdbe d56e b73d e95a aa3e
000000d0: 448f 963e 3308 a2be eaaf d4be 70a6 27bf
000000e0: 7710 36bf 85a4 2ebe f0fe 1a3f 5f15 4d3e
000000f0: 9b3e 35be f8a8 ccbe 4a5a adbe aea3 043f
00000100: d71a 2c3f 75e1 e1be a303 1f3f d4af e8be
00000110: f013 b93e ac66 c7be cb09 cfbe c628 45be
00000120: 3f5c e23e 7ccf e33d ec3a 0d3f 7428 1a3f
00000130: be00 053f ada5 593e 4437 2f3f 25f9 cfbe
00000140: af71 e1bc e976 8a3e 1a4d a1be a47d 7e3e
00000150: 84c3 263f ec65 e73e b9fa 6e3c 35d4 8c3e
00000160: 3bc5 b43e 0f0c 16bf 2032 0c3f 41bd ccbe
00000170: a681 29bf 93c6 d13e f293 2ebf becc b63b
00000180: b012 0c3f 8b5c 193f e01a 973e b81b 2bbf
00000190: af29 1a3e edd9 9e3e 86b4 adbc e7c5 bebe
000001a0: dc4a ce3e 2d99 a5be 3411 1fbf ad7c 9e3e
000001b0: 036d 933d 3de3 113f 6223 14bf e240 273f
000001c0: adb1 dfbe 5190 c0be b80c 82be 1666 193f
000001d0: 1922 9b3e 644e 353e d160 d3be 4cf1 bf3d
000001e0: 1581 e23d 753d 4fbe 1241 133f 81dd a93e
000001f0: e10c 1ebf 2a60 13bf 1fde 043f 84f7 85be
0.28802258 -0.6193224 0.4449222 -0.17328824 -0.12697728 -0.03660836 -0.4783255 -0.44826606
0.62463266 0.27923882 -0.26945812 -0.24668919 -0.6038787 0.37988505 0.34022316 -0.594495
-0.6738505 0.23654318 -0.43345746 0.124376155 -0.59516984 0.22040218 -0.4027659 -0.33832818
0.2718025 0.34527737 -0.44889015 0.55664736 -0.41815612 0.2865176 0.630393 -0.50371
0.5091593 0.03914228 -0.53550434 0.13428447 0.34902188 0.32999328 -0.08258428 -0.42984167
0.76727694 -0.60884833 -0.6439081 0.55293417 -0.102593526 0.0018295037 -0.26961747 0.39262456
0.13871735 -0.37064928 0.089566864 0.33272484 0.29406178 -0.3164688 -0.41540462 -0.6548834
-0.71118873 -0.17054947 0.60545254 0.20027684 -0.17699663 -0.39972663 -0.33857948 0.51812255
0.67228454 -0.44117323 0.62114924 -0.45446646 0.36148024 -0.3894552 -0.4043716 -0.19253835
0.44211003 0.11123559 0.5516803 0.60217977 0.5195426 0.21254607 0.68443704 -0.4061977
-0.027520029 0.27043846 -0.31504136 0.24852616 0.65142083 0.45194948 0.014586144 0.2750565
0.35306725 -0.5861215 0.54763985 -0.3998814 -0.6621345 0.40971813 -0.68194497 0.0055786064
0.54716015 0.59906834 0.29512691 -0.6683917 0.15054964 0.3102564 -0.021204244 -0.37260363
0.40291488 -0.32343426 -0.62135625 0.30954495 0.07198527 0.56987363 -0.5786649 0.6533338
-0.43690243 -0.37610105 -0.2540033 0.59921396 0.30299452 0.17705685 -0.41284803 0.093721956
0.11059777 -0.20238288 0.57521164 0.33176807 -0.617384 -0.5756861 0.5190143 -0.26165402

layers.block_1.layer.0.weight f4 [128, 128]
00000000: 7dfb 983d d800 a0bd a925 ca3c e261 403c
00000010: 11da ed3c d7a4 cfbd 0b9c 963c 09db 05bd
00000020: 1f2e 69bd 77ff a2bd 4a91 063d 9011 3b3d
00000030: 0759 a13c 8c39 a43d 770f b23d 255b 423d
00000040: 0450 973d 46c9 cb3d d3cc 58bd e4b9 b1bd
00000050: b484 40bd 5756 bb3c 92ca bfbd 0f0d 833c
00000060: d628 8cbd 44c8 52bd e1d8 d23c 8431 8fbc
00000070: d015 d2bd 7dae cabd 8452 21bd 6255 db3c
00000080: c128 ed3c fed4 f53d 3a46 ea3c 4c87 c7bb
00000090: 665b 66bd 20bb ac3b 10bd a2bc f4af ca3c
000000a0: 97e8 a9bb ca50 13bc 8994 a73b c4c2 a73d
000000b0: cd09 963d f79f 443d adae fe3c 7786 2fbd
000000c0: afbe 083e 55c9 4b3d 71d7 00be dc99 fdbc
000000d0: bd10 30bd ddf9 a8bd 1dd6 9fbd 0981 d53c
000000e0: 6f81 d8bc 6b1e d63c 4b46 04bc 1cfc a6bd
000000f0: 1afc 7dbb 08be 483c f9f8 243d 51ff 943c
00000100: ab9c 9cbd a29b b4bd b308 4b3c 333c 25bd
00000110: 1468 7eba 6c1c e83d 6c47 d4bc fb34 363c
00000120: eaea f6bc b74c df3d 6403 cbbc 59cf ba3d
00000130: eecf 923d 5fb1 97bd 37d7 9c3d d8ab d8bd
00000140: b302 1dbe b41d 8fbb d152 633d 0779 25bd
00000150: 9a02 9c3d 3fd5 6f3d c621 f93d 2c7e f03d
00000160: 1be0 81bd dbe4 2f3b cfd5 47bd ab62 09bd
00000170: de01 9cbc 29c5 153c af17 82bd 439a b03d
00000180: 4eec 1c3c a285 b23c f8cc f8bc e706 b33d
00000190: a4b4 c4bd 0a1c 033d 8aaf 8c3d 4884 28bb
000001a0: 2b1e 073c 82b8 c53d 468a d8bc 198f d53d
000001b0: 6f85 0d3d 442c 88bd c4cd 1c3d 0b5e 993d
000001c0: e0c2 63bd f6f0 a13d 760a 823d 97ab 513b
000001d0: bab2 5b3d db82 d13d ef58 b0bd 384c c13d
000001e0: cd81 2c3d d90b e93d 2f0c a33d 1b9c 41bd
000001f0: c7b5 8dbd 1999 a6bd 57b3 1e3d 4d28 8e3b
00000200: 085a d73d d8f1 5cbd 844c ed3c a4b4 1cbd
00000210: d73d e3bd 79dc 1cbe 7af8 a1bd 63ba a2bd
00000220: 7aca da3d c97c e23c c2dc 003d e0f0 0abd
00000230: 928a 083d 3175 f13b cfd9 a83d b2ea 5ebc
00000240: efc9 f5bc 179a d53d 3b6c 00bc a9f8 f3bd
00000250: 49c1 9a3d f9d8 fdbd 5570 d9bd fe9d 023e
00000260: ddb0 d9bb 8f5e b23c 2508 a43c 86e0 98bd
00000270: 9075 003d 19fb a5bc eb62 993d 8ed9 9dbc
00000280: cf20 edbd 1627 ab3d 8600 e93d bc29 b2bd
00000290: a58b 96bd 5d05 7fbd 1cf6 b8bd cf92 2abd
000002a0: 67cc f5bd 0a0e d539 5f48 ee3c eddd a23b
000002b0: fda0 3a3e 875d 1e3d 64f8 923d 5e84 f1bd
000002c0: 6da6 913d 3742 223d 104c 15be 9984 863d
000002d0: 2bd7 a33c c076 dcb8 803b 09bc b121 183d
000002e0: aa94 753c b2c4 81bd a510 af3c 47c7 35be
000002f0: 593c 2ebd 8fee 02be 5971 7fbd 367e c23b
00000300: 5702 8ebd 498b 163d c14f 00bd 05c2 8ebd
00000310: 7afe 05bc 3c27 003e a6be b5bb 22b4 ed3d
00000320: 9916 e7bc 0fc5 653d 6859 b4bd 58d4 7b3d
00000330: 52d9 8bbd 14c1 28be 03d7 49bd 6ad8 daba
00000340: 94f8 2dbe 5415 d3bd 12ce 4e3d 6d9a ec3d
00000350: 0f14 9dbd 76cd 5d3d 3a38 ff3d e03c 903c
00000360: 6dc0 a8bd 24ea eb3c caea 883d ce4d bf3c
00000370: deb4 423d b8cb 8dbd 4f75 e1bd 2bf6 463d
00000380: b9c5 9fbc cad4 41bd be9a 2dbd 64d8 c23d
00000390: e5e0 2b3c 568b 8bbb 6e37 bf3d d509 013e
000003a0: 1f21 e0bd ec52 823d 9b2c d73a 1ad2 ce3d
000003b0: 3293 c53d c7d8 edbc b5fc b5bd be8e 583d
000003c0: 3a4c 043d e8e1 b43c 6d2d cc3d fd1a b3bd
000003d0: f10f 7dbd c405 b83d 818a c6bd 3e0f da3d
000003e0: af6a a03d e076 b43d 4dae 9d3d d52d febd
000003f0: 83f0 e93a ce09 b63d 0199 3dbd f5c8 693d
0.074698426 -0.07812661 0.02467616 0.011742087 0.029034646 -0.101388626 0.018384954 -0.03267959
-0.05692875 -0.07958882 0.032853402 0.045671046 0.019695772 0.08018789 0.08694356 0.047450203
0.07388309 0.09950499 -0.05292971 -0.08678034 -0.047001556 0.022868318 -0.09364809 0.015997438
-0.06843726 -0.05146052 0.025738182 -0.017479666 -0.10258067 -0.09896562 -0.039385334 0.026774112
0.028950097 0.12003516 0.02859794 -0.0060891267 -0.056239508 0.0052713305 -0.019865543 0.024742104
-0.0051851976 -0.00899143 0.0051141423 0.081914455 0.07326088 0.048004117 0.031089151 -0.042852845
0.1335399 0.049752552 -0.12582184 -0.030957155 -0.042984713 -0.08250783 -0.07804511 0.026062505
-0.026428906 0.026137551 -0.0080734 -0.08153555 -0.0038755 0.012252338 0.0402765 0.01818815
-0.076470695 -0.08818747 0.012392211 -0.040340614 -0.000970484 0.11333546 -0.025912963 0.01112103
-0.030141313 0.10903304 -0.02478189 0.0912158 0.07168566 -0.07406878 0.076582365 -0.105796516
-0.15333061 -0.0043675546 0.0554989 -0.040398624 0.07617684 0.058552977 0.12164645 0.117428154
-0.06341573 0.002683929 -0.04878789 -0.033541363 -0.01904386 0.009141245 -0.063521735 0.08623173
0.009577824 0.021792237 -0.030371174 0.08741551 -0.09604767 0.032009162 0.06869419 -0.0025713611
0.008246939 0.09654333 -0.026433121 0.10427684 0.03455108 -0.06649068 0.03828217 0.074886404
-0.05560577 0.07907288 0.063496515 0.0031993145 0.053637244 0.10230037 -0.08610713 0.09438366
0.042115975 0.11379213 0.07961308 -0.047268014 -0.06919437 -0.0813467 0.03874525 0.0043383003
0.10515219 -0.053941578 0.02896715 -0.03825821 -0.110957794 -0.15318479 -0.07908721 -0.07945707
0.106831506 0.027647393 0.03146053 -0.033921123 0.033335276 0.0073687066 0.08244669 -0.01360576
-0.030003516 0.10429781 -0.007838304 -0.119126625 0.075563975 -0.123949 -0.10617129 0.12755582
-0.006643398 0.021773605 0.020023415 -0.074646994 0.031362116 -0.020261334 0.0748957 -0.019268777
-0.11578523 0.083570644 0.11377053 -0.086993665 -0.07350854 -0.062260974 -0.09031317 -0.041643914
-0.12001877 0.00040636986 0.029087244 0.0049703033 0.18225475 0.038663413 0.07176283 -0.11792825
0.07111821 0.03961393 -0.14579797 0.0656826 0.020000061 -0.000105125364 -0.008376002 0.037141506
0.014989058 -0.06336345 0.021370241 -0.177518 -0.04253802 -0.12786315 -0.062363956 0.0059354557
-0.0693404 0.036753926 -0.03132606 -0.069706 -0.008178348 0.12514967 -0.0055464087 0.11606623
-0.028209018 0.056096133 -0.088061154 0.061481804 -0.0682856 -0.16479903 -0.049277317 -0.0016696576
-0.16989356 -0.103068024 0.050489493 0.11552892 -0.076698415 0.05415102 0.12461896 0.017607152
-0.08239827 0.02879817 0.066854075 0.02335253 0.04753577 -0.06923622 -0.11008703 0.048574608
-0.019503461 -0.047322072 -0.0423839 0.095139295 0.010490631 -0.0042585535 0.09336744 0.12601407
-0.10943817 0.06363472 0.0016416492 0.100986674 0.09647216 -0.029034032 -0.08886091 0.052870505
0.032299258 0.022080377 0.09969602 -0.08745382 -0.06178278 0.08985475 -0.09694386 0.106474385
0.07832848 0.08811736 0.07699261 -0.124110855 0.0017848167 0.08888589 -0.046288494 0.057076413

layers.block_1.layer.0.bias f4 [128]
00000000: 2e6a 933d 609b 003d 1ed2 89bc 57f7 1bbd
00000010: e9e5 753c ec4b 143d b5b9 aebd 1965 563d
00000020: 3e8b 483c bdae e9bc ad45 923d 0ce9 88bd
00000030: 9330 f3bc fc85 07bd c74b 62bd 3615 7b3d
00000040: 1988 92bc 6a89 5dbc 7310 d23d 86e9 84bd
00000050: d5f6 383d bc68 77bd 6e05 7f3b 78ef 5e3d
00000060: a166 eebc e054 11bd 1c82 89bd 1fc3 9cbd
00000070: a94a ffbc 0b23 49bc 7f92 b73c 9fbb ffbc
00000080: af1f 963d f2fd 81bc f918 cfbc 0b64 5a3d
00000090: 57c7 ea3c b385 b13d d31d 71bd 26f5 8e3d
000000a0: 0135 8a3d 27ca 11bd fdd3 3fbd 0732 1e3d
000000b0: 4e63 32bd e10c f6bb 90b9 f33c ab8c 64bc
000000c0: 9ceb c6bd 6a3f 7ebd 72cc 63bd a601 b13d
000000d0: e6ad 83bd 777f 12bd b1bb 97bd f8c2 233d
000000e0: 90a9 763d 14f5 653d 57d7 173d ce64 503d
000000f0: cfa0 3d3d 2e54 8dbd 0bde c83b 2b73 c8bd
00000100: b1e8 b03d 8af7 57bd ac12 fabc 0a34 ba3d
00000110: ea27 e33a c853 4c3d a938 51bc 0f9e 99bc
00000120: fdb5 893d 5f90 243c c93d ab3c 6c53 e13c
00000130: 1cc7 1a3d 10b6 a8bc 167a 683d a339 ad3d
00000140: ad43 98bd 50ec 0e3d e53a 89bd 0bfd b4bd
00000150: a8d4 6d3d 6d89 8b3d 7e2e 483d e03e d8bb
00000160: 9e60 be3d ff17 c53d ba00 9cbc b321 c4bd
00000170: e2eb a73c 2651 56bd 7597 3a3c e97f 34bd
00000180: 4095 22bc 8697 823d 7387 d13c 92e0 f13b
00000190: 46c2 a93d b7b5 d43c 939a 6bbd 72ce 863d
000001a0: 9c1f fbb9 5eaf 1fbc 30f6 243d f7a3 113d
000001b0: 1026 85bd 49ab 1e3d 99d3 263d 7a67 47bc
000001c0: a588 86bd 9fad 5c3d 9f25 f2bd 2405 e3b8
000001d0: 8f4e 91bd dd4f 893d 386f 61bd cfa1 883d
000001e0: ca01 363d 383a f7bd 872b e4b9 e786 02bc
000001f0: 2c83 993d 5759 a2bd 8dc6 8a3d 4346 58bd
0.071979865 0.031398177 -0.016823824 -0.03807768 0.015008428 0.036205217 -0.085315146 0.052342508
0.012240229 -0.028525705 0.07142196 -0.06685075 -0.029686248 -0.03308676 -0.05524805 0.061299525
-0.017887162 -0.013521532 0.10257044 -0.064898536 0.045157272 -0.060402617 0.0038913148 0.054427594
-0.029101672 -0.035481334 -0.067142695 -0.07654404 -0.03116353 -0.012276421 0.022408722 -0.031217394
0.07330262 -0.01586816 -0.025280463 0.053318065 0.028659506 0.08668079 -0.058866333 0.06980352
0.06748391 -0.035593178 -0.046833027 0.03862193 -0.043551736 -0.0075088595 0.029751569 -0.0139495535
-0.09712908 -0.062072195 -0.055614896 0.086428925 -0.06429653 -0.03576609 -0.07408846 0.03998086
0.0602203 0.056141928 0.0370706 0.050877385 0.046295937 -0.069008216 0.006129985 -0.097875915
0.08638132 -0.052726306 -0.030526482 0.09091957 0.0017330621 0.049884588 -0.0127698565 -0.018752126
0.06724165 0.010044186 0.020903485 0.027505599 0.03778754 -0.020594627 0.056757055 0.08458259
-0.07434783 0.034893334 -0.06700686 -0.088373266 0.058064133 0.06813321 0.048872463 -0.006599292
0.09295772 0.096237175 -0.019043315 -0.0957674 0.02049822 -0.052323483 0.011388649 -0.044067297
-0.009923279 0.06376557 0.025577283 0.007381507 0.08289008 0.025965555 -0.05752046 0.06582345
-0.00047898002 -0.009746401 0.040273845 0.03555676 -0.065014005 0.03873757 0.04072914 -0.012170667
-0.065690316 0.053876515 -0.11823582 -0.00010825161 -0.07095062 0.06704686 -0.055037707 0.066714875
0.0444353 -0.12071651 -0.0004351998 -0.007966734 0.07495722 -0.079271965 0.06776152 -0.05280138

layers.block_2.layer.0.weight f4 [128, 128]
00000000: b539 003d c1f5 173e aad3 763d 6701 35be
00000010: f141 423d 1827 2d3e 7d8e a33d ecdb 8d3a
00000020: e90b 043d e392 343d 7fa2 43be fb92 893d
00000030: 628d b83d 46d9 afbd 75eb d6bd ca53 233d
00000040: edab 93bd 7e88 093e 0c2d 4c3e 40e6 17be
00000050: 9898 5dbe 80f7 20be a222 c8bd d231 b03c
00000060: c30f 6ebd ab19 c3be f810 803d 0175 b1bd
00000070: 9a6e a7bc 9b6b 423d 1a55 d8bd bb93 843c
00000080: afd6 abbc de36 75bd 223f 13be 3b28 12bd
00000090: a237 10be 8f80 a93d 8719 bf3b 0aae b43b
000000a0: d699 cebd 8d34 033e e6cc 953c d381 d03d
000000b0: dc5a a43d da31 37be 5be2 39be e3cf 293d
000000c0: 948a 94bd 1e75 f13c 0bda cc3c f2c9 e1bd
000000d0: 4754 f5bc 124f cd3d 8e04 8dbd d6b5 7fbd
000000e0: b9cb 3a3e 8c67 da3d ca71 323e a04e 18bd
000000f0: e90a 3d3c b362 cd3e 6bd2 acbd 4786 6e3c
00000100: 96c6 ee3d 4cda 033e 8cac 02be 7950 d0bc
00000110: 7372 30be 8444 febd 674c 353e d8d9 413d
00000120: 8c64 003d fe51 77bd 42f0 f73c 229b e0bd
00000130: bc55 d03d 462f 9ebd 2ec2 1dbd 7508 0cbe
00000140: 244a 043e ae28 3fbe a701 c4bc 63c0 903d
00000150: d288 5d3d daf1 9d3e e8bb 07be 5f23 bd3c
00000160: 7b9a 8bbd 4409 e83c 52be cabb bb33 343d
00000170: e17a d3bd b31f 6e3d b3c0 b9bb 8bf8 3f3e
00000180: 7cce 4c3e 90af 31be ea3f 1dbe e267 9e3c
00000190: c41b 423c 11ed 133d 4914 0dbd 9a0f c8bd
000001a0: 2235 643e 9e7a 3dbe 4d6b 183e 7f34 0fbe
000001b0: be08 9ebd 0406 323e 71ee 4c3d 11c0 863d
000001c0: f8ae d6bb 0fab 093e 64ae f53d c1b3 d3bb
000001d0: 4a8a 26bc c7fa 0e3b 35fd 4c3d 81dc ea3d
000001e0: 35c2 d0bd 3a2b 943d 570e abbd a9e4 23bd
000001f0: b5d4 2e3e 77b6 8f3d 07aa 02be decb 82be
00000200: 17f0 0fbe 53d1 f4bd 6de4 c1bd f780 183c
00000210: 1ee7 20bc 9177 acbd 304e 783b faca b73d
00000220: cda8 10be 5d7d dfbd a683 35bc 208c 97bd
00000230: 8078 55bd 3fd5 ad3d 1601 4b3d cc76 a83c
00000240: cb66 4d3d 7526 87bd d91e 8ebc 3e23 583d
00000250: d761 ce3c ae4f d43d 7508 01bd a098 2b3e
00000260: fcbe 4e3d 516c e73d b477 fcbd b670 aa3c
00000270: 910d 60bc 1736 72bc e7bb 21bd 30a0 7ebd
00000280: bd49 aabd ec38 7dbd 1b1f 7fbc 5054 92bd
00000290: 171a d33d 391b 0dbd 1efe c8bd 2569 f53d
000002a0: 82b0 053e 0a14 c9bd 0b8a 25be 08cc c2bc
000002b0: 4c43 36bd 185b e43d e38a b53d df47 1a3d
000002c0: f15b 253e 9499 9e3d 898a d03d d1ce b03d
000002d0: 02dc 0e3e dd3e fcbc 997c 813d 1649 34be
000002e0: 774c f4bc f54a c1bd bb54 893b 8b77 c6bd
000002f0: 5ac3 183d 9e0f f0bd 19af bf3d 5c66 9dbd
00000300: a287 cebd a71e eebd 6b5b b13c 5929 75bd
00000310: 7b58 aabc 89fa 1fbe 15eb 183d e10f f93d
00000320: 9e80 9cbc aa8d 8cbd 3fa8 e03d 12bf 1ebd
00000330: f5e1 32be d74a e6bc 35c9 2e3d 0cd0 013d
00000340: d455 02be 96cc a5bc 9e8f b53d 3e2b 273d
00000350: 2023 ccbc d7d5 cebc e7d9 113b 2c68 913d
00000360: 9278 07be 3aac dabd 3230 e03c e810 213e
00000370: 00cd e3bc cddc 07be 5ba8 a93c 4134 2e3d
00000380: 9301 133d 0337 d1bc 0259 dcbc 08b0 283d
00000390: d814 a83d 540f 843d a555 4abd 109c d4bd
000003a0: 83f6 1cbe 7ce0 e93d 18da 17be ebad 0fbc
000003b0: 13f9 6b3d 4520 10bd 1649 883d 13e5 cfbd
000003c0: 6561 97bd ba5a c8bc e16e 08bd 984b 4ebe
000003d0: 979f cfbd 3dd6 8dbd 93d8 39bd 73ec 83bd
000003e0: b39e 5fbe 22e4 bc3d b6e9 703d 76f9 5f3c
000003f0: b396 d7bd 22b6 1abe 22c9 973d 94e2 e6ba
0.031305034 0.14839841 0.060260452 -0.17676316 0.047426168 0.16909444 0.07986162 0.0010822988
0.03223792 0.044085395 -0.19104956 0.067174874 0.09011342 -0.085863635 -0.104941286 0.03987483
-0.072105266 0.13430974 0.19939059 -0.14833927 -0.21640241 -0.15719414 -0.09772231 0.021508131
-0.0581205 -0.3810552 0.062532365 -0.08664895 -0.020438481 0.0474659 -0.10563107 0.016183725
-0.020976393 -0.05986678 -0.14379552 -0.035682898 -0.14083722 0.08276474 0.0058319005 0.005513911
-0.100879356 0.12813015 0.01828618 0.10181012 0.080251426 -0.1789011 -0.18152754 0.04145802
-0.07252994 0.029474791 0.025006315 -0.11024846 -0.029947413 0.10024847 -0.06885634 -0.06242927
0.18241777 0.10664281 0.1742622 -0.037184358 0.011538246 0.40114364 -0.084385715 0.014558381
0.11658971 0.12876242 -0.12761134 -0.025428997 -0.17231159 -0.12415412 0.17704926 0.047326893
0.03134589 -0.06038093 0.030265931 -0.10967089 0.101726025 -0.077238604 -0.038515262 -0.13675101
0.12918907 -0.18667862 -0.02392657 0.07067945 0.05408556 0.3084858 -0.13255274 0.023088155
-0.06816574 0.02832473 -0.0061872387 0.043994647 -0.10326172 0.0581357 -0.0056687235 0.18747155
0.20000643 -0.17352128 -0.15356413 0.019336645 0.01184744 0.036114756 -0.034443174 -0.09768601
0.22285894 -0.18503806 0.14884682 -0.1398487 -0.07716511 0.17385107 0.050032083 0.065796025
-0.0065516196 0.1344416 0.11996153 -0.0064606373 -0.010164807 0.0021816955 0.050046165 0.11467839
-0.10193292 0.07234807 -0.083523445 -0.04001299 0.17073329 0.07017224 -0.12760173 -0.25546163
-0.14056431 -0.11953988 -0.09467397 0.009308091 -0.009820728 -0.08421243 0.00378884 0.089742616
-0.14126892 -0.10912583 -0.011078751 -0.073997736 -0.05211687 0.08487939 0.049561583 0.02056446
0.05014686 -0.06599132 -0.017348694 0.052767985 0.025193138 0.1036676 -0.031502206 0.1675744
0.050475106 0.112999566 -0.12327519 0.020805698 -0.0136751095 -0.014783404 -0.03948584 -0.062164485
-0.08314846 -0.061821863 -0.015571381 -0.071449876 0.103077106 -0.03444979 -0.09814094 0.11982945
0.13055614 -0.09818275 -0.1616594 -0.02377893 -0.044497773 0.11150187 0.08864381 0.037666198
0.16148354 0.077441365 0.101826735 0.08633197 0.13951114 -0.030791694 0.06322593 -0.17606005
-0.029821618 -0.09438125 0.004191009 -0.0969077 0.037295677 -0.11721729 0.09359569 -0.07685539
-0.10084464 -0.1162694 0.021650037 -0.059853885 -0.020794144 -0.15622915 0.037333567 0.12161232
-0.019104298 -0.06862958 0.109695904 -0.038756438 -0.17469008 -0.028111858 0.042672355 0.03169255
-0.12728053 -0.020239156 0.088652834 0.040812723 -0.024919093 -0.025248451 0.0022255124 0.07099947
-0.13229588 -0.10677381 0.027366731 0.15729105 -0.027807713 -0.13267823 0.020710161 0.042530302
0.035890173 -0.025538927 -0.026897911 0.0411835 0.08207101 0.06448236 -0.049398083 -0.10381329
-0.15328412 0.1141977 -0.1482929 -0.008769493 0.057610583 -0.035187025 0.06654565 -0.10151114
-0.073916234 -0.024457324 -0.033308867 -0.20146024 -0.10137861 -0.06925628 -0.045372557 -0.064415835
-0.21837883 0.092232004 0.058816634 0.013670316 -0.105267905 -0.1510854 0.0741141 -0.0017615133

layers.block_2.layer.0.bias f4 [128]
00000000: 4693 8e3d 4079 113d 8545 6c3a 78fa 523d
00000010: 61e9 8cbd ec85 dabb dca1 97bc 5baa 36bd
00000020: 24af 1fbd 6fc3 ebbc 719b 613b 0b44 bf3c
00000030: 63e2 87bd 4b48 47bd 006c e9bd 13d5 8abd
00000040: 089b 103c d8dd bbba 2d84 823d 503b 5e3d
00000050: cbab d43d 5959 523d f707 93bd 06c6 0c3d
00000060: 8bb7 7cbd e86d 92bc 50dd 9dbd 9a7c 683d
00000070: bb27 9e3d fa01 aabd 69ac c0bc a042 bc3c
00000080: cf2e 3f3d bd17 5cbc f34d 883b e593 6c3c
00000090: 68ee 113d 0fca 01bd 7034 14bc 4bb2 28bd
000000a0: aa0f 3a3c 0276 773c 7795 d4bd fe87 24bb
000000b0: eaea fabc e3e9 dc3b 3eb3 1a3d da68 97bd
000000c0: 8630 1c3d fe4a 9f3d d27a adbd c424 17bc
000000d0: 00e4 a63c 00e1 133a 60c0 82bd 411d bbbd
000000e0: 13fc 2dbb 9c99 333d 21c1 38bd ea35 55bc
000000f0: 90a9 5c3c c2e8 83bd 8d18 00bd ef92 a0bd
00000100: dd48 1d3d 7d79 92bd 64ec 5d3d 6c86 e2bc
00000110: a2bc 7e3d 925a 153c 6e01 c1bb 9523 77bd
00000120: 8b29 4f3c 636b a93c 38f9 103d 1ade 2c3d
00000130: 7382 bb3d 73a0 19bc ecdc aabc 1ca1 493d
00000140: 14ce 6f3d 174a 803d f1ce 81bc a071 b63d
00000150: 2357 6abd 2c72 98bd 566d 2bbd f75e fabd
00000160: 88db 2c3c 5e0c 9c3d e8e3 7bba f581 f63d
00000170: 6fa4 bd3d c02b adbd deb6 34bd 7378 21bc
00000180: 4094 833c 587d 563c 3d54 d83c 5deb 1cbc
00000190: ae58 8e3d 689b d7bd ed77 83bd 066d 88bc
000001a0: 4029 febd c6ff ad3d 3665 f53c 1c98 b2bc
000001b0: bed6 03bd 665d 643d 8146 b73d d902 d9bc
000001c0: 9a80 56ba 141c 3cbd e547 1cbc f172 d7bc
000001d0: 8c6f c23d 6d38 5ebd 3755 44bd 785e ae3d
000001e0: 4741 1a3d 0606 3fbd c3b9 543d 0d67 e23c
000001f0: 3411 59bc b5e9 893d 782f 233d d001 9bbb
0.06961684 0.035516024 0.0009013045 0.051508397 -0.06880451 -0.0066687968 -0.018509798 -0.044596057
-0.038985386 -0.028779713 0.0034424926 0.023347875 -0.06634977 -0.04865293 -0.113975525 -0.06778922
0.008826025 -0.0014333082 0.06372867 0.054255784 0.103843294 0.05135474 -0.071792535 0.034368537
-0.061698478 -0.017874673 -0.07708228 0.056759454 0.07722422 -0.08301158 -0.023519712 0.022980988
0.0466755 -0.013433394 0.004159683 0.014439558 0.035627753 -0.03168684 -0.009045705 -0.04118566
0.011356274 0.015103819 -0.10380071 -0.0025105472 -0.030629594 0.0067417487 0.037768595 -0.07393046
0.038132213 0.077779755 -0.08470692 -0.009225074 0.02037239 0.00056411326 -0.06384349 -0.09136439
-0.0026547953 0.043847665 -0.045106057 -0.013013342 0.013468161 -0.064408794 -0.031273413 -0.07840525
0.038399566 -0.07152078 0.054180518 -0.027651988 0.062191613 0.009115832 -0.005890063 -0.060336668
0.012644182 0.020681089 0.035393924 0.042204 0.091557406 -0.009376633 -0.020857297 0.04922591
0.05854614 0.062641315 -0.015845748 0.08908391 -0.057212006 -0.074436516 -0.041852318 -0.12225144
0.010550387 0.07619546 -0.0009608851 0.12036506 0.09259879 -0.0845561 -0.04411971 -0.0098553775
0.016061902 0.013091408 0.026407355 -0.009577599 0.06950508 -0.10527688 -0.064193584 -0.016653549
-0.124102116 0.084960505 0.029955488 -0.021801047 -0.032187216 0.055753134 0.089489944 -0.026490616
-0.0008182615 -0.045925215 -0.009538625 -0.026299926 0.09493932 -0.05425303 -0.04793283 0.08514112
0.03765991 -0.046636604 0.05193497 0.027637029 -0.01324873 0.06734029 0.03984019 -0.0047304407

layers.block_3.layer.0.weight f4 [128, 128]
00000000: 7976 8ebd 5f3c 7ebb 9f01 fb3c f54a 4cbc
00000010: 284b 89bd 7c5e 40bc 7d9a 193d d6c3 c8bc
00000020: a813 0dbe 7f49 473d 630e b43c f6c1 09bb
00000030: 2337 493d e940 473d 3b02 523c c9db ce3c
00000040: 3f1d 313c 830f c8bd 2ea4 9cbc 271c 7dbd
00000050: 93b2 0fbd 62b9 e3bd 0734 ab3a 968f 37bd
00000060: 9b99 1f3d 4fdd d53c 6584 3abd 650e 2ebb
00000070: 425c ba3d 03e6 4a3d e55a 14be 6df1 193d
00000080: 773e fc3d 8319 a83d 9894 a1bd fdec d53b
00000090: 72d7 9fbd 92e7 373d 12b3 b63d 0aa2 36bd
000000a0: e1b8 8d3d 2108 893c 3126 fcbd b56d 653d
000000b0: b484 a3bd 66c5 d0bd 7d82 873d 6e0b 85bd
000000c0: bd04 e93d fbbe 4ebd 41e6 d7bd ea5d 03be
000000d0: ad65 e03d 985c 13bd 55a4 fcbc fc50 95bd
000000e0: d27b d0bd 0376 16bc ab04 873d 4c76 753d
000000f0: a8da bcbd 1c8a b7bb 5aba 9f3d b430 e2bd
00000100: 9f63 8bbb d09a 4fbd a4ac 17bd 5430 8ebc
00000110: e727 a4bd c1e3 fcbd bb44 18be 51bb 71b9
00000120: 217d a03d ab55 24bd e73f 9fbd 23a5 bdbd
00000130: c0ab c73d 948a a7bd d781 973c 348f 28bd
00000140: fc60 0b3e 3f1c e03c 0671 9ebd 7b57 5bbd
00000150: f5a2 8bbd 59a4 46bd 460b 943d c83e 4e3d
00000160: 853c 0b3e fe77 efbd b3f3 d2bc eee8 203e
00000170: d052 d83d 33fb fd3d 47e5 0dbe a2a8 97bd
00000180: 4b7c 8d3d 17a3 a13d f6ce 5c3c 871c c33c
00000190: 3edc 263e a5e2 a63b 2038 27bd 08b3 4b3d
000001a0: 24b6 22bd eed7 693d 5008 09bd de7e ce3d
000001b0: eadb af3d 98f5 c5bd d003 3f3b 6996 b13b
000001c0: e991 513b c9e6 0b3d 569e 58bd 9391 8fbd
000001d0: b1b0 cbbc d1d6 1e3e 42cd 8f39 7452 e1bb
000001e0: e8fd 8cbd 70e3 95bd fef5 853b f092 5e3d
000001f0: 2d00 083e 1b80 c23c c214 ec3d 72d8 89bd
00000200: 253c c43c 3a4d d23d 002b 34bd 674b 1d3e
00000210: 311e 893d def9 893c 1cc9 95bd c388 95bc
00000220: 53fe 5ebd 668b f33d 33bc 8b3d 6167 f23d
00000230: 6d64 08be 5be5 2fbd 3e99 59ba 806a 133e
00000240: c247 863d 78bb db3d c70c 8bbc 5017 593d
00000250: 6a71 a43d 19be c33c 9b51 fd3c 763b c93d
00000260: dc8a a03d a9b7 d43d bf59 e5bc 24be f53a
00000270: f5ca 26bd 25ac c53d 5b06 4e3c 48cf ac3d
00000280: 371e a13d a833 893c 3bfa d73d 5d77 1ebe
00000290: d622 3bbd 52c7 b83d bd2e 70bd 7381 25be
000002a0: ccd6 a4bd 3371 1b3d 81be ea3d 844e bcbd
000002b0: 9c1b fabc e36a c03d 4b15 5bbd 5edc a73d
000002c0: d45f d5bc 9422 393d e4cf 813d 7151 c1bb
000002d0: 4c9d 2b3d 0f16 5b3d e977 3dbc 958c 023d
000002e0: 74bd 57bc 7dc3 bc3d 5721 29be 6055 68bd
000002f0: b2eb d43c 588e a4bd 82fe dcbd 6733 5dbd
00000300: ea75 5bbd a5b1 05bd 3c57 c73c f30f 6b3d
00000310: 8591 b43d 37d6 593d ec91 983d 9674 833d
00000320: ae43 d6bd 6236 09be 5f8c 6a3d 3aab 793d
00000330: 5695 29be 3209 a63c 073d ef3d e376 073d
00000340: 8c91 713b 5782 76bc 6acc b93d a064 79bd
00000350: 0785 a03c 7411 84bd a61d 42bd a995 003e
00000360: 5771 003e d5e5 1cbd 6c60 493d d3ef a4bd
00000370: 7185 94bd 393b 8cbd d8b7 9f3d c050 bb3d
00000380: 6746 5dbc 05b1 ba3d 9fca 1fbe 7bce 52bd
00000390: a1bf 00be 3eb3 753d f768 dbbb 0c1f 283e
000003a0: 0a97 10bd b60e f03b a605 b2bd 3e63 41bd
000003b0: 17ec a03c 51d6 40bc 24ab e9bd 2c98 e2bb
000003c0: 8c93 3bbd 7d06 463d a8e6 6ebb c68f dd3c
000003d0: dc16 b03b 385d b1bd d08c 04bc 1d6d 98bd
000003e0: fe15 aa3d a95a c0bc a2cf bd3d d743 f8bb
000003f0: 4fec b5bd 14d5 36bd 2404 b13c 32da 603d
-0.069561906 -0.0038793308 0.030640421 -0.012469043 -0.06703788 -0.011741277 0.037500847 -0.024507444
-0.1377703 0.048654076 0.021979516 -0.002102015 0.049124848 0.048645888 0.012817915 0.025251286
0.0108101955 -0.097685836 -0.019121256 -0.061794426 -0.03508241 -0.11119343 0.001306177 -0.04481467
0.03896485 0.026106505 -0.045536418 -0.0026558873 0.09099628 0.049535763 -0.14487799 0.037583757
0.12316602 0.08207991 -0.0788967 0.0065284953 -0.07804765 0.044898577 0.08920874 -0.044588126
0.069200285 0.016727509 -0.12311972 0.056012828 -0.079842955 -0.10193901 0.066166855 -0.06496321
0.11377857 -0.050475102 -0.10541964 -0.12828794 0.10956893 -0.035976976 -0.030840078 -0.07290837
-0.10179867 -0.00918341 0.06592687 0.05992727 -0.09221393 -0.0056011807 0.077992156 -0.11044446
-0.004253819 -0.05068475 -0.037029877 -0.017357029 -0.08015423 -0.12348128 -0.14869969 -0.00023053332
0.078363664 -0.04012076 -0.0777586 -0.09260013 0.097495556 -0.081807286 0.01849453 -0.041152194
0.13611215 0.027357219 -0.07736401 -0.053550225 -0.06818191 -0.048496578 0.07228713 0.05035284
0.13597305 -0.116928086 -0.02575097 0.15713856 0.1056267 0.12401428 -0.13856994 -0.07405211
0.069084726 0.07892435 0.013477078 0.023817314 0.16294953 0.005092936 -0.04082501 0.049731284
-0.039724484 0.057090692 -0.033455193 0.10082792 0.08586867 -0.09665984 0.002914656 0.0054195416
0.0031977838 0.03415564 -0.052885376 -0.07010188 -0.024864526 0.15511633 0.00027428014 -0.0068762843
-0.06884366 -0.07318771 0.0040881624 0.05433935 0.13281317 0.023742726 0.11527397 -0.06730737
0.02395446 0.10268636 -0.04398632 0.15360795 0.06695212 0.016842779 -0.07313749 -0.01825369
-0.05444176 0.118918225 0.068230055 0.11836124 -0.1331956 -0.04294334 -0.0008300728 0.14396095
0.065566555 0.10729116 -0.016973866 0.05300075 0.080294445 0.023894357 0.030922702 0.098257944
0.07838985 0.10386593 -0.027996896 0.0018748683 -0.0407209 0.096519746 0.012574757 0.08437973
0.07867091 0.016748264 0.105457745 -0.15475221 -0.04568752 0.09022392 -0.058638323 -0.16162662
-0.08048782 0.037949752 0.11462117 -0.09194663 -0.030530743 0.09395387 -0.053487103 0.081963286
-0.026046671 0.045198992 0.0633848 -0.005899601 0.041898057 0.053487834 -0.011564233 0.03187235
-0.013167728 0.09216974 -0.16516624 -0.056722045 0.025991295 -0.080349624 -0.10790731 -0.0540041
-0.05357925 -0.03264012 0.024333589 0.057388257 0.08816818 0.053182807 0.074497074 0.064187214
-0.104621276 -0.13399652 0.057262775 0.06095431 -0.16560873 0.020268057 0.11681562 0.033072364
0.0036860434 -0.015045724 0.09072192 -0.06088698 0.019594682 -0.064486414 -0.047391556 0.12557091
0.12543236 -0.038305122 0.04916422 -0.08053555 -0.072520144 -0.06847233 0.07798737 0.09146261
-0.013505555 0.09115795 -0.15604638 -0.051466446 -0.125731 0.05998539 -0.0066958624 0.16418093
-0.035300292 0.0073259724 -0.086924836 -0.047213785 0.019643826 -0.011769847 -0.114095956 -0.006915113
-0.04579501 0.04834603 -0.00364534 0.027046096 0.005373819 -0.08660358 -0.008090213 -0.07442687
0.08304976 -0.02348073 0.092681184 -0.0075764465 -0.08882963 -0.0446368 0.02160842 0.054895587

layers.block_3.layer.0.bias f4 [128]
00000000: 6723 2a3d 9905 54bc 0eef 61bd 0e29 e33c
00000010: 4beb 8ebd 51fd 843d f180 56bd 6b6d 3abc
00000020: 43ab a93b 94fc b4bd f371 3a3d 2306 ef3b
00000030: 3951 79bd 8d8e f2bc cb5a 1fbc d924 8ebc
00000040: 707b 103d 7008 8d3d b1c7 4e3c 555f bebc
00000050: 473e 803d bda0 cf3c 247f a83d 0f79 8c3d
00000060: 94cf 7b3d a15d b3bd 7aa7 8fbd 25a1 e43c
00000070: 318f c9bd 5ebe f13c c001 8f3c 0c6d 093d
00000080: c5eb 61bd 4e2b 893d c9f4 913d a4a4 bfbd
00000090: acaf 90bd 3dac 4c3d c07b 38bc 903d 523c
000000a0: 99ff 49bd a5dd f3bc a9b2 d0bc d22a 293d
000000b0: 6240 393d 1e3f d5bc a643 5fbd 7230 933d
000000c0: ed72 dc3d 792c 9dbd 6794 b53d de27 21bd
000000d0: f6bd 51bd 3210 55bc 2dca d03c 1928 afbd
000000e0: 8776 9ebc 860c be3c 983c a13c 4fd3 173d
000000f0: 07ce 1f3d 9e59 21bd a0bc 793c 5c3f fbbd
00000100: c013 26bd 569e 033c 894c 2ebd 118a ef3c
00000110: 0adf 2cbd ced7 0e3d 32ac 30bd 3951 50bd
00000120: 6315 be3d e6cf a7bd 3dba 61bd 0fde 53bd
00000130: be22 14bd 492d 97bc 4812 2cbd ccf4 a83d
00000140: f54a 9f3d 5bde 583d 2d22 5b3b 5360 c93b
00000150: 78b0 c63d 6313 42bc e67d 5dbc b018 38bd
00000160: 09a7 78bd 7d20 adbc 12d0 b83d 15bc c2bc
00000170: 09f1 1cbd e4c6 cbbd 7388 bbbd 3c84 b73c
00000180: a7a2 993d 6bbe 3cbd cf78 493d ca99 82bc
00000190: a5ee f03c a1ac 973d 2bc6 edbc 5688 063d
000001a0: 0e40 613b 2e5f 7ebd b5cb 473c 6b5b 48bd
000001b0: ef50 0ebe 98b5 993c 9fda d53c cbd0 37bc
000001c0: 9f80 9b3d 8aa9 b23c 31ff c1ba 992b 2fbd
000001d0: fbe9 923d 85ce fc3c 5664 1a3c faf1 143d
000001e0: 8633 0d3d 8be8 2a3d 0675 653b 8efe 01bd
000001f0: c170 b8bc 6b94 8dbd 2dc4 413c 768b bb3c
0.04153767 -0.012940788 -0.05515962 0.027729537 -0.06978472 0.06493629 -0.05236906 -0.011378626
0.0051778867 -0.08837238 0.045518827 0.0072944327 -0.060868476 -0.02960899 -0.009726237 -0.017351555
0.03527397 0.06886375 0.012620852 -0.023238817 0.062618785 0.0253452 0.08227375 0.068590276
0.06147726 -0.08758093 -0.070143655 0.027908871 -0.09841765 0.02950972 0.01745689 0.03355126
-0.055156488 0.06697713 0.07126767 -0.093575746 -0.07064757 0.049968947 -0.011259973 0.01283206
-0.049316023 -0.029768774 -0.025475817 0.041300602 0.045227416 -0.026031073 -0.054507874 0.071869746
0.10764108 -0.07674498 0.08866196 -0.03934466 -0.05120655 -0.01300435 0.02548703 -0.0855257
-0.019343628 0.023199331 0.019682214 0.037066754 0.039014842 -0.039392106 0.015242726 -0.12267944
-0.04054618 0.008033356 -0.04255346 0.02924064 -0.042204894 0.034873776 -0.04313297 -0.05085871
0.09281423 -0.0819395 -0.05510925 -0.051725443 -0.036165945 -0.01845421 -0.04200962 0.08249816
0.07777969 0.05294643 0.0033437118 0.006145516 0.097016275 -0.0118454425 -0.013518786 -0.04494542
-0.060706172 -0.021133656 0.09024061 -0.023771325 -0.038315807 -0.09950045 -0.09156885 0.022401921
0.075017266 -0.046080034 0.049187478 -0.015942473 0.02941067 0.07405973 -0.029025158 0.032844864
0.0034370455 -0.06210249 0.012194564 -0.048915308 -0.13898061 0.018763348 0.026105223 -0.011219214
0.07592892 0.021809358 -0.0014800784 -0.042766187 0.071735345 0.030860195 0.009423336 0.03636358
0.034472965 0.041725677 0.0035012378 -0.031736903 -0.022514703 -0.06913074 0.011826557 0.022893649

layers.output.weight f4 [2, 128]
00000000: 7ab6 2d3d c576 80be 0528 77bd 4def 753e
00000010: a9dd 08be 75ac 4cbe 8672 343e 1218 053c
00000020: 1951 04bf bc18 0bbe bf87 20be ecd4 a6bd
00000030: 32ee 903d 22fe d0bd 97b7 6d3e 9d18 90bd
00000040: 59e4 4dbc b8fa 2dbf f371 b5be 468c fabe
00000050: 1d3d 803d bf2b 25bd 5076 143e c46f 013e
00000060: 3bc7 b83d 1d28 b6bd 54da 01be d177 27be
00000070: 535b 383d 25b2 47bf 8dd1 f6bc 8c42 ea3b
00000080: dd73 71bf ceea 153e 560f 033e 1a0c 173f
00000090: 3a7f 4ebd b1ae 3b3e 47bd 213f c1e9 cfbe
000000a0: a189 47bf c8f2 db3d f8c7 8d3c fff1 0c3f
000000b0: 921c 62bf 4043 3b3e e41e 4abc 8fdf 13be
000000c0: 90f7 6abf 7438 623e d037 89be f40d e9bc
000000d0: 9953 38be 408a 5f3f fcc5 9ebe 457d 453e
000000e0: b560 13be 9954 883e f952 75bf eeb8 7dbe
000000f0: b994 99bb 7427 17be 90de 583e a373 6d3f
00000100: dba7 07bf 20c2 6ebe cf69 56be 0d6b 91be
00000110: e51a d5bd 1c92 643d 804d 26bd 0858 603f
00000120: 4caa fbbd 6251 7e3e 030a 05be 45a1 743e
00000130: c5e5 a6bd 9953 14be dc18 3f3e d125 4c3e
00000140: fa26 87bf 8ffb dbbc a63f d13d 6c38 643c
00000150: 8c0e c73a e36f 3bbf c129 843d c9d4 2fbf
00000160: 9e1c 69be c468 1c3e cf53 a7be 2ce9 84be
00000170: c35a e23e 52e7 203e bb2e 013e b2bb 66bf
00000180: 9b14 ae3d 06f1 f4bb 791c 333f acd0 6ebb
00000190: a16e 403f 3767 0abf 0b9c 603f 9c2f dd3d
000001a0: d547 f4bd 0684 093e ec14 25bd eb6f 043e
000001b0: 6453 5f3f 2ec8 9f3e 11d5 8dbd 9d09 09be
000001c0: da6a 13be eeea 123e 4cd4 bb3d 5053 5a3d
000001d0: ccb2 8c3d d480 23be ccc4 0ebe 4f6f 0b3e
000001e0: 4615 2e3e 48af e83b 8c61 46be cbb9 de3d
000001f0: b660 4e3e 26b1 64be 4400 9e3e 6a1d 84bf
00000200: 57f8 21bd 0844 e4bd 9ceb 21be 8bd8 003e
00000210: bb9e 0ebe 16c6 0abe 27a5 86be 89cf 943e
00000220: 9fd0 063f d8d3 643e 7c85 433f c7a9 5cbe
00000230: 493b b23d 2e04 423e 0d0c 943d 0ec2 71be
00000240: a0b9 cabd 1b5e 103f 0711 ce3e de32 bdbe
00000250: a0b9 e0bd 1256 fd3c 1c2a 04bc 9965 06be
00000260: 4288 963e 2f7a b13e 8aca 403e 239d 83be
00000270: 8a78 3fbe 31b8 273f f2d1 80bc 5142 323e
00000280: ff4c 0a3e f97e c8bc 8456 0bbf 4c49 cabe
00000290: 28f2 5fbe 10b0 82be 67d8 03bf cbc9 233f
000002a0: cfe7 403f c1c5 183e 933a 423e baf7 9f3e
000002b0: 33d6 b7bd 7114 0dbe 54ca 71be 999b 513e
000002c0: 800e b53e a1ed 9fbe 3d25 593f 757f 93be
000002d0: 62ad eebd e1ab b23e d61d 603d 46fc 613d
000002e0: 19b8 023e c974 e53c 4e15 4c3f c6c0 c03e
000002f0: 07ee 313e e3df 403e aa4b 37be 7be2 e03d
00000300: 63ea bdbd ac44 113b dcc8 d8bd 0f4b 963e
00000310: aa58 81bd 3793 b33e d5ab 4dbd 2ca1 cb3e
00000320: a3d6 fabc ab84 16bf dbaf 19be 3a8c 7cbc
00000330: c67f 4dbe a430 03be 1b0a a83d 6feb 90be
00000340: 411e 223f 1616 8dbe 476c 893e 2e70 483e
00000350: fa04 9d3d 4914 b83e a010 803e cfb9 2cbe
00000360: 933e eb3d df43 173e 5365 ca3e 948f 7f3d
00000370: 9e67 91be 0e89 873e 74ad f8be 74c5 5e3e
00000380: 7cca 4f3e 5d58 70be 6dc8 51bf b56f 0fbe
00000390: 3d09 b8be e084 433e b08a 8bbe bd42 2dbe
000003a0: 6b78 a83e b40e 8fbe d9f9 2cbe e5ca b1be
000003b0: 3429 88be 73cf 123e 1021 8bbe 1f87 1e3e
000003c0: 7f21 6dbe 7898 143e 9c51 58be 85b7 093e
000003d0: 2fa6 833d d85f 68be 5415 223c d35a 5a3e
000003e0: c0dd 37bf a334 35bd 12cc a0bc 2bb7 2b3e
000003f0: 41ab 04bf 5379 e3bd e5f7 10bf d43d 38bd
0.04241035 -0.25090614 -0.0603409 0.24017067 -0.13365807 -0.19987662 0.17621812 0.008123415
-0.51686245 -0.13583654 -0.15676783 -0.081460804 0.07076682 -0.10204722 0.23214565 -0.070359446
-0.012566649 -0.6796069 -0.354385 -0.48935145 0.062616564 -0.040324923 0.14498258 0.12640291
0.09022375 -0.0889437 -0.12680942 -0.163543 0.04500897 -0.780062 -0.030129218 0.0071490463
-0.9431742 0.14640352 0.12798819 0.5900284 -0.0504143 0.18328358 0.6317944 -0.40608028
-0.7794438 0.10739666 0.017307267 0.55056757 -0.88324845 0.18287373 -0.012336466 -0.1444075
-0.91784 0.22091848 -0.26800394 -0.028449036 -0.1800064 0.8732033 -0.31010425 0.19286068
-0.1439236 0.26627043 -0.9582973 -0.24777576 -0.0046869186 -0.14761144 0.21178651 0.9275457
-0.529905 -0.2331624 -0.209388 -0.28401986 -0.1040552 0.055803403 -0.040601254 0.87634325
-0.12288341 0.24835733 -0.129921 0.23889644 -0.08149294 -0.14485015 0.18661827 0.19936301
-1.055877 -0.02685335 0.10217218 0.013929468 0.001518683 -0.732176 0.064532764 -0.6868406
-0.22764823 0.1527434 -0.32681128 -0.25959146 0.4420987 0.15713242 0.12615483 -0.9013015
0.08500024 -0.0074750213 0.6996532 -0.0036440296 0.75168806 -0.54063743 0.877381 0.108000964
-0.119277634 0.13429269 -0.040303156 0.12933318 0.8723662 0.31207412 -0.06925405 -0.13382573
-0.1439623 0.14347431 0.09171352 0.05330211 0.0687004 -0.15967113 -0.1394226 0.1361668
0.17000303 0.0071009733 -0.19373149 0.10875281 0.2015408 -0.22333202 0.30859578 -1.0321476
-0.039543476 -0.111457884 -0.15812534 0.12582605 -0.13927738 -0.13552126 -0.26297876 0.29064587
0.5266208 0.22346437 0.76375556 -0.2154914 0.08702714 0.18946907 0.07228861 -0.23609182
-0.098986864 0.56393594 0.40247366 -0.3695287 -0.10972905 0.03092483 -0.00806668 -0.13124694
0.2940083 0.3466353 0.18827263 -0.25705823 -0.18698326 0.6551543 -0.01572511 0.1740811
0.13505934 -0.024474608 -0.5442889 -0.39509046 -0.21869719 -0.2552495 -0.5150208 0.63979787
0.7535371 0.14919187 0.18967657 0.31243688 -0.08976402 -0.13777329 -0.23612338 0.20469512
0.35362625 -0.31235984 0.84822446 -0.2880818 -0.11654164 0.34896758 0.054715954 0.055172227
0.1276554 0.028009789 0.7972001 0.37647074 0.17375956 0.18835406 -0.17899957 0.10980698
-0.09273221 0.0022166176 -0.10585186 0.2935414 -0.063157395 0.35073254 -0.0502127 0.39771402
-0.030619925 -0.58796185 -0.1500849 -0.015414292 -0.20068273 -0.12811524 0.082050525 -0.28304622
0.63327414 -0.27555913 0.26840422 0.19574043 0.07666965 0.35952976 0.25012684 -0.16867755
0.114865445 0.14771985 0.3953043 0.062392786 -0.28399366 0.26471752 -0.48569834 0.2175501
0.20292085 -0.23471208 -0.8194645 -0.14007457 -0.35944548 0.19093657 -0.27254248 -0.1691999
0.32904372 -0.27940905 -0.16892184 -0.3472511 -0.26593935 0.14336948 -0.27173662 0.15481232
-0.23157309 0.14511287 -0.21124882 0.13448913 0.064281814 -0.22692811 0.00989278 0.21323709
-0.7182274 -0.04423965 -0.019628558 0.16769092 -0.5182381 -0.11107125 -0.5662826 -0.04498084

layers.output.bias f4 [2]
00000000: 6eae 033e 38af de3c
0.12859508 0.02718316
