results/SMOTE10K/smote0/smote0.25/model.pth (torch, 205093 bytes, 10 tensors)

layers.block_0.layer.0.weight f4 [128, 2]
0	0x3f77dd9d	0.9682253
1	0xbee2c0f5	-0.4428784
2	0xbf2872d1	-0.65800196
3	0x3edb057b	0.4277762
4	0xbefe79ef	-0.49702403
5	0x3f307a08	0.68936205
6	0x3f789908	0.9710851
7	0xbea8ebc2	-0.3299237
8	0xbf165cbf	-0.5873527
9	0xbd66b8b1	-0.05632848
10	0x3f6e4527	0.9307427
11	0x3e30d441	0.17268468
12	0xbe60d703	-0.2195702
13	0xbf228d92	-0.6349727
14	0x3f834d79	1.0258018
15	0x3db632cf	0.0889641
16	0xbf75b796	-0.95983255
17	0x3ed2383b	0.41058525
18	0x3f545840	0.8294716
19	0x3f2b04a5	0.6680396
20	0x3ee300ee	0.44336647
21	0x3efbf580	0.4921074
22	0x3daf187a	0.085495904
23	0xbf40f31b	-0.7537095
24	0xbf3e3e8c	-0.7431419
25	0x3eaa3b91	0.3324857
26	0x3f274235	0.653354
27	0xbed9baaa	-0.42525226
28	0xbefe57b7	-0.49676296
29	0xbee023be	-0.4377727
30	0xbf52058c	-0.82039714
31	0xbe077747	-0.13229094
32	0x3f4b90de	0.79517925
33	0x3c86ca90	0.016454011
34	0x3f715c6b	0.94281644
35	0x3f0bf20e	0.5466622
36	0x3eb767c3	0.3582135
37	0x3ef09fc4	0.46996891
38	0xbd5c879e	-0.053840272
39	0xbf38613d	-0.72023374
40	0xbf5a259b	-0.8521363
41	0xbce0cda4	-0.027441807
42	0xbeeb0efd	-0.45909873
43	0xbf324999	-0.6964355
44	0x3f385453	0.7200367
45	0xbe7dedea	-0.24797788
46	0xbf39f803	-0.7264406
47	0x3f10df0c	0.5659034
48	0xbf741430	-0.95343304
49	0xbef4ad72	-0.47788578
50	0xbf2ae824	-0.6676047
51	0xbd889efa	-0.066709474
52	0x3ec7701b	0.38952717
53	0xbeb9042a	-0.3613599
54	0x3f8b7c92	1.0897391
55	0xbdebf257	-0.11520832
56	0xbf4c2e84	-0.7975848
57	0xbb3ffa40	-0.0029293448
58	0xbf2d36c2	-0.6766168
59	0xbdd9d912	-0.10637106
60	0xbf7846c1	-0.9698296
61	0x3edd756a	0.43253642
62	0x3ed24293	0.41066417
63	0x3edb7840	0.4286518
64	0xbf7e9cf5	-0.9945825
65	0xbeeaaf33	-0.4583679
66	0x3f3a9166	0.7287811
67	0xbea3042c	-0.3183912
68	0x3e8967a9	0.268369
69	0x3ecba7c8	0.39776444
70	0x3f2a5311	0.66533
71	0xbe1bd333	-0.15217285
72	0x3f39cb4e	0.72575843
73	0x3d062c33	0.032756995
74	0xbeb55cbf	-0.35422322
75	0x3ecee0d8	0.40405917
76	0xbf7408cc	-0.9532592
77	0x3f0b1f9e	0.5434512
78	0x3e73004a	0.23730579
79	0x3f21710d	0.63063127
80	0x3f7bd782	0.98375714
81	0x3e7e2126	0.24817333
82	0x3f0f4414	0.55963254
83	0x3e916102	0.28394324
84	0x3f3e68c1	0.7437859
85	0xbc7969e3	-0.015222999
86	0xbeacda30	-0.33760214
87	0xbe80a90d	-0.25128976
88	0x3f60b7e9	0.87780625
89	0x3ef29280	0.47377396
90	0xbed89ee5	-0.42308727
91	0x3f380098	0.71875906
92	0x3ea05b81	0.31319812
93	0xbf3ae6e3	-0.73008555
94	0x3f5818cf	0.84412855
95	0xbdc84264	-0.09778288
96	0x3f48c623	0.7842733
97	0x3e25cdcf	0.16191791
98	0x3e51d20d	0.20490284
99	0xbf054879	-0.5206371
100	0x3f44f3af	0.7693433
101	0x3eb28d6e	0.34873527
102	0xbe3f498c	-0.186804
103	0xbef69c3d	-0.48166075
104	0xbf02c28f	-0.5107812
105	0x3f369fdc	0.71337676
106	0x3f779924	0.9671805
107	0xbf1f2ca1	-0.62177473
108	0xbf6f51d6	-0.93484247
109	0x3e70f724	0.23531777
110	0x3f83c2d5	1.0293833
111	0x3f1e067c	0.61728644
112	0x3f4d34ea	0.80158865
113	0xbef5e11c	-0.48023307
114	0xbf1402d1	-0.578168
115	0xbf18e5ff	-0.59725946
116	0x3e53496c	0.20633477
117	0xbf0b87b0	-0.5450392
118	0xbf486f71	-0.78295046
119	0x3f1d6d2b	0.614947
120	0xbf7a2ab1	-0.9772139
121	0x3eba7c7d	0.36423102
122	0xbea16a35	-0.31526342
123	0x3d32ddb1	0.043668453
124	0xbe821020	-0.25402927
125	0x3ed944fd	0.42435446
126	0xbe0ace7e	-0.13555333
127	0xbe8c1dfe	-0.27366632
128	0xbf27f489	-0.65607506
129	0x3e13f5e2	0.14449266
130	0xbec0c760	-0.3765211
131	0xbf30a437	-0.6900057
132	0xbe5039f4	-0.20334607
133	0xbf10fa83	-0.5663225
134	0xbf23c4f7	-0.6397242
135	0x3eb9b70c	0.36272466
136	0x3f13a2d6	0.5767034
137	0xbe85f4a2	-0.26163203
138	0x3f4cd39a	0.8001038
139	0xbd4d8807	-0.050178554
140	0xbf1ecd52	-0.62032044
141	0xbf32b5e5	-0.698088
142	0xbf54774a	-0.8299452
143	0x3f3a6e1e	0.72824275
144	0xbf666d0b	-0.90010136
145	0xbf04d732	-0.5189086
146	0x3f1dfd0a	0.6171423
147	0xbd390f21	-0.045180444
148	0x3f736fa0	0.950922
149	0xbec96776	-0.39336747
150	0xbf410b6d	-0.7540806
151	0x3e96292f	0.29328296
152	0xbf524b4e	-0.82146156
153	0xbf1cabed	-0.6119984
154	0xbf3a5a00	-0.7279358
155	0x3dbb124a	0.09134348
156	0xbef7546d	-0.483066
157	0x3f40ff4e	0.75389564
158	0xbeed71b9	-0.46375826
159	0x3dd2471d	0.1026747
160	0x3e7992b6	0.24372372
161	0xbf2a702f	-0.6657743
162	0x3ecdefb8	0.40221953
163	0xbdd5fd72	-0.104487315
164	0x3ee03faa	0.43798572
165	0xbf195635	-0.59897166
166	0xbcd1d87f	-0.025615929
167	0xbf4570cb	-0.77125233
168	0x3f50750a	0.8142859
169	0x3f464eec	0.77464175
170	0x3f3d5a51	0.73965937
171	0xbe459e52	-0.19298676
172	0xbf6740af	-0.90333074
173	0x3f388c18	0.72088766
174	0x3f314108	0.69239855
175	0x3e9c1d5b	0.30491146
176	0xbf202d7b	-0.625694
177	0x3efe81bf	0.49708363
178	0x3ef67728	0.48137784
179	0x3eec2a17	0.46125862
180	0x3f4bc6b9	0.796001
181	0x3ecc1b63	0.39864644
182	0xbf826af6	-1.0188892
183	0xbf26090f	-0.6485757
184	0x3f6f68b8	0.93519163
185	0xbc9d8e9d	-0.019233042
186	0x3f1889da	0.59585345
187	0x3e82438e	0.25442165
188	0x3f6877a4	0.9080756
189	0x3effee3b	0.49986443
190	0xbeae8251	-0.340838
191	0x3f3e4d2c	0.74336505
192	0xbf367edf	-0.7128734
193	0x3f1ab04d	0.60425264
194	0xbf3a48ff	-0.72767633
195	0xbf2fc2df	-0.68656725
196	0x3f2d09a2	0.67592824
197	0xbde9a6bd	-0.11408756
198	0x3f877343	1.058205
199	0x3f31f5df	0.69515795
200	0x3f4ab0e9	0.79176193
201	0x3d888514	0.06666008
202	0xbf77fecf	-0.9687318
203	0xbea03481	-0.31290057
204	0xbf25f4ac	-0.64826465
205	0x3d8abf2c	0.067747444
206	0x3eb8ed47	0.36118528
207	0xbf266655	-0.64999896
208	0xbf3146b3	-0.69248503
209	0x3d8c7fc9	0.068603106
210	0xbf36b34e	-0.7136735
211	0x3ec1c0cd	0.37842408
212	0xbf237179	-0.6384502
213	0x3e89a14b	0.2688087
214	0x3f3c79c7	0.7362332
215	0x3d749ac3	0.059717905
216	0xbeab22df	-0.33425042
217	0xbde2546a	-0.11051257
218	0xbe10f6c5	-0.14156635
219	0xbf3c0da8	-0.7345834
220	0x3f046b36	0.5172609
221	0x3e30fd8f	0.17284225
222	0x3f70403a	0.93848
223	0x3ed52586	0.4163019
224	0x3f86211b	1.0478853
225	0xbf007623	-0.5018026
226	0x3e9ad2e5	0.30239025
227	0xbf29fec8	-0.6640439
228	0x3f17fc24	0.5936911
229	0x3f0b05d3	0.5430576
230	0x3f28de76	0.6596445
231	0xbdd80aa7	-0.10548907
232	0xbf4ecd91	-0.8078242
233	0xbeb04605	-0.3442842
234	0x3ebd86c7	0.3701689
235	0xbe9f3a7b	-0.31099305
236	0xbf804c9b	-1.0023378
237	0x3d59dfca	0.053191938
238	0xbf6f53d3	-0.9348728
239	0x3eed8557	0.46390793
240	0xbf5ba749	-0.8580213
241	0x3ee85cd1	0.45383313
242	0x3f1222f5	0.5708459
243	0x3f031a2b	0.51211804
244	0xbf4018cc	-0.7503784
245	0xbc2c832a	-0.010529319
246	0x3f5d5808	0.8646245
247	0xbd468f5b	-0.04847656
248	0xbf70d99e	-0.9408206
249	0xbed518aa	-0.4162038
250	0x3f5af214	0.8552563
251	0x3e8ff5a1	0.28117087
252	0x3f7692d2	0.9631778
253	0x3eb0a9ba	0.3450449
254	0x3f5bfd02	0.85932934
255	0x3f421247	0.7580914

layers.block_0.layer.0.bias f4 [128]
0	0x3f226feb	0.63452023
1	0xbd437e41	-0.047727827
2	0xbeca3b97	-0.39498588
3	0x3e9d2414	0.30691588
4	0x3e97c2b6	0.2964074
5	0xbe1b0e11	-0.15142085
6	0x3ef847a0	0.48492146
7	0xbe6f1006	-0.23345956
8	0xbf0f108c	-0.55884624
9	0xbf2b2d1d	-0.6686571
10	0x3f027989	0.509667
11	0xbf172a91	-0.59049326
12	0xbe11cfb4	-0.14239389
13	0xbeff5235	-0.49867406
14	0xbe870883	-0.2637368
15	0x3ec7d0eb	0.3902658
16	0x3daf5369	0.08560831
17	0xbf057ba2	-0.52141774
18	0xbefd5f8d	-0.49486962
19	0xbda54104	-0.08069041
20	0xbc6c3a54	-0.014418203
21	0xbf278ad4	-0.6544621
22	0x3e5f030a	0.21778503
23	0xbea4c168	-0.32178807
24	0x3f14a2d5	0.5806096
25	0xbeacc81f	-0.3374643
26	0xbb52475f	-0.0032085998
27	0x3d91e24e	0.07123242
28	0xbccf1408	-0.025278106
29	0xbed4a52b	-0.41532263
30	0xbec50664	-0.38481438
31	0xbf32fb20	-0.69914436
32	0x3ea3cc62	0.3199187
33	0x3ec2d1c4	0.38050663
34	0x3e2a3dc8	0.1662513
35	0xbd2fde78	-0.042936772
36	0xbbfe5184	-0.0077611823
37	0xbf29c8ec	-0.6632221
38	0xbf112a2c	-0.56704974
39	0x3f045175	0.51686794
40	0xbdb2e64e	-0.087353334
41	0xbf16f596	-0.58968484
42	0xbec9d9a1	-0.3942385
43	0x3f162b63	0.5865995
44	0xbf01100c	-0.5041511
45	0xbf46b444	-0.77618814
46	0xbe91bca2	-0.28464228
47	0xbeb4ad56	-0.35288495
48	0x3e95b5ac	0.29240167
49	0x3ef6edcb	0.48228297
50	0x3dc1c143	0.0946069
51	0xbefe2348	-0.49636292
52	0xbf23e709	-0.64024407
53	0x3ed33771	0.41253236
54	0xbeaec234	-0.3413254
55	0xbf099be4	-0.53753495
56	0x3d78eeaa	0.060774483
57	0x3e973674	0.29533732
58	0xbeb93c91	-0.3617902
59	0xbea969b4	-0.33088458
60	0xbe758109	-0.23975004
61	0x3f2e6735	0.6812623
62	0x3f0b408e	0.5439538
63	0x3e848feb	0.2589105
64	0xbf261b27	-0.6488518
65	0xbd120afd	-0.03565501
66	0x3edbbec4	0.4291898
67	0xbf35dea6	-0.7104286
68	0x3ea795e2	0.3273154
69	0x3c87bbd6	0.01656906
70	0x3ef3d562	0.47623736
71	0xbf27d91a	-0.65565646
72	0x3f0c4ca5	0.5480445
73	0xbf0dacc0	-0.5534172
74	0x3f1951ff	0.5989074
75	0xbef55285	-0.4791452
76	0x3eeb593d	0.4596652
77	0xbe9c0948	-0.3047583
78	0xbf159236	-0.58426225
79	0xbe828ac0	-0.25496483
80	0xbdda37c5	-0.106551684
81	0x3f0143e6	0.5049423
82	0xbea5f039	-0.32409838
83	0xbda0a5c4	-0.07844117
84	0xbf3b1678	-0.7308116
85	0x3e17468a	0.14773002
86	0xbf21a26b	-0.63138455
87	0x3d1e9d72	0.03872437
88	0xbec190a9	-0.3780568
89	0xbece24e5	-0.40262523
90	0xbf08222a	-0.5317713
91	0x3f1cdac1	0.6127129
92	0xbeb44795	-0.35210863
93	0x3ec43f44	0.38329518
94	0xbf0a7153	-0.5407917
95	0xbd5d556b	-0.05403654
96	0x3e66a1c4	0.22522646
97	0x3f155e90	0.58347416
98	0x3f123468	0.57111216
99	0xbf257fcb	-0.6464812
100	0x3e36de5a	0.17858258
101	0x3f23c0cf	0.6396608
102	0xbea3a627	-0.31962702
103	0xbe038e5f	-0.12847279
104	0xbe0a13be	-0.13484094
105	0xbea04dcb	-0.3130935
106	0xbe7460b6	-0.23865017
107	0x3f31492b	0.6925227
108	0xbe185a5d	-0.14878221
109	0xbe2ccf6b	-0.16875999
110	0x3f20324a	0.62576735
111	0xbeb43cf9	-0.35202768
112	0x3f2405d4	0.64071393
113	0x3f1c5cb7	0.6107897
114	0xbe8fc297	-0.28078148
115	0x3f30f2cf	0.69120497
116	0x3e6acc62	0.22929528
117	0xbd10db19	-0.035365198
118	0x3db11cb6	0.08648054
119	0xbefa535f	-0.48891732
120	0xbe744b72	-0.23856905
121	0xbeb62ec4	-0.35582554
122	0x3f20c90f	0.6280679
123	0xbd8cd444	-0.06876424
124	0x3e9d865f	0.3076658
125	0x3e7b37f1	0.24533059
126	0xbe90962d	-0.28239575
127	0xbf1b308b	-0.60620946

layers.block_1.layer.0.weight f4 [128, 128]
0	0xbc9688de	-0.01837581
1	0x3d808c3e	0.06276749
2	0xbadfb899	-0.0017068564
3	0xbe098c9a	-0.13432541
4	0x3d8060a3	0.06268432
5	0xbe08f131	-0.13373257
6	0x3c70a839	0.014688545
7	0xbcbc371e	-0.0229755
8	0x3c983a9f	0.01858264
9	0x3cec9254	0.028878368
10	0xba138d21	-0.0005628635
11	0xbb61e55c	-0.0034468984
12	0x3dd29481	0.10282231
13	0x3c870f61	0.016486825
14	0xbbe56af2	-0.0070012743
15	0x3dfb83ed	0.12281022
16	0xbe0c1c12	-0.13682583
17	0xbdcb45df	-0.09925436
18	0xbd54e686	-0.051977657
19	0x3c4576c6	0.012052244
20	0x3e3043de	0.1721339
21	0xbd429267	-0.0475029
22	0xbc53bfef	-0.0129241785
23	0x3ddb9785	0.107222594
24	0x3caf7e1c	0.021422438
25	0x3ccb6e6f	0.024832932
26	0x3c846407	0.016160978
27	0xbe200faf	-0.15630983
28	0x3e798e3b	0.24370663
29	0x3dc9e2bb	0.098576985
30	0x3ccd8dac	0.025091968
31	0x3d104def	0.035230573
32	0x3dd858ae	0.10563789
33	0xbde60178	-0.11230749
34	0xbcd4e495	-0.025987903
35	0xbdea5037	-0.11441081
36	0xbe0e239a	-0.13880768
37	0x3cdc52c3	0.026894933
38	0x3d9b299f	0.07576298
39	0xbd6314ca	-0.055439748
40	0xbdd0d65d	-0.101971366
41	0xbce71e24	-0.028212614
42	0xbdeacd79	-0.11464972
43	0x3ccb6d1b	0.024832299
44	0xbe16ce47	-0.14727126
45	0x3dc6b8e4	0.09703234
46	0x3db56d79	0.08858771
47	0xbcc655ba	-0.0242108
48	0xbbdfd75f	-0.006831094
49	0xbd2300dd	-0.039795745
50	0xbe0c490e	-0.13699743
51	0xbba0fc2c	-0.0049128737
52	0x3d45daa6	0.048304223
53	0xbc8bc599	-0.017061995
54	0x3b34c2e6	0.0027581989
55	0xbdf1c0ce	-0.11804353
56	0x3c8e70f8	0.017387852
57	0x3dfba483	0.122872375
58	0xbd50de7b	-0.050993424
59	0x3b6d2647	0.0036186145
60	0x3dd27c07	0.102775626
61	0x3d09ab6d	0.03361075
62	0x3d323c0b	0.043514293
63	0x3d7ffacb	0.062495034
64	0xbbee9e98	-0.0072820894
65	0x3bc16834	0.0059023146
66	0x3db2d350	0.08731711
67	0x3d406947	0.0469754
68	0xbd8db49a	-0.06919213
69	0xbe723213	-0.23651914
70	0xbc121e76	-0.008918395
71	0x3daef94a	0.08543642
72	0x3d9fff31	0.07812346
73	0xbd2efe13	-0.042722773
74	0x3cc65c51	0.024213942
75	0xbce89faf	-0.028396456
76	0x3d0ffcc0	0.03515315
77	0x3dca6a9c	0.098836154
78	0xbc46fdbc	-0.012145456
79	0x3d3c78d1	0.046013657
80	0x3d479102	0.048722275
81	0xbdd2a00e	-0.10284434
82	0xbbaaee90	-0.005216427
83	0xbd3ed324	-0.04658808
84	0xbc539904	-0.0129149
85	0xbe085743	-0.13314538
86	0x3d147320	0.036242604
87	0xbdf801f1	-0.12109745
88	0xbcb98f30	-0.022651285
89	0x3d1c561d	0.03816806
90	0x3ca7f55e	0.020502742
91	0x3d61ff7c	0.05517529
92	0xbd1e03c8	-0.038577825
93	0xbd6ad4b5	-0.05733176
94	0xbe0af651	-0.13570525
95	0x3d3e2054	0.04641755
96	0x3dbfcc70	0.09365165
97	0xbd0f8e2a	-0.035047688
98	0xbcf6efa6	-0.03014357
99	0xbde8cd36	-0.11367266
100	0xbe27652c	-0.16347188
101	0x3cf25ea5	0.029586146
102	0x3e10e57e	0.14150044
103	0xbd3313bd	-0.043719996
104	0x3d8f2f57	0.06991451
105	0x3de277ab	0.11057981
106	0x3db6cc31	0.08925665
107	0xbd63b6d9	-0.0555943
108	0x3d8b90e5	0.06814746
109	0xbc1a0076	-0.009399524
110	0x3bc45869	0.0059919846
111	0xbc7a5a8a	-0.015280375
112	0xbdb075a2	-0.08616187
113	0xbd8c9d2f	-0.06865918
114	0xbcfc0808	-0.030765548
115	0xbcd1ad7e	-0.025595423
116	0x3e0b7e9c	0.13622516
117	0xbdaa8680	-0.08326435
118	0x3e043d37	0.12913977
119	0x3e152d9d	0.14568181
120	0x3d911171	0.07083405
121	0x3d0081da	0.031373836
122	0x3c19bb9b	0.009383108
123	0xbdca123e	-0.09866761
124	0xbbb4d12f	-0.0055181007
125	0xbaefe8b6	-0.0018303606
126	0xbdf2a614	-0.11848083
127	0xbdd2f234	-0.10300103
128	0x3c9a2f65	0.018821428
129	0xbcdab296	-0.026696485
130	0x3d1bb435	0.038013656
131	0x3c717a63	0.014738652
132	0xbcb117d3	-0.021617806
133	0x3d0315ea	0.03200332
134	0x3d9b89fb	0.07594677
135	0x3a806ce5	0.0009798078
136	0xbd482f18	-0.048873037
137	0xbdd09862	-0.10185315
138	0x3c979696	0.018504422
139	0xbd13f6b2	-0.03612394
140	0x3db89bd1	0.090140946
141	0xbd47c4fc	-0.048771843
142	0x3d866dc7	0.06563907
143	0x3b969ffc	0.0045967083
144	0xbdadbe0d	-0.08483515
145	0xbe0441b2	-0.12915686
146	0xbda7527c	-0.081700295
147	0xbd6a5ce9	-0.057217512
148	0x3cadb10b	0.021202585
149	0x3d9e95eb	0.07743438
150	0xbc0da4fa	-0.0086452905
151	0xbce9a6fc	-0.028522007
152	0x3dcf667c	0.10126969
153	0xbd7ec65f	-0.0622009
154	0xbb7ed9fc	-0.0038887253
155	0xbda30be7	-0.079612546
156	0x3e03ab22	0.1285825
157	0x3d0ad5d1	0.033895317
158	0x3daad920	0.083421946
159	0x3c8213df	0.015878616
160	0xbc8a59da	-0.016888548
161	0xbd81cb0e	-0.06337558
162	0x3c493289	0.012280115
163	0xbdc9cf39	-0.09853978
164	0xbd1a9093	-0.037735533
165	0xbc8456fe	-0.016154762
166	0xbd2aa286	-0.0416589
167	0xbb3e6330	-0.002905082
168	0xbdd31893	-0.103074215
169	0x3d88b62a	0.0667537
170	0x393e0d53	0.00018124776
171	0x3d9469a9	0.072467156
172	0xbdc9b906	-0.098497435
173	0x3b9bd86d	0.0047560246
174	0xbdc9cc88	-0.09853464
175	0xbde1f858	-0.11033696
176	0xbd897ff4	-0.06713858
177	0x3dac9d47	0.08428436
178	0xbd6f7a52	-0.058466263
179	0xbda57fa2	-0.08080985
180	0xbdb3e3d1	-0.08783687
181	0xbc4cb84e	-0.012495114
182	0x3d7d10e0	0.06178367
183	0x3b857208	0.0040724315
184	0xbdf32b00	-0.11873436
185	0x3e07e40f	0.13270591
186	0xbd871ea7	-0.06597643
187	0xbd19308a	-0.037399806
188	0x3dbec2f0	0.09314525
189	0x3d434a3a	0.04767821
190	0x3d804a59	0.06264181
191	0x3d64cf45	0.05586173
192	0xbcacd7ab	-0.021098932
193	0x3df6b944	0.12047055
194	0xbc883be3	-0.016630119
195	0x3bb21bc7	0.00543544
196	0x3d119952	0.03554661
197	0xbb0977b5	-0.0020975892
198	0xbc9dd3c9	-0.019266026
199	0xbc804aa9	-0.0156606
200	0x3df32546	0.11872344
201	0x3d0a4590	0.033757746
202	0xbd49eca1	-0.049297933
203	0x3c9a1608	0.018809333
204	0x3daa3f32	0.08312835
205	0x3d3c4baf	0.045970615
206	0xbd947136	-0.07248156
207	0xbd66c216	-0.05633744
208	0xbd4f196e	-0.05056136
209	0xbca1e991	-0.019764693
210	0xbd6390d0	-0.055558026
211	0x3bc0a0ce	0.0058785444
212	0xbc4e0619	-0.012574696
213	0x3d175f22	0.03695596
214	0x3db232ea	0.08701117
215	0xbd89b094	-0.06723133
216	0xbc84d205	-0.016213426
217	0xbd4cd127	-0.05000415
218	0xbdd1cfbb	-0.102446996
219	0x3db1a92a	0.086748436
220	0xbda2e6b8	-0.07954162
221	0xbdae87c8	-0.08521992
222	0x3b1f47a0	0.0024304166
223	0xbd733c4f	-0.059383687
224	0x3d3e95f9	0.046529744
225	0x3d9fc423	0.07801082
226	0xbd1ee07f	-0.038788315
227	0xbd5ce4cc	-0.053929135
228	0x3c5c67e6	0.013452506
229	0xbceed2a6	-0.02915318
230	0xbbc7df5e	-0.0060996255
231	0xbcb2bc06	-0.021818172
232	0xbcbd6dc1	-0.023123624
233	0xbd300d99	-0.042981718
234	0x3d5191a4	0.051164284
235	0xbcde7edc	-0.0271601
236	0x3d39638b	0.045260947
237	0xbc9fef3a	-0.019523252
238	0x3d70951b	0.058735948
239	0xbddeb2ad	-0.108739235
240	0x3d952cfe	0.07283972
241	0x3d53b05d	0.051681865
242	0xbd8f67b4	-0.07002202
243	0x3d6857eb	0.05672447
244	0x3dbec258	0.09314412
245	0xbd427a08	-0.04747966
246	0x3d4d1b80	0.050075054
247	0x3d42039b	0.04736672
248	0x3cc4207d	0.023941273
249	0xbdcf7496	-0.10129659
250	0x3dcb3b0b	0.09923371
251	0xbdbafbb4	-0.0913004
252	0x3df27587	0.11838823
253	0xbd876b6b	-0.06612285
254	0xbd235f0f	-0.039885577
255	0xbb1acfb2	-0.0023622331

layers.block_1.layer.0.bias f4 [128]
0	0xbcdad858	-0.026714489
1	0xbd1d34f6	-0.038380586
2	0xbd32b93d	-0.04363369
3	0x3d1cfc02	0.03832627
4	0xbd421ed8	-0.047392696
5	0x3c3874f5	0.0112583535
6	0x3d09dfef	0.033660825
7	0xbc9cc1db	-0.019135406
8	0xbd752714	-0.05985172
9	0x3c6e2225	0.014534508
10	0xbc5f77fe	-0.013639448
11	0x3d894704	0.06702998
12	0xbcfbdc25	-0.030744622
13	0x3d9e970f	0.07743656
14	0xbc9df0c3	-0.019279843
15	0x3dd5f532	0.10447158
16	0xbc81b240	-0.015832067
17	0x3d512245	0.051058073
18	0xbd3df81c	-0.046379194
19	0x3dac1683	0.08402731
20	0xbd9ced70	-0.07662475
21	0x3d8a2293	0.06744876
22	0xbd0ad7da	-0.03389726
23	0xbc52a4c9	-0.012856671
24	0xbd988d0a	-0.07448776
25	0xbe074145	-0.13208492
26	0xbd08f219	-0.033434007
27	0xbbb7bb3f	-0.0056070383
28	0x3d007af3	0.031367254
29	0xbd0b21af	-0.03396767
30	0xbd525615	-0.051351625
31	0xbcf69526	-0.030100416
32	0xbd9e78d1	-0.07737888
33	0x3abd0ae9	0.0014422807
34	0xbcdda6f6	-0.027057152
35	0xbcc70466	-0.02429409
36	0x3a9be6d2	0.0011894351
37	0x3cc10ac5	0.023564706
38	0xbccb2997	-0.024800105
39	0x3d49748a	0.049183406
40	0xbcbee1ea	-0.023301084
41	0x3d0d7e76	0.03454443
42	0x3c8ff8a7	0.017574621
43	0xbd84a8b5	-0.06477491
44	0xbd142656	-0.036169372
45	0x3c46585c	0.012106027
46	0xbd8cf012	-0.06881727
47	0x3d744228	0.059633404
48	0x3ba9b456	0.0051789684
49	0xbd64d0b7	-0.05586311
50	0xbb199978	-0.0023437422
51	0xbd8cb032	-0.06869544
52	0x3d526b66	0.051371954
53	0x3caefb77	0.021360142
54	0xbd85a91f	-0.06526398
55	0x3ad03705	0.0015885538
56	0x3e2fbc23	0.17161612
57	0xbd86f16f	-0.065890186
58	0x3c5f01fc	0.013611313
59	0xbb997186	-0.0046827225
60	0x3d3ee569	0.0466055
61	0xbd3ba34a	-0.04581002
62	0xbd896329	-0.067083664
63	0x3b754e05	0.0037430536
64	0x3d03d585	0.03218605
65	0xbd354c7b	-0.04426239
66	0x3b62cd76	0.0034607328
67	0x3c888ec5	0.01666964
68	0xbcd9b884	-0.026577242
69	0x3dc33341	0.0953126
70	0xbc326713	-0.010888833
71	0x3a3c1c34	0.00071758335
72	0xbd7c27f6	-0.061561547
73	0x3cc592b7	0.02411781
74	0xbd988e2a	-0.07448991
75	0xbc79cd70	-0.015246734
76	0x3d6cac1d	0.057781328
77	0xbd97181a	-0.07377644
78	0x3d80628a	0.06268795
79	0x3d7194dd	0.058979858
80	0x3d863174	0.06552401
81	0xbc6ff6a4	-0.014646206
82	0xbd3059fd	-0.04305457
83	0xbd8f92ac	-0.07010397
84	0x3da11dd4	0.078670174
85	0x3db80151	0.08984626
86	0xb974a3b9	-0.00023330645
87	0xbcca9e0c	-0.024733566
88	0x3c9d8e45	0.019232878
89	0xbd190285	-0.03735592
90	0xbc2f7eb7	-0.0107113635
91	0xbdb9f236	-0.09079401
92	0xbbbe7e2d	-0.005813381
93	0xbc695bb4	-0.014243055
94	0xbcf10e45	-0.02942575
95	0xbb26cba8	-0.0025450978
96	0x3d708e03	0.058729183
97	0x3dbb53fa	0.09146877
98	0x3a83f491	0.0010067393
99	0x3ce4f7fe	0.027950283
100	0xbda12865	-0.07869033
101	0x3d813431	0.06308783
102	0x3d191195	0.037370283
103	0xbc31a798	-0.01084318
104	0xbd826bfb	-0.06368252
105	0xbd8dcb46	-0.06923537
106	0xbda93189	-0.08261401
107	0xbdac2186	-0.084048316
108	0xbdbccf4e	-0.09219228
109	0x3d1dc332	0.03851623
110	0x3dea333a	0.11435552
111	0xbd7b55b5	-0.061361033
112	0xbdbdee9d	-0.092740275
113	0xbd63ac04	-0.05558397
114	0xbc5dca5a	-0.013537014
115	0xbdb54b61	-0.08852268
116	0xbce80017	-0.028320355
117	0x3d8f62c1	0.07001258
118	0xbdc6b691	-0.097027905
119	0x3d7ee950	0.062234223
120	0x3c680ff2	0.014163958
121	0x3d918f66	0.07107429
122	0xbd4b609e	-0.04965269
123	0xbde0d8f7	-0.10978883
124	0xbdde39b8	-0.10850853
125	0xbbc7a851	-0.006093063
126	0x3ce60456	0.02807824
127	0xbd9326bc	-0.07185122

layers.block_2.layer.0.weight f4 [128, 128]
0	0x3c2f4957	0.010698638
1	0xbbc27352	-0.0059341574
2	0x3da1748c	0.07883558
3	0xbd96cc43	-0.073631786
4	0x3d7b4a53	0.061350178
5	0x3c1cc92f	0.00956945
6	0x3b47f2a5	0.0030509618
7	0xbe06e343	-0.13172631
8	0x3d5dee45	0.05418231
9	0x3cbb60a2	0.022873227
10	0xbdfc8566	-0.12330131
11	0x3d7578bd	0.059929598
12	0x3d5d5eb4	0.054045394
13	0xbd8aae98	-0.06771582
14	0xbdbf8073	-0.093506716
15	0xbd7fc669	-0.062445078
16	0xbd03a71b	-0.032141786
17	0x3b89c192	0.0042039836
18	0x3c189f5d	0.009315339
19	0xbdd9fa5f	-0.106434576
20	0xbcc749bc	-0.024327151
21	0xbcfa5c9b	-0.030561736
22	0x3bebb101	0.0071927314
23	0xbc9b06ca	-0.018924136
24	0xbcb9131e	-0.022592124
25	0x3e186c5e	0.14885089
26	0xbd424686	-0.047430538
27	0xbd192065	-0.03738441
28	0x3da999c0	0.082812786
29	0x3c5a99ab	0.013342301
30	0x3d47e62e	0.0488035
31	0xbd8f298e	-0.06990348
32	0x3c8d45a0	0.017245114
33	0x3dc86258	0.097843826
34	0x3d5a6679	0.05332038
35	0xbca04691	-0.019564899
36	0xbce95d15	-0.028486768
37	0xbda94811	-0.08265699
38	0x3d8e779c	0.069564074
39	0xbdee5e21	-0.116390474
40	0x3d212479	0.039341424
41	0xbda93db1	-0.0826372
42	0xbd75c8fe	-0.060006134
43	0x3d0c9031	0.0343172
44	0x3dad4e0d	0.08462153
45	0x3cfb0cc2	0.030645732
46	0x3a552617	0.0008130981
47	0x3d9db7b6	0.07701056
48	0xbb816b42	-0.0039495537
49	0xbd95ea08	-0.073200285
50	0x3e1eadc6	0.15495977
51	0xbcff3557	-0.031153364
52	0xbddc094d	-0.107439615
53	0xbd22f2ff	-0.03978252
54	0x3d223795	0.03960379
55	0xbcbe1b71	-0.023206444
56	0xbe419769	-0.18905415
57	0x3d85f899	0.06541557
58	0xbcbc0940	-0.02295363
59	0xbd8e5f7b	-0.06951805
60	0xbd498c13	-0.04920585
61	0xbcc0d899	-0.023540782
62	0xbd668571	-0.056279603
63	0xbdc5d1e8	-0.09659177
64	0x3d921f7d	0.07134912
65	0xbd80a033	-0.062805556
66	0xba9b0437	-0.0011826818
67	0xbd3c26a2	-0.04593528
68	0x3d0f79b3	0.03502817
69	0x3d43dd4d	0.04781847
70	0x3d0e1a39	0.034692977
71	0x3d91160e	0.07084285
72	0x3da6203d	0.08111618
73	0xbda9ae9a	-0.08285256
74	0xbd5730d7	-0.05253681
75	0x3de88901	0.113542564
76	0xbbbc2fb3	-0.005742991
77	0xbc709514	-0.0146839805
78	0x3d9e092c	0.07716593
79	0x3d522e9c	0.05131398
80	0xbd078ee9	-0.033095274
81	0x3be4a56f	0.006977729
82	0xbd534c1f	-0.051586267
83	0x3dab4dce	0.083644494
84	0x3dbc8ac3	0.09206154
85	0xbda0639b	-0.07831498
86	0xbdb7dae7	-0.08977299
87	0xbd81f738	-0.06345981
88	0x3c5ef7a2	0.013608845
89	0xbd741064	-0.059585944
90	0xbd39159b	-0.04518662
91	0x3a8559d4	0.0010173866
92	0xbcec147f	-0.028818367
93	0xbd4f64ec	-0.050633356
94	0xbd9d5c19	-0.07683582
95	0x3d241f52	0.040068932
96	0x3e115f7a	0.14196578
97	0xbc2e5c7f	-0.01064217
98	0x3e1c4238	0.15259635
99	0xb9c7fc02	-0.00038143998
100	0x3d3b88b5	0.04578467
101	0x3c57a906	0.013162857
102	0xbd335059	-0.043777797
103	0xbd9a2b72	-0.07527818
104	0x3d180111	0.037110392
105	0x3d82ad73	0.06380739
106	0x3d16dab1	0.036829654
107	0xbda7c172	-0.08191194
108	0xbd16a936	-0.036782466
109	0x3cdc3ba7	0.026883913
110	0x3d8aa86b	0.067704044
111	0x3cf03f17	0.029326959
112	0xbd07d4b3	-0.03316183
113	0x3ce5d29e	0.028054532
114	0x3d194bc3	0.037425768
115	0xbdcd71fa	-0.10031505
116	0x3d005316	0.031329237
117	0x3d526e87	0.05137494
118	0x3d93fd78	0.0722608
119	0x3d8d3a3a	0.068958715
120	0x3c1342be	0.008988081
121	0xbd353ed9	-0.04424939
122	0x3d1b68a0	0.037941575
123	0x3da49d82	0.08037855
124	0xbd620ca3	-0.055187833
125	0x3d53792e	0.051629238
126	0x3e074748	0.13210785
127	0xbceac0d5	-0.028656403
128	0x3d0bc01c	0.034118757
129	0xbd92cc37	-0.07167857
130	0xbc83e2e0	-0.016099393
131	0xbdcf5840	-0.10124254
132	0xbd50cfc2	-0.050979383
133	0xbd6cd700	-0.057822227
134	0x3dcdda4d	0.10051403
135	0xbd6f83ef	-0.05847543
136	0xbd225430	-0.03963107
137	0xbe02a4e9	-0.1275822
138	0x3c3a6c59	0.011378371
139	0x3d9c2dad	0.076258995
140	0xbd432a56	-0.047647797
141	0xbbb04cfb	-0.0053802705
142	0xbda053eb	-0.07828506
143	0xbd6df723	-0.058097016
144	0x3d4c926d	0.04994433
145	0xbdb43828	-0.087997735
146	0x3d2b4dc8	0.041822225
147	0xbc252e1b	-0.010081793
148	0x3d38b26f	0.045092043
149	0xbb8246c8	-0.003975723
150	0xbd65fa99	-0.05614719
151	0xbdf9b38a	-0.121924475
152	0xbcdedc71	-0.027204724
153	0x3da0db6e	0.07854353
154	0x3c2accad	0.010424775
155	0xbdc52928	-0.096269906
156	0x3dbf98e3	0.09355333
157	0x3de5eddd	0.112270094
158	0x3e011664	0.12606198
159	0xbd0d7cc5	-0.034542818
160	0x3dc6d9e2	0.097095266
161	0x3d9a0fd3	0.075225495
162	0xbcccc120	-0.024994433
163	0x3d40158e	0.046895556
164	0xbdea47ca	-0.11439474
165	0xbe428fd7	-0.19000183
166	0x39dbccae	0.00041923433
167	0xbe2a56c5	-0.16634662
168	0x3e083126	0.13299999
169	0x3d5cf5bd	0.05394529
170	0xbe053f20	-0.13012362
171	0xbd80797c	-0.06273171
172	0xbe4440df	-0.19165371
173	0xbdb8c849	-0.09022576
174	0xbd22fb1f	-0.03979027
175	0x3dafb00c	0.085785
176	0x3d987ed9	0.07446069
177	0xbc032778	-0.008005016
178	0x3df9d807	0.12199407
179	0xbbf4e21f	-0.007473245
180	0xbd23e7a9	-0.04001585
181	0xbda0a0d9	-0.07843179
182	0xbd71f447	-0.05907085
183	0xbcedd216	-0.02903084
184	0xbe1c277e	-0.1524944
185	0x3da810e6	0.08206348
186	0xbdd4d1d6	-0.103915855
187	0xbc6cff01	-0.014465095
188	0x3d3f4e90	0.046705782
189	0x3d0712d0	0.032976925
190	0xbdfa37ae	-0.12217651
191	0xbd2a0a12	-0.04151351
192	0x3d41bd65	0.04729976
193	0x3d79afa0	0.060958505
194	0x3d146c35	0.036236007
195	0x3d1b85a4	0.037969247
196	0xbd9ba7a1	-0.07600332
197	0x3dc415d7	0.09574478
198	0xbcb8c71d	-0.022555882
199	0x3b383e7c	0.0028113415
200	0x3dec3444	0.115334064
201	0x3aa9f246	0.001296588
202	0xbd92b64f	-0.07163679
203	0x3dc1e1e1	0.09466911
204	0x3daa3458	0.08310765
205	0x3d766a13	0.060159754
206	0x3d5a0293	0.05322511
207	0x3e1b2485	0.1515065
208	0xbdd2b1d8	-0.10287827
209	0x3dfa770a	0.12229736
210	0x3e0aec27	0.13566647
211	0xbd053120	-0.032517552
212	0x3dc62dc0	0.09676695
213	0xbe7de2d2	-0.24793556
214	0xbdbbc4b0	-0.091683745
215	0x3d67b5ac	0.05656974
216	0xbdea550f	-0.11442005
217	0x3d8d055b	0.06885787
218	0xbda20370	-0.07910812
219	0xbdb3b7c7	-0.08775287
220	0x3da7b427	0.08188658
221	0xbd61c2a0	-0.05511725
222	0x3d535419	0.051593874
223	0x3d99449f	0.074837916
224	0x3dc404eb	0.095712505
225	0xbd15ef1f	-0.036604997
226	0x3d7b0eb1	0.061293308
227	0x370177ef	7.716923e-06
228	0xbd766bf6	-0.060161553
229	0xbd99219a	-0.07477112
230	0x3dc7de7b	0.09759232
231	0x3c9f24af	0.019426672
232	0xbcc31718	-0.023814723
233	0x3d5aabc1	0.053386454
234	0x3da10678	0.07862562
235	0x3dab9add	0.08379147
236	0x3dad5bdb	0.08464786
237	0x3e21a79a	0.15786591
238	0xbd804c91	-0.06264604
239	0x3e037b06	0.12839898
240	0xbc3047d3	-0.010759312
241	0xbaa460b0	-0.0012541022
242	0xbe0076e8	-0.12545359
243	0xbdc72a91	-0.09724916
244	0x3e157932	0.14597014
245	0x3cd7d3c6	0.026346099
246	0x3c254233	0.010086584
247	0x3d35aadf	0.04435241
248	0x3de578eb	0.11204704
249	0x3d9a9987	0.07548814
250	0xbd248110	-0.040162146
251	0xbd70edcb	-0.058820527
252	0xbdd617cf	-0.1045376
253	0x3be156e3	0.006876813
254	0x3dd1db10	0.10246861
255	0xbe209818	-0.15683019

layers.block_2.layer.0.bias f4 [128]
0	0xbc8b07b4	-0.016971447
1	0xbd0360bf	-0.032074686
2	0xbdb3edb2	-0.08785571
3	0x3d90e4c0	0.070748806
4	0xbdbc6321	-0.09198595
5	0x3ca8e4dc	0.020616941
6	0x3d49ef54	0.049300507
7	0x3d168340	0.036746264
8	0xbd97671c	-0.073927134
9	0x3daaa4bf	0.08332204
10	0x3d04ac2f	0.03239077
11	0xbcb49d5b	-0.02204769
12	0xbcfee0c3	-0.031113034
13	0xbda8fac2	-0.08250953
14	0xbd8b396d	-0.067980625
15	0x3d8703c0	0.06592512
16	0xbe0cd256	-0.13752112
17	0xbc56ff9c	-0.013122465
18	0x3c655fbd	0.013999877
19	0x3d3fea6f	0.046854433
20	0xbd3000c0	-0.042969465
21	0xbda0d723	-0.07853534
22	0x3cbdd5c3	0.023173219
23	0x3b6eebf7	0.0036456564
24	0xbdaf1ae9	-0.085500546
25	0x3d8f0e06	0.06985097
26	0x3d8c250d	0.068430044
27	0x3d84d191	0.06485284
28	0xbd89e4d9	-0.06733102
29	0x3dbd91bf	0.092563145
30	0xbdc15346	-0.09439711
31	0x3c4a6e4c	0.012355398
32	0xbd72c4a8	-0.059269577
33	0xbce050d9	-0.027382301
34	0x3d86d2cc	0.06583175
35	0x3d198d4d	0.03748827
36	0x3b9639ec	0.0045845415
37	0xbc69c4bf	-0.014268099
38	0xbda3993c	-0.079882115
39	0xbd267f16	-0.040648542
40	0x3c01a2b4	0.007912327
41	0x3c835497	0.016031547
42	0x3d1c92d6	0.03822597
43	0xbd8655b4	-0.06559315
44	0xbd06c043	-0.0328982
45	0x3d3bacf5	0.04581924
46	0x3da86181	0.082217224
47	0x3db38025	0.08764676
48	0x3d74c781	0.059760574
49	0x3da33ff9	0.07971186
50	0x3d9d1799	0.076705165
51	0xbc2f98df	-0.0107176
52	0xbb6f2985	-0.0036493253
53	0xbc9c8338	-0.019105539
54	0x3d5509e0	0.05201137
55	0xbdf685bf	-0.12037229
56	0x3d0a72be	0.033800833
57	0x3caa0c49	0.020757811
58	0xbd58b2a2	-0.052904733
59	0x3cd7fa41	0.026364448
60	0xbdba49a9	-0.09096081
61	0xbd951b48	-0.07280594
62	0xbd74d12f	-0.059769806
63	0x3cb4497b	0.022007694
64	0xbcc673ed	-0.0242252
65	0xbb30ef6b	-0.0026998173
66	0xbdb211a5	-0.08694772
67	0x3d036e57	0.03208765
68	0x3d082bba	0.033244826
69	0x3cf9233b	0.030412307
70	0xbd28d151	-0.041215245
71	0xbbf4d7ad	-0.0074719996
72	0xbcfb34f0	-0.030664891
73	0x3db8b64d	0.09019146
74	0x3dad22cb	0.08453902
75	0xbd3b34e3	-0.045704734
76	0x3c8701b7	0.01648031
77	0xbd0cc54e	-0.034367852
78	0x3dace9c1	0.084430225
79	0x3cffdc9c	0.031233124
80	0xbc519ce5	-0.012793754
81	0x3d0baad4	0.03409846
82	0x3dbfdb6b	0.093680225
83	0xbd15642c	-0.036472484
84	0x3d9aa8ff	0.07551765
85	0x3d77d4db	0.06050573
86	0xbcd0bd33	-0.025480842
87	0x3d778b8d	0.06043582
88	0x3b2e8470	0.0026629232
89	0x3d8d3ebd	0.06896732
90	0xbdeca2ef	-0.115545146
91	0xbc4ebab7	-0.0126177585
92	0x3cd19de5	0.025587985
93	0x3ccff237	0.025384052
94	0xbcef8857	-0.029239817
95	0xbd7a12fb	-0.061053257
96	0xbdc1d385	-0.09464172
97	0xbcd11a8f	-0.02552536
98	0xbdc84a9c	-0.097798556
99	0xbdaa45bc	-0.08314082
100	0xbc3df530	-0.011594102
101	0xbd709419	-0.058734987
102	0x3d0cb276	0.03434988
103	0xbde16da5	-0.11007241
104	0xbd81ba14	-0.0633432
105	0xbab59d7f	-0.0013856142
106	0xbc9407a6	-0.018070053
107	0x3d9d9ccd	0.07695923
108	0x3cc4d5cd	0.02402773
109	0x3c5d58e7	0.0135099655
110	0x3c2cfcda	0.010558331
111	0xbc50e07a	-0.012748832
112	0x3cf35b2e	0.029706564
113	0xbd33296e	-0.043740682
114	0x3db9209d	0.090394236
115	0xbd11c39e	-0.035586946
116	0x3ba2e74c	0.0049714204
117	0xbd78f51a	-0.060780622
118	0xbd7131ea	-0.058885492
119	0x3cdd9e77	0.027053101
120	0xbd9bfb2b	-0.07616266
121	0x3d25af4e	0.040450387
122	0x3ceb6609	0.028735178
123	0xbdafe55f	-0.08588671
124	0x3d01df51	0.03170711
125	0x3d3c9b32	0.046046443
126	0xbd873895	-0.06602589
127	0x3da75f6d	0.08172498

layers.block_3.layer.0.weight f4 [128, 128]
0	0xbd15ad26	-0.03654208
1	0x3daa4bd0	0.08315241
2	0xbe2c062b	-0.16799228
3	0x3d80965f	0.06278681
4	0x3d093c67	0.03350487
5	0x3e37ae94	0.1793769
6	0x3beaac38	0.0071616434
7	0x3cc857a2	0.02445585
8	0x3db440b4	0.08801404
9	0xbbc3423f	-0.005958825
10	0x3ca9b849	0.020717757
11	0xbc25da33	-0.0101228235
12	0x3d8add9e	0.067805514
13	0x3d6ad58c	0.05733256
14	0x3d0d9834	0.03456898
15	0x3bee2d97	0.0072686183
16	0x3c0db5fe	0.008649347
17	0x3da05353	0.07828393
18	0xbdcf6f75	-0.101286806
19	0x3c9de747	0.01927532
20	0x3bd11722	0.0063809315
21	0x3cc5c53d	0.024141902
22	0x3cd39085	0.025825748
23	0xbe1c2c32	-0.15251234
24	0x3b070402	0.0020601754
25	0x3dc71eca	0.097226694
26	0x3d0b197d	0.033959854
27	0x3e3c8346	0.18409452
28	0x3db7561f	0.08951973
29	0xbd414547	-0.04718521
30	0xbd390821	-0.045173768
31	0x3e34ea52	0.17667511
32	0x3e4e0426	0.2011877
33	0xbd95db97	-0.07317274
34	0x3dae9fe6	0.08526592
35	0xbd15fed4	-0.036619976
36	0x3bfff7a5	0.007811504
37	0x3d7349a4	0.0593964
38	0x3dde8e61	0.10867
39	0xbd185f52	-0.03720028
40	0x3bf0b9e5	0.007346379
41	0xbd4f7b05	-0.05065443
42	0xbdcde8a8	-0.10054141
43	0x3ce108bc	0.027469985
44	0xbd89e7b3	-0.06733646
45	0x3da315c7	0.07963138
46	0x3d778f01	0.060439114
47	0x3da9da07	0.082935385
48	0x3cf2a404	0.029619224
49	0xbd112e7e	-0.03544473
50	0x3e3bf9e8	0.1835705
51	0xbd321503	-0.04347707
52	0xbdfc1b2d	-0.12309871
53	0xbdbbba8c	-0.0916644
54	0x3d826cdd	0.0636842
55	0x3d8a8a93	0.06764712
56	0x3cc219a0	0.02369386
57	0xbd12e05c	-0.035858497
58	0x3d1455b2	0.036214538
59	0x3d5420f4	0.05178924
60	0x3d03f18c	0.03221278
61	0x3d821020	0.06350732
62	0x3d39778b	0.04528002
63	0xbcc2264d	-0.023699904
64	0xbdcb95db	-0.09940692
65	0x3d553f14	0.05206211
66	0xbd0b12b4	-0.033953384
67	0xbda8a743	-0.08235028
68	0x3d153a0e	0.03643232
69	0xbd7b817e	-0.06140279
70	0x3c6075a4	0.013699923
71	0xbd3da1ca	-0.046296872
72	0xbdeac2a7	-0.11462908
73	0x3d68bd3a	0.056821086
74	0x3e493524	0.19649178
75	0xbd7264d1	-0.059178177
76	0xbd10105f	-0.035171863
77	0xbe3fddbc	-0.18736929
78	0x3d02647f	0.03183412
79	0x3e35bd31	0.17747952
80	0x3d906ff1	0.07052601
81	0xbe1ae10a	-0.15124908
82	0x3c7471bd	0.014919695
83	0x3df1a991	0.1179992
84	0xbd404533	-0.046940994
85	0x3d447cd8	0.047970623
86	0x3cc6d938	0.0242735
87	0x3c702b1e	0.014658717
88	0x3d703964	0.058648482
89	0xb946699b	-0.00018922093
90	0x3d3decee	0.046368532
91	0xbcb9bd45	-0.022673259
92	0x3d8ff37e	0.07028864
93	0x3d9cd34c	0.07657489
94	0x3dc77713	0.097395085
95	0xbcfc14cd	-0.030771637
96	0xbd01e64d	-0.031713773
97	0xbe0f4ff2	-0.1399534
98	0x3db07204	0.08615497
99	0xbe214f08	-0.15752804
100	0xbd901d00	-0.07036781
101	0x3db88a58	0.09010762
102	0xbd83523a	-0.06412168
103	0xbdcb807a	-0.09936614
104	0xbcfb8ef8	-0.030707821
105	0x3dd5476f	0.104140155
106	0xbd1fb0a8	-0.038986832
107	0x3c43f39b	0.011959936
108	0xbc7e1276	-0.015507331
109	0x3df5a9cd	0.119952776
110	0xbd3a778a	-0.045524158
111	0x3d03f35e	0.032214515
112	0xbe42baac	-0.19016522
113	0xbc2fb077	-0.010723225
114	0xbd861889	-0.065476485
115	0x3c8b4d00	0.01700449
116	0x3d573a54	0.05254586
117	0xbdcf6545	-0.101267375
118	0x3d1a02a1	0.037600163
119	0xbe0cfbd0	-0.13767934
120	0x3cdc17c0	0.026866794
121	0xbd7210d7	-0.05909809
122	0xbddadef5	-0.10687057
123	0xbd66d0df	-0.05635154
124	0x3c229fcd	0.009925795
125	0x3dc26bd4	0.09493223
126	0xbcfc79bc	-0.030819766
127	0xbd204d85	-0.03913643
128	0x3d8be5ca	0.06830938
129	0x3d6e6df8	0.058210343
130	0x3cbb964e	0.02289882
131	0xbc90b713	-0.017665422
132	0xbd8253c0	-0.0636363
133	0xbd525d48	-0.05135849
134	0xbd7a0eb0	-0.061049163
135	0xbc65745c	-0.014004793
136	0xbd8caf3d	-0.068693615
137	0x3dc0a342	0.09406139
138	0xba2b185c	-0.0006526762
139	0x3d279ee3	0.04092301
140	0xbdccff66	-0.10009651
141	0x3cba2a83	0.02272535
142	0xbd2648fb	-0.040596943
143	0x3ca674d9	0.02031939
144	0xbddfde79	-0.10931105
145	0xbdc30094	-0.09521595
146	0xbc047e46	-0.008086747
147	0xbddb5b16	-0.10710733
148	0xbe00a869	-0.12564243
149	0x3d3ddfff	0.046356197
150	0x3d852ab5	0.06502286
151	0x3d88823b	0.066654645
152	0x3d77241e	0.06033718
153	0x3c79c689	0.015245088
154	0xbb2041bd	-0.0024453246
155	0x3dcda0d9	0.10040445
156	0xbd885a83	-0.06657889
157	0x3da1726f	0.078831546
158	0x3d757715	0.05992802
159	0xbce5d8f2	-0.02805755
160	0xbd15c226	-0.036562108
161	0x3d9ceb73	0.07662096
162	0xbd63db61	-0.055629138
163	0x3d7c286f	0.061561998
164	0xbd8bd058	-0.06826848
165	0x3da83546	0.08213286
166	0xbd3afe11	-0.045652453
167	0xbd9dcad2	-0.077047005
168	0xbd42a341	-0.047518972
169	0xbc58dd05	-0.013236289
170	0x3d87ffc7	0.066405825
171	0xbc9bbeac	-0.019011818
172	0x3c5298e4	0.012853835
173	0x3d90bf96	0.07067792
174	0xbc166801	-0.00918007
175	0x3c5028b1	0.012705014
176	0x3cf0aedd	0.029380256
177	0x3c07078a	0.008241544
178	0xbcbeb3a0	-0.023279011
179	0x3dc341e6	0.095340535
180	0xbe4a6328	-0.19764388
181	0xbd932ad7	-0.071859054
182	0x3cbda837	0.0231515
183	0xbdab4e7c	-0.08364579
184	0x3ced8135	0.028992275
185	0x3b5bf707	0.0033563988
186	0x3e679d73	0.22618656
187	0xbaac31f8	-0.001313745
188	0x3aa0a774	0.0012256936
189	0x3d8d2221	0.06891275
190	0xbcca9f4d	-0.024734164
191	0xbc7deb44	-0.015497986
192	0xbdcede68	-0.101010144
193	0xbcb0e198	-0.021591946
194	0xbd448372	-0.04797692
195	0x3ca10b56	0.019658726
196	0x3e5e52a6	0.21711215
197	0x3cde26b7	0.02711807
198	0x3c1910ee	0.009342415
199	0x3cec9c85	0.028883228
200	0x3d23f152	0.040025063
201	0xbd9bee92	-0.07613863
202	0x3c8b80ef	0.017029254
203	0xbda3cdf8	-0.0799827
204	0x3dadff20	0.08495927
205	0xbd50934d	-0.050921727
206	0xbd512ab4	-0.051066115
207	0x3da1879d	0.07887194
208	0x3d9b23d9	0.07575197
209	0x3c8387fe	0.016056057
210	0x3b222ae3	0.00247448
211	0xbc101140	-0.008793175
212	0xbc5a61f2	-0.013329016
213	0xbd4d4503	-0.050114643
214	0x3d102803	0.03519441
215	0xbc6f3321	-0.014599592
216	0x3e2644d5	0.16237195
217	0x3a59ff66	0.00083159504
218	0x3dc180f4	0.09448424
219	0xbda8f903	-0.0825062
220	0x3c937566	0.018000316
221	0xbcf92e44	-0.030417569
222	0xbd2e823c	-0.04260467
223	0xbda66404	-0.08124545
224	0xbd7a691b	-0.061135393
225	0xbd849c51	-0.064751275
226	0x3b66713f	0.0035162715
227	0x3ddad4bb	0.10685106
228	0x3cb05648	0.021525517
229	0x3e06b2ae	0.13154098
230	0xbcc17df7	-0.023619635
231	0xbe6aa33a	-0.22913828
232	0x3d3512ce	0.044207387
233	0x3dabeeb2	0.08395137
234	0x3d2388aa	0.039925255
235	0x3d9a24ad	0.075265266
236	0x3d36a082	0.044586666
237	0x3e046ebd	0.12932868
238	0xbdd2d79d	-0.10295031
239	0xbd7ef9a9	-0.062249813
240	0xbd6b1efe	-0.057402603
241	0x3e076b6c	0.13224572
242	0x3d0d3aa9	0.03447977
243	0x3dd1dc59	0.10247106
244	0xbd53efdd	-0.051742423
245	0xbe08b424	-0.13349968
246	0xbdc81cdc	-0.097711295
247	0xbe508f4b	-0.20367162
248	0x3d6b42b3	0.057436656
249	0x3d7cd215	0.061723787
250	0xbdc30f3b	-0.09524389
251	0x3d986a2d	0.074421264
252	0xbd965026	-0.07339506
253	0x3c4a798b	0.01235808
254	0x3cbcfe06	0.023070347
255	0x3d7dd2cd	0.061968613

layers.block_3.layer.0.bias f4 [128]
0	0x3d5170b7	0.051132884
1	0x3d8ffd99	0.07030792
2	0x3d9047cf	0.070449464
3	0x3c9503ef	0.018190352
4	0x3d94c863	0.07264783
5	0xbd4a7c7b	-0.04943512
6	0x3bb7c27c	0.005607901
7	0xbd039407	-0.03212359
8	0xbd8e959a	-0.06962128
9	0xbd35cf16	-0.044386946
10	0x3daae20e	0.08343898
11	0xbd00e1f7	-0.031465497
12	0xbd7acab6	-0.061228476
13	0xbe08dc90	-0.13365388
14	0x3cb6de71	0.022322865
15	0xbd78fab2	-0.060785957
16	0xbdd1c205	-0.102420844
17	0x3dbc341f	0.09189629
18	0xbb24b6e7	-0.0025133432
19	0xbd8ec7a5	-0.06971673
20	0x3d8d73cd	0.06906853
21	0xbd9ac98b	-0.075579725
22	0x3d15018b	0.036378425
23	0xbc096d7d	-0.00838792
24	0xbd5b7037	-0.053573813
25	0xbd46af49	-0.04850701
26	0x3d0ffec6	0.03515508
27	0x3c8845a6	0.016634773
28	0xbc11ecba	-0.008906538
29	0x3d86eca6	0.06588106
30	0xbc15f422	-0.009152444
31	0xbd8104bf	-0.06299733
32	0xbdb68263	-0.08911588
33	0xbd420f66	-0.047377966
34	0x3cd3072f	0.025760261
35	0xbd533e82	-0.051573284
36	0x3d22347f	0.039600845
37	0xbdbd2eab	-0.09237417
38	0x3d617e62	0.05505217
39	0xbd7976cd	-0.060904313
40	0xbd5be0a7	-0.053681042
41	0xbd327f78	-0.043578595
42	0xbcfb6d95	-0.030691901
43	0x3d2c56ea	0.042075075
44	0x3d6a3d41	0.057187323
45	0x3da5873e	0.08082436
46	0xbd5a85c4	-0.053350225
47	0x3d22ec41	0.03977609
48	0x3da3f0cd	0.080049135
49	0x3dbad43a	0.0912251
50	0xbd76a359	-0.060214374
51	0x3dd05d10	0.10174
52	0x3d879912	0.06620993
53	0x3ca291bb	0.01984488
54	0x3db7a87c	0.08967683
55	0x3d16ca07	0.036813762
56	0xbcb970d6	-0.022636812
57	0xbd2805bf	-0.041021105
58	0xbdcf89d8	-0.101337135
59	0xbbe1ff0f	-0.0068968604
60	0xbd6c12cd	-0.057635117
61	0x3ca67b8f	0.02032259
62	0xbd958f2f	-0.07302701
63	0x3ac77c5f	0.0015219561
64	0xbd6ea036	-0.058258258
65	0x3a2ffde4	0.0006713553
66	0xbd0946ed	-0.033514906
67	0x3d15031f	0.03637993
68	0xbd21bc82	-0.039486416
69	0x3d042121	0.032258157
70	0xbd977bb9	-0.07396645
71	0x3dcdcea0	0.10049176
72	0x3d9bb263	0.07602384
73	0x3d830685	0.06397728
74	0xbd5de836	-0.05417653
75	0xbcbaa92c	-0.022785746
76	0x3d2d708f	0.042343672
77	0x3d9d378c	0.0767661
78	0xbd270469	-0.04077569
79	0x3d390207	0.04516795
80	0x3cbd87b1	0.023135992
81	0xbd8a26e7	-0.06745701
82	0xbd70ddda	-0.058805324
83	0xbd141d92	-0.036161013
84	0x3dd6d95c	0.10490677
85	0x3d3df27e	0.046373837
86	0x3d148d70	0.036267698
87	0x3c8b0381	0.016969444
88	0xbda05bf3	-0.07830038
89	0x3cbe9f43	0.023269301
90	0x3c64da89	0.0139681185
91	0xbc35e30f	-0.011101498
92	0xbc2338f4	-0.009962309
93	0x3d3f562e	0.046713047
94	0x3a0c46b3	0.0005351111
95	0xbd66345f	-0.05620229
96	0xbd234b2f	-0.039866623
97	0x3c606088	0.01369489
98	0xbd22c0f6	-0.039734803
99	0x3d052c3f	0.0325129
100	0xbc42d9e2	-0.011892768
101	0x3d9938a9	0.0748151
102	0x3c7ca4d0	0.015420154
103	0xbcd63db1	-0.026152464
104	0x3dae047d	0.0849695
105	0x3da5ff95	0.08105389
106	0x3d86e539	0.065866895
107	0x3d374b2b	0.04474942
108	0x3c94bf32	0.018157575
109	0x3d16a893	0.03678186
110	0x3c54f1bd	0.012997088
111	0xbd335ba4	-0.043788567
112	0x3da327a4	0.07966545
113	0xbc037ebc	-0.008025821
114	0xbd635687	-0.05550244
115	0xbda3601d	-0.079773165
116	0x3d24abba	0.040202834
117	0x3d38afe6	0.045089625
118	0x3de6d763	0.112715505
119	0xbd3c9a47	-0.046045568
120	0xbd13d6f7	-0.03609368
121	0xbd81abc4	-0.0633159
122	0xbacc6f72	-0.0015597178
123	0xbd1657da	-0.036704876
124	0x3d9654d5	0.07340399
125	0x3c0c5954	0.008566219
126	0xbd5096c8	-0.050925046
127	0xbd09ce1d	-0.03364383

layers.output.weight f4 [2, 128]
0	0x3f3ff66e	0.74985397
1	0x3eab4b1f	0.3345575
2	0x3de9432e	0.11389767
3	0xbe1fc111	-0.15600993
4	0x3e9c42e5	0.30519786
5	0x3f0267bc	0.50939536
6	0xbf232449	-0.6372724
7	0x3ad9c53f	0.001661457
8	0xbe98036d	-0.29690114
9	0x3dda6b7d	0.10665033
10	0x3e8886a2	0.26665217
11	0xbe5253e4	-0.20539814
12	0x3e29d1a5	0.1658388
13	0xbf4dcf22	-0.80394185
14	0x3e9496a1	0.2902117
15	0xbe67e6a2	-0.22646573
16	0x3f40393f	0.7508735
17	0xbd53cb7a	-0.051707722
18	0x3ea28217	0.31739876
19	0xbda6a827	-0.08137541
20	0xbe1c7d01	-0.1528206
21	0x3f147d84	0.5800402
22	0x3dc0b476	0.0940942
23	0x3f0fbdc4	0.56148934
24	0xbe548340	-0.20753193
25	0xbe105fe1	-0.14099075
26	0x3db33c0f	0.0875169
27	0x3dff8a82	0.1247759
28	0xbdd4fefa	-0.104001954
29	0xbd95a1e8	-0.07306272
30	0xbd0ec4bc	-0.03485559
31	0x3f058260	0.5215206
32	0xbda7f726	-0.08201437
33	0xbe9409fc	-0.28913867
34	0x3e2548f3	0.16141109
35	0xbd251e0e	-0.040311866
36	0xbe1a62fc	-0.15076822
37	0x3ddedc48	0.10881859
38	0xbe27ce18	-0.16387212
39	0xbf393d58	-0.7235923
40	0xbd50d745	-0.050986547
41	0x3e022bee	0.1271207
42	0xbf3fe636	-0.7496065
43	0xbde2af40	-0.110685825
44	0xbdd48256	-0.10376422
45	0x3e23e1a1	0.1600404
46	0x3e62f505	0.2216378
47	0x3d64099c	0.055673227
48	0x3f1a4160	0.60256004
49	0x3df64b43	0.12026074
50	0x3d81fa99	0.06346626
51	0x3e6ffe03	0.23436742
52	0x3ee9cd4c	0.45664442
53	0x3de765b7	0.112986974
54	0xbd7acf49	-0.06123284
55	0xbe8c1ce5	-0.27365795
56	0xbf138ad0	-0.57633686
57	0x3d875a0a	0.066089705
58	0x3eb05499	0.34439543
59	0x3d00b09f	0.03141844
60	0xbe3594bd	-0.1773252
61	0x3f12050e	0.5703896
62	0xbf7ee14c	-0.99562526
63	0x3e49d003	0.19708256
64	0xbe4843ad	-0.19557066
65	0x3edde5eb	0.43339476
66	0xbdd4f41c	-0.10398123
67	0x3e1d2eff	0.15349959
68	0x3dde5e81	0.10857869
69	0x3ee0d8eb	0.43915495
70	0xbe285bce	-0.1644127
71	0xbf597981	-0.84951025
72	0x3d88b056	0.066742584
73	0xbdf59637	-0.11991542
74	0xbe0ef741	-0.13961507
75	0xbf5298f4	-0.8226464
76	0xbe241b08	-0.16025937
77	0xbb0ecd10	-0.0021789707
78	0x3d88dc3e	0.06682633
79	0x3d64be7d	0.055845726
80	0x3f3b313e	0.7312201
81	0x3e9e50c8	0.30921006
82	0xbe20de7d	-0.15709873
83	0x3e88e5d1	0.26737836
84	0xbd7ba41d	-0.061435807
85	0xbd1715aa	-0.036885895
86	0x3dfaa1ab	0.12237867
87	0x3ebb9d46	0.36643428
88	0xbdc00297	-0.09375494
89	0xbd9be4d2	-0.076120034
90	0xbdef2663	-0.116772436
91	0x3d257fc9	0.04040507
92	0xbe45e0bb	-0.19324009
93	0x3e2dee7f	0.1698551
94	0x3dd18fac	0.10232481
95	0x3d84e11f	0.06488251
96	0xbdfdb7c4	-0.12388566
97	0xbee955ab	-0.45573172
98	0x3dc2179b	0.09477159
99	0x3debbfdb	0.11511203
100	0x3b26ac75	0.0025432382
101	0xbf12b4c2	-0.57307065
102	0xbe107cc2	-0.14110091
103	0xbcb2b302	-0.021813873
104	0x3d7d3619	0.06181917
105	0xbc563ecf	-0.013076498
106	0xbe5ce41a	-0.21571389
107	0x3e6f3304	0.23359305
108	0xbf1b13c7	-0.6057705
109	0xbe3b460c	-0.1828844
110	0x3dc6005d	0.09668038
111	0x3c2aef8c	0.010433089
112	0xbf580a7a	-0.84390986
113	0xbe9d1595	-0.30680528
114	0x3e264821	0.16238452
115	0x3f0904f7	0.535232
116	0xbf75db2e	-0.96037567
117	0xbccdb666	-0.025111388
118	0xbdd1a5f1	-0.10236729
119	0x3df1948c	0.11795911
120	0xbd6d615a	-0.05795417
121	0x3f205d2c	0.6264217
122	0x3f130be3	0.5744001
123	0x3e125e82	0.14293864
124	0x3c0a066b	0.008424382
125	0xbe7f42f0	-0.24927878
126	0xbee1fad8	-0.4413669
127	0xbf17c2a1	-0.59281355
128	0xbf060203	-0.5234682
129	0x3e2b41cf	0.16724323
130	0x3dcb2c7e	0.099205956
131	0x3e6c8646	0.23098096
132	0xbf090bb0	-0.5353346
133	0xbe40865d	-0.18801256
134	0xbea323cd	-0.3186325
135	0x3ea2e43d	0.31814757
136	0x3e04a2fc	0.12952799
137	0x3e27f0ea	0.16400495
138	0x3d0c0262	0.03418196
139	0xbe1121d5	-0.14173062
140	0x3d50882d	0.050911117
141	0xbbb1e483	-0.005428852
142	0xbd920e0a	-0.07131584
143	0x3ee644d3	0.44974384
144	0xbe334628	-0.17507231
145	0xbd53281c	-0.051551923
146	0xbf07ef65	-0.5309966
147	0xbe331c38	-0.17491233
148	0xbb9ea76c	-0.0048417356
149	0x3e2ae755	0.16689809
150	0x3dd97e17	0.10619753
151	0xbe1fe520	-0.15614748
152	0xbd21704b	-0.03941373
153	0xbd244666	-0.0401062
154	0xbf1e37d4	-0.61803937
155	0x3e852967	0.2600815
156	0xbcb99818	-0.022655532
157	0xbdd58122	-0.10425021
158	0x3e17ae05	0.14812477
159	0x3e1d9a3a	0.15390864
160	0xbe0919d4	-0.13388759
161	0xbe42fc66	-0.19041595
162	0x3d0e8bda	0.03480134
163	0x3dc359e5	0.095386304
164	0xbd895ba3	-0.067069314
165	0xbebc811f	-0.36817262
166	0x3ed409cc	0.41413724
167	0x3e96ebda	0.29476815
168	0x3e163764	0.14669567
169	0xbe95fb13	-0.29293117
170	0x3e1f296d	0.15543146
171	0xbd44cad2	-0.048044987
172	0xbe44b702	-0.19210437
173	0x3dbc49c0	0.09193754
174	0x3e4297b8	0.19003189
175	0x3e4bb3bb	0.1989278
176	0xbf6cd307	-0.925095
177	0x3e2c1167	0.16803513
178	0xbf3af3d7	-0.7302832
179	0xbe63d2a2	-0.22248319
180	0xbf01b2af	-0.50663275
181	0x3d525a75	0.051355798
182	0xbe00d934	-0.12582856
183	0x3e0ebc90	0.13939118
184	0x3e38a7cf	0.18032764
185	0x3d734975	0.059396226
186	0xbf3bd925	-0.7337821
187	0xbd9b5458	-0.07584447
188	0x3d70d6c5	0.05879857
189	0x3e37abbc	0.17936605
190	0x3dbd8686	0.09254174
191	0xbca373e5	-0.019952724
192	0x3e3ed825	0.1863714
193	0xbf08a881	-0.53382117
194	0x3db46cb3	0.08809795
195	0x3d187605	0.037221927
196	0xbe2c8f21	-0.16851474
197	0xbd4adfda	-0.049529888
198	0xbc68025a	-0.014160717
199	0xbcee0b38	-0.029058084
200	0x3e04c706	0.12966546
201	0xbda8bb97	-0.08238905
202	0xbd89c0c5	-0.06726221
203	0x3ef528dc	0.47882736
204	0xbd8ff3f1	-0.0702895
205	0xbe1eedc4	-0.15520388
206	0x3e581a23	0.2110372
207	0x3dfcbe92	0.12341036
208	0xbf03c1f9	-0.51467854
209	0xbecf72f7	-0.405174
210	0xbcfff5fd	-0.031245226
211	0x3d7839a2	0.060601838
212	0x3ee10ef3	0.43956718
213	0xbc7cc3d0	-0.015427545
214	0x3d591b58	0.053004593
215	0xbf0a4747	-0.5401501
216	0xbe8594ec	-0.2609018
217	0x3d753ec8	0.059874326
218	0x3eb81b46	0.35958308
219	0xbecc0ab2	-0.3985191
220	0xbdedf0c1	-0.11618186
221	0x3e4934f2	0.19649103
222	0x3e2e235d	0.17005678
223	0x3e94d127	0.2906582
224	0x3eb9e921	0.36310676
225	0x3e4bbd2e	0.19896385
226	0x3e3d48f5	0.18484862
227	0x3e353f01	0.17699815
228	0x3ea0fe7a	0.3144415
229	0xbe88a6a2	-0.2668963
230	0xbe6f5b12	-0.23374584
231	0x3cd2a7ea	0.025714833
232	0xbed6afb7	-0.41930935
233	0xbe8eb98c	-0.27875936
234	0x3f34d22f	0.70633215
235	0xbd1a9863	-0.037742984
236	0x3f337f3d	0.70116025
237	0xbc4fd68b	-0.012685428
238	0xbf46a138	-0.7758975
239	0xbdd3338f	-0.103125684
240	0x3eaf2dab	0.3421453
241	0x3f236d93	0.6383907
242	0x3e0553df	0.13020276
243	0xbe5a6a97	-0.21329723
244	0xbe9aea07	-0.30256674
245	0xbe79a45b	-0.24379103
246	0x3e398389	0.18116583
247	0x3d0d4c3a	0.034496523
248	0x3e3de20e	0.18543264
249	0xbd12559a	-0.035726167
250	0xbf573b0d	-0.8407448
251	0xbe01f1da	-0.12689915
252	0xbf2d7c2f	-0.67767614
253	0x3c75db55	0.015005906
254	0x3eccca40	0.39998055
255	0x3f4c117f	0.79714197

layers.output.bias f4 [2]
0	0x3de94558	0.113901794
1	0x3c487a06	0.012236124
